torch_model_100.pt (torch, 749362 bytes, 11 tensors)

weight f4 [32, 1, 3, 3]
00000000: 009d b3bd ec22 98be 12dd dfbd edff 543d
00000010: 6f55 f7bd d21b 50be 33a5 79bd 135e aa3e
00000020: 51ea ef3c 3411 423d 1f46 85be f0db 7fbe
00000030: 4583 643e d6ac 66be ecb1 373e a73f 24be
00000040: 2cfe c5bd 1b36 643e ad73 7d3e 587e 013e
00000050: 83d6 9f3e 060c 8ebe bd66 42bd 0d24 8cbc
00000060: 6c61 813e 8bf6 823c 4542 f33c b0a3 8fbd
00000070: 4b07 8c3e a5d9 f73d 8d23 a6be 8f2d 35be
00000080: 08ed adbe 355b 073e e359 10be 5956 2b3e
00000090: fb24 d13d e819 93bd 2905 1e3d 54ac 6dbe
000000a0: 7e6e fabd 6329 4dbe 7665 f6bd a948 1e3e
000000b0: 10f0 e23d 251f 26be 2f66 82bd e883 70bd
000000c0: 7ee3 a1be 14c1 2b3d 6dee af3d 489d b93d
000000d0: f171 c6bd 5e12 413e 214f 7dbe d8c3 d43d
000000e0: 5557 bc3d 6411 a1bd e804 45bd af0e c03d
000000f0: 3bc2 613e 3002 95be 3be6 983e 10a0 6a3e
00000100: ecac 12be e0c8 74be f4a4 ecbd 4c55 803e
00000110: 3511 b1bd 742c bfbd 624f 19bd 6703 133e
00000120: d39d 673e 2c55 01be d440 863e 94a7 88bd
00000130: f3d5 113e 0d60 0abd de52 8b3e 7909 32bd
00000140: bc56 77be e031 6a3e 6b1f d33d ca72 88be
00000150: d95d 1a3e 93be 1d3d 67ec 5e3e 208c 84be
00000160: 2d48 3cbe 7b84 9ebe 13d4 c0bd 8c17 79bd
00000170: 6f05 033e 216f abba 969e 12be e08b a9bd
00000180: e202 063d 306f 42be 531d d83d cad9 69bc
00000190: 6c90 2cbd 5a09 a6be 8648 0ebd 169f bfbc
000001a0: 8bbb 0e3e 07ea 193e ee05 7e3e cd49 37be
000001b0: d488 7cbe fb73 8e3e ae13 ea3d 79b6 783e
000001c0: f500 8f3e 82db 67be 6c2e 803e 5d09 d43d
000001d0: 29d2 983d 44b4 31bd 3390 c03d a237 a4be
000001e0: 3ce6 6c3e 3500 3a3e 0671 59bd a74d a3be
000001f0: f6c1 5bbd f68d 8f3d 1f2e c9be 2b28 9aba
00000200: 69b6 283e f0b2 7abe 85ed 6e3e efa3 b53d
00000210: 5cf2 873d 5a07 1cbe 9697 493e d4da bbbd
00000220: 39a5 55be 31f7 76bc a7b6 37be f62e 8f3e
00000230: 04e4 073c 5774 84be eeb6 fbbd 0f48 83be
00000240: 838f 8e3b 7a28 7ebd 9248 a73e 14dd c33d
00000250: d556 883e 7bae 01be a149 8cbe 8d51 8ebe
00000260: 99e1 063d 91a4 50be 6eff 48bc 4db9 61bd
00000270: 2810 853e e120 97be c6c9 af3d ad0f a63d
00000280: cc5c d9bd 06df 85be 9d58 78be 0d7c 713d
00000290: 14d3 d43d 2984 903e b182 5fba a5ad 97be
000002a0: 756f 91be b8f2 193d 1dd1 21bc b7d6 6e3d
000002b0: 11b5 543e 5f3f 7abe 19ed 603e 74b5 7fbb
000002c0: e7ed 94be c5e7 3a3e c70d f83d 693c a7be
000002d0: 333e a93e c0aa 17be 35a7 143e 4b71 35be
000002e0: 6486 3d3d 9596 14be 617d 99be 4016 3cbe
000002f0: db94 15be 7168 5b3e 3530 aebe c737 103e
00000300: 5b68 25be aabe a5bd 2773 473e 4d78 663e
00000310: f15d 403e a111 abbc 8f8b e43c 0057 60be
00000320: 98e0 4d3d 1c75 8d3d ea6a cabe 1f64 fe3d
00000330: 188d 6a3c 4924 383e 8700 cabd c080 08be
00000340: 033b 063e e965 d8bd 8211 863e badf f8bd
00000350: ac4a 923e 08d6 07bc abdd aabe 344e 16bc
00000360: c9dd 603e c984 913e 0c6a 203e 7cbf f73d
00000370: 470c fbbc 131b 333e beb6 5f3e 9338 24bd
00000380: 2689 21bd 2cf8 09be af95 7fbe 4423 5a3d
00000390: b982 933d 7799 0b3e 85ca 64be 8e8a 5a3e
000003a0: 94d2 f6bd d70b 7c3d cea6 f13c 39e2 673e
000003b0: 7453 073d 83f6 dcbd d768 1abe 0aad 763e
000003c0: 27c3 9a3e 9aa0 173e d0e1 873e a4c3 4dbe
000003d0: c029 4c3e 7829 9fbe b4c2 85be bf04 92be
000003e0: 5360 773e fc48 1c3e 9dfc 8bbe 7ff2 593e
000003f0: 6042 983e c87d 5bbe 7f5f 9bbd fb7f dc3d
-0.0877018 -0.29714143 -0.10930838 0.052001882 -0.12076842 -0.20323113 -0.060948562 0.33274898
0.029286535 0.047379687 -0.2603006 -0.24986243 0.223157 -0.22526869 0.17938966 -0.16039906
-0.0966762 0.22286265 0.24751158 0.12645853 0.31218347 -0.27743548 -0.04746126 -0.017107034
0.2526964 0.015986701 0.029694686 -0.07013643 0.27349314 0.12102059 -0.32448998 -0.1769316
-0.33969903 0.13218386 -0.14096789 0.16732158 0.102121316 -0.071826756 0.03857914 -0.23210269
-0.12228106 -0.20035319 -0.12031071 0.15457405 0.110809445 -0.16222818 -0.06367146 -0.058719546
-0.31618875 0.04193218 0.08590398 0.09063202 -0.09689701 0.18854663 -0.24737217 0.10388917
0.09196345 -0.07864645 -0.048100382 0.09377801 0.2204675 -0.2910323 0.29863152 0.22912621
-0.14323777 -0.23904753 -0.115549 0.25065076 -0.0864586 -0.09334651 -0.03742922 0.14356767
0.22618799 -0.12630147 0.26221335 -0.06672588 0.14241771 -0.033783007 0.2721166 -0.043466065
-0.2415418 0.22870588 0.10308727 -0.26650077 0.15074863 0.038511824 0.21769868 -0.25888157
-0.18386908 -0.3096045 -0.0941545 -0.06081347 0.12795042 -0.0013079384 -0.14318308 -0.08278632
0.032717593 -0.18987727 0.10552468 -0.014273116 -0.04212992 -0.3242901 -0.034737132 -0.023391288
0.1393873 0.1503068 0.2480695 -0.17899247 -0.24661571 0.2782286 0.11429535 0.24288358
0.27930418 -0.2264233 0.25035417 0.103533484 0.0746196 -0.043384805 0.09402504 -0.32073694
0.23134702 0.18164141 -0.053086303 -0.31895182 -0.053651772 0.07009499 -0.39293 -0.0011761239
0.16475834 -0.24482322 0.23332794 0.088691585 0.06638023 -0.1523718 0.19686732 -0.091725975
-0.20863809 -0.015073583 -0.1794077 0.27965516 0.008294109 -0.2587001 -0.122907504 -0.25640914
0.004350604 -0.06205032 0.32672554 0.09563652 0.26628748 -0.12664215 -0.27399924 -0.27796593
0.03292999 -0.20375277 -0.01226793 -0.055108357 0.2598889 -0.29517272 0.08583407 0.08108459
-0.10613403 -0.26146716 -0.24252553 0.058956195 0.103918225 0.2822583 -0.00085262494 -0.29624668
-0.28405347 0.03758499 -0.009876517 0.058310237 0.20772196 -0.24438237 0.21965446 -0.0039018067
-0.29087755 0.18252476 0.12112003 -0.32663277 0.33055267 -0.1481123 0.1451691 -0.17718999
0.046270743 -0.14510567 -0.2997847 -0.18367863 -0.14607565 0.2142656 -0.34021154 0.14083777
-0.1615309 -0.08093007 0.19477521 0.22506829 0.18785836 -0.02088243 0.027898578 -0.21908188
0.050263017 0.069071025 -0.39534694 0.1242144 0.014315866 0.17982592 -0.09863382 -0.13330364
0.13108449 -0.10566313 0.26185232 -0.121520475 0.28572595 -0.008290775 -0.33372244 -0.0091739185
0.21959604 0.2842162 0.15665454 0.120970696 -0.030645503 0.17490797 0.21847054 -0.040093016
-0.039437436 -0.13473576 -0.24959444 0.05325629 0.07202668 0.13632761 -0.2234288 0.21341917
-0.12051883 0.06153473 0.029498484 0.22644891 0.03303857 -0.10789206 -0.15079056 0.24089447
0.30227014 0.14807358 0.2653947 -0.20094162 0.19937801 -0.31086326 -0.2612511 -0.28519246
0.24157839 0.15262216 -0.27341166 0.21283911 0.2973814 -0.214347 -0.07586574 0.10766598

bias f4 [32]
00000000: e671 a93e 6c7b 78be 29f8 21bd 7a5d c1be
00000010: 694c 0cbe a71a 86be 4be6 903e 668c b3be
00000020: a45b bfbc c19c 843e 40a2 333e 101f 883d
00000030: 9b17 05be e27e aebe ed17 fcbd ccd4 843e
00000040: 00c2 ab3e f47a 90be 4cf3 e13d bcf2 db3e
00000050: 14e0 443d e600 4bbe 7c48 83be b7d3 363e
00000060: 1680 323e 2212 6cbe 53a5 93be 8002 dcbd
00000070: 304e d8bd d050 ac3d 9895 803d b73f 733e
0.3309471 -0.24265832 -0.039543305 -0.3776663 -0.13701023 -0.2619221 0.283007 -0.35068053
-0.023359127 0.25900844 0.17542362 0.0664655 -0.12997286 -0.3408118 -0.12309251 0.259436
0.33546448 -0.28218806 0.11032733 0.4295863 0.04806526 -0.19824561 -0.2564124 0.178542
0.17431673 -0.23053792 -0.2883707 -0.10742664 -0.10561788 0.08413851 0.06278533 0.23754774

weight f4 [64, 32, 3, 3]
00000000: bc97 8f3c e811 033e 2cf5 fc3d 3698 de3c
00000010: b001 393b 17a6 32bd 3ef9 533c 8d45 8a3c
00000020: 500c d2bd b659 9dbd 7c6a 9dbc cc9f e0bc
00000030: 321f bebc f8ca b83c b3d5 323c 88b1 a0bd
00000040: 0093 27bd 4f90 05bd d5c4 373d 884f 21bc
00000050: e8e7 963b 0929 4e3d 61e0 c7bc 9d7b 683d
00000060: 34d9 663b 53df 24bd dbc3 2fbd ee23 a8bc
00000070: ab99 2fbd e819 87bd fcc1 573d 3b0a 863c
00000080: f288 243c 549a 92bd 477c a43b eb09 94bc
00000090: da57 d3bd 52b9 483d f9df 7ebc bfe6 c53a
000000a0: 9439 6fbc 2e69 0dbb 0cec 12be 45d1 0abe
000000b0: a4a7 2bbe e55a 5cbd 90e1 f73c 1a33 cbbc
000000c0: 9363 eabd 624f 4939 d3c3 003e 6194 b93c
000000d0: e1ac bfbc e8f8 633c 3599 c2ba ba1d 16bc
000000e0: efdd 4cbc 4f97 64bd 9f48 80bd 65ec ac3c
000000f0: 4c05 bfbd 8011 b5bd 9ec2 90bc cb8c 56bd
00000100: 00b8 6bbd 289b debc 63d2 1e3d 22d1 97bd
00000110: a3f9 25bd d0f4 67bc 5208 a53c a432 97bd
00000120: c836 50bc a88b 8d3c 2efe 5a3d d483 7a3c
00000130: 72f0 bd3c 61ab 053d 5a54 91bd 0360 18bd
00000140: f4b9 7a3c b154 b83d 076f ebba 6af4 52bd
00000150: c2a4 b93d 812e 7b3d 59b9 d33d d639 6e3d
00000160: f102 0cbd cfb1 333d 5120 66bd 7f89 b03d
00000170: 745b cebd e57f a53c 908f 77bd bc0f 4abd
00000180: d4b0 76be b938 15be 70bc e5bd 0503 26bd
00000190: 5ad1 61bd 557f 51bd 50e2 d5bd ad94 adbd
000001a0: 2abd f3bd 7215 50bd 5b76 9fbc 1f90 cebd
000001b0: 3f27 d93c 8f90 67bb acf0 6c3c 662e 8fbb
000001c0: 3de1 01bd 8b23 703d ca60 1ebb 19b0 60bd
000001d0: 8cc9 2f3c 1524 90bd 8b4f b2bd 822f 97bd
000001e0: 4390 a43c 7dc8 9aba cfca 3c3c 64bd 03be
000001f0: 5069 e2bd b879 0ebe 1c95 9e3b 632a 113c
00000200: 60d4 063d 17dc 44bc 4ead 28bd c518 abbc
00000210: 3e9f 333a b673 033d 67b9 123c 925c 373d
00000220: 028d dcbb 06b4 07be 56e2 1d3d 0883 e03d
00000230: fcc2 ef3d 141a 03be eb18 0bbe b3f6 eebd
00000240: 88ad 963d e4d5 efbb 96fe 373c 9de5 b53d
00000250: a98f d53d a451 ae3d 60cb 75bd 0d2e c4bc
00000260: 53e0 813c 29c5 3ebc 3781 92bd 78ba 12be
00000270: ddd8 4f3d 30c9 4f3d 171f 133d eec5 1fbe
00000280: a8c5 66be e580 46be 6acb 94bd f848 49bd
00000290: 8fea 023c fd70 85bd b9dc df3c f466 693d
000002a0: 7ee4 b0bd a78f 7dbd 0045 dc3b 98a3 7ebd
000002b0: c260 563c 1205 03bd ba4f b03b 2eeb d43c
000002c0: 1396 93bb 7343 e6bd cc65 9dbd e9df a5bd
000002d0: 8932 c5bc 1335 84bc 27c3 dcbd 7aee 32bc
000002e0: 4781 19bc 317d a63c 36f3 0abd 1f77 27bd
000002f0: 979e 08bd 5679 4a3d 5684 823d 18da f43c
00000300: 4418 71bd 512b ed3c 8acf 80bd 78fc febc
00000310: 734f 08bc 9729 3e3c f1b2 943c 674f aabd
00000320: 59e3 6bbd fd00 16bd 838c 943c d3ad 4fbd
00000330: 69bc 38bd 1cb1 58bd 07e5 d5bd 97a5 cc3c
00000340: 6122 3dbc 382d 6d3d be7d 27bc 5159 e33b
00000350: 12df 2b3d f3ce 1cbd 07ae cb3b f231 49bd
00000360: af0f 543d 05ae 28bb eaa2 293d a710 79bb
00000370: 1626 283c 58d5 82ba fe37 79bb a86a 67bd
00000380: aa0c 70bd 047a 7fbd 6729 923c 0de9 2c3c
00000390: 34fb 12ba 0a5f 7cbd de82 87bd 4781 2ebd
000003a0: 7122 2fbd e915 adbd 6405 6bbc 300a d5bc
000003b0: 021f 653d dc02 3cbc 84ab 503c 97c8 0dbd
000003c0: 164b 4cbc 7578 8cbd 3519 e63b db34 2ebd
000003d0: 948b b63c ea46 aebc e77e 8cbd 14fe 1b3c
000003e0: 1853 fa3a 6328 e4bd 83e2 e3bd 8275 d9bd
000003f0: b90c af3c 1acc 9f3b 827f adbd 95a4 ecbc
0.017528407 0.127998 0.1235145 0.02717219 0.0028229766 -0.043615427 0.012937842 0.016878868
-0.10256255 -0.07683127 -0.019215815 -0.027419947 -0.023208234 0.02255772 0.010915208 -0.078463614
-0.040911674 -0.032608327 0.044865448 -0.009845622 0.004605282 0.050332103 -0.024398984 0.05675851
0.0035224678 -0.04025204 -0.04291139 -0.020524945 -0.04287116 -0.06596738 0.052675232 0.0163623
0.010042416 -0.07158342 0.005019698 -0.018071136 -0.10319491 0.04900486 -0.015556329 0.0015098675
-0.01460113 -0.0021577585 -0.14347857 -0.13556392 -0.16763169 -0.05379762 0.030258924 -0.02480464
-0.114447735 0.00019198426 0.12574701 0.02265376 -0.023397865 0.013914324 -0.0014846685 -0.009162361
-0.012504085 -0.05580836 -0.062638514 0.021108815 -0.09327182 -0.088412285 -0.017670926 -0.052380364
-0.057548523 -0.027173594 0.03877486 -0.07412936 -0.040521275 -0.014157489 0.020145569 -0.07382706
-0.012708373 0.017278507 0.05346506 0.015290219 0.023185942 0.032634143 -0.07096167 -0.03720094
0.015303124 0.090005286 -0.0017962166 -0.051502623 0.09064628 0.061323646 0.10338087 0.058160625
-0.034182493 0.043870743 -0.056183163 0.08619975 -0.10076037 0.020202586 -0.060439646 -0.04933141
-0.24090892 -0.14572419 -0.11217582 -0.040530223 -0.055131294 -0.051146824 -0.10443556 -0.08475623
-0.119013146 -0.0508017 -0.019465616 -0.10086083 0.026507972 -0.0035333966 0.0144616775 -0.004369545
-0.031708945 0.058627646 -0.0024166577 -0.05485544 0.010729205 -0.07038132 -0.08706578 -0.07382108
0.02008832 -0.0011809018 0.011522963 -0.12865216 -0.11055243 -0.1391362 0.0048395526 0.008860203
0.03291738 -0.012015364 -0.0411809 -0.020885834 0.0006852037 0.032092772 0.008955336 0.044766016
-0.0067306766 -0.13252267 0.03854593 0.10962492 0.11707112 -0.12802917 -0.13583724 -0.11668148
0.07357317 -0.007319199 0.011230132 0.08881686 0.104277916 0.085116655 -0.060008407 -0.02394774
0.015854036 -0.011643686 -0.07153552 -0.14328945 0.050743926 0.050728977 0.03591832 -0.15602848
-0.22536337 -0.19385107 -0.07265361 -0.049141854 0.007990493 -0.065156914 0.027326928 0.05698295
-0.086373314 -0.061904576 0.0067220926 -0.062167734 0.013084592 -0.031987257 0.005380598 0.025991049
-0.004503974 -0.11243334 -0.07685432 -0.08099348 -0.024071949 -0.016138589 -0.1077941 -0.010921115
-0.009369201 0.020323368 -0.03392335 -0.040885087 -0.033354368 0.04943212 0.06372897 0.029889151
-0.058861032 0.028951319 -0.06289585 -0.031126246 -0.008319723 0.0116065955 0.018151732 -0.08315926
-0.057589862 -0.036622036 0.018133407 -0.05070288 -0.045101557 -0.05290328 -0.10444074 0.024981303
-0.011543841 0.057904452 -0.01022285 0.0069381376 0.041960783 -0.0382833 0.006215814 -0.049119897
0.05177277 -0.002573849 0.041415133 -0.003800431 0.010262987 -0.0009981794 -0.0038027759 -0.0564982
-0.058605827 -0.062372223 0.017842008 0.0105536105 -0.000560689 -0.061614074 -0.06616758 -0.042603757
-0.042757455 -0.08451445 -0.014344547 -0.026005834 0.055937774 -0.011475291 0.012736205 -0.034615126
-0.012469074 -0.06858913 0.007022048 -0.042530876 0.022283353 -0.021274049 -0.06860142 0.009521026
0.001909825 -0.11140516 -0.11127188 -0.10618116 0.021368371 0.0048766257 -0.08471586 -0.028887073

bias f4 [64]
00000000: dedd b9bd 716d e1bb d106 263e 8290 c6be
00000010: e92c f5bd 0d9d 0abd 6c5f cc3d 6496 44be
00000020: 67fe 82be 61e7 883e c5a3 333e fca0 4f3d
00000030: 2353 7abd c357 b93d 0b44 ae3a 94b6 383e
00000040: 525e d4be abb5 1cbe 15cb d13d 06ec 61bd
00000050: 0785 bc3d 2213 e4bd 4b2b c43d 16c2 28bd
00000060: 662b 6fbe a36c 4cbe 3faa f63e efb4 753c
00000070: 66da 533e d84c 973e 4258 bdbb a0fe d03d
00000080: 9279 753d 18b1 9f3d 37fc ad3d b8c6 8d3e
00000090: 8901 f33d 47ed 71bd c75c cb3e 3eaf fe3d
000000a0: 6f3f 853c 526d 14be 330f 32be a5b0 08be
000000b0: cc6c ca3d 5a9a 823d 903b 14bd ef01 923d
000000c0: 5905 183d 45e0 e13e f93c 1a3e b9df 7aba
000000d0: aa22 aa3d 3fe2 c5bc 7a3d 30be 8f68 203e
000000e0: 7890 aabc 4baa ee3d 5c67 863c f712 7bbe
000000f0: 73f9 04be d8d1 84be bf13 95bd 9063 703c
-0.09075521 -0.0068795015 0.16213538 -0.38782126 -0.119714566 -0.03384118 0.09979138 -0.19197994
-0.2558472 0.26739028 0.17542942 0.050690636 -0.06111444 0.09049942 0.0013295425 0.18038398
-0.4147821 -0.15303676 0.10243813 -0.05515673 0.092050605 -0.11136462 0.0957857 -0.04120072
-0.23356399 -0.19963317 0.48176762 0.014996751 0.20688781 0.29550815 -0.0057783434 0.10204816
0.05993039 0.0779745 0.08495372 0.27690673 0.11865527 -0.059064176 0.3971922 0.124357685
0.016265599 -0.14494827 -0.1738861 -0.13348635 0.098840326 0.063770965 -0.036189616 0.07129275
0.037114475 0.44116417 0.15062322 -0.00095700804 0.08307393 -0.024155734 -0.17210951 0.15664886
-0.020820841 0.116535746 0.016406707 -0.24518953 -0.12985782 -0.25941348 -0.07279157 0.014672175

weight f4 [128, 64, 3, 3]
00000000: 4441 b83c 5373 d93c 9464 0ebd af9d 88bd
00000010: 7543 e4bc 508d 49bc df7b 9dbd 85cd abbc
00000020: 8f05 bd3a f116 723c df95 cc3c 0b89 853c
00000030: 4690 af3c 1f1e 3c3b 4195 7d3c b0f5 97bc
00000040: 1baf 183d 9932 643c 5634 e8bc 2033 03bd
00000050: 069a 7cbd be5b db3b d083 473d 783f c1bc
00000060: b018 4d3d d9e1 1e3d bfbc f1bb 94f9 b7bc
00000070: f601 653d 1cb3 823c 5034 013d 6585 163d
00000080: bf3f 9b3c 7af8 9dbc 0c64 913c 127c 203d
00000090: 0918 3bbc 5d95 8a3d 13f9 4d3d 39c8 3e3d
000000a0: ef6b e4bc b443 e1bc c95e 043d f060 aa3b
000000b0: 4867 f93c f4f9 e53b 1471 8f3c 4b3f 1d3d
000000c0: 76d2 f13c 94fb c0bb a142 113d 88e0 12bd
000000d0: f13c 843c d277 bdbb 3f9a 70bc e53d ab3b
000000e0: a220 d7bc c404 84bb ca76 05bd 31d9 8cbd
000000f0: e3e1 25ba 5531 78bd aff8 80bd 8808 b33b
00000100: 0ee1 063d 26a5 f53c d15b cd3c 6963 51bc
00000110: 6a9b c7bc 04b6 2abb 044f 44bd 2e1a a33c
00000120: 7a43 2bbd af49 513c fde9 423d 2753 1f3d
00000130: 1e78 6c3d 9dbd d03c c085 ff3c 7cb2 3cbc
00000140: e3b6 1abd f22a 59bd de83 babc bc91 a7bc
00000150: 80ee 1cbc f683 41bc 97f3 88bc e320 1b3d
00000160: 1cf5 ac3c 4e8e 96bc 07ee 15bd 5042 90bb
00000170: b492 8b3d 95d0 473d f74f 343d 3520 193c
00000180: 769c be3c aa63 3b3b 0d5e b23d 859b bbbc
00000190: 3074 033d b902 973c d0ca d03c 9cb8 9d3c
000001a0: 71a0 033d 7325 213d 6800 d3bc b9c1 fb3b
000001b0: a3b2 573c e9b0 3e3d 90ab 65bc da07 98bc
000001c0: d09c 39bd a586 013d 1f9f 4abd 2ca8 dc3b
000001d0: 626f 4dbd 98cb 203d a80d aa3b afd0 b7bc
000001e0: b3e0 9b3c c797 b23c cb48 063d 3e81 43ba
000001f0: 516a 03bd 0bdc 15bd ad42 06bd 2f67 8ebc
00000200: b21f 733c ab58 453c 8872 0dbd c24f dc3c
00000210: fac1 733c 2e91 d83a 0bde 13bb 4bb7 203d
00000220: a6ae c03c d8e7 dfbc cb96 1f3d c6b5 0dbd
00000230: 8f30 ddbc 5f75 ab3c e94d f93c f15a 3bbd
00000240: 52b1 a03b a24c 34bc 6048 b8bb 02a9 933c
00000250: 22ac efbc 6b24 b43c 019a 77bd 69c9 7abc
00000260: 048f 8b3d 9583 36bb dca9 2a3d 7012 a9ba
00000270: 74e8 25bb 6e00 343c c050 313d fd9a 063c
00000280: d2fa 173d 3407 abbb f9ef f2bc 455c debc
00000290: 9f30 69bd f1b0 0f3c eeec 863d 4d4e 1c3c
000002a0: 7c29 2f3d c589 82bc 900b c13c a64c 12ba
000002b0: cd2d e53c 5423 033d 6eeb 073c 5304 7d3d
000002c0: 906a 4c3d 8f1d 83bd 4eea d83c c628 82bc
000002d0: 47bc 95bb 44aa 48bc ebef b73c ba6f 123c
000002e0: b577 d0bb 6239 853c 085a a1bd 3ee6 18bd
000002f0: c6a3 fcbc 9250 12bd 6915 c4bb 4fd2 b93c
00000300: 570d 8bbc 6e38 043c b0cd 24bd 72bd e53c
00000310: 2dce 173d efd2 2dbd 7c82 25bd 41f9 603b
00000320: f022 10bc bf2d 24bd 1959 28bc 3e64 70bc
00000330: d20f 09bc 4763 193d 7ee2 8cba ccc1 493c
00000340: f237 08bd b467 b9bc 59d2 a63c bfde e2bc
00000350: 6f8a 1c3d 51c4 1bbc de85 bcbc 49af a5bc
00000360: 90e6 42bd b8be 013b 69fa f5bc 3b96 96bd
00000370: b64a b03b 6bd6 88bd bcdd 59bc 9927 8fbd
00000380: 02b8 4dbc 827c 9c3c f198 2b3d 9ad8 1bbc
00000390: cf4a 183d f4e8 f4bb b69d 59bd 15e7 18bb
000003a0: 15cc 3f3d f626 0abd 45d0 2dbd ca35 4fbd
000003b0: 9208 19bd 570f 513c 1792 8fbc 0b4d 98bc
000003c0: 0e47 4a3b 392e 923c 9bad 0a3d d7b7 b03c
000003d0: 0aa3 daba def9 17bd 7200 1bbd 17b9 103c
000003e0: c606 97bc a8fb dcbc cecd 4ebd 79d7 0bbd
000003f0: 0bed bb3b 7c08 c63c 6337 c7bc 17a8 cd3c
0.022492059 0.026544249 -0.034763888 -0.06670701 -0.027864197 -0.012301758 -0.07689642 -0.020972023
0.0014421212 0.0147759775 0.024973808 0.016300699 0.0214311 0.0028704477 0.015477479 -0.01854977
0.03727637 0.013928079 -0.028345268 -0.03203118 -0.061670326 0.006694286 0.04870969 -0.023589835
0.050072372 0.038789604 -0.0073772366 -0.022457875 0.055910073 0.015954547 0.03154403 0.03674831
0.018951295 -0.019283522 0.017747901 0.039180823 -0.011419305 0.0676677 0.050286364 0.046577666
-0.027883498 -0.027498104 0.032316957 0.005199544 0.030444756 0.007018322 0.017509975 0.03839044
0.0295193 -0.0058893654 0.035463933 -0.03585866 0.01614234 -0.005782106 -0.014685213 0.0052258843
-0.026260678 -0.0040288884 -0.03258399 -0.068773635 -0.000632791 -0.06059392 -0.06297433 0.0054636635
0.032929473 0.029985975 0.025068196 -0.012780049 -0.0243661 -0.0026048431 -0.047926918 0.019909944
-0.041812398 0.012773915 0.04758643 0.03889766 0.05773174 0.02548104 0.031191707 -0.011517163
-0.03777207 -0.05301947 -0.022767957 -0.020455234 -0.009578347 -0.011811247 -0.016717715 0.03787316
0.021112971 -0.018378403 -0.036603954 -0.0044024363 0.06815091 0.048782904 0.044021573 0.009346058
0.023267966 0.002859334 0.08709345 -0.022901306 0.032093227 0.018433915 0.025487334 0.019253068
0.03213543 0.039342355 -0.02575703 0.0076830056 0.013165149 0.046555433 -0.0140179545 -0.018558431
-0.045315564 0.031622548 -0.049468156 0.006733915 -0.05015505 0.039256662 0.0051896162 -0.022438375
0.019028043 0.021800889 0.032784265 -0.0007457918 -0.032083813 -0.036586802 -0.03277843 -0.017383186
0.0148391 0.012045066 -0.034533054 0.0268935 0.014877791 0.0016522759 -0.0022562768 0.0392373
0.023520779 -0.027332231 0.038962167 -0.03459718 -0.027000694 0.02092999 0.030432658 -0.045741025
0.0049039507 -0.011004599 -0.005623862 0.018024925 -0.029256884 0.021990022 -0.060449604 -0.015306809
0.068143874 -0.0027849425 0.041665897 -0.0012899172 -0.0025315555 0.010986431 0.0432899 0.008215663
0.037104435 -0.0052193645 -0.029655444 -0.027143607 -0.056931134 0.008770213 0.065881595 0.009540153
0.042764172 -0.015934834 0.023565084 -0.00055808795 0.027975941 0.032016113 0.008295877 0.061771702
0.049906313 -0.06402122 0.026478913 -0.015888583 -0.0045695635 -0.012247626 0.022453269 0.0089377705
-0.0063619264 0.016262714 -0.078785 -0.03732895 -0.030839812 -0.03572137 -0.0059839976 0.02268329
-0.016974134 0.0080700945 -0.04023522 0.028044436 0.03706186 -0.04243749 -0.040407643 0.0034328254
-0.008797392 -0.04008269 -0.010275149 -0.014672337 -0.008365588 0.037448194 -0.0010748652 0.012314271
-0.03325648 -0.022632457 0.020363973 -0.027694104 0.038217958 -0.009507255 -0.023013052 -0.020225184
-0.047583163 0.0019797515 -0.030026631 -0.07352873 0.00538 -0.06681522 -0.0132974945 -0.069899745
-0.012556078 0.019102339 0.041893903 -0.009512091 0.037180718 -0.0074740592 -0.05312892 -0.0023331095
0.046825487 -0.033728562 -0.04243495 -0.050588407 -0.03736169 0.012760005 -0.017525716 -0.018591424
0.0030865106 0.017844306 0.03385697 0.021572037 -0.001668067 -0.037103526 -0.03784222 0.008833191
-0.018435847 -0.026975468 -0.05048924 -0.034141038 0.005735045 0.024173968 -0.024318403 0.025104566

bias f4 [128]
00000000: 509e c3bd 48f1 1d3e 3dfe f4bc 7c44 aa3e
00000010: dabf bc3d 0b8d 003c bea5 f43c 0f37 c13d
00000020: 192f 653d 36f0 aabe 7d7f e73b 82e4 a03d
00000030: c91b 7fbd d97d 043e 3d3b 0abe 31ff c43d
00000040: ad60 b2bb 9822 87be 1b3e 68bd 7658 e1bd
00000050: db8a 493d 473e 95bd aeb3 333d 9745 3f3d
00000060: c597 923d 3d94 0b3e 04d0 8ebd d436 063d
00000070: 0c36 41bc 70b1 41be ff37 863c a92a ac3b
00000080: 0c3c d93c 7b65 853d 0ef6 a13e 941b 643e
00000090: 75a2 33be 5722 373c 27a3 87be 0289 02be
000000a0: 02d1 01be 06eb ae3e b128 233d 6ed4 71bd
000000b0: 944b 91bd 5082 883e e8ce c53d 12b0 9fbd
000000c0: 68a0 1c3c 156b 3b3e 49ff ce3c ae57 643d
000000d0: 4210 97bd 872e 743d eba1 b5bc 82c5 673e
000000e0: 3468 863e 5e5f 4d3e fb1a 753e aeb7 dbbc
000000f0: 7aab e9bd 7618 8b3e c5d2 15bd a41a 60be
00000100: 8853 bf3d 046b 4ebd 2a77 ba3d 4930 cfbc
00000110: e21f 223d 773b 84bd 6e5b 513e 33a3 13be
00000120: d738 9f3e f25e 5e3b c099 0ebd 78ca 473d
00000130: 09c1 6c3e 13ab 81bd bb94 0e3d 07b9 233c
00000140: 584e a6be 6ed6 a93e 559a b13d 707a bd3d
00000150: 9529 76bd 7ef3 a7bd c898 753b 8616 20bc
00000160: 39f3 2abe c239 773c dae5 223d 440b 953d
00000170: ab20 ec3c b7a5 97bd a74d f53e b123 4e3d
00000180: a3b3 8cbc 911b 83bc 0565 b9bc d3b5 e2bd
00000190: aca2 a93e 7157 a83b d9e1 083e d87d a73b
000001a0: 0b32 543e a05a e33d 4640 373d bc1d cb3c
000001b0: 1128 cabd b447 bfbd 4f5e aa3c 7bda bbbd
000001c0: 6d90 24be 616d bc3d 97d5 f43d dc46 8dbd
000001d0: 872b 343e 3235 f33d bced 06be 15a9 e33d
000001e0: bfd4 9b3d 1476 f33c d3ff 933e 51e9 083e
000001f0: 8578 6c3e 070a b7bd 726d 8b3d 187d 5e3d
-0.0955168 0.15424073 -0.029906387 0.33255374 0.0921628 0.007846127 0.029864188 0.0943433
0.05595312 -0.3338639 0.0070647583 0.078560844 -0.062282357 0.12938632 -0.1349916 0.096189864
-0.0054436536 -0.2639358 -0.056699853 -0.11003201 0.04920469 -0.07287269 0.043872528 0.046697225
0.07157854 0.13630767 -0.069732696 0.032767132 -0.011792671 -0.18915343 0.016384123 0.005254109
0.02651789 0.065134965 0.31633037 0.22276145 -0.17542441 0.011177621 -0.26491663 -0.12747577
-0.12677386 0.34163684 0.03983373 -0.05904048 -0.070944935 0.2666192 0.09658605 -0.077972546
0.009559728 0.18302567 0.025268214 0.05574768 -0.07376148 0.059614684 -0.022171935 0.22633937
0.26251376 0.20055911 0.23936073 -0.026820984 -0.1140966 0.271671 -0.03657796 -0.21885163
0.09342104 -0.050395027 0.0910476 -0.025291579 0.039581187 -0.064566545 0.20445034 -0.14417724
0.31098053 0.0033931104 -0.034814596 0.048777074 0.23120512 -0.06331458 0.03480981 0.009992844
-0.32481647 0.3317141 0.086720146 0.09251869 -0.06009825 -0.08200739 0.0037475098 -0.009770995
-0.16694345 0.015089454 0.039769985 0.07277539 0.028824171 -0.074046545 0.47910807 0.050327007
-0.017175501 -0.016004356 -0.022631178 -0.110698365 0.3313192 0.005137377 0.13367404 0.0051114373
0.20722215 0.1110127 0.04473903 0.024794452 -0.09870923 -0.09339848 0.020796923 -0.09172531
-0.16070719 0.0920055 0.119548015 -0.06898281 0.1759473 0.118753806 -0.13176626 0.11116234
0.076089375 0.02971939 0.28906116 0.13370253 0.2309285 -0.089374594 0.068079844 0.054318517

weight f4 [128, 64, 3, 3]
00000000: fca1 293d 778f 953a 01d5 3abd 0ee7 7c3d
00000010: 5bb5 423d 140e 85bc 2236 1c3c adeb 0f3d
00000020: c30a 363c 7ec5 12bd 78f2 953c 8664 10bc
00000030: d530 44ba 2d4b f23c 9dc5 dabc 36e6 5dbc
00000040: dec3 30bc 1988 753c c064 c0bb 278a a53c
00000050: 319c 87bd e8ea 3fbd 8850 8a3c f5a1 873c
00000060: 8c49 83bd f93f ef39 29dd 1dbd 54e0 08ba
00000070: c199 af3c 4a82 cbbc ab0c d43c decc 353d
00000080: dd8c d03c 0a75 693c a766 953b 8c5a 943b
00000090: 137d 1a3d 1bf1 1f3c 44c1 31bd e3ce 2f3d
000000a0: 0e77 783d 02b3 46bd ddf7 053c d47a 1bbd
000000b0: 5ba3 93bd d8a5 143d 8e08 38bd d0d7 e5bc
000000c0: 69dc cb3c 415a 4fbd 9e70 80bb 3cd6 7dbd
000000d0: 6fbc 8cbd e319 8dbd 2044 113d 2566 9a3c
000000e0: b4e0 b33b 4b46 4dbd ff1a 2a3c 0f52 82bb
000000f0: c755 38bc beee 69bc 1369 fa3c 2280 11bd
00000100: bc63 4cbd 394f d6bd d2b2 af3c 76eb b03b
00000110: f7fd 9cbc 7078 f9bc 4741 ab3d 3928 9f3d
00000120: 0340 133d 9dd7 60bd c1db 92bc 3304 113c
00000130: 84dc 03bc 31c2 07bc f85e 8d3d 3bc5 3e3c
00000140: aea3 a7bc 8e63 c4bd 1fa4 43bc 9247 16bd
00000150: 74c1 b4bd 9235 2bbc 496a 90bd af9f c53c
00000160: c7e0 ef3c 3d97 b23c f170 b4bb c99e aa3b
00000170: d311 ebbb 5ad7 05bd b94c f1bc 1296 aebb
00000180: cedb 08bd 7328 f6bc fda1 273d 2f25 b33b
00000190: 4a12 323d 9d34 bfbc 16ed 86bd 792f 24bd
000001a0: 273e d6bb 03f3 90bd 5bac afbd 7938 7fbd
000001b0: d6a7 aabd b95a f6bc 0014 11bd 2409 2abd
000001c0: da98 e63c 353c 4fbd dd0c 82bd 7e38 493c
000001d0: 68d1 2fbd 684f d3bc 5844 cfbc a07a 14bd
000001e0: 0afe d53c 59c0 c5bb 0d48 11bd e3ab 693d
000001f0: 0120 7ebc 3f1d 02bd a69c 82bd 93ce a4bd
00000200: e37c 18bd f9b9 debc 7158 7dbd 2bc6 bdba
00000210: 2e3f a83d 4934 25bc c324 d53c 4717 423b
00000220: 87a0 803c 7c8c 483d fe9e 4abd e1f1 e6bc
00000230: a00f 713c 0935 0cbe ad6d cfbc 93a7 b6bd
00000240: c9bd adbd c0c3 3fbd 6dbf 803d 721e 193d
00000250: 818d 093d 9902 983d d191 3e3d 3ae9 763d
00000260: 3202 5c3c b986 e3bc 2193 1fbc 4dca 253c
00000270: 3839 8ebb 3456 b5bc afd4 213a 888f 663c
00000280: 5ae9 173d b863 943c df89 3abb 2908 b1bc
00000290: 35b4 4ebd 8b02 b7bc 98f1 26bd 37a7 e93c
000002a0: ee5b cabc e04b 33bd 987a d4bc d0ea 003d
000002b0: 7b9f 043c 7abe a23c fd12 80bc b8d2 813b
000002c0: 7c8a 0b3d 3fee f73c 0dd1 18bc 8963 753c
000002d0: 638a 9e3d 4a27 063d 4ede 333d 5d2d bdbc
000002e0: 954d 863c 6b83 b13c 6c68 b5bd 590f 3fbd
000002f0: f03b 973d 7004 2a3c 3749 90bc a4b9 31bd
00000300: 3e3b 183d eae5 583d 723c acba 074c 863c
00000310: 535b 723d 5169 bc3c 3f12 20bb cd15 2cbd
00000320: b95f e13c 57ea d73c 2042 5b3c ebb8 0c3d
00000330: b116 123d ed1c bf3b 9dc9 87bc 55c6 efbb
00000340: 988e 853c 8b05 d4bc f665 2dbd 10c8 553b
00000350: 301e 70bd 3056 42bd 27e3 8dbd 72e6 0cbd
00000360: 879d cc3b 0e77 3f3c d89d eebc 2d75 10ba
00000370: eca4 95bc 41d4 debb d069 393d 42c1 a33c
00000380: 07ff 12bc da61 f0bc 6332 853c d670 25bd
00000390: e88b e43c 6394 823c 52cc 44bb 2a6e 043c
000003a0: 1b7c 373c 7f38 9bba db2e 32bb ca9e 463c
000003b0: 2efa bfba 63a8 1abb 5696 51bc ddcd ca3a
000003c0: 70ed ac3c 9027 85bc ed26 a7bc 9bf8 c93b
000003d0: 74ad 11bb c368 66bc bf49 ab3c 4d50 cdbc
000003e0: e20f 96bd 12a1 333d 52cb bb3c 8117 fd3c
000003f0: d6a7 1fbe 26eb cabd bd9f 6abd 9cd5 b5bd
0.041414246 0.0011410554 -0.045613293 0.06174379 0.047536235 -0.016242065 0.009534391 0.035136867
0.011110964 -0.035832874 0.018304095 -0.008813029 -0.0007484083 0.029576862 -0.026705557 -0.013543656
-0.010788886 0.0149860615 -0.0058713853 0.020207478 -0.06621588 -0.046854883 0.016884103 0.01655672
-0.06410512 0.00045633296 -0.038540993 -0.0005221416 0.02143562 -0.0248424 0.025884947 0.04438483
0.025457794 0.014249096 0.0045593563 0.0045273956 0.037716936 0.009762074 -0.043397203 0.042921912
0.060660414 -0.04851056 0.008176771 -0.037958935 -0.07208892 0.036290973 -0.044930033 -0.028057009
0.024885373 -0.050623182 -0.003919675 -0.061971888 -0.06871878 -0.06889703 0.03546536 0.018847534
0.005489433 -0.050115865 0.010382413 -0.0039770673 -0.01125092 -0.014278112 0.030567681 -0.035522588
-0.0498998 -0.10464329 0.021447573 0.005399163 -0.019164069 -0.030452937 0.0836206 0.07771344
0.03594972 -0.054893125 -0.017927052 0.008851099 -0.0080481805 -0.008286045 0.069028795 0.011643703
-0.02046379 -0.09589301 -0.011940985 -0.03668935 -0.08825961 -0.010449784 -0.07051522 0.024123995
0.029281987 0.021800632 -0.0055066277 0.005206917 -0.0071737557 -0.03267608 -0.02945553 -0.0053279484
-0.033412747 -0.030048585 0.04092597 0.005467079 0.043474473 -0.023340518 -0.06588189 -0.040084336
-0.006538171 -0.07077601 -0.08577796 -0.062309716 -0.083327934 -0.030072557 -0.035419464 -0.041512623
0.028149057 -0.050594527 -0.0635011 0.012281535 -0.042924315 -0.0257947 -0.025301144 -0.036249757
0.026122112 -0.0060348925 -0.035469104 0.05704869 -0.01551056 -0.031766172 -0.063775346 -0.080472134
-0.037228476 -0.027188288 -0.061851922 -0.0014478614 0.082151756 -0.0100832665 0.026018506 0.0029615925
0.015701545 0.0489621 -0.049468033 -0.028191509 0.014713198 -0.13692106 -0.025320852 -0.08918681
-0.08483464 -0.04681754 0.062865116 0.03738255 0.033582214 0.074223705 0.04652578 0.060281016
0.013428258 -0.027774202 -0.009739668 0.010119033 -0.004340317 -0.022135831 0.0006173355 0.014072306
0.037087776 0.018113956 -0.0028463525 -0.021610336 -0.050464828 -0.02234008 -0.040757746 0.028522117
-0.024702039 -0.043773532 -0.025937364 0.031473935 0.008094664 0.019866217 -0.015634054 0.003961887
0.034067616 0.030264972 -0.009327185 0.014977344 0.07741239 0.032752313 0.04391318 -0.02309292
0.016394416 0.02166911 -0.088578075 -0.046645496 0.07384479 0.010377035 -0.017613037 -0.04338993
0.037165873 0.052953638 -0.0013140573 0.016393675 0.059169125 0.022999438 -0.0024424938 -0.04201298
0.027511464 0.02635686 0.013382465 0.03435604 0.03566617 0.0058323056 -0.016575629 -0.007317344
0.016303346 -0.02588155 -0.042333566 0.0032620467 -0.05862254 -0.047445476 -0.069280915 -0.034399457
0.0062443647 0.0116861 -0.029128 -0.00055106246 -0.018267117 -0.006800205 0.045266926 0.019989613
-0.008971936 -0.029343534 0.016259378 -0.04039081 0.027898744 0.015939897 -0.003002901 0.008082906
0.011199023 -0.0011842399 -0.0027188573 0.012122819 -0.0014646703 -0.0023598901 -0.012792191 0.0015472729
0.021109313 -0.016254216 -0.020404303 0.0061636693 -0.002222863 -0.014063063 0.020909188 -0.025062704
-0.07327248 0.04385478 0.0229241 0.030894997 -0.15591368 -0.09908132 -0.057281245 -0.088786334

bias f4 [64]
00000000: f956 12be 30fa db3d e48d 77bd b712 e43d
00000010: 6f58 30bc f198 92bc f5a4 12bd b44d 60bd
00000020: 413a 73bc 0eab 22be 48b1 1f3e 4a85 793d
00000030: d54a efba 0d02 943d 8c0a 263e 930b c4bc
00000040: cc0f 69bc cd7e 023e 21a7 97bc 9abd eb3d
00000050: 2def 5abe c89b e4bd 48a1 673d 22cf c63e
00000060: f256 8e3d 25c6 f83d 3eaa 013d 7c67 01be
00000070: a5f1 9dbd 295b 6a3d 5f7f 2cbd 9296 bf3a
00000080: f59f a03e f940 32bd cd44 c93c 3085 c13e
00000090: 1b79 37bc b145 2fbd 6683 ee3d a893 0d3e
000000a0: 68f5 10be c1dd 323d bd5e 213e 07e4 3e3d
000000b0: ef17 003e 5f43 d13c e3de 093e 2750 693d
000000c0: 175f cd3c 375b 8c3d d63d 48bd da56 8abc
000000d0: 7e1d 343d 4c51 40bd ac69 aabb 59c5 8b3d
000000e0: 1883 0fbe 7fe4 f03d 1714 96bd fcb0 6f3d
000000f0: e1bc bf3c 967c 2bbd 9e42 b63c 7510 d93c
-0.1429099 0.10741079 -0.06043805 0.11136382 -0.010763272 -0.017895194 -0.035801847 -0.054761603
-0.014845432 -0.15885565 0.15594971 0.06091813 -0.0018256555 0.07226954 0.16214961 -0.0239313
-0.014224958 0.12743683 -0.01851231 0.11510773 -0.21380301 -0.111625254 0.056550294 0.38829905
0.06950177 0.12147168 0.031656496 -0.12637132 -0.07712106 0.057215843 -0.042113658 0.0014617017
0.31372038 -0.043518994 0.02456894 0.37796926 -0.011198307 -0.042791072 0.11646156 0.13825858
-0.14156115 0.043668512 0.15758796 0.046604183 0.1250913 0.02554482 0.13463931 0.056961205
0.025069756 0.06853335 -0.048887096 -0.016887117 0.04397344 -0.04695253 -0.0052005854 0.068247505
-0.14014852 0.11762332 -0.073280506 0.058518395 0.023405494 -0.04186686 0.022248562 0.026497105

weight f4 [64, 32, 3, 3]
00000000: af6c 473d 47ce f139 e9ac 123d d670 c5bb
00000010: d0b8 9d3d 6cfe 5d3d b857 243d 7113 993c
00000020: 531e ac3d 4a6a e5bc cdd5 333b 7e51 273d
00000030: b4d1 e93c 1df5 0b3d 9b87 d7bb a934 ae3c
00000040: 64f4 c0bc 237c 4e3c 5460 15bd b1db b73d
00000050: 0c05 983d 66ea 523c 0b22 8c3c 95f8 28bd
00000060: 4edb 47bd 3cdd aebc df0d 06be 751e 17bd
00000070: 4a46 06be f904 c5bd 82f4 b43a a5cc f9bd
00000080: 9641 1fbd d69a e6bd 9189 f6bd a8ff 3cbd
00000090: b445 8bbd 17ae b2bd 3108 ebba ceef 57bd
000000a0: 454f 2fbd d095 03bc 6bc3 423d 7174 bbbd
000000b0: 55a9 9b3d 6961 5ebd 2e15 6abd b0e1 643c
000000c0: fcf2 9ebc 536c d1bd 2964 5a3d 9dee a9bc
000000d0: ac18 8b3a 2f38 16bc ee51 dcbd 2468 54ba
000000e0: bd0e 593d b51b 69bd 3d17 a13d 46f9 593d
000000f0: b7f5 7bbd 17e1 fb3b cbce 493d 6cfe 643d
00000100: 03ac 25ba 81dd d33c 43e7 57bb bddb 69bc
00000110: 646f c0bc 517d 323d e370 3a3d 02b7 853b
00000120: edec cf3b bf4c 153e 09a3 d23d bd5f c53c
00000130: 728d b13d c0ec 1b3d 5dce f8bc 0222 013e
00000140: 463f bd3c 2d00 d7bb 2e4b 36bd 9efa 5ebc
00000150: d4cb c3bd 99dc 3cbd e475 1cbd 5003 953c
00000160: 92c7 29bd e835 32bd c0d3 68bd 02b5 cb3b
00000170: a379 e0bc a429 95bc 85d2 023d 4799 b3bc
00000180: af47 743c f787 86bc 2160 0d3d f940 99bd
00000190: 43c5 2cbd 22cb fe3b 1116 cfbc 2efe cfbd
000001a0: f432 11be 69f9 ea3c 3e15 82bd e6db 77be
000001b0: 9587 3a3d 1345 2abd 9c06 363b cb72 16bb
000001c0: 9735 1cbd 43a8 45bd 5a4d 23bd 4b10 fe3c
000001d0: db57 583d 036e 233d e4e9 2bbd bf23 c3bc
000001e0: 857b 663d 1834 1f3d 93b4 713d 05e1 e83c
000001f0: 02bb 953d 0d84 193c 0267 c2bd 609d a6bc
00000200: f326 bfbd 8c31 64bd 0cdd ba3c 17c7 9cbd
00000210: f335 d43c cb57 4f3d d49a bebd 172b 9abd
00000220: b023 18bd 0318 4ebc 25f6 123d 5c7a bcbd
00000230: fe82 f0bd 46c0 cebc 59e4 a0bd 6f66 cb3d
00000240: 0797 86bb 643e 19bc fae4 ad3c 402c 393c
00000250: 5e2b 493d 61cd 183d 5f89 363d 2abf ad3d
00000260: 8b3f c43d bab5 f33a a311 f33c 01fd dbba
00000270: b8bb 10bd c26f e43c cd09 19bd d463 7cbd
00000280: 9282 b9bd 73d6 84bc ee07 0ebd 0c3c 803d
00000290: 56d3 b2bd cae8 9cbb d04c ecbc 9fa8 0abe
000002a0: 24eb d0bb 8e4e acbc d3cc 4ebe 1d6a 94bc
000002b0: 74c0 f63c 01de 12bc 156a 5b3d 4cf5 fcbc
000002c0: b39f 813d 30fd 293d 3d04 a93b dea5 11bd
000002d0: e72b 5e3b f055 8e3d c3b8 d53c 6d7a 99bd
000002e0: c3f2 bd3c 327c 2cbd d0e7 9b3d fa6a b43d
000002f0: 8b13 0cbc 6869 99bc a934 ab3c 9626 593d
00000300: 1155 32bc 0c05 a4bc 4faa bcbc bf40 b93d
00000310: b50e 5e3d 8394 063c ec61 903d 05dd 76bb
00000320: 2874 153d 4e35 2d3c 7cd9 5c3d 9323 1f3c
00000330: e0d3 c2bc 6a37 7bbc 1d75 cfbb 0f69 353c
00000340: f57b 363d b746 5ebd 8a8a a53b 3bec 3e3d
00000350: a35e 143d 0180 06bd 23fa d83b db97 5fbb
00000360: 0058 d03b b7d9 e0bc 6321 66bd 2b55 f7bc
00000370: 69a3 4abd 5eb8 513d a952 a93c 1bd0 95bc
00000380: b3c5 f3bc ee1d 563c ab69 aa3b 91de 2dbd
00000390: 143a f83c 9399 92bc 5d52 2cbd 4f59 8bba
000003a0: 4e5d febc f6b5 243d a413 adbd 8d8a 6ebd
000003b0: 6632 9c3c dec3 ebbc 26d4 37bd 7c2a e5bd
000003c0: 80c8 493c ccca 213c 1334 1abe a97e dcbc
000003d0: d28c f0bc a94e bbbc 14ce cebd fdf1 12be
000003e0: c361 3bbe 8966 8c3d e6c4 073d 6d78 a8bd
000003f0: dfbe 7cbc a0b6 8f3c af3a 103d 68f9 383d
0.048687633 0.0004612079 0.03580943 -0.006025414 0.07701266 0.054197714 0.040122718 0.018686028
0.084042214 -0.028004784 0.0027440668 0.0408492 0.028542377 0.034169305 -0.0065774447 0.021265345
-0.023554035 0.012602839 -0.03646882 0.0897745 0.074228376 0.012873268 0.017106077 -0.04125269
-0.04879313 -0.021345727 -0.13091229 -0.03689428 -0.1311275 -0.09620089 0.0013805779 -0.12197236
-0.038880907 -0.11260001 -0.120379575 -0.04614225 -0.06800404 -0.08724611 -0.0017931518 -0.05271893
-0.042800207 -0.008031324 0.047549646 -0.09153069 0.07600657 -0.054292116 -0.057149105 0.013969824
-0.019402973 -0.10225739 0.053318176 -0.020743662 0.0010612211 -0.009168669 -0.10757814 -0.00081026764
0.05299257 -0.05691119 0.078657605 0.05321624 -0.06151363 0.007686745 0.04926948 0.055906698
-0.0006319882 0.025862457 -0.003294424 -0.014273581 -0.023490615 0.043576542 0.045517813 0.004080654
0.0063453824 0.14580058 0.10285003 0.024093503 0.08669557 0.03806758 -0.03037184 0.12610629
0.02310146 -0.0065613003 -0.04450529 -0.0136095565 -0.095603615 -0.046108816 -0.038198367 0.018190056
-0.04145009 -0.04350844 -0.056842566 0.006216646 -0.02740175 -0.018208332 0.03193905 -0.021923674
0.014909669 -0.016422255 0.034515504 -0.07483096 -0.04218031 0.00777568 -0.025279077 -0.10155903
-0.14179593 0.028683381 -0.06351708 -0.24204978 0.045539457 -0.04156978 0.0027774936 -0.0022956606
-0.038137045 -0.04825617 -0.03986869 0.031013628 0.05281816 0.039899837 -0.041971102 -0.023820756
0.05627014 0.03886804 0.0590101 0.02842761 0.073110595 0.009369862 -0.094923034 -0.020338714
-0.09333601 -0.055711314 0.022810481 -0.07655161 0.025904631 0.050620835 -0.09306875 -0.0752775
-0.03714341 -0.012578967 0.035879273 -0.09203026 -0.11743735 -0.025238167 -0.07856054 0.09931647
-0.0041073593 -0.009353254 0.021227349 0.011302054 0.049113624 0.03730524 0.0445646 0.08483727
0.09582432 0.0018593587 0.029671496 -0.0016783775 -0.035335273 0.027885322 -0.037362862 -0.06161864
-0.090581074 -0.016215539 -0.03467553 0.06261453 -0.087317154 -0.004788493 -0.02884522 -0.13540886
-0.006375687 -0.021033552 -0.20195322 -0.018117005 0.030121066 -0.008964063 0.053567965 -0.030878685
0.06329288 0.041501224 0.005157976 -0.035558574 0.003390068 0.06949985 0.026089078 -0.07494054
0.023187047 -0.04211063 0.07612574 0.08809467 -0.008549581 -0.01872702 0.020899134 0.053015314
-0.010884539 -0.020021938 -0.023030428 0.090455525 0.054213244 0.008214119 0.07049927 -0.003766836
0.03648773 0.010571791 0.053918347 0.009713071 -0.02378267 -0.015333036 -0.0063310997 0.011072411
0.04455181 -0.054266658 0.0050519155 0.046612006 0.036223065 -0.032836918 0.0066216155 -0.0034117613
0.0063581467 -0.027447565 -0.056184184 -0.030191978 -0.049472246 0.051201217 0.020669298 -0.018287709
-0.029757356 0.013068659 0.005200585 -0.042448584 0.030301131 -0.017895496 -0.042070735 -0.0010631474
-0.03105035 0.040212594 -0.08451012 -0.0582376 0.019067 -0.02877992 -0.044880055 -0.11189744
0.012315869 0.009875011 -0.15058927 -0.026915865 -0.029364023 -0.022864657 -0.100979 -0.14350124
-0.18299012 0.068554945 0.03314676 -0.082260944 -0.015426367 0.017543137 0.035212215 0.045159727

bias f4 [32]
00000000: 4f80 143e f2ab f83c 7618 f93c 5fd5 ae3c
00000010: c54b f83c 4dd0 9fbd 58a5 f1bd 12c3 3a3d
00000020: dc86 2d3d 3b1c 1e3e ab22 b73d 3bea de3d
00000030: 1378 ed3d 6753 86bd 247c e73c 5a4c e7bd
00000040: 1600 a6bd 8017 d93d a31c 3a3e afb1 7a3d
00000050: fa59 a7bd 8176 f23c 4262 0bbd 4a57 5e3d
00000060: 3bfd 00be 4eef f83d 8736 0e3e dbd9 42be
00000070: 5689 c83c 9f71 22bd d9e2 28bd 428b e93d
0.14502071 0.030355427 0.030407172 0.021341978 0.030309567 -0.07803402 -0.11799115 0.04559619
0.04236494 0.15440457 0.08942159 0.1088452 0.11595168 -0.065588765 0.028257437 -0.1129386
-0.08105485 0.106001854 0.18174987 0.06120461 -0.081714585 0.029597523 -0.034029253 0.054282464
-0.125966 0.12155019 0.13887988 -0.19028418 0.02447955 -0.03965914 -0.041231964 0.114035144

weight f4 [32, 1, 3, 3]
00000000: 5c90 94bc adf8 17be 73bb 53be 48b5 963e
00000010: 06f7 053d 8c42 54be 06c2 0f3e fb3f 10bc
00000020: d529 8d3e f947 0d3e 3556 a1bd a707 fbbd
00000030: 999d 873e c0ff c93d 7e7b a83e b35b 563e
00000040: 75ec 47be 4691 0b3e 7680 11be e7ac 5b3e
00000050: de9c 0ebd c674 803e b3ac 9e3d 3284 b83d
00000060: 67d3 8bbe d82f 883c 89e3 60be 3804 a0be
00000070: b4f5 31be aaaf 81be 109e 33bd 8f98 31be
00000080: 8b57 b3bd 9f58 8abe 8f01 4b3e 77f2 3dbe
00000090: 89cb 16be 3193 8cbe c3a7 483e 9f75 95be
000000a0: d147 283e 03df 623e fd18 b4bc 97cb 7cbe
000000b0: d029 8e3e 7ee1 873e 7adb 8c3d 33e9 a13c
000000c0: 325d 42be 1f49 7cbe ea1d 44be 149b 7fbe
000000d0: e013 d53d 2aeb 3f3e fc68 ae3d 6bdf 7cbe
000000e0: 37bc 8e3d e78f dabd 9b8c 07be cc0b 933d
000000f0: 6b5a ae3d 338d 7b3d a647 9abe 56a1 d0bd
00000100: a327 28bd c4ae 98be 497b 1cbd 92e7 48be
00000110: 3317 9f3d cbb3 cd3d e78e 8abe 819f 473d
00000120: 80ef 1e3d db71 2fbe 20c4 493d a120 27be
00000130: d780 01be 0a91 a23e 0454 8dbd 957c a43e
00000140: a3ff 5a3d c5e1 413d 550a 963e 791f 1fbe
00000150: 3041 9b3d bd03 8e3c 0709 9d3d 5412 48be
00000160: 64fe 82be c584 ab3d 013d 2d3d d042 a43d
00000170: 65ab 363e 2d3f 82be 167c 423d 12ac cfbd
00000180: ff0b dcbd e3e7 d93d 8b74 143e bc8e 62be
00000190: 9100 3abc 3422 ae3e ed88 f1bd 3f3d b03e
000001a0: 2401 70be c9e8 093d 563d 56be 9267 2cbc
000001b0: 1de3 8f3e 3762 233d e5a1 aa3d 2d51 fd3d
000001c0: ffb6 ec3d 7ce1 483d ca9e c0bd 3042 693e
000001d0: 75be 043d 7709 a03d 2fa9 393e 62fb 15be
000001e0: 100a 12be 5c70 f3bb 0f22 e2bd 750b 9d3e
000001f0: f4ea 873e 7795 ffbc 95e3 86be 9f2e 60be
00000200: 022d 163e f8ec 903e acc1 5abd 2e93 4b3b
00000210: 86f8 7abe 5f1b ae3e e36b aebd a369 90be
00000220: dcf5 0bbe b4a7 2f3d 2564 f63c d243 86bd
00000230: 9292 6d3e 70f3 953e 04a1 81be d99c a2be
00000240: 1e2c a2be 657c 63bd bd2c 29be c7e6 df3b
00000250: 184b 3a3d 4b7f 0b3e 7877 7d3e cf7c b4bd
00000260: 07a8 7a3e d384 45be 6c89 723e 5c53 2dbc
00000270: 6a85 56be b7f5 8ebd fc14 763e 1a8c a13d
00000280: 1e4b 09bd 91d0 e03b 5afe a03e f9d7 48be
00000290: a37b 3ebe cda8 70bd fc77 5b3e a644 5d3e
000002a0: 196b 6b3e 2227 87be cf60 93be 2893 be3d
000002b0: 76f4 87bd 9553 2d3d 10a8 24be e5f0 6d3c
000002c0: 6d9a 083e 69a2 863d 555d 51be 110b af3d
000002d0: dfa3 0cbe d430 793d d623 663d 5d2c 3dbe
000002e0: 482c 07be 99ab 373e e2ff 2dbe efbb 6b3e
000002f0: 7c56 7cbc db56 73bd 67cd 88be 6a25 a2be
00000300: 90d9 1c3d 9188 213e 150e 08bd 2342 1a3e
00000310: 3951 c73e 6895 53be ba45 eb3d 96aa 0abe
00000320: ecd4 8c3e 87bd ce3d 194b a4be 20d4 1bbb
00000330: 3aba 93be c0bf 8abd 708e 65be 2ac4 08be
00000340: 941e 2f3e ff39 913e bcd9 213e f738 2e3e
00000350: 94ed 33be a818 7dbb db19 dfbc d05a 8d3d
00000360: 30d0 9f3e ca19 fabd 0b6e 0c3c 9504 7dbd
00000370: 6362 85be 3f29 a7be 1a87 823d ce45 6e3e
00000380: 0d15 c5bd 729e 7f3e a8ff 70be 159d 7c3e
00000390: 13a2 263d ee0d a8bc 3de9 92be a07c db3a
000003a0: 4917 dc3d ba44 043e 9adf 5d3e f7e5 473e
000003b0: bc55 eb3d bb38 b1bd a626 3bbe cfbf 88be
000003c0: b3eb a43c be3e 853e d1fd 90be 4f9c 9a3d
000003d0: 2c0b 5fbe 0ba3 37bd aba5 91be 758c 67be
000003e0: 47c0 fb3d df42 903e 9b16 1abe 592d c73e
000003f0: 74ba 3a3e 3bdc 5d3e 1685 133e 5bfc 9abe
-0.018135242 -0.14840956 -0.20676975 0.29435182 0.032706283 -0.2072851 0.14038858 -0.008804317
0.27570978 0.13796987 -0.07877771 -0.12257319 0.26487425 0.098632336 0.32906717 0.20933418
-0.19523795 0.13629636 -0.1420916 0.21452676 -0.03481757 0.2508909 0.077477835 0.09009589
-0.27309725 0.016624376 -0.21961798 -0.3125322 -0.17378885 -0.25329334 -0.043851912 -0.17343353
-0.08756932 -0.27020738 0.19824813 -0.18549524 -0.1472608 -0.27456048 0.19595246 -0.291913
0.16433646 0.22155385 -0.021984572 -0.24687038 0.27766275 0.26539224 0.06877799 0.019764518
-0.18980864 -0.24637268 -0.19152036 -0.24961501 0.104041815 0.18742052 0.08516118 -0.24694602
0.06969493 -0.106719784 -0.1323723 0.071799845 0.085133396 0.061413955 -0.30132788 -0.101870224
-0.041053426 -0.29820836 -0.03820351 -0.19619587 0.07768097 0.100440584 -0.2706215 0.0487361
0.038802624 -0.17133276 0.049259305 -0.1632104 -0.12646805 0.3175128 -0.0690079 0.321263
0.05346645 0.04733445 0.29304758 -0.1553935 0.07580793 0.017335767 0.076677375 -0.19538242
-0.2558471 0.08374933 0.042294506 0.08020556 0.1783882 -0.25438824 0.04748162 -0.10140242
-0.107444756 0.10639932 0.14497583 -0.22124761 -0.011352674 0.3401047 -0.11793695 0.34421727
-0.23437935 0.033669267 -0.20921835 -0.01052274 0.2810296 0.039888587 0.0833166 0.12368999
0.11558341 0.049043164 -0.094052866 0.22779155 0.032408196 0.07814305 0.18130945 -0.14646676
-0.14261651 -0.0074291658 -0.110416524 0.30672804 0.26546443 -0.0311992 -0.26345506 -0.21892785
0.14665607 0.28305793 -0.053407356 0.0031063068 -0.24508867 0.34005257 -0.085166715 -0.28205594
-0.13668007 0.042884544 0.03007705 -0.065559044 0.23200443 0.2928729 -0.25318158 -0.3176029
-0.31674284 -0.055538554 -0.16520973 0.0068329307 0.04548177 0.13622777 0.24752605 -0.08812868
0.2447816 -0.1928895 0.23685235 -0.010578956 -0.20949331 -0.0698046 0.24031442 0.078880504
-0.033518903 0.0068608006 0.31444055 -0.19613637 -0.18601851 -0.05875473 0.21432489 0.21608219
0.22990073 -0.26397043 -0.28784797 0.093054116 -0.06638424 0.04231604 -0.16079736 0.014522766
0.13340159 0.06573946 -0.2044576 0.085470326 -0.13734387 0.06083758 0.05618652 -0.18473954
-0.13200486 0.17936553 -0.16992143 0.2302091 -0.015401479 -0.059409004 -0.2671921 -0.3166917
0.03829342 0.15774752 -0.033216555 0.15064292 0.38929155 -0.20662463 0.11487909 -0.13541636
0.27506196 0.10094743 -0.32088545 -0.002377756 -0.28853017 -0.06774855 -0.22417617 -0.1335608
0.17101508 0.2836456 0.15805715 0.17013918 -0.17571098 -0.0038619433 -0.027234009 0.06902087
0.31213522 -0.1221195 0.008571158 -0.061771948 -0.26051626 -0.32648656 0.06373425 0.23268816
-0.09623156 0.24962786 -0.23535025 0.24669297 0.04068191 -0.020514455 -0.28693572 0.0016745515
0.10746629 0.12916842 0.21667328 0.19521318 0.11490962 -0.086533986 -0.18276462 -0.26708838
0.020131921 0.2602443 -0.28318647 0.07549345 -0.21781605 -0.044833224 -0.28446707 -0.22612174
0.12292533 0.2817602 -0.15047686 0.38901785 0.18235189 0.21666043 0.14406237 -0.30270657
