old:unneeded/tmp/torch_model_80.pt (torch, 749410 bytes, 11 tensors)

weight f4 [32, 1, 3, 3]
-0.08999412 -0.29958948 -0.10946463 0.049975187 -0.12349128 -0.20635284 -0.06622417 0.3326459
0.026876513 0.04568179 -0.26014167 -0.2514595 0.22534856 -0.22704795 0.18116698 -0.16274309
-0.09929894 0.22276911 0.25020158 0.12854978 0.31532723 -0.27715412 -0.046176326 -0.015548549
0.25593996 0.017845033 0.03160471 -0.073499784 0.27625933 0.120857656 -0.32566348 -0.18443312
-0.3368938 0.13323687 -0.14409184 0.17019303 0.102345504 -0.07424497 0.037663408 -0.23042652
-0.12309872 -0.19912355 -0.12409518 0.15535639 0.11089096 -0.16402061 -0.06469252 -0.062106866
-0.31733343 0.04120799 0.08385479 0.09021597 -0.10190365 0.18807198 -0.24670042 0.106261015
0.0943739 -0.077046394 -0.046689704 0.096247084 0.22355372 -0.29068917 0.3019034 0.23071192
-0.1457111 -0.23913369 -0.11686573 0.2523155 -0.08773267 -0.09488479 -0.040876903 0.14628899
0.22857808 -0.12568566 0.26510894 -0.065626904 0.14477104 -0.032120317 0.27513033 -0.041872207
-0.24071313 0.23214966 0.10442924 -0.27071396 0.15338166 0.040217604 0.22171223 -0.25957018
-0.18879247 -0.30715448 -0.09451144 -0.06278269 0.12680098 -0.005633866 -0.14370373 -0.08353059
0.03222098 -0.18795913 0.10684037 -0.016852962 -0.043834407 -0.32012174 -0.03698166 -0.02457041
0.14184232 0.1512476 0.25176227 -0.18361185 -0.24682981 0.28070682 0.1162369 0.24523215
0.2819171 -0.22609241 0.252799 0.10527179 0.0764758 -0.04345964 0.09328623 -0.32096648
0.23616152 0.18452838 -0.05651315 -0.317197 -0.05857661 0.06914784 -0.38739264 0.005871146
0.16985877 -0.2388352 0.2431947 0.093943134 0.076203026 -0.15052815 0.20528707 -0.095461465
-0.21415469 -0.019848153 -0.18587862 0.27700636 0.0034612871 -0.2630986 -0.124093056 -0.25974473
0.0038905349 -0.062350348 0.32847905 0.096211 0.26766223 -0.12690191 -0.27515024 -0.27893028
0.033365004 -0.20437261 -0.01690076 -0.06065519 0.2606416 -0.29651383 0.08414119 0.077610485
-0.10743145 -0.2631162 -0.24151513 0.058063827 0.10468932 0.28559852 -0.0024416968 -0.29565766
-0.28203267 0.038272236 -0.011099467 0.058128446 0.21303022 -0.242025 0.22305806 -0.0019085715
-0.2897926 0.1855782 0.124169126 -0.32486963 0.33156767 -0.15250975 0.14435837 -0.17872892
0.04578581 -0.14843246 -0.2989511 -0.18312174 -0.14644073 0.21992394 -0.33784834 0.14572968
-0.15823354 -0.077330284 0.20002759 0.23053671 0.19282801 -0.017541407 0.02691938 -0.22151646
0.051991563 0.07371199 -0.38571307 0.13091366 0.015935123 0.18780214 -0.09890031 -0.12964988
0.13564135 -0.10170487 0.26729673 -0.11890717 0.29083645 -0.004579897 -0.33161518 -0.0050863
0.2210263 0.28605452 0.1579386 0.12211705 -0.030245118 0.17637236 0.22026218 -0.039567925
-0.03888414 -0.13366593 -0.24862239 0.053940885 0.07230498 0.14075749 -0.2248368 0.21510725
-0.12434851 0.060839336 0.0306165 0.22851315 0.034193803 -0.107464686 -0.15057646 0.2430088
0.3049323 0.1498454 0.26765168 -0.20272364 0.20187214 -0.3057956 -0.26244426 -0.2864832
0.24470112 0.15549736 -0.2740766 0.21709496 0.30040747 -0.2139777 -0.07531949 0.109506644
00000000: d64e b8bd cb63 99be fe2e e0bd c8b2 4c3d
00000010: ffe8 fcbd 294e 53be 8aa0 87bd 9050 aa3e
00000020: 222c dc3c d41c 3b3d 4a31 85be 4dbf 80be
00000030: c6c1 663e 427f 68be d683 393e 20a6 26be
00000040: 3e5d cbbd 961d 643e 6c1a 803e 8ea2 033e
00000050: 9272 a13e 25e7 8dbe 6323 3dbd 57bf 7ebc
00000060: 900a 833e bf2f 923c f173 013d 0e87 96bd
00000070: dd71 8d3e 3884 f73d 5dbd a6be 09dc 3cbe
00000080: 587d acbe 3f6f 083e d08c 13be 1547 2e3e
00000090: 859a d13d bf0d 98bd f244 1a3d eef4 6bbe
000000a0: 2f1b fcbd 0be7 4bbe 9d25 febd bf15 1f3e
000000b0: cd1a e33d 05f5 27be 837d 84bd c563 7ebd
000000c0: 8779 a2be b6c9 283d 0fbc ab3d 27c3 b83d
000000d0: dcb2 d0bd f195 403e 099f 7cbe 609f d93d
000000e0: 1a47 c13d 80ca 9dbd b43d 3fbd 311d c53d
000000f0: 44eb 643e 36d5 94be 1593 9a3e bf3f 6c3e
00000100: 4a35 15be 76df 74be 4d57 efbd 7f2f 813e
00000110: 30ad b3bd f552 c2bd 8a6e 27bd c8cc 153e
00000120: 5f10 6a3e beb3 00be 5cbc 873e 6667 86bd
00000130: dc3e 143e 9890 03bd e2dd 8c3e 3182 2bbd
00000140: 817d 76be a4b8 6d3e ffde d53d 059b 8abe
00000150: 1510 1d3e 37bb 243d 8808 633e 62e6 84be
00000160: d052 41be 5a43 9dbe 378f c1bd 3694 80bd
00000170: 1ed8 013e 4b9c b8bb 1227 13be 1612 abbd
00000180: 25fa 033d 5c78 40be 20cf da3d 390f 8abc
00000190: b58b 33bd ffe6 a3be 157a 17bd e247 c9bc
000001a0: 1d3f 113e a7e0 1a3e fce6 803e bf04 3cbe
000001b0: f4c0 7cbe ceb8 8f3e 9d0d ee3d 231e 7b3e
000001c0: 7057 903e c584 67be df6e 813e bc98 d73d
000001d0: 589f 9c3d bc02 32bd da0c bf3d b855 a4be
000001e0: 53d4 713e 02f5 3c3e 557a 67bd a567 a2be
000001f0: 07ee 6fbd 629d 8d3d 5458 c6be be62 c03b
00000200: 75ef 2d3e 3791 74be 0808 793e 4265 c03d
00000210: 5510 9c3d 0d24 1abe c636 523e 4d81 c3bd
00000220: 5e4b 5bbe 9898 a2bc f756 3ebe c7d3 8d3e
00000230: c3d6 623b dcb4 86be 8024 febd 43fd 84be
00000240: 58f8 7e3b 1463 7fbd 682e a83e 460a c53d
00000250: 060b 893e 93f2 01be 7ee0 8cbe f3cf 8ebe
00000260: bea9 083d 0e47 51be 7673 8abc 9471 78bd
00000270: d172 853e a9d0 97be 3752 ac3d 3ff2 9e3d
00000280: 0505 dcbd 2bb7 86be be4f 77be 56d4 6d3d
00000290: 5b67 d63d f839 923e e004 20bb 7160 97be
000002a0: 9666 90be 59c3 1c3d 8ada 35bc 1818 6e3d
000002b0: 9824 5a3e 67d5 77be 5569 643e 0829 faba
000002c0: b25f 94be 3608 3e3e 624c fe3d 5055 a6be
000002d0: 3dc3 a93e 842b 1cbe aed2 133e b704 37be
000002e0: e789 3b3d aefe 17be 1e10 99be 4484 3bbe
000002f0: 8ff4 15be be33 613e 75fa acbe 293a 153e
00000300: f907 22be 575f 9ebd 08d4 4c3e d111 6c3e
00000310: b574 453e ffb2 8fbc 0886 dc3c 36d5 62be
00000320: 1bf5 543d 50f6 963d 2f7c c5be 3b0e 063e
00000330: 608a 823c 344f 403e 3f8c cabd f0c2 04be
00000340: 91e5 0a3e a54a d0bd 1edb 883e 9a85 f3bd
00000350: 84e8 943e f612 96bb 77c9 a9be faaa a6bb
00000360: b854 623e bd75 923e a8ba 213e 8118 fa3d
00000370: 9cc4 f7bc f59a 343e 698c 613e fa11 22bd
00000380: fa44 1fbd b9df 08be de96 7ebe 1ef1 5c3d
00000390: a214 943d bb22 103e 9e3b 66be 1345 5c3e
000003a0: 6eaa febd ab32 793d 74cf fa3c 5aff 693e
000003b0: cd0e 0c3d 7216 dcbd b730 1abe 4dd7 783e
000003c0: 1620 9c3e 1371 193e a409 893e c996 4fbe
000003d0: 92b7 4e3e 3e91 9cbe 185f 86be edad 92be
000003e0: ee92 7a3e b33a 1f3e c553 8cbe 244e 5e3e
000003f0: 02cf 993e f81c 5bbe 1b41 9abd 0545 e03d

bias f4 [32]
0.32198322 -0.22613993 -0.043667477 -0.35826895 -0.13196088 -0.2469802 0.26411885 -0.3214896
-0.02990417 0.22807927 0.17243674 0.068229154 -0.13750648 -0.3181459 -0.10324024 0.2521948
0.3238124 -0.2843105 0.1097255 0.39891648 0.048880145 -0.1981046 -0.22197902 0.1646878
0.16640261 -0.20055914 -0.2943093 -0.095228635 -0.08907611 0.075700544 0.051488295 0.24353887
00000000: fcda a43e 3a91 67be abdc 32bd 076f b7be
00000010: c120 07be 61e8 7cbe 963a 873e 499a a4be
00000020: 97f9 f4bc 9d8d 693e 4293 303e babb 8b3d
00000030: 80ce 0cbe 05e4 a2be 9e6f d3bd ad1f 813e
00000040: bdca a53e 2591 91be c3b7 e03d c83e cc3e
00000050: 8c36 483d efdb 4abe 784e 63be eba3 283e
00000060: 7265 2a3e 605f 4dbe b5af 96be 3b07 c3bd
00000070: 896d b6bd e308 9b3d 64e5 523d 4162 793e

weight f4 [64, 32, 3, 3]
0.011936721 0.11591341 0.11028635 0.020896278 -0.005569601 -0.055056855 -0.010248992 0.010385102
-0.08916363 -0.07918811 -0.023523984 -0.021376576 -0.013216212 0.023833733 0.01974873 -0.06705291
-0.033972047 -0.030152537 0.04338841 -0.0121641345 0.0018848282 0.04960832 -0.025437603 0.055819903
0.0044652256 -0.040446617 -0.043112814 -0.010984448 -0.042088866 -0.06639536 0.05319603 0.017153552
0.015819656 -0.06432299 0.011080575 -0.010020383 -0.09473167 0.034761228 -0.0077009127 0.009157751
-0.0184806 0.003023581 -0.12622166 -0.13024552 -0.1578933 -0.059989214 0.01660248 -0.021523641
-0.11258138 -0.0010107958 0.114279956 0.021742104 -0.01569113 0.011162617 0.003474764 -0.008801959
-0.013622152 -0.052696247 -0.06185643 0.021216914 -0.08915855 -0.08428361 -0.016125148 -0.04807431
-0.052154046 -0.019371709 0.03611755 -0.073792316 -0.035381094 -0.0069179786 0.021131948 -0.07031502
-0.015097278 0.014883792 0.05196126 0.014165231 0.022683682 0.032224838 -0.069872044 -0.03900008
0.013434919 0.08779029 -0.0012881805 -0.04579944 0.089304134 0.06116913 0.10396624 0.05247686
-0.0384839 0.04293626 -0.061312616 0.086093076 -0.09592983 0.016382813 -0.058482923 -0.036387455
-0.22918813 -0.13238363 -0.10618274 -0.040608622 -0.04905686 -0.039821915 -0.09622711 -0.07104197
-0.101857305 -0.05063537 -0.013336359 -0.083023585 0.026180767 -0.004369993 0.012763984 -0.003979124
-0.031700198 0.059089735 -0.0011708761 -0.053729977 0.011985402 -0.06426435 -0.080158696 -0.065709144
0.023573576 -0.00076216157 0.014263427 -0.1163168 -0.10175395 -0.1308425 0.011676814 0.008796866
0.032074668 -0.00805624 -0.041017562 -0.023122903 0.006435848 0.036105607 0.008894432 0.033753917
-0.021982322 -0.120814964 0.034324884 0.10533408 0.1177145 -0.10085907 -0.11077675 -0.06984724
0.07262545 -0.010883239 0.0057382653 0.08757446 0.1033866 0.08555067 -0.059665296 -0.023457851
0.012627635 0.0023450956 -0.08450591 -0.14425862 0.04203902 0.05332796 0.0410159 -0.1425913
-0.21131012 -0.15624565 -0.069181204 -0.05751465 0.0017485311 -0.06343722 0.025526566 0.062175587
-0.0770041 -0.05795231 0.013655927 -0.0623102 0.016304145 -0.029590447 0.007450533 0.029079322
-0.004199641 -0.110266 -0.07434463 -0.08161428 -0.023625089 -0.010205852 -0.10746488 -0.008182611
-0.010463537 0.022042846 -0.042501356 -0.05306491 -0.041489966 0.049879882 0.063596286 0.03114495
-0.058053024 0.029738955 -0.06305595 -0.029981002 -0.00907146 0.0134860305 0.029208295 -0.068416014
-0.03987069 -0.026568862 0.021129876 -0.042309064 -0.034012314 -0.047864683 -0.08579135 0.029236147
-0.010608214 0.060728643 -0.0076780734 0.0065895175 0.041957427 -0.034929525 0.008432892 -0.05241665
0.05022542 -0.0043102046 0.039644767 -0.0043525803 0.0096470965 -0.0019609262 -0.0027893777 -0.05626481
-0.058685765 -0.059042934 0.009436352 0.015230101 0.002373048 -0.06425979 -0.07127582 -0.03867839
-0.030142864 -0.07081856 -0.015008576 -0.027211323 0.05462038 -0.011094204 0.012731783 -0.035543244
-0.011516164 -0.067591876 0.008880308 -0.05623542 0.014706121 -0.010997773 -0.0694701 0.023726411
0.017102133 -0.1103942 -0.098463334 -0.10330295 0.020671306 0.0040979534 -0.07866088 -0.030296652
00000000: 3d92 433c 0364 ed3d cfdd e13d ac2e ab3c
00000010: 3381 b6bb 4c83 61bd 63eb 27bc 4626 2a3c
00000020: 6c9b b6bd 602d a2bd 5fb5 c0bc ee1d afbc
00000030: d088 58bc f63e c33c 17c8 a13c 0953 89bd
00000040: 4626 0bbd 7402 f7bc 0cb8 313d 144c 47bc
00000050: 570c f73a 1832 4b3d 8562 d0bc 69a3 643d
00000060: 0751 923b 5aab 25bd 1097 30bd 1df8 33bc
00000070: 6065 2cbd 4afa 87bd 15e4 593d 9b85 8c3c
00000080: 3998 813c c6bb 83bd 4d8b 353c 882c 24bc
00000090: ae02 c2bd ca61 0e3d f057 fcbb 640a 163c
000000a0: a164 97bc 4627 463b 4040 01be 155f 05be
000000b0: c8ae 21be 40b7 75bd ed01 883c 5952 b0bc
000000c0: 1191 e6bd ae7c 84ba 9c0b ea3d 7f1c b23c
000000d0: af8a 80bc 69e3 363c deb8 633b 1836 10bc
000000e0: 722f 5fbc 05d8 57bd 2b5d 7dbd 18cf ad3c
000000f0: c298 b6bd e39c acbd e318 84bc 91e9 44bd
00000100: 7b9f 55bd 6bb1 9ebc ffef 133d 6d20 97bd
00000110: c4eb 10bd 36b0 e2bb e81c ad3c 5201 90bd
00000120: 935a 77bc 26db 733c 55d5 543d 4915 683c
00000130: 21d3 b93c 31fe 033d 1319 8fbd 8cbe 1fbd
00000140: 221e 5c3c 65cb b33d 2ad8 a8ba 3298 3bbd
00000150: 16e5 b63d 7b8c 7a3d 41ec d43d faf1 563d
00000160: 4ba1 1dbd efdd 2f3d f022 7bbd 9151 b03d
00000170: dc76 c4bd 4035 863c ca8b 6fbd 030b 15bd
00000180: 4bb0 6abe 938f 07be 5676 d9bd 3a55 26bd
00000190: d9ef 48bd 4e1c 23bd b812 c5bd 747e 91bd
000001a0: 909a d0bd 0967 4fbd be80 5abc 4508 aabd
000001b0: 0c79 d63c 2932 8fbb 0720 513c 5063 82bb
000001c0: 11d8 01bd 1408 723d 1578 99ba f713 5cbd
000001d0: 6b5e 443c 079d 83bd 3e2a a4bd 8492 86bd
000001e0: 5f1d c13c cccb 47ba 26b1 693c 8137 eebd
000001f0: 6064 d0bd 94fb 05be 1c50 3f3c bb20 103c
00000200: ba60 033d 52fe 03bc 0802 28bd 3e6c bdbc
00000210: cee3 d23b 79e3 133d f4b9 113c 8c41 0a3d
00000220: 4514 b4bc d66d f7bd 4098 0c3d 65b9 d73d
00000230: 4d14 f13d 338f cebd ecde e2bd 120c 8fbd
00000240: a7bc 943d 9d4f 32bc 0f08 bc3b 3d5a b33d
00000250: 5bbc d33d 3135 af3d 9963 74bd ae2a c0bc
00000260: 24e4 4e3c 2db0 193b 6f11 adbd 88b8 13be
00000270: 1c31 2c3d 6b6e 5a3d 4a00 283d 7403 12be
00000280: ae61 58be dcfe 1fbe e0ae 8dbd 7b94 6bbd
00000290: f82e e53a 60eb 81bd 171d d13c d4ab 7e3d
000002a0: 53b4 9dbd 675f 6dbd 1cbd 5f3c fb38 7fbd
000002b0: 4590 853c aa67 f2bc 9a23 f43b c237 ee3c
000002c0: 249d 89bb 24d3 e1bd ff41 98bd 6325 a7bd
000002d0: 6789 c1bc 7236 27bc 8c16 dcbd 5c10 06bc
000002e0: 416f 2bbc 3393 b43c e715 2ebd 975a 59bd
000002f0: 62f1 29bd d94e 4c3d c53e 823d b223 ff3c
00000300: 02c9 6dbd 1c9f f33c 7a23 81bd b89a f5bc
00000310: 76a0 14bc 83f4 5c3c 3c46 ef3c b21d 8cbd
00000320: 734f 23bd f1a6 d9bc 9018 ad3c 454c 2dbd
00000330: 7f50 0bbd c20d 44bd 60b3 afbd a580 ef3c
00000340: 13ce 2dbc 99be 783d 5998 fbbb e1ec d73b
00000350: 8ddb 2b3d 4312 0fbd 1d2a 0a3c d7b2 56bd
00000360: 2cb9 4d3d 9e3c 8dbb 8d62 223d 17a0 8ebb
00000370: db0e 1e3c e282 00bb fecd 36bb ee75 66bd
00000380: 7c60 70bd 01d7 71bd ee9a 1a3c ac87 793c
00000390: 2485 1b3b a39a 83bd 0ff9 91bd 3b6d 1ebd
000003a0: 2bee f6bc 5209 91bd 88e6 75bc 48ea debc
000003b0: 9fb9 5f3d 77c4 35bc f898 503c cb95 11bd
000003c0: 4bae 3cbc 9c6d 8abd b67e 113c 1d57 66bd
000003d0: f1f1 703c 0130 34bc 5746 8ebd e45d c23c
000003e0: c619 8c3c 5b16 e2bd 25a7 c9bd 7f90 d3bd
000003f0: df56 a93c 2048 863b f518 a1bd af30 f8bc

bias f4 [64]
-0.08100452 0.0158431 0.14060478 -0.33070153 -0.09738095 0.008302885 0.09235728 -0.13587895
-0.19638172 0.2198252 0.14990938 0.041640107 -0.046506047 0.099802636 -0.0070660603 0.14620093
-0.34195668 -0.14362206 0.07519758 -0.04992563 0.07532975 -0.09672617 0.08703337 -0.03780452
-0.19189863 -0.14208187 0.41108632 0.009927646 0.15884946 0.23240809 0.008514943 0.08549812
0.06947838 0.06777857 0.075817086 0.23045833 0.10995942 -0.060707424 0.3288805 0.09691298
0.013460057 -0.10231896 -0.13914701 -0.100598566 0.08987234 0.061322242 -0.02186389 0.062119883
0.02837313 0.37570125 0.14116134 -0.009175057 0.085921146 0.008993312 -0.13814141 0.112153046
-0.017442508 0.10253478 0.015892657 -0.20867898 -0.11920934 -0.2182461 -0.058133926 0.0059213
00000000: b3e5 a5bd 64c9 813c b3fa 0f3e b651 a9be
00000010: aa6f c7bd d308 083c d025 bd3d da23 0bbe
00000020: 4a18 49be db19 613e d881 193e d18e 2a3d
00000030: 207d 3ebd 5365 cc3d 698a e7bb b2b5 153e
00000040: f214 afbe a911 13be 3001 9a3d d17e 4cbd
00000050: 7c46 9a3d 5f18 c6bd 8d3e b23d ead8 1abd
00000060: 1381 44be e97d 11be e879 d23e 91a7 223c
00000070: 6fa9 223e 63fc 6d3e 4282 0b3c a319 af3d
00000080: ae4a 8e3d 7ecf 8a3d fd45 9b3d 45fd 6b3e
00000090: 6832 e13d 59a8 78bd 0663 a83e 507a c63d
000000a0: 9287 5c3c 9a8c d1bd 8e7c 0ebe 9f06 cebd
000000b0: fd0e b83d 082d 7b3d e71b b3bc 6b71 7e3d
000000c0: c46e e83c ea5b c03e 998c 103e fa52 16bc
000000d0: 6df7 af3d af58 133c f174 0dbe 7fb0 e53d
000000e0: 97e3 8ebc c1fd d13d 5131 823c f1af 55be
000000f0: 0724 f4bd e87b 5fbe d71d 6ebd 7707 c23b

weight f4 [128, 64, 3, 3]
0.030303864 0.029801738 -0.038479365 -0.058850195 -0.03170844 -0.020845002 -0.08033653 -0.03373246
-0.018458147 0.012889826 0.024196459 0.014464784 0.016823709 -0.010351729 0.012555951 -0.0113549335
0.020862339 0.00018854761 -0.0066170525 0.0056073917 -0.038150556 0.008206671 0.0014380276 -0.026079485
0.03744523 0.013933427 -0.0058407676 -0.024227863 0.052051585 0.014130492 0.029101608 0.03227454
0.021360233 -0.016267683 0.016203918 0.041419014 -0.020074647 0.0561812 0.028210623 0.037400965
-0.037820674 -0.045915734 0.022128476 -0.01164106 0.0135647245 -0.013389811 0.0045704725 0.029604975
0.017129198 -0.013087949 0.02855853 -0.030830618 0.021511992 -0.011199739 -0.003909393 0.010163906
-0.016806044 -0.008822712 -0.021393275 -0.051696554 0.006931427 -0.061822277 -0.051633224 0.0005097939
0.028598996 0.025472932 0.025768232 -0.0030665942 -0.030996205 0.0039325748 -0.03799313 0.019951243
-0.042653505 0.018277239 0.038898822 0.019100226 0.04627044 0.026085837 0.006774567 -0.032914963
-0.03360126 -0.045339666 -0.01761486 -0.02064119 -0.022403387 -0.0054492448 -0.0097132325 0.033211954
0.025266018 -0.016736364 -0.029114941 -0.005800901 0.05832523 0.042475183 0.037772167 -0.0037964054
0.030960781 0.009409095 0.074717596 -0.022686053 0.03336742 0.018004058 0.025092822 0.01803992
0.030019622 0.039152384 -0.026505504 0.006502777 0.013966694 0.0456166 -0.019084578 -0.025318408
-0.034737226 0.029477471 -0.042666793 0.01367558 -0.038692333 0.028605692 0.0026168202 -0.033566702
0.017111456 -0.005420421 0.018961541 -0.0010547944 -0.03283401 -0.02328844 -0.03001852 -0.014916747
0.015780944 0.012443972 -0.03523983 0.02458359 0.012276861 0.0011100578 -0.0028545542 0.03445881
0.021686034 -0.028566835 0.024311867 -0.031836703 -0.025174173 0.016827546 0.031286407 -0.027409688
-0.006347604 -0.018543294 -0.002873355 0.0023569085 -0.03567311 0.018689204 -0.05533869 -0.016449459
0.05656999 -0.018890617 0.03204776 -0.009249049 -0.014784475 -0.0017534276 0.03367806 -0.0006793527
0.025108071 -0.014956456 -0.023261804 -0.022392493 -0.051495362 0.006319313 0.058982026 0.008403973
0.023226455 -0.026696023 0.012108935 -0.00083708 0.019941691 0.031164844 0.005954619 0.057779722
0.04984249 -0.065230705 0.023132464 -0.016054504 -0.013551018 -0.01858898 0.017798118 -0.0038434963
-0.015138226 0.010596484 -0.056079276 -0.0400847 -0.040644586 -0.02677051 -0.0065599973 0.022770071
-0.022386814 0.0039392174 -0.033611357 0.026923487 0.033695336 -0.039336845 -0.040151022 0.005131534
-0.007164428 -0.037134215 -0.009272524 -0.014484464 -0.0059176977 0.03717935 -0.0017825182 0.018444985
-0.03272486 -0.01359924 0.015738206 -0.029645037 0.03140516 -0.009716193 -0.027445152 -0.024577668
-0.04726627 0.015198412 -0.020360498 -0.061418794 0.0041603646 -0.048689757 -0.0040826504 -0.06608659
-0.0066489596 -0.003918111 0.03131089 -0.014798504 0.012616474 -0.013149931 -0.039671946 -0.00521071
0.040777527 -0.017538324 -0.031514782 -0.04333945 -0.035222862 0.014454004 -0.019371359 -0.020154092
0.0020375135 0.020535357 0.029555324 0.02733171 -0.0063559776 -0.039456416 -0.04370574 0.008811931
-0.017868854 -0.019444147 -0.049053293 -0.025203532 0.018122375 0.024563128 -0.0055416706 0.023328913
00000000: cf3f f83c c622 f43c 8a9c 1dbd e70c 71bd
00000010: b6e0 01bd 23c3 aabc 7b87 a4bd 0c2b 0abd
00000020: 8a35 97bc d92f 533c a737 c63c b4fd 6c3c
00000030: e0d1 893c 4c9a 29bc 7ab7 4d3c 0b0a 3abc
00000040: 7fe7 aa3c ddb4 4539 dcd3 d8bb 36be b73b
00000050: c243 1cbd 4675 063c 337c bc3a a5a4 d5bc
00000060: 2b60 193d 0749 643c e963 bfbb 8379 c6bc
00000070: 0b34 553d 9483 673c 7f66 ee3c 4f32 043d
00000080: a8fb ae3c ce43 85bc 14be 843c fca6 293d
00000090: 9673 a4bc 421e 663d f719 e73c c131 193d
000000a0: dae9 1abd 2312 3cbd c746 b53c 25ba 3ebc
000000b0: 943e 5e3c f060 5bbc e7c3 953b 2286 f23c
000000c0: 8852 8c3c d66e 56bc 94f3 e93c 7e90 fcbc
000000d0: eb39 b03c 1c7f 37bc 5e1a 80bb 8386 263c
000000e0: d4ac 89bc 238d 10bc f340 afbc c4bf 53bd
000000f0: 0621 e33b 5b39 7dbd 5c7d 53bd b1a3 053a
00000100: 7148 ea3c 9cac d03c e617 d33c eaf8 48bb
00000110: c1eb fdbc d4dc 803b af9e 1bbd ca70 a33c
00000120: 71b5 2ebd 26ba 953c 5f54 1f3d 1478 9c3c
00000130: 1386 3d3d f7b1 d53c 30fd dd3b d7d1 06bd
00000140: 7aa1 09bd 16b6 39bd 0a4d 90bc b717 a9bc
00000150: 4f87 b7bc 948f b2bb 4024 1fbc 4209 083d
00000160: aefa ce3c b31a 89bc 7582 eebc 7c15 bebb
00000170: 70e6 6e3d 75fa 2d3d fdb6 1a3d 1dcd 78bb
00000180: 77a1 fd3c 9b28 1a3c 8a05 993d 1ad8 b9bc
00000190: 47ac 083d 3f7d 933c 768f cd3c 74c8 933c
000001a0: b6eb f53c 405e 203d 1222 d9bc 3f15 d53b
000001b0: 8fd4 643c 79d8 3a3d 4357 9cbc 8d68 cfbc
000001c0: 9f48 0ebd bd7a f13c 60c3 2ebd 8a0f 603c
000001d0: da7b 1ebd 7c56 ea3c f57e 2b3b 3d7d 09bd
000001e0: 532d 8c3c c99d b1bb 3c55 9b3c 0741 8aba
000001f0: f47c 06bd 66c7 bebc 66e9 f5bc 5f65 74bc
00000200: 0a47 813c cde1 4b3c a457 10bd 8663 c93c
00000210: e324 493c 5c7f 913a 7913 3bbb ae24 0d3d
00000220: e9a6 b13c ff04 eabc ae29 c73c 3467 02bd
00000230: 113a cebc ecd9 893c 2d26 003d 488a e0bc
00000240: 90ff cfbb 1be8 97bc e64e 3cbb 5d76 1a3b
00000250: f81d 12bd 1a1a 993c d2aa 62bd 04c1 86bc
00000260: efb5 673d 7fc0 9abc 8344 033d 5389 17bc
00000270: 953a 72bc 44d3 e5ba 01f2 093d 9716 32ba
00000280: 71af cd3c ec0b 75bc 8a8f bebc 7670 b7bc
00000290: cdec 52bd 3d12 cf3b 2397 713d d1b0 093c
000002a0: 6845 be3c 9eb1 dabc 8e64 463c 7d6f 5bba
000002b0: c25c a33c 6a4d ff3c f71e c33b 6eaa 6c3d
000002c0: a427 4c3d ad97 85bd 4b80 bd3c bc84 83bc
000002d0: 1705 5ebc eb47 98bc 5ccd 913c 2be3 7bbb
000002e0: 5206 78bc e09c 2d3c 62b3 65bd db2f 24bd
000002f0: f07a 26bd d44d dbbc 3ff5 d6bb 4d88 ba3c
00000300: 8d64 b7bc 8d14 813b 10ac 09bd a58e dc3c
00000310: 1f04 0a3d ac1f 21bd 6675 24bd 6d26 a83b
00000320: 94c3 eabb 0c1a 18bd c9eb 17bc 3f50 6dbc
00000330: 3fe9 c1bb 6049 183d 63a3 e9ba f019 973c
00000340: 810a 06bd 59cf 5ebc 69ed 803c 26da f2bc
00000350: b2a2 003d ab30 1fbc a8d4 e0bc 1b57 c9bc
00000360: 479a 41bd c302 793c 0fcb a6bc 4692 7bbd
00000370: ab53 883b e96e 47bd c1c7 85bb 6858 87bd
00000380: 84df d9bb 7f63 80bb d93f 003d 6d75 72bc
00000390: 54b5 4e3c cf72 57bc 0d7f 22bd 9bbe aabb
000003a0: 5606 273d 88ac 8fbc a515 01bd b584 31bd
000003b0: d945 10bd 7dd0 6c3c afb0 9ebc 321a a5bc
000003c0: ce87 053b c439 a83c 021e f23c c0e6 df3c
000003d0: ce45 d0bb 0d9d 21bd ca04 33bd eb5f 103c
000003e0: b461 92bc 5549 9fbc 1bec 48bd a377 cebc
000003f0: 6075 943c 9d38 c93c e796 b5bb 471c bf3c

bias f4 [128]
-0.057899646 0.14212672 -0.01622593 0.2950402 0.08225188 0.02671836 0.019811286 0.08451912
0.07282902 -0.26572892 0.010818446 0.07146605 -0.06940885 0.112125084 -0.106842056 0.0961281
-0.003614161 -0.21843113 -0.023170155 -0.10575042 0.04401723 -0.07021214 0.048333425 0.06641865
0.0674722 0.13062 -0.041880757 0.03546274 -0.0020973857 -0.17662485 0.015629334 0.008492777
0.0399117 0.06987569 0.26236594 0.19762129 -0.14614269 0.015016006 -0.23842739 -0.11131725
-0.10026263 0.30923247 0.053097457 -0.031411882 -0.0695728 0.2111099 0.083114475 -0.062289175
0.017642908 0.17126405 0.016227655 0.051227983 -0.067823894 0.061829116 -0.023632819 0.21177045
0.21467943 0.17123744 0.21855193 0.007336604 -0.09392261 0.23986243 -0.048469525 -0.17449015
0.082826175 -0.05214749 0.08126335 -0.026429601 0.030272549 -0.05989385 0.19403394 -0.1195275
0.27563936 -0.0035015384 -0.0226518 0.05893311 0.20725393 -0.058799203 0.0310213 0.0047280113
-0.25877962 0.2786453 0.08262266 0.08915451 -0.03703329 -0.074268214 -0.0033657013 -0.006422114
-0.15636474 0.028927535 0.040543288 0.07298458 0.03640977 -0.058919776 0.43610975 0.052088827
-0.0035336013 -0.008237436 -0.02186045 -0.08507686 0.30985996 0.0022038738 0.12604663 -0.0012747935
0.16543974 0.10067855 0.033832535 0.02850712 -0.072130844 -0.06722832 0.014477677 -0.051048577
-0.11953442 0.08813289 0.090356946 -0.02305654 0.1683185 0.10733862 -0.10849562 0.099889845
0.07431869 0.03414732 0.26111916 0.12060088 0.2005132 -0.07165096 0.080007106 0.065871075
00000000: 2e28 6dbd ab89 113e 3eec 84bc 820f 973e
00000010: ac73 a83d 76e0 da3c 474b a23c 5c18 ad3d
00000020: 6227 953d 9f0d 88be da3f 313c cb5c 923d
00000030: 3a26 8ebd d6a1 e53d 02d0 dabd cfde c43d
00000040: 8fdb 6cbb 69ac 5fbe 56cf bdbc ad93 d8bd
00000050: 694b 343d 62cb 8fbd 45f9 453d 8006 883d
00000060: dd2e 8a3d 40c1 053e 288b 2bbd 6141 113d
00000070: 4b74 09bb 25dd 34be 1709 803c 4a25 0b3c
00000080: 737a 233d fc1a 8f3d d454 863e 3c5d 4a3e
00000090: 6ea6 15be b205 763c 4f26 74be 4cfa e3bd
000000a0: 7e56 cdbd b853 9e3e b87c 593d bfa9 00bd
000000b0: 2f7c 8ebd 322d 583e ec37 aa3d ef22 7fbd
000000c0: dc87 903c d85f 2f3e dcef 843c 6fd4 513d
000000d0: 41e7 8abd 8740 7d3d 9d99 c1bc 5ada 583e
000000e0: edd4 5b3e de58 2f3e 14cc 5f3e e567 f03b
000000f0: 7f5a c0bd 7f9e 753e fb87 46bd 8cad 32be
00000100: c5a0 a93d 9b98 55bd 666d a63d e482 d8bc
00000110: 23fe f73c 4153 75bd d5b0 463e d5ca f4bd
00000120: 9a20 8d3e 117a 65bb 4590 b9bc d863 713d
00000130: 603a 543e 6fd7 70bd 6220 fe3c 6fed 9a3b
00000140: c37e 84be 99aa 8e3e 1236 a93d a496 b63d
00000150: 38b0 17bd ef19 98bd 1993 5cbb 9970 d2bb
00000160: 141e 20be 70f9 ec3c b810 263d f178 953d
00000170: 6922 153d dd55 71bd c749 df3e 185b 553d
00000180: fe93 67bb 50f6 06bc b014 b3bc c73c aebd
00000190: f7a5 9e3e de6e 103b 5e12 013e f916 a7ba
000001a0: 0969 293e 8e30 ce3d fc93 0a3d c487 e93c
000001b0: 56b9 93bd 00af 89bd c733 6d3c 5018 51bd
000001c0: 76ce f4bd 047f b43d 100d b93d 12e1 bcbc
000001d0: af5b 2c3e 5ad4 db3d f432 debd 0c93 cc3d
000001e0: 6634 983d 0fde 0b3d 69b1 853e 98fd f63d
000001f0: 5553 4d3e bdbd 92bd c4da a33d 6ae7 863d

weight f4 [128, 64, 3, 3]
0.045055553 -0.0034824654 -0.044761866 0.061938092 0.041706655 -0.013843472 0.0031810326 0.021005433
0.0020612846 -0.035481434 0.02176264 -0.004682658 -0.0010209238 0.03073006 -0.025344146 -0.014763313
-0.009512529 0.016704798 0.007826236 0.020350797 -0.05614735 -0.043250382 0.01785935 0.021985585
-0.055018745 -0.0091810655 -0.02360254 -0.014066063 0.0100259865 -0.034733042 0.016561728 0.033200257
0.008767847 0.013044898 -0.00095956563 0.008125107 0.022906182 0.005967699 -0.0441858 0.015876658
0.049503446 -0.05445382 0.003869602 -0.03704123 -0.07318427 0.03559185 -0.028814437 -0.0065283445
0.033673383 -0.019273262 0.03273445 -0.043170933 -0.04134757 -0.021923423 0.034620218 0.0131630385
-0.01299201 -0.052184507 0.003133611 -0.0085179 -0.004339228 -0.0069447206 0.03413217 -0.035281762
-0.04043618 -0.07374698 0.011926934 0.011937567 -0.016124021 -0.030091485 0.06917545 0.06633472
0.023132153 -0.04810302 -0.019472329 -0.001033241 -0.0056965146 -0.024869991 0.060938634 0.0022825694
-0.032425 -0.06534057 -0.007943503 -0.024575 -0.0768884 -0.00660033 -0.057639237 0.01578755
0.021170404 0.024367439 -0.0020259165 -0.0014643276 -0.015093599 -0.011223101 -0.03131595 -0.008078096
-0.024075968 -0.017949916 0.035828393 -0.0037453834 0.032257233 -0.023684293 -0.039122332 -0.026289925
-0.022030618 -0.050414205 -0.069171175 -0.06399151 -0.059140146 -0.027400153 -0.040671553 -0.044352718
0.021190286 -0.05650128 -0.061429806 0.0059402008 -0.039142348 -0.036200713 -0.017546717 -0.021862322
-0.016379973 0.0007524181 -0.015406405 0.032765176 -0.0138563765 -0.016716579 -0.07516804 -0.06247218
-0.04429228 -0.030510373 -0.056960672 -0.0044651343 0.044886447 -0.0152979465 0.022087637 0.01521724
0.018523835 0.0429875 -0.025277851 -0.01323956 0.020334274 -0.11105354 -0.016650802 -0.0773133
-0.076261334 -0.048830625 0.041302122 0.012167307 0.020563375 0.053654585 0.018195214 0.04136121
0.0014051112 -0.013109823 -0.017614298 0.0010358117 0.0011663878 -0.013325578 0.0047165784 -0.028549664
0.0025084154 -0.0014252991 0.014691751 -0.0031466016 -0.025632503 -0.014862399 -0.016720697 0.030742234
-0.010320336 -0.03633523 -0.019884687 0.03263675 0.0104809925 0.023045026 -0.014712445 0.006112806
0.03623105 0.030743776 -0.008873747 0.01570863 0.07318901 0.038192693 0.06008511 -0.022077398
0.027373377 0.029814186 -0.07941984 -0.047839325 0.07015765 0.003013189 -0.028783472 -0.042175315
0.02945908 0.048983194 -0.0032898185 0.0052632685 0.04338187 0.011073626 0.00023804251 -0.0401309
0.028994935 0.02406954 0.014133953 0.03289917 0.037768293 0.0075004916 -0.016519606 0.0017162969
0.021771802 -0.01763651 -0.028534185 0.009618072 -0.052526716 -0.030412026 -0.062166248 -0.025394462
0.006881482 0.013111013 -0.028003192 -0.00012900298 -0.017941086 -0.006667369 0.044325165 0.019113021
-0.010764757 -0.02753625 0.016455024 -0.040392835 0.014239534 0.01080984 0.013035944 0.00015164667
0.009401836 0.0032795924 -0.004897398 0.032840356 0.010224812 -0.0017956693 -0.00977808 0.003908076
0.018654354 -0.014130621 -0.00960058 0.0017049661 0.0039249426 0.007812506 0.0137836775 -0.014656178
-0.06767565 0.023620328 0.0128504075 0.017301708 -0.10571353 -0.05819021 -0.03065885 -0.048046216
00000000: 2c8c 383d 133a 64bb 3858 37bd ccb2 7d3d
00000010: 99d4 2a3d bbcf 62bc df78 503b 9613 ac3c
00000020: 9e16 073b fb54 11bd 9047 b23c fb70 99bb
00000030: 85d0 85ba 9bbd fb3c 879e cfbc d3e1 71bc
00000040: 70da 1bbc 80d8 883c 9d39 003c b7b6 a63c
00000050: c4fa 65bd 5027 31bd c64d 923c 1d1b b43c
00000060: 565b 61bd 2e6c 16bc 1d5a c1bc 5875 66bc
00000070: 0944 243c 3c44 0ebd 76ac 873c fefc 073d
00000080: 04a7 0f3c 45ba 553c 5c8b 7bba 2b1f 053c
00000090: bfa5 bb3c b08c c33b 2bfc 34bd c40f 823c
000000a0: 20c4 4a3d f80a 5fbd 2699 7d3b 8bb8 17bd
000000b0: a2e1 95bd c2c8 113d 410c ecbc b9eb d5bb
000000c0: 1aed 093d f6e2 9dbc 8f14 063d 01d4 30bd
000000d0: 125c 29bd c098 b3bc eecd 0d3d c9a9 573c
000000e0: 71dc 54bc 6cbf 55bd 455d 4d3b a98e 0bbc
000000f0: 1530 8ebb 8a90 e3bb 2dce 0b3d 9c83 10bd
00000100: 68a0 25bd a808 97bd 3069 433c c995 433c
00000110: 8616 84bc 6b82 f6bc dcab 8d3d 7fda 873d
00000120: a47f bd3c ac07 45bd 6f84 9fbc d16d 87ba
00000130: d4a9 babb 27bc cbbc ca9a 793d 2997 153b
00000140: 14d0 04bd 47d1 85bd 7725 02bc 8351 c9bc
00000150: aa77 9dbd 9547 d8bb 1f17 6cbd e454 813c
00000160: 8e6d ad3c 399e c73c 3dc5 04bb aeee bfba
00000170: 254b 77bc 19e1 37bc 2745 00bd fe59 04bc
00000180: f73a c5bc b40b 93bc cbc0 123d 1b75 75bb
00000190: 2920 043d 9005 c2bc bd3e 20bd f85d d7bc
000001a0: 8e79 b4bc 207f 4ebd 9ea9 8dbd fb0d 83bd
000001b0: f03c 72bd 4976 e0bc 3797 26bd 32ab 35bd
000001c0: 4097 ad3c e36d 67bd d29d 7bbd 04a6 c23b
000001d0: ba53 20bd 3347 14bd 22be 8fbc 9d18 b3bc
000001e0: 4b2f 86bc ed3d 453a 256b 7cbc c734 063d
000001f0: db05 63bc 35f1 88bc b4f1 99bd d4e2 7fbd
00000200: d26b 35bd e4f0 f9bc 984f 69bd 4350 92bb
00000210: dada 373d 3da4 7abc 22f1 b43c bb51 793c
00000220: 4cbf 973c a913 303d 7f13 cfbc bdea 58bc
00000230: 1094 a63c 0a70 e3bd 4367 88bc 6f56 9ebd
00000240: e72e 9cbd 9f02 48bd 6a2c 293d 6259 473c
00000250: 8674 a83c e9c4 5b3d 210e 953c 5f6a 293d
00000260: b52b b83a 95ca 56bc dc4b 90bc 13c4 873a
00000270: 7be1 983a 8653 5abc 878d 9a3b fce0 e9bc
00000280: 3a64 243b 1ad1 baba acb5 703c 3737 4ebb
00000290: 41fb d1bc 6b81 73bc d8f9 88bc 23d7 fb3c
000002a0: a016 29bc 40d4 14bd 36e5 a2bc 1dae 053d
000002b0: 78b8 2b3c ecc8 bc3c 780c 71bc ef4d c83b
000002c0: 0267 143d 5fda fb3c 3163 11bc 63af 803c
000002d0: 1fe4 953d f16f 1c3d ce1b 763d a9db b4bc
000002e0: 223e e03c e13c f43c dea6 a2bd 2bf3 43bd
000002f0: d0ae 8f3d ec78 453b 51cb ebbc 06c0 2cbd
00000300: 2b54 f13c 9aa2 483d ff99 57bb 7f77 ac3b
00000310: 30b1 313d 276e 353c 0d9b 7939 4c60 24bd
00000320: c986 ed3c 7c2d c53c 1892 673c 48c1 063d
00000330: edb2 1a3d afc6 f53b 2054 87bc 5ef5 e03a
00000340: c75a b23c 717a 90bc 86c0 e9bc 1e95 1d3c
00000350: 4126 57bd a422 f9bc 09a2 7ebd 0c08 d0bc
00000360: 0e7e e13b 93cf 563c f366 e5bc f944 07b9
00000370: 2ff9 92bc f279 dabb 4e8e 353d e992 9c3c
00000380: aa5e 30bc b493 e1bc b0cc 863c f572 25bd
00000390: ef4c 693c c11b 313c b694 553c 5803 1f39
000003a0: 290a 1a3c 6eee 563b 5a7a a0bb 9c83 063d
000003b0: f885 273c aa5c ebba 3d34 20bc 510f 803b
000003c0: 04d1 983c 1f84 67bc c04b 1dbc 2b79 df3a
000003d0: ce9c 803b 0600 003c efd4 613c 7720 70bc
000003e0: 8899 8abd 6b7f c13c 848a 523c 50bc 8d3c
000003f0: 5680 d8bd dc58 6ebd 4528 fbbc 1ccc 44bd

bias f4 [64]
-0.12940094 0.09537658 -0.05408725 0.102898955 -0.009546561 -0.012674839 -0.027687388 -0.04655623
-0.016743734 -0.1099856 0.11971835 0.071355954 -0.0032374267 0.078069516 0.15079989 -0.029992258
-0.011053279 0.13401082 0.0010845085 0.10303774 -0.16295497 -0.106144175 0.045136962 0.36192733
0.057091743 0.09461139 0.026677752 -0.10851644 -0.07067355 0.044851027 -0.043143388 0.0022832905
0.2690341 -0.019580431 0.015145679 0.34047154 3.109622e-05 -0.032455754 0.10566155 0.11853394
-0.12720917 0.03964665 0.14489709 0.03085687 0.112769306 0.023790104 0.11358655 0.04732047
0.025741862 0.0497295 -0.030162316 -0.0051418007 0.036074184 -0.044710618 0.00043917456 0.053514235
-0.10993697 0.105539836 -0.053726494 0.050044533 0.035383906 -0.024046542 0.021833071 0.022827365
00000000: ae81 04be cc54 c33d 988a 5dbd b0bc d23d
00000010: 2e69 1cbc 21aa 4fbc a9d0 e2bc bfb1 3ebd
00000020: 282a 89bc 2140 e1bd e52e f53d 1223 923d
00000030: 022b 54bb e9e2 9f3d 496b 1a3e 53b2 f5bc
00000040: d018 35bc 223a 093e 1126 8e3a 7305 d33d
00000050: abdd 26be 1e62 d9bd 89e1 383d 8a4e b93e
00000060: 08d9 693d 9ec3 c13d 4d8b da3c de3d debd
00000070: 4bbd 90bd b6b5 373d 1fb7 30bd 42a3 153b
00000080: d6be 893e 2467 a0bc 9525 783c 4952 ae3e
00000090: 506d 0238 53f0 04bd 1565 d83d ecc1 f23d
000000a0: 1f43 02be 8764 223d e75f 143e 8cc7 fc3c
000000b0: 98f3 e63d 77e3 c23c 11a0 e83d 1cd3 413d
000000c0: 99e0 d23c 29b1 4b3d f616 f7bc 8d7c a8bb
000000d0: 86c2 133d 7b22 37bd 0341 e639 be31 5b3d
000000e0: a226 e1bd 4525 d83d 5010 5cbd 7ffb 4c3d
000000f0: b7ee 103d 41fd c4bc 45db b23c 7400 bb3c

weight f4 [64, 32, 3, 3]
0.047944132 0.001097561 0.035405263 -0.007844401 0.07370141 0.043842066 0.04276111 0.021488113
0.07426078 -0.031816166 0.00025907063 0.03684974 0.025554478 0.029490756 -0.010844923 0.021034786
-0.022510424 0.01561422 -0.04899437 0.083127216 0.0561877 0.019778818 0.01800206 -0.05822871
-0.054581884 -0.022446593 -0.13579662 -0.016837232 -0.11250895 -0.07564655 0.014975645 -0.06494404
-0.028385704 -0.06746944 -0.084899925 -0.05283262 -0.06266252 -0.07680392 0.008634372 -0.06012127
-0.034623202 0.0077205803 0.032922734 -0.09369216 0.07734855 -0.021667648 -0.016013885 0.037615366
0.012635722 -0.07560511 0.053798992 0.0117484825 0.02116246 -0.017735459 -0.07295694 -0.0050341636
0.048651554 -0.039260004 0.070901334 0.05304005 -0.03428464 0.025511213 0.059421692 0.056172125
-0.0006350296 0.025986323 -0.0033099072 -0.014344362 -0.023605634 0.043788884 0.045730155 0.004100561
-0.0005195269 0.13100284 0.07868029 0.025335873 0.083096705 0.030427113 -0.032975737 0.12176805
0.018579498 -0.0054837526 -0.039316107 0.0018826138 -0.09664788 -0.04876052 -0.03672995 0.008779077
-0.04619307 -0.051708765 -0.055435974 0.01048419 -0.0241919 -0.017072292 0.0346265 -0.019303167
0.015044266 -0.016624026 0.0342757 -0.07319758 -0.055711824 -0.0052599153 -0.025757806 -0.1099989
-0.14111418 0.017319698 -0.09211679 -0.25223798 0.046967797 -0.040845636 0.004266644 -0.0019996904
-0.038333073 -0.048149075 -0.040700927 0.030326793 0.052342586 0.03977371 -0.0478878 -0.028354948
0.0650735 0.037131745 0.049798936 0.03604876 0.07225823 6.3398096e-05 -0.07610945 -0.020935636
-0.08032149 -0.03628658 0.0067683486 -0.07375775 0.030003529 0.03938797 -0.08227882 -0.05967641
-0.032510005 -0.0019255414 0.029218452 -0.09261353 -0.101349406 -0.012294806 -0.0505472 0.0799387
-0.01700446 -0.02012291 0.016786516 0.0065542464 0.048195127 0.03692473 0.050231196 0.09218219
0.09371227 -0.00640876 0.027720783 0.013664485 -0.04300667 0.021941131 -0.018304454 -0.05965753
-0.078937516 0.015499508 -0.027270162 0.055596005 -0.09436335 -0.004225323 -0.035510637 -0.14323914
-0.0053521786 -0.017749896 -0.19408283 -0.023340126 0.035846334 -0.009567218 0.05161535 -0.028838662
0.06457985 0.03904989 0.0067962944 -0.03404734 -0.0023911076 0.047631618 0.017769152 -0.07135036
0.0054295915 -0.041862853 0.062755175 0.07314022 -0.012395232 -0.009707352 0.03588142 0.034917723
-0.01011736 -0.01664894 -0.04765125 0.0802267 0.05086874 -0.0103723435 0.046185363 -0.012602487
0.0192748 -0.021702534 0.043436013 -0.011074404 -0.05856242 -0.027283486 -0.021032277 0.012465295
0.04657993 -0.052718848 0.0054267673 0.047576975 0.03740273 -0.03349166 0.006400669 -0.0033156017
0.0101874685 -0.02876837 -0.052461337 -0.03449984 -0.045907717 0.058775842 0.024614332 -0.018256698
-0.034339212 0.015966123 0.0072635934 -0.041190494 0.03261201 -0.016287178 -0.04137416 -0.00029548927
-0.03048374 0.04083789 -0.064760484 -0.05315507 0.02000394 -0.00968519 -0.033415124 -0.100878604
0.028141383 0.019572832 -0.120964065 -0.015696324 -0.027231663 -0.020288322 -0.05825392 -0.093081094
-0.15342091 0.0715356 0.062092394 -0.057483573 -0.004904817 0.019057142 0.030142944 0.04512798
00000000: 1161 443d 09dc 8f3a 1c05 113d cd85 00bc
00000010: c4f0 963d bd93 333d 4626 2f3d d707 b03c
00000020: 0916 983d ab51 02bd dfd3 8739 c1ef 163d
00000030: a057 d13c 9996 f13c e7ae 31bc 2551 ac3c
00000040: c867 b8bc c9d2 7f3c 52ae 48bd 9a3e aa3d
00000050: 1325 663d 3007 a23c 0e79 933c 3a81 6ebd
00000060: 4191 5fbd ebe1 b7bc 450e 0bbe 3cee 89bc
00000070: 186b e6bd 94ec 9abd 685c 753c 6101 85bd
00000080: 2389 e8bc 6b2d 8abd 03e0 adbd 0467 58bd
00000090: 3555 80bd 604b 9dbd 2e77 0d3c b941 76bd
000000a0: 0fd1 0dbd ecfc fc3b fdd9 063d ade1 bfbd
000000b0: eb68 9e3d 5a80 b1bc 8d2f 83bc 9212 1a3d
000000c0: 0f06 4f3c dad6 9abd 555c 5c3d b57c 403c
000000d0: e55c ad3c f449 91bc 736a 95bd a0f5 a4bb
000000e0: da46 473d 19cf 20bd b834 913d 8640 593d
000000f0: 0d6e 0cbd e4fc d03c 2964 733d be14 663d
00000100: 1d78 26ba 45e1 d43c 07eb 58bb 9d04 6bbc
00000110: 9a60 c1bc f95b 333d 8b4f 3b3d 005e 863b
00000120: dc30 08ba 9c25 063e 2223 a13d 2d8d cf3c
00000130: 9b2e aa3d 4842 f93c 9111 07bd 8761 f93d
00000140: 0834 983c 0db1 b3bb ed09 21bd 09c2 f63a
00000150: 53ef c5bd 1cb9 47bd 2572 16bd 1ed6 0f3c
00000160: f234 3dbd 92cc 53bd d510 63bd e1c5 2b3c
00000170: 172e c6bc 31db 8bbc 84d4 0d3d ad21 9ebc
00000180: 3a7c 763c 1c2f 88bc ad64 0c3d 9de8 95bd
00000190: 1532 64bd 5e5b acbb 0902 d3bc 1a47 e1bd
000001a0: 3c80 10be 0ae2 8d3c baa7 bcbd 5625 81be
000001b0: 4e61 403d c14d 27bd 34cf 8b3b 3d0d 03bb
000001c0: 2403 1dbd f737 45bd 04b6 26bd e56f f83c
000001d0: 2e65 563d c2e9 223d ff25 44bd a348 e8bc
000001e0: 4145 853d 7517 183d f8f9 4b3d dda7 133d
000001f0: 1ffc 933d 98f4 8438 45df 9bbd 3681 abbc
00000200: 987f a4bd 3da1 14bd 06c9 dd3b 4e0e 97bd
00000210: f6c9 f53c 4855 213d cc81 a8bd 406f 74bd
00000220: 3629 05bd 7362 fcba 895b ef3c 2aac bdbd
00000230: 4790 cfbd 2770 49bc 950a 4fbd e7b6 a33d
00000240: f04c 8bbc cdd8 a4bc e083 893c 01c5 d63b
00000250: 4168 453d 633e 173d 3abf 4d3d 04ca bc3d
00000260: 38ec bf3d 9300 d2bb b216 e33c 01e1 5f3c
00000270: c327 30bd e3bd b33c 39f3 95bc 745b 74bd
00000280: fea9 a1bd a6f1 7d3c ad65 dfbc a3b8 633d
00000290: 9241 c1bd 9474 8abb 9a73 11bd 48ad 12be
000002a0: 5461 afbb 3b68 91bc a6bd 46be cb33 bfbc
000002b0: 9bd3 123d d2bf 1cbc 9e6a 533d 0f3f ecbc
000002c0: 7142 843d c7f2 1f3d 73b3 de3b 3975 0bbd
000002d0: 21b4 1cbb 5f19 433d 9d90 913c 2320 92bd
000002e0: b7ea b13b 6278 2bbd c985 803d 8aca 953d
000002f0: 5f15 4bbc 960b 1fbc 65f8 123d e305 0f3d
00000300: 49c3 25bc 5c63 88bc f52d 43bd e54d a43d
00000310: bd5b 503d c3f0 29bc dd2c 3d3d a97a 4ebc
00000320: 2fe6 9d3c 83c9 b1bc f6e9 313d 6b71 35bc
00000330: 26df 6fbd 9e81 dfbc e24b acbc 3d3b 4c3c
00000340: 99ca 3e3d b8ef 57bd 06d3 b13b 13e0 423d
00000350: 9b33 193d 8d2e 09bd b4bc d13b 914a 59bb
00000360: 57e9 263c a5ab ebbc b3e1 56bd b44f 0dbd
00000370: bb09 3cbd f0be 703d ffa3 c93c 128f 95bc
00000380: 46a7 0cbd 63cb 823c 7003 ee3b 5db7 28bd
00000390: 2c94 053d b06c 85bc f477 29bd e6eb 9ab9
000003a0: 09b9 f9bc a245 273d 25a1 84bd 21b9 59bd
000003b0: 4edf a33c a2ae 1ebc 4cde 08bd 7199 cebd
000003c0: c288 e63c 3457 a03c 02bc f7bd 9495 80bc
000003d0: f014 dfbc b233 a6bc aa9b 6ebd 4da1 bebd
000003e0: 5f1a 1dbe 4281 923d 9854 7e3d e573 6bbd
000003f0: 96b8 a0bb b91d 9c3c 56ee f63c 1ed8 383d

bias f4 [32]
0.1307325 0.017572965 0.03023855 0.02961923 0.016615318 -0.067734465 -0.09340212 0.04580853
0.03536911 0.15007454 0.077167355 0.10268375 0.10251439 -0.056201242 0.022362327 -0.09519122
-0.07486658 0.087458275 0.15864377 0.017304419 -0.065156035 0.029581908 -0.04331566 0.04067642
-0.10427666 0.10910641 0.11971319 -0.14645779 0.0041542063 -0.031497512 -0.027663205 0.10102619
00000000: bede 053e 2ef5 8f3c d6b6 f73c 07a4 f23c
00000010: d91c 883c 5eb8 8abd 9c49 bfbd baa1 3b3d
00000020: 33df 103d 24ad 193e eb09 9e3d dc4b d23d
00000030: 11f3 d13d 4633 66bd 3331 b73c 9df3 c2bd
00000040: a653 99bd 531d b33d 8373 223e ffc1 8d3c
00000050: 8770 85bd c255 f23c c36b 31bd 519c 263d
00000060: 008f d5bd 2e73 df3d 302c f53d 08f9 15be
00000070: 0220 883b 8903 01bd f29d e2bc d2e6 ce3d

weight f4 [32, 1, 3, 3]
-0.025450079 -0.15982756 -0.22139457 0.29092386 0.026759971 -0.21548271 0.13502559 -0.016882164
0.27321976 0.13925469 -0.0795313 -0.12414768 0.26697752 0.098879196 0.3302135 0.2105305
-0.19687295 0.13679767 -0.14326017 0.21506113 -0.035719614 0.2527979 0.077980585 0.090696536
-0.2738488 0.017003987 -0.22021341 -0.3280806 -0.1665231 -0.23138092 -0.029718136 -0.14159173
-0.04736266 -0.26470977 0.20780079 -0.16767898 -0.14725861 -0.27657726 0.19469723 -0.29335913
0.16630161 0.22062834 -0.021127392 -0.2511335 0.27669594 0.25671685 0.0642824 0.016671851
-0.19510564 -0.25199744 -0.19772138 -0.25393462 0.106734104 0.18767905 0.088184044 -0.2526842
0.07803922 -0.112591095 -0.12933506 0.08156552 0.09187266 0.073739626 -0.29254627 -0.10236569
-0.041248072 -0.29962397 -0.038380463 -0.19711602 0.07807026 0.10093605 -0.27189556 0.048966136
0.04166164 -0.17245719 0.050769728 -0.1633488 -0.12900054 0.31863758 -0.06870134 0.31985053
0.051838733 0.0474207 0.29419056 -0.1569922 0.07689479 0.017771883 0.07696695 -0.19481587
-0.25632456 0.084504284 0.04501119 0.082799 0.18114042 -0.25320303 0.04992479 -0.09996722
-0.10537488 0.10919343 0.14767177 -0.22366782 -0.012627096 0.33922762 -0.119247094 0.34788916
-0.23767623 0.03425936 -0.21062657 -0.00977277 0.28322864 0.040822532 0.084450275 0.12499882
0.11681115 0.049928084 -0.09389565 0.2294904 0.0331041 0.07161197 0.17963469 -0.15169136
-0.15793955 -0.01649038 -0.11707 0.2974193 0.25423998 -0.041907836 -0.26219353 -0.21810909
0.14929646 0.287919 -0.0526927 0.0039725783 -0.24569994 0.342425 -0.08602024 -0.27442643
-0.12778363 0.060033668 0.030915802 -0.061955195 0.23378809 0.29372415 -0.2478916 -0.30665013
-0.3181063 -0.05451217 -0.16406937 0.007673482 0.046963736 0.1390437 0.24882764 -0.08880158
0.24710877 -0.19175093 0.2417215 -0.009887043 -0.20807396 -0.066669405 0.24307346 0.084727235
-0.03066908 0.008491705 0.3158144 -0.19685355 -0.18610252 -0.059194192 0.21566609 0.21782103
0.23073222 -0.26518652 -0.2888143 0.085341565 -0.07682968 0.028829847 -0.16544819 0.01042749
0.12823036 0.06589408 -0.20894319 0.07993814 -0.1329211 0.059540622 0.051065505 -0.17907514
-0.13693242 0.17310786 -0.174373 0.22537039 -0.022465596 -0.041088384 -0.24875394 -0.31525677
0.0141467415 0.13604352 -0.039321847 0.13347559 0.35068104 -0.24597543 0.14303657 -0.13670382
0.27272087 0.14315727 -0.30944896 0.00010157025 -0.25895813 -0.050999433 -0.22645941 -0.13374473
0.17222846 0.28542057 0.15921728 0.17127812 -0.1762927 -0.0035912232 -0.027146664 0.06953429
0.31312102 -0.12176676 0.012391176 -0.07000269 -0.26369688 -0.3270515 0.026589168 0.23031181
-0.10152382 0.2554747 -0.23203227 0.25253773 0.045386687 -0.016256351 -0.2840412 0.0060662925
0.112248085 0.1340169 0.22005658 0.19927458 0.119567364 -0.08460889 -0.180514 -0.26460323
0.022463499 0.26459017 -0.2810092 0.07392003 -0.21946101 -0.053525925 -0.28368628 -0.21854398
0.115504764 0.26370952 -0.1697467 0.3775873 0.17947876 0.21004611 0.14359081 -0.29979774
00000000: af7c d0bc d6a9 23be 42b5 62be f9f3 943e
00000010: ba37 db3c 80a7 5cbe 2644 0a3e 774c 8abc
00000020: 76e3 8b3e c898 0e3e 4ee1 a2bd 2441 febd
00000030: 47b1 883e 2d81 ca3d be11 a93e 4f95 573e
00000040: 1099 49be b014 0c3e cbb2 12be fc38 5c3e
00000050: bb4e 12bd ba6e 813e 49b4 9f3d 1bbf b93d
00000060: e935 8cbe f24b 8b3c a07f 61be 2efa a7be
00000070: 0885 2abe 1fef 6cbe 7373 f3bc 6cfd 10be
00000080: 59ff 41bd 0a88 87be bbc9 543e 0ab4 2bbe
00000090: f6ca 16be 899b 8dbe b65e 473e 2b33 96be
000000a0: f84a 2a3e 65ec 613e 5a13 adbc 9294 80be
000000b0: 17ab 8d3e 6470 833e 7ea6 833d 6893 883c
000000c0: c6c9 47be cf05 81be 7977 4abe b803 82be
000000d0: 6997 da3d f02e 403e d699 b43d d35f 81be
000000e0: 07d3 9f3d 2996 e6bd 6970 04be d30b a73d
000000f0: bc27 bc3d cd04 973d a0c8 95be 1aa5 d1bd
00000100: bdf3 28bd 5068 99be d534 1dbd c8d8 49be
00000110: 4de3 9f3d 8fb7 ce3d e535 8bbe b790 483d
00000120: 65a5 2a3d 9e98 30be ebf3 4f3d e844 27be
00000130: b818 04be 7724 a33e 4ab3 8cbd 73c3 a33e
00000140: da54 543d 353c 423d 25a0 963e 90c2 20be
00000150: 047b 9d3d 5796 913c d9a0 9d3d d07d 47be
00000160: f93c 83be 9510 ad3d a75d 383d 8692 a93d
00000170: e07c 393e d4a3 81be f07d 4c3d 9dbb ccbd
00000180: c9ce d7bd cea0 df3d 4537 173e 2d09 65be
00000190: e1e1 4ebc 3eaf ad3e d237 f4bd 871e b23e
000001a0: 6661 73be 8b53 0c3d 7eae 57be f81d 20bc
000001b0: 5803 913e 8735 273d 44f4 ac3d 62ff ff3d
000001c0: af3a ef3d 6481 4c3d 5d4c c0bd 88ff 6a3e
000001d0: 2a98 073d 4ca9 923d 28f2 373e fb54 1bbe
000001e0: e8ba 21be d516 87bc 65c2 efbd 5847 983e
000001f0: be2b 823e 8da7 2bbd 3b3e 86be fd57 5fbe
00000200: 2ce1 183e 1f6a 933e 4dd4 57bd 672c 823b
00000210: c498 7bbe 5452 af3e 612b b0bd 9f81 8cbe
00000220: b6d9 02be dde5 753d 2343 fd3c bbc4 7dbd
00000230: 2566 6f3e 0363 963e 4cd7 7dbe 3f01 9dbe
00000240: d4de a2be 2748 5fbd cd01 28be d571 fb3b
00000250: 0c5d 403d 7961 0e3e accc 7e3e 9add b5bd
00000260: 150a 7d3e 5b5a 44be d785 773e 44fd 21bc
00000270: 5711 55be f889 88bd 40e8 783e 7985 ad3d
00000280: b93d fbbc cb20 0b3c 6db2 a13e fa93 49be
00000290: a991 3ebe 9c75 72bd 92d7 5c3e 7a0c 5f3e
000002a0: 1145 6c3e 87c6 87be 78df 93be 8fc7 ae3d
000002b0: e158 9dbd 922c ec3c 406b 29be 10d8 2a3c
000002c0: d24e 033e 7af3 863d 34f5 55be 9cb6 a33d
000002d0: 781c 08be dee0 733d 102a 513d 795f 37be
000002e0: 0338 0cbe 3043 313e d68e 32be 7fc7 663e
000002f0: c509 b8bc 4b4c 28bd 5ab9 7ebe 5669 a1be
00000300: bcc7 673c fe4e 0b3e f20f 21bd d3ad 083e
00000310: 778c b33e fce0 7bbe 2e78 123e 16fc 0bbe
00000320: 12a2 8b3e d297 123e 1870 9ebe 1d02 d538
00000330: 2996 84be c8e4 50bd fae4 67be 61f4 08be
00000340: a85c 303e a522 923e db09 233e 8863 2f3e
00000350: 1386 34be ba5a 6bbb ae62 debc fe67 8e3d
00000360: 6651 a03e da60 f9bd 5c04 4b3c 925d 8fbd
00000370: 4703 87be 4b73 a7be 87d1 d93c dcd6 6b3e
00000380: b8eb cfbd 94cd 823e de99 6dbe a04c 813e
00000390: 64e7 393d 0a2c 85bc d96d 91be c0c7 c63b
000003a0: 53e2 e53d ba3b 093e 8356 613e a30e 4c3e
000003b0: bcdf f43d 6d47 adbd a9d8 38be 137a 87be
000003c0: 5f05 b83c 5d78 873e 70e0 8fbe 6263 973d
000003d0: 63ba 60be 003e 5bbd 543f 91be fec9 5fbe
000003e0: c38d ec3d ef04 873e 14d2 2dbe 1f53 c13e
000003f0: 48c9 373e 5416 573e 7809 133e 177f 99be
