old:unneeded/models_old/torch_model_40.pt (torch, 749410 bytes, 11 tensors)

weight f4 [32, 1, 3, 3]
0	0xbdd58228	-0.10425216
1	0xbea103f6	-0.31448334
2	0xbdf1a8d7	-0.11799782
3	0x3d21ad28	0.039471775
4	0xbe0beefb	-0.13665383
5	0xbe63420c	-0.22193164
6	0xbdac0186	-0.08398728
7	0x3ea6966e	0.32536644
8	0x3c52f512	0.012875812
9	0x3d2fd610	0.042928755
10	0xbe847237	-0.2586839
11	0xbe8077fe	-0.25091547
12	0x3e6c62f8	0.23084629
13	0xbe6ab3af	-0.22920106
14	0x3e3f5591	0.18684985
15	0xbe2a9f52	-0.16662338
16	0xbdd646d0	-0.10462725
17	0x3e660e87	0.22466479
18	0x3e828977	0.25495502
19	0x3e074a46	0.13211927
20	0x3ea45f16	0.32103795
21	0xbe8dfcd2	-0.2773195
22	0xbd343caa	-0.044003166
23	0xbc523b90	-0.012831584
24	0x3e865941	0.2623997
25	0x3caec570	0.02133438
26	0x3d1067a1	0.03525508
27	0xbda1049e	-0.07862209
28	0x3e905236	0.28187722
29	0x3df83f24	0.12121418
30	0xbea7db9c	-0.32784736
31	0xbe49b34b	-0.19697301
32	0xbea9121d	-0.33021632
33	0x3e070f1f	0.13189362
34	0xbe187932	-0.14889982
35	0x3e33f69b	0.17574541
36	0x3dd3f88f	0.10350143
37	0xbd9ff102	-0.078096405
38	0x3d19ab2f	0.03751677
39	0xbe679036	-0.22613606
40	0xbdfc2c0a	-0.12313087
41	0xbe472cf1	-0.19450738
42	0xbe05950c	-0.13045138
43	0x3e20eb20	0.15714693
44	0x3de71a9e	0.11284374
45	0xbe2e4d17	-0.17021595
46	0xbd8e3099	-0.06942863
47	0xbd932eab	-0.071866356
48	0xbea46990	-0.32111788
49	0x3d137eb2	0.036009498
50	0x3d9ee700	0.077589035
51	0x3dafd72e	0.08585964
52	0xbdec24a6	-0.11530428
53	0x3e3dd5c5	0.18538578
54	0xbe7bac8f	-0.24577545
55	0x3de261bf	0.110538
56	0x3dc94767	0.09828072
57	0xbd96f5eb	-0.07371124
58	0xbd3408ea	-0.043953814
59	0x3dce3bbd	0.10069988
60	0x3e6bee1a	0.23040047
61	0xbe947602	-0.28996283
62	0x3e9dedf8	0.30845618
63	0x3e732e66	0.23748168
64	0xbe1757d7	-0.14779602
65	0xbe7107a9	-0.23538078
66	0xbdef9797	-0.11698835
67	0x3e841c1b	0.25802693
68	0xbdb3171d	-0.08744643
69	0xbdc26741	-0.0949235
70	0xbd37265c	-0.044714317
71	0x3e1e0b07	0.15433894
72	0x3e6e7c8a	0.23289695
73	0xbe0062d9	-0.12537707
74	0x3e8a705d	0.2703885
75	0xbd82c9d0	-0.06386149
76	0x3e18bd39	0.14915933
77	0xbcef0c7c	-0.029180758
78	0x3e90142d	0.28140393
79	0xbd1ef7d2	-0.03881056
80	0xbe74ff9a	-0.2392563
81	0x3e765163	0.24054484
82	0x3ddbdd74	0.10735598
83	0xbe8e3a70	-0.2777896
84	0x3e23f631	0.16011883
85	0x3d314a90	0.043284
86	0x3e6924ea	0.22767988
87	0xbe861ad0	-0.2619233
88	0xbe4b2a2b	-0.19840305
89	0xbe9a8d9c	-0.30186164
90	0xbdc716b2	-0.09721126
91	0xbd8f3257	-0.069920234
92	0x3dfc2022	0.12310816
93	0xbca4ce73	-0.020117974
94	0xbe141306	-0.14460382
95	0xbdae69c5	-0.08516268
96	0x3ce39248	0.027779713
97	0xbe3cebbf	-0.18449305
98	0x3dde7b90	0.108634114
99	0xbc9eeccc	-0.019400023
100	0xbd3b787f	-0.04576921
101	0xbea0a0f9	-0.31372812
102	0xbd1ddf91	-0.038543288
103	0xbccc0ed5	-0.024909416
104	0x3e1619fa	0.14658347
105	0x3e1fa3b3	0.1558979
106	0x3e850acc	0.259848
107	0xbe4046b3	-0.1877697
108	0xbe7e3d2e	-0.24828026
109	0x3e92087b	0.28522095
110	0x3df48e79	0.11941237
111	0x3e7f6c13	0.24943571
112	0x3e92d354	0.28676856
113	0xbe678778	-0.22610271
114	0x3e83dcc4	0.25754368
115	0x3dde353a	0.10849996
116	0x3da3f9db	0.080066405
117	0xbd2fa92e	-0.04288595
118	0x3dba70c2	0.09103538
119	0xbea3ac00	-0.31967163
120	0x3e7b88da	0.24563923
121	0x3e4283d0	0.18995595
122	0xbd848351	-0.06470359
123	0xbea067ca	-0.31329185
124	0xbd8cbe17	-0.06872194
125	0x3d87ffba	0.06640573
126	0xbeb36874	-0.3504063
127	0x3d2d84aa	0.042362846
128	0x3e44eb96	0.19230494
129	0xbe4e0b18	-0.2012142
130	0x3e93fd9c	0.28904426
131	0x3df2b8d5	0.1185166
132	0x3e019639	0.12654962
133	0xbe079b09	-0.13242735
134	0x3e6cfd22	0.23143438
135	0xbdcf9ab7	-0.101369314
136	0xbe6322d6	-0.22181258
137	0xbcf4bc71	-0.029875012
138	0xbe4e38ec	-0.20138901
139	0x3e8b15b4	0.27164996
140	0xbc2b65cf	-0.010461285
141	0xbe8afa31	-0.27144006
142	0xbe020f09	-0.12701048
143	0xbe89d7b0	-0.2692237
144	0x3a815ae2	0.0009869004
145	0xbd84ebef	-0.06490313
146	0x3ea94980	0.3306389
147	0x3dc4d69a	0.096112445
148	0x3e89d950	0.2692361
149	0xbe04040d	-0.1289217
150	0xbe8eaa55	-0.27864328
151	0xbe90a4f7	-0.28250858
152	0x3d078e49	0.033094678
153	0xbe55dddb	-0.20885412
154	0xbcf6f2c7	-0.030145062
155	0xbd95f3ca	-0.0732189
156	0x3e84f3d2	0.2596727
157	0xbe993d8b	-0.29929766
158	0x3da50bbc	0.08058879
159	0x3d899e90	0.067196965
160	0xbde7a0f0	-0.11309993
161	0xbe895037	-0.26819012
162	0xbe742118	-0.2384075
163	0x3d655705	0.05599119
164	0x3ddaf6d2	0.106916085
165	0x3e955bfb	0.29171738
166	0xbbd93692	-0.0066288197
167	0xbe976260	-0.29567242
168	0xbe8e1d81	-0.27756885
169	0x3d1d2655	0.038366634
170	0xbc75ea04	-0.015009407
171	0x3d718aeb	0.058970373
172	0x3e65f2da	0.22455922
173	0xbe6eec95	-0.23332436
174	0x3e6db15a	0.23212186
175	0x3b54c372	0.0032465127
176	0xbe916e5c	-0.2840451
177	0x3e44a28e	0.19202635
178	0x3e06ddca	0.13170543
179	0xbea2ffff	-0.31835935
180	0x3eaad2a2	0.33363825
181	0xbe234a8a	-0.15946403
182	0x3e11c7ad	0.14236327
183	0xbe39639d	-0.18104406
184	0x3d352312	0.0442229
185	0xbe1f1d9c	-0.15538639
186	0xbe99461b	-0.299363
187	0xbe3bcaf8	-0.18339145
188	0xbe190c27	-0.14946042
189	0x3e6c17fe	0.23056027
190	0xbeaadd30	-0.33371878
191	0x3e1ee116	0.15515551
192	0xbe1bd598	-0.15218198
193	0xbd8fa6cb	-0.07014235
194	0x3e57bc68	0.21067965
195	0x3e774654	0.24147922
196	0x3e4fb76f	0.20284818
197	0xbc2e28be	-0.010629831
198	0x3d360e6b	0.044447344
199	0xbe55e30e	-0.20887396
200	0x3d927df6	0.071529314
201	0x3dcb8e16	0.0993921
202	0xbeb71516	-0.35758275
203	0x3e25bdbd	0.1618566
204	0x3d107665	0.03526916
205	0x3e60ec5e	0.21965167
206	0xbda94fe7	-0.08267193
207	0xbdf53602	-0.11973192
208	0x3e1740e3	0.14770846
209	0xbdbb53f3	-0.091468714
210	0x3e902509	0.28153256
211	0xbde17f26	-0.1101058
212	0x3e9bdc8e	0.30441707
213	0x3be48e12	0.006974944
214	0xbea5edfa	-0.32408124
215	0x3bcd03da	0.0062565627
216	0x3e64470f	0.22292732
217	0x3e93d855	0.28875986
218	0x3e2352c4	0.15949541
219	0x3dfd832f	0.12378537
220	0xbcf7741f	-0.030206738
221	0x3e36dad5	0.17856915
222	0x3e650477	0.22364984
223	0xbd1fe5f4	-0.03903766
224	0xbd1cf400	-0.038318634
225	0xbe033bfd	-0.12815852
226	0xbe77e7eb	-0.24209563
227	0x3d6a0315	0.057131846
228	0x3d9ea073	0.07745447
229	0x3e1c96ec	0.15291947
230	0xbe6404c8	-0.22267449
231	0x3e622f87	0.22088443
232	0xbe0344a5	-0.12819155
233	0x3d819ec9	0.06329114
234	0x3d02a4ee	0.03189557
235	0x3e6d6373	0.23182468
236	0x3d115ef4	0.035490945
237	0xbddbfd4a	-0.107416704
238	0xbe1a9e97	-0.1509956
239	0x3e7ca676	0.24672875
240	0x3e9ed0b3	0.310186
241	0x3e1cb03f	0.15301608
242	0x3e8b3142	0.27186018
243	0xbe53fdef	-0.20702337
244	0x3e52badc	0.20579094
245	0xbe97495f	-0.29548165
246	0xbe88919d	-0.26673594
247	0xbe93fc90	-0.28903627
248	0x3e812e85	0.25230804
249	0x3e20dc78	0.15709102
250	0xbe8cbc41	-0.27487376
251	0x3e66d3a9	0.2254168
252	0x3e9e796a	0.30952007
253	0xbe5662f0	-0.20936179
254	0xbd909cb4	-0.07061139
255	0x3dee1118	0.11624354

bias f4 [32]
0	0x3e943791	0.28948644
1	0xbe4621f1	-0.19348885
2	0xbd46f8c0	-0.04857707
3	0xbea55586	-0.32291812
4	0xbe023e4c	-0.12719077
5	0xbe642aa5	-0.22281893
6	0x3e6d1a19	0.23154487
7	0xbe8276e4	-0.2548133
8	0xbd26d5a8	-0.040731102
9	0x3e4114cf	0.18855594
10	0x3e26f869	0.16305698
11	0x3da6bbe0	0.08141303
12	0xbe18459f	-0.14870308
13	0xbe8c5c09	-0.27413967
14	0xbd914e4d	-0.07095013
15	0x3e7537e0	0.23947096
16	0x3e9b5a8d	0.30342522
17	0xbe984011	-0.2973638
18	0x3dcea2da	0.10089655
19	0x3ea2b9ab	0.31782278
20	0x3d309c20	0.043117642
21	0xbe4aba6e	-0.1979768
22	0xbdf27814	-0.11839309
23	0x3e1baf43	0.15203576
24	0x3e1ced4f	0.15324901
25	0xbe110ccf	-0.14165042
26	0xbe9b3daa	-0.30320483
27	0xbd94e3fe	-0.072700486
28	0xbd7c6231	-0.06161708
29	0x3d7a12b6	0.061053
30	0x3d042c05	0.032268543
31	0x3e7e6d37	0.2484635

weight f4 [64, 32, 3, 3]
0	0xbcdf8ce1	-0.027288856
1	0x3d5bf7cc	0.053703114
2	0x3d7409c2	0.05957962
3	0xbc3e8943	-0.011629405
4	0x3cace871	0.02110693
5	0xbd6f0ea8	-0.058363587
6	0xbdb5ebaa	-0.0888284
7	0xbc91eddf	-0.017813621
8	0xbd3847aa	-0.04499022
9	0xbda86c71	-0.082238086
10	0xbd18f270	-0.03734058
11	0xbce90e8b	-0.028449317
12	0x3c123dd9	0.008925878
13	0x3c85f13d	0.016350383
14	0x3c8a6b46	0.016896855
15	0xbd17da77	-0.03707358
16	0xbc8baa5c	-0.017049007
17	0xbcd4c7e4	-0.025974222
18	0x3d2074fe	0.039174072
19	0xbc9519c0	-0.018200755
20	0xbb89f8c7	-0.004210565
21	0x3d4360db	0.04769979
22	0xbce4afbd	-0.02791583
23	0x3d5987f5	0.053108174
24	0x3bfd0dcf	0.0077225934
25	0xbd247aec	-0.04015629
26	0xbd31ac63	-0.04337729
27	0x3c6d50f0	0.014484629
28	0xbd3be585	-0.045873184
29	0xbd811866	-0.06303482
30	0x3d2b8cc7	0.041882303
31	0x3bfe1f0e	0.007755167
32	0x3cc69546	0.024241101
33	0xbd68e41d	-0.05685817
34	0x3cb63f49	0.022246974
35	0xbb339d1e	-0.0027406882
36	0xbda1e4fb	-0.07905003
37	0x3cfa973f	0.030589698
38	0xbc10df8b	-0.008842359
39	0x3cba62d6	0.022752207
40	0xbc8efbd3	-0.017454064
41	0x3c150448	0.009095259
42	0xbdc3f65e	-0.09568475
43	0xbde942c4	-0.11389688
44	0xbe03577a	-0.12826338
45	0xbd6a588b	-0.057213347
46	0xbc93900a	-0.01801302
47	0xbced4697	-0.028964324
48	0xbda0d1d5	-0.07852522
49	0xbcc3da69	-0.023907857
50	0x3d3e9b55	0.046534855
51	0x3c3e1741	0.011602224
52	0xbc558213	-0.0130315
53	0xbbe9e959	-0.007138413
54	0x3c6f8df5	0.014621248
55	0xbbe494a0	-0.0069757253
56	0xbc74e6bf	-0.014947592
57	0xbd393c28	-0.045223385
58	0xbd713b27	-0.058894303
59	0x3cbd8a36	0.023137193
60	0xbda27c91	-0.079339154
61	0xbd943844	-0.07237294
62	0xbc356211	-0.011070744
63	0xbd051fce	-0.032501034
64	0xbd20f776	-0.039298497
65	0xba066f38	-0.0005128267
66	0x3d16fb06	0.03686049
67	0xbd8b530c	-0.06802949
68	0xbcbfd7de	-0.023418363
69	0x3a996695	0.0011703545
70	0x3cb83f99	0.022491263
71	0xbd8796f0	-0.06620586
72	0xbcac5a92	-0.021039281
73	0x3c0bd547	0.008534736
74	0x3d467f92	0.048461504
75	0x3c3a97c6	0.011388725
76	0x3cb0b547	0.021570815
77	0x3cf6fddd	0.030150348
78	0xbd86d37d	-0.06583307
79	0xbd2c49b3	-0.042062473
80	0x3c202b17	0.009775898
81	0x3d97fe77	0.07421582
82	0xbb3f8486	-0.0029223277
83	0xbd17b03b	-0.0370333
84	0x3daa31d7	0.083102874
85	0x3d704fdc	0.05866991
86	0x3dd3769c	0.10325357
87	0x3d11d23d	0.03560089
88	0xbd49ef8a	-0.049300708
89	0x3d219f6f	0.03945869
90	0xbd80b2af	-0.06284081
91	0x3db5838c	0.08862981
92	0xbca589ad	-0.02020725
93	0x3c5c0360	0.013428539
94	0xbd698d25	-0.05701937
95	0xbbb27c8f	-0.0054469774
96	0xbe4510b1	-0.19244649
97	0xbdd73dfc	-0.105098695
98	0xbdb8b14e	-0.09018193
99	0xbd34255a	-0.043980934
100	0xbd1844c5	-0.03717496
101	0xbc552af6	-0.013010731
102	0xbd9e2bf9	-0.07723231
103	0xbd380ad3	-0.044932198
104	0xbd856c92	-0.06514849
105	0xbd4ea753	-0.05045254
106	0xbc15ee07	-0.009150988
107	0xbd2f3754	-0.042777374
108	0x3cd0e1d4	0.025498308
109	0xbbcac241	-0.0061877077
110	0x3c15d4ab	0.009144942
111	0xbb1ffdbe	-0.0024412717
112	0xbcff447b	-0.031160584
113	0x3d78bf54	0.06072934
114	0x3b4b78ed	0.003104742
115	0xbd4d688d	-0.050148536
116	0x3c7bd1bf	0.015369832
117	0xbd44f521	-0.048085336
118	0xbd82a32e	-0.0637878
119	0xbd5c1e7e	-0.053740017
120	0x3cf0f329	0.029412823
121	0xbb683b85	-0.0035435867
122	0x3c9c94d1	0.01911393
123	0xbdcc3329	-0.099706955
124	0xbdad0315	-0.084478535
125	0xbde99e6f	-0.11407172
126	0x3cbf640f	0.023363141
127	0x3c2cae35	0.010539581
128	0x3cfdb2c6	0.030969035
129	0xbab2abfe	-0.001363158
130	0xbd22012b	-0.039551895
131	0xbcd5b99b	-0.02608948
132	0x3c606751	0.013696508
133	0x3d2e9bc6	0.042629026
134	0x3c238cc1	0.009982289
135	0x3cfd1aa5	0.030896494
136	0x3b6356e8	0.0034689251
137	0xbd75e477	-0.060032334
138	0xbb1f1bde	-0.0024278085
139	0x3da2e1c8	0.079532206
140	0x3d8eb20b	0.06967553
141	0xbda63d93	-0.08117213
142	0xbd8a5637	-0.067547254
143	0x3bd63df0	0.0065381452
144	0x3d85a60f	0.06525814
145	0xbcc8eb63	-0.024526304
146	0xbc0d900e	-0.008640302
147	0x3da65aa3	0.08122756
148	0x3dc8cf92	0.09805216
149	0x3da89b05	0.08232693
150	0xbd7c5e01	-0.061613087
151	0xbcd93a88	-0.026517168
152	0x39d5a1c3	0.00040747048
153	0x3d4f2ca0	0.050579667
154	0xbd94cac6	-0.072652385
155	0xbdf89fa4	-0.12139824
156	0x3cef2852	0.02919403
157	0x3d3319dd	0.043725837
158	0x3caef170	0.02135536
159	0xbdd99ebb	-0.106259786
160	0xbe243d20	-0.16038942
161	0xbd8903ed	-0.06690202
162	0xbd6ac309	-0.057314906
163	0xbd985e94	-0.07439914
164	0xbc968516	-0.018374007
165	0xbd7dbb67	-0.0619463
166	0x3c60324c	0.013683867
167	0x3d840a18	0.06447238
168	0xbd59ef7b	-0.053206902
169	0xbd3975c8	-0.04527834
170	0x3cc04b50	0.023473412
171	0xbd7fffa0	-0.062499642
172	0x3cbb2203	0.022843366
173	0xbcc1c3cb	-0.023652932
174	0x3c48e843	0.012262407
175	0x3d091eb7	0.033476558
176	0xbb0d6923	-0.002157756
177	0xbdd2c1fe	-0.10290907
178	0xbd8cb894	-0.06871143
179	0xbda3fc89	-0.08007152
180	0xbcf1bc26	-0.029508661
181	0x3b04b72a	0.0020250776
182	0xbdccc1d5	-0.09997908
183	0xbc9966be	-0.01872575
184	0xbcc2e576	-0.023791056
185	0x3c92cda1	0.017920317
186	0xbd7502c7	-0.0598171
187	0xbd937b28	-0.072012246
188	0xbd538d15	-0.05164822
189	0x3d508370	0.0509066
190	0x3d8109c9	0.063006945
191	0x3d078dd7	0.033094253
192	0xbd6525bb	-0.055944186
193	0x3d0468c1	0.032326464
194	0xbd81c52c	-0.06336436
195	0xbcca4476	-0.024690848
196	0xbc0a0396	-0.0084237065
197	0x3c9d30d6	0.019188326
198	0x3d4f693a	0.05063746
199	0xbd3cd5b8	-0.046102256
200	0xbc2d04d9	-0.010560238
201	0xbc69536f	-0.0142410835
202	0x3ca14441	0.019685866
203	0xbd1a2db9	-0.03764126
204	0xbcd74949	-0.026280062
205	0xbd50664b	-0.050878804
206	0xbd8c8dbd	-0.06862972
207	0x3cfb919f	0.030709086
208	0xbc43e898	-0.01195731
209	0x3d7638dd	0.060112823
210	0xbb51a280	-0.0031987727
211	0x3bab7a69	0.0052330983
212	0x3d21feb0	0.03954953
213	0xbce675c3	-0.028132325
214	0x3c6df8de	0.014524667
215	0xbd6ebad9	-0.05828366
216	0x3d3bb0f2	0.045823045
217	0xbc123dcb	-0.008925865
218	0x3d0f8c03	0.035045635
219	0xbbb3efb6	-0.0054912223
220	0x3c05f5e1	0.008176298
221	0xbb8eaa75	-0.004353816
222	0x3a1bb910	0.0005940357
223	0xbd6095d6	-0.054830395
224	0xbd6ecec8	-0.05830267
225	0xbd3c4fe6	-0.045974635
226	0xb9aab936	-0.0003256292
227	0x3cd5e110	0.026108295
228	0x3b162f28	0.002291629
229	0xbd8e45ff	-0.069469444
230	0xbd72a14b	-0.059235852
231	0xbd0fb4f1	-0.03508467
232	0xbbade3cc	-0.0053066965
233	0xbd401619	-0.046896074
234	0xbc888c9f	-0.016668616
235	0xbcf4b816	-0.029872935
236	0x3d53353f	0.05156445
237	0xbc1bf99f	-0.0095199635
238	0x3c591b32	0.013251113
239	0xbd16dd21	-0.03683198
240	0xbc00e784	-0.007867698
241	0xbd832e3a	-0.064053014
242	0x3c64df20	0.013969213
243	0xbd8cbbe1	-0.068717726
244	0xb9e06d1e	-0.00042805908
245	0x3c3aaa83	0.011393192
246	0xbd8eefb1	-0.06979311
247	0x3cd00145	0.02539123
248	0x3cc8db30	0.02451858
249	0xbdc13163	-0.09433248
250	0xbd97011e	-0.0737326
251	0xbdc9bc1e	-0.09850334
252	0x3c862978	0.016377196
253	0x3b83ff94	0.00402827
254	0xbd890b1b	-0.06691571
255	0xbd1a5213	-0.03767593

bias f4 [64]
0	0xbd7d5208	-0.06184581
1	0x3cfad38f	0.030618457
2	0x3d94d01b	0.072662555
3	0xbe285bee	-0.16441318
4	0xbd758a99	-0.05994663
5	0x3d8f8149	0.07007081
6	0x3da22522	0.07917239
7	0xbcd61c73	-0.026136613
8	0xbd59520f	-0.053056773
9	0x3dd4e4e6	0.103952214
10	0x3da0d6be	0.07853459
11	0x3ccf7167	0.02532263
12	0xbc83cb31	-0.0160881
13	0x3da50ba9	0.080588646
14	0xbcad4024	-0.021148749
15	0x3d889c1e	0.06670402
16	0xbdf8d241	-0.12149478
17	0xbdf6ae6b	-0.12044986
18	0x3c213040	0.009838164
19	0xbd16a570	-0.036778867
20	0x3d5476de	0.051871173
21	0xbd519c24	-0.051174298
22	0x3d92e9b0	0.071734786
23	0xbcc43fbc	-0.023956172
24	0xbda9e1b9	-0.08295006
25	0xbcfc5be0	-0.030805528
26	0x3e2bfeb8	0.16796386
27	0xbb84236e	-0.004032544
28	0x3d97e3ad	0.074164726
29	0x3db1c9e0	0.08681083
30	0x3c1307c9	0.008974024
31	0x3c819648	0.01581873
32	0x3d97b859	0.074082084
33	0x3d5352b6	0.05159255
34	0x3d777663	0.060415637
35	0x3db6f285	0.08932976
36	0x3d927acb	0.07152327
37	0xbd44cdfe	-0.048048012
38	0x3de58d13	0.112085484
39	0x3da1f4e4	0.07908037
40	0x3c402ab9	0.011728936
41	0xbbcf4fd6	-0.006326656
42	0xbd68a7b8	-0.056800574
43	0xbc767046	-0.0150414165
44	0x3d97796d	0.07396207
45	0x3d6d03ba	0.057864882
46	0x3c6509f7	0.013979427
47	0x3d3ba517	0.04581174
48	0x3c6de411	0.014519707
49	0x3e1c8d22	0.15288213
50	0x3dc8e6a6	0.09809618
51	0xbcb8b7f3	-0.022548651
52	0x3da33b77	0.079703264
53	0x3cf5b3e3	0.029993003
54	0xbd495fcd	-0.04916363
55	0xbc01fcee	-0.007933838
56	0xbc0a6fe9	-0.008449533
57	0x3d5486cf	0.051886376
58	0x3cbb1efd	0.022841925
59	0xbdb2028c	-0.08691892
60	0xbdb9967e	-0.09061907
61	0xbde21374	-0.11038867
62	0xbc30e815	-0.01079752
63	0xbc0cceab	-0.008594195

weight f4 [128, 64, 3, 3]
0	0x3cbe7c27	0.02325256
1	0x3c2e6d50	0.010646179
2	0xbd2b79f3	-0.041864347
3	0xbd259107	-0.040421512
4	0xbd51d031	-0.051223937
5	0xbc6a6347	-0.014305896
6	0xbd7afe03	-0.0612774
7	0xbcbf1e24	-0.023329802
8	0xbc44cae5	-0.012011264
9	0x3cebcd5e	0.02878445
10	0x3cda3747	0.026637686
11	0x3cb85730	0.022502512
12	0x3cd0448f	0.025423316
13	0xbcb0319a	-0.021508027
14	0x3c1ffe98	0.00976529
15	0x39d88bd2	0.00041302905
16	0x3c916266	0.017747115
17	0xbb8dcad0	-0.0043271556
18	0x3c1ec2a0	0.009689957
19	0x3d013446	0.031543992
20	0xbc3c2b1a	-0.011484886
21	0x3c33ac5d	0.010966388
22	0xbca03494	-0.019556321
23	0xbd0b1b60	-0.033961654
24	0x3cfe2499	0.03102331
25	0xbba9fa39	-0.0051872996
26	0xbbb415c1	-0.0054957573
27	0xbd08e2ef	-0.033419546
28	0x3d15a38f	0.036532935
29	0xb9365af4	-0.00017390755
30	0x3c8db7bc	0.017299525
31	0x3ca6894a	0.020329136
32	0x3c363b9c	0.01112261
33	0xbc93361d	-0.01797014
34	0x3c551ee3	0.013007852
35	0x3d35b989	0.044366393
36	0xbcc0eb20	-0.023549616
37	0x3d22a60a	0.03970913
38	0x3c46057a	0.012086267
39	0x3d1b42ce	0.037905507
40	0xbcf87bbc	-0.030332439
41	0xbd2c22ac	-0.042025253
42	0x3ca232cd	0.019799614
43	0xbbd195d6	-0.0063960357
44	0x3ba0d781	0.0049085026
45	0xbd0667a8	-0.032813698
46	0xbc87e30c	-0.016587757
47	0x3ca878cc	0.020565413
48	0xbc218000	-0.009857178
49	0xbcf1f935	-0.029537776
50	0x3c1c0eae	0.009524984
51	0xbd00c94f	-0.031441983
52	0x3ca5457b	0.020174732
53	0xbd022a79	-0.031778786
54	0x3c173780	0.009229541
55	0x3ca21d7e	0.019789454
56	0xbbb8be91	-0.0056379517
57	0xbb96d497	-0.0046029794
58	0xbb72ca28	-0.0037046764
59	0xbcc26956	-0.023731869
60	0x3cafe0e0	0.021469533
61	0xbd71f8ad	-0.059075046
62	0xbd141fe9	-0.036163244
63	0xbaf59380	-0.0018735975
64	0x3cbf0730	0.023318857
65	0x3cebb126	0.028770994
66	0x3cefd585	0.029276619
67	0x3862fecc	5.4119897e-05
68	0xbd220e14	-0.039564207
69	0x3c9407cb	0.018070122
70	0xbcd75b9a	-0.026288796
71	0x3c55ec63	0.013056847
72	0xbd25272e	-0.040320568
73	0x3c8f2636	0.017474275
74	0x3cda918e	0.026680734
75	0x3c5b5121	0.013386042
76	0x3d02b37e	0.03190946
77	0x3cf45f78	0.02983068
78	0xbbf6b11a	-0.0075284364
79	0xbd2d09bd	-0.042245615
80	0xbc914e2f	-0.017737476
81	0xbccebd4f	-0.025236754
82	0xbc0e0615	-0.008668442
83	0xbb51f54c	-0.0032037077
84	0xbcdf3a6d	-0.02724954
85	0xbc476fec	-0.01217268
86	0x3c5bd02d	0.013416332
87	0x3c90d45f	0.017679391
88	0x3cf50f37	0.029914482
89	0xbcc65141	-0.024208667
90	0xbcd164b4	-0.025560714
91	0x3a33b708	0.0006855582
92	0x3d1ec164	0.03875865
93	0x3ca8c968	0.02060385
94	0x3c5f0a8f	0.013613357
95	0xbccd4096	-0.025055211
96	0x3d0fbebb	0.035094004
97	0x3bf087ae	0.007340393
98	0x3d041454	0.03224595
99	0xbca768ac	-0.020435654
100	0x3d15957d	0.036519516
101	0x3c95e791	0.018298896
102	0x3cd0d81f	0.02549368
103	0x3c91c17d	0.017792458
104	0x3ce11b4a	0.027478833
105	0x3d1b6437	0.03793737
106	0xbcdf90f7	-0.027290804
107	0x3babe066	0.0052452562
108	0xbb8b3d38	-0.004249241
109	0x3c74033b	0.014893348
110	0xbd0ca93a	-0.034341075
111	0xbd20259c	-0.039098367
112	0xbcb724cc	-0.022356413
113	0x3cb0e5a9	0.021593885
114	0xbcbd8b54	-0.023137726
115	0x3ccf34cb	0.025293728
116	0xbcfb03f5	-0.030641535
117	0x3cb556d6	0.022136133
118	0x3892df98	7.00347e-05
119	0xbd1e6896	-0.03867396
120	0x3c9259f9	0.017865168
121	0xbcf27811	-0.029598268
122	0x3c1f261d	0.009713677
123	0xbc8fda0d	-0.01756003
124	0xbca92915	-0.020649472
125	0xbc38eb6c	-0.011286598
126	0xbcd97593	-0.026545322
127	0xbc39f421	-0.011349709
128	0x3c90b8bd	0.017666215
129	0x3c69a50f	0.014260544
130	0xbd0caecd	-0.03434639
131	0x3cc49d4e	0.02400079
132	0x3c200efa	0.009769196
133	0x3b0e7de7	0.0021742524
134	0xbb092863	-0.0020928613
135	0x3ca6bd90	0.020354062
136	0x3cf36b9a	0.029714394
137	0xbd1da0fd	-0.03848361
138	0xbbec5d93	-0.0072133034
139	0xbcac76f3	-0.021052813
140	0xbc6887d1	-0.014192537
141	0xbc844e98	-0.016150758
142	0x3c65594b	0.01399834
143	0xbc2191a0	-0.00986138
144	0xbcb39f75	-0.021926621
145	0xbcaab6a5	-0.020839045
146	0xbabb29fb	-0.0014279479
147	0xbba49260	-0.005022332
148	0xbd05b854	-0.032646492
149	0x3c51ba63	0.012800786
150	0xbd235cb3	-0.039883327
151	0xbb9b7c6c	-0.004745057
152	0x3d18dfc9	0.037322793
153	0xbcb789ea	-0.02240463
154	0x3c9de2e9	0.019273238
155	0xbc8f1a7e	-0.017468687
156	0xbbf55ae9	-0.007487644
157	0xbb83cdd6	-0.0040223403
158	0x3c82eec2	0.01598299
159	0x3c2b67e8	0.010461785
160	0x3cc7fe49	0.024413245
161	0xbca8d31b	-0.020608475
162	0xbd00186d	-0.031273294
163	0xbcbe81e1	-0.02325529
164	0xbcfa745e	-0.030573066
165	0xbc0173cb	-0.007901142
166	0x3d284913	0.041085314
167	0x3c052c05	0.008128171
168	0x3b3a63af	0.0028440764
169	0xbd1777c3	-0.036979448
170	0x3b4e0731	0.0031437392
171	0xbb0a6ece	-0.0021123174
172	0x3bc8e0d7	0.0061303186
173	0x3cfb060f	0.030642537
174	0xba66bb65	-0.00088017277
175	0x3d2f0278	0.042726964
176	0x3d288f6e	0.04115241
177	0xbd4a63a1	-0.04941142
178	0x3cd187a1	0.025577368
179	0xbc937491	-0.01799992
180	0xbc82136a	-0.015878398
181	0xbcac11c0	-0.021004558
182	0x3c0a4bec	0.008440953
183	0x3c099dc4	0.008399431
184	0xbc968fa8	-0.018379048
185	0x3be3a1b3	0.0069467663
186	0xbcdbb408	-0.026819244
187	0xbd2491a4	-0.040177956
188	0xbd24c489	-0.040226493
189	0xbc526d44	-0.012843434
190	0x3bd3d431	0.006464504
191	0x3d119b61	0.03554857
192	0xbccce323	-0.025010651
193	0x3b33730a	0.00273818
194	0xbc9fdf7c	-0.019515745
195	0x3d009198	0.03138885
196	0x3d014bb3	0.031566333
197	0xbcf867b5	-0.030322889
198	0xbd12d47b	-0.03584717
199	0x3c1c932c	0.009556573
200	0xbb60c6db	-0.0034298215
201	0xbd02386b	-0.031792086
202	0xbbcb477a	-0.006203589
203	0xbc4f1e78	-0.012641542
204	0xbba6483b	-0.0050745285
205	0x3d13eb95	0.03611334
206	0xbb37111c	-0.0027933782
207	0x3cc11714	0.023570575
208	0xbce4553d	-0.027872676
209	0xbbcf3d01	-0.006324411
210	0x3beed262	0.007288263
211	0xbcc4938c	-0.023996137
212	0x3cd5a561	0.026079835
213	0xbc9345a9	-0.017977552
214	0xbcf2d453	-0.02964226
215	0xbceee436	-0.029161554
216	0xbd08b998	-0.03338012
217	0x3c9c3031	0.019065948
218	0xbcaad95c	-0.020855598
219	0xbd30d95f	-0.04317605
220	0x3b2fb43c	0.002681031
221	0xbcc7ea29	-0.024403648
222	0x3c9bf75d	0.01903885
223	0xbd25ab58	-0.04044661
224	0x3c31dcdb	0.010855879
225	0xbaf08b7c	-0.0018352116
226	0x3c0287df	0.0079669645
227	0xbc5c6c0d	-0.013453496
228	0xbace6961	-0.0015747958
229	0xbd1d1499	-0.03834972
230	0xbce08523	-0.027407235
231	0x3b12d4ca	0.0022404664
232	0x3d0ff9d4	0.035150364
233	0xbbdde15e	-0.0067712506
234	0xbc43740a	-0.011929521
235	0xbd06f72a	-0.032950558
236	0xbd17e707	-0.03708556
237	0x3c4551c0	0.0120434165
238	0xbcd1fa48	-0.025632039
239	0xbccde8bb	-0.025135389
240	0x3c19d287	0.009388573
241	0x3cc82477	0.02443145
242	0x3c9a195d	0.018810922
243	0x3d0c4069	0.034241114
244	0xbb4b8725	-0.0031055894
245	0xbd09c831	-0.033638183
246	0xbd18c707	-0.037299182
247	0x3c8955b7	0.016764505
248	0xbbb30609	-0.005463366
249	0xbc42005c	-0.011840906
250	0xbd1f7d5f	-0.038937923
251	0xbc81d041	-0.015846374
252	0x3cc658de	0.024212297
253	0x3cb364b6	0.021898609
254	0x39c336f7	0.0003723425
255	0x3cee69ac	0.029103123

bias f4 [128]
0	0xbc219131	-0.0098612765
1	0x3dd57205	0.10422138
2	0x3c8f6aa2	0.017506901
3	0x3e33877a	0.17532149
4	0x3d38e0a5	0.045136113
5	0x3d81a7c6	0.06330828
6	0x3aa280d6	0.0012398015
7	0x3d8d7eaf	0.069089286
8	0x3d858748	0.065199435
9	0xbda0802a	-0.07836945
10	0x3bb5f2c0	0.0055526197
11	0x3d56a1ad	0.05240028
12	0xbd97f464	-0.07419661
13	0x3d8524bd	0.06501148
14	0xbc8d5ee6	-0.017257165
15	0x3d988a0a	0.07448204
16	0xba933f37	-0.001123405
17	0xbdab1c95	-0.08355061
18	0x3d67a130	0.056550205
19	0xbdcaf016	-0.09909074
20	0x3ce2dff3	0.027694678
21	0xbd489af3	-0.048975896
22	0x3d5d9038	0.054092616
23	0x3dcd5aa5	0.10027055
24	0x3ce9b3d7	0.028528137
25	0x3dc1e42d	0.09467349
26	0xbc30855f	-0.010773986
27	0x3d17ab09	0.037028346
28	0x3c8d5f7a	0.01725744
29	0xbdef673c	-0.11689612
30	0x3be54523	0.006996767
31	0x3c586fd2	0.013210254
32	0x3d27629b	0.040865522
33	0x3dab12c5	0.083531894
34	0x3e049458	0.12947214
35	0x3df36556	0.11884563
36	0xbd4d24ca	-0.050083913
37	0x3c33a6ff	0.010965108
38	0xbe1d4314	-0.1535762
39	0xbdab0b97	-0.0835182
40	0xbd2e7af1	-0.042597715
41	0x3e44215b	0.19153349
42	0x3d690be0	0.05689609
43	0xbc1bc2a4	-0.009506855
44	0xbd804957	-0.062639885
45	0x3dc1442b	0.0943683
46	0x3d2e58d2	0.042565174
47	0xbce98766	-0.028506946
48	0x3d21c807	0.0394974
49	0x3df7fa00	0.121082306
50	0xb92cd756	-0.00016483417
51	0x3d26f32a	0.040759243
52	0xbd041cf1	-0.032254163
53	0x3d8e40af	0.06945931
54	0xbcd4a031	-0.025955291
55	0x3e211d4f	0.15733837
56	0x3e08526a	0.13312688
57	0x3dc199da	0.09453173
58	0x3e046fd5	0.12933286
59	0x3d846a17	0.064655475
60	0xbd7767ff	-0.060401913
61	0x3e25317d	0.1613216
62	0xbd093c79	-0.033504937
63	0xbd8e3d61	-0.06945301
64	0x3d8151c1	0.063144214
65	0xbcda849c	-0.026674561
66	0x3c8db210	0.01729682
67	0xbcd8ced6	-0.026465815
68	0x3c4aa489	0.01236833
69	0xbd03dcbe	-0.032192938
70	0x3e12fb87	0.14353763
71	0xbd805aad	-0.06267295
72	0x3e2ee7b1	0.17080571
73	0xbc4aa79c	-0.012369063
74	0x3c5cd877	0.013479344
75	0x3d929458	0.071572006
76	0x3e03b4f3	0.12861995
77	0xbd1a2ea5	-0.03764214
78	0x3d0304ea	0.03198711
79	0x39f467ef	0.00046616743
80	0xbdc27e92	-0.094967976
81	0x3e20c5be	0.15700433
82	0x3d94954f	0.07255041
83	0x3d88578f	0.066573255
84	0x3a2627df	0.0006338339
85	0xbd3003a7	-0.042972233
86	0xbbbbd033	-0.0057316064
87	0x3c9205d0	0.017825037
88	0xbdedcd5b	-0.11611434
89	0x3d3543d2	0.04425413
90	0x3ca5325c	0.020165615
91	0x3d861fdc	0.065490454
92	0x3d4746a2	0.048651345
93	0xbcacd44c	-0.021097325
94	0x3e93676a	0.28789836
95	0x3d1452e8	0.036211878
96	0x3c8cdd62	0.017195407
97	0x3c8b879f	0.017032443
98	0x3b4e807b	0.0031509686
99	0xbab90806	-0.0014116771
100	0x3e3e6e09	0.18596663
101	0x3bf9d180	0.0076238513
102	0x3db4f83f	0.08836412
103	0x3c813fc7	0.015777482
104	0x3dabb1fe	0.08383559
105	0x3da72a38	0.081623495
106	0x3c5e0152	0.0135501195
107	0x3b32f9ea	0.0027309605
108	0xbcbf030f	-0.023316888
109	0xbae40a6c	-0.0017398125
110	0x3a71bd6a	0.00092216453
111	0x3cf8bcd8	0.030363485
112	0xbd17ba96	-0.037043177
113	0x3d95c0da	0.07312174
114	0x3d37b034	0.044845775
115	0x3d740baa	0.059581436
116	0x3e0fb5d6	0.14034209
117	0x3daccb9a	0.084372714
118	0xbd3d834c	-0.046267793
119	0x3d9f6ba4	0.07784203
120	0x3d751e1f	0.05984318
121	0x3d60fd20	0.0549289
122	0x3e2ebbbc	0.17063802
123	0x3db5f879	0.08885283
124	0x3dc49772	0.095991984
125	0xbd0ade8e	-0.03390365
126	0x3da35db6	0.07976858
127	0x3d4fd655	0.050741512

weight f4 [128, 64, 3, 3]
0	0x3d2183f1	0.03943247
1	0xbc4a4a74	-0.012346853
2	0xbd2965a9	-0.041356716
3	0x3d31adad	0.04337852
4	0x3cd6a95c	0.026203804
5	0xb9e661f7	-0.00043942008
6	0xbcddc1b7	-0.02706991
7	0xbc4855d4	-0.012227494
8	0xbc8985b0	-0.01678738
9	0xbd159e24	-0.036527768
10	0x3ca9d4e5	0.020731399
11	0xbb86dfc6	-0.0041160313
12	0xbbaa684e	-0.0052004224
13	0x3cf01b72	0.029309962
14	0xbccac020	-0.024749815
15	0xbcb08e6f	-0.021552293
16	0xbc145799	-0.009054088
17	0x3ca0ca7f	0.019627808
18	0x3be9edb2	0.007138931
19	0xbab0e915	-0.0013497198
20	0xbd56642b	-0.05234162
21	0xbd26370f	-0.04057985
22	0x3c2757c8	0.0102138
23	0x3cacc47a	0.021089781
24	0xbd01c133	-0.03167839
25	0xbcf440cc	-0.029816054
26	0xbcb1728b	-0.021661064
27	0xbc9c0e5f	-0.019049821
28	0x3b76ff3d	0.0037688755
29	0xbd134b58	-0.035960525
30	0x3c8ed46b	0.017435273
31	0x3ce185b9	0.027529584
32	0x3bc95e94	0.006145308
33	0x3cbe04ef	0.023195712
34	0x3a7fe83c	0.00097620836
35	0x3c557c2e	0.013030095
36	0xbbaa02ed	-0.005188337
37	0xbb86d1bf	-0.004114359
38	0xbd1eea34	-0.038797572
39	0xbc858f0a	-0.016303558
40	0x3cc6f399	0.024286078
41	0xbd8b2bd9	-0.06795473
42	0xbbd4c66f	-0.0064933817
43	0xbd35688c	-0.044289157
44	0xbd8b49a4	-0.06801155
45	0x3cd35d70	0.02580139
46	0xbd09ebb3	-0.033672046
47	0xbbee7cc5	-0.0072780573
48	0x3ce3e6e9	0.027820067
49	0xbcace58b	-0.021105548
50	0x3cfd6be4	0.030935235
51	0xbd29dcf1	-0.04147047
52	0xbd167659	-0.03673396
53	0xbc939e3f	-0.018019794
54	0x3d0e5eef	0.034758504
55	0x3c2bb1de	0.010479419
56	0xbcfa6786	-0.030566942
57	0xbd20f0ae	-0.03929203
58	0x3b05feca	0.0020446056
59	0xbbdaec16	-0.0066809757
60	0x3b72b8b0	0.0037036352
61	0xbc822fa9	-0.015891867
62	0x3d164207	0.036684062
63	0xbcdc9e4d	-0.026930952
64	0xbd246f26	-0.040145062
65	0xbd446549	-0.047948156
66	0xbc445367	-0.011982775
67	0xbbbd8500	-0.005783677
68	0xbd26ea62	-0.04075087
69	0xbd22e78d	-0.039771605
70	0x3cea0069	0.028564649
71	0x3d223b84	0.03960754
72	0x3d09cf23	0.033644807
73	0xbd2294c1	-0.039692644
74	0x3bd973da	0.006636125
75	0x39dcd8d5	0.00042123222
76	0x3b4cfcbd	0.0031278573
77	0xbc9030f7	-0.017601473
78	0x3d025a4e	0.031824403
79	0xbcf70b67	-0.030156804
80	0xbd2bf805	-0.041984577
81	0xbc558edc	-0.013034549
82	0xbc12110b	-0.008915196
83	0xbc3862e6	-0.011254048
84	0xbce150c7	-0.027504338
85	0xbc5c9759	-0.0134638185
86	0xbce60ca7	-0.028082205
87	0x3c985caf	0.018598882
88	0x3c177e6c	0.00924645
89	0x3c5de775	0.013543953
90	0xbb4eccb4	-0.0031555118
91	0xbb939448	-0.0045037605
92	0xbcea9a46	-0.028638016
93	0xbc8365e5	-0.016039798
94	0xbd20807d	-0.039185036
95	0xbc617f4e	-0.013763262
96	0xbc876065	-0.016525457
97	0xbc2e4ce7	-0.010638452
98	0x3d12d9f0	0.035852373
99	0xbd1c0581	-0.038091186
100	0xbaf1a4aa	-0.0018435915
101	0xbd0ce044	-0.034393564
102	0xbd0eebf1	-0.03489298
103	0xbd3403a8	-0.0439488
104	0xbd415830	-0.047203243
105	0xbc83321b	-0.016015103
106	0xbcd69c55	-0.026197592
107	0xbd1ff8fb	-0.039055806
108	0xbd41825e	-0.04724347
109	0xbcbd758a	-0.023127336
110	0xbd34c804	-0.044136062
111	0xbd2c1ab7	-0.042017665
112	0x3c2d8135	0.010589887
113	0xbd79a949	-0.06095246
114	0xbd89f2c0	-0.06735754
115	0xbc2bc435	-0.010483791
116	0xbd20674d	-0.039161015
117	0xbd11b2cb	-0.0355709
118	0xbca1f603	-0.019770628
119	0x3c6249d9	0.013811552
120	0xbca8dc2c	-0.020612799
121	0x3bbed4cd	0.0058237077
122	0x3cb21c01	0.021741869
123	0x3d1df358	0.03856215
124	0xbc394b4d	-0.011309457
125	0x3b89b1a7	0.004202086
126	0xbd4d6698	-0.05014667
127	0xbcef0d83	-0.029181248
128	0xbcea49f7	-0.028599722
129	0xbcb81ef0	-0.02247569
130	0xbd29d31f	-0.041461106
131	0x3b1a4b9e	0.0023543607
132	0x3ccc8b9b	0.024968913
133	0xbcfbe685	-0.030749569
134	0x3d19986c	0.037498876
135	0x3d252e7c	0.040327534
136	0x3cbef054	0.023307957
137	0x3d07ee35	0.033186156
138	0x3d140cc0	0.03614497
139	0x3cbeedfc	0.02330684
140	0x3d084bf5	0.033275563
141	0xbc7b8c10	-0.015353218
142	0x3cf16d83	0.029471165
143	0xbd1090f7	-0.0352945
144	0xbd800da3	-0.06252601
145	0xbd50d7a4	-0.0509869
146	0x3c0ea875	0.0087071555
147	0xbcb34cfb	-0.021887293
148	0xbbe4e373	-0.006985122
149	0x3c4fdcfb	0.012686963
150	0xbca08cfa	-0.019598473
151	0x3cb404b6	0.021974903
152	0xbbc3de30	-0.0059774145
153	0x3c3b59ec	0.011435013
154	0xbbecf28e	-0.007231063
155	0x3bbc0df4	0.005738968
156	0x3c4062ad	0.011742276
157	0xbbc04fb4	-0.0058688764
158	0x3c7a21b2	0.015266823
159	0xbd0ecc76	-0.034862958
160	0xbc44be0a	-0.0120081995
161	0xbcb5382f	-0.022121517
162	0x3ce5cbc2	0.02805126
163	0x3c5a62d9	0.013329231
164	0xbcc6420c	-0.024201415
165	0xbbfbe99a	-0.0076877596
166	0x3bd2610c	0.0064202603
167	0x3c56edc6	0.013118213
168	0x3c15a9cf	0.009134724
169	0xbcac30e5	-0.021019408
170	0xbcac8161	-0.021057786
171	0x3d02ba7e	0.031916134
172	0x3c286842	0.010278763
173	0x3cc95103	0.024574762
174	0xbc803718	-0.01565127
175	0x3bc3be09	0.0059735817
176	0x3d1e7830	0.03868884
177	0x3cdc3ec1	0.026885392
178	0xbc498d61	-0.012301774
179	0x3c827c29	0.015928345
180	0x3d256b3b	0.040385466
181	0x3d20e62e	0.039282016
182	0x3d716e0b	0.058942836
183	0xbceefbd1	-0.02917281
184	0x3cf9440e	0.030427959
185	0x3c4a9493	0.012364524
186	0xbd19cfd9	-0.037551735
187	0xbd0fdb59	-0.035121296
188	0x3d009f9b	0.03140221
189	0xbcb1cf13	-0.021705186
190	0xbd2bf328	-0.04197994
191	0xbd15a989	-0.036538634
192	0x3c17e757	0.009271464
193	0x3cb0fa8f	0.02160385
194	0xbce0e761	-0.02745408
195	0xbaf32344	-0.0018549939
196	0x3c9aa20a	0.018876094
197	0xbc784225	-0.015152489
198	0xb8bc9edb	-8.994128e-05
199	0xbd1bcf54	-0.03803952
200	0x3ce95b93	0.028486049
201	0x3cb5979d	0.022167021
202	0x3c5d466d	0.01350556
203	0x3cf8b768	0.030360892
204	0x3d1d9dfd	0.038480747
205	0x3b7c60c5	0.0038509828
206	0xbca623d5	-0.020280758
207	0x3c984dbd	0.018591756
208	0x3d06aa83	0.032877456
209	0xbc0f7fc5	-0.00875849
210	0xbb92b044	-0.004476579
211	0x3caf205a	0.021377731
212	0xbd43dc62	-0.047817595
213	0xbb9b9e21	-0.004749075
214	0xbd48ade6	-0.048993967
215	0xbc93f4f0	-0.018061131
216	0x3ba60e9c	0.0050676595
217	0x3c384d4b	0.011248897
218	0xbce90540	-0.028444886
219	0xbb11d8b1	-0.0022254402
220	0xbca76f25	-0.02043874
221	0xbc0a62dd	-0.008446422
222	0x3d275bd1	0.040859047
223	0x3c7f77a7	0.015592492
224	0xbc748919	-0.014925265
225	0xbc96a40c	-0.01838877
226	0x3cb348fb	0.021885386
227	0xbd263aa1	-0.040583257
228	0x3cb7dce0	0.022444189
229	0x3c252532	0.010079669
230	0x3ca67d24	0.020323344
231	0x3c1febc9	0.009760805
232	0x3c352bde	0.011057822
233	0xbb50a5d0	-0.0031837113
234	0xbcb777e1	-0.02239603
235	0x3cf33eab	0.029692968
236	0x3bb0838e	0.0053867763
237	0xbaf8389f	-0.0018937773
238	0xb9d290c0	-0.00040162168
239	0x3be92c30	0.0071158633
240	0x3ba29347	0.0049614045
241	0x3c6d1809	0.014471062
242	0x3c9d5613	0.019206082
243	0x3b7f9481	0.0038998427
244	0x3c7dd17a	0.015491838
245	0x3d072dfd	0.033002842
246	0xbc22ac56	-0.009928783
247	0x3b793ff2	0.00380325
248	0xbd29ed09	-0.04148582
249	0xbc7971b2	-0.015224861
250	0xbada1398	-0.001663792
251	0x3c36b9a2	0.011152657
252	0xbd36f873	-0.044670533
253	0xbc505ba7	-0.012717164
254	0xbab045e7	-0.0013448567
255	0xbb5fa537	-0.0034125575

bias f4 [64]
0	0xbd97cf95	-0.0741264
1	0x3d93bfb6	0.072143
2	0xbcf72110	-0.030167133
3	0x3da99bb1	0.08281649
4	0x3c2a10cb	0.01037998
5	0xbb3d6d08	-0.00289041
6	0x3a154321	0.0005693902
7	0xbc52640b	-0.012841235
8	0xbc39c10c	-0.01133753
9	0xbcec1cca	-0.028822321
10	0x3d83d546	0.06437163
11	0x3dacd5a7	0.084391885
12	0xbb837478	-0.004011687
13	0x3d4cef21	0.05003274
14	0x3ddfbc32	0.10924567
15	0xbd077555	-0.03307088
16	0x3ba03035	0.004888559
17	0x3dc003f1	0.09375752
18	0x3d23b8e3	0.039971244
19	0x3da2dc2f	0.07952153
20	0xbd6f3e73	-0.058409166
21	0xbd9239e6	-0.071399495
22	0x3cba1784	0.022716291
23	0x3e7e5436	0.24836811
24	0x3d08381d	0.03325664
25	0x3cbe77c5	0.02325047
26	0x3c7483f8	0.014924042
27	0xbd7a1f57	-0.061065044
28	0xbd407c00	-0.046993256
29	0x3cad5da7	0.021162821
30	0xbd3cb231	-0.046068374
31	0x3c8e32a2	0.017358128
32	0x3e25eaa4	0.1620279
33	0x3cdf0860	0.027225673
34	0x3be9313f	0.0071164663
35	0x3e5bd6bc	0.21468633
36	0x3bd8f72f	0.0066212635
37	0xbc28c885	-0.010301714
38	0x3d905be2	0.07048775
39	0x3dc282b4	0.09497586
40	0xbd8e97c4	-0.06962541
41	0x3cdbbb43	0.026822692
42	0x3dd395a6	0.103312775
43	0x3c921d99	0.017836379
44	0x3d80af8d	0.06283484
45	0x3c54c26f	0.01298581
46	0x3da7bd60	0.08190417
47	0x3cef3a5d	0.029202634
48	0x3bae96fe	0.0053280583
49	0x3c568b8d	0.013094795
50	0xbc52f577	-0.012875906
51	0x3cdd3fcb	0.027007958
52	0x3c989c58	0.018629238
53	0xbccad415	-0.024759332
54	0x3cc5702a	0.024101336
55	0x3d215be0	0.03939426
56	0xbce87185	-0.028374443
57	0x3da6c966	0.081438825
58	0xbcd801f5	-0.02636812
59	0x3d017a46	0.03161075
60	0x3d0651c1	0.03279281
61	0x3cb62be3	0.022237724
62	0x3ca41453	0.020029223
63	0x3cc3ff4b	0.023925444

weight f4 [64, 32, 3, 3]
0	0x3d6d0d8c	0.057874247
1	0x3c26dc7c	0.0101844035
2	0x3d1293c3	0.035785448
3	0xbc39d374	-0.011341918
4	0x3d8f6510	0.07001698
5	0x3c9c3f92	0.019073281
6	0x3d47933e	0.048724405
7	0x3cca3395	0.0246828
8	0x3d5378a2	0.051628716
9	0xbd3cb851	-0.046074215
10	0xbc40b7ba	-0.011762554
11	0x3c01fcd1	0.007933811
12	0x3c443081	0.011974455
13	0x3c634414	0.013871212
14	0xbd06d4c4	-0.032917753
15	0x3c871a89	0.016492145
16	0xbcf6cea6	-0.030127835
17	0xbace5488	-0.0015741745
18	0xbd7ca1b4	-0.06167765
19	0x3d49e827	0.049293663
20	0x3cb6bc28	0.022306517
21	0x3d3d4758	0.046210617
22	0xb9ec11cf	-0.00045026696
23	0xbd8b284a	-0.06794794
24	0xbd3a5122	-0.04548753
25	0xbc8ed37e	-0.017434832
26	0xbdeb8be5	-0.11501292
27	0x3d04ca48	0.032419473
28	0xbd7658eb	-0.060143393
29	0xbd1bff18	-0.038085073
30	0x3d4ead07	0.05045798
31	0x3c09c1e1	0.008408041
32	0xbcce1646	-0.025157105
33	0xbc690ea1	-0.014224679
34	0xbcfb8bfd	-0.0307064
35	0xbd216db9	-0.03941128
36	0xbd2cad88	-0.04215768
37	0xbd0ecf38	-0.034865588
38	0xbc1ee817	-0.009698889
39	0xbd877421	-0.06613947
40	0xbbcd8b9c	-0.0062727463
41	0xbc1e8db1	-0.009677337
42	0x3c97a8e8	0.018513158
43	0xbd303b88	-0.043025523
44	0x3d05e9cc	0.03269367
45	0x3c76492a	0.015032092
46	0x3c9b27c6	0.018939864
47	0x3d4c43ad	0.04986923
48	0x3d2cbf6d	0.042174745
49	0xbd735707	-0.059409168
50	0x3d259f5a	0.040435173
51	0x3d12b433	0.035816383
52	0x3d0537cd	0.03252392
53	0xbd115591	-0.035481993
54	0x3b6700ca	0.0035248273
55	0xbc0a14b1	-0.008427785
56	0x3d241a11	0.04006392
57	0x3c769144	0.015049282
58	0x3d3f6f31	0.0467369
59	0x3cd1c7bb	0.025607934
60	0x3c36be59	0.011153781
61	0x3cdb00f8	0.02673386
62	0x3d4cc099	0.049988363
63	0x3d685eae	0.05673092
64	0xba2825cd	-0.0006414324
65	0x3cd70425	0.026247093
66	0xbb5b1abb	-0.003343268
67	0xbc6d759d	-0.014493373
68	0xbcc35c6a	-0.023847777
69	0x3d354381	0.04425383
70	0x3d3d37a2	0.046195634
71	0x3b87bd90	0.0041424707
72	0xbc2706b3	-0.010194468
73	0x3d967b34	0.07347718
74	0xbd245294	-0.040117815
75	0x3cb53211	0.0221186
76	0x3d28cbc9	0.04120997
77	0xbc795d0e	-0.01521994
78	0xbd3f27b9	-0.04666874
79	0x3d958cb0	0.07302225
80	0x3adfa817	0.0017063644
81	0x3c6c6e95	0.014430662
82	0xbcfb1d34	-0.030653574
83	0x3d2f70b2	0.042832084
84	0xbd919650	-0.07108748
85	0xbd09d666	-0.033651732
86	0xbd089685	-0.03334667
87	0x3cd0b2ea	0.025475938
88	0xbc8402e4	-0.01611466
89	0xbd74f9a3	-0.059808385
90	0xbd596a17	-0.05307969
91	0x3c89016d	0.016724313
92	0xbca8a5c3	-0.020586854
93	0xbc78dab1	-0.015188859
94	0x3d160613	0.036626887
95	0xbc980cd5	-0.018560806
96	0x3c76d65e	0.015065758
97	0xbc9a04d1	-0.018801125
98	0x3d02bebc	0.03192018
99	0xbda7f067	-0.0820015
100	0xbe1c6360	-0.15272284
101	0xbd62c003	-0.055358898
102	0xbb2715af	-0.0025495102
103	0xbdf4242e	-0.11920963
104	0xbe0e07f0	-0.13870215
105	0xbbb1d79a	-0.005427313
106	0xbde99a9f	-0.11406445
107	0xbe61c21c	-0.22046703
108	0x3d5144e5	0.051091094
109	0xbd1f47c7	-0.03888681
110	0x3bea8aec	0.007157674
111	0xba77872e	-0.00094424456
112	0xbd1f71a1	-0.038926724
113	0xbd46b456	-0.048511826
114	0xbd31d9c6	-0.043420576
115	0x3ce417c2	0.02784336
116	0x3d4c3c88	0.049862415
117	0x3cfa312c	0.030541025
118	0xbd81f3c2	-0.06345321
119	0xbd2dede3	-0.042463195
120	0x3d9be838	0.076126516
121	0x3cd1d9f4	0.025616623
122	0x3c510a1d	0.012758759
123	0x3d2df5e4	0.042470828
124	0x3d75ada9	0.05998007
125	0xbd127a0d	-0.035760928
126	0xbcaaa33c	-0.02082979
127	0xbc4f9116	-0.0126688685
128	0xbd06e588	-0.03293374
129	0xbcb54988	-0.022129789
130	0xbd48c171	-0.049012605
131	0xbd1c0190	-0.038087428
132	0xbc9f17a1	-0.019420447
133	0xbca2099a	-0.019779969
134	0xbc296710	-0.010339513
135	0xbceadecc	-0.028670691
136	0xbce46a94	-0.027882852
137	0xbc5975ea	-0.013272742
138	0x3d0a4c35	0.033764083
139	0xbd6cad2d	-0.05778234
140	0xbd6ec8f0	-0.058297098
141	0xbb93082c	-0.004487058
142	0xbbe8b669	-0.007101823
143	0x3d2a3a0d	0.041559268
144	0xbcd2b06f	-0.025718896
145	0xbd009e3a	-0.031400897
146	0x3c4a4b0f	0.012346997
147	0xbbf77ffa	-0.007553098
148	0x3d15e904	0.036599174
149	0x3c9d287e	0.019184347
150	0x3d4d8504	0.05017568
151	0x3dbea677	0.093090944
152	0x3d9278ca	0.07151945
153	0xbc8b0e95	-0.016974727
154	0x3d16830f	0.03674608
155	0x3d1e5295	0.038652975
156	0xbd3f9ecc	-0.0467823
157	0x3d0cb339	0.034350608
158	0x3c701807	0.014654166
159	0xbd43f682	-0.04784251
160	0xbd38a217	-0.045076456
161	0x3d66f040	0.056381464
162	0xbb46c70f	-0.003033105
163	0x3d4861a4	0.048921242
164	0xbdb09ee7	-0.08624058
165	0x3ce151d8	0.027504846
166	0xbc9a6bb4	-0.018850185
167	0xbe04d69f	-0.12972496
168	0x3b7c6c5f	0.0038516743
169	0xbb3dfc85	-0.0028989625
170	0xbe1870b4	-0.14886743
171	0xbce4212b	-0.027847847
172	0x3cd379df	0.025814949
173	0xbcca6b16	-0.024709266
174	0x3d3a84ab	0.04553668
175	0xbd2846e7	-0.041083243
176	0x3d1fa59e	0.038976304
177	0x3c9fd055	0.01950852
178	0xbc3cfd95	-0.011535068
179	0xbd68c3b2	-0.056827255
180	0xbcbe697d	-0.02324366
181	0x3d067404	0.032825485
182	0x3d03e57e	0.032201283
183	0xbd90989c	-0.07060358
184	0xbaf199a6	-0.0018432632
185	0xbc92d3df	-0.017923294
186	0x3d38084e	0.044929795
187	0x3d650c91	0.055920187
188	0xbb71ab9f	-0.0036875976
189	0x3c882342	0.016618375
190	0x3d414974	0.04718919
191	0x3d26881a	0.04065714
192	0xbb319e90	-0.0027102567
193	0xbca0454a	-0.01956429
194	0xbd6c4aba	-0.057688452
195	0x3d3c02c8	0.04590109
196	0x3c00042c	0.007813495
197	0xbcece11c	-0.028915934
198	0x3d5b4667	0.053533938
199	0xbc41da56	-0.0118318405
200	0x3c865852	0.016399536
201	0xbc8640cc	-0.01638832
202	0x3d337f0a	0.043822326
203	0xbc64bc03	-0.013960841
204	0xbd658d0e	-0.056042723
205	0xbce59768	-0.028026298
206	0xbcc88273	-0.024476266
207	0x3c86d94b	0.016461035
208	0x3d528aaa	0.05140177
209	0xbd4c3be5	-0.049861807
210	0x3bc8ea51	0.0061314483
211	0x3d49d4e8	0.04927531
212	0x3d20ae05	0.039228458
213	0xbd0fcd66	-0.035107993
214	0x3b965b56	0.004588525
215	0xbb9fc9a5	-0.004876333
216	0x3d30920b	0.043108027
217	0xbc48d591	-0.012257949
218	0xbd5967ee	-0.05307763
219	0xbd6ae982	-0.057351597
220	0xbd6a3f92	-0.05718953
221	0x3d584f22	0.052809842
222	0x3d17fbbe	0.037105314
223	0x3d1edd4f	0.038785275
224	0x3b8299e8	0.003985632
225	0x3cb12e29	0.021628456
226	0x3c3c09aa	0.0114769135
227	0xbd22f46a	-0.039783873
228	0x3d103155	0.035203297
229	0xbc73c068	-0.014877416
230	0xbd2994c7	-0.04140165
231	0xba2ec8c3	-0.0006667489
232	0xbd015481	-0.03157473
233	0x3d24d3c8	0.040241033
234	0xbd265190	-0.040605128
235	0xbd1ae92a	-0.03782002
236	0x3d10fefd	0.035399426
237	0x3ca176cd	0.019709969
238	0xbc91227d	-0.01771664
239	0xbd9a0812	-0.075210705
240	0x3d5f8ac2	0.05457569
241	0x3d1f750b	0.03892998
242	0xbd95ac7e	-0.07308291
243	0x3c4c985b	0.012487496
244	0x3d3c003d	0.045898665
245	0x3b0502fd	0.002029597
246	0xbd390f0a	-0.045180358
247	0x3c465082	0.0121041555
248	0xbd781792	-0.060569353
249	0x3d46bc99	0.048519704
250	0x3cf02a63	0.029317087
251	0xbd3f157c	-0.04665135
252	0xba3e6747	-0.00072633143
253	0x3cf620ef	0.030045
254	0x3cb1799f	0.021664439
255	0x3d35a615	0.04434784

bias f4 [32]
0	0x3dbba9bc	0.09163234
1	0xbc1c0d77	-0.009524695
2	0xba70b9d9	-0.0009182967
3	0x3d3a2962	0.045449622
4	0xbc9805ef	-0.018557517
5	0xbd3cbf79	-0.04608104
6	0xbd3cc34d	-0.04608469
7	0x3d42dd43	0.047574293
8	0x3cf4b009	0.029869096
9	0x3ddf9d94	0.109187275
10	0x3d57a77f	0.05264997
11	0x3da7f092	0.08200182
12	0x3d9c08b4	0.076188475
13	0xbcd45dff	-0.025923727
14	0xbc1b1a72	-0.009466754
15	0xbd7aaf12	-0.061202116
16	0xbd69afc5	-0.057052393
17	0x3d37b41a	0.044849493
18	0x3dc24a0b	0.09486779
19	0xbcb7ac4f	-0.02242103
20	0xbc2ff77c	-0.010740157
21	0x3d119508	0.035542518
22	0xbd3db06c	-0.046310827
23	0x3c64f3cd	0.013974142
24	0xbd63183f	-0.055443045
25	0x3dad3bf1	0.084586985
26	0x3daff0d9	0.0859086
27	0xbd7fe1bb	-0.062471133
28	0x3bfc9d2d	0.0077091665
29	0xbcf5e8aa	-0.03001817
30	0x3ba1fe69	0.004943658
31	0x3d931062	0.07180859

weight f4 [32, 1, 3, 3]
0	0xbcc27d9f	-0.023741541
1	0xbe2a157a	-0.16609755
2	0xbe6e57da	-0.232757
3	0x3e9680b4	0.29395068
4	0x3cd0695a	0.02544086
5	0xbe6043f9	-0.2190093
6	0x3e0b53f7	0.13606249
7	0xbcbf17c4	-0.023326762
8	0x3e8e7a37	0.27827618
9	0x3e12ad17	0.14323841
10	0xbda51b4a	-0.080618456
11	0xbe024885	-0.12722977
12	0x3e8a9ef9	0.27074412
13	0x3dc94f4b	0.09829577
14	0x3ea9dbee	0.33175606
15	0x3e58b48e	0.21162626
16	0xbe4de972	-0.20108584
17	0x3e0c0d42	0.13676932
18	0xbe121796	-0.1426681
19	0x3e6035c2	0.21895507
20	0xbd0c2842	-0.03421808
21	0x3e852851	0.2600732
22	0x3da809e5	0.08205012
23	0x3dc43552	0.095804825
24	0xbe8b48d6	-0.27204007
25	0x3cad1282	0.02112699
26	0xbe5e65ff	-0.21718596
27	0xbea8ea6d	-0.32991353
28	0xbe3789a0	-0.17923594
29	0xbe8219dd	-0.25410357
30	0x3acf72ed	0.0015827097
31	0xbdd9e2c9	-0.10638959
32	0xbd0e4403	-0.03473283
33	0xbe778e1e	-0.24175307
34	0x3e6485a2	0.22316602
35	0xbe3ccfe7	-0.18438683
36	0xbe17abb1	-0.14811589
37	0xbe8fe74c	-0.28106153
38	0x3e48002b	0.19531314
39	0xbe99d58e	-0.30045742
40	0x3e2c000d	0.16796894
41	0x3e620e8b	0.2207586
42	0xbcb6c9b7	-0.022312982
43	0xbe8648a1	-0.26227286
44	0x3e8c75f5	0.27433744
45	0x3e6b9986	0.23007783
46	0x3d418df6	0.047254525
47	0x3b824572	0.0039755637
48	0xbe603167	-0.21893845
49	0xbe8df5de	-0.27726644
50	0xbe5e3dba	-0.21703234
51	0xbe87f2bd	-0.26552382
52	0x3ddf3cca	0.109002665
53	0x3e3f0950	0.18655896
54	0x3dbefbc5	0.09325365
55	0xbe8b3c2d	-0.27194348
56	0x3dbaf981	0.0912962
57	0xbdd8dbfe	-0.10588835
58	0xbdfbf2ce	-0.12302171
59	0x3dcff01a	0.101532176
60	0x3e0138b1	0.12619282
61	0x3dc090f8	0.094026506
62	0xbe8dd93a	-0.27704793
63	0xbdd42b24	-0.10359791
64	0xbd2b6eb7	-0.041853633
65	0xbe9b04b4	-0.30277026
66	0xbd1f8d52	-0.038953133
67	0xbe4c1b6d	-0.19932337
68	0x3da10618	0.078624904
69	0x3dd0a60c	0.10187921
70	0xbe8ca10b	-0.27466616
71	0x3d4a2a20	0.04935658
72	0x3d771b0a	0.06032852
73	0xbe2c68da	-0.16836873
74	0x3d72cb34	0.05927582
75	0xbe23f709	-0.16012205
76	0xbe05a0b4	-0.13049585
77	0x3ea566ed	0.3230509
78	0xbd86c258	-0.06580037
79	0x3ea41858	0.32049823
80	0x3d4f3cbc	0.05059503
81	0x3d43bef8	0.047789544
82	0x3e97bec5	0.29637733
83	0xbe246d4e	-0.16057321
84	0x3da3a4ef	0.07990443
85	0x3c9cfe1c	0.019164138
86	0x3d9f6330	0.077825904
87	0xbe455df8	-0.19274127
88	0xbe835ad4	-0.25655234
89	0x3db104c0	0.08643484
90	0x3d4d30be	0.050095312
91	0x3db34fb9	0.0875544
92	0x3e3ecd4e	0.18633005
93	0xbe80e056	-0.25171155
94	0x3d5d9d6a	0.0541052
95	0xbdc892ac	-0.097936004
96	0xbdd17d26	-0.10228948
97	0x3de9037f	0.1137762
98	0x3e1ba658	0.15200174
99	0xbe6c8b06	-0.23099908
100	0xbcabc3b1	-0.020967336
101	0x3ea85ae2	0.32881838
102	0xbdfb86c8	-0.12281567
103	0x3eb458e3	0.35224065
104	0xbe81cd4e	-0.25351948
105	0x3d120868	0.035652548
106	0xbe5fccd3	-0.21855478
107	0xbc78386d	-0.015150172
108	0x3e932bfa	0.2874449
109	0x3d2db339	0.04240725
110	0x3db15082	0.08657934
111	0x3e02291c	0.12710994
112	0x3df32d34	0.11873856
113	0x3d51baf2	0.051203676
114	0xbdc1b989	-0.09459216
115	0x3e6db308	0.23212826
116	0x3d09db83	0.03365661
117	0x3d85b3b5	0.06528417
118	0x3e346740	0.17617512
119	0xbe24e010	-0.16101098
120	0xbe34acf8	-0.17644107
121	0xbce03b1f	-0.027371941
122	0xbe033303	-0.12812428
123	0x3e922978	0.28547263
124	0x3e711f86	0.23547181
125	0xbd7f0234	-0.06225796
126	0xbe868b4a	-0.26278144
127	0xbe626dcd	-0.22112198
128	0x3e193d09	0.1496469
129	0x3e966bc6	0.293791
130	0xbd653249	-0.05595616
131	0x3a5e05bc	0.00084694824
132	0xbe809454	-0.25113165
133	0x3eafab4a	0.3431037
134	0xbdbad644	-0.09122899
135	0xbe81451b	-0.25248036
136	0xbde71d8a	-0.11284931
137	0x3db69455	0.08915011
138	0x3d216ff4	0.039413407
139	0xbd6a2d29	-0.057171974
140	0x3e6e8fd5	0.23297055
141	0x3e8ef800	0.27923584
142	0xbe807b95	-0.25094286
143	0xbe978dca	-0.29600364
144	0xbea2bd51	-0.31785062
145	0xbd4aad8b	-0.04948191
146	0xbe228fec	-0.15875214
147	0x3c3e879c	0.0116290115
148	0x3d54f245	0.05198886
149	0x3e161884	0.1465779
150	0x3e818e26	0.25303763
151	0xbdb5f5b1	-0.088847525
152	0x3e816b6f	0.25277278
153	0xbe3bc3a2	-0.18336347
154	0x3e833c18	0.25631785
155	0xbba27cfc	-0.004958747
156	0xbe4c0037	-0.19921957
157	0xbd65f083	-0.056137573
158	0x3e80dfea	0.25170833
159	0x3dd1153a	0.10209127
160	0xbca9defc	-0.02073621
161	0x3c699bd5	0.014258345
162	0x3ea32895	0.318669
163	0xbe4ace8f	-0.19805358
164	0xbe3e590b	-0.18588655
165	0xbd77a6ed	-0.060461927
166	0x3e5fc057	0.21850716
167	0x3e632d84	0.22185332
168	0x3e6d8f5f	0.23199223
169	0xbe89444a	-0.26809913
170	0xbe94d173	-0.29066047
171	0x3d98f529	0.074686356
172	0xbdb2f7d0	-0.08738673
173	0x3ca2a48c	0.019853853
174	0xbe39b20a	-0.18134323
175	0x3b143a30	0.002261769
176	0x3df184b6	0.11792891
177	0x3d40d54b	0.047078412
178	0xbe58e8f3	-0.21182613
179	0x3da67faa	0.08129819
180	0xbdfab29b	-0.122410975
181	0x3d5d02df	0.053957816
182	0x3d2701eb	0.040773313
183	0xbe288b70	-0.16459441
184	0xbe18e8da	-0.14932576
185	0x3e23789f	0.15963982
186	0xbe392e6e	-0.18084118
187	0x3e5f458a	0.21803871
188	0xbd17da89	-0.037073646
189	0xbd4b6428	-0.049656063
190	0xbe4adbb0	-0.19810367
191	0xbea45baf	-0.321012
192	0x3bb46afe	0.0055059185
193	0x3dd218a1	0.10258604
194	0xbd9cf16a	-0.076632336
195	0x3e3f4b63	0.18681102
196	0x3e87c1da	0.26515085
197	0xbea28e44	-0.31749165
198	0x3e140390	0.14454484
199	0xbe0fc16c	-0.14038628
200	0x3e8e0292	0.27736336
201	0x3e1424d4	0.14467174
202	0xbe9f75cc	-0.3114456
203	0x3ae863b5	0.001772991
204	0xbe85d51b	-0.2613915
205	0xbd5304a4	-0.051518098
206	0xbe6bff06	-0.23046502
207	0xbe0a217d	-0.13489337
208	0x3e32433f	0.17408465
209	0x3e93b7bf	0.28851125
210	0x3e247ff6	0.16064438
211	0x3e30d5fd	0.1726913
212	0xbe36c33f	-0.17847918
213	0xbb8f39e8	-0.0043709166
214	0xbce79a54	-0.028271832
215	0x3d8e0ae4	0.06935671
216	0x3ea6e58d	0.32597008
217	0xbddb91ef	-0.10721194
218	0x3cd617f8	0.026134476
219	0xbda345d2	-0.079723015
220	0xbe81e461	-0.25369552
221	0xbea43b9f	-0.32076737
222	0xbd92aa85	-0.0716143
223	0x3e6382d9	0.22217883
224	0xbddd2d58	-0.10799664
225	0x3e89c586	0.2690851
226	0xbe6557e3	-0.22396807
227	0x3e882b2b	0.26595435
228	0x3d672bba	0.056438185
229	0xbbcd9d97	-0.0062748897
230	0xbe8de95c	-0.27717102
231	0x3c84205b	0.01612871
232	0x3dfbc8f4	0.12294188
233	0x3e143437	0.14473043
234	0x3e6da204	0.23206335
235	0x3e5af686	0.21383104
236	0x3e0c1588	0.13680089
237	0xbd9b4a11	-0.075824864
238	0xbe2e2fdc	-0.17010444
239	0xbe8138cf	-0.25238654
240	0x3d02d877	0.03194472
241	0x3e8f05ea	0.279342
242	0xbe89f910	-0.26947832
243	0x3d683310	0.056689322
244	0xbe7ee22d	-0.24890967
245	0xbdeca647	-0.115551524
246	0xbe953e08	-0.2914889
247	0xbe4d3dc2	-0.2004309
248	0x3d882a28	0.06648666
249	0x3e498567	0.19679795
250	0xbe650d80	-0.22368431
251	0x3ea5ac06	0.32357806
252	0x3e2d4aee	0.16923115
253	0x3e45536f	0.19270109
254	0x3e0b0613	0.13576536
255	0xbe97e7f3	-0.2966915
