old:unneeded/models_old/torch_model_60.pt (torch, 749410 bytes, 11 tensors)

weight f4 [32, 1, 3, 3]
-0.096876726 -0.3066316 -0.113437235 0.044569276 -0.13029034 -0.21359223 -0.07569821 0.32914197
0.020068808 0.04318115 -0.26039636 -0.2526371 0.22723714 -0.2292599 0.18291917 -0.16589758
-0.10327533 0.22233021 0.25258696 0.13028774 0.3181647 -0.27724302 -0.045157325 -0.01424791
0.25909615 0.019522704 0.033371046 -0.077013746 0.2786682 0.12014256 -0.32725787 -0.19188958
-0.33407298 0.13295822 -0.14687361 0.17275989 0.10261514 -0.07685154 0.037090477 -0.22883222
-0.12374389 -0.19733973 -0.1281788 0.15590835 0.11121455 -0.16762272 -0.06740647 -0.06717346
-0.31971845 0.038619697 0.08040442 0.08772494 -0.10898262 0.18630889 -0.24640469 0.108336926
0.09636327 -0.07556131 -0.045454796 0.09846568 0.22676964 -0.29051173 0.30515674 0.23268196
-0.1479388 -0.2387102 -0.11807957 0.25433522 -0.08875529 -0.096198246 -0.04400056 0.14949377
0.23074847 -0.1254844 0.26779163 -0.06476737 0.14698966 -0.030629046 0.27817136 -0.040366773
-0.24001618 0.23617643 0.10588935 -0.27402744 0.15656848 0.04222457 0.22544473 -0.26051414
-0.19373327 -0.30477703 -0.0956968 -0.06612331 0.12515847 -0.012271825 -0.14436157 -0.084449396
0.030547231 -0.18609233 0.10801334 -0.01884093 -0.045349013 -0.31649065 -0.038528293 -0.025309218
0.14394659 0.15306796 0.25563705 -0.18715358 -0.24747543 0.28301516 0.11790768 0.24739209
0.28441226 -0.22600445 0.25520048 0.106936984 0.078314714 -0.043619964 0.091957286 -0.32104614
0.24075079 0.18715008 -0.06100744 -0.315495 -0.06443276 0.06733132 -0.37462562 0.01960562
0.17882936 -0.22575623 0.26133212 0.10354589 0.095306225 -0.14475255 0.2171558 -0.09734727
-0.21806815 -0.023996923 -0.19197753 0.27540174 -0.0017047796 -0.26626512 -0.12486145 -0.262902
0.0027510778 -0.06329856 0.32982218 0.09627091 0.26862755 -0.12771414 -0.2769411 -0.2806778
0.03331636 -0.20721403 -0.023942491 -0.067665815 0.2600004 -0.2986561 0.08188184 0.0722513
-0.11061869 -0.2660647 -0.24014574 0.05700603 0.1056383 0.28883645 -0.0044369427 -0.2955906
-0.28001022 0.038623337 -0.0128277335 0.057782207 0.21819012 -0.23947465 0.22673477 0.00016081585
-0.28815767 0.18849163 0.127463 -0.3226032 0.33193177 -0.1578014 0.14267708 -0.18072852
0.044470098 -0.15285283 -0.29931352 -0.18358354 -0.14827241 0.22534035 -0.33574498 0.15046307
-0.15525754 -0.073821336 0.20535026 0.23597305 0.19776455 -0.014170089 0.030088859 -0.22010711
0.056900732 0.08277111 -0.373529 0.14172062 0.02240337 0.19937319 -0.09502293 -0.12496713
0.14140534 -0.09673756 0.27418303 -0.11493025 0.29737023 0.0006274484 -0.32827133 0.00027097028
0.22207245 0.28753284 0.1588501 0.123013586 -0.03013668 0.17759988 0.22197635 -0.039225608
-0.038494892 -0.13207619 -0.24633715 0.05479456 0.073523656 0.14600198 -0.22501682 0.21687812
-0.12800407 0.06066984 0.031353638 0.23029731 0.034971848 -0.10735484 -0.1506782 0.24497844
0.30755758 0.15150127 0.26983884 -0.20498393 0.20384535 -0.3008618 -0.2645259 -0.2881428
0.24801598 0.15694937 -0.27498412 0.22097382 0.30388713 -0.21300709 -0.07433266 0.111927986
00000000: 4e67 c6bd d1fe 9cbe c851 e8bd 468e 363d
00000010: d56a 05be ecb7 5abe aa07 9bbd 4c85 a83e
00000020: 5767 a43c b8de 303d ac52 85be a659 81be
00000030: dab0 683e 1bc3 6abe 2a4f 3b3e 0ee1 29be
00000040: 0482 d3bd 88aa 633e 1453 813e 266a 053e
00000050: 7ce6 a23e ccf2 8dbe e3f6 38bd 1170 69bc
00000060: 40a8 843e 14ee 9f3c 14b0 083d 62b9 9dbd
00000070: 99ad 8e3e 4d0d f63d 588e a7be b47e 44be
00000080: 9d0b abbe 3326 083e 0966 16be f8e7 303e
00000090: e327 d23d 5764 9dbd 2fec 173d fe52 6abe
000000a0: 706d fdbd 6d13 4abe 4e41 03be 70a6 1f3e
000000b0: 74c4 e33d 4aa5 2bbe 670c 8abd 3d92 89bd
000000c0: 23b2 a3be b02f 1e3d 13ab a43d 22a9 b33d
000000d0: 4832 dfbd c2c7 3e3e 8351 7cbe c0df dd3d
000000e0: 1b5a c53d e3bf 9abd cf2e 3abd 60a8 c93d
000000f0: 4d36 683e f4bd 94be 813d 9c3e 2e44 6e3e
00000100: 457d 17be 7270 74be b4d3 f1bd 3a38 823e
00000110: 55c5 b5bd 9603 c5bd ee39 34bd e514 193e
00000120: 5449 6c3e fc7e 00be fc1b 893e c1a4 84bd
00000130: 7584 163e c4e9 fabc 7a6c 8e3e a157 25bd
00000140: cdc6 75be 3cd8 713e 84dc d83d 534d 8cbe
00000150: 7d53 203e acf3 2c3d fcda 663e 1c62 85be
00000160: 0462 46be bc0b 9cbe affc c3bd a86b 87bd
00000170: 8b29 003e c40f 49bc 85d3 13be cef3 acbd
00000180: 303e fa3c fd8e 3ebe 1936 dd3d 4b58 9abc
00000190: e3bf 39bd 100b a2be d8cf 1dbd 4755 cfbc
000001a0: bc66 133e d9bd 1c3e dce2 823e 30a5 3fbe
000001b0: 336a 7dbe 5de7 903e 9579 f13d 5a54 7d3e
000001c0: 7c9e 913e b66d 67be a3a9 823e c701 db3d
000001d0: 7763 a03d d9aa 32bd 1a54 bc3d 2960 a4be
000001e0: 6087 763e 45a4 3f3e f0e2 79bd 9088 a1be
000001f0: 53f5 83bd 01e5 893d eece bfbe f79b a03c
00000200: 0b1f 373e a42c 67be 53cd 853e de0f d43d
00000210: e92f c33d 033a 14be 175e 5e3e 015e c7bd
00000220: 424d 5fbe 3295 c4bc c295 44be 7501 8d3e
00000230: e972 dfba e753 88be 5cb7 ffbd 179b 86be
00000240: 6d4b 343b ada2 81bd 74de a83e af29 c53d
00000250: 8d89 893e 7fc7 02be 39cb 8dbe 00b5 8fbe
00000260: bc76 083d ea2f 54be 0b23 c4bc 6094 8abd
00000270: c61e 853e 74e9 98be abb1 a73d 7df8 933d
00000280: 0d8c e2bd a239 88be c4e8 75be 287f 693d
00000290: e558 d83d 5fe2 933e c663 91bb a757 97be
000002a0: 805d 8fbe 8133 1e3d 6a2b 52bc 09ad 6c3d
000002b0: 3b6d 5f3e d838 75be 292d 683e ada0 2839
000002c0: 6789 93be f303 413e a985 023e 3f2c a5be
000002d0: f6f2 a93e b196 21be f119 123e e610 39be
000002e0: 4726 363d 7485 1cbe 9f3f 99be 53fd 3bbe
000002f0: b9d4 17be 9fbf 663e c4e6 abbe fe12 1a3e
00000300: d5fb 1ebe a42f 97bd 5747 523e eba2 713e
00000310: ca82 4a3e a929 68bc e97c f63c c263 61be
00000320: be10 693d e683 a93d 313f bfbe 361f 113e
00000330: 4687 b73c 7c28 4c3e 629b c2bd c4ee ffbd
00000340: 90cc 103e 581e c6bd b861 8c3e 8d60 ebbd
00000350: e940 983e 597b 243a 2e13 a8be 0411 8e39
00000360: f666 633e 8137 933e 9aa9 223e 8cee fb3d
00000370: 33e1 f6bc bedc 353e c54d 633e 08ab 20bd
00000380: d2ac 1dbd fb3e 07be ce3f 7cbe 4370 603d
00000390: 9293 963d 8b81 153e cf6a 66be 4c15 5e3e
000003a0: 8013 03be f080 783d ac6c 003d 0fd3 6b3e
000003b0: a43e 0f3d dbdc dbbd 634b 1abe a1db 7a3e
000003c0: 3078 9d3e 2623 1b3e 5128 8a3e 4fe7 51be
000003d0: d6bc 503e 8f0a 9abe f06f 87be 7487 93be
000003e0: e7f7 7d3e 56b7 203e b8ca 8cbe f646 623e
000003f0: 1897 9b3e 881e 5abe b93b 98bd 803a e53d

bias f4 [32]
0.307222 -0.20865825 -0.04730782 -0.33885136 -0.12852632 -0.23274662 0.24538691 -0.28684303
-0.036376797 0.20117824 0.16805936 0.07311179 -0.14459817 -0.29442084 -0.08425353 0.24674676
0.31162992 -0.2893627 0.10656208 0.35992655 0.04706671 -0.19822358 -0.17480293 0.15447465
0.1584826 -0.16906646 -0.29987442 -0.083759755 -0.07309588 0.06694915 0.04009013 0.24805436
00000000: 344c 9d3e 82aa 55be d8c5 41bd ed7d adbe
00000010: 679c 03be 2155 6ebe b546 7b3e 17dd 92be
00000020: d6ff 14bd ab01 4e3e c117 2c3e a2bb 953d
00000030: 8b11 14be 54be 96be 1d8d acbd 2fab 7c3e
00000040: f58d 9f3e 5927 94be 383d da3d 4b48 b83e
00000050: 06c9 403d 1ffb 4abe 8aff 32be 9a2e 1e3e
00000060: 4349 223e c21f 2dbe 2489 99be 3c8a abbd
00000070: 4bb3 95bd a31c 893d 8c35 243d f601 7e3e

weight f4 [64, 32, 3, 3]
-0.0026844672 0.087343924 0.085634924 0.014976373 0.006647154 -0.057660457 -0.04783889 -0.002596877
-0.071075365 -0.08254169 -0.031236256 -0.02216474 -0.0012847699 0.022112872 0.020938924 -0.054878898
-0.027416155 -0.027574291 0.041792378 -0.014619543 -0.00080481044 0.04882473 -0.026494574 0.054687917
0.0061501246 -0.040145442 -0.04300782 0.002149852 -0.042755567 -0.06466255 0.050296806 0.015759649
0.021080649 -0.05787525 0.017572707 -0.0040441444 -0.085636 0.03027673 -0.005541256 0.017018218
-0.019408802 0.004946845 -0.11152043 -0.12396224 -0.1477806 -0.06243265 -0.0018964844 -0.018447945
-0.10289344 -0.01312876 0.094714545 0.01746293 -0.012981675 0.003981515 0.009002243 -0.008037614
-0.0144694075 -0.04942177 -0.060859293 0.021608986 -0.084717646 -0.079277754 -0.014260798 -0.041116923
-0.046068385 -0.010400659 0.03539201 -0.07157755 -0.029149875 -0.0023847877 0.021556268 -0.06787642
-0.017655365 0.012265168 0.050494578 0.012982606 0.02231008 0.031546727 -0.06803211 -0.04043392
0.011926396 0.08373603 -0.0010794039 -0.04022057 0.08782023 0.060959194 0.10437338 0.045078434
-0.042964067 0.04248252 -0.06169003 0.09071984 -0.06590118 0.015983367 -0.056331582 -0.021186084
-0.21242118 -0.11961314 -0.09939108 -0.04187142 -0.04350027 -0.0269224 -0.088634536 -0.059526432
-0.085356124 -0.05081182 -0.010386424 -0.06425052 0.026122037 -0.0050037564 0.011266795 -0.0033358396
-0.03142978 0.059927247 0.00047740905 -0.052310687 0.013499418 -0.05720055 -0.0721566 -0.058330324
0.02759001 -0.000754435 0.017876407 -0.10880905 -0.094111934 -0.12260175 0.018500924 0.009757244
0.031433944 -0.0043964107 -0.040528573 -0.025311928 0.01043435 0.03920998 0.008804463 0.03077417
-0.005760697 -0.09478835 0.025085531 0.1007585 0.11092141 -0.08411099 -0.08512608 -0.033063814
0.070395276 -0.016286014 -0.000988651 0.08584945 0.10198591 0.0849379 -0.05940504 -0.023616042
0.008293148 0.026750034 -0.088336915 -0.13622221 0.03356035 0.052776948 0.036686484 -0.13397172
-0.19066659 -0.115349405 -0.06432091 -0.066415034 -0.0060321935 -0.06271069 0.02124638 0.06606676
-0.0683304 -0.053781595 0.019636866 -0.062408116 0.019640205 -0.02637432 0.009185346 0.030992221
-0.0036163696 -0.107833825 -0.072445676 -0.08147431 -0.02518926 -0.0039182752 -0.104328685 -0.01012335
-0.014866502 0.022268485 -0.05303846 -0.06506514 -0.049510315 0.050525226 0.06365549 0.032382168
-0.057296135 0.030836895 -0.063204356 -0.027995462 -0.009165864 0.015900865 0.040656887 -0.05533457
-0.023456352 -0.020352226 0.019925976 -0.038680054 -0.028554853 -0.04774913 -0.07362062 0.031208714
-0.010743165 0.061355792 -0.004826503 0.0064126793 0.041414827 -0.032052852 0.010820266 -0.056004744
0.048519578 -0.0061405743 0.037761822 -0.004745856 0.009145244 -0.0028796159 -0.0012662143 -0.055588514
-0.058432832 -0.052993514 0.003511737 0.019232579 0.003505395 -0.06652671 -0.06847539 -0.037501
-0.017862935 -0.057193093 -0.015518774 -0.02821068 0.053445265 -0.010459758 0.012960304 -0.03618662
-0.01000751 -0.06608886 0.011159879 -0.065749034 0.0040737 0.00046482254 -0.06549191 0.031019768
0.025692996 -0.105651736 -0.090309806 -0.101158716 0.018786984 0.0037791305 -0.0724713 -0.03318657
00000000: e3ed 2fbb 5fe1 b23d 5d61 af3d 765f 753c
00000010: 5fd0 d93b 5f2d 6cbd b6f2 43bd 5e30 2abb
00000020: f68f 91bd 9e0b a9bd 2de3 ffbc d492 b5bc
00000030: b965 a8ba 0e26 b53c 1b88 ab3c b2c8 60bd
00000040: d897 e0bc 7be3 e1bc 7c2e 2b3d cf86 6fbc
00000050: eaf9 52ba 71fc 473d 260b d9bc 7000 603d
00000060: fc86 c93b 8c6f 24bd f828 30bd 88e4 0c3b
00000070: 7620 2fbd cd6d 84bd 0604 4e3d 611a 813c
00000080: 53b1 ac3c 990e 6dbd a3f4 8f3c be84 84bb
00000090: ed61 afbd e806 f83c 6d93 b5bb ca69 8b3c
000000a0: 35ff 9ebc 2519 a23b d364 e4bd eadf fdbd
000000b0: cc53 17be 61b9 7fbd 7593 f8ba 2520 97bc
000000c0: ccb9 d2bd 031a 57bc b3f9 c13d 6b0e 8f3c
000000d0: 17b1 54bc 5e77 823b 257e 133c 32b0 03bc
000000e0: 1811 6dbc 7b6e 4abd 9847 79bd 5405 b13c
000000f0: 7280 adbd 605c a2bd 1fa6 69bc 386a 28bd
00000100: 34b2 3cbd 8767 2abc 36f7 103d 4097 92bd
00000110: b8cb eebc 194a 1cbb c596 b03c cb02 8bbd
00000120: fca1 90bc d8f3 483c 67d3 4e3d ffb4 543c
00000130: a1c3 b63c 2437 013d 6b54 8bbd 0a9e 25bd
00000140: ee66 433c cc7d ab3d c97a 8dba 53be 24bd
00000150: 18db b33d 59b0 793d b6c1 d53d 2aa4 383d
00000160: 17fb 2fbd 2702 2e3d afae 7cbd 53cb b93d
00000170: 33f7 86bd 8def 823c f2bb 66bd 708e adbc
00000180: f084 59be bcf7 f4bd 8d8d cbbd 5e81 2bbd
00000190: 572d 32bd 5d8c dcbc 0686 b5bd fdd1 73bd
000001a0: 31cf aebd 0e20 50bd d22b 2abc c795 83bd
000001b0: e2fd d53c 8df6 a3bb 5d98 383c 1a9e 5abb
000001c0: 83bc 00bd 4676 753d c24c fa39 bb43 56bd
000001d0: aa2c 5d3c 204b 6abd d7c6 93bd c7eb 6ebd
000001e0: 7204 e23c 47c5 45ba 8b71 923c 47d7 debd
000001f0: c2bd c0bd a016 fbbd 408f 973c d9dc 1f3c
00000200: e1c0 003d c40f 90bb 4a01 26bd f65a cfbc
00000210: d6f4 2a3c a59a 203d 9840 103c 1d1a fc3c
00000220: 3bc4 bcbb 6520 c2bd 2c80 cd3c 795a ce3d
00000230: c42a e33d 6242 acbd 9556 aebd ec6d 07bd
00000240: 662b 903d 3f6a 85bc 9f95 81ba d6d1 af3d
00000250: fddd d03d ecf3 ad3d b352 73bd 6e76 c1bc
00000260: fcdf 073c e322 db3c fce9 b4bd d67d 0bbe
00000270: 9476 093d a42c 583d 9144 163d e22f 09be
00000280: 1a3e 43be 4f3c ecbd aeba 83bd 9b04 88bd
00000290: b5a9 c5bb 766e 80bd e30c ae3c 024e 873d
000002a0: cff0 8bbd 174a 5cbd 7edd a03c a79f 7fbd
000002b0: 7fe4 a03c f50e d8bc 227e 163c 66e3 fd3c
000002c0: 9d00 6dbb fbd7 dcbd 665e 94bd 01dc a6bd
000002d0: b559 cebc e064 80bb 47aa d5bd 68dc 25bc
000002e0: a192 73bc 666c b63c db3e 59bd df40 85bd
000002f0: 54cb 4abd 8af3 4e3d cf5d 823d 2aa3 043d
00000300: 5aaf 6abd a89d fc3c 4971 81bd bd56 e5bc
00000310: 6c2c 16bc 8842 823c d687 263d 81a6 62bd
00000320: 8927 c0bc b6b9 a6bc cd3b a33c fa6e 1ebd
00000330: deeb e9bc 9794 43bd 68c6 96bd 6ba9 ff3c
00000340: 1a04 30bc 3650 7b3d a427 9ebb 7421 d23b
00000350: 98a2 293d da49 03bd 7c47 313c 3b65 65bd
00000360: 77bc 463d df36 c9bb 24ac 1a3d 2083 9bbb
00000370: efd5 153c f0b7 3cbb 1af7 a5ba c8b0 63bd
00000380: 4457 6fbd ba0f 59bd 2c25 663b a48d 9d3c
00000390: c5ba 653b 283f 88bd d33c 8cbd a69a 19bd
000003a0: 4a55 92bc 4e43 6abd 7542 7ebc 151a e7bc
000003b0: 6ce9 5a3d 685f 2bbc 7457 543c 6c38 14bd
000003c0: 8af6 23bc 9959 87bd edd7 363c 6ea7 86bd
000003d0: ac7c 853b 6db3 f339 9f20 86bd 2b1d fe3c
000003e0: 1e7a d23c f05f d8bd 59f4 b8bd 4d2c cfbd
000003f0: 29e7 993c 4aab 773b d56b 94bd a4ee 07bd

bias f4 [64]
-0.07189598 0.029520197 0.10497545 -0.25643203 -0.07297433 0.047614843 0.0842045 -0.07809072
-0.12487393 0.16602276 0.11513094 0.032366775 -0.02946991 0.10534654 -0.01541851 0.10783878
-0.25228468 -0.13337305 0.04072432 -0.04177348 0.06281963 -0.07665034 0.07826009 -0.031655576
-0.13936815 -0.07051698 0.30154186 0.0017143467 0.10366631 0.15134953 0.009526071 0.04845916
0.072681054 0.058085125 0.06666837 0.16688214 0.09424202 -0.055377863 0.23122066 0.0837977
0.012448304 -0.05036768 -0.09757318 -0.056484193 0.080760844 0.05783564 -0.0021310402 0.052831933
0.020198546 0.27835053 0.12512544 -0.017170176 0.08757306 0.025831088 -0.09163768 0.05328699
-0.0124985855 0.07075848 0.017060284 -0.15698169 -0.10572459 -0.16682702 -0.038385745 -0.0026799738
00000000: 333e 93bd 57d4 f13c 5efd d63d 0f4b 83be
00000010: 9173 95bd c807 433d 6973 ac3d 07ee 9fbd
00000020: e7bd ffbd df01 2a3e c5c9 eb3d 0693 043d
00000030: e16a f1bc edbf d73d eb9d 7cbc 94da dc3d
00000040: 752b 81be f292 08be 8bce 263d ab1a 2bbd
00000050: 94a7 803d dafa 9cbd d346 a03d 47a9 01bd
00000060: 86b6 0ebe 356b 90bd b263 9a3e eeb3 e03a
00000070: 014f d43d 5ffb 1a3e 3d13 1c3c 1d7d 463d
00000080: ced9 943d abea 6d3d 6d89 883d 27e3 2a3e
00000090: f601 c13d e6d3 62bd 1cc5 6c3e 219e ab3d
000000a0: f9f3 4b3c 574e 4ebd 73d4 c7bd f85b 67bd
000000b0: f165 a53d 10e5 6c3d eca8 0bbb 4c66 583d
000000c0: 6c77 a53c f683 8e3e e220 003e 78a8 8cbc
000000d0: 8159 b33d b89b d33c 89ac bbbd 7543 5a3d
000000e0: dec6 4cbc d2e9 903d 02c2 8b3c cfbf 20be
000000f0: 2286 d8bd b4d4 2abe 5f3a 1dbd 80a2 2fbb

weight f4 [128, 64, 3, 3]
0.028669875 0.02172006 -0.04791205 -0.05285952 -0.04778642 -0.030433245 -0.08022482 -0.039911047
-0.029955763 0.020299308 0.020939369 0.014731502 0.020520821 -0.021827223 0.00943436 -0.004539287
0.016016468 -0.006136596 0.0039059913 0.02363603 -0.01866935 0.006960528 -0.017154181 -0.033722688
0.031026639 -0.0013267997 -0.0037133954 -0.029113734 0.0442891 0.008820784 0.022678286 0.02525074
0.018872954 -0.017971383 0.009459062 0.041537605 -0.021167664 0.04576768 0.017194252 0.035887644
-0.035511747 -0.045784622 0.017877545 -0.010603945 0.010413176 -0.030395348 -0.009830161 0.022776037
-0.00047237685 -0.026381513 0.013317798 -0.03323303 0.022230804 -0.02465548 0.0047444333 0.014567128
-0.009982317 -0.009821684 -0.012061919 -0.035367183 0.015521946 -0.06301359 -0.04508851 -0.0006928769
0.024390098 0.02727436 0.027174773 -0.0007193177 -0.033062734 0.011823554 -0.029920883 0.01996143
-0.04025771 0.017266585 0.03050812 0.014253065 0.035554096 0.030891089 -0.004937632 -0.04228228
-0.023273516 -0.035046708 -0.013569884 -0.011349992 -0.03284717 -0.014450658 0.003774961 0.020186521
0.024804655 -0.022097157 -0.026644722 -0.0039130766 0.04224998 0.02903343 0.024289655 -0.015458189
0.03345033 0.012233436 0.054794062 -0.022677967 0.03400678 0.017026965 0.023929939 0.01641085
0.027275905 0.036806576 -0.028383538 0.004350037 0.0070877178 0.032130644 -0.022947874 -0.033100735
-0.02816407 0.029717268 -0.0317925 0.024032641 -0.030725494 0.023239804 0.0013147428 -0.03693199
0.018460287 -0.02427509 0.010564315 -0.015235148 -0.025503486 -0.015413706 -0.028925106 -0.013452579
0.016090557 0.012109728 -0.03601677 0.023143506 0.008713074 -0.00043394926 -0.0035587607 0.024568534
0.023501279 -0.035608288 0.0039576422 -0.02919684 -0.022100786 -0.0026205606 0.017861322 -0.018390534
-0.01411609 -0.021352088 -0.0013268066 -0.0020429161 -0.034257967 0.014420994 -0.04914218 -0.011607601
0.046889447 -0.023673857 0.022497201 -0.019545622 -0.015508927 -0.008750791 0.017321581 0.0020756528
0.016210562 -0.027919812 -0.030503877 -0.023642158 -0.040499955 -0.005810776 0.04688834 0.0059981076
0.0067978865 -0.034995157 0.005405218 -0.0031079934 0.013011758 0.02773745 0.0005439367 0.052442808
0.04538427 -0.060989268 0.023877304 -0.018601982 -0.013075369 -0.021297703 0.011836637 -0.00020979975
-0.018547699 0.009347857 -0.039752323 -0.040967487 -0.04424022 -0.019333594 -0.0023219732 0.027081951
-0.025911354 0.0018715404 -0.027082896 0.025654705 0.030116279 -0.038046394 -0.0393439 0.006677444
-0.006112752 -0.035521396 -0.008879501 -0.015182472 -0.006280676 0.035363983 -0.0033637425 0.019250583
-0.03134485 -0.008419802 0.0075230757 -0.029280005 0.027660986 -0.014757386 -0.03184924 -0.02776242
-0.043489106 0.018617367 -0.019866943 -0.04973675 0.0013301196 -0.040415365 0.008520036 -0.055050436
0.0006466411 -0.0014408566 0.01730426 -0.008911297 0.0014722217 -0.02822747 -0.025556764 0.0015216066
0.039188076 -0.006010658 -0.023597077 -0.03957307 -0.039303385 0.0124553945 -0.022614084 -0.023416424
0.0002127962 0.021618174 0.023777952 0.029655214 -0.0070403367 -0.03838523 -0.04333769 0.010392302
-0.013580945 -0.016052702 -0.044697862 -0.021305824 0.02070712 0.022134017 0.00036390533 0.02481538
00000000: 16dd ea3c 44ee b13c 6d3f 44bd 3983 58bd
00000010: b1bb 43bd 244f f9bc e94c a4bd c479 23bd
00000020: ca65 f5bc bc4a a63c 0a89 ab3c 665c 713c
00000030: 481b a83c 01cf b2bc 9392 1a3c 4dbe 94bb
00000040: f834 833c 8015 c9bb a9fb 7f3b 59a0 c13c
00000050: 77f0 98bc 2415 e43b ed86 8cbc cd20 0abd
00000060: 942b fe3c 03e8 adba 705c 73bb ed7f eebc
00000070: 7d68 353d 0d85 103c d0c7 b93c a4da ce3c
00000080: 749b 9a3c b938 93bc 2efa 1a3c 5623 2a3d
00000090: cf67 adbc e476 3b3d f6da 8c3c ecfe 123d
000000a0: c474 11bd a888 3bbd ee73 923c 2bbc 2dbc
000000b0: 079c 2a3c aaff f8bc af0e 21bc d094 ba3c
000000c0: 59a9 f7b9 0b1e d8bc e532 5a3c 5c1f 08bd
000000d0: 601d b63c 4afa c9bc 3177 9b3b f7aa 6e3c
000000e0: df8c 23bc 21eb 20bc 5b9f 45bc 2edd 10bd
000000f0: c34f 7e3c 450d 81bd bbae 38bd 2fa2 35ba
00000100: becd c73c 7b6e df3c a19d de3c 9890 3cba
00000110: ca6c 07bd 94b7 413c a41c f5bc 2786 a33c
00000120: 45e5 24bd a772 8d3c 2aec f93c b085 693c
00000130: 2ca1 113d 4f0f fd3c dccb a1bb 2f30 2dbd
00000140: 1aa8 bebc 238d 0fbd 3854 5ebc 51f5 39bc
00000150: c18a 06bd 74c2 6cbc 5665 773b 345e a53c
00000160: 2233 cb3c 1905 b5bc 0846 dabc 4439 80bb
00000170: 510e 2d3d 84d7 ed3c 19fb c63c 5844 7dbc
00000180: 3703 093d c06e 483c bd6f 603d 25c7 b9bc
00000190: b14a 0b3d 227c 8b3c b808 c43c 0c70 863c
000001a0: b871 df3c 7ec2 163d 9884 e8bc c18a 8e3b
000001b0: 1640 e83b 6c9b 033d 2efd bbbc a394 07bd
000001c0: 56b8 e6bc a171 f33c da38 02bd 1ae0 c43c
000001d0: 08b4 fbbc 6761 be3c 7353 ac3a 0046 17bd
000001e0: 073a 973c 8edc c6bc f315 2d3c d89c 79bc
000001f0: b0ec d0bc c589 7cbc 58f4 ecbc 3568 5cbc
00000200: 58d0 833c e167 463c 5286 13bd 7397 bd3c
00000210: 48c1 0e3c af83 e3b9 193a 69bb f343 c93c
00000220: c185 c03c ffd9 11bd 1caf 813b 362e efbc
00000230: b50c b5bc b6bd 2bbb e851 923c bfa7 96bc
00000240: 2c47 67bc 93ea aebc 3ee8 adba 72e2 05bb
00000250: 1552 0cbd 0846 6c3c 4f49 49bd cf2d 3ebc
00000260: 260f 403d adef c1bc 0d4c b83c 241e a0bc
00000270: 2819 7ebc 7a5f 0fbc fde5 8d3c ad07 083b
00000280: 03cc 843c 17b8 e4bc 44e3 f9bc 33ad c1bc
00000290: 48e3 25bd 5268 bebb fd0d 403d c68b c43b
000002a0: cec0 de3b 1557 0fbd 411e b13b 7aaf 4bbb
000002b0: 452f 553c a639 e33c f996 0e3a 45ce 563d
000002c0: dbe4 393d e2cf 79bd 569a c33c 2f63 98bc
000002d0: 133a 56bc 8578 aebc 74ee 413c b1fd 5bb9
000002e0: 58f1 97bc c127 193c 55d3 22bd 86cd 27bd
000002f0: 3c35 35bd 7c61 9ebc 3f2c 18bb f8da dd3c
00000300: 0c44 d4bc 7a4e f53a f3dc ddbc d129 d23c
00000310: 6ab6 f63c 89d6 1bbd 1227 21bd 76ce da3b
00000320: 7b4d c8bb e27e 11bd 547b 11bc e7bf 78bc
00000330: 21ce cdbb d3d9 103d 3c72 5cbb 66b3 9d3c
00000340: 7563 00bd 36f3 09bc 2284 f63b 9fdc efbc
00000350: 4b99 e23c f7c8 71bc 5974 02bd 046e e3bc
00000360: a221 32bd 7383 983c 00c0 a2bc c3b8 4bbd
00000370: 6857 ae3a 958a 25bd 9f97 0b3c 917c 61bd
00000380: 5a83 293a 20db bcba aac1 8d3c b000 12bc
00000390: 90f7 c03a 4c3d e7bc 6b5c d1bc a570 c73a
000003a0: ad83 203d 0ef5 c4bb a84e c1bc 5f17 22bd
000003b0: 96fc 20bd b611 4c3c 2c41 b9bc cdd3 bfbc
000003c0: 0c22 5f39 9918 b13c fbc9 c23c 7eef f23c
000003d0: a0b2 e6bb d539 1dbd dd82 31bd 7944 2a3c
000003e0: 9d82 5ebc f580 83bc 1b15 37bd 8d89 aebc
000003f0: faa1 a93c 6652 b53c 8cca be39 a049 cb3c

bias f4 [128]
-0.031662185 0.12385589 0.0008412154 0.24393399 0.06867063 0.050260432 0.009494601 0.0763673
0.076779835 -0.1749242 0.011272398 0.059126675 -0.0732973 0.08765837 -0.070452526 0.082903124
-0.0008238245 -0.15843455 0.019639429 -0.10357542 0.035172243 -0.06517117 0.0560706 0.093031585
0.044627797 0.11697949 -0.0154992305 0.035588823 0.009695648 -0.15701596 0.015558007 0.013137333
0.045357656 0.07908386 0.19932836 0.159962 -0.100096494 0.0136032645 -0.19994234 -0.09450391
-0.07647715 0.26139045 0.056198806 -0.019371191 -0.0651774 0.148663 0.060985718 -0.044422492
0.028223831 0.15733446 0.0069646686 0.048162248 -0.054261174 0.06424932 -0.02567301 0.18647233
0.16861719 0.13716914 0.18349783 0.044517152 -0.07156392 0.19762452 -0.049226377 -0.124371015
0.07193142 -0.041133486 0.06252513 -0.02856717 0.020424852 -0.04894649 0.1773279 -0.09361902
0.23048803 -0.0075675524 -0.0067742513 0.075553074 0.17812559 -0.049829338 0.034147996 0.0025623802
-0.1839563 0.21614288 0.0780162 0.08163572 -0.015909031 -0.06020547 -0.007203134 -0.001684574
-0.1424342 0.0354625 0.034586653 0.07434919 0.046339843 -0.039539482 0.3744919 0.042126328
0.011313128 0.0017498961 -0.021705361 -0.046816874 0.26405936 -0.0012548289 0.10918084 0.006482653
0.1225695 0.09005699 0.022661235 0.020010173 -0.042906653 -0.03624358 0.008401784 -0.005965913
-0.08125797 0.08165045 0.07056193 0.030418418 0.15699187 0.09511561 -0.08141982 0.087948896
0.0695026 0.04319042 0.22388892 0.105890945 0.1567718 -0.05547849 0.08653346 0.0647043
00000000: 35b0 01bd 28a8 fd3d 0385 5c3a d5c9 793e
00000010: 30a3 8c3d e2dd 4d3d 3e8f 1b3c 7566 9c3d
00000020: bf3e 9d3d 541f 33be ddaf 383c d02e 723d
00000030: e51c 96bd 3b86 b33d 6a49 90bd 1dc9 a93d
00000040: edf5 57ba ab3c 22be dee2 a03c 5a1f d4bd
00000050: c510 103d 7678 85bd 49aa 653d 5887 be3d
00000060: a3cb 363d f192 ef3d 7cf0 7dbc 96c5 113d
00000070: 7fda 1e3c cbc8 20be 03e7 7e3c f83d 573c
00000080: f3c8 393d b8f6 a13d bc1c 4c3e 14cd 233e
00000090: 64ff ccbd 3ae0 5e3c afbd 4cbe 448b c1bd
000000a0: 0da0 9cbd f8d4 853e b830 663d 55b0 9ebc
000000b0: bb7b 85bd 1d3b 183e 29cc 793d 5cf4 35bd
000000c0: aa35 e73c 491c 213e e037 e43b c745 453d
000000d0: f740 5ebd 2695 833d 3450 d2bc 9af2 3e3e
000000e0: fca9 2c3e 1176 0c3e dbe6 3b3e 9e57 363d
000000f0: 1b90 92bd 155e 4a3e 99a1 49bd 3bb6 febd
00000100: c850 933d 967b 28bd 2d0d 803d b305 eabc
00000110: 0552 a73c 1d7c 48bd 7295 353e 54bb bfbd
00000120: 0e05 6c3e 3bf9 f7bb 8afa ddbb 92bb 9a3d
00000130: 8e66 363e d919 4cbd c5de 0b3d 9bed 273b
00000140: 0a5f 3cbe 8f54 5d3e f5c6 9f3d a130 a73d
00000150: a853 82bc 039a 76bd 4408 ecbb eccc dcba
00000160: 45da 11be 2041 113d bcaa 0d3d 6344 983d
00000170: d9ce 3d3d 27f4 21bd 67bd bf3e a88c 2c3d
00000180: b35a 393c c55c e53a 71cf b1bc 0dc3 3fbd
00000190: ca32 873e 1279 a4ba 349a df3d 6f6c d43b
000001a0: b805 fb3d cd6f b83d 0ea4 b93c 60ec a33c
000001b0: e3be 2fbd 2674 14bd a3a7 093c b57d c3bb
000001c0: 946a a6bd 5a38 a73d c682 903d 0c30 f93c
000001d0: 7ac2 203e f9cb c23d 6fbf a6bd 8d1e b43d
000001e0: 6157 8e3d 70e8 303d 2343 653e 5add d83d
000001f0: c988 203e 6a3d 63bd 7438 b13d b083 843d

weight f4 [128, 64, 3, 3]
0.043528214 -0.011468885 -0.045982085 0.0572743 0.0340722 -0.010364462 -0.008685661 0.0037199275
-0.011190291 -0.039083716 0.019846886 -0.005981176 -0.007011237 0.027242443 -0.027644379 -0.021746924
-0.011674551 0.015391227 0.011263368 0.017116895 -0.04958446 -0.042047568 0.016343514 0.023352934
-0.043910846 -0.018108124 -0.017477797 -0.019680507 0.00300681 -0.039081525 0.013129834 0.025797032
0.002578125 0.016041625 -0.0033697225 0.008053405 0.013229101 0.0042420905 -0.043404624 0.00039016816
0.03741341 -0.061448853 -0.002542733 -0.040447634 -0.07486709 0.030910805 -0.030049855 -0.0061291195
0.032744657 -0.017273922 0.035695445 -0.038981922 -0.03624418 -0.017972764 0.035193197 0.010557546
-0.023346161 -0.040578514 0.004328561 -0.0011657218 0.0072575593 -0.008103495 0.04217619 -0.03324701
-0.036446817 -0.0621717 -0.00042145947 0.010649555 -0.030877955 -0.032862872 0.05494178 0.051386267
0.02676549 -0.03912512 -0.006035718 -0.0012429333 0.0024731385 -0.023476204 0.04790165 -0.01270094
-0.038385563 -0.025770467 -0.003001076 -0.01811065 -0.05593602 -0.00071520265 -0.048867915 0.015155676
0.014619549 0.008612161 -0.003343324 -0.004748193 -0.028609274 -0.009240763 -0.035373535 -0.017851386
-0.016019376 -0.011631643 0.033716206 -0.017407343 0.017253593 -0.02554636 -0.031170025 -0.031976935
-0.04032569 -0.028829575 -0.040667016 -0.05302169 -0.05719211 -0.021940703 -0.042146966 -0.04186626
0.020536708 -0.056680266 -0.062241882 0.00044421628 -0.037145995 -0.03687459 -0.020142928 0.005849495
-0.021162435 0.002814351 0.015073902 0.03626664 -0.012600642 0.0015431002 -0.05540223 -0.035125315
-0.03239566 -0.02664833 -0.04684354 0.00021757671 0.028298901 -0.028184423 0.033978876 0.029157313
0.014850316 0.036027595 0.00919139 0.0018232998 0.02490368 -0.06475864 0.0009733701 -0.05910371
-0.06832907 -0.049428936 0.019300321 -0.009593153 0.004586883 0.029647248 -0.00693443 0.027179264
-0.003883795 -0.004168425 -0.01466714 -0.002295911 0.0064380914 -0.0041031614 0.011093602 -0.029805532
-0.003335549 -0.014319797 0.023925327 0.009830708 -0.021116843 -0.011866261 -0.0012787837 0.01942628
0.0071683475 -0.028641762 -0.021631166 0.029761981 0.00815848 0.022186214 -0.017418405 0.004003969
0.03547327 0.026361972 -0.012397513 0.013782689 0.059287958 0.043737024 0.059463184 -0.025960421
0.03419808 0.02628381 -0.0626372 -0.042860147 0.057232674 -0.004932676 -0.035062216 -0.038789555
0.021089733 0.039888352 -0.007894296 0.000903818 0.030525278 0.0031482491 -0.002499332 -0.041755248
0.025984885 0.019771365 0.011683135 0.028810808 0.035292964 0.0040679965 -0.019938523 0.01331545
0.031282477 -0.008103183 -0.015145711 0.017091166 -0.046664592 -0.014659089 -0.053293854 -0.017750826
0.003469023 0.0100057125 -0.03040866 -0.0036365911 -0.021482961 -0.0096861925 0.040639304 0.015452556
-0.015154928 -0.020829827 0.019972444 -0.038285177 0.018395156 0.014786043 0.025193218 0.005078043
0.013653112 0.003104669 -0.013873076 0.03227833 0.013696067 -0.0020298867 -0.0053109657 0.006214087
0.012156084 0.010476893 0.0076445825 0.010917131 0.016310044 0.030581208 0.0024186745 -0.0001266744
-0.049259804 -0.0047847945 0.0037705768 0.011600115 -0.06806419 -0.02638572 -0.0074090064 -0.017682133
00000000: a44a 323d fde7 3bbc b657 3cbd 7598 6a3d
00000010: 4b8f 0b3d b4cf 29bc 4d4e 0ebc 07ca 733b
00000020: 7b57 37bc 3f16 20bd f095 a23c befd c3bb
00000030: 85be e5bb 8b2b df3c 7776 e2bc 9b26 b2bc
00000040: 9e46 3fbc 7c2b 7c3c fd89 383c bb38 8c3c
00000050: 1319 4bbd 123a 2cbd d5e2 853c a74e bf3c
00000060: dcdb 33bd 7d57 94bc 992d 8fbc 0439 a1bc
00000070: e70d 453b f313 20bd 841e 573c 4c54 d33c
00000080: c3f5 283b ba69 833c 90d6 5cbb 6ef2 033c
00000090: dfbe 583c 3c01 8b3b 0cc9 31bd 7c8f cc39
000000a0: ce3e 193d cbb1 7bbd fba3 26bb 6bac 25bd
000000b0: eb53 99bd a838 fd3c 1d2b f6bc c8d6 c8bb
000000c0: 431f 063d 0a82 8dbc 6335 123d 82ab 1fbd
000000d0: c774 14bd 9e3b 93bc be26 103d 8ff9 2c3c
000000e0: 7340 bfbc a835 26bd 9ad6 8d3b 22cb 98ba
000000f0: d2d0 ed3b 86c4 04bc f1c0 2c3d 042e 08bd
00000100: 4249 15bd c1a7 7ebd 55f7 dcb9 797b 2e3c
00000110: c4f3 fcbc 389b 06bd a20a 613d 687a 523d
00000120: 4d43 db3c a941 20bd 46c7 c5bb ece9 a2ba
00000130: 6114 223b 2b51 c0bc 8534 443d 9a17 50bc
00000140: 2e3a 1dbd 961c d3bc b3ad 44bb c95c 94bc
00000150: 2b1d 65bd 707c 3bba b929 48bd 834f 783c
00000160: d586 6f3c 051a 0d3c ab1b 5bbb bb96 9bbb
00000170: ff5d eabc 9266 17bc d7e3 10bd 123d 92bc
00000180: 113b 83bc a692 3ebc 011a 0a3d d899 8ebc
00000190: 6857 8d3c 9a46 d1bc 4858 ffbc 3ffa 02bd
000001a0: 8d2c 25bd 002c ecbc 7592 26bd 462d 59bd
000001b0: 4642 6abd fdbc b3bc 4ca2 2cbd f57b 2bbd
000001c0: 993c a83c 9129 68bd 58f1 7ebd b3e5 e839
000001d0: 6626 18bd cf09 17bd c802 a5bc 1fad bf3b
000001e0: d85c adbc fa70 383b 87f8 763c 548c 143d
000001f0: ec72 4ebc da41 ca3a 73ed 62bd 90df 0fbd
00000200: 50b1 04bd 994d dabc 03df 3fbd 4e25 6439
00000210: 19d3 e73c 05e3 e6bc 6f2d 0b3d 51db ee3c
00000220: bd4e 733c ac91 133d 7c97 163c cafb ee3a
00000230: cd02 cc3c 2ea0 84bd c329 7f3a bb16 72bd
00000240: 1df0 8bbd ff75 4abd b51b 9e3c 9a2c 1dbc
00000250: 904d 963b c9de f23c 373a e3bb 0ca7 de3c
00000260: 4587 7ebb 4997 88bb 724e 70bc ff76 16bb
00000270: a0f6 d23b d073 86bb f0c1 353c bb2a f4bc
00000280: 3a99 5abb 959d 6abc 0cff c33c fa10 213c
00000290: 3bfd acbc b56a 42bc dc9c a7ba dd23 9f3c
000002a0: 75e4 ea3b 21a2 eabc d833 b1bc 66cf f33c
000002b0: 25ab 053c ddbf b53c 0bb1 8ebc ba33 833b
000002c0: 6b4c 113d 10f5 d73c f01e 4bbc cad0 613c
000002d0: eed7 723d 9825 333d ab8f 733d f3aa d4bc
000002e0: 4913 0c3d 2551 d73c ef47 80bd 1f8e 2fbd
000002f0: cf6c 6a3d 49a2 a1bb 669d 0fbd cce1 1ebd
00000300: 60c4 ac3c f861 233d 1457 01bc 33ee 6c3a
00000310: 2610 fa3c db52 4e3b d5cb 23bb 8d07 2bbd
00000320: 41de d43c 8ff7 a13c 9f6a 3f3c a504 ec3c
00000330: 5b8f 103d d44c 853b 1d56 a3bc 0c29 5a3c
00000340: 0e22 003d 36c3 04bc b725 78bc c602 8c3c
00000350: 5f23 3fbd ad2c 70bc a84a 5abd 2e6a 91bc
00000360: 8c58 633b 00ef 233c 951b f9bc e053 6ebb
00000370: 09fd afbc d6b2 1ebc 6675 263d b82c 7d3c
00000380: 604c 78bc 50a3 aabc 409d a33c ebd0 1cbd
00000390: 70b1 963c 2941 723c 0262 ce3c b665 a63b
000003a0: 4db1 5f3c b477 4b3b e64b 63bc 4836 043d
000003b0: 7865 603c d907 05bb 9c07 aebb 8a9f cb3b
000003c0: 502a 473c 46a7 2b3c 687f fa3b c4dd 323c
000003d0: a49c 853c 7185 fa3c a082 1e3b e6d3 04b9
000003e0: a6c4 49bd c4c9 9cbb c81b 773b 690e 3e3c
000003f0: 3d65 8bbd de26 d8bc 40c7 f2bb 1fda 90bc

bias f4 [64]
-0.10431419 0.08283986 -0.043042615 0.09247882 -0.001679944 -0.004865675 -0.014576578 -0.032130446
-0.016595883 -0.05527715 0.079570256 0.08494985 -0.0041053114 0.06743588 0.13327828 -0.030462466
-0.00430349 0.12609212 0.02227057 0.09039536 -0.11107664 -0.091061085 0.03312753 0.316122
0.044192497 0.054571994 0.020969193 -0.086644314 -0.061611734 0.032013007 -0.043793086 0.006806828
0.21857335 0.0047335797 0.010818146 0.2862067 0.0074755005 -0.019488255 0.08563542 0.103458695
-0.10191813 0.037249696 0.1266652 0.01860602 0.09476129 0.022269698 0.09311267 0.037648864
0.021580884 0.02222815 -0.01487039 0.009796935 0.026292073 -0.03578852 0.009239849 0.045962866
-0.076014996 0.09267208 -0.035751794 0.042478938 0.04164442 -0.0065400656 0.025180226 0.022704486
00000000: aea2 d5bd f2a7 a93d 744d 30bd 8965 bd3d
00000010: 9131 dcba 3d70 9fbb 99d2 6ebc 379b 03bd
00000020: 17f4 87bc 4b6a 62bd bbf5 a23d 30fa ad3d
00000030: d985 86bb d31b 8a3d 1a7a 083e 6c8c f9bc
00000040: 4a04 8dbb 4b1e 013e c570 b63c 3421 b93d
00000050: 267c e3bd 3c7e babd bcb0 073d beda a13e
00000060: 3103 353d e286 5f3d 96c7 ab3c 9372 b1bd
00000070: 965c 7cbd 1220 033d 6160 33bd d00b df3b
00000080: b1d1 5f3e 251c 9b3b 983e 313c af89 923e
00000090: 0bf5 f43b d5a5 9fbc a061 af3d 27e2 d33d
000000a0: 74ba d0bd 2393 183d 86b4 013e a76b 983c
000000b0: 3512 c23d f16e b63c dbb1 be3d b235 1a3d
000000c0: 65ca b03c cf17 b63c f0a2 73bc 5383 203c
000000d0: 7962 d73c fc96 12bd bc62 173c 8f43 3c3d
000000e0: c0ad 9bbd dcca bd3d 7970 12bd 65fe 2d3d
000000f0: 5793 2a3d 0c4e d6bb c346 ce3c c2fe b93c

weight f4 [64, 32, 3, 3]
0.055647206 0.008970467 0.039627917 -0.0055491375 0.07551865 0.036735106 0.049271856 0.026250858
0.06734627 -0.038456146 -0.007278926 0.027661083 0.019664686 0.022727514 -0.01464042 0.019622667
-0.024294361 0.015238997 -0.056475114 0.07313531 0.040631022 0.032643944 0.015777892 -0.0681667
-0.048499543 -0.02208137 -0.13343695 0.011832786 -0.09279883 -0.062102266 0.03847611 -0.02238277
-0.034081005 -0.02548449 -0.05550519 -0.061304074 -0.05334705 -0.056111954 0.0029725125 -0.06462899
-0.021610117 0.011725131 0.023746917 -0.079911515 0.07434912 0.00336682 0.009179239 0.05246416
0.034415763 -0.06034891 0.052906074 0.030778047 0.034224976 -0.020775031 -0.031750884 -0.020728318
0.029700994 -0.009058569 0.050240558 0.02994537 -0.0020448104 0.028752223 0.05176974 0.05645152
-0.000638231 0.026116708 -0.0033262053 -0.014418867 -0.023726705 0.044030312 0.045953672 0.004121516
-0.005853062 0.10362372 0.031274173 0.02097866 0.06282567 0.010085275 -0.043391492 0.10326522
0.011663929 -0.001464875 -0.035421498 0.017110102 -0.09660368 -0.048195127 -0.03422476 0.007989658
-0.044541243 -0.058657195 -0.05462052 0.013547053 -0.02294234 -0.016426543 0.035325784 -0.018821238
0.014441729 -0.018549167 0.032860283 -0.078254834 -0.09700708 -0.02689033 -0.023752375 -0.12738068
-0.14004345 0.0013130078 -0.122898415 -0.25292352 0.048412256 -0.04040095 0.005261161 -0.0019450388
-0.03912575 -0.048757654 -0.042272538 0.028752986 0.050795786 0.03834001 -0.053098276 -0.03185459
0.07407654 0.035254523 0.037309885 0.042176317 0.07079087 -0.011663047 -0.05030071 -0.014206842
-0.06799925 -0.024783293 -0.013158565 -0.073870085 0.013825736 0.017245667 -0.07140282 -0.04377194
-0.017055562 -0.017250434 0.0265289 -0.074054934 -0.07747935 -0.0038092623 -0.010615499 0.05655838
-0.023017297 -0.025716582 0.015773289 0.0020500675 0.04657554 0.033670157 0.053310275 0.09701554
0.08796478 -0.015729068 0.028087843 0.026799144 -0.04925368 0.023602398 0.0011201837 -0.05574829
-0.061499506 0.0421338 -0.01564236 0.05337732 -0.09378139 0.005494926 -0.030166032 -0.13954642
-0.0024729138 -0.010708737 -0.1802941 -0.025416855 0.037354495 -0.018547777 0.050047565 -0.0305534
0.054909863 0.035477255 0.0023220505 -0.04372877 -0.0069932244 0.040565718 0.01749429 -0.0692004
0.0022941313 -0.0381794 0.05640729 0.06941807 -0.013493305 0.01128364 0.051879667 0.03365629
-0.00068846944 -0.006594117 -0.057463206 0.069005616 0.04324443 -0.022883995 0.050352354 -0.0127076795
0.016315717 -0.018703228 0.04273349 -0.013890992 -0.05758308 -0.028662244 -0.024355194 0.013887179
0.048449814 -0.05188956 0.0054214224 0.047955032 0.037734695 -0.0347018 0.005258617 -0.0043885317
0.029693892 -0.02798441 -0.056194127 -0.046228092 -0.05122166 0.053715028 0.030789623 0.008652606
-0.020473499 0.018394658 0.008898335 -0.040593434 0.034134183 -0.01590467 -0.041535158 -0.0004434103
-0.030855905 0.04043256 -0.050862305 -0.046413172 0.026214687 0.008282936 -0.024134237 -0.08757544
0.04315675 0.02980399 -0.09338672 -0.0032990845 0.00963321 0.00075450854 -0.012603101 -0.019492501
-0.088801414 0.06869348 0.06556496 -0.032817915 0.0019927628 0.025210237 0.024349982 0.04332662
00000000: 53ee 633d def8 123c e250 223d 8ad5 b5bb
00000010: 86a9 9a3d 8d77 163d 49d1 493d 0a0c d73c
00000020: d7ec 893d 3184 1dbd 0f84 eebb 7f99 e23c
00000030: d617 a13c 0d2f ba3c 5fde 6fbc b7bf a03c
00000040: f804 c7bc fcac 793c 7352 67bd f7c7 953d
00000050: b76c 263d a8b5 053d a340 813c fc9a 8bbd
00000060: 75a7 46bd fde3 b4bc b2a3 08be 4dde 413c
00000070: 500d bebd f25e 7ebd 2099 1d3d 125c b7bc
00000080: 8698 0bbd d9c4 d0bc 6959 63bd fb19 7bbd
00000090: 7082 5abd a6d5 65bd 7cce 423b 345c 84bd
000000a0: b307 b1bc c41a 403c e588 c23c a6a8 a3bd
000000b0: 5a44 983d dea5 5c3b 8564 163c a9e4 563d
000000c0: 8bf7 0c3d 6b30 77bd 0ab4 583d 3e22 fc3c
000000d0: 7d2f 0c3d 6630 aabc 370d 02bd 6fce a9bc
000000e0: 804f f33c 646a 14bc 0bc9 4d3d fe4f f53c
000000f0: 3a02 06bb c889 eb3c 820c 543d b639 673d
00000100: f54e 27ba b5f2 d53c 77fc 59bb 1d3d 6cbc
00000110: 825e c2bc 2159 343d eb39 3c3d c80d 873b
00000120: 0bcb bfbb ac38 d43d 5919 003d 70db ab3c
00000130: bfaa 803d b63c 253c 47bb 31bd b77c d33d
00000140: 101a 3f3c 0c01 c0ba 2216 11bd 7c2a 8c3c
00000150: 26d8 c5bd 4168 45bd 432f 0cbd 0ee7 023c
00000160: e170 36bd 8742 70bd c4b9 5fbd 75f4 5d3c
00000170: 93f1 bbbc f590 86bc c5b1 103d ff2e 9abc
00000180: 009d 6c3c 6cf4 97bc 8198 063d 1244 a0bd
00000190: a6ab c6bd 1c49 dcbc 5794 c2bc 1570 02be
000001a0: 8d67 0fbe 3b19 ac3a 2ab2 fbbd 317f 81be
000001b0: ee4b 463d 777b 25bd d165 ac3b acf0 feba
000001c0: 5342 20bd 1bb6 47bd f825 2dbd 628b eb3c
000001d0: 3e0f 503d 6a0a 1d3d 947d 59bd f579 02bd
000001e0: 71b5 973d 0c67 103d 40d2 183d 13c1 2c3d
000001f0: cefa 903d 5d16 3fbc 1e08 4ebd d0c3 68bc
00000200: 3143 8bbd 5506 cbbc 0697 57bc 3349 97bd
00000210: 5785 623c c946 8d3c a43b 92bd 354a 33bd
00000220: 1bb8 8bbc c850 8dbc 2353 d93c 1daa 97bd
00000230: 7ead 9ebd d1a4 79bb a1ec 2dbc c3a9 673d
00000240: c58e bcbc 95ab d2bc fc36 813c 6d5a 063b
00000250: fec5 3e3d b8e9 093d e05b 5a3d 15b0 c63d
00000260: e126 b43d 3fda 80bc 7a18 e63c e189 db3c
00000270: 3abe 49bd d159 c13c 21d3 923a 5258 64bd
00000280: e8e6 7bbd 7e94 2c3d 6824 80bc 2da2 5a3d
00000290: 7510 c0bd c80e b43b c11e f7bc 42e5 0ebe
000002a0: 9c10 22bb b373 2fbc 049f 38be 0237 d0bc
000002b0: 0701 193d 82f1 97bc adfe 4c3d 204b fabc
000002c0: 2ae9 603d 9950 113d 8b2d 183b f01c 33bd
000002d0: 6b27 e5bb 3d28 263d 2f50 8f3c f0b8 8dbd
000002e0: 2359 163b 0162 1cbd 550b 673d 102b 8e3d
000002f0: 0613 5dbc 04df 383c c67f 543d 2edb 093d
00000300: 677a 34ba 7613 d8bb 8a5e 6bbd d152 8d3d
00000310: 1221 313d 3777 bbbc 453e 4e3d df33 50bc
00000320: 8aa8 853c 8337 99bc 5009 2f3d 0b97 63bc
00000330: 3cdc 6bbd 15cd eabc 8b84 c7bc 0d87 633c
00000340: 5073 463d 268a 54bd 30a6 b13b 7f6c 443d
00000350: b28f 1a3d 7a23 0ebd 7a50 ac3b accd 8fbb
00000360: 9b40 f33c 903f e5bc d02b 66bd ab59 3dbd
00000370: cecd 51bd 4a04 5c3d 853a fc3c a9c3 0d3c
00000380: 0ab8 a7bc 65b0 963c 52ca 113c 4d45 26bd
00000390: 49d0 0b3d 834a 82bc c520 2abd 8679 e8b9
000003a0: 86c5 fcbc 9d9c 253d fe54 50bd bd1b 3ebd
000003b0: 2fc0 d63c 27b5 073c 2ab5 c5bc c15a b3bd
000003c0: 22c5 303d 7f27 f43c 8941 bfbd 7435 58bb
000003d0: 9cd4 1d3c 36ca 453a 3d7d 4ebc bdae 9fbc
000003e0: 84dd b5bd 2baf 8c3d ec46 863d 146c 06bd
000003f0: 0399 023b b385 ce3c 9d79 c73c 4177 313d

bias f4 [32]
0.113824755 0.0034694641 0.01871186 0.038670093 -0.0016939975 -0.05326581 -0.0667894 0.047113273
0.030892154 0.13222499 0.06415834 0.09330186 0.088486955 -0.04204976 0.0061749076 -0.07560564
-0.06777349 0.06608698 0.12903541 -0.008472885 -0.04380173 0.035093613 -0.046770968 0.026465943
-0.081207 0.09603614 0.10095525 -0.08698731 -0.012410419 -0.027773319 -0.013595582 0.08467113
00000000: f41c e93d f35f 633b 9d49 993c 8864 1e3d
00000010: 2009 deba 402d 5abd e2c8 88bd d9f9 403d
00000020: 8b11 fd3c fd65 073e 7365 833d 0c15 bf3d
00000030: a638 b53d 5f3c 2cbd e156 ca3b 21d7 9abd
00000040: d4cc 8abd 9c58 873d dc21 043e dbd1 0abc
00000050: 7169 33bd 52be 0f3d ea92 3fbd 1bcf d83c
00000060: db4f a6bd 99ae c43d a0c1 ce3d 6726 b2bd
00000070: 1255 4bbc df84 e3bc 01c0 5ebc 0f68 ad3d

weight f4 [32, 1, 3, 3]
-0.025526432 -0.16395538 -0.22775458 0.2916151 0.025028633 -0.21844727 0.13400267 -0.02156872
0.27443084 0.1408331 -0.08053305 -0.12563193 0.26869798 0.09848563 0.3311571 0.21110272
-0.19925934 0.13691963 -0.14465134 0.21530084 -0.037046634 0.2547926 0.07830031 0.09117085
-0.27465257 0.017253855 -0.22079195 -0.33402792 -0.18014702 -0.24147898 -0.0094150575 -0.121799484
-0.034716208 -0.24950127 0.21489993 -0.17602588 -0.14841826 -0.27949545 0.19354713 -0.29628193
0.16725886 0.22023696 -0.021588065 -0.25636223 0.2759203 0.24116872 0.054994877 0.009539581
-0.20692307 -0.26236147 -0.20812312 -0.2613649 0.10733853 0.18596354 0.091677174 -0.26245114
0.08523843 -0.11168445 -0.12526728 0.09220844 0.107521035 0.08737174 -0.28323442 -0.10301513
-0.04159746 -0.30124477 -0.038691267 -0.19822113 0.07832085 0.10135521 -0.27331948 0.049133755
0.04935766 -0.17095251 0.05460017 -0.16194233 -0.13006921 0.32067803 -0.06752325 0.31982264
0.05124873 0.047228757 0.29499406 -0.1592568 0.077915415 0.018037487 0.07684091 -0.19439192
-0.25703952 0.08485184 0.0475969 0.08524004 0.18374625 -0.25237307 0.052105825 -0.098863505
-0.103720926 0.11160485 0.14996496 -0.22733474 -0.016291013 0.33478373 -0.12076741 0.35067517
-0.24437319 0.034764923 -0.21310554 -0.011213909 0.28533447 0.041598056 0.08548127 0.12608045
0.117785074 0.050563134 -0.09419056 0.23084052 0.0333998 0.06696434 0.1779859 -0.15642694
-0.17127305 -0.02362548 -0.12367234 0.28807244 0.2430428 -0.053772807 -0.2624162 -0.21895592
0.15038341 0.29102325 -0.053689733 0.0031547656 -0.2480191 0.34340546 -0.08831677 -0.26468214
-0.12159161 0.07316254 0.03343187 -0.06038853 0.23239984 0.28661144 -0.24654657 -0.29763994
-0.31777886 -0.051714983 -0.16109112 0.009926411 0.04978793 0.1432294 0.2513375 -0.08845609
0.2504596 -0.18754476 0.24897334 -0.0075666043 -0.20343257 -0.061279077 0.2474906 0.093746394
-0.025624715 0.011601975 0.3172039 -0.19758148 -0.18617268 -0.059851144 0.21695755 0.21961111
0.23127562 -0.26676333 -0.28996718 0.08492432 -0.07800677 0.027037526 -0.16555639 0.010813156
0.12997785 0.06974108 -0.20903255 0.08243808 -0.12609132 0.058990784 0.047886636 -0.17145614
-0.14123024 0.16831383 -0.1752371 0.22307594 -0.027059028 -0.0462126 -0.2173388 -0.31932384
0.0055987136 0.10980444 -0.067498595 0.1722995 0.2978003 -0.29301783 0.14379978 -0.13957624
0.27537078 0.14392668 -0.31072673 0.001389068 -0.2600504 -0.051497996 -0.22926046 -0.13422213
0.17323485 0.2870233 0.16004214 0.1720846 -0.1772983 -0.003843892 -0.02758613 0.06955457
0.3208736 -0.1138385 0.020249302 -0.07283778 -0.26024184 -0.32488182 -0.021297548 0.23016019
-0.105114825 0.26184392 -0.22847816 0.25876132 0.050509308 -0.011718901 -0.281076 0.010711884
0.1171903 0.13891718 0.22559378 0.20599787 0.12744518 -0.08059334 -0.1758142 -0.25916666
0.026831891 0.27148062 -0.27587527 0.06371518 -0.23125467 -0.07826675 -0.28272426 -0.209831
0.09313915 0.23776895 -0.19305624 0.35610846 0.17706698 0.20406686 0.1428484 -0.29507533
00000000: cf1c d1bc ebe3 27be 7f38 69be 934e 953e
00000010: d908 cd3c a4b0 5fbe ff37 093e e2b0 b0bc
00000020: 3382 8c3e 8d36 103e 83ee a4bd a8a5 00be
00000030: c892 893e d5b2 c93d 6c8d a93e 502b 583e
00000040: a40a 4cbe a934 0c3e 7b1f 14be d377 5c3e
00000050: 36be 17bd 2d74 823e ea5b a03d c8b7 ba3d
00000060: 439f 8cbe f557 8d3c 4917 62be b505 abbe
00000070: 7678 38be 4446 77be 9d41 1abc 0272 f9bd
00000080: 9532 0ebd 437d 7fbe ba0e 5c3e 2140 34be
00000090: f5fa 17be 071a 8fbe 3831 463e 44b2 97be
000000a0: e845 2b3e cc85 613e 74d9 b0bc e941 83be
000000b0: 6d45 8d3e eff4 763e 4f42 613d e74b 1c3c
000000c0: a4e3 53be 3e54 86be 3a1e 55be 9fd1 85be
000000d0: 4ed4 db3d 3a6d 3e3e 3ec1 bb3d ff5f 86be
000000e0: 7c91 ae3d d1ba e4bd 1146 00be c7d7 bc3d
000000f0: fd33 dc3d f4ef b23d 1a04 91be 99f9 d2bd
00000100: 1962 2abd c13c 9abe bc7a 1ebd 7bfa 4abe
00000110: af66 a03d 5293 cf3d 88f0 8bbe 7a40 493d
00000120: 422b 4a3d 2d0e 2fbe 6ea4 5f3d 36d4 25be
00000130: dd30 05be e92f a43e a149 8abd cbbf a33e
00000140: 30ea 513d f172 413d 7609 973e 3714 23be
00000150: 1e92 9f3d 5ac3 933c c45e 9d3d ad0e 47be
00000160: af9a 83be cdc6 ad3d f8f4 423d 5592 ae3d
00000170: fa27 3c3e 0b37 81be eb6c 553d f378 cabd
00000180: a36b d4bd 1591 e43d 6a90 193e 70ca 68be
00000190: bb74 85bc c668 ab3e e754 f7bd b28b b33e
000001a0: f73c 7abe aa65 0e3d 5738 5abe 8bba 37bc
000001b0: 5c17 923e b962 2a3d ce10 af3d 3c1b 013e
000001c0: 4d39 f13d 4a1b 4f3d fbe6 c0bd 7561 6c3e
000001d0: 3bce 083d 9a24 893d f041 363e 622e 20be
000001e0: 3462 2fbe 398a c1bc ec47 fdbd 3b7e 933e
000001f0: 36e0 783e e040 5cbd 6b5b 86be fb35 60be
00000200: 1cfe 193e 0001 953e c4e9 5bbd 2fc0 4e3b
00000210: b8f8 7dbe d7d2 af3e 6cdf b4bd 6b84 87be
00000220: 0605 f9bd 3ed6 953d dbef 083d f759 77bd
00000230: 39fa 6d3e bcbe 923e b476 7cbe 4364 98be
00000240: e9b3 a2be 17d3 53bd 12f5 24be 63a2 223c
00000250: 6eee 4b3d baaa 123e 4faf 803e 7728 b5bd
00000260: 3e3c 803e bc0b 40be def2 7e3e 47f1 f7bb
00000270: a150 50be c5ff 7abd 2d6e 7d3e 1cfe bf3d
00000280: ecea d1bc 3616 3e3c 8d68 a23e cd52 4abe
00000290: 0da4 3ebe 7926 75bd 1f2a 5e3e bce1 603e
000002a0: 84d3 6c3e 3495 88be 9476 94be cdec ad3d
000002b0: 03c2 9fbd cd7d dd3c 9d87 29be aa29 313c
000002c0: ea18 053e 69d4 8e3d a10c 56be 4cd5 a83d
000002d0: 151e 01be 52a0 713d c724 443d 3392 2fbe
000002e0: a99e 10be 765a 2c3e 5b71 33be 056e 643e
000002f0: e5aa ddbc 6c49 3dbd 108e 5ebe 6a7e a3be
00000300: 6a75 b73b 26e1 e03d b43c 8abd 486f 303e
00000310: 4879 983e 6f06 96be 4040 133e 13ed 0ebe
00000320: 66fd 8c3e 8461 133e 9317 9fbe 6311 b63a
00000330: 5325 85be 90ef 52bd 41c3 6abe 8771 09be
00000340: 7a64 313e b8f4 923e 16e2 233e f236 303e
00000350: b08d 35be cee9 7bbb 4ffc e1bc a072 8e3d
00000360: 8b49 a43e 2924 e9bd dde1 a53c f92b 95bd
00000370: 6b3e 85be e956 a6be 3278 aebc 1daf 6b3e
00000380: 7146 d7bd 6810 863e 2ef6 69be 5d7c 843e
00000390: d9e2 4e3d a200 40bc 32e9 8fbe e680 2f3c
000003a0: 7801 f03d 4e40 0e3e 0e02 673e 1bf1 523e
000003b0: fd80 023e 1f0e a5bd a308 34be 7eb1 84be
000003c0: 8ece db3c 82ff 8a3e 863f 8dbe 1b7d 823d
000003d0: 06ce 6cbe 514a a0bd 3cc1 90be f0dd 56be
000003e0: bdbf be3d b479 733e 89b0 45be d953 b63e
000003f0: 0c51 353e e7f6 503e da46 123e 1d14 97be
