old:unneeded/models_old/torch_model.pt (torch, 156528 bytes, 7 tensors)

weight f4 [32, 1, 3, 3]
0.09931776 0.073729604 -0.30537957 0.24474588 -0.19253811 0.20633546 -0.08642769 0.29918602
0.16745237 0.31327888 0.15818563 -0.14607081 -0.1646698 0.089766264 -0.19836557 -0.037260294
0.19466534 0.007852107 0.057085127 0.11686692 -0.24484718 0.2971048 0.104919106 0.2925882
-0.004827887 0.2958754 -0.05601123 -0.058499455 0.07556784 0.07466304 0.21456507 0.15602562
-0.3025386 0.16823664 0.20199338 0.26684996 0.06878114 -0.30109698 0.0374898 -0.052383572
0.32223913 -0.27019745 -0.013094306 0.21813312 0.09841749 0.048154384 -0.16432774 0.036306232
0.10169676 -0.020406097 -0.05133784 -0.30596173 -0.06446478 0.20781967 -0.2906261 -0.3297505
0.117827415 0.22694442 -0.009204239 0.164502 -0.26887476 -0.27409154 0.05458066 0.063299924
0.011103153 0.13222966 0.23659763 0.3312095 -0.11619961 -0.013066292 0.30060318 0.30748394
-0.019566804 0.15555608 -0.21491282 0.04891646 0.049622655 -0.30052716 0.000531584 0.14681289
0.17983541 0.06532088 0.042607933 0.2121757 -0.17805374 0.067546815 -0.3081805 0.15195224
0.15578476 0.065086514 -0.15034032 -0.111591786 0.14871153 0.09260473 0.32737944 0.02036354
-0.23825848 -0.098497 -0.31604946 -0.07410005 0.19005147 0.21410605 -0.011723489 0.30000243
0.0967243 0.03068471 0.15989932 -0.023895413 0.15596166 -0.24265349 -0.07421672 -0.09221034
-0.30934584 0.32727262 -0.169819 -0.10090542 0.16610917 -0.22222118 -0.32998085 -0.05382201
0.24101785 0.30642036 0.3069704 0.195882 0.10014713 -0.15203628 0.25052825 -0.1176264
-0.14381826 0.17938831 0.22274539 -0.11851823 -0.2870817 0.328288 0.30822012 -0.13183495
-0.32763952 -0.018707424 0.14485517 0.19692817 -0.13042188 -0.003342867 0.033789665 -0.08834371
-0.16754112 0.17281923 -0.12159404 0.20791128 0.2683418 -0.22978549 0.27369198 0.12320563
-0.09940879 -0.19381385 0.039817005 0.056465834 0.32618222 -0.19264297 0.053894877 0.0843955
0.08011401 -0.25864327 0.13717738 -0.2079179 0.29123363 -0.10321626 0.055024713 0.12633833
0.06363928 -0.16745488 0.2059739 0.07108155 0.067083985 -0.18476889 -0.25380883 0.24611887
0.15006867 0.075717 0.06333366 0.10297048 0.3326923 -0.037610054 0.22422752 -0.24442983
0.09569526 0.15248701 0.19988242 0.22762993 -0.26389706 0.2958223 -0.20282146 0.010302693
0.1394484 -0.078373045 0.06819606 0.30012205 -0.18796825 -0.031927317 0.24564692 0.24459997
-0.30909905 0.20876208 -0.04957497 -0.31670672 0.11042109 0.22649041 0.30877522 -0.004136592
-0.2532425 0.005739063 -0.27612942 0.2918475 0.06685987 0.15027952 -0.021481395 0.11956635
0.22939429 0.24074939 0.31514058 -0.3059424 0.039583087 0.27968684 -0.14224939 0.11261606
0.18096063 -0.024986953 0.25533673 0.3168303 0.2797273 0.036165357 0.26823184 -0.22156632
0.19719651 0.16506699 0.2111434 -0.06533918 0.087659985 0.115778536 0.25535372 0.27258572
-0.18470526 0.06363225 -0.32443374 0.131742 0.23935392 -0.23253906 0.08564329 0.18105379
-0.12412584 0.32816294 0.29700294 0.14308777 -0.27722353 -0.098323315 -0.05646479 -0.31573886
00000000: 1c67 cb3d 8cff 963d b65a 9cbe aa9e 7a3e
00000010: b628 45be 9a49 533e 0001 b1bd e92e 993e
00000020: a278 2b3e 1766 a03e 6afb 213e 9693 15be
00000030: 339f 28be 60d7 b73d 5820 4bbe 409e 18bd
00000040: 5a56 473e 20a6 003c 18d2 693d ec57 ef3d
00000050: 38b9 7abe 1f1e 983e d4df d63d 1fce 953e
00000060: 4033 9ebb fb7c 973e 086c 65bd 209d 6fbd
00000070: 50c3 9a3d f0e8 983d f2b6 5b3e 2ec5 1f3e
00000080: 57e6 9abe 3a46 2c3e 5ad7 4e3e 8fa0 883e
00000090: 20dd 8c3d 6229 9abe e88e 193d 2890 56bd
000000a0: 87fc a43e 5257 8abe 8089 56bc 4a5e 5f3e
000000b0: 1c8f c93d 883d 453d 8845 28be d8b5 143d
000000c0: 6446 d03d b02a a7bc a047 52bd 04a7 9cbe
000000d0: 1c06 84bd aece 543e f2cc 94be 0fd5 a8be
000000e0: 804f f13d 1e64 683e 60cd 16bc 3673 283e
000000f0: f4a9 89be ba55 8cbe f88f 5f3d 64a3 813d
00000100: 00ea 353c 3667 073e a646 723e 4b94 a93e
00000110: 10fa edbd 0014 56bc a9e8 993e 896e 9d3e
00000120: 904a a0bc 184a 1f3e 1b12 5cbe a05c 483d
00000130: 2041 4b3d b2de 99be 005a 0b3a 1e56 163e
00000140: c626 383e f4c6 853d a885 2e3d 9644 593e
00000150: b853 36be fc55 8a3d d6c9 9dbe 5e99 1b3e
00000160: 0a86 1f3e 144c 853d d0f2 19be 3c8a e4bd
00000170: d647 183e 8ca7 bd3d 479e a73e 70d1 a63c
00000180: 08fa 73be ccb8 c9bd 3cd1 a1be c4c1 97bd
00000190: da9c 423e 9e3e 5b3e e013 40bc eb99 993e
000001a0: 6417 c63d 805e fb3c a6bc 233e 50c0 c3bc
000001b0: 6ab4 1f3e 287a 78be f0fe 97bd c6d8 bcbd
000001c0: 9462 9ebe 4790 a73e 08e5 2dbe 80a7 cebd
000001d0: 8618 2a3e f38d 63be 40f3 a8be 7874 5cbd
000001e0: 62cd 763e 21e3 9c3e 392b 9d3e 4a95 483e
000001f0: f019 cd3d 66af 1bbe 3d45 803e 1ce6 f0bd
00000200: 1845 13be 92b1 373e 5e17 643e b0b9 f2bd
00000210: 5ffc 92be 5d15 a83e 07cf 9d3e beff 06be
00000220: 5ec0 a7be 5040 99bc ea54 143e 8aa7 493e
00000230: 508d 05be 0014 5bbb 0867 0a3d 8ced b4bd
00000240: e68f 2bbe 86f7 303e 4c06 f9bd b2e6 543e
00000250: 1964 893e e34c 6bbe 5b21 8c3e 3c53 fc3d
00000260: d696 cbbd 2377 46be 2817 233d b848 673d
00000270: 5b01 a73e 3344 45be e0c0 5c3d 8cd7 ac3d
00000280: d012 a43d e46c 84be 3a78 0c3e 6ee8 54be
00000290: 931c 953e 0c63 d3bd 9861 613d d65e 013e
000002a0: 5055 823d 4b79 2bbe d2ea 523e 3493 913d
000002b0: 5463 893d 0e34 3dbe 3bf3 81be 9606 7c3e
000002c0: 9aab 193e 8411 9b3d 14b5 813d 30e2 d23d
000002d0: a556 aa3e 000d 1abd e69b 653e d04b 7abe
000002e0: e0fb c33d 8e25 1c3e faad 4c3e d217 693e
000002f0: 841d 87be 0576 973e 6eb0 4fbe a0cc 283c
00000300: 90cb 0e3e 0c82 a0bd 60aa 8b3d 99a9 993e
00000310: c07a 40be 38c6 02bd de8a 7b3e 6a78 7a3e
00000320: 3b42 9ebe bac5 553e 200f 4bbd 6227 a2be
00000330: 7424 e23d 1aed 673e c917 9e3e 408c 87bb
00000340: 00a9 81be c00e bc3b d660 8dbe 096d 953e
00000350: d4ed 883d e0e2 193e c0f9 afbc 34df f43d
00000360: 56e6 6a3e 0287 763e 1b5a a13e 7ba4 9cbe
00000370: e021 223d 1d33 8f3e d3a9 11be 40a3 e63d
00000380: be4d 393e 70b1 ccbc 7fbb 823e 9537 a23e
00000390: 6b38 8f3e 2022 143d af55 893e 48e2 62be
000003a0: e2ed 493e 5207 293e fa35 583e 8cd0 85bd
000003b0: 1487 b33d 4c1d ed3d b9bd 823e 5b90 8b3e
000003c0: 6023 3dbe a051 823d 2e1c a6be 60e7 063e
000003d0: 3219 753e b81e 6ebe c065 af3d 2a66 393e
000003e0: b035 febd f904 a83e c510 983e 9a85 123e
000003f0: 3ef0 8dbe bc5d c9bd a047 67bd 86a8 a1be

bias f4 [32]
0.22077683 0.3221533 0.04219243 0.26026693 -0.08397691 0.1929963 0.01517117 -0.06051317
-0.26352584 -0.2129368 -0.19484696 0.15168047 -0.28196567 0.1377244 0.18706456 -0.17346475
0.07364264 0.2593015 0.1256282 0.17855349 0.061019093 0.10708308 0.25574479 -0.30777165
-0.07643923 -0.16799688 0.018615395 -0.09307739 -0.11245243 -0.05638492 -0.038630158 -0.073691934
00000000: 5213 623e 47f1 a43e f8d1 2c3d b541 853e
00000010: 16fc abbd d2a0 453e 8090 783c a8dc 77bd
00000020: dcec 86be 1b0c 5abe f685 47be 2052 1b3e
00000030: ce5d 90be a007 0d3e da8d 3f3e bea0 31be
00000040: f4d1 963d 2bc3 843e aea4 003e bad6 363e
00000050: 28ef 793d 604e db3d fbf0 823e 3f94 9dbe
00000060: 2c8c 9cbd 6007 2cbe 507f 983c 5c9f bebd
00000070: 764d e6bd e0f3 66bd a83a 1ebd cceb 96bd

weight f4 [64, 32, 3, 3]
0.042277824 0.021059614 0.023425605 0.0065041967 -0.037776507 -0.0043450035 0.029660989 -0.056376025
-0.042052776 0.016313676 0.044397894 0.044725735 -0.024806708 0.04609951 0.053865325 -0.010057531
-0.00460916 0.0511909 -0.039450116 -0.013921302 0.015756365 0.055120017 -0.029595088 -0.032740038
-0.00855723 0.056508165 0.021718334 0.058198866 0.012451258 -0.053055912 -0.03579516 -0.0040130615
-0.04523398 -0.0135522075 0.022508536 -0.009030439 0.014487598 0.018155161 -0.0048548244 -0.0425575
-0.04520335 -0.012686677 -0.033482693 0.017338779 0.009639654 0.048282016 0.012190286 -0.027002104
-2.0693988e-05 0.022591252 0.037015434 -0.051472105 0.058642235 0.03226972 -0.008321721 0.00086958706
-0.0536152 0.054730076 -0.019951258 0.036951084 -0.011398222 0.032563742 0.0013450682 -0.015633374
-0.027490724 0.026391957 -0.00026270747 -0.006818693 0.0035473183 -0.029591365 0.025851626 0.039410647
0.034262333 -0.0364109 -0.05040629 0.014546018 0.03064191 0.0528855 0.03809114 -0.008899882
-0.043847103 0.0071657486 -0.01755802 0.04019409 -0.04514606 0.057186868 -0.008172233 0.02310006
-0.057776686 -0.056732062 0.0019982308 0.021578353 -0.052801847 -0.023101673 0.0041852705 -0.012595467
0.057571527 -0.033728853 0.010699939 -0.00060164556 -0.036513165 0.04299498 0.047546867 0.032305192
-0.043874007 -0.020684894 -0.04505839 -0.020279426 -0.046109356 0.006430637 -0.019197952 -0.044311024
-0.036483377 -0.018858448 0.0039130338 -0.031767145 -0.02654209 0.057112966 0.019926358 -0.0071414337
-0.024780698 -0.011439588 -0.049392313 -0.028270483 0.01009338 -0.02036792 0.0512509 0.020455647
-0.009612545 0.032365683 -0.052092418 -0.01764886 0.0015829504 -0.036799096 0.024046507 -0.01506513
-0.02360588 -0.052541103 -0.027501963 -0.032879233 0.053630766 -0.053066347 -0.00012790039 -0.0009638779
-0.0031491145 -0.01448141 -0.019458935 -0.03834437 -0.025139634 0.04739755 -0.021127589 0.05250338
-0.028992824 0.030851264 -0.00040796027 -0.056133483 0.03438255 0.047429953 -0.03051025 0.014322113
0.020380583 -0.014097434 0.03983287 -0.055431318 0.023284372 -0.024115667 -0.0011401996 -0.02411713
0.039079737 -0.0057221428 -0.014280342 0.032729145 -0.006521482 -0.019631509 0.00792839 0.034510728
-0.056689065 0.037530895 -0.026314996 0.002781909 0.03533612 0.015566979 0.005076047 -0.024611939
-0.029832318 -0.05053311 -0.013548877 0.005223591 0.04153536 -0.0015033446 -0.032201275 -0.02672378
0.054191273 -0.026358202 -0.0087989345 0.049109105 0.028408948 0.011806447 0.022265602 0.005496081
-0.033324696 -0.040326126 0.010072503 -0.0020859614 0.056425977 -0.05876459 -0.02070032 -0.04737556
-0.024739392 -0.038889118 0.052244257 -0.02764156 -0.04487163 -0.019551303 0.028250862 0.014818024
-0.010533698 0.04933423 -0.0034708492 0.004281897 -0.013088688 0.051906336 0.03275093 -0.039491504
0.008722115 -0.039932437 0.047641966 -0.022737037 -0.0057811067 -0.05573205 0.037148003 0.0073948167
0.028771121 0.035421107 -0.02712718 0.017955814 -0.0069030635 -0.035616204 -0.05366075 -0.049350765
-0.032100156 0.052216377 -0.0112133175 0.00689755 -0.051399942 0.03350046 -0.036453567 -0.0070729926
-0.009938747 -0.00092962757 -0.038016304 -0.027084332 -0.023310866 -0.039695412 0.027165983 -0.02702066
00000000: 832b 2d3d 3685 ac3c 0ee7 bf3c 2821 d53b
00000010: 8abb 1abd 8860 8ebb 9afb f23c 8cea 66bd
00000020: 883f 2cbd 42a4 853c 91da 353d 5532 373d
00000030: 7037 cbbc d7d2 3c3d e3a1 5c3d 58c8 24bc
00000040: 7008 97bb 8dad 513d 7296 21bd 2c16 64bc
00000050: 7e13 813c 87c5 613d 6671 f2bc 6b1a 06bd
00000060: a033 0cbc 1b75 673d a6ea b13c ef61 6e3d
00000070: 5c00 4c3c 2851 59bd f29d 12bd 0080 83bb
00000080: 4447 39bd 140a 5ebc d263 b83c 68f4 13bc
00000090: 645d 6d3c 22ba 943c 3815 9fbb c650 2ebd
000000a0: 2627 39bd c8db 4fbc 2625 09bd 0e0a 8e3c
000000b0: a4ef 1d3c 5dc3 453d c4b9 473c 8433 ddbc
000000c0: 0098 adb7 4a11 b93c 7f9d 173d 6ad4 52bd
000000d0: d732 703d 412d 043d d457 08bc 00f5 633a
000000e0: 9d9b 5bbd a52c 603d d270 a3bc 055a 173d
000000f0: 9cbf 3abc 8f61 053d 004d b03a 9011 80bc
00000100: 3a34 e1bc f233 d83c 00bc 89b9 586f dfbb
00000110: 207a 683b 9769 f2bc cac6 d33c 0f6d 213d
00000120: a956 0c3d 9923 15bd d376 4ebd 6c52 6e3c
00000130: be04 fb3c 779e 583d 7505 1c3d d0d0 11bc
00000140: 0599 33bd a8ce ea3b d6d5 8fbc 8fa2 243d
00000150: 13eb 38bd c73c 6a3d d4e4 05bc 563c bd3c
00000160: 3fa7 6cbd e15f 68bd c0f4 023b 16c5 b03c
00000170: c046 58bd b83f bdbc 9824 893b 385d 4ebc
00000180: 1fd0 6b3d 4427 0abd cc4e 2f3c c0b7 1dba
00000190: d48e 15bd 811b 303d 81c0 423d 7352 043d
000001a0: 3bb5 33bd 5e73 a9bc 258f 38bd 0a21 a6bc
000001b0: 2add 3cbd 18b8 d23b 0645 9dbc 7a7f 35bd
000001c0: 986f 15bd 087d 9abc e838 803b 441e 02bd
000001d0: cc6e d9bc 49ef 693d 9a3c a33c b002 eabb
000001e0: e400 cbbc 1c6d 3bbc 984f 4abd 8097 e7bc
000001f0: b45e 253c a0da a6bc 77ec 513d 9a92 a73c
00000200: f07d 1dbc e191 043d dc5e 55bd 5894 90bc
00000210: 007b cf3a a6ba 16bd 2efd c43c bcd3 76bc
00000220: 1e61 c1bc 5735 57bd cc4b e1bc 60ac 06bd
00000230: efab 5b3d 195c 59bd 001d 06b9 c0ac 7cba
00000240: 6061 4ebb 7043 6dbc 5868 9fbc fc0e 1dbd
00000250: a2f1 cdbc ef23 423d c413 adbc c90d 573d
00000260: 5c82 edbc cabb fc3c 80e3 d5b9 39ec 65bd
00000270: b7d4 0c3d e945 423d a2f0 f9bc 4ca7 6a3c
00000280: 2ef5 a63c ecf8 66bc cb27 233d f30b 63bd
00000290: debe be3c 388e c5bc c072 95ba 4a91 c5bc
000002a0: 1312 203d d080 bbbb 18f8 69bc ff0e 063d
000002b0: 28b2 d5bb 42d2 a0bc 14e6 013c 1f5b 0d3d
000002c0: cb32 68bd ffb9 193d 8c92 d7bc b050 363b
000002d0: 9bbc 103d a40c 7f3c f854 a63b fa9e c9bc
000002e0: e862 f4bc cefb 4ebd 1cfc 5dbc a82a ab3b
000002f0: fb20 2a3d e00b c5ba 7ce5 03bd d4eb dabc
00000300: abf7 5d3d 28ed d7bc 6829 10bc a126 493d
00000310: e2b9 e83c d46f 413c 5a66 b63c 7818 b43b
00000320: 7a7f 08bd 022d 25bd 2407 253c a0b4 08bb
00000330: ed1e 673d 24b3 70bd b893 a9bc e00c 42bd
00000340: 44aa cabc 324a 1fbd 13fe 553d 8e70 e2bc
00000350: 50cb 37bd 0e2a a0bc 5a6e e73c 4cc7 723c
00000360: 8895 2cbc b112 4a3d 3077 63bb 284f 8c3b
00000370: f071 56bc bd9b 543d d725 063d d8c1 21bd
00000380: 34e7 0e3c 3290 23bd 3924 433d 0643 babc
00000390: 706f bdbb 4a47 64bd 8128 183d 3850 f23b
000003a0: 6ab1 eb3c b915 113d d239 debc 1218 933c
000003b0: 1833 e2bb 4ce2 11bd 60cb 5bbd 0724 4abd
000003c0: 747b 03bd d7e0 553d 10b8 37bc d804 e23b
000003d0: bf88 52bd c737 093d 5650 15bd 90c4 e7bb
000003e0: 20d6 22bc 40b2 73ba fcb6 1bbd f6df ddbc
000003f0: 6ef6 bebc a897 22bd 328b de3c 6e5a ddbc

bias f4 [64]
0.050586227 0.05522352 -0.004869044 0.003547579 0.01476891 0.053024117 0.043715272 0.046477977
-0.038234103 -0.044750415 -0.01607953 -0.024642896 0.049480807 0.046687443 -0.042095423 0.049321737
-0.025565982 -0.010944083 0.030429874 0.052859213 0.0017041378 -0.0455442 -0.046408147 0.028607745
0.0356885 -0.042833276 -0.046480663 0.025330443 -0.023543797 0.0064674877 0.037265155 -0.032868177
0.021443527 -0.05201757 -0.02712173 -0.057253502 -0.032644935 0.057192918 -0.024705969 -0.027853517
-0.032661125 -0.056376968 0.05656759 0.009471986 0.021230232 0.008440156 0.012197178 0.0025061779
-0.00026827306 -0.04955852 -0.027282435 0.014370706 -0.04390771 -0.03174425 0.04302677 0.025443044
-0.015600242 0.023035835 -0.012409318 0.037193257 -0.031022659 -0.037975997 0.050519597 0.040840324
00000000: 8133 4f3d 0f32 623d 808c 9fbb 807e 683b
00000010: 4cf9 713c d12f 593d c90e 333d b15f 3e3d
00000020: 5d9b 1cbd 364c 37bd 38b9 83bc e6df c9bc
00000030: 63ac 4a3d 553b 3f3d 406c 2cbd 9705 4a3d
00000040: c06f d1bc d04e 33bc 1248 f93c e782 583d
00000050: 605d df3a 8e8c 3abd 7816 3ebd ca5a ea3c
00000060: 1b2e 123d f271 2fbd 8262 3ebd ca81 cf3c
00000070: ecde c0bc 38ed d33b 59a3 183d c8a0 06bd
00000080: 56aa af3c 6010 55bd 642e debc a682 6abd
00000090: b2b6 05bd 1f43 6a3d 2c64 cabc 0f2d e4bc
000000a0: acc7 05bd 89eb 66bd 6bb3 673d 6430 1b3c
000000b0: 06eb ad3c 9448 0a3c acd6 473c b03e 243b
000000c0: 00a7 8cb9 e0fd 4abd 6a7f dfbc 1c73 6b3c
000000d0: 92d8 33bd 4206 02bd d73c 303d ee6d d03c
000000e0: 2898 7fbc a6b5 bc3c 7450 4bbc f557 183d
000000f0: 3b23 febc b88c 1bbd a3ed 4e3d 2f48 273d

weight f4 [64, 32, 3, 3]
-0.045468967 0.009688158 0.009918731 -0.012468528 0.032997947 -0.0026386604 -0.047597393 -0.025352158
-0.036200307 -0.046139576 -0.023125969 -0.045993507 0.03901245 -0.032352284 0.057136256 0.04960196
-0.008265473 -0.030148048 -0.019434277 0.03799611 0.018115569 -0.030779485 0.05365045 -0.04942299
-0.042657338 0.0049122535 -0.0089236945 -0.04954742 0.008881737 0.039101962 0.044695493 -0.019201007
0.055218045 0.0020393394 -0.025607813 -0.036699966 -0.02923474 -0.050910603 -0.048496734 -0.0040341206
-0.014331855 -0.013585269 0.055676322 0.004935246 -0.048647705 -0.028921546 0.049240377 0.0030505396
0.024382588 -0.048127003 -0.035729326 -0.026388142 0.0506637 -0.04846794 -0.010410693 0.030770328
0.017881218 -0.02168936 0.046963435 0.030750278 -0.058345597 0.053325403 -0.0502374 -0.042746942
0.03846818 0.0034770928 -0.004053671 0.006247323 0.027546752 0.05054221 -0.030692613 0.03199667
-0.024203002 0.007531401 0.049404602 -0.0133055225 -0.010819167 -0.053069197 0.009440307 0.037185844
-0.03147861 -0.04076744 0.057685915 0.05175801 0.023416389 -0.0056884065 -0.0037115514 0.014614712
0.013502497 0.05286998 -0.010186147 0.05506168 -0.032288812 0.04497141 0.05604158 0.054444294
0.0027593113 0.050586205 -0.05448803 0.057526078 0.018589068 -0.015156563 0.025218908 -0.03449813
-0.008127943 -0.00088864565 0.015635278 0.037201796 0.055040274 -0.022409689 0.008543942 0.02143168
0.015477892 0.02933133 0.02279811 -0.041193858 0.0041731484 -0.054672785 -0.05499367 0.032377478
0.022481825 -0.03448777 0.029927898 -0.026828352 -0.01949808 -0.00595684 -0.042960696 -0.03387218
0.03361841 -0.056105394 -0.033028167 0.04401576 -0.045702286 0.037333895 0.049707044 0.015403505
-0.0191321 0.01830766 -0.024122614 -0.057504337 0.02610502 0.03239357 -0.025068425 0.052856866
0.008883636 -0.05413314 -0.027187716 -0.0060026944 0.044594552 0.004223276 0.0071652345 0.03806783
0.054258887 0.046593864 0.04638442 0.030842368 0.010050226 -0.038945865 -0.03542567 0.016343419
0.032726895 -0.03561894 0.022763867 -0.031871587 -0.022052474 0.02969313 -0.015586551 -0.0010557994
-0.020696674 0.00781044 -0.032194406 -0.02344327 0.027416173 0.05260187 0.008931655 -0.04933536
-0.047532246 0.012852315 -0.051892318 0.04626401 -0.054367874 -0.030326596 0.013800275 0.029401299
-0.019133285 0.053374182 -0.017191581 0.016809072 -0.031710543 0.017018992 -0.058040306 0.025110949
-0.0018537082 0.045723986 0.032213215 0.039305065 0.0130894445 -0.025669228 -0.053394157 0.021013778
0.010342356 -0.05493487 -0.049527153 0.012722407 -0.04278548 -0.02517609 0.026080552 0.0110837035
0.037595693 0.04016682 0.044142086 0.053420674 0.03636213 0.016641375 -0.040670685 -0.029755907
-0.02116444 -0.028276622 0.0057853647 0.037967246 0.047550883 0.018371258 -0.050371006 0.005668197
-0.03014106 0.030985955 0.0044780187 -0.04547479 -0.05468419 -0.013190925 0.012913335 -0.027251787
-0.028995374 0.04090869 -0.018985588 0.034373183 0.045104753 0.010596048 -0.005401835 -0.040262435
0.00033585355 0.024139825 0.05364952 0.0060309954 -0.0037680902 0.045668628 -0.04516173 0.012772452
-0.016315423 -0.033349924 0.036855098 -0.0057128146 0.00025248155 -0.0046091527 0.015142132 -0.04423779
00000000: ab3d 3abd 14bb 1e3c 2c82 223c cc48 4cbc
00000010: db28 073d 60ed 2cbb 7cf5 42bd 54af cfbc
00000020: c646 14bd dafc 3cbd ac72 bdbc b063 3cbd
00000030: 85cb 1f3d d483 04bd b507 6a3d 6d2b 4b3d
00000040: e86b 07bc 0af9 f6bc a234 9fbc cfa1 1b3d
00000050: 1a67 943c 4225 fcbc 93c0 5b3d c36f 4abd
00000060: 76b9 2ebd f8f6 a03b b034 12bc 3cf2 4abd
00000070: b484 113c 6129 203d 9f12 373d 6e4b 9dbc
00000080: 512c 623d 70a6 053b 7ac7 d1bc b452 16bd
00000090: b27d efbc a387 50bd 83a4 46bd a830 84bb
000000a0: 28d0 6abc c094 5ebc db0c 643d d8b7 a13b
000000b0: d142 47bd e1ec ecbc 47b0 493d 90eb 473b
000000c0: febd c73c d220 45bd ea58 12bd f22b d8bc
000000d0: bd84 4f3d 5286 46bd 9c91 2abc 0e12 fc3c
000000e0: a27b 923c e2ad b1bc bb5c 403d 02e8 fb3c
000000f0: cbfb 6ebd bd6b 5a3d bbc5 4dbd 6b17 2fbd
00000100: cf90 1d3d f0df 633b a8d4 84bb 58b6 cc3b
00000110: baa9 e13c 5905 4f3d 136f fbbc f10e 033d
00000120: 6045 c6bc f8c9 f63b 7b5c 4a3d 68ff 59bc
00000130: e042 31bc 165f 59bd 84ab 1a3c 2f50 183d
00000140: b7ef 00bd c2fb 26bd 1148 6c3d 3500 543d
00000150: bad3 bf3c d065 babb 803d 73bb 8c72 6f3c
00000160: 9439 5d3c 318e 583d cce3 26bc 5b88 613d
00000170: 4641 04bd f133 383d db8b 653d fb00 5f3d
00000180: 90d5 343b 7b33 4f3d d72e 5fbd 77a0 6b3d
00000190: 1a48 983c 3c53 78bc e297 ce3c e94d 0dbd
000001a0: 102b 05bc 00f4 68ba 8e15 803c e960 183d
000001b0: e971 613d 8694 b7bc e4fb 0b3c 7e91 af3c
000001c0: fc96 7d3c 4248 f03c 1ac3 ba3c e4ba 28bd
000001d0: e8be 883b 92f0 5fbd 0b41 61bd 3f9e 043d
000001e0: ce2b b83c 0c43 0dbd 5a2b f53c 22c7 dbbc
000001f0: 70ba 9fbc 9831 c3bb 8ef7 2fbd 8ebd 0abd
00000200: 75b3 093d c5ce 65bd 8b48 07bd df49 343d
00000210: 5232 3bbd 6deb 183d 9d99 4b3d fc5e 7c3c
00000220: ecba 9cbc f2f9 953c ca9c c5bc ab89 6bbd
00000230: 32da d53c 1faf 043d 4c5c cdbc 7180 583d
00000240: ac8c 113c b6ba 5dbd c6b8 debc 40b2 c4bb
00000250: c7a8 363d 6863 8a3b 58ca ea3b 03ed 1b3d
00000260: 913e 5e3d 35d9 3e3d 97fd 3d3d 22a9 fc3c
00000270: b4a9 243c b385 1fbd 821a 11bd a2e2 853c
00000280: a30c 063d 2ae5 11bd 4a7b ba3c c88b 02bd
00000290: 64a7 b4bc 023f f33c bc5e 7fbc c062 8aba
000002a0: 128c a9bc b8ee ff3b 48de 03bd 1a0c c0bc
000002b0: e297 e03c 0f75 573d 1456 123c e013 4abd
000002c0: 2cb1 42bd 8492 523c 0a8d 54bd 557f 3d3d
000002d0: d9b0 5ebd 7b6f f8bc 8c1a 623c feda f03c
000002e0: 68bd 9cbc e39e 5a3d 5cd5 8cbc 2eb3 893c
000002f0: eae2 01bd 6a6b 8b3c acbb 6dbd 7ab5 cd3c
00000300: 20f8 f2ba 1349 3b3d 01f2 033d 59fe 203d
00000310: 1c75 563c 4648 d2bc d5b3 5abd 1625 ac3c
00000320: fc72 293c 6303 61bd fcdc 4abd a471 503c
00000330: d43f 2fbd 163e cebc e2a6 d53c 6c98 353c
00000340: f1fd 193d f785 243d 55ce 343d a3cf 5a3d
00000350: 75f0 143d 7e53 883c 4e96 26bd a9c2 f3bc
00000360: 0c61 adbc 60a4 e7bc 2893 bd3b 8b83 1b3d
00000370: b7c4 423d 527f 963c d451 4ebd 48bc b93b
00000380: 62ea f6bc 42d6 fd3c 58bc 923b c643 3abd
00000390: 87fc 5fbd c01e 58bc 7492 533c 243f dfbc
000003a0: b587 edbc df8f 273d aa87 9bbc e5ca 0c3d
000003b0: c3bf 383d 0c9b 2d3c e001 b1bb 39ea 24bd
000003c0: 8015 b039 e2c0 c53c 99bf 5b3d a89f c53b
000003d0: 10f2 76bb 070f 3b3d 82fb 38bd 8c43 513c
000003e0: eca7 85bc ee99 08bd 5ff5 163d 9032 bbbb
000003f0: 805f 8439 6008 97bb b416 783c af32 35bd

bias f4 [32]
-0.021689113 0.035800423 0.04737016 -0.013930712 0.017526869 -0.046630383 0.027545135 0.00097026303
-0.0029927231 0.050656576 -0.04592397 0.022410411 -0.01698532 0.014096808 0.00015559047 0.05883832
0.05198699 -0.01721495 0.010041829 -0.023169171 0.031224798 -0.01270989 -0.006254066 0.02407958
0.0015051775 0.0037545152 0.0091153495 -0.016018141 0.03453545 0.008579362 -0.0039265975 0.034958962
00000000: 5ead b1bc 77a3 123d 3707 423d a43d 64bc
00000010: 8294 8f3c 80ff 3ebd 56a6 e13c 4059 7e3a
00000020: 9021 44bb 457d 4f3d c61a 3cbd 0a96 b73c
00000030: cc24 8bbc 4cf6 663c 0026 2339 7300 713d
00000040: 4ff0 543d 5e06 8dbc 7c86 243c 46cd bdbc
00000050: 26cb ff3c 243d 50bc e8ee ccbb 8a42 c53c
00000060: 6049 c53a 500e 763b 8c58 153c 7a38 83bc
00000070: 0b75 0d3d 7490 0c3c b0aa 80bb 2131 0f3d

weight f4 [32, 1, 3, 3]
-0.012767047 0.064671874 0.076208085 -0.15300772 -0.18368706 0.13338396 -0.12448859 -0.037852794
0.030710489 0.045082837 -0.054881424 -0.16455214 0.21841308 0.052687496 -0.06745377 -0.21120512
0.011625767 -0.25006616 -0.28330776 0.013991505 -0.16733186 0.16754481 -0.0008637011 0.11800906
0.105689526 0.2051619 0.21045151 0.10773337 0.24230066 -0.22514102 -0.24555215 -0.2495765
-0.122086495 -0.3177733 0.19187835 0.27308694 0.14163908 0.016171426 0.23582646 0.221643
4.3720007e-05 -0.30417797 -0.06489149 0.11858833 -0.30527982 -0.20505087 0.2465848 -0.20010309
-0.022287369 0.04646814 0.2917994 0.0005968511 -0.29040372 0.041977793 0.20396146 -0.17396688
-0.044691652 -0.03794387 0.32803002 0.24017802 -0.045312554 0.064110905 0.30763534 -0.24955964
-0.20938861 -0.29973352 -0.26118657 -0.03484389 -0.24752474 -0.20294008 0.28639296 0.10276869
-0.13288128 0.17599806 -0.08741078 0.2522125 0.311901 0.10651514 0.3231555 0.25028184
0.17139688 -0.071068615 0.22644475 0.028430909 -0.13270804 0.2359648 -0.23417687 0.11091116
-0.26768172 0.19753036 0.010093242 0.272496 0.08108184 -0.25356925 -0.010332614 -0.22723012
0.019235998 -0.058348775 -0.03025186 0.07628989 -0.21927683 0.115847915 -0.29406962 0.12261975
-0.025970906 -0.068715185 0.18273678 -0.13357565 0.044090718 0.061116934 0.16084257 -0.10768215
0.19325456 -0.22888665 -0.33069998 0.20357844 0.07118988 0.13648519 -0.020553619 -0.0137684345
0.14904189 0.3184468 -0.20333087 -0.04090467 0.052563936 -0.029614419 0.21451685 0.14314917
0.2349244 -0.103637576 -0.100601956 -0.12681048 -0.083482385 -0.022843331 0.33254555 0.07739863
0.28793457 0.22664204 0.27034667 0.14540085 0.1563766 -0.077260256 0.035473734 -0.08859345
0.28604403 -0.14447889 -0.22600064 0.3059148 -0.07258451 -0.17843303 -0.07270908 0.256713
-0.28038132 -0.20072901 -0.002635032 0.26294497 0.086818784 -0.31253713 0.11514738 -0.23485053
0.2953367 -0.24326019 -0.038371295 -0.21705246 0.1039609 0.23739794 0.11202547 -0.1282016
0.1006929 0.13347831 -0.20123832 0.1368419 0.10448852 0.20487264 -0.17965898 -0.29303238
0.11609945 -0.023821712 0.08675745 0.31081352 0.11664817 -0.2705962 -0.17909694 0.16907689
0.30196115 0.2186673 -0.18573582 -0.0042726994 0.15782544 0.31983462 -0.10539043 0.32882074
-0.10239467 0.2905663 0.1427108 0.23568049 -0.17313382 -0.27760062 0.30480418 0.2174755
-0.2982627 0.037950844 0.21414056 -0.025613993 0.06559649 -0.018592805 -0.15898947 0.32854846
0.092075974 -0.21007979 -0.031653047 -0.31146526 -0.19456777 0.11649433 0.090823025 0.1875464
0.089607984 0.2443997 0.28117225 -0.09252378 0.17193243 -0.2735028 0.24139765 -0.065104455
0.19151977 -0.3291279 -0.043818086 0.16481116 0.007609248 0.09806299 0.025509119 -0.16770618
-0.28131908 -0.0015944242 -0.23765902 0.12832752 0.16898713 -0.22284245 0.26797006 -0.3238668
0.13311815 0.23798308 -0.2562436 -0.17696223 0.11664018 0.26141223 -0.27350923 -0.009171277
0.25908914 0.14489946 -0.32434818 -0.100652024 0.08647588 -0.16225915 -0.23456483 0.16404954
00000000: e02c 51bc b072 843d fc12 9c3d 0eae 1cbe
00000010: 7618 3cbe ce95 083e e0f3 febd 880b 1bbd
00000020: 9094 fb3c c8a8 383d 58cb 60bd 5b80 28be
00000030: aea7 5f3e d8ce 573d 3425 8abd 2846 58be
00000040: 007a 3e3c ac08 80be b70d 91be a03c 653c
00000050: 0b59 2bbe de90 2b3e 006a 62ba bcae f13d
00000060: c073 d83d f615 523e 9a80 573e 50a3 dc3d
00000070: aa1d 783e 5e8b 66be 0672 7bbe fb90 7fbe
00000080: 7c08 fabd 2fb3 a2be c27b 443e 0dd2 8b3e
00000090: d609 113e f079 843c 7e7c 713e 62f6 623e
000000a0: 0060 3738 37bd 9bbe d4e5 84bd 70de f23d
000000b0: a34d 9cbe dbf8 51be ba80 7c3e d3e7 4cbe
000000c0: 0094 b6bc 6055 3e3d bb66 953e 0076 1c3a
000000d0: ccaf 94be e8f0 2b3d 46db 503e 6024 32be
000000e0: 980e 37bd 086b 1bbd 8df3 a73e 3af1 753e
000000f0: a899 39bd 944c 833d 6182 9d3e 908c 7fbe
00000100: f869 56be ac76 99be 3fba 85be 78b8 0ebd
00000110: 2077 7dbe 86cf 4fbe 19a2 923e 6478 d23d
00000120: 0812 08be d638 343e 6c04 b3bd ff21 813e
00000130: 7db1 9f3e 9c24 da3d a374 a53e f124 803e
00000140: aa82 2f3e 6c8c 91bd 22e1 673e f0e7 e83c
00000150: 9ee4 07be c2a0 713e 10cc 6fbe 6425 e33d
00000160: 940d 89be 6645 4a3e 205e 253c 9984 8b3e
00000170: 3c0e a63d d4d3 81be 204a 29bc 03af 68be
00000180: d094 9d3c 20ff 6ebd c0d2 f7bc e03d 9c3d
00000190: 1b8a 60be ac41 ed3d 4b90 96be 1020 fb3d
000001a0: f0c0 d4bc 8cba 8cbd 5a1f 3b3e 0ec8 08be
000001b0: 7898 343d c055 7a3d eab3 243e 7688 dcbd
000001c0: 86e4 453e 4361 6abe 8251 a9be de76 503e
000001d0: 00cc 913d c6c2 0b3e 1060 a8bc 0095 61bc
000001e0: 709e 183e 750b a33e f835 50be a88b 27bd
000001f0: 484d 573d f099 f2bc 4eaa 5b3e b295 123e
00000200: 0690 703e f03f d4bd 6608 cebd 9bda 01be
00000210: d0f8 aabd f021 bbbc 6943 aa3e 2c83 9e3d
00000220: 296c 933e da14 683e e16a 8a3e f6e3 143e
00000230: 3021 203e a03a 9ebd e84c 113d 7c70 b5bd
00000240: 5d74 923e 46f2 13be b66c 67be dda0 9c3e
00000250: 30a7 94bd 26b7 36be 80e8 94bd e36f 833e
00000260: 248e 8fbe e88b 4dbe 80b0 2cbb b9a0 863e
00000270: 0cce b13d de04 a0be 64d2 eb3d a87c 70be
00000280: 5f36 973e 3319 79be 382b 1dbd 0043 5ebe
00000290: 74e9 d43d 7218 733e 9c6d e53d 4847 03be
000002a0: 1438 ce3d 8aae 083e 6b11 4ebe 4820 0c3e
000002b0: 14fe d53d 22ca 513e 86f8 37be 5708 96be
000002c0: 8cc5 ed3d c025 c3bc e4ad b13d f322 9f3e
000002d0: 3ce5 ee3d 968b 8abe 3065 37be 7e22 2d3e
000002e0: a79a 9a3e 52ea 5f3e 8831 3ebe 0002 8cbb
000002f0: fe9c 213e 5dc1 a33e f0d6 d7bd 315b a83e
00000300: 4cb4 d1bd 1bc5 943e c822 123e 3a56 713e
00000310: fe49 31be ab21 8ebe 4b0f 9c3e e6b1 5e3e
00000320: e3b5 98be 5872 1b3d aa47 5b3e 70d4 d1bc
00000330: 7457 863d f04f 98bc 23ce 22be 8137 a83e
00000340: 5492 bc3d 281f 57be a0a6 01bd 6078 9fbe
00000350: c63c 47be 9494 ee3d 6c01 ba3d 2a0c 403e
00000360: 6484 b73d ea43 7a3e cff5 8f3e 1c7d bdbd
00000370: 0e0f 303e 8f08 8cbe f230 773e 7c55 85bd
00000380: c21d 443e 7483 a8be 987a 33bd 42c4 283e
00000390: 0057 f93b 40d5 c83d 80f8 d03c 2bbb 2bbe
000003a0: 0e09 90be 00fc d0ba e35c 73be 4a68 033e
000003b0: f60a 2d3e d030 64be 5f33 893e dfd1 a5be
000003c0: 2050 083e d6b1 733e 5c32 83be 9635 35be
000003d0: 0ce1 ee3d d3d7 853e 6709 8cbe 2043 16bc
000003e0: 55a7 843e 8660 143e f710 a6be a622 cebd
000003f0: 441a b13d 4327 26be c331 70be 9afc 273e
