models/0.pt (torch, 837012 bytes, 17 tensors)

weight f4 [32, 1, 3, 3]
-0.058133 0.0015826592 0.07312192 -0.2592401 0.17631206 -0.21690916 0.266927 -0.24210902
-0.25028422 0.034693398 0.17787895 -0.095293224 -0.13290177 0.14670154 0.106518365 0.2792658
-0.08484877 -0.23594488 -0.18275476 0.11195786 -0.29275233 0.14935537 0.21190445 0.2537818
0.13098647 -0.10449787 -0.14518155 -0.18522407 0.32580104 -0.05572787 -0.08869075 -0.099946305
0.26308447 0.24826585 -0.037199855 0.1931083 0.32768813 -0.10400624 -0.102418326 0.30202684
0.17221875 -0.078479074 0.30017492 0.14164878 0.027726425 0.31567928 0.30062413 -0.14240868
0.07270657 -0.120727435 0.2015068 -0.13438919 -0.22045167 0.22513086 -0.109467916 0.02888589
0.32080078 -0.22831957 -0.068259254 0.12141234 0.15275992 -0.3246433 0.058744363 0.09808028
0.12918966 0.21358937 -0.16012785 0.33133325 0.07643962 -0.09435156 0.07338792 -0.17985281
-0.206229 -0.2274549 -0.17387359 0.17620188 -0.11110508 -0.26624852 0.23487316 -0.2965345
-0.006922549 0.27443227 0.20493895 -0.18437096 0.3078987 0.23833847 0.33229223 -0.12795775
-0.008481752 -0.29010528 -0.3194932 0.117557235 0.04020208 0.17536096 -0.11174888 0.15864661
0.31818923 -0.30795842 0.254443 0.08601562 -0.032392528 0.15635765 0.28749645 -0.2446825
-0.271584 -0.054440275 -0.09646826 0.1440395 0.021125158 -0.19209561 -0.2613143 0.17763841
-0.237721 0.010270756 0.12555654 -0.2494111 -0.28566322 0.31468308 0.24306309 -0.07284926
-0.22426741 -0.291371 -0.21136431 0.25677398 -0.21890013 -0.19931823 -0.27023458 0.20553468
-0.29005906 0.23714007 -0.22263792 0.27263945 -0.28211725 0.17352848 -0.23691839 -0.053365402
0.3170035 0.015054585 0.30763006 -0.21164653 -0.3348088 0.019252168 0.2993611 -0.06808432
-0.28766295 0.18743591 0.02980032 0.0006012947 -0.15655015 -0.30354857 0.31151876 0.068442546
0.03914452 0.31501 -0.24638917 -0.2388622 0.082208455 0.120200135 0.06919518 -0.16937575
0.24504025 0.31303155 0.09808249 0.3100405 0.00084958586 0.10665606 0.22294992 -0.1355231
0.25492823 0.2156433 -0.086489595 -0.13199307 -0.15933782 -0.17999564 0.32398066 -0.13121863
0.17029668 -0.31198773 -0.1083672 0.0097818365 -0.1196933 -0.22736967 -0.03325526 0.29095894
0.21216717 0.30500153 -0.21251725 0.10021949 0.10797573 0.18701182 0.19502576 -0.1723406
-0.07351722 0.26040182 -0.018097559 -0.04105583 0.17268099 0.021776456 0.054095574 -0.31838197
-0.09697451 0.14133479 -0.1046881 0.08914693 0.29404306 0.2266331 0.30270734 0.16649151
-0.06469483 -0.14594951 -0.22696815 0.10207119 -0.33013442 0.21161605 0.10005534 -0.07094151
0.09246579 -0.1051862 -0.1576658 -0.298185 -0.10420593 -0.114953145 0.027835503 0.2915329
-0.14447969 0.23309962 0.13661607 0.037830047 -0.26687765 -0.17796667 0.23272163 -0.307029
0.20121944 -0.17974076 0.06965696 0.19130723 -0.22759576 0.25329685 0.16322038 -0.19893865
0.005564985 -0.23848607 0.050354082 0.2157839 0.14161755 -0.24942212 -0.05413751 -0.27454853
0.19248106 -0.104437925 0.064328 -0.22650129 -0.10161857 -0.22521678 -0.28773236 0.32209733
00000000: de1c 6ebd 3b71 cf3a f2c0 953d 1ebb 84be
00000010: 268b 343e 6f1d 5ebe a8aa 883e 6deb 77be
00000020: 4125 80be aa1a 0e3d e625 363e 1829 c3bd
00000030: 6717 08be ee38 163e 4d26 da3d edfb 8e3e
00000040: 31c5 adbd 899b 71be 1024 3bbe 2a4a e53d
00000050: a2e3 95be 9df0 183e 7bfd 583e b0ef 813e
00000060: 5121 063e fb02 d6bd 79aa 14be 61ab 3dbe
00000070: 65cf a63e e842 64bd 7fa3 b5bd a6b0 ccbd
00000080: 02b3 863e 6739 7e3e e05e 18bd 2fbe 453e
00000090: bdc6 a73e 3901 d5bd b3c0 d1bd 43a3 9a3e
000000a0: 1d5a 303e a3b9 a0bd 87b0 993e 610c 113e
000000b0: 8722 e33c b7a0 a13e 68eb 993e 95d3 11be
000000c0: 2fe7 943d f23f f7bd cc57 4e3e 529d 09be
000000d0: 15be 61be b488 663e b730 e0bd 1aa2 ec3c
000000e0: 0040 a43e 9bcc 69be 82cb 8bbd 08a7 f83d
000000f0: 196d 1c3e a637 a6be ee9d 703d 50de c83d
00000100: 4b4a 043e 2cb7 5a3e 8ef8 23be 83a4 a93e
00000110: 608c 9c3d 643b c1bd 684c 963d 562b 38be
00000120: b22d 53be f0e9 68be eb0b 32be 446e 343e
00000130: 0f8b e3bd ba51 88be 9782 703e 5fd3 97be
00000140: 8dd6 e2bb 6382 8c3e 84db 513e becb 3cbe
00000150: e6a4 9d3e 000f 743e 3522 aa3e 5b07 03be
00000160: 0cf7 0abc ae88 94be 9d94 a3be d9c1 f03d
00000170: f0aa 243d d391 333e 99dc e4bd 4274 223e
00000180: b3e9 a23e baac 9dbe 5a46 823e f528 b03d
00000190: 07ae 04bd 381c 203e bc32 933e 0d8e 7abe
000001a0: 0f0d 8bbe c4fc 5ebd 2791 c5bd 177f 133e
000001b0: ab0e ad3c b6b4 44be fdca 85be d8e6 353e
000001c0: 226d 73be ac46 283c e591 003e a065 7fbe
000001d0: 7342 92be 241e a13e 88e5 783e fe31 95bd
000001e0: 5ba6 65be 942e 95be e36f 58be e177 833e
000001f0: 5b27 60be 141a 4cbe 305c 8abe af77 523e
00000200: 9f82 94be d9d4 723e 32fb 63be 6697 8b3e
00000210: ac71 90be 73b1 313e bc9a 72be ae95 5abd
00000220: 484e a23e 82a7 763c b081 9d3e deb9 58be
00000230: 0f6c abbe b9b6 9d3c dc45 993e cb6f 8bbd
00000240: 8f48 93be 33ef 3f3e cd1f f43c 34a0 1d3a
00000250: af4e 20be b86a 9bbe 637f 9f3e 9b2b 8c3d
00000260: 0156 203d fe48 a13e 714d 7cbe 4b98 74be
00000270: e85c a83d 7d2b f63d 34b6 8d3d d670 2dbe
00000280: d5eb 7a3e ac45 a03e 79df c83d a1bd 9e3e
00000290: beb6 5e3a 7e6e da3d fc4c 643e 91c6 0abe
000002a0: f485 823e 99d1 5c3e 7521 b1bd 3129 07be
000002b0: 7429 23be c750 38be cbe0 a53e 2d5e 06be
000002c0: 4162 2e3e dbbc 9fbe 9fef ddbd ff43 203c
000002d0: c321 f5bd 98d3 68be ab36 08bd 92f8 943e
000002e0: 5a42 593e 2929 9c3e 1f9e 59be e03f cd3d
000002f0: 6122 dd3d 0780 3f3e d5b4 473e 0e7a 30be
00000300: 3290 96bd 6353 853e 5541 94bc 282a 28bd
00000310: 49d3 303e 8a64 b23c 5293 5d3d f602 a3be
00000320: 929a c6bd 11ba 103e b766 d6bd aa92 b63d
00000330: d08c 963e 8212 683e 75fc 9a3e c07c 2a3e
00000340: b97e 84bd ca73 15be 576a 68be b30a d13d
00000350: 6107 a9be e1b1 583e d0e9 cc3d c849 91bd
00000360: b45e bd3d dd6b d7bd 2573 21be b4ab 98be
00000370: eb69 d5bd 8e6c ebbd 4807 e43c cd43 953e
00000380: 7cf2 13be abb1 6e3e 15e5 0b3e aef3 1a3d
00000390: 30a4 88be e53c 36be 944e 6e3e e832 9dbe
000003a0: 780c 4e3e f60d 38be 4fa8 8e3d 0be6 433e
000003b0: dd0e 69be 20b0 813e 3e23 273e 93b6 4bbe
000003c0: 7a5a b63b b135 74be 1540 4e3d 74f6 5c3e
000003d0: 3104 113e 8368 7fbe 4bbf 5dbd a091 8cbe
000003e0: c119 453e 8de3 d5bd 66be 833d f4ef 67be
000003f0: 661d d0bd 3a9f 66be a851 93be f1e9 a43e

bias f4 [32]
0.04032436 0.08992013 0.07798376 -0.30530274 0.31408903 -0.045427945 -0.033762407 0.20714858
0.29059213 -0.031155588 -0.14806043 0.2899098 0.03712108 0.21991183 0.11890269 0.2971525
-0.08596985 -0.04458237 -0.051098347 0.18426579 -0.25135934 -0.092107035 0.038245387 0.14777051
0.13414761 0.087786436 0.05527618 -0.008645438 -0.2123547 -0.10683126 -0.06518677 0.057151582
00000000: 282b 253d 0c28 b83d f3b5 9f3d a450 9cbe
00000010: 47d0 a03e a712 3abd 734a 0abd c21e 543e
00000020: 7ec8 943e 013a ffbc 279d 17be 0f6f 943e
00000030: 460c 183d 9130 613e 4183 f33d 5f24 983e
00000040: f610 b0bd 019c 36bd 804c 51bd 2cb0 3c3e
00000050: 2cb2 80be 9da2 bcbd 32a7 1c3d 2751 173e
00000060: fe5d 093e 60c9 b33d 4769 623d 98a5 0dbc
00000070: 8373 59be 59ca dabd a480 85bd c717 6a3d

weight f4 [64, 32, 3, 3]
0.04560894 0.02412133 -0.0033419174 -0.043075826 0.018680325 0.027513431 -0.044902377 -0.03273878
0.03227723 -0.025815513 -0.024769684 0.040590208 0.015903011 -0.01307156 -0.0406702 0.031417653
0.015276702 0.00516269 -0.045353536 -0.037521522 -0.0133162895 0.012961853 0.00095700234 -0.017333841
-0.06071478 0.03219196 0.019498741 0.00044652133 -0.026696134 -0.044023458 0.014978845 -0.05035629
-0.0006716207 -0.013298786 0.054352928 0.01210444 0.0038122793 0.023939675 -0.056105435 -0.05768785
-0.053014 -0.013186985 -0.057538133 -0.007561794 0.034554053 0.0029759752 0.0206761 -0.028884225
0.013498736 0.038391586 0.039308254 0.04190931 0.049655426 0.05325311 0.04068926 -0.050694294
-0.036608513 -0.03696738 -0.0030865434 -0.04099975 0.038959775 0.022597054 0.00024258043 -0.05639341
-0.047273006 -0.025024395 -0.03454188 -0.04538669 0.02258018 0.031018658 0.020109545 -0.04549901
0.017041618 0.014671324 -0.04942333 0.022159534 -0.022217328 -0.019283943 -0.006592857 -0.0044740415
-0.046008073 0.05551659 -0.025747018 -0.005245695 0.034017254 -0.026802048 -0.017755434 -0.049928
0.024391608 -0.03765173 -0.058416292 -0.013489896 -0.005271088 -0.016726537 0.02548256 -0.040220194
-0.027154747 0.006541458 -0.03741699 -0.015093046 -0.010839227 0.05292434 -0.011571129 0.0024779977
0.03564026 0.00219187 -0.023163328 0.021161824 -0.04533589 0.05560827 0.05608634 -0.049686965
-0.041523147 0.037318956 -0.007980497 -0.043231424 -0.026613386 -0.045082774 -0.009412453 -0.04925615
-0.0009818585 0.047085717 0.0048875003 -0.003012034 0.029399043 0.051587366 -0.00046332 -0.05464662
0.049242806 0.013725548 -0.04133572 0.05039529 -0.054479957 0.048908535 0.02556888 -0.028073829
0.010097084 -0.023207271 -0.0104570985 -0.031195119 -0.016919324 -0.047415968 8.7937835e-05 -0.03938328
-0.020357337 -0.014867768 0.05524431 -0.007078613 -0.017502211 0.016597906 -0.030529989 0.032182224
-0.04356138 -0.046254445 -0.020250035 0.025848972 0.009320079 -0.0047601513 -0.053044166 -0.017273782
0.048647873 -0.012627793 -0.047906287 0.032151733 0.023499925 0.018211653 -0.042518545 -0.020464035
-0.02776534 0.00252028 0.01563151 -0.036308378 0.00016190823 0.03996177 0.01714196 0.05236939
0.048834603 -0.035732996 0.036489002 -0.05898693 -0.049563907 -0.04637414 0.05681555 -0.008339796
-0.013681423 -0.0063186726 0.02570214 -0.054491855 -0.037159346 0.016602809 0.024857339 -0.023734767
-0.043873355 -0.05403051 -0.029294861 0.022647934 -0.0336553 0.049728796 0.048486352 -0.046473514
-0.006908905 0.04139674 0.051895987 0.028924402 -0.0036329767 0.053365387 -0.05012558 0.040747013
-0.022092404 0.0014590581 0.004791205 0.023765005 -0.03592321 -0.03804623 0.039777543 0.037895408
0.01852402 -0.03849343 -0.024655297 -0.054145385 -0.03445865 0.02260011 0.044168398 -0.02887871
0.048073914 0.055521235 -0.051134586 -0.011523114 -0.04616659 -0.0027889519 0.047322232 0.057487864
0.004997418 -0.0541395 -0.0051168585 -0.031229971 0.002207696 -0.040034287 -0.046567764 0.056604672
-0.042635657 -0.022729207 0.028589884 0.033427317 0.009273146 0.050724607 0.014532927 0.028720466
-0.044110186 0.034213543 -0.04219687 0.025930112 0.05111259 0.0019626138 0.025428627 -0.03409654
00000000: 71d0 3a3d 189a c53c 1204 5bbb 4770 30bd
00000010: 7b07 993c d963 e13c 8eeb 37bd 1919 06bd
00000020: 2135 043d 0e7b d3bc cbe9 cabc eb41 263d
00000030: 0847 823c 192a 56bc cc95 26bd ccaf 003d
00000040: 224b 7a3c c82b a93b a1c4 39bd 2bb0 19bd
00000050: 912c 5abc f45d 543c 57df 7a3a b3ff 8dbc
00000060: 10b0 78bd b7db 033d d3bb 9f3c 141b ea39
00000070: dab1 dabc f151 34bd d469 753c 6642 4ebd
00000080: b40f 30ba 27e3 59bc 2da1 5e3d b351 463c
00000090: 6fd7 793b 231d c43c d0ce 65bd 184a 6cbd
000000a0: 3525 59bd 390e 58bc 1bad 6bbd edc8 f7bb
000000b0: 8d88 0d3d 9408 433b ed60 a93c 9c9e ecbc
000000c0: cd29 5d3c 7f40 1d3d b101 213d 19a9 2b3d
000000d0: 7d63 4b3d ef1f 5a3d c8a9 263d d2a4 4fbd
000000e0: cff2 15bd 1c6b 17bd 9b47 4abb 5bef 27bd
000000f0: 4994 1f3d 751d b93c 305d 7e39 c7fc 66bd
00000100: 57a1 41bd f6ff ccbc c97b 0dbd 65e7 39bd
00000110: 12fa b83c d71a fe3c c6bc a43c 2b5d 3abd
00000120: dd9a 8b3c fe5f 703c 1e70 4abd e987 b53c
00000130: 1d01 b6bc 5cf9 9dbc e508 d8bb fb9a 92bb
00000140: f672 3cbd 5d65 633d 69eb d2bc 14e4 abbb
00000150: ad55 0b3d f88f dbbc d873 91bc 4d81 4cbd
00000160: e9d0 c73c b338 1abd ec45 6fbd ba04 5dbc
00000170: 17b9 acbb 1706 89bc cdc0 d03c eebd 24bd
00000180: a273 debc ba59 d63b 8f42 19bd d348 77bc
00000190: 0397 31bc 31c7 583d d594 3dbc e765 223b
000001a0: 85fb 113d 7aa5 0f3b 05c1 bdbc 905b ad3c
000001b0: 20b2 39bd 7fc5 633d caba 653d 8f84 4bbd
000001c0: 2d14 2abd c3db 183d a1c0 02bc 6f13 31bd
000001d0: 5104 dabc b7a8 38bd b036 1abc d1c0 49bd
000001e0: b4b1 80ba f4dc 403d 5327 a03b 8c65 45bb
000001f0: 43d6 f03c 464d 533d c2e9 f2b9 22d5 5fbd
00000200: d3b2 493d 1fe1 603c a54f 29bd 4b6b 4e3d
00000210: 6026 5fbd 5154 483d d475 d13c 16fb e5bc
00000220: 3d6e 253c 2d1d bebc 4054 2bbc e88c ffbc
00000230: 659a 8abc 3f37 42bd 446b b838 5d50 21bd
00000240: 6ec4 a6bc f097 73bc dc47 623d b6f3 e7bb
00000250: cc60 8fbc 55f8 873c 071a fabc 82d1 033d
00000260: 6b6d 32bd 4d75 3dbd 67e3 a5bc 39c1 d33c
00000270: 3fb3 183c 0bfb 9bbb d744 59bd bf81 8dbc
00000280: fe42 473d cde4 4ebc 6239 44bd 89b1 033d
00000290: ea82 c03c 9b30 953c ed27 2ebd 31a4 a7bc
000002a0: 2374 e3bc 482b 253b a70d 803c 18b8 14bd
000002b0: e9c5 2939 f4ae 233d 4c6d 8c3c 4981 563d
000002c0: cb06 483d c35c 12bd 7e75 153d 479c 71bd
000002d0: 8603 4bbd cff2 3dbd 6cb7 683d a4a3 08bc
000002e0: 0c28 60bc de0c cfbb 4b8d d23c da32 5fbd
000002f0: 6634 18bd 9d02 883c 9ea1 cb3c 6a6f c2bc
00000300: 8cb4 33bd 194f 5dbd c7fb efbc 2988 b93c
00000310: 24da 09bd 6cb0 4b3d a099 463d 035b 3ebd
00000320: 1964 e2bb a18f 293d e390 543d def2 ec3c
00000330: 3c17 6ebb aa95 5a3d 7b50 4dbd 57e6 263d
00000340: 21fb b4bc de3d bf3a 8aff 9c3b d4ae c23c
00000350: 3724 13bd 5dd6 1bbd c7ed 223d 3738 1b3d
00000360: b0bf 973c 49ab 1dbd e8f9 c9bc 8dc7 5dbd
00000370: 8324 0dbd de23 b93c ece9 343d 0b93 ecbc
00000380: 27e9 443d 3c6a 633d 8072 51bd 71cb 3cbc
00000390: 2e19 3dbd d9c6 36bb f5d4 413d 6578 6b3d
000003a0: 61c1 a33b 61c1 5dbd 52ab a7bb ffd5 ffbc
000003b0: feae 103b fefa 23bd d7bd 3ebd 4dda 673d
000003c0: baa2 2ebd 9a32 babc 5535 ea3c 15eb 083d
000003d0: 65ee 173c 9bc4 4f3d 841b 6e3c 2f47 eb3c
000003e0: e2ac 34bd 8023 0c3d a0d6 2cbd 636b d43c
000003f0: 6f5b 513d 329f 003b b24f d03c d0a8 0bbd

bias f4 [64]
0.0134853 0.043032717 -0.0025591895 -0.03333081 0.05201377 0.042833533 -0.036169365 -0.0063645826
-0.05151702 0.01070788 0.059063457 -0.01462408 -0.050385244 0.04188079 0.028597089 0.03709735
-0.0032324716 0.016879713 0.014080394 0.031576287 -0.04729061 -0.04043942 -0.03604156 0.053823266
-0.034539167 0.015588352 0.056354426 -0.043298338 0.02212019 -0.058459427 -0.0016963817 -0.031418566
0.047230005 -0.048418842 -0.037099857 -0.0573733 0.03721436 0.015300437 0.005272482 0.049121313
0.032327004 0.011839006 -0.032628745 0.017109474 0.036800414 0.059092343 -0.04176337 -0.019541975
-0.03377528 0.051604673 -0.04724231 0.03593925 0.05964811 0.030313076 0.00638327 0.049668524
0.025580326 0.037710167 0.025534112 -0.04948831 -0.02763261 0.03559479 -0.005921354 0.054903414
00000000: 73f1 5c3c 1343 303d 13b8 27bb e385 08bd
00000010: 640c 553d 3772 2f3d 5426 14bd fd8d d0bb
00000020: 8303 53bd 1b70 2f3c 86ec 713d d699 6fbc
00000030: c260 4ebd 318b 2b3d 7144 ea3c 64f3 173d
00000040: e0d7 53bb 5347 8a3c 74b1 663c 2356 013d
00000050: ccb3 41bd cea3 25bd 51a0 13bd c975 5c3d
00000060: f178 0dbd 4a66 7f3c e6d3 663d 9959 31bd
00000070: 6735 b53c 2773 6fbd 2059 deba c1b0 00bd
00000080: 4074 413d d652 46bd 05f6 17bd 4400 6bbd
00000090: 166e 183d afae 7a3c c9c4 ac3b 6e33 493d
000000a0: 5269 043d 64f8 413c b8a5 05bd 2b29 8c3c
000000b0: 08bc 163d d00a 723d 1110 2bbd 7e16 a0bc
000000c0: f357 0abd 6c5f 533d 2781 41bd 0935 133d
000000d0: 9451 743d 2153 f83c c02a d13b 3971 4b3d
000000e0: d58d d13c fa75 1a3d ea2c d13c 41b4 4abd
000000f0: c95d e2bc d8cb 113d eb07 c2bb 67e2 603d

weight f4 [128, 64, 3, 3]
-0.03933948 0.013939428 -0.03211428 -0.02028718 0.023666143 -0.025354749 -0.024474205 0.03878387
-0.020511037 -0.026580751 -0.01819141 0.03894059 -0.007220316 -0.027940448 -0.03293154 -0.02853941
0.026204055 0.03364824 -0.034480434 -0.015244171 0.039238546 -0.008401851 -0.010790293 0.011123067
0.0022938175 0.02566753 -0.03829176 0.016972456 -0.014223413 0.026031008 0.0314858 -0.014113659
-0.026104493 -0.03300852 0.032251626 0.035939526 0.010641081 -0.0140333185 -0.023741031 -0.03266212
0.025272163 0.03776723 0.0062300423 -0.035898987 0.040856395 0.019682057 0.042274673 -0.027294187
0.00631639 0.03623506 -0.0038028804 0.0157534 0.032317746 -0.023671718 -0.0020608283 -0.0066983737
-0.01954396 -0.029777108 -0.029375695 -0.025842983 0.038939007 0.012668665 0.040339727 0.04182326
-0.010400818 0.031547643 0.007434002 0.010364057 -0.0037397298 0.023975916 0.030574773 -0.03817719
-0.041692033 0.019162407 0.02701621 -0.03149846 -0.042196207 0.020603677 -0.03366161 0.027774189
0.027064059 -0.040239792 -0.03839471 -0.03417715 0.006277175 0.03523302 -0.010839081 0.03147697
-0.038031343 -0.035208695 -0.009781701 -0.014931976 0.017973637 0.0025377045 -0.018400168 0.006372751
-0.024957573 -0.012602363 0.0073221563 -0.028036432 0.025158934 -0.021396495 -0.037811957 0.040508687
-0.03550945 -0.018563412 0.0037965507 -0.0054540015 0.0050823307 -0.0062012323 -0.012953623 -0.022023957
0.00036850155 0.036889948 -0.025234109 0.008159789 0.025776388 0.012592646 0.018606668 -0.013458915
0.011019289 -0.015051603 0.01814297 0.04170386 -0.02379756 0.014427746 0.005674166 0.016408315
0.040735196 0.04398292 0.018830232 0.0076731937 0.023332965 0.0054632593 0.02273685 0.032878853
-0.020767748 0.02613415 -0.037105504 -0.034007963 -0.019096848 -0.040408086 -0.013321642 0.022052847
-0.021288032 -0.015075128 -0.008926334 0.037937295 0.034208823 0.022210976 -0.032573912 -0.004431397
0.0012623766 -0.011133765 -0.03170656 0.021150552 0.036105778 -0.018052883 0.028132161 -0.029420786
-0.03631969 0.008418159 0.009859246 0.009823809 0.01876589 -0.024119554 -0.012613816 0.0046327687
-0.0010155021 -0.024396308 -0.015436306 0.014459305 0.010763689 -0.01872577 0.028035697 0.035392568
-0.0064424165 0.03152703 0.028414397 -0.029055838 0.000975435 -0.02754488 -0.012438672 -0.013856064
-0.024914933 -0.0028801109 -0.0017233517 -0.03410124 -0.008365491 0.037184678 -0.0008077 0.032250043
-0.0054237833 -0.021503888 -0.022841772 -0.028689869 -0.015550246 0.0309552 -0.0032157397 0.009843576
0.0211502 -0.0015846717 0.0049759406 0.024472142 0.017555866 -0.03464432 -0.020990184 -0.0361112
0.02382617 -0.00045460585 -0.024929594 -0.037569717 -0.024227485 0.029806731 0.010721814 0.012222129
-0.0072923354 -0.023109887 0.035395987 0.013161004 0.04035313 0.029112604 0.019178128 0.022593018
-0.021152377 0.023923777 0.00074830744 0.04047733 -0.0070413533 0.005010814 -0.030151617 -0.004756817
0.0011781139 0.009229313 -0.009144787 -0.018443685 -0.038248293 -0.038541995 -0.013740866 0.012217072
-0.004001139 0.02872563 0.016693497 -0.008544177 0.031209642 0.0030172837 -0.022517342 0.0133407535
-0.00055273424 -0.0033911215 0.016597625 -0.018463379 0.023667762 0.0044341963 0.0032192112 -0.020624176
00000000: 6f22 21bd 3362 643c 438a 03bd 4d31 a6bc
00000010: 80df c13c c3b4 cfbc 217e c8bc d6db 1e3d
00000020: c306 a8bc e0bf d9bc 2706 95bc 2b80 1f3d
00000030: 6798 ecbb 5ee3 e4bc 39e3 06bd 7bcb e9bc
00000040: e3a9 d63c bdd2 093d 5b3b 0dbd b0c2 79bc
00000050: 99b8 203d eba7 09bc c5c9 30bc 863d 363c
00000060: df53 163b b644 d23c d2d7 1cbd d209 8b3c
00000070: 5109 69bc fb3e d53c 41f7 003d fa3c 67bc
00000080: 17d9 d5bc f133 07bd 481a 043d 5335 133d
00000090: ee57 2e3c 01ec 65bc 8d7c c2bc b7c8 05bd
000000a0: 9107 cf3c d0b1 1a3d 6225 cc3b d10a 13bd
000000b0: 0959 273d 443c a13c 3528 2d3d 0f98 dfbc
000000c0: b8f9 ce3b 376b 143d bf39 79bb 460d 813c
000000d0: 9d5f 043d 31eb c1bc f60e 07bb 087e dbbb
000000e0: a81a a0bc 1fef f3bc 4ca5 f0bc aab4 d3bc
000000f0: 827e 1f3d 3b90 4f3c 453b 253d de4e 2b3d
00000100: 3168 2abc 1a38 013d ee98 f33b 01ce 293c
00000110: 4116 75bb 2469 c43c f277 fa3c af5f 1cbd
00000120: 44c5 2abd 7bfa 9c3c 1951 dd3c 8704 01bd
00000130: eed5 2cbd 0bc9 a83c c2e0 09bd b286 e33c
00000140: 72b5 dd3c 7bd2 24bd c543 1dbd 57fd 0bbd
00000150: c3b0 cd3b 8050 103d 6796 31bc ffed 003d
00000160: c1c6 1bbd fe36 10bd 6d43 20bc 3fa5 74bc
00000170: 733d 933c 9e4f 263b f3bb 96bc 83d2 d03b
00000180: d373 ccbc 247a 4ebc b3ee ef3b a9ac e5bc
00000190: 1c1a ce3c b447 afbc b6e0 1abd 70ec 253d
000001a0: 5b72 11bd 4c12 98bc 8dcf 783b 7bb7 b2bb
000001b0: ae89 a63b b533 cbbb 6f3b 54bc 966b b4bc
000001c0: 7133 c139 ea19 173d c3b7 cebc a3b0 053c
000001d0: 0129 d33c 6351 4e3c 036d 983c c882 5cbc
000001e0: 3f8a 343c 009b 76bc 91a0 943c abd1 2a3d
000001f0: 1af3 c2bc 5a62 6c3c 5bee b93b bb6a 863c
00000200: f3d9 263d 6f27 343d dc41 9a3c 6a6f fb3b
00000210: c624 bf3c 2405 b33b a142 ba3c faab 063d
00000220: 2021 aabc 4917 d63c f1fb 17bd ef4b 0bbd
00000230: fe70 9cbc f382 25bd 0443 5abc 2ca8 b43c
00000240: 3d64 aebc abfd 76bc c23f 12bc 2364 1b3d
00000250: 8d1e 0c3d cbf3 b53c 396c 05bd 4135 91bb
00000260: 5476 a53a 656a 36bc bdde 01bd ec43 ad3c
00000270: a7e3 133d a4e3 93bc 6b75 e63c dc03 f1bc
00000280: f5c3 14bd 51ec 093c ad88 213c 0bf4 203c
00000290: ecba 993c 5f96 c5bc 2eaa 4ebc 7bce 973b
000002a0: 991a 85ba c4da c7bc 8fe8 7cbc b9e6 6c3c
000002b0: 2f5a 303c c966 99bc 1eab e53c ccf7 103d
000002c0: e81a d3bb 7d22 013d 4fc5 e83c 8206 eebc
000002d0: 56b4 7f3a cda5 e1bc 92cb 4bbc 8b04 63bc
000002e0: 671a ccbc 3ec0 3cbb 16e2 e1ba bead 0bbd
000002f0: 6a0f 09bc f64e 183d d4bb 53ba 9f18 043d
00000300: feb9 b1bb ec28 b0bc ab1e bbbc 0407 ebbc
00000310: 76c6 7ebc c295 fd3c 29bf 52bb f346 213c
00000320: 2f43 ad3c c2b4 cfba 370d a33b cd79 c83c
00000330: 52d1 8f3c 34e7 0dbd 9bf3 abbc 56e9 13bd
00000340: 1a2f c33c 2a58 eeb9 2639 ccbc b4e2 19bd
00000350: b878 c6bc 3f2d f43c 8caa 2f3c 533f 483c
00000360: 8bf4 eebb f250 bdbc 62fb 103d 40a1 573c
00000370: 5349 253d 8e7d ee3c 731b 9d3c fe14 b93c
00000380: c047 adbc ccfb c33c 102a 443a 8fcb 253d
00000390: 27bb e6bb c131 a43b 8600 f7bc 13df 9bbb
000003a0: f16a 9a3a 8b36 173c 04d4 15bc 3617 97bc
000003b0: 3eaa 1cbd 36de 1dbd 5f21 61bc 1d2a 483c
000003c0: fd1b 83bb 0352 eb3c cdc0 883c e0fc 0bbc
000003d0: 5dab ff3c 9fbd 453b 4a76 b8bc 2d93 5a3c
000003e0: 5ee5 10ba 943d 5ebb bef7 873c 8340 97bc
000003f0: e5e2 c13c bc4c 913b 67f9 523b 08f4 a8bc

bias f4 [128]
0.003206527 0.0024744815 0.0013803291 0.013089807 -0.038919628 -0.028158573 -0.033473663 -0.033732805
-0.0149719175 0.041141246 0.017066889 -0.032748066 -0.030037206 -0.0041345074 -0.039715644 -0.013518162
-0.009545393 -0.0009706252 -0.024011193 0.021373123 -0.009783902 0.0048851906 0.015341169 -0.029299786
0.010687438 0.003848646 -0.026280176 0.030281605 0.008260127 -0.033144213 -0.017337477 -0.03016084
-0.003394078 -0.024868904 -0.013102186 -0.027024435 0.012383347 -0.03267217 -0.01622964 0.033791125
-0.006856955 0.00207523 -0.03676315 -0.037993833 0.043306094 -0.01001271 -0.018960215 -0.029240731
-0.0019267268 -0.03128026 0.025918184 0.0136695625 -0.0061867046 -0.030114533 0.010615906 0.030928502
-0.0011089824 -0.0030105123 -0.005634536 -0.0317213 0.009645224 0.008971248 -0.011726801 -0.015273384
-0.016954625 -0.032493122 0.037340343 -0.014465261 -0.0050798347 -0.04304255 0.027567819 -0.011042313
-0.01605539 -0.03743546 -0.006604353 0.009953017 -0.017412972 0.027244693 0.001018679 0.020589303
0.007128532 0.0041189347 0.032203913 0.035097547 0.015002045 -0.00095966057 0.03626052 -0.014433446
0.014352166 -0.02295112 0.03806498 -0.03904317 0.037221655 -0.0056466768 -0.042509492 -0.026312942
-0.01853131 -0.017675482 0.007218272 -0.028648797 -0.031156793 -0.04221785 0.0032545533 0.01182676
-0.034364082 -0.035975315 0.035452936 0.036811575 -0.04132706 0.019749478 -0.015412392 0.03194882
-0.009183041 -0.009083491 -0.0351972 -0.039956696 -0.009424374 -0.0020174359 -0.020615702 0.03764362
0.033350203 -0.0016431643 0.015434447 0.031899247 -0.014227545 -0.033751544 0.028551888 -0.021030087
00000000: 9924 523b e92a 223b 29ec b43a a176 563c
00000010: 306a 1fbd cfac e6bc ae1b 09bd 692b 0abd
00000020: c64c 75bc b983 283d dccf 8b3c d622 06bd
00000030: 9610 f6bc c37a 87bb dfac 22bd 487b 5dbc
00000040: 4864 1cbc 8e71 7eba 1fb3 c4bc b016 af3c
00000050: a94c 20bc f313 a03b 8759 7b3c 1b06 f0bc
00000060: 5d1a 2f3c 9139 7c3b 8649 d7bc 2111 f83c
00000070: 7c55 073c 3ac2 07bd 5307 8ebc de13 f7bc
00000080: 2e6f 5ebb dfb9 cbbc 8daa 56bc 5962 ddbc
00000090: 86e3 4a3c 41d3 05bd 06f4 84bc 9068 0a3d
000000a0: 4fb0 e0bb 9500 083b f594 16bd 6c9f 1bbd
000000b0: bb61 313d 590c 24bc 7452 9bbc 428a efbc
000000c0: 398a fcba bb1f 00bd 5f52 d43c 4df6 5f3c
000000d0: d7b9 cabb c1b2 f6bc 56ee 2d3c c55d fd3c
000000e0: 465b 91ba 044c 45bb eaa1 b8bb 32ee 01bd
000000f0: 0007 1e3c 24fc 123c c521 40bc 373d 7abc
00000100: 6de4 8abc 8217 05bd 30f2 183d b4ff 6cbc
00000110: be74 a6bb 634d 30bd e8d5 e13c d1ea 34bc
00000120: 9886 83bc ed55 19bd 5469 d8bb fb11 233c
00000130: a6a5 8ebc 4330 df3c 3285 853a e6aa a83c
00000140: 7696 e93b 21f8 863b 40e8 033d 72c2 0f3d
00000150: 23cb 753c bb91 7bba e985 143d 437a 6cbc
00000160: 5925 6b3c fd03 bcbc 06ea 1b3d bbeb 1fbd
00000170: bc75 183d c207 b9bb 6f1e 2ebd 3d8e d7bc
00000180: f9ce 97bc 2ccc 90bc 4187 ec3b e2b0 eabc
00000190: 883c ffbc a0ec 2cbd 584a 553b 07c5 413c
000001a0: 5ac1 0cbd da5a 13bd 1937 113d bcc7 163d
000001b0: 9046 29bd a8c9 a13c 4284 7cbc c4dc 023d
000001c0: 7774 16bc ecd2 14bc f02a 10bd a2a9 23bd
000001d0: b168 1abc f536 04bb 43e2 a8bc 3230 1a3d
000001e0: 399a 083d 725f d7ba c3e0 7c3c c9a8 023d
000001f0: a61a 69bc 0f3f 0abd a6e5 e93c 4a47 acbc

weight f4 [128, 64, 3, 3]
0.005274198 -0.00021804242 0.0024610732 0.0040744497 0.019869637 0.03590592 -0.0014269423 0.020123022
-0.0058616037 0.019873977 -0.020869872 -0.0093601765 0.02946955 -0.020013886 0.028782893 -0.041039
-0.005250273 0.02142265 0.025972987 -0.029105453 -0.024552954 0.0053025163 -0.032874618 0.0014756154
0.004628901 0.022014864 -0.016402572 -0.009624685 -0.016511384 0.016487064 0.022808684 -0.029469246
-0.031841863 0.0037783436 0.0337432 0.015775697 -0.024326898 -0.0070627956 0.0061233384 0.029632654
-0.011529269 0.034016404 -0.028577155 -0.0364081 -0.022965727 0.015883243 0.042744447 -0.022957392
-0.007515943 0.018499464 -0.03408759 0.03214769 0.04176871 -0.0038153557 -0.025298422 0.0144383265
-0.003348912 0.03551822 0.014615883 0.03936947 -0.036941312 0.029230915 -0.030238485 -0.03064895
-0.0071197706 -0.035652116 0.010247256 -0.02359679 -0.0086464835 0.029570041 0.025708856 0.02010864
-0.0121523775 0.036843486 0.03935009 0.031807724 0.010209416 -0.037003834 0.02702738 0.02737888
-0.0075889532 -0.041436654 0.032094326 0.0059200497 0.007654776 -0.009916559 0.014251689 -0.034262624
0.0048594214 0.025471138 0.034947813 -0.0018480798 0.0024990046 -0.03992965 -0.020925118 -0.04253328
0.027666014 0.045905482 0.019757632 -0.0071422104 -0.005939615 0.0054364624 0.037478976 0.016954703
-0.011688925 0.009427135 0.01876526 0.028380549 -0.018974409 -0.023075389 0.036542688 -0.037082035
0.03805628 -0.035436265 0.032959644 -0.0110057695 -0.0011639101 0.0029023713 0.018446757 -0.023791697
-0.018667499 0.015455789 -0.030691583 0.003126538 -0.013114628 0.013326339 0.00800357 -0.021857861
0.029212806 -0.022326041 -0.002975667 -0.027077293 0.039089575 0.014413074 0.037208892 -0.03403398
0.00048441722 0.023070725 0.012420796 -0.010862394 -0.013227527 -0.02471819 -0.024711272 0.04133035
-0.013095309 0.008193793 -0.02571679 -0.008603379 -0.01825248 0.013691016 0.01626234 -0.019732278
-0.0137713635 -0.024916578 -0.023473436 0.038475737 0.005921739 -0.012984806 -0.036078732 0.020215735
0.011045023 -0.014376466 -0.0010169173 0.026593883 -0.018582746 0.018954633 0.0010498797 -0.015121077
-0.04066001 -0.014657086 -0.028731013 -0.0064078737 -0.029122813 0.009729871 0.032585967 0.024681995
0.025038945 -0.012175332 -0.018190626 0.037054576 -0.00020561136 0.015242028 0.004402392 -0.0072530387
0.035739772 0.010063754 -0.05184293 0.0494218 -0.03549713 0.003925719 0.012485017 0.017752051
0.008077653 -0.030693801 -0.003006575 0.03420496 -0.012783375 -0.007812865 -0.029134475 -0.006067658
0.0045521776 -0.035956375 0.008411905 -0.00781494 0.0070336573 0.030857535 0.039376706 -0.0059017367
0.02353115 0.038348064 -0.040836457 0.02695603 0.0341831 0.025534347 0.0052047847 0.025079617
-0.009479768 0.030898139 0.016874846 0.018768856 0.0053015547 -0.0028406035 -0.037057463 0.038228203
-0.023048831 -0.018933514 -0.01107446 -0.0009663263 0.0049816947 -0.030047601 0.024973983 -0.018517531
0.035787575 -0.03428951 0.037959665 -0.03514059 0.029412903 0.035420842 0.017131029 -0.029215142
-0.008369798 -0.029166507 -0.02936877 -0.012709662 -0.040382236 -0.035937853 0.031044303 0.018327191
0.008916093 0.03492155 -0.010221469 -0.016637959 0.004064961 -0.002280558 0.04120942 -0.023337591
00000000: 2ed3 ac3b 51a2 64b9 f549 213b f682 853b
00000010: a6c5 a23c 1612 133d 3d08 bbba 09d9 a43c
00000020: b212 c0bb c0ce a23c 4bf7 aabc 6d5b 19bc
00000030: 206a f13c 29f4 a3bc 1aca eb3c 8318 28bd
00000040: 7b0a acbb 8e7e af3c 4dc5 d43c 8f6e eebc
00000050: 4723 c9bc bbc0 ad3b 89a7 06bd 7069 c13a
00000060: 09ae 973b 8458 b43c b05e 86bc dbb0 1dbc
00000070: e242 87bc e10f 873c 47d9 ba3c 7d69 f1bc
00000080: 9d6c 02bd 169e 773b 4f36 0a3d 093c 813c
00000090: 3449 c7bc 066f e7bb 49a6 c83b 2ec0 f23c
000000a0: 42e5 3cbc c954 0b3d a31a eabc a920 15bd
000000b0: 9f22 bcbc 931d 823c cd14 2f3d 2411 bcbc
000000c0: 4d48 f6bb 308c 973c 6e9f 0bbd 4cad 033d
000000d0: ab15 2b3d 0c0b 7abb a33e cfbc bb8e 6c3c
000000e0: 6c79 5bbb 8e7b 113d 7577 6f3c e241 213d
000000f0: c64f 17bd ac75 ef3c b3b6 f7bc 8213 fbbc
00000100: f74c e9bb f407 12bd 1be4 273c 0e4e c1bc
00000110: fba9 0dbc df3c f23c 619b d23c e0ba a43c
00000120: c41a 47bc 32e9 163d 8f2d 213d d148 023d
00000130: 6545 273c 5591 17bd 8668 dd3c ac49 e03c
00000140: c1ac f8bb 7bb9 29bd 5775 033d fafc c13b
00000150: ead4 fa3b 1079 22bc eb7f 693c f756 0cbd
00000160: c83b 9f3b d9a8 d03c 7025 0f3d 453b f2ba
00000170: 57c6 233b 468d 23bd 276b abbc 6037 2ebd
00000180: d6a3 e23c 6307 3c3d c2da a13c 3409 eabb
00000190: 1aa1 c2bb 5a24 b23b 8e83 193d 97e4 8a3c
000001a0: e882 3fbc 4574 1a3c 9ab9 993c 537e e83c
000001b0: 3870 9bbc 9908 bdbc c9ad 153d 55e3 17bd
000001c0: e7e0 1b3d 9e25 11bd b100 073d 8b51 34bc
000001d0: 588e 98ba b635 3e3b a71d 973c cee6 c2bc
000001e0: 95ec 98bc 473a 7d3c ea6c fbbc 9ae6 4c3b
000001f0: bdde 56bc b856 5a3c 6821 033c 420f b3bc
00000200: b24f ef3c 1ae5 b6bc 6803 43bb 33d1 ddbc
00000210: 641c 203d d024 6c3c 5a68 183d 3767 0bbd
00000220: 61f9 fd39 d1fe bc3c 9880 4b3c 2ff8 31bc
00000230: 45b8 58bc cd7d cabc 4b6f cabc 034a 293d
00000240: b58d 56bc 423f 063c 05ac d2bc 30f5 0cbc
00000250: 3a86 95bc 4850 603c 9938 853c 96a5 a1bc
00000260: 49a1 61bc da1d ccbc 5d4b c0bc bc98 1d3d
00000270: 260b c23b 39be 54bc 4bc7 13bd 789b a53c
00000280: 2ff6 343c 458b 6bbc 154a 85ba 6adb d93c
00000290: d83a 98bc bf46 9b3c 1e9c 893a 65be 77bc
000002a0: 1c8b 26bd 4624 70bc 4d5d ebbc 24f9 d1bb
000002b0: f792 eebc 096a 1f3c dd78 053d e531 ca3c
000002c0: 791e cd3c 0b7b 47bc 8204 95bc 8ac6 173d
000002d0: 6199 57b9 b3b9 793c f141 903b e6aa edbb
000002e0: de63 123d 72e2 243c 4159 54bd 836e 4a3d
000002f0: 7065 11bd 51a3 803b f58d 4c3c c06c 913c
00000300: 2258 043c 9171 fbbc f509 45bb 801a 0c3d
00000310: 5c71 51bc 8801 00bc 6cab eebc 34d3 c6bb
00000320: 6f2a 953b fe46 13bd 16d2 093c 3c0a 00bc
00000330: 987a e63b f1c8 fc3c 7849 213d 5b63 c1bb
00000340: 66c4 c03c dc12 1d3d 2144 27bd e4d2 dc3c
00000350: 9403 0c3d 682d d13c e68c aa3b c573 cd3c
00000360: 0751 1bbc 181e fd3c 1e3d 8a3c 25c1 993c
00000370: aab8 ad3b 6b29 3abb 91c9 17bd 2d95 1c3d
00000380: e7d0 bcbc 751a 9bbc a771 35bc 0f51 7dba
00000390: 7c3d a33b 6326 f6bc 3d96 cc3c 14b2 97bc
000003a0: fe95 123d 2873 0cbd 987b 1b3d 94ef 0fbd
000003b0: 54f3 f03c 7215 113d 5f56 8c3c 9854 efbc
000003c0: 7a21 09bc 99ee eebc c696 f0bc 303c 50bc
000003d0: d867 25bd 9233 13bd 9f50 fe3c e822 963c
000003e0: ce14 123c e609 0f3d f377 27bc 544c 88bc
000003f0: 5d33 853b 6a75 15bb 35cb 283d 7a2e bfbc

bias f4 [64]
0.01893877 0.016175827 -0.005318064 -0.024163418 -0.042182546 -0.0038677112 -0.042777352 0.011871306
0.0030815636 -0.015345208 0.008759615 -0.016182294 0.031388115 0.02070354 -0.042225033 0.026996356
0.032062486 0.038735572 -0.031444713 0.026644366 0.0018284676 -0.0015107563 0.0225466 -0.009508766
-0.039495133 -0.02994187 -0.0071030003 0.0023422865 0.022010334 0.011978278 -0.023930475 0.0064990893
-0.03138692 0.04285572 -0.0034980525 0.027840588 0.019060582 0.01289033 0.0117325885 -0.023960076
0.0038074611 -0.02668105 0.025202159 0.038457938 -0.026032807 0.006523908 -0.014726723 0.024544014
0.025817879 0.024978878 -0.0076885745 0.032467276 0.019087622 4.9434886e-05 -0.025077563 -0.014024442
0.018502994 0.035416923 0.0013204305 -0.014302002 0.020853372 -0.020517986 -0.000296551 0.035362765
00000000: 7b25 9b3c 2b83 843c 2743 aebb 5cf2 c5bc
00000010: 9bc7 2cbd 6d79 7dbb 4e37 2fbd de7f 423c
00000020: 0ff4 493b 786a 7bbc 7d84 0f3c bb90 84bc
00000030: d390 003d 789a a93c 28f4 2cbd 7627 dd3c
00000040: f453 033d 31a9 1e3d 2ccc 00bd 4945 da3c
00000050: 31a9 ef3a 9204 c6ba a6b3 b83c a8ca 1bbc
00000060: a6c5 21bd a748 f5bc 49c0 e8bb 0c81 193b
00000070: 044f b43c 8a40 443c d809 c4bc 50f6 d43b
00000080: 928f 00bd 7b89 2f3d 953f 65bb f211 e43c
00000090: f024 9c3c f631 533c 0b3a 403c ec47 c4bc
000000a0: 9986 793b 3892 dabc c274 ce3c 1286 1d3d
000000b0: c142 d5bc 82c6 d53b 5a48 71bc 8710 c93c
000000c0: 0480 d33c 81a0 cc3c 70f0 fbbb 68fc 043d
000000d0: a55d 9c3c 4e58 4f38 766f cdbc c6c6 65bc
000000e0: 9793 973c 5611 113d 4c12 ad3a f252 6abc
000000f0: b1d4 aa3c 5615 a8bc 677a 9bb9 8cd8 103d

weight f4 [64, 32, 3, 3]
-0.01594392 0.037913237 0.018879201 -0.019856246 0.052079134 -0.057257444 0.04729453 -0.05382921
-0.049928404 0.0050086724 0.011293912 0.035471417 0.043125406 0.01696332 -0.029620862 -0.02180145
0.02358021 0.009045792 -0.053117536 0.0065029548 0.055093493 0.04214353 -0.053667516 0.033822805
0.05733038 -0.035754588 -0.0044018636 -0.008059825 0.038326025 -0.00570687 0.03225633 0.051081832
-0.037395168 -0.047571573 0.01822933 0.009562113 0.008216939 -0.055447668 -0.029569915 -0.042489573
-0.024947874 0.034334764 -0.013939231 0.043371093 -0.001983301 0.017653354 0.023002364 0.04340602
-0.055691168 -0.02019673 0.0557757 0.02725251 0.013022553 0.019219236 -0.017130412 -0.029863475
0.046856884 -0.0051803794 -0.036396015 -0.00216437 -0.051746182 0.048697673 -0.0066492036 -0.034179956
-0.037786298 0.04287164 0.0024239044 -0.0016976346 0.04349509 -0.009496686 -0.057842914 -0.008199568
0.0024563374 -0.02270767 -0.033034552 0.038866207 0.051700354 0.009514451 -0.05241506 -0.019814076
-0.0293084 -0.016774988 -0.042079892 0.009570882 0.0429539 0.041993644 0.047934312 -0.04710127
-0.020930119 -0.012027545 -0.04794346 -0.017435156 -0.05842972 0.025701541 0.004467821 0.016230423
-0.056737833 0.0034497667 0.013972423 0.0054266313 -0.012834784 0.0350716 -0.014708695 -0.041265085
0.024021007 0.03434983 0.006665055 -0.05247162 0.036037244 -0.029221198 -0.03679915 0.0012656501
-0.04755711 -0.03315239 -0.025397135 -0.054971956 -0.015744107 -0.06380651 -0.02494999 -0.049708635
-0.026983613 0.05136796 0.037797224 0.0134848235 0.010572439 0.022755655 0.05800325 0.008142098
-0.012360252 -0.022301773 -0.003965676 -0.04322645 0.037976265 -0.0116251055 -8.940231e-05 0.03421996
-0.03709534 -0.0034964324 -0.008686857 -0.038210746 -0.028838253 -0.031213168 0.04653877 0.050052818
0.0020619514 0.020004181 -0.0045083496 0.0010745495 0.0062762476 0.03901863 0.041571792 0.053085852
0.0019505471 -0.028596362 0.029984346 -0.016607758 0.029369045 0.012508605 -0.03339592 0.025068188
-0.029650671 -0.02304658 0.051689994 -0.03343536 -0.014681316 0.056402493 -0.03566586 0.0015004352
0.0035943193 0.043876566 -0.03969543 -0.060755838 -0.025311701 0.024323488 0.0025584993 0.03304726
-0.021223929 -0.00315551 0.056768127 0.00062030205 -0.0021441586 -0.015228363 0.027722443 -0.005567136
0.034373518 0.036991812 0.025765875 -0.044101153 0.03241157 -0.017732957 0.0068152156 0.031193048
-0.0033346838 -0.03305886 -0.0017743894 0.011553768 0.055876058 -0.057651557 0.03956938 -0.054177403
0.039347544 -0.04459573 0.026607998 -0.0057168407 0.041335255 -0.01395709 -0.04345655 0.041839536
-0.019425217 -0.02931401 0.020385202 0.02263234 0.041423347 0.021824138 -0.023731224 -0.018817678
-0.00715601 0.00897484 -0.03784673 0.044981018 0.017849188 -0.05367545 -0.047553193 0.020216728
-0.017259702 0.0121822925 0.018331464 0.017625278 -0.036077656 0.054580107 -0.04265284 -0.009786644
0.04452222 -0.027283285 -0.022299139 -0.055789094 -0.007146393 -0.012101502 -0.013903419 -0.05021813
-0.013450885 0.040545043 -0.01795088 -0.022896646 -0.05971378 -0.03576697 -0.050651114 -0.03931424
0.048684653 0.012523202 -0.023656534 0.025892366 -0.047517482 -0.044097427 -0.06034358 -0.044624973
00000000: d39c 82bc e94a 1b3d 8ea8 9a3c 91a9 a2bc
00000010: ee50 553d c886 6abd e9b7 413d 057c 5cbd
00000020: ba81 4cbd ca1f a43b 1a0a 393c 7a4a 113d
00000030: 44a4 303d a9f6 8a3c 73a7 f2bc f498 b2bc
00000040: 492b c13c cd34 143c c691 59bd bd16 d53b
00000050: b7a9 613d b29e 2c3d 78d2 5bbd c889 0a3d
00000060: 43d3 6a3d 6773 12bd 823d 90bb 5b0d 04bc
00000070: c0fb 1c3d b200 bbbb 371f 043d 2f3b 513d
00000080: ad2b 19bd 69da 42bd ad55 953c 69aa 1c3c
00000090: 57a0 063c 181d 63bd 9b3c f2bc 8c09 2ebd
000000a0: 7c5f ccbc 9ca2 0c3d 5f61 64bc e3a5 313d
000000b0: 45fa 01bb c49d 903c 746f bc3c 83ca 313d
000000c0: 6c1c 64bd 9d73 a5bc 0f75 643d a840 df3c
000000d0: 8c5c 553c a971 9d3c 1455 8cbc 3fa4 f4bc
000000e0: 01ed 3f3d 2cc0 a9bb fd13 15bd 1ad8 0dbb
000000f0: cef3 53bd 3677 473d 90e1 d9bb 4800 0cbd
00000100: cec5 1abd 2c9a 2f3d 5eda 1e3b 2a83 deba
00000110: e827 323d fd97 1bbc b1ec 6cbd 7b57 06bc
00000120: 81fa 203b 7005 babc 3d4f 07bd 2c32 1f3d
00000130: c0c3 533d 80e2 1b3c 2db1 56bd 2151 a2bc
00000140: 2b18 f0bc b36b 89bc f75b 2cbd 30cf 1c3c
00000150: 6ef0 2f3d 8701 2c3d c556 443d 43ed 40bd
00000160: a475 abbc 2e0f 45bc 5d60 44bd 2cd4 8ebc
00000170: 0154 6fbd 0a8c d23c cd66 923b aaf5 843c
00000180: ee65 68bd 7b15 623b 97ec 643c e2d1 b13b
00000190: fc48 52bc 3da7 0f3d bdfc 70bc 9405 29bd
000001a0: b4c7 c43c 68b2 0c3d 8966 da3b 7bec 56bd
000001b0: ca9b 133d 4b61 efbc b5ba 16bd 2ce4 a53a
000001c0: 3fcb 42bd cdca 07bd a70d d0bc 462a 61bd
000001d0: c9f9 80bc fdac 82bd ec63 ccbc 489b 4bbd
000001e0: bd0c ddbc 3667 523d 43d1 1a3d 73ef 5c3c
000001f0: 0638 2d3c 116a ba3c d194 6d3d 6f66 053c
00000200: a882 4abc 35b2 b6bc 80f2 81bb 380e 31bd
00000210: 008d 1b3d 3a77 3ebc 807d bbb8 3b2a 0c3d
00000220: 49f1 17bd 6724 65bb 5253 0ebc df82 1cbd
00000230: 333e ecbc c2b2 ffbc 709f 3e3d 2f04 4d3d
00000240: ce21 073b cfdf a33c c7ba 93bb e6d7 8c3a
00000250: fba8 cd3b 00d2 1f3d 2f47 2a3d 8d70 593d
00000260: 80a9 ff3a eb42 eabc bba1 f53c fe0c 88bc
00000270: 5a97 f03c e4f0 4c3c 29ca 08bd cd5b cd3c
00000280: f7e5 f2bc 2ecc bcbc e3b8 533d 84f3 08bd
00000290: e789 70bc 4d06 673d 5d16 12bd 40aa c43a
000002a0: ac8e 6b3b eab7 333d ad97 22bd 1ddb 78bd
000002b0: 7c5a cfbc 0d42 c73c 7fac 273b 905c 073d
000002c0: cedd adbc accc 4ebb b285 683d c49b 223a
000002d0: 0385 0cbb 6280 79bc 2d1a e33c 866c b6bb
000002e0: 3fcb 0c3d ba84 173d f512 d33c 69a3 34bd
000002f0: ffc1 043d b544 91bc 2c52 df3b 9088 ff3c
00000300: b68a 5abb ba68 07bd a192 e8ba 044c 3d3c
00000310: 4bde 643d 0a24 6cbd 8113 223d 20e9 5dbd
00000320: e42a 213d 03aa 36bd 04f9 d93c 5654 bbbb
00000330: 284f 293d 47ac 64bc 7fff 31bd ef5f 2b3d
00000340: a221 9fbc ef23 f0bc defe a63c 7567 b93c
00000350: 87ab 293d 89c8 b23c fc67 c2bc 8827 9abc
00000360: f67c eabb 350b 133c 2c05 1bbd 043e 383d
00000370: 7638 923c cada 5bbd 23c7 42bd 8d9d a53c
00000380: 3864 8dbc 3d98 473c de2b 963c e362 903c
00000390: 2ac6 13bd 648f 5f3d bfb4 2ebd 2958 20bc
000003a0: ee5c 363d 3281 dfbc afac b6bc 1b83 64bd
000003b0: 4a2c eabb 6145 46bc 2acb 63bc 87b1 4dbd
000003c0: 1a61 5cbc 8f12 263d b90d 93bc bf91 bbbc
000003d0: 7096 74bd 6380 12bd 8b77 4fbd f807 21bd
000003e0: 8f69 473d 1e2e 4d3c 59cb c1bc 3a1c d43c
000003f0: b1a1 42bd 819f 34bd d42a 77bd adc8 36bd

bias f4 [32]
-0.03641922 0.0359803 0.007292123 -0.03347659 0.02693006 -0.015115722 -0.035173114 -0.053909376
-0.0129957665 0.015743358 0.04912948 0.027444646 -0.05586312 0.052235674 0.0054592025 -0.008129112
-0.053338278 -0.009961612 0.037852466 -0.026092013 -0.050172757 0.010576075 0.00893019 -0.021340085
0.0025679334 -0.011394976 0.0129896365 -0.017057022 -0.049956754 0.035513457 -0.018604986 -0.058727987
00000000: 522c 15bd 1460 133d c3f2 ee3b c01e 09bd
00000010: 6e9c dc3c efa7 77bc af11 10bd 14d0 5cbd
00000020: 32ec 54bc 37f8 803c fe3b 493d 98d3 e03c
00000030: bad0 64bd 13f5 553d 1ce3 b23b f82f 05bc
00000040: 3d79 5abd 0736 23bc 300b 1b3d ebbe d5bc
00000050: f381 4dbd 4647 2d3c ee4f 123c 67d1 aebc
00000060: c64a 283b feb1 3abc 7cd2 543c 2bbb 8bbc
00000070: 749f 4cbd 8f76 113d 7c69 98bc c28c 70bd

weight f4 [32, 1, 3, 3]
-0.053671237 0.29502305 -0.20108742 -0.1697777 -0.057613887 -0.28306398 0.10677407 0.027678374
-0.0620151 0.09654089 -0.0033492835 0.19492093 -0.16523576 -0.01077616 0.17975214 0.20864145
0.005280575 -0.16000883 -0.23763418 -0.019114623 0.08544087 0.2346623 -0.11321775 0.31068644
0.067523785 0.18011716 -0.14687504 0.077062905 -0.23708813 -0.060961723 -0.21620046 -0.17214419
0.18445846 -0.15826857 0.2638244 -0.2126419 -0.19144763 -0.17308678 0.26764727 0.23571621
0.2793748 -0.046110325 0.20645094 -0.20699137 -0.0022940906 -0.09355113 0.25744733 -0.23437405
0.2635923 0.27169198 0.032897934 0.23735946 0.02592793 -0.26857108 -0.29879853 -0.08965884
-0.32743034 -0.18220957 -0.03677422 0.31559458 -0.07660266 0.32357824 -0.06074011 0.13386427
-0.13737163 -0.2126307 -0.2171155 0.11893224 -0.20904753 -0.10962868 -0.092694886 0.23668405
-0.18520348 -0.2387543 -0.27112293 0.32766008 0.009129782 0.02037369 -0.06119812 -0.13818479
-0.26521575 0.046700083 0.31522697 0.058543727 -0.10925851 0.0043347212 0.3186406 0.18532671
-0.012380297 -0.1563942 0.23472582 -0.20923978 -0.041213524 0.05076046 0.13263726 -0.2415361
0.009867834 -0.21560323 -0.29162565 -0.18174618 0.3305811 0.25652066 -0.22291496 0.21136667
0.28375643 -0.25052318 -0.05077299 -0.2560639 0.27012834 -0.2016482 -0.23964922 0.031084403
-0.14102043 -0.24004023 -0.26192984 -0.2513201 -0.26226535 0.099792995 0.034436934 0.29205486
0.18698579 -0.19705606 0.10174692 0.3059876 -0.22652406 0.19749151 -0.0417965 0.23270935
0.0027026243 0.2830654 0.28134772 -0.22788014 0.09077917 -0.09694926 -0.22966495 0.14663373
0.3242151 0.122158036 0.03291258 0.2570676 0.06722991 0.16924201 0.2683691 0.20529367
0.02095601 0.18644838 0.053916536 0.3148585 0.2174737 -0.04525468 -0.14817041 -0.22919112
0.27785826 0.004834576 0.100728035 -0.09741835 -0.076165006 0.23816036 0.046982586 -0.109613575
-0.21192871 -0.30300373 0.03927614 0.14415824 -0.0840298 0.30970308 -0.26295528 -0.20617227
0.15630922 0.0009839882 0.037689943 -0.07766772 -0.1128143 0.07837081 0.1169062 0.2572296
0.112279356 0.036495354 -0.12134442 -0.027346298 -0.14381106 -0.19987004 -0.21235028 -0.0635261
0.039957747 -0.18264407 0.28047785 0.116141856 -0.12849364 -0.18147646 -0.3149792 0.20563912
0.021821084 -0.27095652 0.20602016 -0.24610826 -0.17550547 0.08851314 -0.31581274 -0.31047136
0.00027254608 -0.27525502 0.2966358 0.26616177 0.043539938 -0.2795274 0.13105212 -0.20214611
-0.17411597 0.1615088 0.15483864 -0.26085526 0.090765044 0.23684257 0.0002963621 0.14899948
0.30218834 0.31701323 -0.2118407 -0.3049624 0.22942603 0.13432223 -0.26922107 0.14566284
0.09213529 0.052903444 -0.06636352 0.15841636 -0.262884 -0.18027547 0.18936555 -0.20893271
-0.11393238 -0.017794847 -0.29449034 0.13649657 -0.3273868 0.21005 -0.23053606 0.046171475
-0.11529205 -0.22129422 -0.0037046997 0.17476727 0.10078072 -0.31685174 -0.0001444321 -0.29281354
-0.24542232 -0.31910092 -0.14038576 0.31822327 -0.24719207 -0.29273617 -0.07267996 -0.09426612
00000000: 5fd6 5bbd 430d 973e dce9 4dbe 35da 2dbe
00000010: 8afc 6bbd c3ed 90be 5dac da3d c2bd e23c
00000020: 8c03 7ebd 3bb7 c53d a77f 5bbb 5a99 473e
00000030: 9033 29be 7e8e 30bc f210 383e 1ba6 553e
00000040: ac08 ad3b 5bd9 23be 6056 73be 4596 9cbc
00000050: 9ffb ae3d 504b 703e b5de e7bd 4b12 9f3e
00000060: e949 8a3d a270 383e 6966 16be 28d3 9d3d
00000070: 3bc7 72be 00b3 79bd a763 5dbe 9146 30be
00000080: aee2 3c3e 2811 22be fe13 873e ccbe 59be
00000090: d90a 44be a93d 31be 1009 893e 975f 713e
000000a0: 370a 8f3e 2ede 3cbd e067 533e 8cf5 53be
000000b0: 7458 16bb bc97 bfbd 23d0 833e c0ff 6fbe
000000c0: 92f5 863e 361b 8b3e fcbf 063d 5c0e 733e
000000d0: cf66 d43c 2682 89be 1ffc 98be 0e9f b7bd
000000e0: f3a4 a7be 2595 3abe 91a0 16bd 9d95 a13e
000000f0: dbe1 9cbd 0cac a53e 9fca 78bd b713 093e
00000100: 26ab 0cbe ddbb 59be 8753 5ebe bf92 f33d
00000110: 8e10 56be 0085 e0bd d1d6 bdbd 4e5d 723e
00000120: fba5 3dbe 027c 74be a0d0 8abe 10c3 a73e
00000130: 1595 153c bae6 a63c e1aa 7abd 5080 0dbe
00000140: 5cca 87be 9648 3f3d 6e65 a13e 8ccb 6f3d
00000150: edc2 dfbd 470a 8e3b dc24 a33e 49c6 3d3e
00000160: bbd6 4abc cd25 20be f75b 703e f442 56be
00000170: 83cf 28bd 33ea 4f3d 10d2 073e 3d55 77be
00000180: b2ac 213c 18c7 5cbe f54f 95be ac1b 3abe
00000190: ed41 a93e ad56 833e d243 64be 8170 583e
000001a0: 8648 913e 9344 80be 57f7 4fbd cf1a 83be
000001b0: 434e 8a3e de7c 4ebe 9b66 75be b8a4 fe3c
000001c0: a967 10be 1bcd 75be ab1b 86be 07ad 80be
000001d0: a547 86be 4560 cc3d be0d 0d3d 3788 953e
000001e0: 3479 3f3e 10c9 49be b060 d03d 68aa 9c3e
000001f0: ecf5 67be 373b 4a3e cf32 2bbd 5c4b 6e3e
00000200: 831e 313b f3ed 903e cf0c 903e 6959 69be
00000210: 6eea b93d 558d c6bd 4a2d 6bbe 2727 163e
00000220: 86ff a53e fe2d fa3d 57cf 063d 5d9e 833e
00000230: d6af 893d c74d 2d3e ad67 893e 8138 523e
00000240: f0ab ab3c 53ec 3e3e 96d7 5c3d 2235 a13e
00000250: 6db1 5e3e f95c 39bd fcb9 17be 14b1 6abe
00000260: 7043 8e3e 5d6b 9e3b 804a ce3d 4683 c7bd
00000270: 66fc 9bbd 4fe0 733e d070 403d 157d e0bd
00000280: d703 59be 4e23 9bbe 05e0 203d 389e 133e
00000290: d117 acbd 6791 9e3e 13a2 86be d31e 53be
000002a0: 860f 203e 2af9 803a c560 1a3d 4110 9fbd
000002b0: 2f0b e7bd e080 a03d 856c ef3d 99b3 833e
000002c0: b8f2 e53d 277c 153d 6c83 f8bd 5805 e0bc
000002d0: 3543 13be bbaa 4cbe 5a72 59be f919 82bd
000002e0: bcaa 233d 0c07 3bbe cb9a 8f3e c8db ed3d
000002f0: d693 03be f7d4 39be f444 a1be 1093 523e
00000300: 21c2 b23c d0ba 8abe f3f6 523e ce03 7cbe
00000310: b5b7 33be 6146 b53d 35b2 a1be 1af6 9ebe
00000320: 84e4 8e39 3aee 8cbe a6e0 973e 5b46 883e
00000330: ef56 323d 371e 8fbe 8732 063e 64ff 4ebe
00000340: 754b 32be 9062 253e 058e 1e3e d28e 85be
00000350: 06e3 b93d dc86 723e 0c61 9b39 5293 183e
00000360: 6eb8 9a3e 8f4f a23e c5ec 58be 0824 9cbe
00000370: a8ee 6a3e c48b 093e 58d7 89be a428 153e
00000380: 6db1 bc3d 48b1 583d 99e9 87bd e637 223e
00000390: bb98 86be 229a 38be 0be9 413e 75f2 55be
000003a0: 6155 e9bd 80c6 91bc 70c7 96be c2c5 0b3e
000003b0: 3e9f a7be 5917 573e a511 6cbe 4d1e 3d3d
000003c0: 3d1e ecbd f49a 62be 8cca 72bb 31f6 323e
000003d0: 1f66 ce3d 643a a2be b272 17b9 a8eb 95be
000003e0: fd4f 7bbe 3261 a3be 49c1 0fbe 29ee a23e
000003f0: eb1f 7dbe 84e1 95be 3bd9 94bd 980e c1bd
