models/1.pt (torch, 837012 bytes, 17 tensors)

weight f4 [32, 1, 3, 3]
00000000: 8a66 6cbd 9cff 063b 001a 963d 6c77 84be
00000010: 791a 353e c7a5 5dbe b6e4 883e 6e1d 77be
00000020: a9ba 7fbe be50 0e3d ba2d 363e acb8 c2bd
00000030: d7f8 07be 104a 163e e247 da3d 44ed 8e3e
00000040: 45a3 adbd e172 71be 63fd 3abe 0f47 e53d
00000050: abf5 95be c7eb 183e 66e0 583e d7e2 813e
00000060: 192f 063e 8191 d5bd 3486 14be 2b84 3dbe
00000070: 02d8 a63e b5a0 63bd b35a b5bd 2b29 ccbd
00000080: a2b1 863e a720 7e3e 61b1 17bd c6bd 453e
00000090: afbd a73e 6ace d4bd dc8c d1bd 019d 9a3e
000000a0: 505b 303e 9c96 a0bd dba4 993e 8403 113e
000000b0: 0df2 e23c e65c a13e b498 993e 578e 12be
000000c0: 2a93 933d de01 f8bd 2d83 4d3e 3217 0abe
000000d0: 8a3c 62be 25c9 653e 7903 e0bd 036a ec3c
000000e0: 5d20 a43e e8aa 69be 57c6 8bbd ed1c f83d
000000f0: 61c4 1c3e 544d a6be 2d29 6f3d 9de7 c83d
00000100: 265b 043e 4ac2 5a3e 4ad7 23be a1a8 a93e
00000110: f5b7 9c3d b92b c1bd 0665 963d b60a 38be
00000120: 77b8 4fbe 2fcb 65be 212e 2fbe e19d 373e
00000130: b260 ddbd 9dcc 86be 5b82 733e c353 96be
00000140: 315e 85bb 697a 8c3e 29e2 513e a8ab 3cbe
00000150: 059d 9d3e 2312 743e e91c aa3e 8cf8 02be
00000160: a519 0abc dd7a 94be 169e a4be 4c5f ed3d
00000170: 5be5 1d3d 281f 323e 7561 e7bd 5924 213e
00000180: 9559 a23e 8f29 9ebe 86b1 813e 0a99 af3d
00000190: 4e36 06bd 14e5 1f3e 4d14 933e bc24 7bbe
000001a0: 813e 8bbe 9170 60bd aa67 c6bd 833f 133e
000001b0: 10b7 bd3c 8c61 42be 66aa 84be 733a 383e
000001c0: de10 71be d337 493c e81a 033e 2a37 7dbe
000001d0: 190a 91be cb47 a13e ec34 793e 01ad 94bd
000001e0: 39ef 65be 5e50 95be b6e1 57be 70a0 833e
000001f0: c425 60be 386a 4bbe 3a34 8abe bdb6 523e
00000200: d241 94be 3df6 723e 128f 63be 06c6 8b3e
00000210: 4f4d 90be cef0 313e 4743 72be 7d26 5dbd
00000220: 5eb7 a13e 2e8f 633c 2a24 9d3e 2fad 59be
00000230: d027 acbe 0504 983c 36b5 983e 2b6e 8ebd
00000240: 8c58 93be 93a8 3f3e 6e6c f13c 34ed bc39
00000250: 6a84 20be 1f7f 9bbe 244c 9f3e d688 8b3d
00000260: 5304 1f3d 9927 a13e c45f 7cbe 59a3 74be
00000270: 1e35 a83d 21ec f53d 848e 8d3d a36a 2dbe
00000280: a9cb 7a3e ff34 a03e 2503 c93d dac0 9e3e
00000290: b997 6f3a 2295 da3d 5b58 643e 25b4 0abe
000002a0: b685 823e 5dd4 5c3e 4710 b1bd 3e03 05be
000002b0: b474 20be c8f6 35be 78ef a63e 188b 03be
000002c0: dd1c 313e 45be 9ebe a658 d8bd 7309 4e3c
000002d0: d41f f5bd 8595 68be 5667 07bd fcee 943e
000002e0: ae3f 593e 5c2b 9c3e fe71 59be f643 cd3d
000002f0: 0238 dd3d eff4 3e3e 98da 463e 600a 32be
00000300: b516 97bd 4925 853e 7155 9cbc 5197 28bd
00000310: 181b 303e ef14 ab3c 0d31 5d3d 88eb a2be
00000320: 78c4 c6bd 0f8e 103e 5e82 d6bd 9c33 b63d
00000330: 6a67 963e 82d0 673e eed6 9a3e 3ef7 2b3e
00000340: 8cdd 81bd d977 14be 71ab 67be 48b0 d33d
00000350: 44c2 a8be 14b8 593e f517 cf3d 9097 8fbd
00000360: c23d c43d 9f4b d0bd 78d8 1dbe cc2f 97be
00000370: f616 cebd 41e1 e3bd 0195 013d 7112 973e
00000380: 782a 10be e1e2 6e3e 9f2e 0c3e 7609 1c3d
00000390: 2d7c 88be 3bd8 35be 4a70 6e3e 3e0f 9dbe
000003a0: ba33 4e3e e4c4 37be c045 8e3d 4fdb 433e
000003b0: a4ba 69be 10a5 813e 43ed 263e b60d 4cbe
000003c0: fc4c bd3b 4ece 73be 5de8 4d3d 5b51 5d3e
000003d0: 956b 113e 1af0 7ebe 630d 5dbd e96d 8cbe
000003e0: 3f9f 453e 9a23 d5bd 8f80 843d 0a58 67be
000003f0: 441b d1bd c426 67be 2989 93be dfac a43e
-0.057714976 0.0020599132 0.07329178 -0.25872362 0.1768588 -0.2164527 0.26736993 -0.2413232
-0.24973549 0.03474497 0.17790881 -0.095078796 -0.13278519 0.1467669 0.10658242 0.27915394
-0.08478407 -0.23578979 -0.18260722 0.11195194 -0.29288992 0.14933692 0.21179351 0.25368378
0.13103904 -0.10428143 -0.1450432 -0.1850745 0.32586676 -0.055573184 -0.0885519 -0.0996879
0.26307398 0.24817143 -0.037034396 0.19310674 0.32761905 -0.10390933 -0.10231945 0.3019791
0.17222333 -0.078412265 0.30008587 0.14161497 0.02770331 0.31516188 0.29999316 -0.14312111
0.07205804 -0.12109731 0.20069571 -0.13485411 -0.22093406 0.22440012 -0.10938162 0.028859144
0.3205594 -0.22819102 -0.0682494 0.12114892 0.15309288 -0.32480872 0.058388878 0.09809802
0.12925395 0.21363178 -0.16000095 0.33136466 0.076522745 -0.094321676 0.073434874 -0.17972836
-0.20285212 -0.2244079 -0.1710744 0.1793132 -0.10809459 -0.26327983 0.23780195 -0.2936078
-0.0040700664 0.27437142 0.2049643 -0.18424857 0.3078386 0.23835044 0.33225182 -0.12790126
-0.008428966 -0.28999987 -0.3215186 0.11590442 0.03854881 0.17394698 -0.11297885 0.15736522
0.3170897 -0.30891082 0.25330752 0.08574112 -0.032766633 0.1561473 0.28726426 -0.24525732
-0.27196124 -0.05479485 -0.09687741 0.14379697 0.02315858 -0.18982524 -0.25911254 0.17991047
-0.2354159 0.012281376 0.12803233 -0.24728075 -0.28328016 0.31500086 0.24336594 -0.072595604
-0.22454537 -0.29162878 -0.21082196 0.25708342 -0.21889406 -0.19864738 -0.2699297 0.20577522
-0.28956467 0.23726745 -0.22222546 0.27299517 -0.28183982 0.17377016 -0.23658477 -0.053991783
0.3158521 0.013889117 0.30691653 -0.2125747 -0.33624125 0.018556604 0.29825753 -0.069546066
-0.28778493 0.1871665 0.029470649 0.00036034884 -0.15675512 -0.30370423 0.31112778 0.06813209
0.038822483 0.31475523 -0.24645907 -0.23890437 0.08213256 0.12007929 0.06911948 -0.1693521
0.24491753 0.31290433 0.09815053 0.3100651 0.0009139735 0.10672976 0.2229933 -0.13545282
0.25492638 0.21565385 -0.08645683 -0.12989518 -0.15669519 -0.17769921 0.32604575 -0.12846029
0.17296167 -0.3100454 -0.10563783 0.012575495 -0.11968961 -0.22713287 -0.033057533 0.2908858
0.21215698 0.3050183 -0.21234891 0.10022728 0.10801698 0.18648122 0.19419324 -0.1738677
-0.07377378 0.2600501 -0.01908371 -0.04115993 0.17197835 0.020884005 0.054001857 -0.3182032
-0.09705442 0.14116691 -0.10474084 0.088965625 0.29375774 0.22638133 0.30242103 0.16793534
-0.06341085 -0.14498843 -0.22623993 0.10336357 -0.32960713 0.21261626 0.10111991 -0.0701133
0.09582092 -0.101706736 -0.15414608 -0.29528654 -0.10062973 -0.11126948 0.03163624 0.29506257
-0.140787 0.23328735 0.1368966 0.03809496 -0.2665724 -0.17758267 0.23285022 -0.3067569
0.2013692 -0.17946202 0.069468975 0.19126628 -0.22825104 0.25321245 0.16301446 -0.19927105
0.0057769995 -0.23809168 0.050270427 0.21613066 0.14201196 -0.24896279 -0.053967845 -0.27427605
0.19299029 -0.10407181 0.06469833 -0.22592178 -0.10210279 -0.22573382 -0.28815582 0.3216314

bias f4 [32]
00000000: 555f 273d 59b2 ba3d 6ffd a03d e190 9bbe
00000010: 2f76 a13e 678a 32bd 42d8 0cbd b06c 553e
00000020: 28fe 953e 69ae f4bc 246a 1abe 9e67 933e
00000030: 9b94 203d 2b79 603e d3bd f43d 3976 963e
00000040: 3d1a b0bd 962c 33bd aeb2 4bbd 4ccf 3d3e
00000050: a9df 7fbe 833c babd 8ef9 203d d256 163e
00000060: 8f59 0b3e 7ca1 b43d 9a33 603d 5458 07bc
00000070: 2021 5bbe 1bf9 d8bd 0dbe 88bd e190 6f3d
0.0408624 0.09116048 0.078608386 -0.3038397 0.3153548 -0.043589022 -0.034385927 0.20842242
0.29295468 -0.029868321 -0.15079552 0.2878999 0.03920422 0.21921222 0.119502686 0.29387072
-0.085987546 -0.043743692 -0.04973095 0.18536109 -0.24987663 -0.09093573 0.039300494 0.14681557
0.13608383 0.08819863 0.05473671 -0.008260805 -0.21399355 -0.10594388 -0.06676874 0.058487777

weight f4 [64, 32, 3, 3]
00000000: 12d8 473d 3b22 ee3c 4881 4d3b b02f 22bd
00000010: 1995 ca3c d83e 053d aa2e 32bd 1d99 f2bc
00000020: 9f79 143d e04d b8bc 7a0a a7bc 3ca4 353d
00000030: 158c 9e3c 8cb8 07bc 171c 1ebd 46f9 053d
00000040: d1f1 943c 8d73 0c3c 4865 2abd d54e 06bd
00000050: fa50 1fbc af4f 863c 60e2 8f3b ab93 84bc
00000060: b170 73bd f28d 0e3d 05f2 b73c 7875 783b
00000070: 567e c7bc 892d 2cbd ab73 8e3c 4cfb 42bd
00000080: fa37 c33a b40b 2abc 31b3 6c3d 7db3 803c
00000090: 1fcf c03b 64b6 d93c 955e 58bd 8515 66bd
000000a0: 22e9 50bd 1d12 2bbc 5e0a 62bd 9341 9bbb
000000b0: 11ae 1a3d 9cff cc3b 2d73 bd3c dcf0 d7bc
000000c0: 492a 803c 7ea0 293d fbd1 363d c4a1 363d
000000d0: 81e8 563d 9aa7 603d c8c0 3c3d 7995 40bd
000000e0: b0c1 0dbd 2432 fbbc 3316 543a 5984 25bd
000000f0: fc2a 303d b484 cf3c 0bc5 2b3b 50c1 5abd
00000100: e338 33bd ae51 bfbc e21e 01bd bb34 2ebd
00000110: 590b c93c 3462 053d b63d b13c 779b 30bd
00000120: 695e ad3c 8342 a03c 89c8 2bbd 17d7 d53c
00000130: 267a 93bc 8e46 7cbc 7d87 b9bb 7997 f0ba
00000140: 66e1 2ebd 9462 6e3d 88d7 b8bc 1b96 22bb
00000150: 4e0a 153d 2677 c6bc 1f54 76bc 1e6f 4abd
00000160: 08d5 d53c e585 11bd 180e 62bd 539d 39bc
00000170: 32dc 27bb 8142 65bc 4ade e63c 5097 1dbd
00000180: ad9e c6bc 25bb 1d3c 0c1c 0dbd e942 46bc
00000190: 2429 f7bb 6b10 6f3d 8a0a 00bc 5c9d c83b
000001a0: 32a4 233d 4554 e93b be1e 99bc 17e1 c43c
000001b0: 111a 2ebd 6f39 713d 0ed0 833d 4e40 42bd
000001c0: 9ced 12bd 262b 2b3d f59f edbb 14de 25bd
000001d0: 5614 b8bc 3f04 2dbd 175f c9bb dd05 32bd
000001e0: da7d a734 c290 4f3d a776 443c 5c78 1ebb
000001f0: fbe1 013d a6d7 6b3d e468 ba3b 30b3 43bd
00000200: 87c2 5c3d b812 9e3c 44e4 0ebd f7e5 603d
00000210: 5639 4abd 89bf 583d f3e8 fd3c ac83 d6bc
00000220: c47f 5e3c caa4 9bbc f5c9 fdbb e7cd dfbc
00000230: 9196 61bc 2f21 34bd a756 9d3b d349 15bd
00000240: 757b 86bc c1ef 24bc ee6a 783d 442c 44bb
00000250: 941c 4ebc 8781 a73c 4228 cabc 3719 1c3d
00000260: 11c2 1cbd 6491 31bd 8bdd 8dbc 4831 e93c
00000270: 666f 2f3c 5a3b 1dbb 2140 4bbd 435d 60bc
00000280: 3d23 573d 60db 10bc e87c 3bbd a2b6 0f3d
00000290: cd61 d83c 5d8c a43c 56ef 23bd 87c4 93bc
000002a0: 77a2 d1bc 1647 b13b c70c 993c 34ed fcbc
000002b0: 9418 a93b 5fd6 343d f732 b83c 12ac 683d
000002c0: 1133 5e3d 7ead efbc dbc1 213d 6ac8 5bbd
000002d0: c476 3ebd 86b8 31bd 49a8 713d 84db c1bb
000002e0: 2c44 3dbc be43 77bb 6442 e93c 0ad2 53bd
000002f0: 956f 0cbd 3931 9c3c 61ee e63c 74d9 adbc
00000300: d7a7 2dbd 3de1 51bd 89db d8bc 9568 ce3c
00000310: bb39 fbbc 1624 583d 395a 513d 9fb3 34bd
00000320: 2a5f 88bb 1110 303d 8ae3 5c3d 4ed1 013d
00000330: 20f1 dfb8 7a55 6a3d cda0 3abd 8fef 343d
00000340: c635 85bc d79d 0c3c 9848 e93b ea1a eb3c
00000350: 544d f8bc 7ace 10bd 9b0d 383d cd1e 323d
00000360: 82da cd3c 7404 00bd 90f9 8abc 51ec 47bd
00000370: 04a0 dfbc b7de db3c f237 443d 1a05 c4bc
00000380: d5a6 5d3d 51dd 783d 6c6a 3bbd e68b 13bc
00000390: fdad 29bd f345 ed3a b743 4f3d eaf2 793d
000003a0: 9688 0b3c a418 4dbd f907 42bb af14 debc
000003b0: da88 0e3c 5745 1abd 4cac 2dbd 219f 7f3d
000003c0: 5098 23bd 36c6 a8bc 5847 023d 2b8e 1d3d
000003d0: e3ed 713c c88b 603d b213 9a3c 8a74 073d
000003e0: 5318 20bd 1441 1b3d c8dc 1fbd c5ba 003d
000003f0: cdd1 593d df7a 963b cf28 ee3c 4ba4 06bd
0.048790045 0.029069057 0.0031357575 -0.03959626 0.024729298 0.032530636 -0.043501534 -0.029614026
0.0362488 -0.022498071 -0.020390738 0.04434608 0.019353906 -0.0082837455 -0.038601007 0.03270843
0.018181713 0.008572471 -0.041600496 -0.032790024 -0.009723896 0.016395418 0.0043909997 -0.016183695
-0.059433643 0.03480334 0.022454271 0.0037911814 -0.024352234 -0.042035613 0.01738914 -0.047602937
0.0014894002 -0.010378767 0.057788078 0.015710587 0.0058840658 0.026576228 -0.052824575 -0.056172866
-0.051003583 -0.01044133 -0.05518567 -0.0047380417 0.03776366 0.006256057 0.02312621 -0.026359968
0.015645163 0.041412823 0.044633847 0.044587865 0.052467827 0.054847337 0.046082288 -0.04701755
-0.034608543 -0.030663557 0.0008090466 -0.04040942 0.043009743 0.025331832 0.0026209976 -0.053407013
-0.043755423 -0.023354378 -0.031523593 -0.042530756 0.024541544 0.032564357 0.021635871 -0.043117013
0.021163182 0.019562965 -0.041939292 0.02610354 -0.01800258 -0.015397681 -0.0056619034 -0.0018355689
-0.042695425 0.05819948 -0.02256371 -0.0024808708 0.03638678 -0.024226736 -0.0150347045 -0.049422376
0.026102558 -0.035528082 -0.055189222 -0.011329013 -0.0025613424 -0.013992907 0.028182168 -0.03847438
-0.024245584 0.009627138 -0.034450576 -0.012100914 -0.007542746 0.058365267 -0.007815013 0.0061222743
0.03995151 0.0071206414 -0.018691417 0.024033112 -0.042505328 0.058892664 0.06436168 -0.047424607
-0.035871133 0.041789196 -0.0072517344 -0.040494993 -0.022470634 -0.042240378 -0.006145369 -0.043462623
3.1197743e-07 0.05067516 0.01199118 -0.0024180626 0.031709652 0.057578705 0.0056887735 -0.04777831
0.053896453 0.019296035 -0.03488566 0.05490681 -0.049371086 0.052917037 0.030994868 -0.026185833
0.013580266 -0.018999476 -0.0077450224 -0.027319862 -0.013768808 -0.04397696 0.0048015895 -0.036447357
-0.01641629 -0.010066927 0.06064885 -0.002993361 -0.012580056 0.020447506 -0.0246774 0.038109984
-0.038271014 -0.043351546 -0.017317554 0.028465882 0.010707712 -0.0023991675 -0.049621705 -0.01369411
0.05252384 -0.008841366 -0.045773417 0.03508628 0.026413823 0.020086462 -0.04002317 -0.018038047
-0.025590165 0.0054100854 0.01868285 -0.030874826 0.0051604006 0.044149753 0.02248524 0.056804724
0.05424792 -0.029257532 0.039491516 -0.053657927 -0.046499982 -0.043388866 0.05899838 -0.005916061
-0.011551898 -0.0037729586 0.02847404 -0.05171398 -0.0342861 0.01906644 0.02818984 -0.021221854
-0.042396393 -0.051240195 -0.02647187 0.025196353 -0.030667176 0.05276879 0.051111434 -0.044116613
-0.004161735 0.042984072 0.053927936 0.03169375 -0.00010678382 0.057210423 -0.045563508 0.044173773
-0.016260993 0.008582554 0.0071192496 0.028699357 -0.03031031 -0.03535316 0.04493485 0.043486405
0.025128607 -0.031254247 -0.016964704 -0.048809353 -0.027297981 0.026839597 0.047904916 -0.023928214
0.05411418 0.06075794 -0.04575579 -0.009005522 -0.041425694 0.0018102512 0.050601687 0.061022677
0.008516451 -0.050072327 -0.0029606803 -0.027109472 0.00869962 -0.037663784 -0.042400643 0.062407617
-0.03994018 -0.020602327 0.03180632 0.03846566 0.014766189 0.054820806 0.01880822 0.033070125
-0.039085697 0.03790386 -0.039028913 0.031428117 0.053178597 0.004592284 0.029072193 -0.032871526

bias f4 [64]
00000000: 7c4e 713c 552e 353d 1f52 95ba 412a 06bd
00000010: c95d 5a3d b7c8 333d c478 10bd f7b3 aebb
00000020: a82e 51bd 4f52 543c cd90 6d3d 7f7e 62bc
00000030: 3c4a 4dbd 39b8 2a3d 2245 f53c 57a5 1a3d
00000040: b20f 2d3c b931 923c 5e53 6e3c 9bb4 003d
00000050: b8d6 3cbd e3da 20bd c446 0bbd 14e1 613d
00000060: f756 0ebd 1b4a 873c ae27 6c3d a923 2bbd
00000070: 604f be3c 460e 6fbd b136 5abb e50e 02bd
00000080: 95a3 433d ada8 46bd bab5 13bd 6527 6bbd
00000090: 43f0 1d3d 3cd4 863c f2db bb3b af6b 493d
000000a0: 22f8 043d 5216 373c a25c 01bd 6274 973c
000000b0: 3c05 183d be0b 773d 7d6c 25bd e2f8 95bc
000000c0: 1a58 0abd 84cb 573d 2766 3bbd e9d8 193d
000000d0: e206 803d bdca f23c 3a9a 8b3b 43a4 493d
000000e0: 3dca d13c 9885 133d e8e3 013d 6311 45bd
000000f0: 4b77 d3bc 7525 143d 65b0 b0bb c8aa 673d
0.014728185 0.04423364 -0.0011392272 -0.03275514 0.053312097 0.04389259 -0.03527142 -0.005331512
-0.051069885 0.012959077 0.05799942 -0.013824104 -0.050119624 0.041679595 0.029940192 0.037755337
0.010562824 0.017845975 0.0145462435 0.03142224 -0.04610321 -0.039271247 -0.034003034 0.05514629
-0.034750905 0.016514828 0.05765503 -0.041782055 0.023231208 -0.05836322 -0.0033296759 -0.031752486
0.047763426 -0.048500706 -0.03606198 -0.057410616 0.03855921 0.016458623 0.0057330066 0.04917496
0.0324632 0.011174755 -0.031582482 0.018488113 0.037114367 0.060313933 -0.040386666 -0.018307153
-0.033775426 0.052684322 -0.045751717 0.037560377 0.06251313 0.029637689 0.0042603286 0.049228918
0.02560913 0.036016077 0.03171149 -0.048112284 -0.02581372 0.036168534 -0.0053921216 0.056559354

weight f4 [128, 64, 3, 3]
00000000: f61e 28bd 2d68 543c 7e68 06bd f04f b4bc
00000010: df75 bb3c 46ab cbbc ab8b cbbc d8f9 213d
00000020: 3573 96bc e562 d9bc 9516 95bc dd40 1f3d
00000030: 43c4 ecbb 7d73 e4bc 44c6 06bd 8493 eabc
00000040: 1119 d73c 9b65 093d d186 0dbd 78a0 79bc
00000050: e882 213d 349f 09bc 6246 2fbc e792 3a3c
00000060: a7f8 1b3b 74a7 d33c ecc8 1bbd 9751 8a3c
00000070: 503b 61bc 0112 d73c 2aae 003d 30b2 61bc
00000080: 5773 d3bc 23cc 06bd 74b0 053d 6df5 143d
00000090: 7ce6 2d3c 00aa 63bc 2072 c1bc c384 05bd
000000a0: e42a d13c 0b9f 1b3d 187a d13b 1fbe 11bd
000000b0: b636 283d 534b a23c 501c 2d3d 105c e0bc
000000c0: 1276 d23b f558 143d 67d9 80bb 3461 813c
000000d0: df04 043d 33fe c3bc 1c5a 05bb e4db d7bb
000000e0: 23d2 9fbc c9ec f3bc 65bc efbc f0f6 d3bc
000000f0: 2b35 1f3d 1316 503c b22c 253d 0a45 2b3d
00000100: fcb2 2bbc 1f55 ff3c 3559 f13b 3bf0 283c
00000110: a7e7 88bb 2903 c23c 0f54 f83c b968 1ebd
00000120: 2d2d 27bd 022e ba3c 0b81 e63c fa74 f7bc
00000130: 1ac6 25bd 376f a73c a6f1 f9bc 1805 f23c
00000140: fdf5 fb3c 1801 25bd 63f0 16bd 696c 08bd
00000150: 8e9d d03b 8709 163d 6952 1fbc b259 003d
00000160: c235 16bd 66e0 0dbd 4840 3bbc b9a1 85bc
00000170: cbed 8a3c 6220 973a 2a83 9ebc a736 c53b
00000180: f302 dabc c0a5 59bc fcca ce3b 882f ebbc
00000190: 01dc cb3c ef42 b0bc 6a7a 1cbd c3ff 243d
000001a0: d635 12bd c478 9abc b3d3 6a3b e8d2 bbbb
000001b0: 0fc4 a53b 701a c7bb 9b26 53bc 7a66 b5bc
000001c0: a24c fd39 ca55 173d 0063 d0bc e276 063c
000001d0: 7364 d23c df04 4d3c 09a5 983c a6c1 5bbc
000001e0: ffd9 323c 438d 76bc 8dcd 943c 1fa6 2c3d
000001f0: fd72 bebc 1953 733c 2ac1 bb3b 3ac8 873c
00000200: 0a49 273d 68d5 343d 20d6 9b3c b200 003c
00000210: 7bca bf3c 44ad b63b 5b34 ba3c b30d 043d
00000220: a396 aebc 90e3 d33c 561d 1bbd dae1 0cbd
00000230: 4619 9ebc 97c7 26bd 5455 54bc 57f9 b73c
00000240: 0379 b9bc 680e 96bc 93ef 13ba 057d 0d3d
00000250: 4e8c f23c 0e48 f73c e7bb 18bd 09eb e2bb
00000260: 5f71 5c3c 398e 3dbc b712 01bd 38a3 ae3c
00000270: 74c3 123d 9e15 8ebc a736 ea3c 134b f2bc
00000280: c2e5 10bd eb6c 133c 4d82 203c 573d 1f3c
00000290: 940c 973c 13cd c4bc 7f19 53bc e48e 8a3b
000002a0: 74a3 81ba 988c c8bc d8ba 7dbc 1fa4 8a3c
000002b0: fea8 403c ab3b 63bc 040e eb3c 12e2 123d
000002c0: 4f60 68bb 6c5f ff3c 562e ed3c d4fc d9bc
000002d0: 68a7 7a3a e7fa e0bc 9196 49bc 74a5 62bc
000002e0: 4966 cbbc 9490 31bb 85dd e7ba 4b47 0bbd
000002f0: c72d 07bc 0a45 193d d7b9 14ba 0669 043d
00000300: 5b68 a9bb 19bf aebc 49ec babc 607f e9bc
00000310: 5318 7dbc 4490 fc3c 5a6d 46ba 85d2 583c
00000320: 8435 c93c be0d 6339 92ed 093c 6ad5 e63c
00000330: 2672 913c 9ced 04bd 840d 9abc 9885 14bd
00000340: 73bc c23c 1ff2 e8b9 1397 ccbc e2da 19bd
00000350: b6e0 c5bc 2553 f43c 989d 323c 3c39 463c
00000360: 255f efbb aaa3 b8bc 354e 133d 0f4a 553c
00000370: ffb0 263d fea6 f03c 4c56 9c3c 7452 bc3c
00000380: 7a30 a9bc aef6 c23c 94c5 303a f3ca 253d
00000390: 9d7a eebb 825b 9f3b 1708 f7bc 417e a6bb
000003a0: 6453 623a e6c5 163c df2e 15bc 0eff 95bc
000003b0: 7382 1cbd cab7 1dbd 515f 5fbc deca 473c
000003c0: b8f0 85bb a04d eb3c 36dd 873c 2c7a 0bbc
000003d0: fbb7 003d f732 463b 521d b7bc 3920 5f3c
000003e0: b7cd 06ba 6cf5 50bb 6ab7 893c 53a9 96bc
000003f0: c1ea c13c 4536 8d3b 8399 483b c0ed a9bc
-0.04104515 0.012964291 -0.032814495 -0.022010773 0.022883354 -0.024861943 -0.024846872 0.03954491
-0.018365482 -0.026536414 -0.018199245 0.038880218 -0.0072255447 -0.0278871 -0.032903925 -0.028634794
0.02625707 0.033544164 -0.0345524 -0.015236013 0.039431483 -0.008399773 -0.010697933 0.011387563
0.0023799331 0.025836684 -0.03803341 0.016884608 -0.013747051 0.026253702 0.031416096 -0.013775393
-0.025811834 -0.032909524 0.032638982 0.03636687 0.010614034 -0.013895512 -0.02361399 -0.032597315
0.025533147 0.037993472 0.0063927285 -0.035581704 0.0410678 0.019811308 0.04226333 -0.027387649
0.0064227665 0.03621765 -0.0039321664 0.01579342 0.032231208 -0.023924923 -0.0020347899 -0.0065874923
-0.01950938 -0.029775994 -0.029264638 -0.025874585 0.038869064 0.012700575 0.040325828 0.041813888
-0.010479685 0.031168519 0.0073653706 0.010311182 -0.0041780057 0.023683148 0.03031352 -0.03867409
-0.040814567 0.022727016 0.028137704 -0.030207146 -0.040472127 0.020438774 -0.030510735 0.029543445
0.030756945 -0.040284246 -0.036850344 -0.033306513 0.006366438 0.03663018 -0.009724238 0.03133554
-0.03667236 -0.03463783 -0.0114289 -0.016312467 0.016959092 0.0011530037 -0.019349653 0.006018478
-0.026612734 -0.013284147 0.0063108187 -0.028709188 0.02488518 -0.021516291 -0.03820268 0.040282976
-0.035695873 -0.018856414 0.003583175 -0.005731929 0.0050587724 -0.0060761496 -0.012887622 -0.022143591
0.00048313016 0.03694705 -0.025437832 0.008207055 0.025682664 0.012513368 0.018633382 -0.013412869
0.010916232 -0.015048328 0.01816442 0.042150613 -0.02324819 0.014851355 0.005729814 0.016574968
0.04084114 0.044148833 0.019023001 0.007812666 0.02341198 0.005574854 0.022730043 0.032239627
-0.021312064 0.025865346 -0.037869774 -0.034395076 -0.01929916 -0.040717687 -0.012959797 0.022457762
-0.02264071 -0.018317416 -0.00056433043 0.034543056 0.029607918 0.030185726 -0.037288573 -0.006924991
0.013454764 -0.011569553 -0.03151199 0.021318063 0.03583093 -0.017344292 0.028590513 -0.029576814
-0.035375364 0.008998136 0.009796691 0.009719214 0.018438615 -0.024023568 -0.012884497 0.0042284597
-0.0009890632 -0.024481103 -0.015486442 0.016923962 0.011759041 -0.013869206 0.028693207 0.03586013
-0.0035457795 0.03117343 0.028952759 -0.026609816 0.00095616886 -0.02746339 -0.012303964 -0.013833392
-0.024829047 -0.0027094232 -0.0017689919 -0.034003537 -0.00825066 0.037419356 -0.0005673444 0.03232672
-0.005169911 -0.021331357 -0.022817748 -0.02850312 -0.015447694 0.03083051 -0.0007569395 0.0132337855
0.024561651 0.00021653526 0.008418458 0.028177936 0.017754626 -0.032453164 -0.018805273 -0.036260217
0.0237715 -0.00044430883 -0.024974382 -0.03756226 -0.024155002 0.029824803 0.010901831 0.012098607
-0.0073050433 -0.022538979 0.035963256 0.013018145 0.04069614 0.029376503 0.019084118 0.022988535
-0.020652998 0.023799267 0.00067433086 0.04047675 -0.0072778002 0.0048632035 -0.030155225 -0.0050809686
0.0008633642 0.009202456 -0.009105413 -0.018310096 -0.038210344 -0.038505353 -0.013633565 0.012194363
-0.004087534 0.028723538 0.016584974 -0.008513015 0.031425457 0.003024278 -0.022352848 0.013618522
-0.0005142348 -0.0031884564 0.016811091 -0.018391287 0.02367151 0.004309448 0.0030609078 -0.02074325

bias f4 [128]
00000000: 972f 8a3b e731 953b d645 2a3b 092a 7a3c
00000010: 1dee 1ebd 81c5 edbc 8457 09bd 974a 04bd
00000020: 0c12 5fbc e56c 2e3d 9322 9b3c 20eb 03bd
00000030: 4130 f8bc ab18 82bb ee83 21bd 50d1 4abc
00000040: 8bcd 09bc 9ea7 6a3a b6dc c5bc 21ba ae3c
00000050: 3073 f9bb 3717 a63b 0d56 8a3c 915b ebbc
00000060: de5b 2e3c 3415 a33b dc56 0abd 01fc fe3c
00000070: f299 073c 343d 05bd 7e9b 8dbc 13c1 f5bc
00000080: 2a71 58bb c5aa d2bc f715 54bc fe17 d2bc
00000090: baa7 683c 02bd 05bd 095a 82bc 39ac 103d
000000a0: c6d3 e0bb 6b1b 053b dffa 13bd 55b9 16bd
000000b0: 89b2 383d 6a5a 863b e592 8ebc a4d9 e6bc
000000c0: a500 b8b9 b40d ffbc 24af d43c e1ed 613c
000000d0: bbbd aabb f77c ebbc 7441 3f3c f807 053d
000000e0: 14d8 453a 0f5b 3abb 8231 8ebb 6bef f5bc
000000f0: 1e7f 5d3c 1f8f 1e3c 4f06 29bc bbd4 67bc
00000100: 9ed0 7ebc 2729 febc 58f2 1e3d 0af9 55bc
00000110: a9a2 a5bb 56fa 2fbd 93ff e53c 31dc 2fbc
00000120: 87c5 28bc 6231 18bd 621e c1bb 71c7 2e3c
00000130: 9160 8abc 8537 ee3c 27b2 443b 5982 b13c
00000140: c26f 113c 6d1b 7e3b e788 093d 61d0 103d
00000150: 31c2 7b3c d7a7 ae37 d546 143d d02a 69bc
00000160: f536 6f3c a9ab adbc 19d9 203d 9c4f 1cbd
00000170: 0bf4 173d 5f49 b8bb 5183 2dbd 3463 cbbc
00000180: 9d46 a0bc 3547 82bc 412b 0f3c 5ea4 e9bc
00000190: a21a e4bc 7993 26bd 92a4 9f3b 9c5c 463c
000001a0: d7cd 0cbd ec7b 12bd 53ff 103d 13a2 1d3d
000001b0: 7203 27bd 6b1c b03c 4c70 7cbc aa2a 053d
000001c0: 60e3 03bc a554 0fbc 1fe8 0fbd 91e9 24bd
000001d0: 2b88 1bbc 1210 60b9 91ea a9bc ccf4 1d3d
000001e0: a18f 0e3d 98c0 01b9 cec1 863c d40f 083d
000001f0: b076 ffbb e8b8 05bd 9459 ea3c 7d71 a6bc
0.004217099 0.004553068 0.0025981567 0.015268811 -0.0388013 -0.029024841 -0.033530727 -0.032297697
-0.013615143 0.04258432 0.018937385 -0.032206655 -0.030296447 -0.003970226 -0.03943246 -0.012379006
-0.008410822 0.00089513685 -0.024153095 0.021328988 -0.0076126084 0.0050686854 0.016886735 -0.028730186
0.01064202 0.004976893 -0.03377424 0.031126024 0.0082764495 -0.03252907 -0.017286059 -0.029999292
-0.0033026435 -0.025716195 -0.01294469 -0.025646206 0.014200145 -0.032650955 -0.015912073 0.035320494
-0.006861183 0.0020310532 -0.03612792 -0.03679784 0.04509214 0.0041001337 -0.01740403 -0.028179951
-0.00035095695 -0.031134464 0.02596242 0.013789625 -0.005210606 -0.028746111 0.01167332 0.032478303
0.0007547152 -0.0028435623 -0.004339398 -0.03002139 0.013519077 0.009677677 -0.0103164455 -0.01414984
-0.015552668 -0.031025482 0.038805336 -0.013059864 -0.005054791 -0.04296335 0.028075969 -0.01073365
-0.010301 -0.03715647 -0.0058935145 0.010667668 -0.01689175 0.029079208 0.0030013414 0.0216686
0.008876743 0.0038773671 0.033577826 0.035354976 0.015366123 2.0820573e-05 0.036200363 -0.014231399
0.014600505 -0.021200018 0.03926954 -0.03816186 0.037097972 -0.005623981 -0.04236156 -0.024827577
-0.019564921 -0.015903095 0.00873834 -0.02852076 -0.02784473 -0.040667985 0.004871913 0.012107041
-0.03437599 -0.035762712 0.035399746 0.038484644 -0.04077477 0.021497926 -0.015407633 0.03251139
-0.008049816 -0.008748208 -0.035133477 -0.04026181 -0.009492914 -0.00021368291 -0.020741733 0.038563535
0.034804944 -0.00012374145 0.016449835 0.03321822 -0.007796131 -0.032647043 0.028607167 -0.020317787

weight f4 [128, 64, 3, 3]
00000000: dbce 9f3b b929 68ba 155f 003b f687 823b
00000010: 235d 9e3c 4b0c 123d d61b c6ba 0fbe 9f3c
00000020: a6bf c9bb 6363 9d3c b732 aebc 1f76 22bc
00000030: 0184 ee3c 5a1f a5bc 83b9 e73c 6e6f 28bd
00000040: d72d adbb 0175 ac3c 9f7e c83c 453f efbc
00000050: e496 cbbc 3aae 5d3b fe52 05bd 5c14 3c3a
00000060: 388a 683b 5a9d bd3c 34b6 7cbc 8702 23bc
00000070: c3f7 8bbc e7b3 863c d0ce b83c 5b3c f5bc
00000080: f034 03bd d4dd 613b 9553 083d 808b 7f3c
00000090: 94c1 c5bc 282c e1bb 46b5 c63b d3d2 f33c
000000a0: 6bf2 38bc 3506 0b3d eb15 e9bc c72c 14bd
000000b0: 508a bcbc 2997 743c 7923 2a3d 159b c4bc
000000c0: fc8e 01bc 211b 913c 0de5 0ebd 2b60 033d
000000d0: c1e2 293d 2cfe 8cbb 1068 c5bc 9658 8f3c
000000e0: bd59 f13a 619b 153d cd5e 8b3c 8580 2d3d
000000f0: 4990 18bd 9c91 f13c 2225 eebc 45b4 febc
00000100: 6763 f5bb 639f 14bd e48b 233c a66d c2bc
00000110: d165 15bc bdf3 f03c 4000 d23c ced4 a13c
00000120: dce8 4fbc 3868 153d 7301 1f3d ea19 013d
00000130: e5ae 243c 6ade 18bd 4ac9 dd3c 2c00 e13c
00000140: ded0 00bc 78dc 2bbd 80f7 013d 38ba aa3b
00000150: 18b5 ec3b dbd9 27bc 9cdb 5f3c e09c 0dbd
00000160: 4efa 923b 4e89 cb3c 5dfc 153d 8982 e23b
00000170: 3cf4 8d3a 2ebe 1cbd 2f84 41bc c4c0 30bd
00000180: e9c9 e93c e8cf 5c3d 4250 a23c ceaf 78bc
00000190: 4597 d6bb 02d7 e33c 9582 f53c b33e 873c
000001a0: 1509 893c 7e60 ca3a ed76 693c 1ad8 553d
000001b0: deab a0bc a7aa c1bc 6abc 103d af3f 1abd
000001c0: 2b4b 193d a349 15bd 16f9 053d aa78 3dbc
000001d0: f6a8 13bb 65ed 193b 13ea 943c 1814 c4bc
000001e0: 9a52 9ebc 6e81 783c b355 ffbc c647 1d3b
000001f0: f1f9 60bc dd86 553c 0ca8 053c a032 b1bc
00000200: 1822 f03c 35e8 b4bc 3957 1cbb 432f debc
00000210: 2cdc 213d 70cb 6f3c 33c8 173d 2cd5 0abd
00000220: 29cf f039 59f1 bf3c 5491 4d3c 231d 32bc
00000230: 1720 53bc 63c0 c9bc b2bb cabc 367c 2a3d
00000240: 150d 61bc 4a39 f63b 1d89 d0bc 14d8 12bc
00000250: d088 95bc 1af1 663c 305e 843c 7398 a0bc
00000260: fb4d 61bc b2ff d0bc 888f c4bc 8d38 183d
00000270: 9c5f b63b a383 5cbc 3586 16bd 4449 a53c
00000280: 2349 283c 5485 76bc d8e2 81ba 49f2 d93c
00000290: 07ac 98bc 6c89 9b3c ab4f 903a a8a4 78bc
000002a0: 0f3e 26bd 4079 6ebc 88bf ebbc d4fc d1bb
000002b0: 4d80 eebc 9d63 1f3c 856f 053d 5c27 ca3c
000002c0: 290f cd3c ba74 47bc 5cfb 94bc 57bc 173d
000002d0: 883b c4ba 762b 9f3c 543b 043c 3d8b 25bc
000002e0: 1665 203d f87d 343c 8b3e 64bd f8c8 533d
000002f0: 2e34 19bd 7012 323b f7d3 4c3c fb43 883c
00000300: 30ed ee3b 5fa0 ffbc 56c8 68bb 81d7 093d
00000310: 60aa 65bc b8cb 14bc faa9 eebc 570d c7bb
00000320: 5e52 943b 273a 13bd 1421 093c 721b 05bc
00000330: eb5e e63b 57b8 fc3c e8b7 1f3d a956 c1bb
00000340: 6ab6 c03c 6fb0 1c3d 7339 27bd abb2 dc3c
00000350: 6cc1 0a3d 1e1f d13c de3b aa3b bbb8 cc3c
00000360: 4347 1bbc 7e0d fd3c d021 8a3c 61b7 993c
00000370: 8d57 853b e57a 40bb 4f68 25bd 6185 133d
00000380: 6487 bdbc 7011 9bbc 9d67 35bc 9660 7eba
00000390: e930 a33b b016 f6bc a882 cc3c 53ab 97bc
000003a0: e48d 123d 416b 0cbd b2a1 1e3d d2b4 0abd
000003b0: 77de f63c 6a43 123d c93d 903c c29d ecbc
000003c0: 6f40 09bc fff7 eebc 9f9a f0bc b001 52bc
000003d0: 2977 2cbd 09b6 1abd c37c 003d a2dc 8b3c
000003e0: d2a2 e03b 9d65 0f3d aa45 31bc 2066 95bc
000003f0: 0fc8 e23a 5233 7abb 4eba 233d 3554 cbbc
0.004876954 -0.0008856315 0.0019587923 0.003983493 0.01933152 0.035656255 -0.0015114497 0.019499807
-0.0061568795 0.01921243 -0.021264417 -0.009915858 0.029115679 -0.020156551 0.028286701 -0.041121893
-0.0052850056 0.021051886 0.02447444 -0.029204974 -0.024852224 0.003382577 -0.03254985 0.00071746646
0.0035482775 0.02314632 -0.0154243 -0.009949333 -0.017085915 0.016443206 0.022559553 -0.029936006
-0.032032907 0.0034464495 0.033282835 0.015597224 -0.024140157 -0.006871719 0.00606409 0.029763615
-0.011288266 0.033941466 -0.028452834 -0.036175516 -0.023015171 0.0149286175 0.041537736 -0.02399973
-0.007907625 0.017713131 -0.03488641 0.032074135 0.041476015 -0.0043027606 -0.024097472 0.017498296
0.0018413585 0.036525134 0.017012978 0.042358894 -0.037246976 0.029488377 -0.02907044 -0.031091819
-0.0074886563 -0.036284816 0.009982083 -0.023733925 -0.009118513 0.029413098 0.025634885 0.019754793
-0.012689795 0.036476344 0.03881974 0.031518854 0.010051464 -0.037321486 0.027073521 0.027465902
-0.007862298 -0.041958302 0.031730175 0.0052101873 0.0072237365 -0.010244812 0.013663199 -0.034573436
0.004485405 0.024845745 0.036617626 0.0069125337 0.0010830234 -0.038267307 -0.0118113 -0.043152586
0.028538661 0.053909212 0.01981366 -0.015178634 -0.0065487945 0.027812485 0.029969493 0.01650939
0.016727963 0.0015440134 0.0142495455 0.052208044 -0.019613203 -0.023640944 0.035335936 -0.03765839
0.0374252 -0.03644718 0.03270825 -0.011564413 -0.0022531128 0.0023487445 0.018178022 -0.023935363
-0.019326497 0.015167577 -0.031168794 0.002399908 -0.013731466 0.013032642 0.008157741 -0.021630585
0.029313132 -0.022083381 -0.00238557 -0.027122146 0.039516613 0.014635906 0.03705616 -0.033894703
0.00045930714 0.023430513 0.012546856 -0.010871205 -0.012886069 -0.02462787 -0.024747703 0.041622363
-0.013736029 0.0075141536 -0.025456006 -0.00896265 -0.018253714 0.014095569 0.016158193 -0.019603943
-0.013751502 -0.02551255 -0.023994222 0.037163306 0.0055655967 -0.013459119 -0.036749084 0.020176537
0.010271343 -0.015046436 -0.0009909524 0.026604788 -0.018636717 0.018986426 0.0011010071 -0.015175976
-0.040586527 -0.014555275 -0.028777853 -0.0064083133 -0.029113913 0.0097283395 0.032577056 0.024676971
0.025031643 -0.012173826 -0.018186264 0.03704485 -0.0014971355 0.019429903 0.008070786 -0.010103998
0.039158903 0.011016361 -0.055723708 0.05170533 -0.037403278 0.0027171634 0.012501708 0.016633978
0.0072914585 -0.0312044 -0.00355198 0.033652786 -0.014017671 -0.009081773 -0.029133786 -0.0060745883
0.0045264205 -0.03594413 0.008369703 -0.008124219 0.007030358 0.030849619 0.038993746 -0.0059002233
0.023524482 0.038254198 -0.040826272 0.026940664 0.033875868 0.025527533 0.005195125 0.02499043
-0.009477439 0.030890223 0.016861826 0.0187642 0.0040692748 -0.0029370126 -0.04038268 0.036015872
-0.023135848 -0.018929213 -0.011072067 -0.00097037235 0.004980196 -0.030040115 0.024964646 -0.018514311
0.03577985 -0.034281973 0.038728423 -0.03386385 0.030135376 0.035708822 0.017607586 -0.028883819
-0.008377179 -0.029170988 -0.029370604 -0.012817785 -0.042105827 -0.03777126 0.031368982 0.01707298
0.006855347 0.035009015 -0.010819832 -0.018237174 0.0017302054 -0.0038177562 0.039972596 -0.024820426

bias f4 [64]
00000000: d2c8 a73c 8710 913c 2772 91bb 1f13 bdbc
00000010: 2eb7 2cbd 0c64 05bb d561 2ebd 4e5e 593c
00000020: ea30 913b c87f 72bc 9acd 173c cef5 65bc
00000030: 8172 073d 5cdb a53c 71ef 2cbd b503 e23c
00000040: 0a48 0d3d f08e 283d 7ef7 fcbc dd36 da3c
00000050: 43d5 bc3b 2576 7fba bb9c b83c ecc9 1bbc
00000060: 56df 22bd f238 f5bc caa0 debb 9bbf 573a
00000070: 29e1 c03c b42f 443c 80d4 c3bc 9d07 d53b
00000080: d3ea f2bc fb18 373d 66d3 00bb 3a08 d53c
00000090: 61ab a43c ffa6 603c 672d 403c 92c8 cbbc
000000a0: 60bf 883b a2bf bebc e90b cf3c 4457 243d
000000b0: 8835 d5bc d044 ff3b 0205 59bc 8c30 ce3c
000000c0: 78c1 0d3d 6e07 d93c 5e4d bfbb 98e5 043d
000000d0: 98a5 a23c 7399 aa3a 7b56 c3bc c132 55bc
000000e0: 2e9a 973c 0af9 103d f63c 4a3b b451 4dbc
000000f0: e5a8 a93c 34d4 a5bc fbf5 8ab9 f7de 073d
0.0204815 0.017708076 -0.004438657 -0.023080407 -0.04216688 -0.0020353822 -0.04257377 0.013267113
0.00443088 -0.014800973 0.009265328 -0.014035655 0.033068184 0.0202462 -0.042220537 0.027589658
0.03449253 0.04115194 -0.030879732 0.026637489 0.0057627275 -0.0009745083 0.022535672 -0.009508591
-0.03976377 -0.02993438 -0.00679407 0.00082301506 0.023544865 0.011974264 -0.023905039 0.0065011517
-0.029652989 0.044701558 -0.0019657253 0.0260049 0.020101251 0.01371169 0.011729575 -0.024875913
0.0041732043 -0.023284737 0.025274234 0.040122285 -0.026026502 0.0077901855 -0.013245823 0.025169633
0.034608334 0.0264928 -0.0058380803 0.03244552 0.019854352 0.0013015702 -0.023844948 -0.013012589
0.018506136 0.035393752 0.003085909 -0.012531687 0.020710418 -0.020242788 -0.0002650468 0.03317162

weight f4 [64, 32, 3, 3]
00000000: 6a84 93bc 79ec 183d f4ca 973c 5535 b4bc
00000010: de83 523d 35d8 6bbd 58d5 383d f317 5fbd
00000020: 8fda 4dbd 6d2e a13b ab94 363c 9f79 103d
00000030: 576e 303d 39a4 8a3c a3f6 f2bc 1c2a b3bc
00000040: a5da c03c 4172 133c fba7 59bd 3d4f d33b
00000050: b29e 613d e8cf 2c3d 9a8b 5bbd b1be 0a3d
00000060: 1014 6b3d 59ab 11bd 1e91 8cbb d059 03bc
00000070: d8de 1c3d ec5c bcbb 01ff 033d 12bb 503d
00000080: 72a2 19bd d312 43bd e6e6 933c eff1 183c
00000090: 1a3f 053c 2479 63bd d11a f3bc bbf7 2dbd
000000a0: 57ca ccbc 7569 0c3d 4850 63bc 34da 313d
000000b0: c718 faba 36db 8e3c 4191 bb3c c960 313d
000000c0: 74d9 64bd 48bd a5bc 0939 643d aa02 de3c
000000d0: f995 553c 386d 9d3c 5325 8bbc 351e f3bc
000000e0: e5e9 403d d711 aabb 18e1 14bd b1ee 05bb
000000f0: 1629 54bd f853 473d 2afa d8bb 8ff7 0bbd
00000100: 10bc 1abd 748e 2f3d bbc8 1e3b fc81 deba
00000110: cd1b 323d 4391 1bbc c0dd 6cbd 5f51 06bc
00000120: 1cf2 203b a6f9 b9bc 7346 07bd 7c27 1f3d
00000130: 16b6 533d bcd8 1b3c 7da3 56bd 5146 a2bc
00000140: 8b08 f0bc 2226 89bc f030 2cbd b343 1d3c
00000150: daed 2f3d 2a02 2c3d 8c55 443d d0e2 40bd
00000160: 446e abbc 7808 45bc ab53 44bd 62cb 8ebc
00000170: 6144 6fbd 5e7e d23c 095d 923b e0ec 843c
00000180: 4857 68bd d506 623b f1dd 643c df8c b83b
00000190: 8767 4bbc c028 103d 7058 6ebc 5968 26bd
000001a0: 6a3c c93c 9cbd 0c3d edd3 ed3b cc3f 54bd
000001b0: 888e 133d 106e efbc afc0 16bd d19b a53a
000001c0: eac4 42bd fbc6 07bd fbff cfbc 291c 61bd
000001d0: 38f2 80bc f1c1 84bd 86c4 dcbc 4c6b 5abd
000001e0: 5cb0 adbc e0ea 673d 014e 2d3d 7ee3 8e3c
000001f0: dc89 663c 4be5 cf3c c5f6 6b3d e4c2 013c
00000200: f67f 4ebc 2e66 b9bc b91a 88bb 12cd 31bd
00000210: d33d 1a3d 5266 40bc 220f 53b9 6621 0c3d
00000220: 16e6 17bd 28f9 64bb b64a 0ebc b077 1cbd
00000230: 2b2b ecbc 31a2 ffbc 1394 3e3d 2bf8 4c3d
00000240: 756e 003b 8370 a33c cb25 96bb f1e4 843a
00000250: 9f58 cd3b b5b7 1f3d 2119 2a3d 4162 593d
00000260: b625 023b 2ddd e5bc 3479 f93c a06f 83bc
00000270: 1186 f13c 6a40 4f3c f2b6 07bd a208 cc3c
00000280: 42ce f3bc 87bd bcbc 72f4 513d b80b 05bd
00000290: 4f10 79bc a9fc 643d 512a 10bd ad3c a03a
000002a0: 8267 333b 4d9c 333d 97b9 23bd 3bee 99bd
000002b0: 59bd 22bd ca5e 1f3c 80eb fd3b f3f2 1f3d
000002c0: 5e5a 68bc f5d0 913b f403 853d bd4b 1e3c
000002d0: 302a 0ebb 1503 78bc 89ea e33c d98b b9bb
000002e0: cfbb 0c3d ce8c 173d 66c1 d03c ac5c 35bd
000002f0: 0b0b 043d e44e 8ebc 732c e33b 7184 fd3c
00000300: 46bf 3cbb dbeb 06bd 044f 0bbb 7eb0 453c
00000310: d0c5 643d 409b 6dbd 1af7 203d 497c 60bd
00000320: 2591 1e3d def7 37bd 99ff d43c 9c68 d1bb
00000330: bc77 283d fde3 6dbc 4e63 34bd b467 2c3d
00000340: 9fe9 9abc a391 e7bc c0b8 a73c fc63 bc3c
00000350: 9384 2d3d 1b71 af3c 5b55 c2bc 09f1 95bc
00000360: 79d8 f6bb 8ebb 193c 550c 1abd 9dad 363d
00000370: 6e54 963c 2f14 5abd e1ba 44bd 53a8 a73c
00000380: 2dc2 8abc 684f 463c d275 953c 52a2 8f3c
00000390: ae30 14bd ce0d 5f3d 1622 2fbd 130c 22bc
000003a0: 35db 353d 7986 e0bc d248 b6bc 715b 64bd
000003b0: 9771 e9bb 9cbd 45bc 3754 63bc 188d 4dbd
000003c0: 1413 5cbc 2b17 263d 50d7 92bc 0586 bbbc
000003d0: d086 74bd 9e76 12bd d4ea 4fbd 4288 21bd
000003e0: 70ce 463d c14a 493c 23b1 c3bc 0e3e d23c
000003f0: 7497 42bd 7a96 34bd 2f1d 77bd 37c3 36bd
-0.018007476 0.037334893 0.018529393 -0.021998087 0.05139529 -0.057579238 0.045125335 -0.0544662
-0.05025726 0.0049188645 0.011143844 0.035272237 0.04307398 0.01692401 -0.029658621 -0.021870665
0.023541758 0.008999408 -0.053138714 0.006448655 0.055082984 0.042190462 -0.05359993 0.033873264
0.05739218 -0.0355638 -0.0042897603 -0.008017018 0.038298458 -0.005748382 0.032225613 0.050959654
-0.037508436 -0.047625374 0.018054437 0.009335025 0.00813272 -0.05553545 -0.029675873 -0.042472582
-0.024998827 0.03428026 -0.013874121 0.043420985 -0.001908087 0.017438512 0.02289641 0.043305192
-0.055871442 -0.020231858 0.055718455 0.02710088 0.013036245 0.019217119 -0.016985571 -0.02967749
0.04709806 -0.005190115 -0.03634748 -0.002043646 -0.051796995 0.048664063 -0.0066216188 -0.034171637
-0.037777007 0.042860463 0.0024228531 -0.0016975994 0.043483544 -0.009495082 -0.057828665 -0.008198111
0.002455837 -0.02270205 -0.03302617 0.038856015 0.051687323 0.009512123 -0.05240201 -0.01980892
-0.029300949 -0.016741816 -0.042038858 0.00959866 0.042951442 0.04199425 0.047933146 -0.047091305
-0.020926602 -0.012025945 -0.047931354 -0.017430965 -0.05841482 0.025695022 0.004466657 0.016226232
-0.056723863 0.0034488935 0.013968931 0.0056320275 -0.01241482 0.035195112 -0.014547452 -0.040626857
0.02456494 0.034360513 0.0072579295 -0.051818654 0.0360246 -0.029227287 -0.03680485 0.0012634938
-0.047551073 -0.033148747 -0.025390616 -0.054958496 -0.015740499 -0.06482304 -0.026949178 -0.053324983
-0.021202259 0.05662048 0.04231072 0.017442461 0.014070954 0.02537789 0.057608385 0.007920001
-0.01260375 -0.02263173 -0.004153576 -0.04340846 0.037656616 -0.011743145 -0.00020128165 0.03421154
-0.03708466 -0.0034938548 -0.008684805 -0.03820008 -0.028829178 -0.031205269 0.046527933 0.05004136
0.0019597088 0.01995111 -0.004582142 0.0010139031 0.006266668 0.038993556 0.04152787 0.053072218
0.0019858903 -0.028059566 0.030453302 -0.016044438 0.029482873 0.012649635 -0.033133455 0.02490646
-0.029761437 -0.023039592 0.05125851 -0.03248188 -0.015201642 0.055905018 -0.035196606 0.0012225114
0.0027374928 0.043850232 -0.039971914 -0.07516142 -0.039731357 0.009727189 0.007749021 0.039050054
-0.0141817015 0.0044499584 0.064948946 0.009661612 -0.0021692626 -0.015137454 0.027821796 -0.005662423
0.034358796 0.036999516 0.025482845 -0.044277832 0.032237094 -0.017371602 0.006932789 0.030946942
-0.0028800531 -0.032939773 -0.0021256814 0.012066005 0.05585271 -0.058009386 0.039298154 -0.054806028
0.03871264 -0.04491412 0.026000785 -0.0063906442 0.041129813 -0.014519689 -0.044040017 0.042091087
-0.018910227 -0.028267687 0.020473838 0.022996895 0.04236276 0.021416238 -0.023722341 -0.018303411
-0.00753313 0.009383095 -0.037609417 0.044599164 0.018350806 -0.053241905 -0.048029784 0.020466005
-0.016938293 0.012103893 0.018244658 0.017533455 -0.036179237 0.054456525 -0.042757116 -0.009890574
0.044398505 -0.027407872 -0.02225152 -0.055751268 -0.0071241367 -0.012069132 -0.013875059 -0.050183386
-0.013432283 0.04054944 -0.017924935 -0.022891054 -0.05969888 -0.035757653 -0.05076106 -0.039436586
0.048536718 0.012285889 -0.023888176 0.025664356 -0.04750772 -0.044088818 -0.060330566 -0.044619765

bias f4 [32]
00000000: ee67 18bd c021 193d 8786 113c 2b96 0abd
00000010: f709 e93c 7f72 5ebc 1ba7 0fbd b4c1 5cbd
00000020: 82de 54bc cb46 813c 4c2f 493d cf3d f53c
00000030: 78c3 64bd af23 873d 0d30 e23b 1518 05bc
00000040: ad4b 54bd 761c 24bc 6d05 253d d31c 70bc
00000050: effe 58bd 4d2c 243c 912e 0f3c 01ae bcbc
00000060: 8c69 283b 3f9a 3bbc 58c6 543c f352 8cbc
00000070: 6793 4cbd 7ff9 163d d161 98bc 227d 70bd
-0.03720849 0.037385702 0.0088821715 -0.033834618 0.028447134 -0.013577103 -0.035071474 -0.053895667
-0.012992503 0.015780827 0.04911737 0.0299367 -0.055850476 0.06598603 0.0069027008 -0.008123417
-0.051829983 -0.010016551 0.040288378 -0.01465531 -0.0529775 0.010020328 0.00873913 -0.02303219
0.0025697676 -0.011450349 0.012986742 -0.017129397 -0.04994526 0.03685903 -0.01860133 -0.058713086

weight f4 [32, 1, 3, 3]
00000000: 11c8 49bd 7864 9b3e a620 4dbe 8058 29be
00000010: 8c2b 48bd af83 90be 5a08 e33d 93f5 153d
00000020: 916d 7abd 0951 c53d 5d22 60bb 2f7d 473e
00000030: e840 29be 969e 30bc b109 383e 4585 553e
00000040: d264 ad3b 2bc7 23be 1982 73be 83bb 9dbc
00000050: 36a7 ae3d 9814 703e bae8 e7bd 69fe 9e3e
00000060: 840e 8a3d b761 383e 645e 16be 3557 9d3d
00000070: bc9c 72be 1aac 79bd 8f7e 5dbe 2318 30be
00000080: 53fd 3c3e 3f04 22be 931a 873e c948 59be
00000090: e726 44be 0a53 31be fbf6 883e 1635 713e
000000a0: 26f9 8e3e c0be 3cbd 0249 533e b8ef 53be
000000b0: 8048 15bb 08e1 bfbd ebbd 833e ff12 70be
000000c0: d7e3 863e 2116 8b3e c384 063d f4ee 723e
000000d0: 4d93 d43c ea7e 89be 1ae7 98be 7b60 b7bd
000000e0: 9388 a7be 9d1d 3abe f2f2 14bd 2ec1 a13e
000000f0: d1cd 9cbd daa2 a53e 00a3 78bd ed0a 093e
00000100: 5ca2 0cbe 31ae 59be e144 5ebe 1f83 f33d
00000110: e202 56be 5a76 e0bd 1fca bdbd ae4d 723e
00000120: 4999 3dbe 626c 74be d6c7 8abe 52b8 a73e
00000130: 668b 153c f7db a63c 479a 7abd 8677 0dbe
00000140: 92c1 87be 8537 3f3d 2d5a a13e b5b6 6f3d
00000150: 2443 dfbd 1741 963b 723d a33e a5be 3d3e
00000160: 0810 4abc 960a 20be 574c 703e 4835 56be
00000170: c5c4 28bd 87dc 4f3d 46c9 073e 9d45 77be
00000180: f4a1 213c 72b8 5cbe 3146 95be 6b93 3abe
00000190: 310c a93e 5642 833e 9897 64be 8226 583e
000001a0: 7140 913e c572 80be 4913 51bd d41c 83be
000001b0: 7945 8a3e 326f 4ebe fb56 75be 7696 fe3c
000001c0: 735d 10be 65bd 75be d412 86be 1ea4 80be
000001d0: db3e 86be 3b7a fb3d 5d83 783d 7bd4 a23e
000001e0: 3e05 583e d3c0 2fbe 96de 023e 5f7e 9f3e
000001f0: 97b1 5bbe 251e 593e 0c9a 2bbd 0135 6e3e
00000200: 6f88 2b3b ccde 903e 7508 903e 944a 69be
00000210: 68ca b93d d26b c6bd d91b 6bbe 791d 163e
00000220: e1f4 a53e 641d fa3d 1bc7 063d a395 833e
00000230: 0ca7 893d 2742 2d3e f35e 893e d52a 523e
00000240: a98f aa3c 77d5 3e3e a4a2 5c3d cd22 a13e
00000250: 69ac 5e3e dc0f 39bd 24be 17be 0293 6abe
00000260: 3e42 8e3e 0e6c 9e3b 6aa0 ce3d 663a c7bd
00000270: 4623 98bd 420d 763e a9b2 4b3d 8613 e0bd
00000280: 9649 58be d18d 9abe d79b 663d 811b 1f3e
00000290: adb6 93bd 0a2e a73e 3758 80be dcbb 46be
000002a0: 6bfa 303e 59d5 653c db1e 4f3d 726b 69bd
000002b0: 3e7b bbbd 1a10 cc3d 4837 133e 487c 913e
000002c0: f6d2 0e3e eeb0 df3c a797 05be 2a03 19bd
000002d0: e806 14be cb5b 4dbe e488 5abe fa1f 82bd
000002e0: 1c55 223d 05a5 3bbe 12d0 8f3e b170 ee3d
000002f0: 2dcc 03be be58 39be e415 a1be 88c2 533e
00000300: 58b2 b63c eb9c 8abe 0ec2 533e d78c 7bbe
00000310: d668 33be 66ad b63d 0b2b 9fbe 59ca 9cbe
00000320: 770a 083c 647c 89be 44ab 9a3e 262b 8d3e
00000330: 295f 443d f240 8dbe 22ba 0d3e 4ec4 54be
00000340: fb97 38be d1d5 1f3e 4a10 1d3e e8b9 86be
00000350: 7023 b53d 4cee 723e e9e0 18ba 7ca8 163e
00000360: 4fd3 9b3e 461c a53e 2ead 54be 437e 9abe
00000370: 360b 713e fa04 0e3e 2c1d 89be 0c04 1a3e
00000380: 7dd8 c23d 13aa 593d 419f 87bd 6c8e 223e
00000390: 1d6c 86be 8a6b 38be 1f38 423e 8898 55be
000003a0: 8c01 e9bd 47d8 8ebc 79be 96be 48bc 0b3e
000003b0: 8694 a7be 9f0a 573e e101 6cbe 4215 3d3d
000003c0: 7015 ecbd c88e 62be 86e6 72bb d8ed 323e
000003d0: 165f ce3d fd2d a2be e171 e1b8 46dd 95be
000003e0: 1537 7bbe 7456 a3be 85b7 0fbe 6be3 a23e
000003f0: 380f 7dbe c0d7 95be 11cf 94bd f800 c1bd
-0.049263064 0.3035009 -0.20031986 -0.16537666 -0.048869655 -0.28225467 0.11085577 0.03661115
-0.061139647 0.09634597 -0.003420017 0.19481348 -0.16528666 -0.010779997 0.17972447 0.2085162
0.0052915597 -0.15993945 -0.23780097 -0.019254452 0.08527987 0.23445356 -0.11323686 0.31053475
0.0674105 0.18006025 -0.14684445 0.07682649 -0.23692602 -0.060955144 -0.2163031 -0.17196707
0.1845601 -0.15821932 0.26387462 -0.21219172 -0.19155465 -0.17316833 0.2675093 0.23555407
0.2792446 -0.04608035 0.20633319 -0.20696914 -0.002277881 -0.09369093 0.25730833 -0.23444746
0.26345703 0.2716532 0.032841455 0.23723966 0.025949145 -0.2685464 -0.29863816 -0.08953949
-0.32721385 -0.18175359 -0.036364503 0.31592697 -0.07656444 0.32350808 -0.060702324 0.13383074
-0.1373381 -0.21257855 -0.21705963 0.11890244 -0.20899537 -0.10960074 -0.09267067 0.23662445
-0.18515505 -0.2386947 -0.27105588 0.32757813 0.009127473 0.02036856 -0.061182287 -0.13815126
-0.2651487 0.046683807 0.3151411 0.058523852 -0.10901478 0.004585396 0.31882817 0.18529756
-0.012332924 -0.15629038 0.23466621 -0.20918763 -0.04120328 0.05074742 0.13260373 -0.24147649
0.009865273 -0.21554735 -0.29155114 -0.18220298 0.33017114 0.25636548 -0.22323453 0.2110844
0.28369477 -0.25087562 -0.051043782 -0.25607932 0.27006128 -0.20159605 -0.23958962 0.031077605
-0.14098148 -0.2399803 -0.2618624 -0.2512521 -0.2621983 0.12279173 0.060672153 0.31802735
0.2109575 -0.171634 0.12780222 0.311511 -0.21454464 0.21202905 -0.041894957 0.23262407
0.002617385 0.2829498 0.28131452 -0.22782356 0.09071809 -0.09688534 -0.22959842 0.1465968
0.3241339 0.12212637 0.032904726 0.257001 0.06721315 0.16919766 0.26830253 0.20524152
0.020820456 0.18636118 0.053866044 0.31471863 0.21745457 -0.04518114 -0.14818627 -0.22907642
0.27784914 0.0048346585 0.1008919 -0.097279355 -0.07428603 0.24028495 0.04973093 -0.10941224
-0.21121821 -0.30186322 0.056300964 0.15537836 -0.07212577 0.32652313 -0.25067303 -0.194076
0.17283027 0.014027917 0.050566535 -0.056987233 -0.09154366 0.09964009 0.14376557 0.28415132
0.13947663 0.027306046 -0.13046132 -0.037356533 -0.1445576 -0.20054547 -0.21341282 -0.06353755
0.039631948 -0.18324669 0.28088433 0.11642588 -0.12870856 -0.18100259 -0.31462014 0.20679677
0.022301838 -0.27072844 0.20679495 -0.24565445 -0.1752046 0.08919792 -0.31087527 -0.3062313
0.008303276 -0.26852715 0.3020879 0.27571982 0.047942314 -0.27588612 0.13840535 -0.2077801
-0.18026726 0.15608908 0.15338245 -0.2631371 0.0884465 0.23723716 -0.0005831854 0.14712709
0.30434653 0.32248133 -0.20769188 -0.30174455 0.23539433 0.13869086 -0.2678007 0.15040606
0.09513948 0.05314071 -0.06622172 0.15874642 -0.2625436 -0.18009773 0.18966721 -0.20858967
-0.11377248 -0.017437113 -0.29442194 0.13646042 -0.32730502 0.21000145 -0.23047592 0.04616285
-0.115275264 -0.22124779 -0.0037063672 0.17473543 0.1007673 -0.3167571 -0.00010750048 -0.2927038
-0.24532731 -0.31901896 -0.14034851 0.3181413 -0.24712837 -0.29266167 -0.07266057 -0.09424013
