models/10.pt (torch, 837106 bytes, 17 tensors)

weight f4 [32, 1, 3, 3]
0	0xbd5d6ae2	-0.05405701
1	0x3c05f10d	0.008175147
2	0x3da01b66	0.07817726
3	0xbe832ba3	-0.2561923
4	0x3e39799f	0.18112801
5	0xbe5835b4	-0.21114236
6	0x3e89a7bc	0.26885784
7	0xbe72a30d	-0.23695011
8	0xbe7bc268	-0.24585879
9	0x3d09ad41	0.033612493
10	0x3e348e47	0.176324
11	0xbdc42738	-0.09577793
12	0xbe08d196	-0.133612
13	0x3e14bb16	0.14524493
14	0x3dd82bf1	0.10555256
15	0x3e8e10c5	0.2774717
16	0xbdaf59ea	-0.085620716
17	0xbe71b1a0	-0.23602915
18	0xbe3e0259	-0.18555583
19	0x3dddbb13	0.10826697
20	0xbe975d32	-0.2956329
21	0x3e150dde	0.14556071
22	0x3e545347	0.20734893
23	0x3e7f898a	0.2495481
24	0x3e02b4e5	0.12764318
25	0xbddc000c	-0.107421964
26	0xbe172d16	-0.14763293
27	0xbe3d8e44	-0.18511301
28	0x3ea627b0	0.32452154
29	0xbd6528da	-0.055947162
30	0xbdb668f7	-0.08906739
31	0xbdccd594	-0.10001674
32	0x3e85e690	0.26152468
33	0x3e7c80aa	0.24658456
34	0xbd199778	-0.037497967
35	0x3e446116	0.1917766
36	0x3ea72941	0.32648662
37	0xbdd52e63	-0.10409238
38	0xbdd1d829	-0.102463074
39	0x3e9a0de6	0.3008873
40	0x3e2f69bd	0.1713018
41	0xbda0f81d	-0.07859824
42	0x3e991d07	0.2990496
43	0x3e104e1f	0.14092301
44	0x3cdfacf4	0.02730415
45	0x3e9fbdd7	0.31199524
46	0x3e97fff4	0.29687464
47	0xbe156fdd	-0.14593454
48	0x3d8f2820	0.06990075
49	0xbdfb5d28	-0.122736275
50	0x3e496222	0.19666341
51	0xbe0bbd92	-0.13646534
52	0xbe6427c1	-0.2228079
53	0x3e61a751	0.22036482
54	0xbde95b41	-0.113943584
55	0x3cbf4472	0.023348067
56	0x3ea04796	0.31304616
57	0xbe6d7338	-0.23188484
58	0xbd94cd55	-0.072657265
59	0x3deb1a19	0.11479587
60	0x3e18ad61	0.14909889
61	0xbea8e967	-0.32990572
62	0x3d567a5a	0.052362777
63	0x3dc7f717	0.097639255
64	0x3e03cfd1	0.12872244
65	0x3e5a038b	0.21290414
66	0xbe23a319	-0.15980186
67	0x3ea927e4	0.33038247
68	0x3d9bde9a	0.07610817
69	0xbdc131fe	-0.094333634
70	0x3d95b7a0	0.07310414
71	0xbe37a986	-0.17935762
72	0xbe48f86b	-0.19626014
73	0xbe5d3b8b	-0.21604745
74	0xbe26ff85	-0.1630841
75	0x3e403fcd	0.18774338
76	0xbdce3676	-0.10068981
77	0xbe828963	-0.25495443
78	0x3e7ad8bd	0.24496742
79	0xbe92f07f	-0.2869911
80	0x3b6e115e	0.003632627
81	0x3e8bf21b	0.2733315
82	0x3e50fbda	0.20408574
83	0xbe3c9052	-0.18414429
84	0x3e9d0bb1	0.30672982
85	0x3e730ce7	0.2373539
86	0x3ea98699	0.33110502
87	0xbe02d542	-0.12776664
88	0xbc0cf34d	-0.008602929
89	0xbe942fe2	-0.28942782
90	0xbea78669	-0.32719734
91	0x3de1533f	0.11002206
92	0x3d03dc18	0.03219232
93	0x3e2b3bb3	0.16721992
94	0xbdf34803	-0.118789695
95	0x3e19780b	0.14987199
96	0x3e9e819c	0.3095826
97	0xbea103e7	-0.3144829
98	0x3e7b4e71	0.24541642
99	0x3dac8dc2	0.08425476
100	0xbd0d0e7d	-0.034437645
101	0x3e1e6886	0.1546956
102	0x3e921689	0.28532818
103	0xbe7c8f15	-0.24663956
104	0xbe8bb377	-0.27285358
105	0xbd66ac0e	-0.056316428
106	0xbdc98825	-0.09840421
107	0x3e118633	0.14211349
108	0x3d03ec71	0.03220791
109	0xbe3a9c57	-0.18223701
110	0xbe80ac26	-0.2513134
111	0x3e3f4f3e	0.18682572
112	0xbe6a2bf7	-0.22868334
113	0x3cb8415e	0.022492107
114	0x3e0b718d	0.13617535
115	0xbe7727b7	-0.24136244
116	0xbe8cf572	-0.2753101
117	0x3e9f0e26	0.31065482
118	0x3e76085c	0.24026626
119	0xbd9baccc	-0.07601318
120	0xbe6933ee	-0.22773716
121	0xbe9717fc	-0.29510486
122	0xbe5aaf9b	-0.2135605
123	0x3e820706	0.25395983
124	0xbe63278c	-0.22183055
125	0xbe4dcc95	-0.20097573
126	0xbe860f9d	-0.26183787
127	0x3e583e5c	0.21117538
128	0xbe9065f5	-0.28202787
129	0x3e78f074	0.24310476
130	0xbe5acf5e	-0.21368167
131	0x3e8e7f57	0.27831528
132	0xbe8b6f72	-0.27233464
133	0x3e382515	0.17982896
134	0xbe6a43f1	-0.2287748
135	0xbd8025b4	-0.06257191
136	0x3e9c2cd2	0.30502945
137	0x3ba98510	0.005173333
138	0x3e9783be	0.295927
139	0xbe61ef67	-0.22063981
140	0xbeb07b7c	-0.3446921
141	0x3bf6ab65	0.007527756
142	0x3e930015	0.28711
143	0xbda44639	-0.080212064
144	0xbe945820	-0.28973484
145	0x3e3dfcb1	0.18553425
146	0x3ce64821	0.028110566
147	0xbb258058	-0.00252535
148	0xbe22be05	-0.15892799
149	0xbe9c1314	-0.30483305
150	0x3e9d24d5	0.30692163
151	0x3d854200	0.06506729
152	0x3d16ee5b	0.036848407
153	0x3e9f2148	0.3108008
154	0xbe7eb7a8	-0.24874747
155	0xbe77330e	-0.2414057
156	0x3da1a2fc	0.07892415
157	0x3defad87	0.117030196
158	0x3d877ddf	0.06615805
159	0xbe2fc615	-0.17165406
160	0x3e777120	0.24164248
161	0x3e9e6e88	0.30943704
162	0x3dc85545	0.09781889
163	0x3e9e4075	0.30908552
164	0x3a219eb6	0.00061653124
165	0x3dd9a569	0.106272526
166	0x3e637b0f	0.22214912
167	0xbe0ac257	-0.13550697
168	0x3e821bc7	0.25411817
169	0x3e5c1829	0.21493591
170	0xbdb12ebe	-0.086514935
171	0xbdf9f4a7	-0.12204867
172	0xbe17fe01	-0.14842989
173	0xbe2b91e4	-0.16754872
174	0x3eaa0355	0.33205667
175	0xbdf471ff	-0.119358055
176	0x3e396e6a	0.18108526
177	0xbe9b1b6f	-0.30294368
178	0xbdc56688	-0.09638697
179	0x3cc33f8b	0.02383401
180	0xbdf81bc9	-0.121146746
181	0xbe697a89	-0.2280065
182	0xbd0c6653	-0.03427727
183	0x3e93c780	0.28863144
184	0x3e56dc7f	0.2098255
185	0x3e9ae99f	0.30256364
186	0xbe5a71c6	-0.21332464
187	0x3dc94a3d	0.09828613
188	0x3dd953cb	0.10611685
189	0x3e37e9c0	0.17960262
190	0x3e3cdd30	0.18443751
191	0xbe3d9447	-0.18513595
192	0xbda32f58	-0.079680145
193	0x3e80790f	0.2509236
194	0xbcf21e11	-0.029555352
195	0xbd4173e7	-0.047229674
196	0x3e26d1cd	0.1629097
197	0x3c209558	0.009801231
198	0x3d54061b	0.051763635
199	0xbea373b5	-0.31924215
200	0xbdcabac4	-0.09898904
201	0x3e0e132e	0.13874504
202	0xbdda3f0c	-0.106565565
203	0x3db1460d	0.08655939
204	0x3e950b02	0.2910996
205	0x3e655924	0.22397286
206	0x3e9962af	0.29958102
207	0x3e2a5fcb	0.16638105
208	0xbd82e536	-0.06391375
209	0xbe156330	-0.14588618
210	0xbe6b20f4	-0.2296179
211	0x3dcffff1	0.10156239
212	0xbeaa37e0	-0.33245754
213	0x3e565e38	0.20934379
214	0x3dc8f557	0.0981242
215	0xbd94f151	-0.0727259
216	0x3dca0baa	0.09865506
217	0xbdc95000	-0.09829712
218	0xbe19a2e0	-0.15003538
219	0xbe97a4b6	-0.29617852
220	0xbdc59623	-0.09647777
221	0xbddb6164	-0.10711935
222	0x3d0edf36	0.03488084
223	0x3e985dde	0.29759115
224	0xbe0be34f	-0.1366093
225	0x3e6e5927	0.23276196
226	0x3e0a635b	0.13514464
227	0x3d127926	0.035760067
228	0xbe8839ff	-0.26606748
229	0xbe37ba9c	-0.1794228
230	0x3e6b0cd1	0.22954108
231	0xbe9c505b	-0.30530056
232	0x3e4c37e5	0.19943197
233	0xbe3a9e7c	-0.1822452
234	0x3d867060	0.065644026
235	0x3e3fd661	0.18734123
236	0xbe6e1379	-0.23249616
237	0x3e7e7011	0.24847437
238	0x3e21e81f	0.15811203
239	0xbe4f9d28	-0.20274794
240	0x3b21bfaf	0.0024680903
241	0xbe75bacb	-0.23997037
242	0x3d4a1571	0.049336854
243	0x3e5e64cd	0.2171814
244	0x3e143161	0.14471962
245	0xbe7bf1cc	-0.24603957
246	0xbd56e062	-0.052460082
247	0xbe8b099a	-0.27155763
248	0x3e4aa793	0.19790487
249	0xbdcb7407	-0.0993424
250	0x3d8e18ef	0.069383495
251	0xbe61f55a	-0.2206625
252	0xbdd52e2f	-0.104091994
253	0xbe68c297	-0.2273048
254	0xbe94297a	-0.28937894
255	0x3ea3188a	0.3185466

bias f4 [32]
0	0x3d3ae873	0.045631837
1	0x3dc7d767	0.097578816
2	0x3daef21c	0.085422724
3	0xbe97df81	-0.29662707
4	0x3ea3f57e	0.32023233
5	0xbd2d39e8	-0.04229155
6	0xbd3571fc	-0.044298157
7	0x3e5b990c	0.21445101
8	0x3e9b4905	0.30329147
9	0xbcc0d351	-0.023538264
10	0xbe275d9c	-0.16344303
11	0x3e8f5029	0.27990845
12	0x3d43f3dc	0.047839984
13	0x3e5951b8	0.2122258
14	0x3e048d64	0.12944561
15	0x3e8b693f	0.27228734
16	0xbdb16636	-0.08662073
17	0xbd230b54	-0.039805725
18	0xbd333a8b	-0.043757003
19	0x3e481563	0.19539408
20	0xbe7aca54	-0.24491245
21	0xbdc787cd	-0.09742699
22	0x3d32f531	0.043690864
23	0x3e117181	0.14203455
24	0x3e0ff323	0.14057593
25	0x3db32920	0.08748078
26	0x3d77d09b	0.060501676
27	0xbb9dddab	-0.0048176846
28	0xbe638e2a	-0.222222
29	0xbdd02768	-0.10163766
30	0xbda2eb59	-0.07955045
31	0x3d8f87f3	0.07008352

weight f4 [64, 32, 3, 3]
0	0x3d7ed9eb	0.06221954
1	0x3d101600	0.03517723
2	0xbc942b58	-0.018087074
3	0xbcdc12ee	-0.026864495
4	0x3bcac604	0.006188156
5	0x3d01f3d9	0.031726692
6	0xbd100179	-0.035157654
7	0xbd030403	-0.031986248
8	0x3d257ae7	0.040400412
9	0xbc36043e	-0.01110941
10	0xbc17727d	-0.009243605
11	0x3d5483d9	0.051883552
12	0x3cf84107	0.030304445
13	0xbadabb4b	-0.0016687898
14	0xbd2bcd55	-0.041943867
15	0x3d4ac08a	0.049500026
16	0x3cd5d1f9	0.0261011
17	0x3c4c2d4a	0.01246197
18	0xbcb5c206	-0.022187244
19	0xbc5ec68f	-0.013597145
20	0x3c1d46eb	0.009599428
21	0x3ccc8f94	0.024970807
22	0x3c0d5dfe	0.0086283665
23	0xbcddc281	-0.027070286
24	0xbd509220	-0.050920606
25	0x3d27dcb9	0.040981982
26	0x3cef9e36	0.029250246
27	0x3c0638af	0.008192225
28	0xbccd49cc	-0.025059603
29	0xbd2390ef	-0.03993314
30	0x3c7e5208	0.015522487
31	0xbd3a58dd	-0.045494903
32	0xbb0b9e7b	-0.0021304179
33	0xbc3640af	-0.01112382
34	0x3d7255b6	0.05916377
35	0x3c8e024d	0.017335081
36	0x3bd2b0c6	0.0064297644
37	0x3cde2aa3	0.02711994
38	0xbd585c8f	-0.052822646
39	0xbd5dd39a	-0.054156877
40	0xbd520de1	-0.051282767
41	0xbc315c32	-0.010825204
42	0xbd4acef1	-0.04951376
43	0xbb46f0b7	-0.003035588
44	0x3d192a90	0.037394106
45	0x3ab89d5e	0.0014084985
46	0x3c94de59	0.01817243
47	0xbcae4349	-0.021272318
48	0x3c33161f	0.010930567
49	0x3d3c0252	0.04590065
50	0x3d4cbcc0	0.049984694
51	0x3d3aeba9	0.0456349
52	0x3d59529b	0.053057294
53	0x3d656baa	0.05601088
54	0x3d52187d	0.051292885
55	0xbd249298	-0.040178865
56	0xbcc8b263	-0.024499124
57	0xbce494f6	-0.027903061
58	0x3bda2d27	0.0066582146
59	0xbd02f5fc	-0.03197287
60	0x3d0d9ee4	0.034575358
61	0x3cd54cdc	0.026037626
62	0x3c90048c	0.017580293
63	0xbd5cf959	-0.053948734
64	0xbd23f190	-0.040025294
65	0xbcb5e27c	-0.022202723
66	0xbcef0d60	-0.029181182
67	0xbd393362	-0.045215018
68	0x3cd8ca30	0.026463598
69	0x3d01c07e	0.031677715
70	0x3c95dd42	0.01829398
71	0xbd2e406a	-0.0425419
72	0x3ce5ecc8	0.028067008
73	0x3cc14c21	0.023595871
74	0xbd9644ef	-0.07337367
75	0x3d192da3	0.03739704
76	0xbd1e3823	-0.038627755
77	0xbd8a6745	-0.06757978
78	0x3c914fba	0.017738212
79	0xbd0138a3	-0.031548154
80	0xbd9a74ce	-0.0754181
81	0x3d6c15ab	0.05763785
82	0xbcab75ea	-0.02093025
83	0x3b8da4f5	0.004322643
84	0x3d1c6622	0.03818334
85	0xbccc35db	-0.024928024
86	0xbc8d6cde	-0.017263826
87	0xbd40ae13	-0.04704101
88	0x3cdd8665	0.027041623
89	0xbd128f0c	-0.03578095
90	0xbd3e5d23	-0.04647554
91	0xbbede482	-0.0072599063
92	0x3b9fb631	0.004874014
93	0xbc10ce0f	-0.008838191
94	0x3d05df20	0.03268349
95	0xbd3acc77	-0.04560515
96	0xbcc396aa	-0.023875553
97	0x3c50ff2a	0.012756148
98	0xbcf6534f	-0.030069022
99	0xbc4aca43	-0.0123773245
100	0x3ab465c7	0.0013763242
101	0x3d9f498b	0.07777699
102	0x3c2fbdf4	0.010726441
103	0x3ce43496	0.027857106
104	0x3d7e095e	0.062020652
105	0x3cdd0444	0.026979573
106	0xbba35dd2	-0.0049855495
107	0x3d1f9437	0.038959708
108	0xbc9a379e	-0.018825348
109	0x3d86124c	0.065464586
110	0x3d3ef4b4	0.046620086
111	0xbd1d0190	-0.03833157
112	0xbd7da5e8	-0.0619258
113	0xbc27c710	-0.010240331
114	0x3c573676	0.013135543
115	0xbd92a403	-0.07160189
116	0xbd48a62f	-0.04898661
117	0xbd33651e	-0.043797605
118	0xbbbe70fc	-0.0058118086
119	0xbd6ab2d6	-0.057299457
120	0x3c271055	0.010196765
121	0x3d529e57	0.051420536
122	0x3c1bc538	0.00950747
123	0xba4f5d7f	-0.00079103553
124	0x3c811618	0.015757605
125	0x3d3d9943	0.04628874
126	0x3d1876d1	0.037222687
127	0xbcaf5150	-0.021401078
128	0x3db8aead	0.09017692
129	0x3d0d8969	0.034554873
130	0xbc96eb63	-0.018422788
131	0x3d8cde2b	0.06878313
132	0xbcb6da54	-0.022320904
133	0x3d8cf264	0.0688217
134	0x3d819412	0.0632707
135	0xbce1744a	-0.027521271
136	0x3c6538ca	0.01399059
137	0xbc88b1b7	-0.016686304
138	0x3b4d1620	0.0031293705
139	0xbc9300f3	-0.017944789
140	0xbc21b9a7	-0.009870923
141	0xbcf3ea66	-0.029774856
142	0x3bf7c6ec	0.007561555
143	0xbd269283	-0.04066707
144	0x3afa9c96	0.0019120153
145	0x3b5512dc	0.0032512462
146	0x3d7a7f8b	0.06115679
147	0x3c90fcee	0.017698731
148	0x3a931d64	0.0011223969
149	0x3cefbc22	0.029264513
150	0x3b2c7fa9	0.0026321209
151	0x3d381dbc	0.044950232
152	0xbd0f5437	-0.034992423
153	0xbd3758de	-0.044762485
154	0xbc9cc8f1	-0.019138785
155	0x3ce4497c	0.027867071
156	0x3bb61881	0.0055571203
157	0xbb901e3d	-0.004398136
158	0xbd3f0455	-0.04663499
159	0xbc2b5fa4	-0.010459814
160	0x3d5a46d0	0.05329019
161	0xbbc998ad	-0.0061522336
162	0xbd3aa95f	-0.04557168
163	0x3d13f173	0.036118936
164	0x3ccf51bd	0.02530753
165	0x3cbb0e62	0.022834007
166	0xbd209d8e	-0.039212756
167	0xbc98057f	-0.018557308
168	0xbcae2f5b	-0.021262815
169	0x3bab7088	0.0052319206
170	0x3c917b77	0.017759068
171	0x3b6daa10	0.0036264695
172	0x3cfb7fe4	0.030700631
173	0x3d8b1bc4	0.06792405
174	0x3d142f3a	0.03617785
175	0x3d74696a	0.059670843
176	0x3d0f76d7	0.035025444
177	0x3be5fd77	0.0070187408
178	0x3d24407c	0.04010056
179	0xbcff7698	-0.03118448
180	0xbd2d5939	-0.042321417
181	0xbd247652	-0.0401519
182	0x3d84dc7e	0.06487368
183	0xbbb0599f	-0.0053817774
184	0xbc811a36	-0.015759569
185	0xbbba9d66	-0.005695033
186	0x3cd63213	0.026146924
187	0xbd55decb	-0.052214425
188	0xbcff8b8d	-0.031194473
189	0x3c8e20c9	0.017349618
190	0x3ce8ad2d	0.02840289
191	0xbcbdc137	-0.023163421
192	0xbd378974	-0.04480882
193	0xbd50e29e	-0.05099737
194	0xbcd92825	-0.0265084
195	0x3cee0796	0.029056352
196	0xbd031e10	-0.03201109
197	0x3d59e041	0.05319238
198	0x3d6222fe	0.055209152
199	0xbd38d125	-0.04512133
200	0xbb8edb22	-0.0043596188
201	0x3d294e27	0.041334298
202	0x3d54e3c5	0.05197503
203	0x3d02a1dd	0.031892646
204	0x3b565b12	0.003270809
205	0x3d757fe8	0.059936434
206	0xbd31b769	-0.043387804
207	0x3d5e6e6a	0.054304518
208	0xbc0b7a54	-0.008513052
209	0xbc038f2e	-0.008029742
210	0x3ca86d26	0.020559859
211	0x3ce11848	0.027477399
212	0xbcdc5f6b	-0.026900968
213	0xbc575c6c	-0.013144594
214	0x3d26dcab	0.04073779
215	0x3d2e226d	0.0425133
216	0x3d2a9dff	0.041654583
217	0xbd12ce2f	-0.035841163
218	0xbc69d618	-0.014272235
219	0xbd30f961	-0.043206576
220	0xbc5c06a1	-0.013429315
221	0x3cf586f0	0.02997157
222	0x3d82a65b	0.06379386
223	0xbc976a42	-0.018483285
224	0x3d8cbefa	0.068723634
225	0x3d8112f6	0.06302445
226	0xbd2aec27	-0.04172912
227	0x3b8cef7b	0.0043010092
228	0xbd20d8b6	-0.03926917
229	0x3c0977fc	0.008390423
230	0x3d883f6f	0.06652724
231	0x3d9292b2	0.07156886
232	0x3c307691	0.010770456
233	0xbd235861	-0.039879207
234	0xbc0e6de6	-0.008693194
235	0xbcad852f	-0.021181671
236	0x3c8214c0	0.015879035
237	0xbcfc9c84	-0.030836351
238	0xbd0963a2	-0.033542283
239	0x3d6255ab	0.05525748
240	0xbcc1fbfa	-0.023679722
241	0xbcea30a6	-0.02858765
242	0x3d14433a	0.036196925
243	0x3d431a81	0.047632698
244	0x3ccb34af	0.024805395
245	0x3db05fd4	0.08612028
246	0x3cbf8ac6	0.023381602
247	0x3d2529ab	0.04032294
248	0xbc90d6b1	-0.017680498
249	0x3d618a5a	0.055063583
250	0xbcf56cd9	-0.02995913
251	0x3d1d6904	0.03843023
252	0x3d73861e	0.059454076
253	0x3be8b31b	0.007101429
254	0x3d031347	0.032000806
255	0xbd07c5bb	-0.033147555

bias f4 [64]
0	0x3c88257e	0.01661944
1	0x3d51697f	0.051126
2	0x3bb786e8	0.005600799
3	0xbc91f4f7	-0.017817004
4	0x3d712a12	0.058878012
5	0x3d452a64	0.04813613
6	0xbd014779	-0.031562302
7	0x3a34652a	0.00068815297
8	0xbd64028c	-0.05566649
9	0x3ccbb0b9	0.024864541
10	0x3d67be1c	0.056577787
11	0x3b298d52	0.0025871587
12	0xbd45ce1f	-0.048292276
13	0x3d96440f	0.073372
14	0x3d13d7f8	0.036094636
15	0x3d41b3db	0.047290664
16	0x3d4d9234	0.05018826
17	0x3cb6020e	0.022217777
18	0x3ca4a85b	0.02009981
19	0x3cec7b0e	0.02886727
20	0xbd25aaf3	-0.040446233
21	0xbd08a4ea	-0.0333604
22	0xbcbbf087	-0.02294184
23	0x3d7628a7	0.060097363
24	0xbd04a991	-0.032388274
25	0x3cb36b1e	0.021901663
26	0x3d8402a4	0.06445816
27	0xbd0a7922	-0.033806928
28	0x3cfc58a7	0.030803991
29	0xbd72da9b	-0.05929051
30	0xbb89ac15	-0.004201422
31	0xbced60f2	-0.028976891
32	0x3d59b4ac	0.053150818
33	0xbd516956	-0.051125847
34	0xbd0f6ed2	-0.035017796
35	0xbd6cf599	-0.057851408
36	0x3d371471	0.04469723
37	0x3cd548a1	0.026035609
38	0x3c5abc78	0.0133505985
39	0x3d4a8e69	0.04945222
40	0x3d0c5e95	0.034269888
41	0x3c364fd5	0.011127432
42	0xbc7edf28	-0.015556134
43	0x3cc50245	0.024048934
44	0x3d1b417f	0.03790426
45	0x3d89bcf3	0.06725492
46	0xbd224fed	-0.039627004
47	0xbc4eb712	-0.01261689
48	0xbd1b8a05	-0.037973423
49	0x3d6fcd15	0.05854519
50	0xbd1b3306	-0.037890457
51	0x3d36e792	0.044654436
52	0x3d932dc0	0.071864605
53	0x3ce5806a	0.028015334
54	0x3b8beb8c	0.0042700227
55	0x3d4261dd	0.04745661
56	0x3cdae41c	0.0267201
57	0x3cfb8f5d	0.03070801
58	0x3cb00b9b	0.021489909
59	0xbd288b9c	-0.041148767
60	0xbce425a6	-0.027849983
61	0x3d308b44	0.043101564
62	0xbc026bdd	-0.007960287
63	0x3d81a38b	0.063300215

weight f4 [128, 64, 3, 3]
0	0xbd3fe64d	-0.04685049
1	0xba112890	-0.00055373553
2	0xbd333263	-0.043749224
3	0xbcf51f33	-0.029922104
4	0x3c3e0600	0.01159811
5	0xbd0e5328	-0.034747273
6	0xbd0f6113	-0.035004687
7	0x3cf3d3b7	0.02976404
8	0xbca8755b	-0.020563772
9	0xbcdd0578	-0.026980147
10	0xbc9a412a	-0.0188299
11	0x3d194934	0.037423328
12	0xbc0356d2	-0.008016305
13	0xbcebce15	-0.028784791
14	0xbd0c2e66	-0.034223936
15	0xbcf0a751	-0.029376658
16	0x3ccee6ca	0.025256533
17	0x3d04e0e0	0.03244102
18	0xbd133e49	-0.03594807
19	0xbc842239	-0.0161296
20	0x3d23a262	0.039949782
21	0xbc2218b9	-0.00989359
22	0xbc4071ed	-0.011745912
23	0x3c3dfd4d	0.011596036
24	0x3a933e43	0.0011233765
25	0x3ccb245f	0.024797617
26	0xbd1d84f7	-0.038456883
27	0x3cc0b53b	0.023523917
28	0xbc2e5ca8	-0.010642208
29	0x3ccc2181	0.02491832
30	0x3d141662	0.03615416
31	0xbc32476c	-0.010881286
32	0xbccfbecc	-0.025359534
33	0xbcfa9ef1	-0.030593367
34	0x3d118501	0.035527233
35	0x3d1a5885	0.037682075
36	0x3c2104f9	0.009827846
37	0xbc672858	-0.01410874
38	0xbcc3553e	-0.023844358
39	0xbd09d1fd	-0.033647526
40	0x3ccea697	0.02522592
41	0x3d1b4f39	0.03791735
42	0x3bae36de	0.0053165993
43	0xbd12146f	-0.03566402
44	0x3d276699	0.04086933
45	0x3c9eaacf	0.019368557
46	0x3d2bfa79	0.041986916
47	0xbceae326	-0.028672766
48	0x3bb73b57	0.0055917907
49	0x3d120d4b	0.03565721
50	0xbbadd45c	-0.005304856
51	0x3c729c22	0.014807733
52	0x3d018c17	0.03162774
53	0xbccdbaab	-0.025113424
54	0xbb2238a8	-0.0024753008
55	0xbbd57433	-0.006514096
56	0xbca2b8f4	-0.019863583
57	0xbcf7d3e8	-0.030252412
58	0xbcf03a55	-0.02932469
59	0xbcd702c4	-0.026246436
60	0x3d1da5e6	0.03848829
61	0x3c48d00d	0.012256634
62	0x3d24c5e3	0.040227782
63	0x3d2ab52b	0.04167668
64	0xbc30bb22	-0.010786803
65	0x3ce9e782	0.028552774
66	0x3be8ca55	0.007104198
67	0x3c24c73f	0.01005727
68	0xbbce4c00	-0.006295681
69	0x3cb908f6	0.02258728
70	0x3cf22873	0.029560303
71	0xbd259ba8	-0.04043165
72	0xbd29ef54	-0.041488007
73	0x3c8ff80d	0.017574335
74	0x3cb170f7	0.021660311
75	0xbd0c8af0	-0.03431219
76	0xbd4b6d9f	-0.04966509
77	0x3c3790b5	0.011203934
78	0xbcf72400	-0.030168533
79	0x3cfb85b0	0.030703396
80	0x3cf0be74	0.02938769
81	0xbd1b7282	-0.037951
82	0xbd05f919	-0.03270826
83	0xbcfa373c	-0.030543916
84	0x3bcd60fb	0.0062676645
85	0x3d112e3a	0.035444476
86	0xbbf422d7	-0.0074504423
87	0x3cd63c62	0.02615184
88	0xbd290889	-0.041267905
89	0xbd2f95d7	-0.042867508
90	0xbc5a7180	-0.013332725
91	0xbc9efa1c	-0.01940637
92	0x3c645dc9	0.013938376
93	0x39b956f7	0.00035350744
94	0xbca8e398	-0.020616338
95	0x3b036a9f	0.0020052565
96	0xbceeac1e	-0.029134806
97	0xbc72cc0e	-0.014819158
98	0x3ad85184	0.0016503786
99	0xbcf9831b	-0.030458024
100	0x3cc9fc6f	0.024656503
101	0xbcab6edb	-0.020926883
102	0xbd2214ee	-0.03957074
103	0x3d28c26b	0.041201036
104	0xbd1296c3	-0.03578831
105	0xbc93c393	-0.018037593
106	0x3b963ab1	0.0045846333
107	0xbbb762f4	-0.005596513
108	0x3bdd3d75	0.006751711
109	0xbbbb16a0	-0.005709484
110	0xbc5afdad	-0.013366145
111	0xbca641e2	-0.020295087
112	0x3aa4ed60	0.001258295
113	0x3d160c26	0.03663268
114	0xbccbaad8	-0.024861738
115	0x3c0ac5e9	0.008470037
116	0x3ccd08cc	0.025028609
117	0x3cb5578c	0.022136472
118	0x3c0a49ab	0.008440415
119	0xbc917977	-0.017758114
120	0x3c5d4618	0.013505481
121	0xbc539b90	-0.012915507
122	0xbaf86a54	-0.0018952587
123	0x3d8de966	0.06929283
124	0x3c643917	0.013929627
125	0x3d69a61e	0.057043187
126	0x3ba0686b	0.00489526
127	0x3c833c6f	0.016020028
128	0x3d2654de	0.04060828
129	0x3d3080c5	0.043091554
130	0x3c96a003	0.018386846
131	0x3bf33c1d	0.0074229375
132	0x3cb92b72	0.022603724
133	0x3b9dcc60	0.004815623
134	0x3cb6a67b	0.022296181
135	0x3cffca11	0.031224282
136	0xbcb5625b	-0.022141626
137	0x3cd1c788	0.02560784
138	0xbd228d06	-0.03968527
139	0xbd1072a8	-0.035265595
140	0xbc9d615f	-0.01921147
141	0xbd2f222a	-0.04275719
142	0xbc4d7f37	-0.012542537
143	0x3cb8fa46	0.022580277
144	0xbcc2380b	-0.023708364
145	0xbca5b98c	-0.020230077
146	0x3b0d423e	0.0021554376
147	0x3d0aa77a	0.033851124
148	0x3ce76df2	0.028250668
149	0x3cfcbdc3	0.030852204
150	0xbd23679f	-0.039893743
151	0xbbe15c45	-0.0068774545
152	0x3c5f8004	0.013641361
153	0xbc651e85	-0.013984327
154	0xbd0c1f18	-0.03420934
155	0x3c88fc1c	0.016721778
156	0x3d126b44	0.035746828
157	0xbc9414bf	-0.018076299
158	0x3cd3aabe	0.025838252
159	0xbcfba4b3	-0.030718183
160	0xbd0da014	-0.03457649
161	0x3c26db76	0.0101841595
162	0x3c2a9173	0.010410654
163	0x3c3adcd2	0.011405187
164	0x3c958fc4	0.01825703
165	0xbcc764de	-0.02434009
166	0xbc4aae14	-0.012370605
167	0x3b71f9d4	0.003692259
168	0xbb212c7e	-0.002459317
169	0xbcc796c3	-0.024363881
170	0xbc79645d	-0.015221682
171	0x3c99e6a8	0.018786743
172	0x3c046bd5	0.00808235
173	0xbc416cea	-0.011805752
174	0x3ce36cb1	0.027761789
175	0x3cf8eda6	0.030386757
176	0xbc01fc20	-0.007933646
177	0x3cdb975d	0.026805574
178	0x3ccb63e5	0.024827907
179	0xbd02daa2	-0.031946786
180	0xb817a192	-3.615168e-05
181	0xbce392b0	-0.027779907
182	0xbc45a96a	-0.012064317
183	0xbc72cd45	-0.014819448
184	0xbcce9fa9	-0.025222616
185	0xbb27aaf7	-0.002558408
186	0xbb323b2e	-0.0027195918
187	0xbd0e4e56	-0.034742676
188	0xbc08de33	-0.008353758
189	0x3d151fad	0.03640716
190	0xb8aad71d	-8.1463e-05
191	0x3d046895	0.0323263
192	0xbbc88d9f	-0.006120398
193	0xbcacd493	-0.021097457
194	0xbcbacba7	-0.022802187
195	0xbceec169	-0.02914496
196	0xbc784c26	-0.015154874
197	0x3cfcade1	0.03084463
198	0x3b854779	0.004067358
199	0x3c80028f	0.01562622
200	0x3cdf2d5e	0.027243312
201	0x3b002e34	0.001955879
202	0x3c4acffa	0.012378687
203	0x3cec170b	0.028819581
204	0x3c937aab	0.018002829
205	0xbcf1badf	-0.029508052
206	0xbc932d6f	-0.017966
207	0xbd1a0b5e	-0.037608497
208	0x3cbeee26	0.023306917
209	0xba6c824e	-0.00090221025
210	0xbcd79d83	-0.026320225
211	0xbd1e89a1	-0.038705472
212	0xbccfd85e	-0.025371727
213	0x3ce90104	0.028442867
214	0x3c1e3860	0.009656996
215	0x3c28205d	0.010261622
216	0xbc02e6f2	-0.007989632
217	0xbcb30042	-0.021850709
218	0x3d12a5c6	0.035802625
219	0x3c468fda	0.012119258
220	0x3d22f30e	0.039782576
221	0x3cec6cc5	0.02886046
222	0x3c96ea39	0.018422233
223	0x3cbb1481	0.022836925
224	0xbcaae89b	-0.020862868
225	0x3cb88819	0.022525834
226	0xb993b351	-0.00028171626
227	0x3d251441	0.04030252
228	0xbc06865c	-0.008210745
229	0x3b7c6da5	0.0038517502
230	0xbcf2f78b	-0.029659053
231	0xbbc32990	-0.0059558824
232	0x3950df33	0.00019919574
233	0x3c27f0e2	0.010250302
234	0xbc150b11	-0.009096877
235	0xbc9769c7	-0.018483056
236	0xbd1daaff	-0.038493153
237	0xbd1d7b5e	-0.03844773
238	0xbc5f1394	-0.013615508
239	0x3c40baf1	0.01176332
240	0xbb8afcb4	-0.0042415503
241	0x3ceab95d	0.028652841
242	0x3c866cea	0.016409356
243	0xbc101faa	-0.008796612
244	0x3d02c40d	0.03192525
245	0x3b29733a	0.0025856034
246	0xbcbb55c4	-0.022868045
247	0x3c5ff6a8	0.013669647
248	0xba6c7f2e	-0.0009021637
249	0xbb8d0491	-0.004303523
250	0x3c86432e	0.016389456
251	0xbc9ab018	-0.018882796
252	0x3cba28da	0.022724558
253	0x3b2a4d59	0.0025986044
254	0x3a9b7505	0.0011860436
255	0xbcb227d2	-0.021747503

bias f4 [128]
0	0x3c28573b	0.010274704
1	0x3d1961c9	0.03744677
2	0x3c25bcc7	0.010115809
3	0x3d04d4da	0.032429554
4	0xbd1ab97e	-0.037774555
5	0xbcee87cc	-0.029117487
6	0xbd0aef93	-0.033919882
7	0xbcc97562	-0.024592105
8	0xbba8f5ea	-0.0051562684
9	0x3d6eaf65	0.058272738
10	0x3ce96026	0.02848823
11	0xbcf0f723	-0.029414719
12	0xbd1c3fdc	-0.03814684
13	0xbb97eb4b	-0.0046362034
14	0xbd104385	-0.03522064
15	0xbbbb81d8	-0.0057222657
16	0xbb36b730	-0.0027880184
17	0xba6e66e9	-0.00090943143
18	0xbcd147c5	-0.025546918
19	0x3c7a5461	0.015278907
20	0x3ac7c84a	0.0015242186
21	0x3b93deb3	0.004512632
22	0x3cd15df8	0.025557503
23	0xbcb17edc	-0.021666937
24	0x3bf4e513	0.007473597
25	0x3be1609a	0.006877971
26	0xbd8164e2	-0.0631807
27	0x3d11b4d1	0.03557283
28	0x3c4d9107	0.012546784
29	0xbd139d0b	-0.03603844
30	0xbc74e0fc	-0.014946219
31	0xbccfc85a	-0.02536409
32	0x3c0f1d2d	0.008734983
33	0xbc986e4c	-0.018607281
34	0xbc54e35b	-0.012993659
35	0xbc992304	-0.018693455
36	0x3cadb3b4	0.021203853
37	0xbd1e4f05	-0.038649578
38	0xbba723f1	-0.00510072
39	0x3d3afdbb	0.045652132
40	0x3c033cac	0.008010071
41	0xba053faf	-0.0005083037
42	0xbd0cc2c8	-0.034365445
43	0xbcef64e7	-0.029222919
44	0x3d5bc2a2	0.053652413
45	0x3d2bfa81	0.041986946
46	0xbc5d0bce	-0.013491584
47	0xbcb724ab	-0.022356352
48	0x3b82450f	0.0039755176
49	0xbcd7f98a	-0.026364107
50	0x3cfb8aa4	0.030705757
51	0x3c584b84	0.013201598
52	0xba52ee91	-0.00080464134
53	0xbcacc985	-0.021092186
54	0x3c98d029	0.018653946
55	0x3d2d5d2d	0.042325187
56	0x3c977fb4	0.01849351
57	0x3b2b86e4	0.002617293
58	0x3b485ce6	0.003057295
59	0xbcb8f3a2	-0.02257711
60	0x3d142013	0.0361634
61	0x3c595e14	0.013267059
62	0xba823201	-0.0009933115
63	0xba0b1ed5	-0.00053070235
64	0xbc36fa47	-0.011168069
65	0xbcb702b8	-0.022340164
66	0x3d3d6a22	0.046243794
67	0xbbb79c12	-0.005603322
68	0x3c4227c0	0.011850297
69	0xbd2ee8d8	-0.042702526
70	0x3d0089f6	0.03138157
71	0xbc1580c1	-0.009124936
72	0xbc730a19	-0.01483395
73	0xbcf5f6a4	-0.030024834
74	0x3b7ed8d4	0.0038886564
75	0x3bed3d59	0.007239979
76	0xbc3660e0	-0.011131495
77	0x3d1f1cd0	0.038845837
78	0x3c3f8e2e	0.011691613
79	0x3cdc18f8	0.026867375
80	0x3c947be0	0.018125474
81	0xb9647cb3	-0.00021790228
82	0x3d280223	0.041017663
83	0x3d1e154d	0.038594533
84	0x3c65d39b	0.014027501
85	0x3b057dd3	0.0020369187
86	0x3d1b7b6d	0.037959505
87	0xbc3ec335	-0.011643221
88	0x3c97f7c0	0.018550754
89	0xbc8341ad	-0.016022528
90	0x3d4ecad6	0.05048641
91	0xbd16114f	-0.0366376
92	0x3d1ad4eb	0.03780071
93	0xbb4fd008	-0.003170969
94	0xbd4379cf	-0.047723588
95	0xbc83f19d	-0.016106421
96	0xbca8f102	-0.020622734
97	0xbc0d3f30	-0.008621022
98	0x3c8659ef	0.016400306
99	0xbce3390e	-0.027737167
100	0xbcdfd78a	-0.027324457
101	0xbce9768b	-0.028498909
102	0x3c679359	0.0141342515
103	0x3cb68316	0.022279304
104	0xbd076dfc	-0.033063874
105	0xbd0c3408	-0.03422931
106	0x3d12240e	0.035678916
107	0x3d82a3d9	0.06378908
108	0xbd125cd8	-0.035733074
109	0x3cf75fcc	0.030197047
110	0xbc7c3784	-0.015394095
111	0x3d281f4e	0.04104548
112	0xbb68e987	-0.0035539584
113	0xbc36dd3b	-0.011161144
114	0xbd10de8e	-0.035368495
115	0xbd86ddab	-0.065852486
116	0xbbe0e210	-0.0068628863
117	0x3c1a0dd8	0.009402715
118	0xbc8ba9fa	-0.017048825
119	0x3d2c528c	0.04207091
120	0x3d2e8c1d	0.04261409
121	0x3c1b22e3	0.009468767
122	0x3d8b5d24	0.068048745
123	0x3d285edb	0.041106086
124	0xba2f3d04	-0.0006684812
125	0xbcee5d5f	-0.029097257
126	0x3cd74f15	0.026282826
127	0xbc81c720	-0.01584202

weight f4 [128, 64, 3, 3]
0	0x3aff2d3e	0.0019468439
1	0xbb661475	-0.0035107408
2	0xba43d06b	-0.00074697164
3	0x3a9b0508	0.0011827061
4	0x3c8676c9	0.016414063
5	0x3d0a4f6a	0.03376714
6	0xbb701634	-0.0036634328
7	0x3c83b60c	0.016078018
8	0xbc019b48	-0.007910557
9	0x3c8817cd	0.016612912
10	0xbcbe7b4b	-0.02325215
11	0xbc47bbe5	-0.012190794
12	0x3cd96036	0.026535135
13	0xbcb2d70f	-0.021831064
14	0x3cd21748	0.025645867
15	0xbd30cbfc	-0.043163285
16	0xbbe38960	-0.0069438666
17	0x3c997511	0.01873258
18	0x3cb9a22d	0.02266034
19	0xbcfd6bca	-0.030935187
20	0xbcde0a96	-0.027104657
21	0xb715908e	-8.914749e-06
22	0xbd0407c5	-0.032233972
23	0xbb0042fb	-0.0019571173
24	0x3c257b65	0.01010022
25	0x3cb524f5	0.022112349
26	0xbc68c351	-0.014206723
27	0xbc3eab5b	-0.011637534
28	0xbca40a5e	-0.020024475
29	0x3c7b0454	0.015320856
30	0x3cac327b	0.021020165
31	0xbd05db4d	-0.032679845
32	0xbd08b425	-0.033374924
33	0x3b29a07f	0.0025883017
34	0x3cfc71a2	0.030815903
35	0x3c76de82	0.015067698
36	0xbccdc417	-0.025117917
37	0xbbf38e7e	-0.007432758
38	0x3b527d97	0.0032118314
39	0x3cea968a	0.028636236
40	0xbc2e2ccd	-0.0106307985
41	0x3cf901cd	0.030396366
42	0xbcf21afe	-0.029553887
43	0xbd12e35a	-0.03586135
44	0xbcd083b0	-0.025453418
45	0x3c48bdcd	0.012252283
46	0x3d20a92c	0.039223835
47	0xbcdec2fd	-0.027192587
48	0xbc1fe2b7	-0.009758643
49	0x3c744b77	0.01491057
50	0xbd1a2492	-0.037632532
51	0x3cf5115d	0.029915506
52	0x3d1c9550	0.038228333
53	0xbbeaa366	-0.007160592
54	0xbcc98c9d	-0.024603182
55	0x3c9a1daf	0.018812982
56	0x3b9435b0	0.0045230016
57	0x3d1808a2	0.037117608
58	0x3ca69628	0.020335272
59	0x3d3ae49b	0.04562817
60	0xbd27d9f8	-0.040979356
61	0x3ce6a7ab	0.028156122
62	0xbcefa200	-0.029252052
63	0xbd06c816	-0.03290566
64	0xbc1bc6aa	-0.009507814
65	0xbd1e411c	-0.038636312
66	0x3c0669f3	0.008203971
67	0xbccca730	-0.024982065
68	0xbc3c5979	-0.011495941
69	0x3ce1fda5	0.027586767
70	0x3cc50d56	0.02405421
71	0x3c906784	0.017627485
72	0xbc6cdcea	-0.014456967
73	0x3d0eec1e	0.034893148
74	0x3d170690	0.036871493
75	0x3cf0a0de	0.029373582
76	0x3c0c36d2	0.008557992
77	0xbd1fa5ea	-0.038976587
78	0x3cd26d73	0.025686955
79	0x3cda05b5	0.02661405
80	0xbc1f6d61	-0.009730668
81	0xbd323c29	-0.043514404
82	0x3cf86f68	0.03032656
83	0x3b945b24	0.0045274664
84	0x3bbd74fb	0.0057817674
85	0xbc3a096a	-0.011354784
86	0x3c5666de	0.013086049
87	0xbd133818	-0.035942167
88	0x3b547251	0.003241677
89	0x3cc661b9	0.02421652
90	0x3d3398e8	0.043846995
91	0x3c9dd896	0.019268315
92	0x3b24ee81	0.0025166573
93	0xbd08e502	-0.033421524
94	0x3b912592	0.0044295276
95	0xbd08f4ce	-0.03343659
96	0x3d04da96	0.032435022
97	0x3d8a954b	0.067667566
98	0x3d1fe6f5	0.039038617
99	0xbcd343b9	-0.025789129
100	0xbc4f47a6	-0.01265136
101	0x3cc52370	0.02406475
102	0x3ca0984f	0.019603876
103	0x3c4cc536	0.012498191
104	0x3c7d51f9	0.015461438
105	0xb9a5fc1e	-0.00031659094
106	0x3c10abce	0.008830024
107	0x3d4ec8e0	0.050484538
108	0xbcb12376	-0.021623354
109	0xbcd7bc5e	-0.026334938
110	0x3d00e05b	0.031463962
111	0xbd2342bb	-0.03985856
112	0x3d0c7af2	0.034296937
113	0xbd23ba6d	-0.03997271
114	0x3cf4743c	0.029840581
115	0xbc7efd8d	-0.015563381
116	0xbbd73482	-0.0065675387
117	0x3b065f71	0.0020503665
118	0x3c9d2699	0.019183444
119	0xbcb8a365	-0.02253885
120	0xbca3e370	-0.020005912
121	0x3c7ef469	0.015561202
122	0xbcf6b23c	-0.030114286
123	0x3acbfbb0	0.001556268
124	0xbc55de0f	-0.013053431
125	0x3c684af8	0.01417803
126	0x3c2658a0	0.010152966
127	0xbca59029	-0.020210342
128	0x3cef995e	0.029247936
129	0xbc9341df	-0.017975746
130	0x3a984acb	0.001161897
131	0xbce8395c	-0.028347664
132	0x3d36e4a6	0.04465165
133	0x3c8db704	0.017299183
134	0x3d0f39cc	0.03496723
135	0xbd016828	-0.03159347
136	0x3b212899	0.0024590848
137	0x3cb98244	0.022645123
138	0x3c5757fc	0.013143536
139	0xbc29ed7a	-0.01037156
140	0xbc590bc9	-0.013247439
141	0xbcd0d4a6	-0.025492024
142	0xbcd047ab	-0.025424799
143	0x3d23bbd4	0.03997405
144	0xbc80f836	-0.015743356
145	0x3b84e64c	0.004055774
146	0xbcd8a2ab	-0.026444754
147	0xbc3aefaa	-0.011409679
148	0xbcaedb0e	-0.021344688
149	0x3c598875	0.013277163
150	0x3c57e422	0.01317695
151	0xbcbc9920	-0.023022234
152	0xbc72d69c	-0.014821675
153	0xbce30e9d	-0.02771693
154	0xbcd0ec6b	-0.025503358
155	0x3d06006c	0.032715246
156	0x3b5c6157	0.0033627355
157	0xbc6f576e	-0.014608247
158	0xbd236892	-0.039894648
159	0x3c996ddd	0.018729145
160	0x3bfd9fa6	0.007739979
161	0xbc94c45f	-0.018160043
162	0xbb85d713	-0.0040844767
163	0x3cc24747	0.023715628
164	0xbca3a178	-0.019974455
165	0x3c8b46e4	0.017001577
166	0xbb096775	-0.0020966206
167	0xbc8e25ce	-0.017352011
168	0xbd2bc396	-0.041934572
169	0xbc88d20d	-0.016701723
170	0xbcfc91f3	-0.030831313
171	0xbbab522b	-0.005228301
172	0xbcec2195	-0.028824607
173	0x3c25ab7d	0.010111687
174	0x3d092435	0.033481795
175	0x3ccbca48	0.024876729
176	0x3cd2099e	0.025639351
177	0xbc3b588d	-0.011434686
178	0xbc9124f2	-0.017717812
179	0x3d184b37	0.037181105
180	0xbbc186c4	-0.005905958
181	0x3cbb4c68	0.022863582
182	0x3c2705df	0.010194271
183	0xbc6207be	-0.013795791
184	0x3d3535dd	0.04424082
185	0x3c2d7799	0.010587596
186	0xbd70abe8	-0.058757693
187	0x3d56280d	0.05228429
188	0xbd23cf20	-0.03999245
189	0xbae81c68	-0.0017708661
190	0x3c7131a5	0.014721309
191	0x3bd51ea8	0.0065038987
192	0x3b2c6d98	0.002631044
193	0xbcf1b7de	-0.02950662
194	0xbc24e9d9	-0.010065519
195	0x3cedf391	0.029046806
196	0xbc557db5	-0.013030459
197	0xbc79fa85	-0.015257482
198	0xbcee1d5a	-0.02906673
199	0xbbc69b1c	-0.006060971
200	0x3b9219f2	0.0044586593
201	0xbd12e1e1	-0.035859946
202	0x3c0894aa	0.0083362255
203	0xbc17be46	-0.009261673
204	0x3be60388	0.007019464
205	0x3cfc22ed	0.030778373
206	0x3d1518a4	0.036400452
207	0xbbf2cf42	-0.007409961
208	0x3cce3aa1	0.02517444
209	0x3d1bfdcb	0.038083833
210	0xbd262b5b	-0.04056869
211	0x3cdd9235	0.027047256
212	0x3d09bb4d	0.03362589
213	0x3d03450a	0.032048263
214	0x3be2c128	0.0069199987
215	0x3caa3462	0.020776931
216	0xbc1aef5f	-0.009456485
217	0x3cfc7814	0.030818976
218	0x3c89d2a2	0.01682407
219	0x3c82291b	0.015888741
220	0x3b67f531	0.0035393948
221	0xbb400b07	-0.0029303448
222	0xbd2507a1	-0.04029048
223	0x3d10fb99	0.035396192
224	0xbcc05cf3	-0.023481822
225	0xbc9acf7d	-0.018897766
226	0xbc3503e4	-0.011048291
227	0xba7e9a41	-0.00097123167
228	0x3ba2511f	0.004953518
229	0xbcf57ab8	-0.029965743
230	0x3ccc47c9	0.024936574
231	0xbc9772fd	-0.018487448
232	0x3d125be5	0.03573217
233	0xbd0c1227	-0.034197
234	0x3d222144	0.039582506
235	0xbd08345f	-0.03325307
236	0x3cf6a192	0.03010634
237	0x3d19809e	0.037476175
238	0x3c97cea2	0.018531147
239	0xbd0319e2	-0.032007106
240	0xbc1b4c95	-0.009478708
241	0xbd01eefd	-0.031722058
242	0xbd090e42	-0.033460863
243	0xbc407aea	-0.011748055
244	0xbd373e97	-0.044737425
245	0xbd0e0716	-0.034674726
246	0x3d072955	0.0329984
247	0x3c789823	0.015172991
248	0x3bc0b5a5	0.0058810287
249	0x3d120850	0.03565246
250	0xbbf9ff95	-0.0076293447
251	0xbc96860a	-0.018374462
252	0xb8c00f4d	-9.1581234e-05
253	0xbb6df409	-0.0036308786
254	0x3d26d741	0.040732626
255	0xbcdf0930	-0.02722606

bias f4 [64]
0	0x3cf3259b	0.029681018
1	0x3ce9a3bc	0.028520457
2	0x3c182db1	0.009288237
3	0xbc75a34e	-0.014992548
4	0xbd2f9ec9	-0.04287604
5	0x3be9726d	0.0071242363
6	0xbd1c7265	-0.038195033
7	0x3cb94437	0.022615535
8	0x3c671d0b	0.0141060455
9	0xbc484c95	-0.01222529
10	0x3cb0e7d2	0.021594916
11	0x3c597e25	0.013274704
12	0x3d2d09f1	0.04224581
13	0x3c8f8747	0.01752056
14	0xbd3aa122	-0.045563824
15	0x3d532280	0.051546574
16	0x3d307172	0.04307694
17	0x3d53a12f	0.05166739
18	0xbcd59d0c	-0.026075862
19	0x3cd75f1c	0.026290469
20	0x3cae679f	0.021289645
21	0x3c1839a5	0.009291087
22	0x3cb764d4	0.022386946
23	0xbc1f3d2b	-0.009719173
24	0xbd232c15	-0.03983696
25	0xbcf4b2cb	-0.029870411
26	0x3ca19416	0.019723933
27	0x3c67102d	0.014102978
28	0x3cf2aeda	0.029624391
29	0x3d587dee	0.05285447
30	0xbcb7e6a2	-0.022448841
31	0x3c4c679a	0.012475872
32	0xbca8ce7c	-0.020606272
33	0x3d6b8ad6	0.05750545
34	0x3c09ed82	0.008418443
35	0x3cf0c65d	0.029391462
36	0x3cb9ee4d	0.022696638
37	0x3cb4b58a	0.02205922
38	0x3c3fbbdb	0.011702503
39	0xbcc819b6	-0.024426322
40	0x3c9230f6	0.017845612
41	0x3b4f0d4a	0.0031593614
42	0x3cd94f02	0.026526932
43	0x3d468a9a	0.048472025
44	0xbcd47bfb	-0.025938025
45	0x3c932938	0.01796399
46	0x3c1581f4	0.0091252215
47	0x3d09d272	0.033647962
48	0x3d8a83b4	0.06763402
49	0x3d13d512	0.03609187
50	0x3b6e254f	0.0036338156
51	0x3d04a28e	0.032381587
52	0x3cd60959	0.026127504
53	0x3cefafdc	0.029258661
54	0xbc832af2	-0.016011689
55	0xbbb94ca5	-0.0056548887
56	0x3c8d5614	0.01725296
57	0x3d0ffe40	0.03515458
58	0x3c43b308	0.01194454
59	0xbb704d3f	-0.0036667136
60	0x3c9dd44f	0.019266276
61	0xbcafcc4b	-0.02145972
62	0x382616ec	3.959883e-05
63	0x3cecfc2d	0.02892884

weight f4 [64, 32, 3, 3]
0	0xbc85bd1e	-0.01632553
1	0x3d1e0d8f	0.03858715
2	0x3c9ae185	0.018906364
3	0xbca6d315	-0.020364324
4	0x3d57e3ee	0.052707605
5	0xbd66500c	-0.056228682
6	0x3d3e3da5	0.046445508
7	0xbd592bf7	-0.053020444
8	0xbd47d084	-0.04878284
9	0x3b8497bc	0.0040464085
10	0x3c25cbd7	0.0101194
11	0x3d0bb244	0.034105554
12	0x3d2c3fe7	0.04205313
13	0x3c8241a5	0.015900442
14	0xbcf8e303	-0.030381685
15	0xbcbb2ca5	-0.022848437
16	0x3cba1826	0.022716593
17	0x3c06e4bb	0.0082332445
18	0xbd5d4bf4	-0.054027513
19	0x3baa7a81	0.005202592
20	0x3d5dc192	0.05413968
21	0x3d28c225	0.041200776
22	0xbd5e6be4	-0.05430211
23	0x3d07642c	0.033054516
24	0x3d67e9c7	0.05661943
25	0xbd12a66e	-0.03580325
26	0xbb999d98	-0.004687976
27	0xbc09448c	-0.008378159
28	0x3d1a6344	0.037692323
29	0xbbcac7c6	-0.0061883656
30	0x3d018dcd	0.031629372
31	0x3d4dbd99	0.050229643
32	0xbd1b4c38	-0.037914485
33	0xbd455008	-0.048172027
34	0x3c8dc3bb	0.017305246
35	0x3c0de89b	0.0086614145
36	0x3be1698b	0.006879037
37	0xbd67702f	-0.05650347
38	0xbcfab8f3	-0.030605769
39	0xbd3127d0	-0.04325086
40	0xbcd574e3	-0.026056712
41	0x3d07f66d	0.033193994
42	0xbc701231	-0.014652775
43	0x3d2e870d	0.042609263
44	0xbb1a4c8c	-0.002354416
45	0x3c85922a	0.016305048
46	0x3cb1e9dd	0.02171796
47	0x3d2d039c	0.04223977
48	0xbd696e9d	-0.056990255
49	0xbcae6df3	-0.021292662
50	0x3d5fd97e	0.054650776
51	0x3cd51f9f	0.026016055
52	0x3c45cb46	0.01207239
53	0x3c97ab7d	0.01851439
54	0xbc937472	-0.017999861
55	0xbcfb5090	-0.030678064
56	0x3d3b673e	0.045752756
57	0xbbd3c3c8	-0.006462548
58	0xbd18bb37	-0.037287917
59	0xbb5f9fcc	-0.0034122346
60	0xbd59fc91	-0.05321938
61	0x3d41245a	0.04715381
62	0xbc070f7d	-0.008243439
63	0xbd0bc2c3	-0.034121286
64	0xbd1a820b	-0.037721675
65	0x3d2edebc	0.042692885
66	0x3b14c86a	0.0022702464
67	0xbaf490e6	-0.0018658906
68	0x3d311300	0.04323101
69	0xbc1b9431	-0.009495781
70	0xbd6cba3a	-0.057794787
71	0xbc0915d0	-0.008367017
72	0x3b12e412	0.0022413773
73	0xbcbbd907	-0.022930635
74	0xbd07c30c	-0.033144996
75	0x3d1dba2a	0.038507618
76	0x3d52019e	0.051271074
77	0x3c184065	0.009292697
78	0xbd5752ee	-0.052569322
79	0xbca4b5c6	-0.020106208
80	0xbcf11da3	-0.029433077
81	0xbc87f2b6	-0.016595226
82	0xbd2aeb0a	-0.041728057
83	0x3c227272	0.009914981
84	0x3d2fce0d	0.042921115
85	0x3d2c98c0	0.04213786
86	0x3d45456d	0.048161913
87	0xbd3fc375	-0.04681726
88	0xbca8b269	-0.020592885
89	0xbc3e89fc	-0.011629578
90	0xbd435807	-0.04769137
91	0xbc8da4c0	-0.017290473
92	0xbd6e81f7	-0.058229413
93	0x3cd280ff	0.025696276
94	0x3b92ff70	0.004486017
95	0x3c84d9b4	0.01621709
96	0xbd67b49e	-0.056568734
97	0x3b623ba1	0.0034520405
98	0x3c647f58	0.013946377
99	0x3bcf2fd0	0.0063228384
100	0xbc3f5c96	-0.011679789
101	0x3d0fe5a6	0.03513112
102	0xbc7a8d5c	-0.015292492
103	0xbd250491	-0.040287558
104	0x3cc7a9bf	0.024372933
105	0x3d038714	0.032111242
106	0x3bd37cda	0.0064540925
107	0xbd57503c	-0.05256675
108	0x3d1339d5	0.035943825
109	0xbcef1b6e	-0.029187884
110	0xbd168b0a	-0.03675369
111	0x3aa5f631	0.0012661872
112	0xbd4261a6	-0.047456406
113	0xbd078799	-0.0330883
114	0xbccf77c4	-0.025325663
115	0xbd609a38	-0.054834574
116	0xbc80aa95	-0.01570634
117	0xbd8caff4	-0.06869498
118	0xbcfb589e	-0.030681904
119	0xbd6ac314	-0.057314947
120	0xbcbff7f3	-0.023433661
121	0x3d5f53e6	0.05452337
122	0x3d258f10	0.04041964
123	0x3c73def9	0.014884704
124	0x3c419aa0	0.011816651
125	0x3cbdf4eb	0.023188075
126	0x3d661551	0.056172673
127	0x3bd9bc23	0.006644742
128	0xbc6121dc	-0.013740983
129	0xbcc52ffe	-0.024070736
130	0xbbba534e	-0.0056862
131	0xbd370e7b	-0.044691544
132	0x3d134b9b	0.035960775
133	0xbc5a4bb8	-0.013323717
134	0xbaaeeb30	-0.0013345238
135	0x3d0b8819	0.03406534
136	0xbd175bbb	-0.036952715
137	0xbb613d3a	-0.003436877
138	0xbc0ede70	-0.008720025
139	0xbd1bdedb	-0.03805433
140	0xbceb0c7b	-0.028692475
141	0xbcff6004	-0.031173714
142	0x3d3e6992	0.0464874
143	0x3d4cc7e9	0.049995337
144	0x3a872969	0.0010312024
145	0x3c9c862a	0.019106943
146	0xbbaec7d4	-0.00533388
147	0x381d55aa	3.7511498e-05
148	0x3bb1e4b9	0.005428877
149	0x3d1be296	0.038057886
150	0x3d262834	0.040565684
151	0x3d556bfe	0.052104943
152	0x3ab26ccb	0.0013612745
153	0xbcdab555	-0.026697794
154	0x3d03b68d	0.032156516
155	0xbc6c7ea5	-0.014434491
156	0x3cf55ea3	0.029952353
157	0x3c63c66a	0.013902286
158	0xbd01af07	-0.03166106
159	0x3cc755cf	0.024332909
160	0xbcf6b113	-0.030113732
161	0xbcbe1e80	-0.023207903
162	0x3d5a27fd	0.053260792
163	0xbcfe38b5	-0.0310329
164	0xbc8980cb	-0.016785046
165	0x3d738594	0.059453562
166	0xbd076e74	-0.03306432
167	0x39c2ea1e	0.00037176994
168	0x3bc39224	0.005968349
169	0x3d36df23	0.044646394
170	0xbd2572c2	-0.040392645
171	0xbdb48784	-0.0881491
172	0xbd5bc60e	-0.053655677
173	0xbb9d05d3	-0.004791954
174	0x3c0955d3	0.0083822785
175	0x3d2648cc	0.04059677
176	0xbc39cb0b	-0.011339913
177	0x3c323d5c	0.010878887
178	0x3d950e0c	0.0727807
179	0x3c90774e	0.017635014
180	0xbb28aedb	-0.0025738988
181	0xbc791c86	-0.015204554
182	0x3ce4f1b9	0.027947294
183	0xbbb79db9	-0.005603519
184	0x3d0d012e	0.034424953
185	0x3d19c4a7	0.037541058
186	0x3cd1a395	0.025590697
187	0xbd32fbad	-0.043697048
188	0x3d075dc8	0.03304842
189	0xbc88b15c	-0.016686134
190	0x3c01dded	0.007926446
191	0x3d0319f4	0.032007173
192	0xbb1fa067	-0.0024357082
193	0xbd03a7ef	-0.032142576
194	0xbab63f44	-0.0013904353
195	0x3c4de4e3	0.012566778
196	0x3d66c659	0.056341503
197	0xbd69ec64	-0.057110205
198	0x3d1f36ca	0.03887061
199	0xbd6114f9	-0.05495164
200	0x3d19b370	0.03752464
201	0xbd37664d	-0.044775296
202	0x3cce4620	0.025179923
203	0xbbedede6	-0.0072610257
204	0x3d28e0ad	0.041229893
205	0xbc7228a1	-0.0147801945
206	0xbd390ed6	-0.045180164
207	0x3d274c30	0.040844142
208	0xbca4603f	-0.020065425
209	0xbce7d241	-0.028298499
210	0x3c9fdc11	0.019514116
211	0x3cb78ed8	0.02240698
212	0x3d2cad9d	0.042157758
213	0x3c9f2cdf	0.019430576
214	0xbcc37862	-0.023861114
215	0xbc947dd6	-0.01812641
216	0xbc0b43d6	-0.00850006
217	0x3c0bc48c	0.008530747
218	0xbd20bdaf	-0.039243396
219	0x3d2e9ac0	0.04262805
220	0x3c8cb0d2	0.017174158
221	0xbd5feeca	-0.054671086
222	0xbd4d49fe	-0.050119393
223	0x3c9bc957	0.019016905
224	0xbc94d4bb	-0.018167844
225	0x3c478be4	0.012179349
226	0x3c94a90b	0.018147012
227	0x3c8e8660	0.01739806
228	0xbd140274	-0.036135152
229	0x3d5e16d7	0.054221
230	0xbd2f491a	-0.042794324
231	0xbc258a4d	-0.010103774
232	0x3d34331d	0.043994058
233	0xbce2fa86	-0.02770735
234	0xbcc598d2	-0.024120722
235	0xbd6c110b	-0.05763344
236	0xbc1811ba	-0.00928157
237	0xbc633abd	-0.013868985
238	0xbc80feda	-0.015746523
239	0xbd55f31d	-0.052233804
240	0xbc788837	-0.015169195
241	0x3d1d67e5	0.03842916
242	0xbca18a53	-0.019719278
243	0xbcbbff28	-0.022948816
244	0xbd74792b	-0.059685867
245	0xbd12bcf6	-0.03582474
246	0xbd505bfc	-0.050868973
247	0xbd22ce80	-0.039747715
248	0x3d445dd2	0.047941037
249	0x3c3d2c63	0.011546227
250	0xbccc34a9	-0.024927454
251	0x3ccae60d	0.0247679
252	0xbd41e249	-0.047334943
253	0xbd33fb6e	-0.043940954
254	0xbd76a535	-0.060216147
255	0xbd360cc7	-0.04444578

bias f4 [32]
0	0xbd1ae24f	-0.03781348
1	0x3d42fc45	0.047603864
2	0x3c9de058	0.019272014
3	0xbd0f8367	-0.035037424
4	0x3d1e9f2d	0.03872602
5	0xbb4c5897	-0.0031180733
6	0xbd104d88	-0.03523019
7	0xbd5c3651	-0.053762738
8	0xbc53ac7a	-0.01291954
9	0x3c8e5692	0.017375264
10	0x3d48ac8e	0.048992686
11	0x3d30f6f8	0.043204278
12	0xbd644399	-0.05572853
13	0x3da19efd	0.07891653
14	0x3c8d146b	0.01722165
15	0xbbf3190b	-0.007418757
16	0xbd28f3f4	-0.041248277
17	0xbc555b8f	-0.013022318
18	0x3ccb1823	0.024791783
19	0x3a4106b0	0.0007363362
20	0xbd7659dc	-0.06014429
21	0x3c3a6612	0.0113768745
22	0x3bccfdf6	0.0062558604
23	0xbc9fb2d5	-0.019494453
24	0x3c799eee	0.015235646
25	0xbc45f944	-0.012083355
26	0x3c419e0a	0.011817465
27	0xbc8fab7e	-0.017537829
28	0xbd4ca5f4	-0.049962953
29	0x3d40c086	0.047058605
30	0xbc9b2916	-0.01894049
31	0xbd704a9d	-0.058664907

weight f4 [32, 1, 3, 3]
0	0xbd412f4b	-0.047164243
1	0x3e9b62e2	0.3034888
2	0xbe4dad53	-0.20085649
3	0xbe275f18	-0.16344869
4	0xbd452029	-0.048126373
5	0xbe91439e	-0.283719
6	0x3de6f3e5	0.11276988
7	0x3d1fce36	0.039015017
8	0xbd866c49	-0.065636225
9	0x3dc23710	0.094831586
10	0xbb94c219	-0.00453974
11	0x3e45f387	0.1933118
12	0xbe2a1a80	-0.16611671
13	0xbc42691c	-0.01186588
14	0x3e36a450	0.17836118
15	0x3e53de38	0.20690238
16	0x3b8c55f1	0.004282706
17	0xbe244186	-0.1604062
18	0xbe7417a2	-0.2383714
19	0xbca6d3b0	-0.020364612
20	0x3dac050f	0.08399402
21	0x3e6e4ec9	0.23272242
22	0xbde9a7d8	-0.11408967
23	0x3e9e0fa9	0.30871323
24	0x3d876ea3	0.06612899
25	0x3e36d9db	0.17856543
26	0xbe16e27e	-0.14734837
27	0x3d9c4dec	0.0763205
28	0xbe71dc2c	-0.23619145
29	0xbd795297	-0.06086978
30	0xbe5d32fe	-0.21601483
31	0xbe2f6f87	-0.17132388
32	0x3e3ce1bd	0.18445487
33	0xbe217eb5	-0.15770991
34	0x3e86b750	0.2631173
35	0xbe57ee2d	-0.2108695
36	0xbe44ce62	-0.19219354
37	0xbe320f1a	-0.17388573
38	0x3e88109e	0.26575178
39	0x3e6f69d4	0.23380214
40	0x3e8e08d3	0.27741107
41	0xbd409e3f	-0.047025915
42	0x3e51af46	0.20477018
43	0xbe5482b5	-0.20752986
44	0xbb5418ff	-0.0032363532
45	0xbdc2029d	-0.09473155
46	0x3e82bbc1	0.2553387
47	0xbe70e2c3	-0.23524003
48	0x3e85ebc2	0.2615643
49	0x3e8a1ede	0.26976675
50	0x3d011526	0.03151431
51	0x3e7121a8	0.23547995
52	0x3cca76d8	0.024714872
53	0xbe89bf65	-0.26903835
54	0xbe9824e2	-0.2971564
55	0xbdb4f103	-0.08835032
56	0xbea6a7ff	-0.32550046
57	0xbe38a142	-0.18030265
58	0xbd0eab1c	-0.03483115
59	0x3ea1d53e	0.31608003
60	0xbd9b9711	-0.07597173
61	0x3ea59baa	0.32345325
62	0xbd73f8c5	-0.059563417
63	0x3e088278	0.1333102
64	0xbe0cb2ab	-0.13740031
65	0xbe5985b8	-0.21242416
66	0xbe5d7e11	-0.21630122
67	0x3df357b8	0.118819654
68	0xbe55688c	-0.20840663
69	0xbddf5160	-0.10904193
70	0xbdbc9d2b	-0.09209665
71	0x3e72164a	0.23641315
72	0xbe3cf91f	-0.18454407
73	0xbe73ff8f	-0.23827957
74	0xbe8a81e4	-0.27052224
75	0x3ea775b5	0.3270699
76	0x3c179b5c	0.009253349
77	0x3ca8b045	0.020591864
78	0xbd794ca5	-0.06086411
79	0xbe0d10ba	-0.13775912
80	0xbe875260	-0.26430035
81	0x3d428760	0.047492385
82	0x3ea19548	0.31559205
83	0x3d77b662	0.06047667
84	0xbddc3c0c	-0.107536405
85	0x3bc9011d	0.006134166
86	0x3ea389f0	0.31941175
87	0x3e3d991c	0.18515438
88	0xbc46258d	-0.012093914
89	0xbe1f5045	-0.15557964
90	0x3e6fbfa2	0.23412946
91	0xbe55b9cc	-0.20871657
92	0xbd286dce	-0.041120343
93	0x3d4e08ec	0.050301477
94	0x3e070aa5	0.13187654
95	0xbe76dccf	-0.2410767
96	0x3c1ff7bf	0.009763657
97	0xbe5c49c9	-0.21512522
98	0xbe950084	-0.29101956
99	0xbe3de1d0	-0.18543172
100	0x3ea709bb	0.3262461
101	0x3e81a5af	0.2532172
102	0xbe67c12e	-0.22632286
103	0x3e543d49	0.20726503
104	0x3e8f9101	0.28040317
105	0xbe820b10	-0.25399065
106	0xbd5f67e3	-0.054542433
107	0xbe84418e	-0.25831264
108	0x3e89f644	0.26945698
109	0xbe4df45d	-0.20112748
110	0xbe74cac6	-0.23905477
111	0x3cfe05b3	0.031008577
112	0xbe10051d	-0.1406445
113	0xbe75313c	-0.23944563
114	0xbe85c3ad	-0.2612585
115	0xbe8054dc	-0.25064743
116	0xbe85efc6	-0.26159495
117	0x3e045f5f	0.12927006
118	0x3d8c6fb0	0.0685724
119	0x3ea5504e	0.3228783
120	0x3e619a65	0.22031553
121	0xbe228a92	-0.15873173
122	0x3e0f6b01	0.14005663
123	0x3e9d7346	0.3075201
124	0xbe5d639c	-0.21620029
125	0x3e5745d8	0.21022737
126	0xbd2f7108	-0.042832404
127	0x3e6c8e33	0.2310112
128	0x3ab9ebd7	0.0014184666
129	0x3e8ff571	0.28116944
130	0x3e8f25e5	0.279586
131	0xbe69d4cb	-0.2283508
132	0x3db71816	0.08940141
133	0xbdc808b2	-0.097672835
134	0xbe6b94f2	-0.23006037
135	0x3e17470c	0.14773196
136	0x3ea6593d	0.32489958
137	0x3df9ee9b	0.122037135
138	0x3d0ab603	0.033864986
139	0x3e83d40c	0.25747716
140	0x3d897855	0.06712405
141	0x3e2dc2d2	0.1696885
142	0x3e8986c2	0.26860625
143	0x3e516db1	0.20452
144	0x3ca39bb0	0.019971699
145	0x3e3da347	0.18519317
146	0x3d599d08	0.053128272
147	0x3ea060a6	0.31323737
148	0x3e5d7c32	0.21629408
149	0xbd3a3518	-0.04546079
150	0xbe18023c	-0.14844602
151	0xbe6a75da	-0.2289652
152	0x3e8dd2dd	0.27699938
153	0x3b9d6371	0.004803114
154	0x3dce041a	0.10059376
155	0xbdc6dca0	-0.0971005
156	0xbd996987	-0.07490831
157	0x3e77ff23	0.2421842
158	0x3d5dabe4	0.054119006
159	0xbde1fc37	-0.11034434
160	0xbe5670aa	-0.20941415
161	0xbe98c5e1	-0.2983847
162	0x3d5b6470	0.05356258
163	0x3e20ce3b	0.1570367
164	0xbd9802f8	-0.07422441
165	0x3ea4e7a0	0.32207966
166	0xbe7db368	-0.2477547
167	0xbe47e2fc	-0.19520181
168	0x3e2cf83c	0.16891569
169	0x3c8b4ae5	0.017003486
170	0x3d52d26e	0.051470213
171	0xbcf20e91	-0.029547961
172	0xbd800aaa	-0.06252034
173	0x3e02426e	0.12720653
174	0x3e2e3dd7	0.17015778
175	0x3ea08b06	0.31356066
176	0x3e2bbe72	0.16771868
177	0x3c582ba3	0.013193998
178	0xbe0cab94	-0.13737327
179	0xbd4ab76e	-0.04949134
180	0xbe0d3261	-0.1378875
181	0xbe47eced	-0.19523974
182	0xbe55ef49	-0.20892061
183	0xbd663900	-0.056206703
184	0x3d33b54f	0.04387408
185	0xbe36b91f	-0.17844056
186	0x3e941524	0.2892238
187	0x3dfb1893	0.122605465
188	0xbdfd1b03	-0.12358668
189	0xbe34a736	-0.17641911
190	0xbe9e576c	-0.30926073
191	0x3e5c3d09	0.21507658
192	0x3cdcc763	0.026950544
193	0xbe893120	-0.26795292
194	0x3e5875b0	0.21138644
195	0xbe773b8b	-0.24143808
196	0xbe3119e7	-0.17295037
197	0x3dbcc117	0.092165165
198	0xbe9b2c9e	-0.30307478
199	0xbe9abdb0	-0.30222845
200	0x3c3bac3e	0.01145464
201	0xbe8428ef	-0.2581248
202	0x3e9ccc5a	0.30624658
203	0x3e90e130	0.28296804
204	0x3d62e78c	0.0553966
205	0xbe89c159	-0.26905325
206	0x3e14deff	0.14538191
207	0xbe577d89	-0.21043982
208	0xbe40f84a	-0.18844715
209	0x3e12ed6f	0.14348386
210	0x3e1a697e	0.15079305
211	0xbe891527	-0.2677395
212	0x3da4ec62	0.08052899
213	0x3e750d84	0.23930937
214	0xba57c5e0	-0.0008231085
215	0x3e146a07	0.14493571
216	0x3e990af2	0.29891163
217	0x3ea40d15	0.3204123
218	0xbe5a866b	-0.21340339
219	0xbe9c0108	-0.30469537
220	0x3e6fd997	0.23422848
221	0x3e090d09	0.13383879
222	0xbe8c590c	-0.27411687
223	0x3e15861f	0.14601944
224	0x3db49fcc	0.08819541
225	0x3d59cc26	0.053173207
226	0xbd873db5	-0.066035666
227	0x3e226f2f	0.15862726
228	0xbe860b70	-0.261806
229	0xbe37ccd0	-0.17949224
230	0x3e422eb0	0.18963122
231	0xbe54ce02	-0.2078171
232	0xbde7cfea	-0.11318953
233	0xbc8b5946	-0.017010342
234	0xbe94ebad	-0.29086056
235	0x3e0d9d18	0.13829458
236	0xbea5f5ca	-0.32414085
237	0x3e59339d	0.21211095
238	0xbe68d044	-0.22735697
239	0x3d45e806	0.048316978
240	0xbde73b27	-0.11290579
241	0xbe5f91b4	-0.21832925
242	0xbae06876	-0.0017120976
243	0x3e333a2c	0.1750266
244	0x3dcf09e2	0.10109307
245	0xbea19bfb	-0.31564316
246	0xb8c95927	-9.601033e-05
247	0xbe958c6f	-0.29208705
248	0xbe7a2b6a	-0.24430624
249	0xbea2f3bd	-0.31826583
250	0xbe0f5c2a	-0.14000002
251	0x3ea2825b	0.31740078
252	0xbe7c8e6e	-0.24663708
253	0xbe958c93	-0.29208812
254	0xbd94896c	-0.07252774
255	0xbdc0714f	-0.09396612
