models/15.pt (torch, 837106 bytes, 17 tensors)

weight f4 [32, 1, 3, 3]
000000 8e b9 5c bd 1b 85 29 3c 30 cd a3 3d d3 48 83 be
       -0.053887896 0.010346676 0.07998121 -0.25641498
000010 84 4d 3a 3e e2 bc 56 be 6a 9c 89 3e 09 23 72 be
       0.18193632 -0.2097049 0.26877147 -0.23646177
000020 cf 57 7b be 6d 99 08 3d 3e 0d 34 3e a5 31 c4 bd
       -0.24545215 0.033349443 0.17583176 -0.095797814
000030 d4 f7 08 be 0d 37 14 3e fe 9b d7 3d 99 bb 8d 3e
       -0.13375789 0.14474125 0.105278 0.27682188
000040 f2 9c af bd 61 7d 71 be 86 b8 3f be 0d 42 d9 3d
       -0.08574857 -0.23582985 -0.18722734 0.10608301
000050 60 46 98 be 54 01 13 3e c9 03 52 3e 70 05 7d 3e
       -0.29741192 0.14355975 0.20509256 0.24709105
000060 a4 d8 00 3e 62 76 df bd bd aa 18 be 3d 31 3d be
       0.12582642 -0.109112516 -0.14908881 -0.18475814
000070 5e fb a5 3e ed 2d 64 bd 56 25 b6 bd eb 42 cc bd
       0.3241834 -0.05570786 -0.0889384 -0.09973701
000080 85 ba 85 3e 21 0a 7c 3e 8c d7 18 bd fd 2d 44 3e
       0.26118866 0.24613239 -0.037314937 0.19158168
000090 5a fb a6 3e 9a ba d4 bd af 78 d1 bd 1c e6 99 3e
       0.3261364 -0.10387154 -0.10228097 0.30058372
0000a0 4c 34 2f 3e a2 ae a0 bd 36 f7 98 3e 81 2f 10 3e
       0.17109793 -0.078458086 0.29876107 0.14080621
0000b0 38 7c df 3c fa 53 9f 3e f3 ac 97 3e 28 97 15 be
       0.027280912 0.31118757 0.29624137 -0.14608443
0000c0 a8 96 8e 3d 1e 5d fb bd e2 6d 48 3e c9 b7 0b be
       0.06962329 -0.1227362 0.19573167 -0.13644327
0000d0 4f 21 64 be 49 aa 60 3e 5a f5 ee bd 00 91 a8 3c
       -0.22278331 0.21939959 -0.11667891 0.020576954
0000e0 46 24 9e 3e ba 77 6f be a8 c1 98 bd 0d ef e5 3d
       0.3088705 -0.23385516 -0.07458812 0.11227236
0000f0 b3 aa 15 3e 52 f7 a9 be 26 1b 4e 3d d9 3f c8 3d
       0.14615898 -0.33196503 0.05031886 0.09777803
000100 66 f5 03 3e 2d 0e 5a 3e b6 1c 23 be 4f 16 a9 3e
       0.12886581 0.2129447 -0.15928921 0.33024833
000110 ac 3e 9c 3d 1d 5d c0 bd 85 35 96 3d 7f 09 37 be
       0.07629141 -0.0939276 0.07334427 -0.17874716
000120 30 95 46 be 23 58 5a be 94 af 23 be 99 5a 43 3e
       -0.19392848 -0.21322684 -0.15984946 0.19077529
000130 11 fc c8 bd 4c d4 80 be fb fe 7d 3e 19 34 91 be
       -0.09813703 -0.2516197 0.24804299 -0.2836006
000140 2b 66 d6 3b 4b db 8b 3e 3d ed 50 3e a1 11 3c be
       0.006542941 0.27315745 0.20402999 -0.183661
000150 c5 ee 9c 3e 85 ec 72 3e 23 62 a9 3e f6 62 02 be
       0.30650917 0.23723038 0.33082685 -0.12733063
000160 cf a4 08 bc aa dc 93 be f5 ef a8 be 18 96 da 3d
       -0.008340075 -0.2887929 -0.32995573 0.10673159
000170 d2 1f ed 3c 93 8e 27 3e 2b cb f9 bd d4 57 15 3e
       0.028945837 0.16362981 -0.12196954 0.14584285
000180 d0 6d 9c 3e d6 85 a2 be 0c 1e 77 3e 16 47 aa 3d
       0.3055253 -0.31742734 0.24132556 0.0831434
000190 78 83 12 bd 0b 21 1d 3e f9 57 91 3e ba 9c 7d be
       -0.03576991 0.15344636 0.2838743 -0.24766818
0001a0 48 20 8c be fe 11 6b bd ff c3 cb bd 53 4a 10 3e
       -0.2736838 -0.057390206 -0.09949493 0.14090852
0001b0 fb 86 15 3d bd d0 36 be c6 13 7d be 4c 4f 43 3e
       0.03650568 -0.17853065 -0.24714574 0.19073218
0001c0 ee ef 66 be a4 af d9 3c 4f 9d 0f 3e b8 60 73 be
       -0.22552463 0.02657301 0.14024852 -0.23767364
0001d0 d2 ac 8a be 6f 1b 9e 3e 5c a5 74 3e 5d 4d 9e bd
       -0.27084976 0.30880305 0.23891205 -0.077295996
0001e0 d5 0b 6a be 87 be 97 be a8 d7 5b be d2 49 81 3e
       -0.22856076 -0.29637548 -0.21468985 0.25251633
0001f0 af bb 64 be b1 e8 4e be b2 15 84 be e6 11 5a 3e
       -0.2233722 -0.20205952 -0.25797802 0.2129589
000200 0e 57 8f be 57 98 7b 3e 2d 25 57 be 14 2f 8f 3e
       -0.27996105 0.24569832 -0.21010275 0.27965605
000210 3b 2c 89 be 06 25 3a 3e 70 a6 67 be 2c 46 8a bd
       -0.26791558 0.18178186 -0.22622085 -0.067516655
000220 51 ee 98 3e 5b ca e1 b9 aa 34 94 3e 49 4a 66 be
       0.2986932 -0.0004306611 0.2894643 -0.22489275
000230 8d 0e b3 be 5e eb cc 3a 52 b5 8f 3e 35 f7 af bd
       -0.3497204 0.001563411 0.28068024 -0.08592073
000240 a3 1e 95 be 94 db 3c 3e ed f6 de 3c 5b b6 97 bb
       -0.29124936 0.18443137 0.027217353 -0.0046298928
000250 57 40 24 be bc 9b 9c be 64 a7 9b 3e 5c f4 80 3d
       -0.16040169 -0.30587566 0.30401146 0.06296608
000260 2b 4f 11 3d 51 01 9e 3e 51 f5 7f be 34 9c 78 be
       0.03547589 0.3086038 -0.24995925 -0.24278337
000270 ed 1a 9e 3d f0 20 ec 3d a4 1e 84 3d b8 f6 30 be
       0.077199794 0.1152972 0.06451157 -0.17281616
000280 63 a6 75 3e 30 81 9d 3e b4 be c8 3d c9 2e 9e 3e
       0.23989253 0.30762625 0.09801999 0.3089507
000290 a2 5c 5c 3a 42 07 da 3d 88 75 63 3e e7 5c 0a be
       0.00084061373 0.106459156 0.22212803 -0.13512002
0002a0 5f 19 82 3e 71 1b 5c 3e 9d 78 b0 bd 1f ee f6 bd
       0.25409982 0.21494843 -0.08616755 -0.12057137
0002b0 44 da 16 be 90 98 29 be 16 60 aa 3e 9f 72 f2 bd
       -0.14731699 -0.16562104 0.33276433 -0.118382685
0002c0 4a 4a 3a 3e 40 d2 9a be 61 07 c3 bd 36 a5 d5 3c
       0.18192402 -0.30238533 -0.09522892 0.026079755
0002d0 b8 cb f9 bd f4 de 69 be 7c c7 0e bd e8 1e 93 3e
       -0.121970594 -0.22838956 -0.034858212 0.28734517
0002e0 df b5 55 3e 35 4b 9a 3e 52 dc 5a be 39 84 c7 3d
       0.2087016 0.30135503 -0.21373108 0.09742016
0002f0 49 8c d7 3d 6b a2 32 3e a4 e3 35 3e b9 37 47 be
       0.10524804 0.1744477 0.1776262 -0.1945485
000300 8c 25 ab bd 09 d0 79 3e 5a fa 1d bd 79 3b 52 bd
       -0.08356771 0.24395765 -0.038568832 -0.05132625
000310 c8 16 20 3e 45 4f e3 39 f1 03 50 3d f8 a5 a3 be
       0.1563369 0.00043355874 0.05078501 -0.31962562
000320 e3 98 cc bd db fb 0c 3e ee d1 db bd a0 cf ae 3d
       -0.09990098 0.1376795 -0.107334 0.08535695
000330 5f 6a 94 3e bd 23 64 3e 26 95 98 3e df 5a 29 3e
       0.28987405 0.22279258 0.2980129 0.16538571
000340 d2 c5 83 bd 29 06 16 be a2 61 6c be 5a e2 cd 3d
       -0.064342156 -0.14650787 -0.23084119 0.10052939
000350 71 d6 aa be 04 bf 54 3e 02 6d c6 3d 49 03 97 bd
       -0.3336673 0.20775992 0.0968876 -0.073736735
000360 af 2d cb 3d cd 80 c8 bd d6 be 18 be c2 11 98 be
       0.09920823 -0.09790192 -0.14916548 -0.29701048
000370 e9 80 c4 bd e9 9c d9 bd 12 e7 0f 3d 94 96 98 3e
       -0.095949 -0.10625631 0.035132475 0.29802382
000380 5f fa 0a be 69 dc 6d 3e d9 40 09 3e 2e 83 0e 3d
       -0.13572071 0.23228611 0.13403644 0.03479307
000390 69 39 88 be ee 83 38 be e2 24 69 3e a2 1a 9c be
       -0.266063 -0.18019077 0.22767976 -0.3048907
0003a0 b0 ec 4a 3e c9 f6 3b be 85 4c 86 3d 3e d1 3e 3e
       0.19816852 -0.1835586 0.06557564 0.18634507
0003b0 1b 05 6f be b7 fe 7c 3e b3 72 20 3e 63 d5 50 be
       -0.23341791 0.24706541 0.15668754 -0.203939
0003c0 51 b5 0d 3b 30 e6 75 be 33 f2 46 3d c6 06 5e 3e
       0.0021622966 -0.24013591 0.048570823 0.21682271
0003d0 90 72 14 3e c9 81 7b be e7 1e 57 bd c1 be 8a be
       0.14496827 -0.24561228 -0.052519705 -0.2709866
0003e0 b1 46 4c 3e e0 50 c7 bd 2a 5d 91 3d df f9 5f be
       0.19948842 -0.097322226 0.07097848 -0.21872662
0003f0 0a 3e d8 bd 40 13 6a be 7a c4 94 be c8 01 a2 3e
       -0.10558708 -0.22858906 -0.2905615 0.31641984

bias f4 [32]
000000 91 c9 46 3d 82 78 cb 3d 65 18 b5 3d bc db 96 be
       0.048532072 0.099350944 0.088425435 -0.2946452
000010 d7 39 a4 3e 66 da 2e bd ee 47 4b bd 8b f5 5c 3e
       0.32075378 -0.04268875 -0.049629144 0.21578042
000020 ac 36 9e 3e 67 b1 b4 bc bb 96 2b be f3 ab 8e 3e
       0.30901086 -0.022057248 -0.16756718 0.27865562
000030 60 de 5b 3d 96 ae 58 3e a4 dd 09 3e 20 24 86 3e
       0.05367887 0.21160349 0.13463455 0.26199436
000040 64 ca b2 bd ed 45 20 bd 07 53 2e bd 56 04 4d 3e
       -0.08730009 -0.039129186 -0.04255965 0.20021185
000050 cc 28 7a be 8f 1d d7 bd 26 81 33 3d fd 09 11 3e
       -0.24429625 -0.10503685 0.043824337 0.14163966
000060 1e bd 13 3e 40 19 b1 3d 14 77 84 3d ff 63 40 bb
       0.14427611 0.08647394 0.06468025 -0.0029356477
000070 43 a2 66 be 7e 29 cf bd 1a 97 ab bd 10 25 97 3d
       -0.22522835 -0.10115336 -0.0837843 0.07380116

weight f4 [64, 32, 3, 3]
000000 2c 14 7d 3d 8f 9d 0e 3d 24 99 da bc 89 9f a8 bc
       0.061786816 0.03481823 -0.026684351 -0.020583885
000010 f7 13 26 3b f3 dd dc 3c 7e 37 be bc 82 09 01 bd
       0.002534149 0.026961302 -0.02321982 -0.031503208
000020 74 84 22 3d 3f d5 28 bc 0c 66 03 bc cc fb 61 3d
       0.0396771 -0.010304748 -0.008019935 0.055171773
000030 43 dc 05 3d b0 e6 56 ba a2 cb 30 bd b2 09 5a 3d
       0.03268076 -0.0008197827 -0.04316295 0.053231902
000040 54 70 e1 3c 14 79 56 3c 23 d4 92 bc dc 19 10 bc
       0.027519383 0.013090391 -0.01792342 -0.008795228
000050 ae 9c 87 3c 15 e9 d9 3c 32 76 14 3c 1c 9d fc bc
       0.016554203 0.0266004 0.009061383 -0.030836634
000060 3f d4 46 bd 07 c3 2b 3d d2 6a 01 3d 84 43 10 3c
       -0.048542257 0.04193404 0.031596012 0.0088051595
000070 6c 74 d0 bc c7 ce 20 bd b1 9d 72 3c ea 45 3c bd
       -0.02544614 -0.0392597 0.014808104 -0.045965113
000080 67 43 6a bb 70 2d 45 bc 40 18 6f 3d 68 94 8d 3c
       -0.0035745741 -0.012034759 0.058372736 0.01728268
000090 50 02 b4 3b 32 a9 da 3c de 3a 5a bd fe 98 5f bd
       0.0054934397 0.026692007 -0.053278796 -0.054589264
0000a0 56 6b 54 bd 8a 7a 3d bc bc 9b 49 bd 0d a9 6d bb
       -0.051860176 -0.01156486 -0.049220785 -0.0036264092
0000b0 ee 29 15 3d ed 04 d1 ba 20 43 82 3c bc 8c a9 bc
       0.03641694 -0.0015946903 0.015901148 -0.02069699
0000c0 66 0b 16 3c c8 bc 3e 3d e5 75 51 3d cb 42 39 3d
       0.009157991 0.046566755 0.051137824 0.045229714
0000d0 8c 28 58 3d 91 49 6a 3d 13 f6 4e 3d b2 bf 1f bd
       0.052773044 0.057199065 0.050527643 -0.039001174
0000e0 3a ef b5 bc 0d 0d ed bc 1e ff 05 3c c1 bc ee bc
       -0.022208799 -0.028936887 0.0081785 -0.02914274
0000f0 fa 5b ff 3c 8c d3 d9 3c 7d 99 c5 3c 39 1c 60 bd
       0.031171788 0.026590131 0.02412104 -0.054714415
000100 90 b1 22 bd 01 3c ae bc b3 15 ec bc b2 f5 39 bd
       -0.039720118 -0.021268846 -0.02881894 -0.04540033
000110 c3 bc dc 3c 29 dc fd 3c 9b 0b 8e 3c 30 35 30 bd
       0.026945477 0.03098877 0.017339518 -0.043019474
000120 18 4b e2 3c 8e 10 d3 3c 47 45 a1 bd d4 fe 20 3d
       0.027623698 0.02576473 -0.07874542 0.039305523
000130 c9 80 20 bd 43 cf 9d bd b4 e9 ca 3c ad c5 20 bd
       -0.03918532 -0.07705548 0.024769641 -0.03925102
000140 b1 4e b0 bd bc 9c 65 3d c7 43 ae bc 9a ba c3 3b
       -0.08608759 0.056057677 -0.021272553 0.0059731724
000150 e3 50 1b 3d 30 aa ce bc 4a 40 97 bc 79 a2 41 bd
       0.037918936 -0.025227636 -0.018463273 -0.047274087
000160 58 ef da 3c 6f fb 13 bd a9 4c 34 bd ee c8 b0 bb
       0.026725456 -0.036128458 -0.04401842 -0.0053950464
000170 27 a7 e4 3b 2e a3 e3 bb f0 32 06 3d ab 5c 42 bd
       0.006977934 -0.006946943 0.03276342 -0.047451656
000180 c5 22 c0 bc 1c 97 4e 3c e1 ff ea bc a4 92 6b bc
       -0.02345408 0.0126092695 -0.028686466 -0.014378224
000190 d7 77 1e 3b e5 17 a5 3d ea 85 50 3c f5 64 09 3d
       0.0024180317 0.08061198 0.01272724 0.033543546
0001a0 e8 37 91 3d a6 af 08 3d 05 2b 1b 3a 8d 3b 3e 3d
       0.070907414 0.033370636 0.0005919191 0.04644351
0001b0 72 60 63 bc 62 67 8b 3d 81 cc 34 3d d1 5d 06 bd
       -0.013877975 0.06806828 0.044140343 -0.032804314
0001c0 3b a7 7c bd 09 ce 9b bc cb a6 cd 3c d4 df 98 bd
       -0.06168292 -0.019019144 0.025103947 -0.07464567
0001d0 51 42 5f bd 83 43 3f bd c8 a2 bd bb c6 a1 76 bd
       -0.054506604 -0.046695244 -0.0057872273 -0.060212873
0001e0 b5 60 5c 3c 1a 25 56 3d b4 49 b1 3b 04 6f 0f 3b
       0.013450791 0.052281477 0.0054103974 0.0021886239
0001f0 95 82 7b 3c 92 2d 28 3d 0d 34 2f 3d bc 66 89 bc
       0.015350957 0.041059084 0.04277425 -0.01677262
000200 95 d8 ce 3d 50 54 18 3d 50 ce 89 bc b3 57 94 3d
       0.100999035 0.03718978 -0.01682201 0.0724329
000210 b2 ce 5f bc a7 08 98 3d 07 38 9e 3d 68 53 f0 bc
       -0.01366012 0.07423525 0.0772553 -0.029336646
000220 6b 00 58 3c 4a 24 8a bc b1 7a 8b 3b 90 e7 87 bc
       0.013183693 -0.016863007 0.0042565693 -0.01658991
000230 92 7f 09 bc a6 c0 db bc 18 b6 00 3c b3 c6 2b bd
       -0.008392232 -0.02682526 0.0078559145 -0.04193754
000240 bc 1f b9 3b f5 0e c2 3b e9 f3 77 3d 8d a5 b5 3c
       0.005649535 0.005922193 0.060535345 0.022173667
000250 11 14 3b 3b 8a 92 03 3d a5 b8 2e 3c 4a e6 38 3d
       0.0028545896 0.032122172 0.01066414 0.045141496
000260 69 a6 0f bd 4a b1 3b bd a0 37 a5 bc 2f 90 dc 3c
       -0.03507081 -0.045823373 -0.020168126 0.02692422
000270 a8 be 40 3b 5b 94 bd bb 51 db 3f bd 00 2b 36 bc
       0.0029410515 -0.0057855076 -0.046840016 -0.01111865
000280 9e 19 56 3d 33 63 c2 bb 66 2f 3e bd c8 f3 11 3d
       0.052270524 -0.0059322356 -0.04643192 0.03563288
000290 a6 c4 ca 3c 39 83 ba 3c 27 21 22 bd db f1 9c bc
       0.024751972 0.02276765 -0.039582398 -0.019158294
0002a0 ba 37 ad bc 15 57 8d 3b 7f 34 87 3c 60 96 08 3c
       -0.021144737 0.0043133595 0.016504524 0.008336633
0002b0 80 0a 06 3d 5a b5 95 3d aa 5d 17 3d 90 69 6d 3d
       0.032724857 0.07309981 0.03695456 0.057962
0002c0 bf e0 fb 3c 2c 0d 86 3c 84 78 31 3d 27 58 b8 bc
       0.030746816 0.016363703 0.043327823 -0.022502972
0002d0 16 98 27 bd 51 7d 1e bd 56 20 88 3d c4 60 bd bb
       -0.040916525 -0.03869373 0.066467926 -0.0057793576
0002e0 e7 e3 8e bc bf 12 ed bb d0 b4 c8 3c 79 9b 5a bd
       -0.017442657 -0.0072349007 0.02450028 -0.053370927
0002f0 67 7a fe bc c0 3c 83 3c 30 81 e0 3c 83 18 c2 bc
       -0.031064225 0.016020179 0.027405351 -0.023693329
000300 d1 ae 3c bd 3f ae 52 bd c8 40 de bc d0 dc ec 3c
       -0.046065155 -0.051435705 -0.0271305 0.028913885
000310 07 0d 07 bd b4 cf 57 3d f8 16 64 3d 60 fe 39 bd
       -0.03297141 0.052688316 0.055685967 -0.045408607
000320 56 1f a7 bb 09 9e 22 3d 62 0f 4e 3d 87 e8 fc 3c
       -0.005100171 0.039701495 0.05030764 0.030872596
000330 23 67 35 3b 62 4c 72 3d f5 56 33 bd b0 35 5a 3d
       0.0027679882 0.059154876 -0.0437841 0.053273857
000340 d3 bf 0e bc 0c 52 8a bc 45 9a c2 3c 8f 77 dd 3c
       -0.008712727 -0.016884826 0.023755202 0.027034549
000350 3d c3 ee bc 99 c4 01 bc 6b 03 1a 3d ba 60 22 3d
       -0.029145831 -0.007920408 0.037600916 0.039643027
000360 ad 50 29 3d 65 1d 20 bd d3 4b 9f bc a4 8e 34 bd
       0.041336704 -0.039090533 -0.019445335 -0.044081345
000370 0b 47 56 bc 42 02 ea 3c 2d 60 90 3d 99 99 80 bc
       -0.013078461 0.02856553 0.07049594 -0.015698241
000380 a4 87 97 3d b8 1d 76 3d d3 49 2b bd 0a 93 0e 3c
       0.07398918 0.060086936 -0.04181845 0.008702049
000390 67 da 1e bd ad f7 20 3c 8b 5c 92 3d 19 ef 99 3d
       -0.038782503 0.0098246755 0.071465574 0.075163074
0003a0 51 4b 4c 3c b6 f2 02 bd 83 35 4d bc 56 64 b5 bc
       0.012469129 -0.03196975 -0.012524965 -0.02214257
0003b0 5a 93 82 3c fd ab 01 bd c1 0f 02 bd 30 5a 5b 3d
       0.015939403 -0.03165816 -0.031753305 0.053552806
0003c0 e3 ac a3 bc 5c 8c ec bc a9 f8 17 3d 76 1e 3d 3d
       -0.0199799 -0.028875522 0.037102375 0.046171628
0003d0 ef 88 e2 3c 28 0b c9 3d 24 96 c9 3c 4a e2 2c 3d
       0.027653186 0.09816581 0.024607725 0.042207994
0003e0 b2 41 31 bc c7 27 73 3d af 16 af bc 2c 2a 46 3d
       -0.010818886 0.059364107 -0.021373121 0.048380062
0003f0 af 88 77 3d 92 86 f9 3b 66 9d 04 3d 95 6a 0e bd
       0.060433086 0.007614919 0.03237667 -0.034769613

bias f4 [64]
000000 dd 54 a3 3c 26 6b 5a 3d 18 aa ea 3b 65 ab e3 ba
       0.019937927 0.05332484 0.00716139 -0.0017369805
000010 09 8b 73 3d 54 88 45 3d fd 2d 03 bd 42 76 52 3b
       0.059458766 0.048225716 -0.03202628 0.0032113944
000020 30 97 6d bd 61 06 0e 3d c6 ba 6c 3d f1 79 87 3c
       -0.05800551 0.034674052 0.05779531 0.016537638
000030 1b 41 3d bd a2 04 af 3d 21 4a 1b 3d c6 72 79 3d
       -0.046204668 0.085458055 0.03791249 0.060900472
000040 f6 5c 99 3d a6 40 15 3d 8f 29 b4 3c e1 17 e7 3c
       0.07488434 0.036438607 0.021992473 0.028209629
000050 94 78 1f bd d4 c4 05 bd bf 03 9f bc fb a0 79 3d
       -0.03893335 -0.032658413 -0.019410966 0.06094454
000060 3c c9 ff bc 15 f8 c9 3c f0 26 86 3d 40 7f 00 bd
       -0.031223886 0.024654428 0.065503955 -0.031371355
000070 88 66 12 3d 2a 0f 84 bd c4 31 b1 39 c6 6c cc bc
       0.035742313 -0.06448205 0.0003379715 -0.024954211
000080 35 4f 65 3d 82 c7 50 bd 16 bd 08 bd 85 5c 6f bd
       0.05598374 -0.050971515 -0.03338345 -0.058437843
000090 9e 2e 3d 3d bf 90 e9 3c 78 bc 93 3c c5 c1 4e 3d
       0.046187036 0.028511403 0.018034205 0.05047776
0000a0 85 23 14 3d bf 7d 44 3c f0 92 a2 bb 4e 85 d2 3c
       0.036166687 0.011992871 -0.004961364 0.02569833
0000b0 b1 3e 1f 3d 42 92 8d 3d 9a f1 19 bd 72 0e 3c bc
       0.038878147 0.06912662 -0.037583925 -0.011478053
0000c0 0c 08 4b bd 90 71 78 3d e5 94 11 bd 54 9e 3d 3d
       -0.04956822 0.060655177 -0.035542388 0.04629357
0000d0 18 47 93 3d 99 ea f0 3c 60 c7 0b 3c 48 eb 44 3d
       0.071912944 0.02940874 0.008531421 0.048075944
0000e0 bf 40 ef 3c 71 5f fb 3c c8 52 81 3c fb 3e 22 bd
       0.029205678 0.030685158 0.015786543 -0.039610844
0000f0 98 65 f4 bc 5f 65 51 3d 6c 26 45 bc 4a f5 84 3d
       -0.0298336 0.051122066 -0.012033086 0.06492098

weight f4 [128, 64, 3, 3]
000000 b4 1e 47 bd ca 7e 20 ba f4 13 36 bd b1 47 f8 bc
       -0.048613265 -0.00061224087 -0.044452623 -0.030307623
000010 26 bc cf 3b fb 9e 19 bd d5 76 12 bd 73 9b d5 3c
       0.0063395677 -0.03750513 -0.03575786 0.0260751
000020 05 81 a2 bc 77 7b dc bc 63 c9 99 bc 61 be 16 3d
       -0.019836912 -0.026914341 -0.018772786 0.036802653
000030 bf 5c 02 bc 7c 84 ec bc 4e 9c 0c bd d8 3e ee bc
       -0.007956683 -0.028871767 -0.03432875 -0.0290827
000040 b8 b4 cd 3c 74 a9 05 3d 5b 17 16 bd d7 42 88 bc
       0.025110587 0.032632306 -0.036643367 -0.016633434
000050 10 9b 25 3d bf ec 2b bc 04 50 49 bc 6d cf 40 3c
       0.040431082 -0.010493456 -0.012287144 0.011768204
000060 c5 04 11 3a d3 6f c7 3c 72 e8 1d bd a7 11 d6 3c
       0.0005532022 0.024345314 -0.038551755 0.026131464
000070 5a 6e c9 bb 01 21 c7 3c f3 10 15 3d e0 14 fa bb
       -0.006147188 0.02430773 0.036393117 -0.007631883
000080 cf 5f c8 bc 56 13 00 bd 79 d5 1b 3d 77 d0 22 3d
       -0.024459748 -0.03126844 0.03804538 0.03974959
000090 b5 d4 1f 3c fc d8 65 bc d0 52 c3 bc 06 30 0b bd
       0.009755303 -0.014028784 -0.023843199 -0.033981346
0000a0 6f eb cd 3c 74 3a 1b 3d 8e 02 9d 3b 0e 07 12 bd
       0.025136678 0.037897542 0.0047915643 -0.03565126
0000b0 a8 1d 27 3d bb 77 9a 3c 19 de 2b 3d b8 80 ed bc
       0.040799767 0.01885592 0.041959856 -0.028992042
0000c0 33 5a a3 3b ae 2d 11 3d e6 20 b2 bb 0f 35 6a 3c
       0.004985118 0.035443954 -0.0054360507 0.014294877
0000d0 43 bc 01 3d fa ed ce bc c5 e0 1d bb 30 70 d2 bb
       0.03167368 -0.02525996 -0.0024090272 -0.006422065
0000e0 51 2e a2 bc 45 b2 f7 bc 7f 7b ef bc 05 f9 d6 bc
       -0.019797476 -0.030236373 -0.029233692 -0.026241789
0000f0 8f 8e 1d 3d b8 3d 45 3c fc 04 25 3d 6f 2f 2b 3d
       0.038466033 0.012038641 0.040287957 0.041793283
000100 ef 82 29 bc ed a2 e4 3c c9 6e e8 3b 85 2d 27 3c
       -0.010346158 0.02790972 0.0070932847 0.010203724
000110 4b ec d5 bb 5d 32 b6 3c c4 12 f3 3c c7 59 26 bd
       -0.0065284125 0.022240812 0.029672034 -0.040612962
000120 7b 7e 3a bd 9c b6 5a 3c 30 6a 82 3c 3d 63 1f bd
       -0.045530777 0.0133492015 0.015919775 -0.038913
000130 29 34 5b bd af e8 21 3c 65 35 0c bd 78 fc d8 3c
       -0.05351654 0.009882136 -0.03423061 0.026487574
000140 c0 35 e8 3c 8a 02 3b bd b2 91 05 bd 67 21 fd bc
       0.028345942 -0.04565672 -0.03260965 -0.030899717
000150 e0 c9 2e bb ce 0d f3 3c 86 87 42 bc 26 29 a7 3c
       -0.002667062 0.029669669 -0.011873132 0.020405363
000160 b0 a5 40 bd 9b 5d 4a bd 8b 10 65 bc e3 23 a3 bc
       -0.047033012 -0.049405675 -0.013980995 -0.019914573
000170 fb a2 5d 3c 15 7f af b8 fd d4 b5 bc d9 8e 27 3a
       0.013527627 -8.368321e-05 -0.022196287 0.00063918304
000180 bc b5 f3 bc 83 cc 7c bc 44 a9 df b9 af 22 f9 bc
       -0.029749744 -0.015429619 -0.00042659987 -0.030412046
000190 45 63 d3 3c 00 a3 97 bc 39 f6 22 bd c3 98 30 3d
       0.025804171 -0.018510342 -0.039785597 0.043114435
0001a0 95 b5 0c bd 59 ba 8e bc ed de cb 3b fb 02 8d bb
       -0.034352858 -0.017422842 0.006221643 -0.004303334
0001b0 d0 56 fd 3b 59 88 a8 bb 4c 55 5a bc 2e 4f a0 bc
       0.007731296 -0.005143207 -0.013326 -0.019569006
0001c0 e5 b6 fa 3a a5 2d 14 3d 15 13 ca bc bc a7 14 3c
       0.0019127993 0.036176343 -0.024667302 0.009073194
0001d0 a6 de cb 3c 2e 97 02 3d 6e e2 40 3c 35 f2 9e bc
       0.02488644 0.031882457 0.011772735 -0.019402603
0001e0 d6 85 d7 3c 0f da 8e 3b 78 89 43 3b fd f1 8a 3d
       0.026308935 0.0043594907 0.0029836576 0.06784437
0001f0 de f7 5e 3c 0f b1 75 3d 6e 0e 93 3b ac 37 80 3c
       0.013608901 0.05998331 0.004487804 0.015651546
000200 bb 90 26 3d 30 fd 2d 3d 04 49 94 3c 58 2d ef 3b
       0.04066537 0.042477787 0.018101223 0.0072991066
000210 8b 21 b7 3c f9 5a 96 3b a8 36 b7 3c 58 1a 00 3d
       0.022354862 0.0045884815 0.02236493 0.031275123
000220 e7 54 bf bc d4 1b d1 3c 41 0d 24 bd 95 81 11 bd
       -0.023355914 0.025525965 -0.040051702 -0.03552397
000230 ac e6 9e bc b5 aa 35 bd d5 e2 54 bc 8c f4 af 3c
       -0.019397102 -0.044352252 -0.012993534 0.021478914
000240 4f 45 c9 bc b4 c7 a1 bc 8e 08 6a 3b 32 e8 08 3d
       -0.024569182 -0.019748546 0.0035710665 0.033424564
000250 7d 30 f3 3c b0 f2 01 3d e3 f5 24 bd 9e e9 a1 bb
       0.029686207 0.031725585 -0.04027356 -0.0049411794
000260 ee a4 78 3c 5a 76 8b bc cc f2 10 bd dd 2a 66 3c
       0.015176041 -0.017024208 -0.0353878 0.014048305
000270 8f 71 0b 3d 50 d1 86 bc a6 a7 c3 3c cd 37 05 bd
       0.034043845 -0.01645723 0.023883652 -0.03252392
000280 50 1d 01 bd 8a af 3a 3c be 1d 32 3c 1f 08 4d 3c
       -0.031522095 0.011394391 0.010871349 0.012514143
000290 ca 60 98 3c d3 1a cc bc 23 9a 3e bc 21 c6 7c 3b
       0.01860084 -0.024915135 -0.011633429 0.0038570242
0002a0 82 ec 77 bb e7 42 c7 bc 31 17 71 bc d4 aa 94 3c
       -0.0037830179 -0.024323894 -0.014715002 0.018147863
0002b0 ff 9c 86 38 f2 d7 56 bc 7b d8 df 3c 71 9b cd 3c
       6.418861e-05 -0.013113009 0.027324906 0.025098534
0002c0 e8 c4 20 bc ea 5a b0 3c c3 66 ab 3c 68 49 16 bd
       -0.009812571 0.021527726 0.020923024 -0.0366911
0002d0 40 5c 19 ba b4 c4 e4 bc 4d 98 40 bc 32 a9 7a bc
       -0.0005850233 -0.027925827 -0.011755061 -0.015299128
0002e0 44 59 d1 bc 8b 11 1c bb e1 d5 42 bb 20 ec 0f bd
       -0.02555526 -0.0023814167 -0.0029729533 -0.035137296
0002f0 35 79 05 bc 17 4a 11 3d 9c e5 d1 38 41 6e 05 3d
       -0.008146574 0.03547105 0.00010008665 0.03257585
000300 af 24 e1 bb 06 af ab bc 25 84 b8 bc 36 86 f2 bc
       -0.006870828 -0.020957481 -0.022523949 -0.029605012
000310 b0 08 74 bc 22 fb fe 3c 20 b2 e0 3b 6d cf 4d 3c
       -0.014894649 0.031125609 0.0068571717 0.012561661
000320 c7 a3 e6 3c d2 84 e0 b9 50 0d 22 3c 27 bf e3 3c
       0.028154267 -0.00042823568 0.009890869 0.02780111
000330 15 53 81 3c d4 f8 db bc 62 49 8d bc c6 f6 1a bd
       0.015786687 -0.026852049 -0.017246906 -0.037832998
000340 f7 69 bc 3c bc 3f 33 ba cb b0 d6 bc 64 0e 20 bd
       0.022999747 -0.0006837805 -0.026207348 -0.039076224
000350 74 99 d1 bc f7 ac e6 3c aa bf 17 3c ec f8 1c 3c
       -0.025585867 0.028158648 0.009262005 0.009580832
000360 66 0e 13 bc d8 79 b5 bc 87 f8 0f 3d b9 dd 29 3c
       -0.008975601 -0.022152826 0.035149124 0.010367804
000370 ee df 1f 3d 4a 25 e6 3c 28 5f 90 3c 43 3a b8 3c
       0.039031915 0.028093953 0.017623499 0.022488719
000380 44 bb b3 bc 7f 60 b7 3c 33 60 86 b9 a1 7f 28 3d
       -0.021939881 0.02238488 -0.00025630146 0.04113734
000390 fb bc 03 bc 44 28 72 3b ea e3 eb bc 72 3e c5 bb
       -0.008040662 0.003695027 -0.028795201 -0.006019407
0003a0 37 78 bf 39 bc 2b 3a 3c 0a e1 10 bc ef ae 96 bc
       0.00036519926 0.011362966 -0.008842716 -0.018393962
0003b0 0a c2 1d bd f2 cf 1c bd 2a d3 5b bc f1 d7 3f 3c
       -0.03851513 -0.03828425 -0.013417045 0.011709199
0003c0 52 29 86 bb 47 a5 ec 3c 3c 18 89 3c dc 1e 14 bc
       -0.0040942812 0.028887404 0.016735189 -0.009040561
0003d0 17 51 04 3d 69 11 18 3b b7 71 be bc b2 79 5d 3c
       0.032303896 0.0023203737 -0.023247583 0.013517784
0003e0 db ec 83 ba e9 07 9f bb 2c 77 84 3c a0 61 9c bc
       -0.0010065095 -0.004853238 0.016170107 -0.01908952
0003f0 eb 97 b7 3c 10 32 0a 3b fc d7 7a 3a 94 b8 b2 bc
       0.022411307 0.0021086968 0.00095689273 -0.02181653

bias f4 [128]
000000 d5 1a 75 3c 7f 87 35 3d 6c 0f 42 3c e4 80 10 3d
       0.014960011 0.044318672 0.011844497 0.03527917
000010 9b a6 25 bd 58 29 06 bd 64 54 0c bd f2 62 b6 bc
       -0.04044209 -0.032754272 -0.03426017 -0.022263978
000020 43 c5 35 bb 84 a1 8e 3d 3a 91 fb 3c 27 b4 05 bd
       -0.0027735985 0.069644004 0.030708898 -0.03264251
000030 a6 01 3d bd 39 01 02 bc 8e 24 08 bd 82 ee a0 bb
       -0.04614415 -0.007934862 -0.033237986 -0.004911245
000040 74 e0 e7 ba 83 82 63 bc 17 29 db bc f2 e8 44 3c
       -0.0017690794 -0.013886097 -0.026752992 0.012018429
000050 b4 de 83 3b 7c 18 a1 3b fa 7a ea 3c 0c fa 92 bc
       0.004024351 0.004916249 0.028623093 -0.017941497
000060 3f 23 ad 39 3b 8f 1b 3c 4f 0e 9d bd 37 51 18 3d
       0.00033023392 0.009494598 -0.07668745 0.037186828
000070 5e 38 bf 3c 5d c9 63 bd c3 7a ec bb 85 f4 d6 bc
       0.023342308 -0.055611957 -0.007216783 -0.026239643
000080 1f a2 ca 3c a2 0c 7b bc 4e 67 60 bc 09 1a ae bc
       0.024735508 -0.015322836 -0.013696505 -0.021252649
000090 e0 0b c6 3c c3 66 44 bd e5 04 82 3b d3 bf 4b 3d
       0.024175584 -0.047949564 0.0039678686 0.049743485
0000a0 2a 2f c9 3c bd 91 ae bb f4 91 08 bd 2c 2b e3 bc
       0.024558622 -0.005327432 -0.033342317 -0.027730547
0000b0 1d 8f 67 3d ea 45 7f 3d 0a 20 50 bc 90 3f b2 bc
       0.056532968 0.062322535 -0.012702951 -0.021758825
0000c0 e3 8a ba 3a ce 3e ae bc 2d 57 14 3d 57 c1 80 3c
       0.0014232065 -0.021270182 0.03621595 0.015717192
0000d0 f8 e0 7c 39 37 75 99 bc ff d2 aa 3c fb 71 3d 3d
       0.000241164 -0.01873265 0.020852564 0.04625128
0000e0 8d 88 0a 3d a1 bf ee 3b a7 5d d3 3b c5 f0 a8 bc
       0.03382163 0.0072860275 0.006450373 -0.02062262
0000f0 12 01 5e 3d 53 bf 7e 3c f4 99 0c 3b 62 f7 28 3b
       0.05420024 0.015548545 0.0021454068 0.0025782217
000100 fd db 35 bc 94 15 a1 bc 78 70 46 3d 7a fa 85 bb
       -0.011099813 -0.01966361 0.048447102 -0.004088697
000110 ec 5f 01 3d 5e c6 2e bd a3 12 ff 3c d0 cf ec bb
       0.03158562 -0.042669646 0.031136816 -0.0072269216
000120 36 d0 80 bc b8 c3 b0 bc 2a d2 f3 3b 39 12 3c 3b
       -0.015724283 -0.021577701 0.007440825 0.0028697385
000130 af 27 81 bb 6d 79 40 3d d3 c0 6b 3c 9e 2b e0 3c
       -0.003941498 0.0469908 0.014389235 0.027364548
000140 df 8e ad 3c 74 2a bf bb 8d eb 30 3d bd 4e 25 3d
       0.02118629 -0.005833918 0.04319339 0.040358294
000150 70 1d 16 3c d8 0c 33 3b 01 96 23 3d e4 f5 f8 b7
       0.009162292 0.0027320888 0.039937977 -2.9678406e-05
000160 d3 01 96 3c 04 af 6f bc 86 7f 60 3d ef ff 15 bd
       0.018311417 -0.014629129 0.054809116 -0.03662103
000170 e5 44 1f 3d 84 1b cb ba 1b 65 6b bd d6 67 57 bc
       0.038884062 -0.0015495871 -0.05746947 -0.013147315
000180 52 88 97 bc 74 92 d6 bb 9f 40 9d 3c 68 a5 d8 bc
       -0.01849762 -0.0065482203 0.019195853 -0.02644606
000190 15 82 f5 bc 37 18 d1 bc 96 6d 8c 3c ab ed 89 3c
       -0.029969255 -0.025524242 0.017142098 0.016836962
0001a0 d8 8e 12 bd 77 8f da bc 99 9c 15 3d 09 b9 96 3d
       -0.035780758 -0.026679737 0.036526296 0.073595114
0001b0 85 36 0c bd 70 a1 08 3d 39 94 7a bc 69 b9 56 3d
       -0.03423168 0.033357084 -0.015294128 0.052422915
0001c0 35 1a 97 bb 76 c0 66 bc 3b 33 1a bd ea 50 a4 bd
       -0.0046112784 -0.014083972 -0.037646513 -0.08023246
0001d0 f7 27 45 bb c0 42 51 3c 8f f7 30 bc 1a ac 2b 3d
       -0.0030083635 0.012772262 -0.01080121 0.041912176
0001e0 26 2a 36 3d 12 a8 51 3c 61 8c 17 3e fb 6b 31 3d
       0.04447379 0.012796419 0.14799644 0.04331587
0001f0 8e db 0d 39 8c 27 f6 bc e5 ca b1 3c df d1 41 bc
       0.00013528598 -0.030048154 0.021703193 -0.011829822

weight f4 [128, 64, 3, 3]
000000 d9 e1 7a 3a ea ae 87 bb 01 6e c6 ba 87 84 46 38
       0.0009570397 -0.0041407244 -0.0015138985 4.7330304e-05
000010 7e 3c 81 3c 05 7b 08 3d 35 5c 8b bb 46 f2 7a 3c
       0.015775915 0.033320446 -0.0042529353 0.015316552
000020 27 71 01 bc 8f c1 85 3c 30 2c c0 bc b5 8c 4d bc
       -0.007900513 0.016327647 -0.02345857 -0.012545754
000030 c0 21 d6 3c f1 c7 b4 bc 35 cb cd 3c c5 b8 31 bd
       0.02613914 -0.022067996 0.02512131 -0.0433891
000040 c5 2c e8 bb c8 b3 97 3c 77 28 b1 3c f8 f9 f8 bc
       -0.007085415 0.018518344 0.02162574 -0.030392632
000050 e7 38 e3 bc ae f7 30 3b ce f9 e6 bc 95 05 0e bb
       -0.027737094 0.0027003097 -0.028195288 -0.0021670808
000060 e5 90 9e 3c ef 5c a4 3c 2a a2 5a bc ee 7f 45 bc
       0.0193562 0.020063845 -0.013344327 -0.012054427
000070 ed 7f ac bc f8 c4 79 3c 72 83 a9 3c 85 be 09 bd
       -0.021057094 0.015244715 0.02069256 -0.03362896
000080 87 1c 0a bd 35 90 23 3b 9c 82 f5 3c 2e 7d 79 3c
       -0.033718612 0.002495778 0.029969506 0.015227599
000090 dc 49 ce bc f4 d8 f4 bb ac 70 5d 3b d0 22 ea 3c
       -0.025181703 -0.007472152 0.0033789081 0.028581053
0000a0 f6 fd 2c bc 75 96 fa 3c e1 96 f5 bc 5c b3 13 bd
       -0.010558596 0.030589322 -0.029979171 -0.036059722
0000b0 1d 8a d4 bc f6 24 3e 3c a5 5c 20 3d 23 cd e6 bc
       -0.025944764 0.011605492 0.039150853 -0.028173989
0000c0 67 0e 24 bc 80 49 68 3c ee 3b 1d bd fd c4 f1 3c
       -0.010013199 0.01417768 -0.03838723 0.029512877
0000d0 e4 03 18 3d 82 56 02 bc 42 3b d1 bc a8 29 90 3c
       0.037113085 -0.007955195 -0.025540952 0.017597988
0000e0 75 01 71 3b ad ee 12 3d 9e 82 a7 3c aa a5 3e 3d
       0.003677455 0.03587215 0.020448025 0.04654471
0000f0 35 a8 35 bd be 2d d1 3c 1e b7 fa bc 65 1a 07 bd
       -0.044349868 0.025534507 -0.030604895 -0.032984156
000100 a2 9b 1f bc 56 8c 1f bd 85 36 04 3c dd f5 cb bc
       -0.009741696 -0.038952194 0.008069639 -0.02489751
000110 c8 e1 43 bc da d9 df 3c 36 d6 c4 3c a4 81 8d 3c
       -0.011955686 0.02732556 0.024027925 0.017273732
000120 ef 95 6c bc 6e 84 0e 3d 04 0e 16 3d 28 df ed 3c
       -0.014440044 0.034794264 0.03663446 0.029037073
000130 cf 27 09 3c fa 3f 20 bd 12 69 d2 3c 90 01 d9 3c
       0.0083713075 -0.039123513 0.025684867 0.026490003
000140 d3 0a 23 bc 91 06 33 bd 51 53 f4 3c 71 28 91 3b
       -0.009951311 -0.043707434 0.029824885 0.00442987
000150 ee 41 bb 3b 33 41 3f bc d2 61 55 3c 2d 02 14 bd
       0.0057146465 -0.01167326 0.01302381 -0.036134887
000160 6d 78 38 3b b9 85 c6 3c 37 27 41 3d a7 70 d2 3c
       0.0028147951 0.024233686 0.04715654 0.025688482
000170 68 64 8f 3b 98 ea f1 bc d2 e8 3e 3c 8e 5b d6 bc
       0.004375983 -0.029530808 0.011652188 -0.026166704
000180 b9 26 1c 3d 0f 5f 99 3d 18 c9 53 3d 51 8f eb bc
       0.038122866 0.07488834 0.05170545 -0.028754862
000190 a5 6d 83 bc a5 1b a5 3c 17 73 3c 3c 55 99 fd 3b
       -0.016043494 0.020154784 0.011502049 0.007739226
0001a0 f9 74 53 3c e9 7a a2 bb de 7c 5b 3b c4 6a 45 3d
       0.012906306 -0.0049584997 0.0033491175 0.048197523
0001b0 ba c9 b3 bc 39 93 dd bc 72 45 f7 3c bc 13 25 bd
       -0.021946777 -0.02704774 0.030184481 -0.040302023
0001c0 2c fc 08 3d 03 6d 28 bd 20 4b ee 3c ba e4 88 bc
       0.033443615 -0.041119587 0.029088557 -0.016710628
0001d0 8c 53 03 bc 05 e6 fb 3a 77 a0 9c 3c 10 fb b7 bc
       -0.008015525 0.0019218331 0.019119484 -0.022458583
0001e0 8e 8a a3 bc ae 62 7e 3c f1 ff f5 bc 78 6b d3 3a
       -0.019963529 0.015526457 -0.030029269 0.0016130051
0001f0 3b 12 57 bc 62 1b 68 3c 37 e0 2f 3c 83 78 a9 bc
       -0.013126905 0.014166685 0.010734609 -0.020687347
000200 91 8a e1 3c ed 9b 95 bc 0a 77 fc 3a 2d 93 e5 bc
       0.027531894 -0.018262828 0.0019261551 -0.02802428
000210 3f 72 34 3d 54 da 93 3c e6 70 10 3d 21 68 f5 bc
       0.044054266 0.018048443 0.03526392 -0.02995688
000220 9f 24 a6 3b a7 8f ba 3c 25 a0 5d 3c 4d 66 0f bc
       0.0050702835 0.022773577 0.013526951 -0.008752418
000230 3e 93 4e bc 14 e8 d7 bc 55 71 c9 bc 43 f9 23 3d
       -0.012608347 -0.02635578 -0.024590174 0.040032636
000240 cb 89 7d bc c0 91 57 3b 2c bc df bc ae f5 40 bc
       -0.015474747 0.003289327 -0.027311407 -0.011777325
000250 ab 9f bb bc 1d 4e 4c 3c 6c 47 41 3c 18 09 ca bc
       -0.022903284 0.0124697955 0.011796813 -0.02466254
000260 70 8d 78 bc ff a4 e5 bc 38 3f d0 bc ce 72 02 3d
       -0.01517044 -0.028032778 -0.02542077 0.031847768
000270 c8 b4 40 3b 3d 40 69 bc 14 52 25 bd a2 33 98 3c
       0.002940463 -0.014236507 -0.04036148 0.018579308
000280 82 d4 f6 3b 1d ff 97 bc 2c 50 b4 bb 6c 9c ba 3c
       0.007532657 -0.018554265 -0.0055027213 0.022779666
000290 d6 25 a4 bc cb 99 83 3c 7e 99 64 bb f7 f6 92 bc
       -0.020037573 0.016064545 -0.0034881528 -0.017940028
0002a0 11 36 2e bd ee 9b 8c bc 3b 3f 00 bd 54 dc 8e bb
       -0.04253203 -0.017164197 -0.0313103 -0.0043597613
0002b0 64 d3 db bc 3f d0 68 3c 5f 15 0f 3d 10 22 dd 3c
       -0.026834197 0.014209806 0.03493249 0.026993781
0002c0 06 b0 e8 3c fe 2b 20 bc e0 d8 83 bc d3 b6 1c 3d
       0.028404247 -0.009776114 -0.016094625 0.038260292
0002d0 4d 70 e1 bb 5d 2c cc 3c 5c 5e 46 3c 57 2d 79 bc
       -0.0068798424 0.024923498 0.012107458 -0.015208564
0002e0 0a f3 3c 3d b9 09 1f 3c 87 92 73 bd 11 09 54 3d
       0.046130218 0.009706908 -0.05946591 0.05176646
0002f0 ed cb 27 bd 24 60 1f bb 2f 2a 7f 3c 45 dc 33 3b
       -0.040965963 -0.002431878 0.015574022 0.0027444523
000300 b4 dc d0 3a 92 c2 ea bc e7 42 48 bc e6 f3 e5 3c
       0.0015934915 -0.028657231 -0.012222982 0.028070401
000310 41 d0 3d bc 21 9e 82 bc 3a cf ed bc a2 5b c6 bb
       -0.011585296 -0.015944542 -0.029029477 -0.006053404
000320 1e e9 91 3b 0d b1 12 bd b8 68 08 3c ad 2f 18 bc
       0.0044528386 -0.03581338 0.008325748 -0.009288711
000330 4a ba e5 3b eb cf fb 3c 73 99 14 3d 0b a2 1c bc
       0.007010733 0.030738791 0.036279153 -0.009560118
000340 31 64 dd 3c 56 eb 19 3d d6 33 18 bd 5a 70 be 3c
       0.027025314 0.03757795 -0.03715881 0.023246933
000350 79 c3 c9 3c 66 d6 19 3d 08 3a cb 3b f9 c5 68 3c
       0.024629341 0.037557982 0.006201986 0.014207357
000360 8b be 1a bc 12 25 fc 3c b0 a6 89 3c 29 fd 81 3c
       -0.009444843 0.030779395 0.016803116 0.015867786
000370 f3 ab 67 3b 8d cb 3f bb b0 46 2a bd 2f c0 10 3d
       0.0035350292 -0.0029265613 -0.04157132 0.03533953
000380 79 1d c0 bc 0d 99 9a bc 78 e8 34 bc 3c e4 7e ba
       -0.023451554 -0.018871808 -0.011041753 -0.00097233406
000390 28 56 a2 3b b0 28 f5 bc 19 f3 cb 3c d9 ab 96 bc
       0.0049541183 -0.029926628 0.024896191 -0.01839249
0003a0 46 8e 12 3d a7 d8 0b bd 31 fa 1c 3d b6 a2 0b bd
       0.035780214 -0.034142163 0.03832454 -0.03409072
0003b0 d5 61 02 3d 37 23 10 3d 71 36 8a 3c 38 f1 05 bd
       0.03183158 0.035189833 0.016871663 -0.032700747
0003c0 1f 55 4a bc 8a 70 0d bd d7 c0 0f bd 39 59 57 bc
       -0.012349396 -0.034531154 -0.035096016 -0.013143831
0003d0 89 5f 43 bd d3 46 02 bd f9 bd 02 3d c3 ab 4f 3c
       -0.04769853 -0.031805824 0.031919453 0.0126752285
0003e0 57 f7 cc 3b f6 7c 10 3d 14 6d ca bb ba 36 8e bc
       0.006255071 0.035275422 -0.006177554 -0.01736008
0003f0 0f 1b 8b b9 58 77 68 bb d5 32 28 3d 8a fd e3 bc
       -0.00026532306 -0.0035471525 0.041064102 -0.027830858

bias f4 [64]
000000 e6 d2 05 3d 9b 1d 05 3d 4a 90 36 3d 4b 04 5d bc
       0.03267183 0.032498937 0.0445712 -0.013489793
000010 57 56 2e bd 09 69 2f 3c 76 58 08 bd c7 38 d7 3c
       -0.04256281 0.010706195 -0.033287488 0.02627219
000020 81 2d 92 3c 9d 1e 31 bc d2 f3 b5 3c c3 09 e9 3c
       0.017843964 -0.010810521 0.02221099 0.028447038
000030 07 19 3c 3d 24 fc 87 3c c8 eb 3a bd 76 2e 92 3d
       0.045922305 0.016599722 -0.045635015 0.07137768
000040 6f 3b 38 3d 98 00 63 3d 9a 1c b7 bc 1c 5a df 3c
       0.044978555 0.055420488 -0.022352505 0.027264647
000050 42 79 e3 3c b2 4e 60 3c fb 14 b7 3c 7c d7 1c bc
       0.027767781 0.013690637 0.022348871 -0.00957286
000060 72 80 24 bd 2d 56 f4 bc 33 21 29 3d 53 d5 ab 3c
       -0.040161557 -0.029826248 0.041291427 0.020975744
000070 d1 1f 03 3d fb 8d a9 3d e7 e1 aa bc 18 15 89 3c
       0.032012764 0.08279034 -0.020859672 0.016733691
000080 5a 0a 8d bc 64 30 78 3d cb 83 4c 3c 48 56 05 3d
       -0.01721685 0.060593024 0.012482594 0.032552987
000090 eb 02 d5 3c d2 01 ca 3c c6 7c 3f 3c e6 c5 b6 bc
       0.026002368 0.024659071 0.011687463 -0.022311162
0000a0 82 c6 e9 3c 54 1a b0 3c 9e 7e e3 3c 03 35 53 3d
       0.028537039 0.02149693 0.027770337 0.051564228
0000b0 e3 cc dc bc e6 33 b3 3c bf 1f 80 3c b3 d3 27 3d
       -0.026953166 0.021875333 0.015640138 0.040973376
0000c0 25 4a c8 3d 7b b5 20 3d 12 10 e5 3b 3f 86 04 3d
       0.09779767 0.039235573 0.006990441 0.03235459
0000d0 86 50 0f 3d 03 58 29 3d 75 1c 6d bc b2 a4 90 bb
       0.034988903 0.0413437 -0.014472117 -0.0044141645
0000e0 7d 4a 87 3c ba ed 14 3d 7a ff 5c 3c fa 70 5f ba
       0.016515011 0.036359526 0.013488645 -0.000852361
0000f0 db 80 9e 3c b5 9a c8 bc 9f cc 4a 3a 14 bd ed 3c
       0.019348552 -0.024487833 0.00077361794 0.029020824

weight f4 [64, 32, 3, 3]
000000 75 ef 82 bc 34 c8 1e 3d 47 1f 98 3c 54 ef a4 bc
       -0.015983323 0.038765147 0.018569602 -0.020133652
000010 fe 76 58 3d 4b db 65 bd 2d 22 3e 3d 3a 58 59 bd
       0.052847855 -0.056117337 0.04641931 -0.053062655
000020 61 17 48 bd 17 92 81 3b 80 ba 23 3c 86 c4 0a 3d
       -0.04885042 0.003954183 0.0099931955 0.033878826
000030 07 9f 2b 3d ee 17 81 3c b0 28 f9 bc 84 36 bc bc
       0.041899707 0.01575848 -0.03041491 -0.022975214
000040 eb 65 b9 3c 0c a4 05 3c 5e 41 5d bd 56 42 a4 3b
       0.022631606 0.008156788 -0.054017417 0.0050127907
000050 fa 22 5d 3d a4 08 28 3d e6 5b 5e bd 2a c8 06 3d
       0.053988434 0.041023865 -0.05428686 0.032905735
000060 d5 6c 67 3d a6 74 12 bd 77 8b 98 bb b8 ac 0e bc
       0.056500275 -0.035755776 -0.0046552974 -0.008708172
000070 4a ea 17 3d ea 7e df bb 8e f3 ff 3c 98 77 4b 3d
       0.03708867 -0.0068205493 0.031244066 0.0496746
000080 84 5d 1d bd 15 6b 46 bd 2c d5 89 3c 5d 60 05 3c
       -0.03841926 -0.048441965 0.016825281 0.008140651
000090 1b fa db 3b 5e 8a 67 bd f9 c8 fb bc a7 3c 31 bd
       0.0067131645 -0.05652844 -0.03073548 -0.043270733
0000a0 e7 8a d6 bc e2 3d 07 3d 29 0f 72 bc 1f 0a 2e 3d
       -0.02618928 0.033018 -0.014774122 0.04249012
0000b0 55 e9 1b bb 35 be 84 3c 36 dd b0 3c 01 8e 2c 3d
       -0.00237902 0.016203979 0.021589857 0.042127613
0000c0 05 b5 69 bd cb fc ae bc 83 38 5f 3d 81 04 d4 3c
       -0.0570574 -0.021360775 0.054497253 0.025881054
0000d0 88 e7 43 3c 49 83 97 3c 9d e3 97 bc c4 aa 00 bd
       0.011957057 0.018495219 -0.018541152 -0.031412855
0000e0 fe 01 37 3d 86 3e dd bb d3 7e 1a bd ba 1e 89 bb
       0.044679634 -0.006751838 -0.037718605 -0.004184571
0000f0 b4 68 5a bd 89 4b 3f 3d 6f dd 10 bc 88 b7 0b bd
       -0.05332251 0.046702895 -0.008841856 -0.034110576
000100 6d 81 1a bd 7f 23 2e 3d 30 5c 0b 3b 42 c8 05 bb
       -0.037721086 0.04251432 0.0021264665 -0.0020413552
000110 ac 23 30 3d d6 e5 1b bc 3f d3 6c bd a5 5a 0c bc
       0.04300277 -0.009515246 -0.057818647 -0.008566533
000120 fc 0e cd 3a 2b 34 c1 bc 80 1d 0a bd 41 4c 1b 3d
       0.0015644724 -0.023584446 -0.03371954 0.03791452
000130 87 ba 4e 3d 32 d1 0c 3c 29 44 59 bd 00 fa aa bc
       0.050470855 0.008594798 -0.05304352 -0.020871162
000140 6a 67 f6 bc 6c 75 85 bc 92 13 29 bd 43 bf 2b 3c
       -0.030078609 -0.016291343 -0.04127843 0.010482612
000150 83 a9 30 3d 6c 1c 2e 3d 69 67 47 3d c7 04 3e bd
       0.04313041 0.042507574 0.048682604 -0.046391275
000160 0e 74 a4 bc 94 fd 32 bc c1 2a 43 bd 3a 92 8d bc
       -0.02007487 -0.010924716 -0.047648195 -0.01728164
000170 47 75 6e bd 34 8e d2 3c ab 74 93 3b bf c6 84 3c
       -0.058217313 0.025702573 0.004499992 0.01620805
000180 4c 33 67 bd df 6e 63 3b 4a 8b 64 3c e7 12 e5 3b
       -0.056445405 0.0034703535 0.013949225 0.0069907787
000190 78 9b 37 bc 9e 60 11 3d 9d d2 75 bc b6 0b 23 bd
       -0.0112065 0.035492532 -0.015003827 -0.03980609
0001a0 3f eb ca 3c 47 46 03 3d 5c 29 d5 3b a6 1e 56 bd
       0.024770377 0.032049444 0.0065051746 -0.052275322
0001b0 52 09 13 3d 7b e1 ee bc c6 65 16 bd a6 cf a5 3a
       0.03589756 -0.029160252 -0.036718152 0.0012650385
0001c0 a4 27 42 bd 9d 60 07 bd 00 33 cf bc c4 52 60 bd
       -0.047401085 -0.033051122 -0.025292873 -0.05476643
0001d0 d4 82 80 bc 73 1f 8e bd ea 7c 00 bd 73 c9 6d bd
       -0.015687384 -0.06939592 -0.031369127 -0.058053445
0001e0 7a 7d c3 bc 17 95 5d 3d 21 da 24 3d d4 72 6e 3c
       -0.023863543 0.05409726 0.040247086 0.014553744
0001f0 05 1b 3d 3c 0f 85 bd 3c 61 28 65 3d 61 23 d5 3b
       0.0115420865 0.023134736 0.05594671 0.0065044616
000200 b1 0a 63 bc 4d 6f c6 bc 02 27 c1 bb 4d a0 37 bd
       -0.0138575295 -0.024222994 -0.0058945427 -0.04483061
000210 f1 0e 12 3d 88 57 5e bc 5d df be ba b3 35 0b 3d
       0.03565878 -0.013570674 -0.0014562417 0.03398676
000220 b5 0f 17 bd 81 c4 5f bb ab 27 0f bc c6 87 1b bd
       -0.036880214 -0.0034144225 -0.008737485 -0.03797128
000230 4e 7b ea bc 62 4e ff bc 79 53 3e 3d a7 ac 4c 3d
       -0.02862325 -0.031165306 0.046466324 0.04996934
000240 56 53 7b 3a c6 24 9c 3c 74 ce af bb 0a 7a c9 b7
       0.0009587308 0.019060504 -0.0053651873 -2.4017896e-05
000250 c6 47 b0 3b 79 6f 1b 3d fc ca 25 3d c9 f0 54 3d
       0.00537965 0.037948105 0.040476784 0.051987443
000260 cf 85 af 3a c0 63 dd bc 57 c2 03 3d 8d 24 6f bc
       0.0013391318 -0.027025104 0.03216776 -0.014596117
000270 15 23 f3 3c 66 e5 67 3c 42 ca 00 bd 62 47 c0 3c
       0.029679814 0.014153814 -0.031442888 0.023471538
000280 90 43 00 bd 05 a7 c6 bc 7d f0 54 3d db 6d fe bc
       -0.031314433 -0.024249563 0.05198716 -0.031058243
000290 84 d5 8a bc d5 fe 6f 3d 42 30 06 bd 2a f2 64 b8
       -0.016947515 0.058592636 -0.032760866 -5.458497e-05
0002a0 47 b5 a4 3b c7 24 36 3d ac aa 24 bd f5 fd b6 bd
       0.0050264928 0.044468667 -0.040201828 -0.08935157
0002b0 4f c0 64 bd a2 1d ef bb e7 16 14 3c bd f7 28 3d
       -0.055847462 -0.0072972337 0.0090386635 0.041251887
0002c0 d1 98 22 bc 2b 6e 58 3c a9 c6 99 3d 86 cf 9e 3c
       -0.00992413 0.01320986 0.075085945 0.019386064
0002d0 ed 0e 53 bb cb 66 81 bc 86 b7 df 3c 62 10 c0 bb
       -0.0032204941 -0.015796086 0.02730919 -0.005861328
0002e0 7b 98 0b 3d 27 e7 18 3d 3a a7 d0 3c 41 b9 32 bd
       0.034080964 0.03732982 0.025470365 -0.043633703
0002f0 d5 af 07 3d d7 d6 8a bc 88 eb fc 3b 57 dc 02 3d
       0.03312667 -0.016948147 0.007718507 0.031948414
000300 35 a2 37 bb 16 8a 04 bd ca 8b bf ba f2 38 48 3c
       -0.0028020267 -0.03235825 -0.0014613804 0.012220608
000310 d8 f4 64 3d 4e 69 6a bd 6c 99 20 3d 98 29 5f bd
       0.055897564 -0.057229333 0.039208815 -0.054483026
000320 eb 31 1a 3d 7c a4 35 bd 82 3f cf 3c f6 39 e9 bb
       0.03764526 -0.044346318 0.025298838 -0.007117505
000330 a1 ac 2b 3d e0 97 6a bc 43 86 38 bd 61 b5 24 3d
       0.04191268 -0.014318436 -0.045049917 0.04021204
000340 05 eb a8 bc 41 98 eb bc 04 7f 99 3c a2 b0 b4 3c
       -0.020619879 -0.028759124 0.018737324 0.022056881
000350 ce 83 2b 3d 44 69 96 3c a5 5b c3 bc 27 9e 91 bc
       0.041873746 0.018360741 -0.02384741 -0.017775608
000360 63 60 08 bc 32 98 0d 3c 7f c9 20 bd c7 da 2d 3d
       -0.008323762 0.008642243 -0.03925466 0.04244497
000370 2e 06 8c 3c 4d 32 60 bd 57 ac 4d bd 7e 64 9a 3c
       0.01709279 -0.05473547 -0.050213184 0.018846747
000380 51 97 95 bc 03 41 45 3c 68 48 93 3c 24 41 8d 3c
       -0.01826063 0.012039426 0.017978862 0.017242976
000390 6a d1 13 bd 8b c9 5d 3d 41 cc 2e bd 51 e8 26 bc
       -0.036088385 0.054147284 -0.04267526 -0.0101872245
0003a0 50 ae 33 3d cd 41 e3 bc 7a 5c c5 bc 75 bf 6b bd
       0.04386741 -0.027741337 -0.024091948 -0.057555635
0003b0 72 bb 17 bc f3 cf 62 bc 92 ac 80 bc 1d 9c 55 bd
       -0.009260999 -0.013843524 -0.015707288 -0.052150834
0003c0 24 3c 78 bc 79 3c 1d 3d 5f 3a a1 bc 2a db bb bc
       -0.015151057 0.03838775 -0.019681154 -0.022931654
0003d0 58 35 74 bd d3 99 12 bd e6 54 50 bd 91 e3 22 bd
       -0.059621185 -0.03579123 -0.050862215 -0.039767805
0003e0 e2 90 43 3d 3f 7f 35 3c 31 23 cf bc ef f0 c8 3c
       0.047745593 0.011077701 -0.025285335 0.024528949
0003f0 fa 23 41 bd 37 86 33 bd 18 87 76 bd dd 67 35 bd
       -0.04715345 -0.04382917 -0.06018743 -0.044288505

bias f4 [32]
000000 65 90 24 bd f4 6a 54 3d 39 66 c1 3c 9f 75 13 bd
       -0.040176768 0.05185981 0.023608314 -0.036000844
000010 90 1e 30 3d cc a0 a4 3a 2f 83 11 bd 7f b2 5b bd
       0.042997897 0.0012560128 -0.035525497 -0.053637024
000020 31 7e 54 bc 15 86 a1 3c e5 53 48 3d e3 31 47 3d
       -0.0129695395 0.019717256 0.048908133 0.04863156
000030 a4 fb 63 bd cf a4 af 3d e4 1a b0 3c 18 9d d6 bb
       -0.055659905 0.085763566 0.021497197 -0.0065494888
000040 8a 9b 16 bd 26 44 7d bc d8 9d a0 3c 3e 4b 66 3c
       -0.036769427 -0.015458142 0.019606516 0.014056025
000050 c5 4d 84 bd bf c2 21 3c 1c 44 8f 3b b1 aa 89 bc
       -0.06460146 0.009873091 0.004372133 -0.016805025
000060 93 cc b0 3c 15 36 4f bc bf 1a 41 3c fe e0 90 bc
       0.021581924 -0.0126471715 0.011786162 -0.01768541
000070 5a 58 4d bd e7 49 52 3d 3f 35 9d bc 7d fc 6f bd
       -0.050133087 0.05134001 -0.019190429 -0.0585904
