models/20.pt (torch, 837106 bytes, 17 tensors)

weight f4 [32, 1, 3, 3]
0	0xbd60105d	-0.054703105
1	0x3c38f358	0.011288486
2	0x3da51188	0.080599844
3	0xbe83b5fc	-0.2572478
4	0x3e39f81f	0.18161057
5	0xbe56587e	-0.20932195
6	0x3e8932fe	0.26796716
7	0xbe727874	-0.23678762
8	0xbe7b97fb	-0.24569695
9	0x3d05b856	0.0326465
10	0x3e3320a9	0.17492928
11	0xbdc52b4b	-0.09627398
12	0xbe099a51	-0.13437773
13	0x3e134252	0.14380768
14	0x3dd61f15	0.10455147
15	0x3e8d30b3	0.27576217
16	0xbdb0da45	-0.086353816
17	0xbe71d2be	-0.23615548
18	0xbe41de5b	-0.18932478
19	0x3dd40392	0.103522435
20	0xbe996a8b	-0.29964098
21	0x3e108d80	0.14116478
22	0x3e4f59c3	0.20249085
23	0x3e7a16b5	0.24422725
24	0x3dfd204f	0.12359678
25	0xbde3e5d2	-0.11127819
26	0xbe1a9fb8	-0.1509999
27	0xbe3d3c01	-0.18479921
28	0x3ea59b89	0.32345226
29	0xbd64cceb	-0.055859488
30	0xbdb6ae14	-0.089199215
31	0xbdcc7fc1	-0.099853046
32	0x3e855ea4	0.26048768
33	0x3e7b3712	0.24532726
34	0xbd19b80b	-0.037529033
35	0x3e439cea	0.19102827
36	0x3ea69d7f	0.32542035
37	0xbdd5000f	-0.10400402
38	0xbdd1cfbc	-0.102447
39	0x3e998cbe	0.2999019
40	0x3e2e9c43	0.17051797
41	0xbda12210	-0.07867825
42	0x3e989df7	0.29808018
43	0x3e0fa9cf	0.1402962
44	0x3cdc2e7c	0.026877634
45	0x3e9ed2cd	0.31020203
46	0x3e974008	0.2954104
47	0xbe15d2d4	-0.14631206
48	0x3d8d8543	0.06910183
49	0xbdfbff1a	-0.12304516
50	0x3e476a97	0.19474255
51	0xbe0bfe14	-0.13671142
52	0xbe645896	-0.22299418
53	0x3e5f9e70	0.21837783
54	0xbdf57b47	-0.11986404
55	0x3c9151f3	0.017739272
56	0x3e9bf6a4	0.3046161
57	0xbe71533c	-0.23566908
58	0xbd9c8f10	-0.076444745
59	0x3de152c8	0.110021174
60	0x3e1275de	0.14302775
61	0xbeaad97f	-0.3336906
62	0x3d48a30d	0.048983622
63	0x3dc7b029	0.09750397
64	0x3e03b085	0.12860306
65	0x3e59b1e7	0.2125927
66	0xbe2306a7	-0.15920506
67	0x3ea8cf47	0.3297064
68	0x3d9bcb6c	0.07607159
69	0xbdc06365	-0.09393958
70	0x3d95d751	0.07316459
71	0xbe36de16	-0.17858157
72	0xbe45adf0	-0.19304633
73	0xbe58e3dd	-0.21180673
74	0xbe21cebc	-0.15801519
75	0x3e448496	0.19191203
76	0xbdc69279	-0.09695906
77	0xbe7fbca0	-0.24974298
78	0x3e7f9059	0.24957408
79	0xbe90173a	-0.2814272
80	0x3c052733	0.008127022
81	0x3e8b9027	0.27258417
82	0x3e5075df	0.20357464
83	0xbe3bfe9a	-0.18358842
84	0x3e9c9b38	0.30587173
85	0x3e726029	0.23669495
86	0x3ea908c5	0.33014503
87	0xbe02680d	-0.12735005
88	0xbc0bb898	-0.008527897
89	0xbe93c625	-0.2886211
90	0xbea9e86f	-0.33185145
91	0x3dd531e8	0.104099095
92	0x3cd8fd29	0.026487904
93	0x3e249d43	0.16075616
94	0xbdfeb9a9	-0.124377556
95	0x3e121ce6	0.14268836
96	0x3e9ab8fe	0.30219263
97	0xbea39a10	-0.31953478
98	0x3e73c788	0.23806584
99	0x3da8b087	0.08236795
100	0xbd16a0c2	-0.036774404
101	0x3e1c05e1	0.15236618
102	0x3e90be58	0.2827022
103	0xbe7e3f47	-0.24828826
104	0xbe8c6383	-0.2741967
105	0xbd6de851	-0.058082882
106	0xbdcd3cbb	-0.10021349
107	0x3e0f4a0c	0.1399309
108	0x3d201fa4	0.039092675
109	0xbe348e4c	-0.17632407
110	0xbe7a53b0	-0.24445987
111	0x3e456f9c	0.19280857
112	0xbe6572c2	-0.22407058
113	0x3cea6242	0.028611306
114	0x3e11e043	0.14245705
115	0xbe711a83	-0.2354527
116	0xbe892fa2	-0.26794153
117	0x3e9d352f	0.30704638
118	0x3e734962	0.23758462
119	0xbda0a9ca	-0.07844885
120	0xbe6aa0f7	-0.22912966
121	0xbe98458a	-0.29740554
122	0xbe5d02ba	-0.21583071
123	0x3e8084ca	0.2510131
124	0xbe66587d	-0.22494693
125	0xbe4fecaf	-0.20305131
126	0xbe82cf80	-0.25548935
127	0x3e5aa3a7	0.21351491
128	0xbe8f1765	-0.27947536
129	0x3e7d2f28	0.2472502
130	0xbe54dbc7	-0.20786963
131	0x3e8f20d4	0.27954733
132	0xbe87b0b6	-0.26502007
133	0x3e3ad3ab	0.18244807
134	0xbe66911d	-0.22516294
135	0xbd92d9d4	-0.07170454
136	0x3e9622ee	0.29323524
137	0xbba91cca	-0.0051609026
138	0x3e912bd2	0.28353745
139	0xbe69ad85	-0.22820099
140	0xbeb53204	-0.3538972
141	0xbb633168	-0.00346669
142	0x3e8cbe94	0.2748915
143	0xbdb9f1dc	-0.09079334
144	0xbe963e95	-0.2934462
145	0x3e3b0dcf	0.18266986
146	0x3cd4d1e4	0.02597899
147	0xbbeaefc0	-0.0071696937
148	0xbe262006	-0.16223153
149	0xbe9d6e5c	-0.3074826
150	0x3e9a0404	0.3008119
151	0x3d7868ff	0.060647007
152	0x3d0b26b5	0.03397246
153	0x3e9ca191	0.30592015
154	0xbe80dd6c	-0.2516893
155	0xbe7a72f9	-0.24457921
156	0x3d9986e3	0.07496431
157	0x3de76ebb	0.11300417
158	0x3d7f8ee5	0.062392134
159	0xbe32afb3	-0.17449836
160	0x3e7354a9	0.23762764
161	0x3e9c5695	0.30534807
162	0x3dc8567f	0.09782123
163	0x3e9dee49	0.3084586
164	0x3a39de34	0.0007090301
165	0x3dd996e7	0.106244855
166	0x3e63074b	0.22170751
167	0xbe0a594c	-0.13510627
168	0x3e81e11d	0.2536706
169	0x3e5bb3d6	0.2145532
170	0xbdb092aa	-0.08621724
171	0xbdf61bbd	-0.120170094
172	0xbe16f5ab	-0.14742152
173	0xbe28f05f	-0.16497944
174	0x3eaa3165	0.3324081
175	0xbdf34cef	-0.11879908
176	0x3e39a724	0.18130165
177	0xbe9b0b48	-0.30282044
178	0xbdc2d7fa	-0.095138505
179	0x3cdde504	0.027086742
180	0xbdfc7682	-0.12327291
181	0xbe6abff8	-0.22924793
182	0xbd12dc5f	-0.035854694
183	0x3e92387a	0.28558713
184	0x3e542486	0.20717058
185	0x3e9976c4	0.29973423
186	0xbe5bbdb1	-0.2145908
187	0x3dc4dcf4	0.09612456
188	0x3dd4f534	0.10398331
189	0x3e2cbf1e	0.1686978
190	0x3e2e84cc	0.17042845
191	0xbe51981e	-0.20468184
192	0xbdb35664	-0.08756712
193	0x3e71e723	0.23623328
194	0xbd48dda3	-0.049039494
195	0xbd638908	-0.055550605
196	0x3e18a0e6	0.14905128
197	0xbc2b7cfa	-0.010466808
198	0x3d4a5f52	0.04940731
199	0xbea40dfe	-0.32041925
200	0xbdcf3d11	-0.10119069
201	0x3e0b7d65	0.13622053
202	0xbdde3143	-0.1084924
203	0x3dab9a31	0.08379019
204	0x3e9396e6	0.28826064
205	0x3e628759	0.22121944
206	0x3e9793e2	0.29605013
207	0x3e283e8f	0.16430114
208	0xbd84c3e4	-0.06482676
209	0xbe16bbf0	-0.1472013
210	0xbe6d336b	-0.23164146
211	0x3dcbc1c6	0.09949069
212	0xbeab6b91	-0.33480504
213	0x3e534ff3	0.20635967
214	0x3dc42d58	0.09578961
215	0xbd98b785	-0.074568786
216	0x3dcab5e5	0.09897975
217	0xbdc8be0c	-0.098018736
218	0xbe1838ef	-0.14865468
219	0xbe987023	-0.29773054
220	0xbdc41b57	-0.09575527
221	0xbdd82fb1	-0.105559714
222	0x3d0fb70a	0.03508667
223	0x3e989ba1	0.29806235
224	0xbe0a39f4	-0.1349867
225	0x3e6d2d17	0.23161732
226	0x3e080b5d	0.13285585
227	0x3d0a6183	0.0337844
228	0xbe886007	-0.26635763
229	0xbe39517f	-0.18097495
230	0x3e6749c3	0.22586732
231	0xbe9c16e9	-0.3048623
232	0x3e499b60	0.19688177
233	0xbe3d46d9	-0.18484057
234	0x3d853dad	0.06505904
235	0x3e3d525a	0.18488446
236	0xbe707341	-0.23481466
237	0x3e7b37a3	0.24532942
238	0x3e1eab07	0.15494929
239	0xbe52cda4	-0.20586258
240	0x3ab86a60	0.0014069788
241	0xbe76c97e	-0.241003
242	0x3d3f98fb	0.046776753
243	0x3e5d78d6	0.21628127
244	0x3e1422e0	0.14466429
245	0xbe7bd291	-0.24592043
246	0xbd57ad7e	-0.05265569
247	0xbe8aa9de	-0.27082723
248	0x3e4c88d9	0.19974078
249	0xbdc3c3b6	-0.09558813
250	0x3d92cd9f	0.07168125
251	0xbe5f04f3	-0.21779232
252	0xbdda57f0	-0.10661304
253	0xbe6ae476	-0.22938713
254	0xbe952273	-0.29127845
255	0x3ea11ff9	0.31469706

bias f4 [32]
0	0x3d538c89	0.051647697
1	0x3dcd02cb	0.10010298
2	0x3db8f992	0.09031977
3	0xbe9666a9	-0.29375198
4	0x3ea41385	0.32046142
5	0xbd339fc9	-0.043853555
6	0xbd59e9a8	-0.053201348
7	0x3e5d4d9d	0.21611638
8	0x3ea072b4	0.31337512
9	0xbcb1942c	-0.0216771
10	0xbe2f3c6d	-0.17112894
11	0x3e8eedcd	0.27915803
12	0x3d6b2dfa	0.057416894
13	0x3e5988b5	0.21243556
14	0x3e0c8d01	0.13725664
15	0x3e814a7a	0.25252134
16	0xbdb6ad95	-0.08919827
17	0xbd24a30a	-0.04019455
18	0xbd2dbfea	-0.04241935
19	0x3e51a81a	0.20474282
20	0xbe7ae580	-0.2450161
21	0xbdeb2e5d	-0.114834525
22	0x3d2ef6bb	0.04271577
23	0x3e1123e7	0.14173852
24	0x3e182424	0.14857537
25	0x3daebf24	0.08532551
26	0x3d88e135	0.0668358
27	0xbb0034ab	-0.0019562643
28	0xbe69379f	-0.22775124
29	0xbdcfde8b	-0.101498686
30	0xbdb29eae	-0.08721672
31	0x3d9bff9f	0.07617115

weight f4 [64, 32, 3, 3]
0	0x3d709904	0.058739677
1	0x3d08e8e0	0.033425212
2	0xbd090489	-0.03345159
3	0xbc6d0dfc	-0.014468666
4	0x3b14350b	0.0022614624
5	0x3cba2ef9	0.022727476
6	0xbc1673a8	-0.009182848
7	0xbcfc865a	-0.030825783
8	0x3d217c50	0.039425194
9	0xbc22ab3b	-0.00992852
10	0xbbedcfac	-0.0072574224
11	0x3d704dca	0.058667935
12	0x3d0fc8b3	0.03510351
13	0x39ce655a	0.00039366895
14	0xbd30b867	-0.04314461
15	0x3d64ae67	0.055830386
16	0x3cea2e4d	0.028586531
17	0x3c62f43b	0.013852174
18	0xbc7642ce	-0.015030576
19	0xbbb22885	-0.005436959
20	0x3cb29efc	0.021804325
21	0x3ce6ba3f	0.028164981
22	0x3c218f87	0.00986088
23	0xbd06b9b2	-0.032891937
24	0xbd3d46ca	-0.046210088
25	0x3d2ea3e9	0.042636786
26	0x3d0ad08f	0.033890303
27	0x3c1a85db	0.009431328
28	0xbcce944e	-0.025217202
29	0xbd1d8f1a	-0.03846655
30	0x3c7506d5	0.014955242
31	0xbd3e1b98	-0.046413034
32	0xbb87959d	-0.0041377083
33	0xbc48fad7	-0.012266836
34	0x3d6cbcca	0.05779723
35	0x3c91ed49	0.017813342
36	0x3ba79fb6	0.0051154746
37	0x3cdb258e	0.026751306
38	0xbd59ca24	-0.053171292
39	0xbd5fd07d	-0.05464219
40	0xbd546186	-0.051850818
41	0xbc413c30	-0.011794135
42	0xbd486d85	-0.04893257
43	0xbb7ac4f5	-0.0038264368
44	0x3d13848b	0.036015075
45	0xbb500107	-0.0031738894
46	0x3c773fcc	0.015090894
47	0xbca4f2d6	-0.020135324
48	0x3c0fa232	0.008766698
49	0x3d40b451	0.047046963
50	0x3d5763b2	0.05258531
51	0x3d39b83a	0.045341708
52	0x3d583029	0.052780304
53	0x3d72fde3	0.059324156
54	0x3d4e1bb7	0.0503194
55	0xbd18bd54	-0.037289932
56	0xbca893bc	-0.020578258
57	0xbcf1b07e	-0.029503103
58	0x3c274b4b	0.010210822
59	0xbce44839	-0.02786647
60	0x3cf039f1	0.029324504
61	0x3cde0a19	0.027104424
62	0x3cf500d5	0.029907623
63	0xbd5fd972	-0.05465073
64	0xbd2043da	-0.03912721
65	0xbca161ed	-0.019700015
66	0xbce6c844	-0.028171666
67	0xbd363307	-0.044482257
68	0x3cdfeb8e	0.027334
69	0x3cfc7e01	0.030821802
70	0x3c8d6d61	0.01726407
71	0xbd323bde	-0.043514125
72	0x3cd9c7ae	0.026584473
73	0x3ce38bb5	0.027776578
74	0xbda6aaf6	-0.08138077
75	0x3d1adc5d	0.03780781
76	0xbd1218e0	-0.035668254
77	0xbda32d76	-0.07967655
78	0x3ce7cfb2	0.028297279
79	0xbd3a62b9	-0.045504306
80	0xbdbb8e6b	-0.091580234
81	0x3d6274a8	0.055287033
82	0xbcac7631	-0.021052452
83	0x3bf06a80	0.0073369145
84	0x3d1c41fb	0.03814886
85	0xbccb1209	-0.024788873
86	0xbc9b3c8c	-0.01894977
87	0xbd41983f	-0.047264334
88	0x3cdaadc2	0.026694182
89	0xbd13d24e	-0.036089234
90	0xbd2b7b6d	-0.041865755
91	0xbb6504d5	-0.0034945507
92	0x3c0c9217	0.008579752
93	0xbba32fbe	-0.0049800565
94	0x3d049e1d	0.03237735
95	0xbd4261b2	-0.04745645
96	0xbcb6054e	-0.022219326
97	0x3c4b21c4	0.012398187
98	0xbcd947ea	-0.02652355
99	0xbc6a6444	-0.014306132
100	0x3b810f89	0.0039386195
101	0x3da81264	0.08206633
102	0x3c5c22f3	0.013436067
103	0x3d182684	0.037146106
104	0x3d9fb45c	0.07798073
105	0x3d1f72e9	0.038927946
106	0x3bca3680	0.0061710477
107	0x3d5feae6	0.054667376
108	0xbc63ff9f	-0.013915925
109	0x3d8b985d	0.0681617
110	0x3d264973	0.04059739
111	0xbd031ea4	-0.032011643
112	0xbd7635c4	-0.06010987
113	0xbcdd129c	-0.026986413
114	0x3ce55f72	0.027999613
115	0xbda08ec3	-0.0783973
116	0xbd6fa5d6	-0.058507763
117	0xbd459a3d	-0.048242796
118	0xbb88d424	-0.0041756798
119	0xbd76fe5b	-0.060301166
120	0x3c88e387	0.016710056
121	0x3d58374b	0.052787106
122	0x3ac436b2	0.0014969914
123	0x3b8003c2	0.003906698
124	0x3c81367b	0.015773049
125	0x3d193751	0.03740627
126	0x3d3aa5ce	0.04556828
127	0xbc64dc6c	-0.013968568
128	0x3ddc8c8e	0.10768996
129	0x3d1eef28	0.038802296
130	0xbc8412d1	-0.016122254
131	0x3d9af1cd	0.07565651
132	0xbbcf84b8	-0.00633296
133	0x3da1c9e5	0.078998365
134	0x3dba7b85	0.09105591
135	0xbcf2bee5	-0.029632041
136	0x3c5c494b	0.013445209
137	0xbc8847ee	-0.016635861
138	0x3ba1226b	0.004917433
139	0xbc80e806	-0.015735637
140	0xbbe049d0	-0.0068447366
141	0xbcc98483	-0.02459932
142	0x3c170d76	0.009219518
143	0xbd2c22f9	-0.04202554
144	0x3c0c35e3	0.0085577695
145	0x3c158371	0.009125576
146	0x3d7cce57	0.06172022
147	0x3cd3e28e	0.025864866
148	0x3b80e609	0.0039336723
149	0x3d103dd9	0.035215233
150	0x3c94f334	0.018182375
151	0x3d3cdee0	0.046110988
152	0xbd0a8e0d	-0.033826876
153	0xbd3cbc11	-0.04607779
154	0xbca75712	-0.02042726
155	0x3cd7a05c	0.026321582
156	0x3ac4ef1c	0.0015024873
157	0xbbd654b5	-0.0065408596
158	0xbd405896	-0.046959482
159	0xbc3c332b	-0.011486809
160	0x3d53aa7f	0.05167627
161	0xbbac3bed	-0.005256167
162	0xbd3f0779	-0.046637986
163	0x3d11f66c	0.035635397
164	0x3cccd865	0.025005529
165	0x3cbc56ef	0.022990672
166	0xbd21b940	-0.03948331
167	0xbc9de5b5	-0.019274572
168	0xbcab973f	-0.020946143
169	0x3b84d846	0.004054102
170	0x3c8111b0	0.015755504
171	0x3c295b49	0.0103367055
172	0x3d0127d6	0.03153213
173	0x3d983310	0.074316144
174	0x3d1357a2	0.035972245
175	0x3d66a683	0.05631114
176	0x3cf0e29f	0.029404936
177	0x3cb94d27	0.022619797
178	0x3d412c10	0.047161162
179	0xbc599a5e	-0.013281433
180	0xbd21ac3a	-0.03947089
181	0xbd1807fd	-0.037116993
182	0x3d89d8af	0.06730782
183	0xbbbe3bcb	-0.0058054677
184	0xbc95d110	-0.018288165
185	0xbc0730f7	-0.00825142
186	0x3cc2c1b4	0.023774005
187	0xbd5e2f23	-0.05424417
188	0xbcfd6d08	-0.03093578
189	0x3c7e5dad	0.015525264
190	0x3cdc6ae5	0.02690644
191	0xbcbd29a9	-0.023091154
192	0xbd3df596	-0.046376787
193	0xbd52364f	-0.051321324
194	0xbcdfb0ec	-0.027306043
195	0x3cebe716	0.028796714
196	0xbd07687e	-0.033058636
197	0x3d571fd4	0.052520588
198	0x3d65ec5a	0.056133606
199	0xbd38d259	-0.04512248
200	0xbbb7bd5a	-0.0056072893
201	0x3d1ed4e8	0.038777262
202	0x3d495e4d	0.049162198
203	0x3cf76657	0.030200167
204	0x3b298e9e	0.002587236
205	0x3d6fc8df	0.058541175
206	0xbd326297	-0.043551054
207	0x3d530ba4	0.051524773
208	0xbc17ace2	-0.009257527
209	0xbcbe3346	-0.023217808
210	0x3cdd2b0e	0.02699807
211	0x3ce5d8e4	0.028057523
212	0xbd0049f4	-0.031320527
213	0xbb999b56	-0.004687707
214	0x3d12ad57	0.03580984
215	0x3d1a2c1a	0.037639715
216	0x3d274267	0.04083481
217	0xbd2442ea	-0.040102877
218	0xbcbca238	-0.02302657
219	0xbd338aa8	-0.043833405
220	0xbc3fb55a	-0.011700952
221	0x3cdbe81f	0.026844082
222	0x3d9a7780	0.07542324
223	0xbc3574bc	-0.011075195
224	0x3da41aa3	0.08012893
225	0x3d6c3ac9	0.05767325
226	0xbd24eee3	-0.040266883
227	0x3c496444	0.012291972
228	0xbd17b9d3	-0.03704245
229	0x3c42f6e9	0.011899688
230	0x3d98ba42	0.07457401
231	0x3da0545a	0.07828589
232	0x3c7458b8	0.01491373
233	0xbcbe0a2b	-0.023198208
234	0xbc68c0b4	-0.0142061
235	0xbcbb8cd6	-0.022894304
236	0x3c81defb	0.015853396
237	0xbd044b0e	-0.03229814
238	0xbcf9ff5b	-0.03051727
239	0x3d5da68f	0.05411392
240	0xbc8d03ec	-0.017213784
241	0xbce07538	-0.027399644
242	0x3d1be2a1	0.038057927
243	0x3d34d4ff	0.04414844
244	0x3d031f24	0.03201212
245	0x3ddcb2d2	0.10776295
246	0x3cdd49f9	0.027012812
247	0x3d332f93	0.043746542
248	0xbbbf92a3	-0.005846338
249	0x3d7d750c	0.061879203
250	0xbc565544	-0.013081852
251	0x3d781054	0.060562447
252	0x3d7ab478	0.061207265
253	0x3c069318	0.008213781
254	0x3d05dea0	0.032683015
255	0xbd129928	-0.035790592

bias f4 [64]
0	0x3cbcbc83	0.023039108
1	0x3d5f5dcf	0.054532822
2	0x3bff6711	0.007794269
3	0x3c25e4e3	0.010125372
4	0x3d7110ae	0.058853798
5	0x3d4108b8	0.047127455
6	0xbd08b956	-0.033379875
7	0x3ba5582b	0.005045911
8	0xbd7afea6	-0.061278008
9	0x3d419092	0.047257014
10	0x3d708e6e	0.05872958
11	0x3d11469e	0.035467736
12	0xbd33c793	-0.0438915
13	0x3dc43c45	0.09581808
14	0x3d1e5507	0.038655307
15	0x3da175cf	0.07883798
16	0x3dbe0243	0.09277775
17	0x3d7c355a	0.061574318
18	0x3cbb072a	0.022830565
19	0x3cdf977e	0.027293917
20	0xbd1e0be3	-0.038585555
21	0xbd07c95b	-0.033151012
22	0xbc894604	-0.016757019
23	0x3d7b045e	0.06128346
24	0xbcfd4123	-0.030914849
25	0x3ce36954	0.027760185
26	0x3d864b04	0.06557277
27	0xbcf6c191	-0.030121597
28	0x3d2f9a7c	0.042871937
29	0xbda07181	-0.07834149
30	0x3bfbe17a	0.007686791
31	0xbc992c73	-0.018697953
32	0x3d6d9f8f	0.058013495
33	0xbd52ab50	-0.051432908
34	0xbd02ec55	-0.031963665
35	0xbd824712	-0.06361212
36	0x3d3ece89	0.046583686
37	0x3cf1c1a4	0.02951128
38	0x3cc09968	0.02351065
39	0x3d5707dd	0.052497733
40	0x3d19c022	0.037536748
41	0x3c425319	0.011860632
42	0x3b809b8c	0.0039247926
43	0x3cde3e95	0.02712945
44	0x3d22f608	0.039785415
45	0x3d8f2858	0.06990117
46	0xbd113c2c	-0.035457775
47	0xbc3a6ad4	-0.011378009
48	0xbd8c8cad	-0.06862769
49	0x3d7e3016	0.062057577
50	0xbd0c7bd4	-0.03429778
51	0x3d3f7861	0.04674566
52	0x3d8fdc34	0.07024422
53	0x3cfc3e6e	0.030791488
54	0x3c6ff4b6	0.014645746
55	0x3d466629	0.04843727
56	0x3d06e987	0.032937553
57	0x3d098625	0.033575196
58	0x3c5f15ca	0.013616035
59	0xbd1fe180	-0.039033413
60	0xbd0571a4	-0.03257908
61	0x3d758043	0.059936773
62	0xbc8b8ebb	-0.017035833
63	0x3d860906	0.0654469

weight f4 [128, 64, 3, 3]
0	0xbd5922cb	-0.053011697
1	0xba23430e	-0.00062279485
2	0xbd3aebea	-0.04563514
3	0xbcfa617d	-0.030564064
4	0xb9355df8	-0.00017296511
5	0xbd2e8975	-0.042611558
6	0xbd13cb5f	-0.03608262
7	0x3caccc66	0.021093559
8	0xbca0685f	-0.019581018
9	0xbce20cd5	-0.02759401
10	0xbc9fbc34	-0.019498922
11	0x3d11a31b	0.03555594
12	0xbc0ca09d	-0.008583215
13	0xbcf3a9ef	-0.029744117
14	0xbd0f2c08	-0.0349541
15	0xbcf1c089	-0.029510753
16	0x3cc5fa8a	0.024167318
17	0x3d037031	0.032089416
18	0xbd1af66a	-0.037832655
19	0xbc8fecc9	-0.017568963
20	0x3d25a8cb	0.040444177
21	0xbc3ac0a9	-0.011398473
22	0xbc569066	-0.013095951
23	0x3c3b741c	0.011441257
24	0xb9e7bf9b	-0.0004420251
25	0x3cc1d99f	0.02366334
26	0xbd203231	-0.039110366
27	0x3cd5a4b9	0.026079522
28	0xbaf53b89	-0.001870976
29	0x3cb477b5	0.022029737
30	0x3d0c8ae1	0.034312133
31	0xbba9165c	-0.005160136
32	0xbccc68c7	-0.024952305
33	0xbd0bebf0	-0.034160554
34	0x3d226a7b	0.03965233
35	0x3d26bd5c	0.04070793
36	0x3c146e64	0.009059522
37	0xbc6d7e80	-0.014495492
38	0xbcc8ecea	-0.024527032
39	0xbd0e6834	-0.034767345
40	0x3cc758e9	0.024334388
41	0x3d188473	0.03723569
42	0x3b768532	0.0037616012
43	0xbd1457c2	-0.036216505
44	0x3d247a56	0.04015573
45	0x3c93d9ae	0.018048134
46	0x3d2b675f	0.04184663
47	0xbceebef7	-0.029143794
48	0x3b8306e1	0.0039986228
49	0x3d101d3a	0.035184123
50	0xbbb32f12	-0.0054682577
51	0x3c5e6aa5	0.013575231
52	0x3d01ce24	0.03169073
53	0xbcd164df	-0.025560794
54	0xbb244659	-0.0025066345
55	0xbbd73b7e	-0.0065683713
56	0xbca0f87c	-0.019649737
57	0xbcf7d5a7	-0.030253245
58	0xbcefe7c0	-0.029285312
59	0xbcd62303	-0.026139742
60	0x3d1d7c70	0.03844875
61	0x3c4163e1	0.011803598
62	0x3d25b691	0.040457312
63	0x3d2b105f	0.04176366
64	0xbc209a73	-0.009802449
65	0x3ce1de7c	0.02757191
66	0x3be17d08	0.00688136
67	0x3c29b7b9	0.010358744
68	0xbbdb2037	-0.00668719
69	0x3cb20011	0.021728547
70	0x3cf48123	0.029846733
71	0xbd2716ed	-0.040793348
72	0xbd4f89ef	-0.050668653
73	0x3c2b138f	0.010441675
74	0x3c0ff64f	0.008786752
75	0xbd37cebb	-0.044874888
76	0xbd717670	-0.05895084
77	0x3c1706b4	0.009217907
78	0xbd1e10e7	-0.038590338
79	0x3ca5ea1b	0.020253232
80	0x3cd8c449	0.026460784
81	0xbd69a366	-0.057040595
82	0xbcf95b25	-0.030438969
83	0xbce54cbe	-0.027990695
84	0xbc72c436	-0.014817288
85	0x3cdf77b3	0.027278757
86	0xbc8501fe	-0.016236302
87	0x3c4b2b23	0.012400421
88	0xbd512bdf	-0.05106723
89	0xbd60fb7b	-0.05492733
90	0xbc766c73	-0.015040505
91	0xbca7432d	-0.020417774
92	0x3c5ba970	0.013407096
93	0xba73090e	-0.00092710636
94	0xbcc303e6	-0.02380557
95	0xba5dbf94	-0.00084590283
96	0xbcfccd46	-0.0308596
97	0xbc81c0f2	-0.015839074
98	0xbb18113f	-0.002320364
99	0xbcf8eef6	-0.030387383
100	0x3cd9562a	0.026530344
101	0xbc771d64	-0.015082691
102	0xbd2573f5	-0.04039379
103	0x3d399989	0.04531244
104	0xbd062985	-0.03275444
105	0xbc8c6a0c	-0.01714041
106	0x3c0bd451	0.008534507
107	0xbb4dcf85	-0.003140421
108	0x3c08b5e6	0.008344149
109	0xbb8bf61e	-0.004271283
110	0xbc5b820f	-0.013397708
111	0xbc9898cd	-0.018627549
112	0x3b3c8b89	0.0028769693
113	0x3d10fd2e	0.0353977
114	0xbcc76880	-0.024341822
115	0x3c1ee97a	0.00969922
116	0x3cca6112	0.02470449
117	0x3d26f7f7	0.04076382
118	0x3c76902b	0.015049021
119	0xbcba4647	-0.022738589
120	0x3d0feb1b	0.035136323
121	0x3c629060	0.013828367
122	0x3b86d1a0	0.0041143447
123	0x3d86239e	0.06549762
124	0x3c3de418	0.011590026
125	0x3d72b357	0.059253063
126	0x3b5c6653	0.0033630326
127	0x3c6cceac	0.014453571
128	0x3d2447bb	0.04010747
129	0x3d28cb7e	0.04120969
130	0x3c8c43e9	0.017122226
131	0x3bd4dcb7	0.006496038
132	0x3caf653d	0.021410579
133	0x3b7133ae	0.0036804485
134	0x3cb24723	0.021762436
135	0x3d01d751	0.031699482
136	0xbccbe9fe	-0.02489185
137	0x3cc9c8e1	0.02463192
138	0xbd2523e2	-0.040317424
139	0xbd1212aa	-0.03566233
140	0xbca964e9	-0.020678
141	0xbd3b0a18	-0.045663923
142	0xbc5f8846	-0.01364333
143	0x3c987e97	0.01861505
144	0xbcd8f893	-0.026485717
145	0xbc9f23a7	-0.01942618
146	0x3b5e9574	0.0033963593
147	0x3d08f30c	0.033434913
148	0x3cffd6b9	0.031230317
149	0x3cfd6ea2	0.030936543
150	0xbd2501e2	-0.040285
151	0xbb0f5178	-0.0021868628
152	0x3c7dce6e	0.015491111
153	0xbcd0e82b	-0.025501331
154	0xbd09ca70	-0.033640325
155	0x3c329780	0.010900378
156	0x3cf4623d	0.029832
157	0xbc403823	-0.011732134
158	0x3cb4e86d	0.022083485
159	0xbd0f69f6	-0.03501316
160	0xbccb8493	-0.02484349
161	0x3c4e72fc	0.012600657
162	0x3c28741e	0.010281591
163	0x3c534330	0.012894437
164	0x3c94effd	0.018180842
165	0xbcdc255a	-0.02687328
166	0xbc3df41a	-0.011593843
167	0x3b4ffa11	0.0031734745
168	0xbbd6606a	-0.006542255
169	0xbccd381d	-0.025051171
170	0xbc743966	-0.014906263
171	0x3c938624	0.0180083
172	0xbbdeadcd	-0.006795621
173	0xbc6cafd5	-0.0144462185
174	0x3cd5ef4c	0.026115082
175	0x3cb006ab	0.021487555
176	0xbc1ae118	-0.009453081
177	0x3c86dd17	0.016462846
178	0x3c90d97c	0.01768183
179	0xbd1c38c7	-0.038140085
180	0xbae6ac98	-0.0017599044
181	0xbced0fec	-0.028938256
182	0xbc43e5f4	-0.011956681
183	0xbc853bcd	-0.016263867
184	0xbcd9638e	-0.02653673
185	0xbb3c38a9	-0.0028720296
186	0xbb72f032	-0.0037069437
187	0xbd1430d0	-0.036179364
188	0xbc09b5c8	-0.008405156
189	0x3d09a4a8	0.033604294
190	0xb9dcbed4	-0.00042103848
191	0x3d0492ea	0.03236667
192	0xbc08c0e1	-0.008346767
193	0xbcb078cc	-0.021541975
194	0xbcba86ba	-0.02276932
195	0xbcfbd723	-0.030742234
196	0xbc789bc4	-0.015173856
197	0x3cfc2307	0.030778421
198	0x3c2108f0	0.009828791
199	0x3c0b7f56	0.008514246
200	0x3cffab9a	0.031209756
201	0xbbab0ea7	-0.0052202526
202	0x3bbc0ffe	0.005739211
203	0x3cd04407	0.025423063
204	0x3c4bc16c	0.012436252
205	0xbcbd722a	-0.023125727
206	0xbc8d2fc9	-0.0172347
207	0xbd1bac2d	-0.038005996
208	0x3cb866d8	0.022509977
209	0xb9f5f05b	-0.0004690912
210	0xbcd49c16	-0.025953334
211	0xbd2155e3	-0.03938855
212	0xbcd27012	-0.025688205
213	0x3ce4fb66	0.027951907
214	0x3c13a45a	0.009011352
215	0x3c12f68a	0.008969912
216	0xbc21e344	-0.0098808445
217	0xbcc092d5	-0.023507515
218	0x3d0c1a14	0.034204558
219	0x3bff84ed	0.0077978284
220	0x3d1eef42	0.038802393
221	0x3cddba70	0.02706644
222	0x3c87f728	0.016597345
223	0x3cb4861e	0.022036608
224	0xbcbf707f	-0.023369072
225	0x3cb55c02	0.0221386
226	0xb9a06ab7	-0.00030597087
227	0x3d2abd13	0.04168422
228	0xbc0140dc	-0.007888999
229	0x3b5b7fb6	0.003349287
230	0xbce82292	-0.028336797
231	0xbbcbffd5	-0.006225566
232	0x39b48761	0.0003443314
233	0x3c44ed56	0.012019476
234	0xbc18977e	-0.009313462
235	0xbc9b3034	-0.018943883
236	0xbd204c9d	-0.039135564
237	0xbd1ebc85	-0.038754005
238	0xbc63636d	-0.013878685
239	0x3c34bb3d	0.011030969
240	0xbb95e21b	-0.004574073
241	0x3ce9ff99	0.028564261
242	0x3c884b19	0.016637372
243	0xbc2b9748	-0.01047308
244	0x3d011d80	0.031522274
245	0x3a880291	0.0010376741
246	0xbccaf6aa	-0.024775822
247	0x3c48603d	0.012229976
248	0xbb0a4757	-0.002109965
249	0xbbcfbc67	-0.006339598
250	0x3c74ad6e	0.014933927
251	0xbca52476	-0.020158987
252	0x3cb702a8	0.022340134
253	0x3ade457c	0.0016957964
254	0x3a415d68	0.00073762843
255	0xbcb25ac0	-0.021771789

bias f4 [128]
0	0x3c961754	0.01832167
1	0x3d412a0f	0.04715925
2	0x3c474406	0.012162214
3	0x3d113d74	0.035458997
4	0xbd30081c	-0.042976484
5	0xbd1b017f	-0.037843224
6	0xbd0dca5e	-0.03461682
7	0xbcac6bdf	-0.02104753
8	0xbabdb295	-0.0014472777
9	0x3d9a1fcb	0.07525595
10	0x3cfff5dc	0.031245165
11	0xbd37d1c6	-0.04487779
12	0xbd6443ab	-0.055728596
13	0xbc85ef59	-0.016349481
14	0xbd002b38	-0.031291217
15	0xbbb9a49a	-0.005665374
16	0xba849409	-0.0010114919
17	0xbcbb9fac	-0.022903286
18	0xbcee9975	-0.029125908
19	0x3b1c1495	0.0023815979
20	0x3baaec3b	0.005216149
21	0x3bb89bc6	0.005633804
22	0x3cf6204a	0.030044693
23	0xbc71f57b	-0.014768
24	0xbbde40e1	-0.0067826365
25	0x3c83f0e2	0.016106073
26	0xbdaf5a35	-0.085621275
27	0x3d1dd1d6	0.038530193
28	0x3d28850f	0.04114252
29	0xbdc5183f	-0.09623765
30	0xbb38dcb8	-0.002820773
31	0xbd00412c	-0.031312153
32	0x3cc9f352	0.024652157
33	0xbc51eccb	-0.0128128035
34	0xbca884b5	-0.020571092
35	0xbcc1c9f0	-0.023655862
36	0x3cd6d0b5	0.026222566
37	0xbd857996	-0.06517331
38	0x3ca41cbb	0.020033231
39	0x3d5627bd	0.05228399
40	0x3d49edc2	0.04929901
41	0xbc52e976	-0.012873044
42	0xbd034479	-0.032047722
43	0xbce73581	-0.028223755
44	0x3d6eddc2	0.058316953
45	0x3d974d7a	0.07387824
46	0xbc55a837	-0.013040594
47	0xbcbdf2bd	-0.023187036
48	0xbb54e999	-0.0032487868
49	0xbca30914	-0.01990179
50	0x3d216491	0.03940255
51	0x3c9afbea	0.01891895
52	0xba3478c3	-0.000688445
53	0xbc916880	-0.017750025
54	0x3cb37e3d	0.021910781
55	0x3d48cf9f	0.049026128
56	0x3d4c9e07	0.049955394
57	0x3c5049ab	0.012712876
58	0x3c33145d	0.010930148
59	0xbca32d11	-0.01991895
60	0x3d966a62	0.0734451
61	0x3c94dbae	0.018171158
62	0x3b8614cd	0.004091835
63	0x3afcf9dc	0.0019300538
64	0xbc480fc0	-0.012210786
65	0xbc93e502	-0.018053535
66	0x3d4b0353	0.049563717
67	0xbb76b0c8	-0.003764199
68	0x3d380453	0.044926
69	0xbd4f2b67	-0.0505785
70	0x3cfd71cf	0.030938057
71	0xbb99ec65	-0.00469737
72	0xbc875782	-0.01652122
73	0xbc32806a	-0.010894874
74	0x3c314434	0.010819484
75	0xbb174b7d	-0.0023085766
76	0x3bd3ab80	0.0064596534
77	0x3d715b28	0.058924824
78	0x3c820d70	0.015875548
79	0x3ce0a7fc	0.027423851
80	0x3cbd9724	0.023143359
81	0xbc215aaa	-0.009848276
82	0x3d34fafd	0.044184674
83	0x3d235ac5	0.039881486
84	0x3b4fd8de	0.0031714956
85	0x3b8d5484	0.0043130536
86	0x3d2cb10e	0.04216104
87	0x3c0d271f	0.008615284
88	0x3c882414	0.016618766
89	0xbc330adf	-0.010927885
90	0x3d6ea921	0.058266763
91	0xbd11b665	-0.035574336
92	0x3d0f8f77	0.035048928
93	0x39fef921	0.0004863227
94	0xbd9cfdaf	-0.07665574
95	0xbc3b7afc	-0.011442896
96	0xbc86470e	-0.016391303
97	0xbbb8b077	-0.0056362706
98	0x3caec0fd	0.021332258
99	0xbcc40280	-0.023926973
100	0xbd12e21f	-0.035860177
101	0xbcd71ec1	-0.026259782
102	0x3c9bf02b	0.01903542
103	0x3c0d5b7a	0.008627767
104	0xbd4a151e	-0.049336545
105	0xbc247914	-0.010038633
106	0x3d1b371d	0.037894357
107	0x3db62dda	0.08895464
108	0xbd0c1301	-0.03419781
109	0x3d10b721	0.035330895
110	0xbc873b77	-0.016507847
111	0x3d809275	0.062779345
112	0xbbf38630	-0.007431768
113	0xbc8137ca	-0.015773673
114	0xbd57a948	-0.052651674
115	0xbdc5a933	-0.09651413
116	0x3bbc9b31	0.005755805
117	0x3c752d26	0.0149643775
118	0xbbcd67b6	-0.006268467
119	0x3d29ebd0	0.041484654
120	0x3d372ece	0.04472237
121	0x3c72cf25	0.014819895
122	0x3e4fdd5c	0.20299286
123	0x3d35eb1f	0.044413682
124	0x3add7280	0.0016895086
125	0xbcfc5962	-0.03080434
126	0x3ca8a813	0.020587957
127	0xbc18025d	-0.009277907

weight f4 [128, 64, 3, 3]
0	0x3958e594	0.0002068489
1	0xbb9b7d81	-0.004745186
2	0xbb0ccbbe	-0.0021483744
3	0xba7f7743	-0.00097452494
4	0x3c7b0a4b	0.015322278
5	0x3d064218	0.032777876
6	0xbb9fb664	-0.0048740376
7	0x3c7090f1	0.014682994
8	0xbbffe719	-0.0078095314
9	0x3c86a4eb	0.01643606
10	0xbcc04c8b	-0.023473999
11	0xbc4e2dc7	-0.012584156
12	0x3cd5b009	0.026084917
13	0xbcb5f4a2	-0.022211377
14	0x3ccbfbbf	0.024900315
15	0xbd32207a	-0.043488003
16	0xbbebcd85	-0.0071961307
17	0x3c97d055	0.018531958
18	0x3c96bb32	0.018399809
19	0xbce604df	-0.028078495
20	0xbcd6c8fd	-0.026218886
21	0x3b1b70d3	0.0023718372
22	0xbcd44fc6	-0.025916945
23	0xbb0c6619	-0.002142316
24	0x3cc69e21	0.024245324
25	0x3c824160	0.015900314
26	0xbc623254	-0.0138059445
27	0xbc4c54c7	-0.012471384
28	0xbcb33837	-0.021877391
29	0x3c731bb6	0.01483815
30	0x3ca9894b	0.02069535
31	0xbd0bd33e	-0.034137003
32	0xbd0c0056	-0.034180008
33	0x3b28f84f	0.002578277
34	0x3cf31519	0.029673146
35	0x3c7ef701	0.01556182
36	0xbcd1be2b	-0.025603374
37	0xbbfc6fed	-0.0077037723
38	0x3b62acdc	0.0034587895
39	0x3ceb651b	0.028734734
40	0xbc26080f	-0.010133757
41	0x3cd0fba0	0.02551061
42	0xbc9059cd	-0.017620945
43	0xbcb5282b	-0.02211388
44	0xbcf45873	-0.029827332
45	0x3c35a6b0	0.011087105
46	0x3d2056ce	0.039145283
47	0xbceb2e9e	-0.028708752
48	0xbc25f911	-0.010130183
49	0x3c5eaf7c	0.013591643
50	0xbd1f06b0	-0.038824737
51	0x3cef2017	0.029190106
52	0x3d13d2da	0.036089756
53	0xbc0b9cec	-0.0085213
54	0xbcd955ff	-0.026530264
55	0x3c8355dd	0.016032154
56	0x3af2e8b7	0.0018532489
57	0x3d0e24ef	0.03470319
58	0x3cad0e4a	0.021124978
59	0x3d466251	0.048433606
60	0xbd439e75	-0.04775854
61	0x3cc88471	0.024477215
62	0xbcf134bc	-0.029444091
63	0xbd0681f6	-0.032838784
64	0xbc1f9c78	-0.009741895
65	0xbd1fb93d	-0.038995016
66	0x3c03c901	0.008043529
67	0xbcca4537	-0.024691207
68	0xbc475d15	-0.012168189
69	0x3cde669b	0.027148535
70	0x3cc61bae	0.02418312
71	0x3c8bf1a9	0.017083006
72	0xbc659f11	-0.014014975
73	0x3d0ecb32	0.03486175
74	0x3d1650a6	0.036698006
75	0x3ced7c26	0.028989863
76	0x3c06de3e	0.008231698
77	0xbd1fd8fe	-0.0390253
78	0x3cd39160	0.025826156
79	0x3cd6ca9a	0.026219655
80	0xbc24f962	-0.010069223
81	0xbd345291	-0.044024054
82	0x3cefb880	0.029262781
83	0x3b8c3fb5	0.0042800554
84	0x3bb91865	0.00564866
85	0xbc47225a	-0.012154186
86	0x3c535267	0.012898064
87	0xbd14da81	-0.036341194
88	0x3b0c6766	0.0021423935
89	0x3cc58c83	0.024114853
90	0x3d44c16b	0.04803602
91	0x3cea8373	0.028627133
92	0x3b775763	0.0037741296
93	0xbce143c5	-0.027498135
94	0x3c77b42b	0.015118639
95	0xbcaeb300	-0.021325588
96	0x3d32347c	0.043507084
97	0x3da35a01	0.07976151
98	0x3d801943	0.06254818
99	0xbcfc9b36	-0.03083573
100	0xbca2f163	-0.019890493
101	0x3c7a0a01	0.015261174
102	0x3b4d2c2d	0.0031306848
103	0x3b3b0e27	0.002854237
104	0x3c17943b	0.0092516495
105	0xbc31e344	-0.010857407
106	0xbb9c6c92	-0.004773685
107	0x3d350073	0.04418988
108	0xbcb57592	-0.022150788
109	0xbce15642	-0.027506951
110	0x3cefb4ae	0.02926096
111	0xbd2678d1	-0.040642563
112	0x3d06c119	0.032898996
113	0xbd2a3fb5	-0.041564662
114	0x3ce82f10	0.028342754
115	0xbc8fa409	-0.017534273
116	0xbc1212f4	-0.008915652
117	0x3af3caeb	0.0018599903
118	0x3c9c8b18	0.019109294
119	0xbcb75081	-0.022377254
120	0xbca36917	-0.019947572
121	0x3c7ebdc4	0.015548173
122	0xbcf55d74	-0.029951788
123	0x3ad07e66	0.001590681
124	0xbc574c59	-0.013140761
125	0x3c67f6e3	0.0141579835
126	0x3c3cb0f9	0.011516803
127	0xbcbef1c3	-0.02330864
128	0x3cc4bffc	0.024017327
129	0xbc929a3a	-0.017895807
130	0x3b12d760	0.0022406206
131	0xbce497d5	-0.02790443
132	0x3d313cbe	0.04327082
133	0x3c97cf56	0.018531483
134	0x3d11ba3f	0.03557801
135	0xbce464c0	-0.027880073
136	0x3c01090a	0.00787569
137	0x3cbbf339	0.022943126
138	0x3c686e51	0.014186458
139	0xbbc44085	-0.0059891366
140	0xbc441862	-0.011968704
141	0xbce27e9e	-0.027648266
142	0xbcbb25d2	-0.022845183
143	0x3d263a2b	0.040582817
144	0xbc717770	-0.014737949
145	0x3b1c2200	0.0023823977
146	0xbcee5029	-0.029090958
147	0xbc3e0674	-0.011598218
148	0xbccb1546	-0.024790417
149	0x3c32e7a9	0.01091949
150	0x3c30fc39	0.010802322
151	0xbcda0781	-0.026614906
152	0xbc850319	-0.016236829
153	0xbce7007d	-0.028198475
154	0xbccfe471	-0.025377484
155	0x3d01116a	0.031510748
156	0x3b2c1bb4	0.002626163
157	0xbc615b40	-0.013754666
158	0xbd253663	-0.04033507
159	0x3c96a14c	0.01838746
160	0x3bf50e0d	0.0074784816
161	0xbc976859	-0.018482374
162	0xbbd9fbb7	-0.006652321
163	0x3cb29581	0.021799805
164	0xbca6df05	-0.020370016
165	0x3c7705e6	0.01507709
166	0xbbae6be1	-0.0053229188
167	0xbc9cc12e	-0.019135084
168	0xbd3211d4	-0.043474033
169	0xbc91aefe	-0.017783638
170	0xbd0587e2	-0.03260029
171	0xbb1668fb	-0.0022950757
172	0xbcc0a933	-0.02351818
173	0x3cb66dc1	0.022269132
174	0x3d2881d5	0.041139442
175	0x3d0c6c9b	0.03428326
176	0x3d06289a	0.032753564
177	0xbb32970b	-0.0027250673
178	0xbc1a48d9	-0.009416782
179	0x3d1a84c0	0.037724257
180	0xbc101dd0	-0.00879617
181	0x3cd9d7c9	0.026592152
182	0x3c5579e8	0.013029553
183	0xbc95b40d	-0.018274331
184	0x3d415585	0.0472007
185	0x3bf08362	0.007339881
186	0xbd7dfe75	-0.062010247
187	0x3d50279a	0.050819017
188	0xbd2d2204	-0.042268768
189	0xbb5dbf1b	-0.0033835832
190	0x3c7cc59c	0.015427973
191	0x39736df6	0.0002321525
192	0x3a06372c	0.00051199156
193	0xbce934b6	-0.028467517
194	0xbc5dc45d	-0.013535586
195	0x3cde35f0	0.027125329
196	0xbc2bac2b	-0.01047806
197	0xbc6be286	-0.014397269
198	0xbced811a	-0.028992224
199	0xbbdab933	-0.0066749095
200	0x3b91b84a	0.004447018
201	0xbd128039	-0.035766814
202	0x3c04c83e	0.008104382
203	0xbc17fed9	-0.009277069
204	0x3be5710c	0.0070020016
205	0x3cfb7ce9	0.03069921
206	0x3d14689f	0.036232587
207	0xbc07fe07	-0.008300311
208	0x3cf413f6	0.029794674
209	0x3d182cef	0.037152227
210	0xbd0cc3e3	-0.0343665
211	0x3c89c43e	0.016817208
212	0x3c78c02e	0.015182538
213	0x3d25d50a	0.040486373
214	0x3b1b94a2	0.0023739715
215	0x3c1eb062	0.009685608
216	0xbc1a8db7	-0.0094332015
217	0x3cfbd210	0.030739814
218	0x3c897abe	0.01678216
219	0x3c81d137	0.015846832
220	0x3b6762b5	0.0035306637
221	0xbb3f8c13	-0.0029227778
222	0xbd2a10fa	-0.041520096
223	0x3d108f5b	0.035292964
224	0xbcbfddff	-0.023421286
225	0xbc9a6806	-0.01884843
226	0xbc352dfd	-0.011058328
227	0xba7f6244	-0.0009742121
228	0x3b94a56f	0.004536323
229	0xbcf2454e	-0.029574063
230	0x3cd307b7	0.025760515
231	0xbc9bb124	-0.019005366
232	0x3d230b96	0.03980597
233	0xbcb102ee	-0.021607842
234	0x3d0c9f9b	0.0343319
235	0xbd16f9c0	-0.036859274
236	0x3d032c4a	0.03202466
237	0x3cf18b32	0.029485319
238	0x3c67153b	0.014104183
239	0xbd0b28e6	-0.03397455
240	0xbc965000	-0.018348694
241	0xbd1d2d90	-0.03837353
242	0xbd16afc1	-0.036788706
243	0xbc7860dd	-0.015159813
244	0xbd4fada7	-0.050702717
245	0xbcfbd2a7	-0.030740095
246	0x3cf5a945	0.02998794
247	0x3c2139a2	0.009840401
248	0x3b9cc2df	0.0047839726
249	0x3d0b3d76	0.03399416
250	0xbbaf2618	-0.0053451173
251	0xbc924bd7	-0.017858429
252	0xba0a4548	-0.0005274606
253	0xbbb9ca11	-0.00566984
254	0x3d241279	0.04005668
255	0xbcf0efa3	-0.029411143

bias f4 [64]
0	0x3d0cd909	0.03438667
1	0x3d103d07	0.03521445
2	0x3dab4f63	0.08364751
3	0xbc596ae9	-0.013270118
4	0xbd228945	-0.03968169
5	0x3c552456	0.013009151
6	0xbced116e	-0.028938975
7	0x3ceb384a	0.028713364
8	0x3ca66dcb	0.020316025
9	0xbc149f05	-0.009071116
10	0x3cac4745	0.021030078
11	0x3d26ad7f	0.040692803
12	0x3d45d083	0.048294555
13	0x3c6fe54d	0.014642072
14	0xbd4555f2	-0.048177667
15	0x3db86641	0.090038784
16	0x3d3ddd90	0.046353877
17	0x3d6d082d	0.057869125
18	0xbc9f3b68	-0.019437507
19	0x3d0f67e7	0.0350112
20	0x3cf2f377	0.029657109
21	0x3ca1616a	0.019699771
22	0x3cb6c25e	0.022309478
23	0xbc1eef56	-0.009700617
24	0xbd244abc	-0.040110335
25	0xbcf1432d	-0.029450977
26	0x3d7719d0	0.06032735
27	0x3cd5c164	0.026093192
28	0x3cfaf0d8	0.030632421
29	0x3de18403	0.11011507
30	0xbca1881d	-0.019718224
31	0x3ca098c3	0.019604092
32	0xbc77be66	-0.015121078
33	0x3d684111	0.056702677
34	0x3c7a8317	0.015290043
35	0x3d0f5300	0.034991264
36	0x3cf628a7	0.030048681
37	0x3cd36f84	0.02581001
38	0x3c3f3f84	0.011672858
39	0xbc915866	-0.017742347
40	0x3cfef5b3	0.031123018
41	0x3d261812	0.0405503
42	0x3cef8b6a	0.029241282
43	0x3d5ae005	0.053436298
44	0xbce965bc	-0.028490894
45	0x3cc8ebe0	0.024526536
46	0x3c615d26	0.0137551185
47	0x3d49c32e	0.049258403
48	0x3e08c721	0.13357212
49	0x3d288edf	0.041151877
50	0x3c1365d8	0.008996449
51	0x3d049a7e	0.032373898
52	0x3d482c24	0.04887022
53	0x3d3e1501	0.04640675
54	0xbc6edb98	-0.014578722
55	0xbb6f88cb	-0.003655004
56	0x3c83ac62	0.01607341
57	0x3d1f3ea4	0.038878098
58	0x3c534694	0.012895245
59	0x3a268cbf	0.000635337
60	0x3c9eefc3	0.019401437
61	0xbcee98e4	-0.029125638
62	0xb9252bef	-0.00015751993
63	0x3cd1cf97	0.025611682

weight f4 [64, 32, 3, 3]
0	0xbc811469	-0.015756803
1	0x3d1fcedd	0.03901564
2	0x3c98727a	0.018609274
3	0xbca41862	-0.020031158
4	0x3d598350	0.053103745
5	0xbd64283d	-0.055702437
6	0x3d3d36d5	0.04619487
7	0xbd58ff96	-0.05297812
8	0xbd47546a	-0.048664488
9	0x3b5ea4fc	0.003397285
10	0x3c1a016c	0.009399753
11	0x3d07e850	0.033180535
12	0x3d29254e	0.041295342
13	0x3c785a88	0.015158303
14	0xbcfd8b5e	-0.030950245
15	0xbcc0eb9b	-0.023549845
16	0x3cb4cd0e	0.022070434
17	0x3bf8d66c	0.0075939205
18	0xbd5f15ae	-0.054464035
19	0x3b9031cf	0.004400469
20	0x3d5a7e53	0.05334313
21	0x3d257d40	0.04040265
22	0xbd603e89	-0.05474714
23	0x3d042b75	0.032268006
24	0x3d64fa96	0.05590304
25	0xbd1445aa	-0.03619925
26	0xbba888a4	-0.005143242
27	0xbc12f1e6	-0.008968806
28	0x3d15d5dc	0.036580905
29	0xbbf15ce6	-0.0073658107
30	0x3cfd5f1a	0.030929137
31	0x3d49857d	0.04919957
32	0xbd1f0c3c	-0.038830027
33	0xbd476abf	-0.048685785
34	0x3c863376	0.01638196
35	0x3bfc5a00	0.0077011585
36	0x3bc8e6b9	0.00613102
37	0xbd697b76	-0.057002507
38	0xbd004430	-0.03131503
39	0xbd332137	-0.043732848
40	0xbcdb1dd9	-0.02674763
41	0x3d049524	0.032368794
42	0xbc7b48fd	-0.015337226
43	0x3d2b93d0	0.04188901
44	0xbb3e6588	-0.0029052217
45	0x3c807001	0.015678408
46	0x3cac50fe	0.021034714
47	0x3d2a4f77	0.04157969
48	0xbd6b98e5	-0.05751886
49	0xbcb31a88	-0.021863237
50	0x3d5cd57d	0.053914536
51	0x3ccf6402	0.025316242
52	0x3c3ad694	0.0114036985
53	0x3c93a77f	0.018024204
54	0xbc9e9a69	-0.019360738
55	0xbd044ad6	-0.03229793
56	0x3d31dc46	0.04342296
57	0xbbf2189d	-0.007388188
58	0xbd1d443b	-0.038395148
59	0xbbaca5cc	-0.005268788
60	0xbd5c06de	-0.053717487
61	0x3d3c92b4	0.046038345
62	0xbc1f403f	-0.009719907
63	0xbd0bde75	-0.0341477
64	0xbd1ad776	-0.037803136
65	0x3d2d25e0	0.04227245
66	0x3b01890e	0.001976553
67	0xbb13a197	-0.0022526735
68	0x3d2f31f4	0.04277225
69	0xbc1fcb74	-0.009753097
70	0xbd6d8530	-0.057988346
71	0xbc1018d2	-0.00879498
72	0x3ac91d9c	0.0015343907
73	0xbcc418d3	-0.023937618
74	0xbd0e3f2a	-0.034728207
75	0x3d1b12b4	0.037859634
76	0x3d4bf60a	0.049795188
77	0x3bf2d9d2	0.00741122
78	0xbd593627	-0.05303016
79	0xbcb19533	-0.021677589
80	0xbd000754	-0.03125699
81	0xbc86c911	-0.016453298
82	0xbd2a05a7	-0.041509297
83	0x3c276521	0.010216982
84	0x3d2f907e	0.042862408
85	0x3d2cd19d	0.04219209
86	0x3d46121f	0.048357125
87	0xbd3e69d8	-0.04648766
88	0xbca58c13	-0.020208394
89	0xbc33bd3a	-0.010970408
90	0xbd41abc3	-0.047282945
91	0xbc8e1dc4	-0.017348178
92	0xbd6f118f	-0.058366355
93	0x3cd3c5c9	0.025851147
94	0x3b92c10f	0.004478581
95	0x3c848552	0.016176853
96	0xbd66ca74	-0.056345418
97	0x3b61d93f	0.0034461764
98	0x3c641141	0.013920129
99	0x3be2b54f	0.0069185863
100	0xbc39cba1	-0.011340053
101	0x3d105af2	0.035242982
102	0xbc79ec2e	-0.0152540635
103	0xbd2355f8	-0.039876908
104	0x3cc98d5b	0.024603536
105	0x3d010dd2	0.03150732
106	0x3bc5fd48	0.0060421564
107	0xbd5770c9	-0.052597795
108	0x3d12d8ea	0.035851397
109	0xbcee9399	-0.029123114
110	0xbd1634bf	-0.036671396
111	0x3aa5a588	0.0012637833
112	0xbd41e7aa	-0.047340073
113	0xbd073479	-0.033009026
114	0xbcceee2a	-0.02526005
115	0xbd600970	-0.0546965
116	0xbc805633	-0.015666103
117	0xbd8ed666	-0.06974487
118	0xbd0294d6	-0.031880222
119	0xbd70a1d1	-0.05874807
120	0xbcc67036	-0.024223428
121	0x3d5bab9b	0.053630453
122	0x3d23e258	0.04001078
123	0x3c663bf1	0.014052377
124	0x3c3439dc	0.011000123
125	0x3cbafdbb	0.022826066
126	0x3d628596	0.05530318
127	0x3bc22680	0.0059249997
128	0xbc6bc29a	-0.014389658
129	0xbccad1db	-0.02475827
130	0xbbd502a6	-0.00650056
131	0xbd39caed	-0.04535954
132	0x3d0f3b0c	0.03496842
133	0xbc691650	-0.014226511
134	0xbb033c27	-0.0020024867
135	0x3d0ab62e	0.033865146
136	0xbd16ecbc	-0.03684686
137	0xbb6032bd	-0.003420993
138	0xbc1022f5	-0.008797397
139	0xbd1b4ec3	-0.03791691
140	0xbcea07fc	-0.02856826
141	0xbcfef6c6	-0.03112353
142	0x3d3e7b8f	0.046504553
143	0x3d4ce463	0.050022494
144	0x39e27358	0.00043192017
145	0x3c97d4aa	0.018534023
146	0xbbc0ffd2	-0.005889871
147	0xba0afee3	-0.00053022633
148	0x3b9f8f92	0.00486941
149	0x3d1908cd	0.03736191
150	0x3d239e67	0.039945986
151	0x3d528d0d	0.051404048
152	0x3a56d41d	0.00081950595
153	0xbcd7088c	-0.026249193
154	0x3d0676c3	0.032828104
155	0xbc6a530c	-0.0143020265
156	0x3d00e183	0.031465065
157	0x3c8485dc	0.01617711
158	0xbcf28bb7	-0.029607637
159	0x3cd231e9	0.025658565
160	0xbcef0df4	-0.029181458
161	0xbcb1c108	-0.02169849
162	0x3d52829e	0.051394098
163	0xbcfe8d95	-0.031073371
164	0xbc8a00fa	-0.016846169
165	0x3d6f88a6	0.058479927
166	0xbd035498	-0.032063097
167	0xb89c72e1	-7.4600575e-05
168	0x3b971797	0.0046109664
169	0x3d371593	0.04469831
170	0xbd200da1	-0.039075498
171	0xbdbb55f2	-0.09147252
172	0xbd76fa6e	-0.060297422
173	0xbc48eb73	-0.012263167
174	0x3c1139f7	0.008863918
175	0x3d26d4ee	0.04073041
176	0xbc1fd78f	-0.009755983
177	0x3c6d5372	0.014485227
178	0x3d9ca98a	0.076495245
179	0x3ca94b6f	0.020665852
180	0xbb60741c	-0.0034248894
181	0xbc83a0b9	-0.01606785
182	0x3cdc6ae7	0.026906444
183	0xbbbf033f	-0.0058292444
184	0x3d0ad471	0.033894006
185	0x3d183fc4	0.037170187
186	0x3cd0f8cd	0.025509262
187	0xbd328715	-0.043585856
188	0x3d07ab4b	0.033122342
189	0xbc89c395	-0.016816894
190	0x3bfec185	0.007774534
191	0x3d033959	0.032037113
192	0xbb31c50c	-0.0027125506
193	0xbd03f6a6	-0.032217644
194	0xbaa47200	-0.0012546182
195	0x3c4b44d6	0.0124065485
196	0x3d65072d	0.055915046
197	0xbd6940de	-0.056946628
198	0x3d21a186	0.03946068
199	0xbd5d8719	-0.054083917
200	0x3d19a763	0.037513148
201	0xbd347e91	-0.044066016
202	0x3ccf1353	0.02527777
203	0xbbed4955	-0.007241408
204	0x3d300047	0.042969014
205	0xbc5c6769	-0.013452389
206	0xbd365e6f	-0.044523653
207	0x3d2218e0	0.039574504
208	0xbcaf1948	-0.02137436
209	0xbcf3380d	-0.029689813
210	0x3c937a29	0.018002586
211	0x3caf7e33	0.021422481
212	0x3d28e0fc	0.041230187
213	0x3c8f9e41	0.017531516
214	0xbcc399fb	-0.023877135
215	0xbc8fecbe	-0.017568942
216	0xbc13470d	-0.008989108
217	0x3c010126	0.007873809
218	0xbd23edc8	-0.040021688
219	0x3d2a8b76	0.041636907
220	0x3c855354	0.016275086
221	0xbd638f07	-0.055556323
222	0xbd500389	-0.05078462
223	0x3c946b4d	0.018117571
224	0xbc9bc1bf	-0.019013284
225	0x3c437000	0.011928558
226	0x3c923d26	0.017851423
227	0x3c8ce720	0.017200053
228	0xbd128836	-0.035774432
229	0x3d5e4d22	0.05427278
230	0xbd2d19a6	-0.04226079
231	0xbc283e7c	-0.010268804
232	0x3d337a13	0.04381759
233	0xbce24186	-0.027619135
234	0xbcc50816	-0.024051707
235	0xbd6b5a0d	-0.057458926
236	0xbc171304	-0.009220842
237	0xbc61a9d5	-0.013773401
238	0xbc80075c	-0.01562851
239	0xbd552372	-0.052035756
240	0xbc77740e	-0.015103353
241	0x3d1d2d1c	0.038373098
242	0xbca0b03b	-0.019615283
243	0xbcbbe753	-0.022937452
244	0xbd73f593	-0.05956037
245	0xbd1278a8	-0.035759598
246	0xbd4f0b4f	-0.050547894
247	0xbd21990b	-0.039452594
248	0x3d4388c0	0.047737837
249	0x3c33ff00	0.01098609
250	0xbccd47e0	-0.025058687
251	0x3ccd05c2	0.02502716
252	0xbd40e975	-0.047097642
253	0xbd33d69a	-0.043905832
254	0xbd772748	-0.060340196
255	0xbd356ef3	-0.044295263

bias f4 [32]
0	0xbd332b87	-0.043742683
1	0x3d60cd3d	0.05488323
2	0x3cdaba8f	0.026700286
3	0xbd183778	-0.037162274
4	0x3d3c9367	0.04603901
5	0x3b8fb507	0.004385594
6	0xbd143d98	-0.036191553
7	0xbd5b2ade	-0.05350768
8	0xbc535b5b	-0.012900199
9	0x3cb196cc	0.02167835
10	0x3d4818f2	0.048851915
11	0x3d58b929	0.052910957
12	0xbd63b28c	-0.055590197
13	0x3dba424c	0.090946764
14	0x3cc8ddf2	0.024519894
15	0xbb99c63d	-0.0046928213
16	0xbd095f75	-0.0335383
17	0xbc903d3e	-0.017607328
18	0x3c6b24cc	0.014352035
19	0x3cb6a4b5	0.022295335
20	0xbd8d0203	-0.06885149
21	0x3bff2c53	0.0077872663
22	0x3b030091	0.0019989351
23	0xbc675dad	-0.014121455
24	0x3ce09536	0.0274149
25	0xbc5961a2	-0.013267906
26	0x3c40e1e4	0.0117726065
27	0xbc926709	-0.017871397
28	0xbd4ecc8f	-0.05048805
29	0x3d5ed7da	0.05440507
30	0xbc9ed9dc	-0.019390993
31	0xbd6fae5d	-0.058515895

weight f4 [32, 1, 3, 3]
0	0xbd348dcf	-0.04408055
1	0x3e9c9f7c	0.30590427
2	0xbe44c3bf	-0.19215296
3	0xbe23a263	-0.15979914
4	0xbd38056a	-0.04492704
5	0xbe8e3753	-0.27776584
6	0x3df02008	0.117248595
7	0x3d335e53	0.043791126
8	0xbd8a0b4d	-0.06740437
9	0x3dbf8095	0.09350697
10	0xbbb2c3d4	-0.0054554734
11	0x3e44924d	0.19196434
12	0xbe2abdd7	-0.1667398
13	0xbc51187e	-0.012762187
14	0x3e355484	0.17708021
15	0x3e5254c4	0.20540148
16	0x3b621719	0.003449863
17	0xbe2493df	-0.16072033
18	0xbe743917	-0.23849903
19	0xbcac9faf	-0.021072237
20	0x3daa0fbe	0.08303784
21	0x3e6cec26	0.23136958
22	0xbdea7c9c	-0.114495486
23	0x3e9d5481	0.30728534
24	0x3d859a93	0.06523623
25	0x3e35b8b5	0.17746241
26	0xbe1700f9	-0.14746465
27	0x3d9d7f07	0.07690244
28	0xbe7037c8	-0.23458779
29	0xbd7230c9	-0.059128556
30	0xbe5c9365	-0.21540602
31	0xbe2ea358	-0.17054498
32	0x3e3d6169	0.1849419
33	0xbe20fca1	-0.1572137
34	0x3e863a9c	0.2621659
35	0xbe56abae	-0.20963928
36	0xbe455970	-0.19272399
37	0xbe32aa1d	-0.17447706
38	0x3e872b0d	0.26400033
39	0x3e6db742	0.23214439
40	0x3e8d247a	0.27566892
41	0xbd445de6	-0.04794111
42	0x3e501403	0.20320134
43	0xbe54f8cd	-0.20798035
44	0xbb89fec3	-0.004211278
45	0xbdc346cc	-0.09534988
46	0x3e81dffc	0.253662
47	0xbe7165d6	-0.23574004
48	0x3e851b79	0.25997522
49	0x3e89472a	0.26812106
50	0x3cf8ff60	0.03039521
51	0x3e6f9e65	0.23400266
52	0x3cc2c865	0.023777196
53	0xbe89de46	-0.26927394
54	0xbe96fa8e	-0.29488033
55	0xbdafcb78	-0.085837305
56	0xbea55ffe	-0.322998
57	0xbe363c2c	-0.17796391
58	0xbd01f083	-0.03172351
59	0x3ea24f93	0.31701335
60	0xbd98cd2a	-0.07461007
61	0x3ea60d05	0.32431808
62	0xbd6c3b65	-0.05767383
63	0x3e084464	0.13307339
64	0xbe0c6dbc	-0.13713735
65	0xbe58f9b0	-0.21188998
66	0xbe5c80d6	-0.21533522
67	0x3df3493a	0.11879201
68	0xbe54964c	-0.20760459
69	0xbdde8f24	-0.10867146
70	0xbdbbfcdc	-0.091790885
71	0x3e71a5c1	0.23598386
72	0xbe3d8c80	-0.18510628
73	0xbe759b06	-0.23984918
74	0xbe8a53d1	-0.27017072
75	0x3ea58e82	0.32335287
76	0x3badf201	0.00530839
77	0x3ca13414	0.019678153
78	0xbd847759	-0.06468076
79	0xbe112cd3	-0.14177255
80	0xbe8793c2	-0.26479918
81	0x3d2e9d17	0.04263028
82	0x3e9f6efa	0.31139356
83	0x3d8cc20d	0.0687295
84	0xbde0b30c	-0.109716505
85	0x3b9d4201	0.004799128
86	0x3ea3d795	0.32000414
87	0x3e38ec2e	0.18058845
88	0xbc7c0ac6	-0.015383428
89	0xbe20270e	-0.15639898
90	0x3e6f1bcf	0.23350452
91	0xbe55352d	-0.20821066
92	0xbd288082	-0.04113818
93	0x3d4a6a6c	0.049417898
94	0x3e05d8de	0.1307101
95	0xbe76174b	-0.24032323
96	0x3c17c0c7	0.00926227
97	0xbe5c4357	-0.21510063
98	0xbe94d774	-0.29070628
99	0xbe405359	-0.18781795
100	0x3ea5682b	0.32306036
101	0x3e8063de	0.25076193
102	0xbe6a6c09	-0.22892775
103	0x3e50df39	0.20397653
104	0x3e8e1907	0.2775347
105	0xbe837cd5	-0.25681177
106	0xbd6b7085	-0.057480354
107	0xbe852003	-0.26000986
108	0x3e899e5f	0.2687864
109	0xbe4d6bc1	-0.20060636
110	0xbe742ea6	-0.2384592
111	0x3cfd6263	0.030930704
112	0xbe0fa367	-0.14027177
113	0xbe7494fa	-0.23884955
114	0xbe856bbf	-0.26058766
115	0xbe7ffa3b	-0.24997799
116	0xbe8597e3	-0.26092443
117	0x3e064d36	0.13115391
118	0x3d949715	0.07255379
119	0x3ea68f76	0.32531327
120	0x3e64a736	0.22329411
121	0xbe1c35c0	-0.15254879
122	0x3e130a56	0.14359412
123	0x3e9ea574	0.30985606
124	0xbe57ee4c	-0.21086997
125	0x3e58f3e2	0.21186784
126	0xbd32a5b9	-0.043615077
127	0x3e6af64b	0.22945516
128	0x39947ef8	0.0002832336
129	0x3e8f0ab7	0.27937862
130	0x3e8e3e78	0.27782035
131	0xbe6a6769	-0.2289101
132	0x3db44cc5	0.08803705
133	0xbdc9d75f	-0.09855532
134	0xbe6c42fe	-0.2307243
135	0x3e186d1e	0.14885375
136	0x3ea79ef4	0.3273846
137	0x3df8ab1b	0.12142011
138	0x3d10766f	0.035269197
139	0x3e8508e2	0.2598334
140	0x3d889564	0.06669119
141	0x3e2f02cc	0.1709091
142	0x3e8af895	0.27142778
143	0x3e504a6c	0.2034089
144	0x3ca11dba	0.019667495
145	0x3e3cd9f1	0.18442513
146	0x3d57f564	0.052724257
147	0x3e9fd37d	0.3121604
148	0x3e5ca7bd	0.21548362
149	0xbd3a6b0e	-0.04551225
150	0xbe17d3fb	-0.14826958
151	0xbe69f683	-0.22847943
152	0x3e8d7428	0.27627683
153	0x3cb92ffc	0.022605889
154	0x3e05c3c0	0.13062954
155	0xbdb6c741	-0.089247234
156	0xbd91d693	-0.07121005
157	0x3e7dd6e1	0.24789001
158	0x3d6de9c0	0.05808425
159	0xbddcc0c0	-0.10778952
160	0xbe511b23	-0.20420508
161	0xbe96b8e1	-0.29437926
162	0x3d54bc08	0.051937133
163	0x3e1e5858	0.15463388
164	0xbd9ea6f6	-0.07746689
165	0x3ea3adfd	0.3196868
166	0xbe7e829b	-0.2485451
167	0xbe49b691	-0.1969855
168	0x3e2ab3d6	0.16670164
169	0x3c74211b	0.014900471
170	0x3d4e377d	0.050345886
171	0xbccd4206	-0.025055896
172	0xbd6cb9b5	-0.05779429
173	0x3e05bb09	0.1305963
174	0x3e32a427	0.17445432
175	0x3ea3621e	0.31910795
176	0x3e2f6c9a	0.17131272
177	0x3bb0ff29	0.005401511
178	0xbe10a4c9	-0.1412536
179	0xbd5b189f	-0.053490277
180	0xbe032777	-0.12808023
181	0xbe3ea5f6	-0.18617997
182	0xbe4a3042	-0.19744971
183	0xbd3ff9f6	-0.04686924
184	0x3d504dfb	0.050855618
185	0xbe2ddbeb	-0.16978423
186	0x3e985883	0.2975503
187	0x3e04c08e	0.12964079
188	0xbdef9de2	-0.11700036
189	0xbe2e4a02	-0.17020419
190	0xbe9abaae	-0.3022055
191	0x3e63f34b	0.22260778
192	0x3d09f621	0.033681992
193	0xbe85b357	-0.26113388
194	0x3e5fe33f	0.21864031
195	0xbe718be6	-0.23588523
196	0xbe2ae01e	-0.16687056
197	0x3dcc26a2	0.09968306
198	0xbe978579	-0.2959402
199	0xbe98a5a5	-0.29813877
200	0x3c817d84	0.01580692
201	0xbe806e3e	-0.25084108
202	0x3e9e1078	0.3087194
203	0x3e941760	0.28924084
204	0x3d7999b6	0.060937606
205	0xbe86fe0d	-0.263657
206	0x3e1a95ae	0.15096161
207	0xbe56faa9	-0.20994057
208	0xbe439017	-0.19097935
209	0x3e0bfd07	0.13670741
210	0x3e174583	0.1477261
211	0xbe8a8ea4	-0.2706195
212	0x3d986ea1	0.07442976
213	0x3e723469	0.23652805
214	0xbb7d8b32	-0.0038687703
215	0x3e0f4b20	0.13993502
216	0x3e961d27	0.29319116
217	0x3ea21b7f	0.31661603
218	0xbe61aed0	-0.22039342
219	0xbe9d684b	-0.30743632
220	0x3e6c99fd	0.23105617
221	0x3e023fda	0.1271967
222	0xbe8dec76	-0.27719468
223	0x3e127356	0.1430181
224	0x3daa5c4b	0.08318385
225	0x3d5a0433	0.05322666
226	0xbd85c62f	-0.06531941
227	0x3e22e3c8	0.15907204
228	0xbe855200	-0.26039124
229	0xbe35a3fc	-0.17738336
230	0x3e439251	0.19098784
231	0xbe52b18b	-0.2057554
232	0xbde35367	-0.11099892
233	0xbc743d26	-0.014907157
234	0xbe94873b	-0.29009423
235	0x3e0d468a	0.1379644
236	0xbea5841b	-0.3232735
237	0x3e58b3d2	0.21162346
238	0xbe6838b8	-0.22677886
239	0x3d455d84	0.048184887
240	0xbde6cdae	-0.11269699
241	0xbe5f28fd	-0.2179298
242	0xbafc5285	-0.0019250667
243	0x3e32307d	0.1740131
244	0x3dcc2a13	0.099689625
245	0xbea15dcf	-0.31516883
246	0x3a1e2596	0.00060328224
247	0xbe95dcca	-0.2927001
248	0xbe79d707	-0.24398433
249	0xbea287a2	-0.31744105
250	0xbe0efc71	-0.13963486
251	0x3ea21547	0.31656858
252	0xbe7bf0a4	-0.24603516
253	0xbe9543b4	-0.29153216
254	0xbd94e50d	-0.072702505
255	0xbdbfb43b	-0.09360548
