models/25.pt (torch, 837106 bytes, 17 tensors)

weight f4 [32, 1, 3, 3]
-0.055383142 0.012162283 0.08138349 -0.25798038 0.18171053 -0.2087848 0.2674887 -0.23684193
-0.24559939 0.032060597 0.17416173 -0.09664554 -0.1348756 0.14301942 0.10393149 0.27483872
-0.08683988 -0.23640971 -0.1912423 0.10107457 -0.30191305 0.13901526 0.20002533 0.2414883
0.12154171 -0.11329298 -0.15283774 -0.1847987 0.32274988 -0.055974584 -0.08940881 -0.09993624
0.25983086 0.24457641 -0.03771624 0.19050872 0.32475388 -0.10410687 -0.10260393 0.29927206
0.1699827 -0.07888756 0.29745102 0.13983907 0.026492335 0.30912042 0.29448995 -0.14668459
0.06842074 -0.123455755 0.19366953 -0.13712023 -0.22329815 0.2172881 -0.122071415 0.01586923
0.30141243 -0.2365283 -0.07741852 0.10901484 0.14066003 -0.33489558 0.048757315 0.09722811
0.12832825 0.21221402 -0.15911669 0.32916048 0.075833306 -0.09395913 0.07297087 -0.1784391
-0.19213699 -0.21011873 -0.156015 0.19310884 -0.095830694 -0.24785379 0.2511119 -0.27954215
0.009674798 0.2720712 0.20314641 -0.18350284 0.30529067 0.23620948 0.32947248 -0.1273143
-0.008667679 -0.28844106 -0.33350506 0.10174781 0.024404114 0.1581643 -0.12647103 0.13998419
0.29917663 -0.3213497 0.2352822 0.08147155 -0.037796043 0.15128939 0.2814542 -0.24895313
-0.27474678 -0.05890623 -0.10094017 0.13899581 0.04156171 -0.17383982 -0.24170293 0.19501872
-0.22253646 0.030700633 0.14453642 -0.23322725 -0.26532927 0.3054714 0.23643719 -0.07956191
-0.22965862 -0.29834062 -0.2168588 0.24959503 -0.2264197 -0.20395593 -0.25289375 0.21425626
-0.27870885 0.24893875 -0.20536377 0.2798192 -0.26214078 0.18317527 -0.2238848 -0.07497425
0.28846017 -0.009289977 0.27857977 -0.23060963 -0.3575185 -0.006947279 0.2698931 -0.09497213
-0.29517066 0.1816595 0.025619358 -0.008786382 -0.16318923 -0.30835128 0.2985363 0.059234403
0.033516504 0.3033728 -0.2533488 -0.24637458 0.07287743 0.11085491 0.060295608 -0.17603381
0.23555359 0.30319107 0.0976281 0.3079622 0.000542043 0.10604058 0.22128923 -0.13511956
0.25325474 0.21416615 -0.08629691 -0.12005846 -0.14753267 -0.16455166 0.3320259 -0.11929501
0.18066457 -0.30359793 -0.09513593 0.027817104 -0.124620564 -0.23016874 -0.036929563 0.28379223
0.20563453 0.2980891 -0.21547946 0.09482634 0.102724075 0.16354235 0.16355483 -0.2148452
-0.09104325 0.22852503 -0.059994366 -0.059211373 0.1419374 -0.022068314 0.048037045 -0.32123324
-0.10252207 0.13480765 -0.109638296 0.0821923 0.28674656 0.21969393 0.29407728 0.16339132
-0.06517805 -0.14779417 -0.23233885 0.0986517 -0.3358078 0.20512863 0.09480113 -0.07527068
0.09878129 -0.09813902 -0.14818634 -0.29845244 -0.095680565 -0.10479212 0.034857582 0.29821745
-0.13442901 0.23121887 0.13205437 0.03312145 -0.26642096 -0.18150364 0.22437188 -0.30479535
0.19573861 -0.18589278 0.06479116 0.18386447 -0.2358061 0.24412218 0.1537348 -0.20732713
0.0011117678 -0.2414264 0.045300156 0.2158377 0.14453086 -0.246213 -0.05259953 -0.27041584
0.20015806 -0.09356552 0.07248349 -0.21674035 -0.10752482 -0.23009293 -0.2918606 0.31306493
00000000: 6fd9 62bd 5044 473c 63ac a63d 0116 84be
00000010: 5312 3a3e afcb 55be 47f4 883e b186 72be
00000020: 687e 7bbe f951 033d 7457 323e 19ee c5bd
00000030: d41c 0abe af73 123e 08da d43d a9b7 8c3e
00000040: 1bd9 b1bd 6315 72be 06d5 43be 2f00 cf3d
00000050: 5994 9abe 045a 0e3e 71d3 4c3e b548 773e
00000060: dcea f83d 2606 e8bd 7f81 1cbe df3b 3dbe
00000070: 793f a53e 9b45 65bd f71b b7bd 5fab ccbd
00000080: 8d08 853e 3d72 7a3e 587c 1abd b814 433e
00000090: 2446 a63e fc35 d5bd 0222 d2bd 303a 993e
000000a0: f20f 2e3e cd8f a1bd 804b 983e f931 0f3e
000000b0: 7406 d93c 0845 9e3e 63c7 963e 7c34 16be
000000c0: 2c20 8c3d 5fd6 fcbd 4e51 463e 3f69 0cbe
000000d0: 45a8 64be c680 5e3e 9400 fabd 3000 823c
000000e0: bb52 9a3e 7a34 72be 9a8d 9ebd 2c43 df3d
000000f0: 2f09 103e 6f77 abbe c0b5 473d 881f c73d
00000100: 7b68 033e a24e 593e 7cef 22be b987 a83e
00000110: 7e4e 9b3d a56d c0bd c071 953d bdb8 36be
00000120: 8fbf 44be 5d29 57be 65c2 1fbe 53be 453e
00000130: e242 c4bd 62cd 7dbe bd91 803e 2620 8fbe
00000140: 0b83 1e3c eb4c 8b3e 9d05 503e 2be8 3bbe
00000150: 0f4f 9c3e e6e0 713e 9eb0 a83e ae5e 02be
00000160: e102 0ebc 8cae 93be 2dc1 aabe 2861 d03d
00000170: 23eb c73c d2f5 213e 9f81 01be 0458 0f3e
00000180: ae2d 993e f387 a4be d1ed 703e 8eda a63d
00000190: 06d0 1abd 9beb 1a3e c41a 903e 92ed 7ebe
000001a0: 9cab 8cbe a947 71bd b8b9 cebd eb54 0e3e
000001b0: 9d3c 2a3d 1103 32be f980 77be fdb2 473e
000001c0: 99e0 63be e57f fb3c 5b01 143e 20d3 6ebe
000001d0: 3dd9 87be bf66 9c3e 971c 723e 5bf1 a2bd
000001e0: a12b 6bbe 1ac0 98be 3c10 5ebe d795 7f3e
000001f0: 91da 67be d3d9 50be 4a7b 81be fe65 5b3e
00000200: edb2 8ebe cde9 7e3e e14a 52be 7644 8f3e
00000210: 5137 86be 4c92 3b3e 0f42 65be 198c 99bd
00000220: 0db1 933e fd34 18bc 02a2 8e3e ee24 6cbe
00000230: aa0c b7be 00a6 e3bb 6e2f 8a3e c080 c2bd
00000240: 9c20 97be f304 3a3e b0df d13c c2f4 0fbc
00000250: 141b 27be 38e0 9dbe c0d9 983e c69f 723d
00000260: 9a48 093d ae53 9b3e efb6 81be 9e49 7cbe
00000270: c340 953d e607 e33d 87f8 763d 3542 34be
00000280: f634 713e dc3b 9b3e 3ef1 c73d 39ad 9d3e
00000290: e417 0e3a ce2b d93d a599 623e c85c 0abe
000002a0: 9baa 813e 5f4e 5b3e 6fbc b0bd 36e1 f5bd
000002b0: ce12 17be 3b80 28be 4cff a93e f150 f4bd
000002c0: 2200 393e 3071 9bbe a0d6 c2bd b2e0 e33c
000002d0: 1139 ffbd 5bb1 6bbe 7443 17bd 374d 913e
000002e0: dc91 523e 229f 983e a6a6 5cbe 5034 c23d
000002f0: 0061 d23d a577 273e eb7a 273e 6100 5cbe
00000300: e274 babd 7702 6a3e a7bc 75bd a087 72bd
00000310: 0a58 113e 9cc8 b4bc 7ec2 443d af78 a4be
00000320: 17f7 d1bd 040b 0a3e 0b8a e0bd 7054 a83d
00000330: 72d0 923e 72f7 603e 4c91 963e 0e50 273e
00000340: 127c 85bd 5b57 17be 3cea 6dbe e709 ca3d
00000350: 00ef abbe 3d0d 523e 1827 c23d 8427 9abd
00000360: d84d ca3d 1cfd c8bd 29be 17be c2ce 98be
00000370: 2cf4 c3bd 409d d6bd d3c6 0e3d f5af 983e
00000380: c2a7 09be a4c4 6c3e 4339 073e 5caa 073d
00000390: 5468 88be 17dc 39be bec1 653e 230e 9cbe
000003a0: b46f 483e ad5a 3ebe 3ab1 843d f846 3c3e
000003b0: 2777 71be 2afb 793e a86c 1d3e 904d 54be
000003c0: bdb8 913a 7b38 77be a88c 393d 8f04 5d3e
000003d0: e6ff 133e 431f 7cbe 9b72 57bd f273 8abe
000003e0: 3cf6 4c3e 489f bfbd 3972 943d 2ff1 5dbe
000003f0: f935 dcbd 7b9d 6bbe c16e 95be 0c4a a03e

bias f4 [32]
0.055747394 0.09996527 0.09086866 -0.29372633 0.3195978 -0.045864046 -0.05384975 0.21571293
0.3185866 -0.022040632 -0.17417559 0.2800993 0.061549354 0.21443257 0.13637751 0.24695545
-0.09312654 -0.04258708 -0.04306553 0.20936328 -0.24668059 -0.12610959 0.040908065 0.14170395
0.153372 0.082895726 0.06745346 -0.0031572483 -0.22964038 -0.10242456 -0.08993531 0.07939226
00000000: 6157 643d 97ba cc3d 5919 ba3d 4c63 96be
00000010: 53a2 a33e f0db 3bbd 8e91 5cbd dae3 5c3e
00000020: c81d a33e 8e8e b4bc 165b 32be 2d69 8f3e
00000030: 2d1b 7c3d 3694 5b3e 8ca6 0b3e e4e1 7c3e
00000040: 21b9 bebd ca6f 2ebd 7b65 30bd 5463 563e
00000050: d699 7cbe df22 01be 378f 273d d71a 113e
00000060: 8d0d 1d3e 3cc5 a93d 0a25 8a3d d6e9 4ebb
00000070: d926 6bbe f8c3 d1bd 0130 b8bd 6998 a23d

weight f4 [64, 32, 3, 3]
0.055343654 0.030672343 -0.040521096 -0.010308159 0.0030923642 0.020984646 0.0036897676 -0.030327559
0.039868433 -0.010263601 -0.007065415 0.061617814 0.036491584 0.0011290632 -0.042912483 0.057340488
0.029166017 0.014472395 -0.013417187 -0.0032030216 0.025780598 0.029271003 0.010519206 -0.033930548
-0.044161763 0.043176785 0.036327973 0.009687707 -0.025113076 -0.038377356 0.015085746 -0.04710612
-0.004866394 -0.012603508 0.056992173 0.018235875 0.004119539 0.026398111 -0.053335503 -0.055291545
-0.05214232 -0.012221845 -0.049276598 -0.0043435073 0.03544641 -0.004778129 0.014466519 -0.020139886
0.008119351 0.04693302 0.053468645 0.045093406 0.05245353 0.061458662 0.050742384 -0.036070056
-0.019206505 -0.030376112 0.012277958 -0.027089573 0.027535312 0.027278608 0.035015713 -0.054778073
-0.038969446 -0.0186102 -0.028066805 -0.043864053 0.027000131 0.030436942 0.017175617 -0.044507295
0.02383816 0.028959054 -0.08489732 0.034754444 -0.030916713 -0.08208656 0.02947252 -0.050099127
-0.09401228 0.05402778 -0.021187704 0.008026698 0.0378053 -0.02470507 -0.019683598 -0.04771962
0.026439501 -0.036180153 -0.040165886 -0.0020399557 0.009347789 -0.0029836341 0.031639062 -0.046797626
-0.020872634 0.012031441 -0.024056513 -0.014266576 0.0052253637 0.082466744 0.012905439 0.03919574
0.08329647 0.04305694 0.0109461695 0.06233212 -0.01715771 0.065206766 0.033297688 -0.03521089
-0.058856 -0.04103356 0.025162628 -0.08204185 -0.06179725 -0.04976928 -0.002025844 -0.060877673
0.017516088 0.05165842 -0.0038994965 0.0035118489 0.014667844 0.032624293 0.04690756 -0.012198918
0.112202115 0.040325813 -0.015571015 0.07887244 0.0012440067 0.084055044 0.105149336 -0.02990714
0.013659595 -0.016485732 0.004817185 -0.015605753 -0.0054081213 -0.023348864 0.010462766 -0.04159182
0.010937537 0.012692902 0.06374368 0.02914713 0.004813033 0.038827855 0.024991175 0.047168896
-0.031604424 -0.046742927 -0.020790994 0.025458543 4.9431677e-05 -0.007356593 -0.047250845 -0.012149917
0.050839514 -0.004632831 -0.04725189 0.03533426 0.025072634 0.022680804 -0.039694965 -0.019593408
-0.021264166 0.0036290954 0.014850694 0.010019676 0.028388347 0.07331563 0.03338904 0.05559042
0.027872108 0.026401615 0.052438527 -0.002220656 -0.038722947 -0.03611141 0.0671315 -0.0059075914
-0.019054996 -0.009438058 0.02318621 -0.055244237 -0.031107912 0.014820926 0.026317071 -0.022031767
-0.04687241 -0.051320087 -0.027358672 0.02829041 -0.03301524 0.05244108 0.055837184 -0.045222532
-0.0065507195 0.03767639 0.047896232 0.029402127 0.0020433015 0.05757833 -0.043426584 0.048934646
-0.010657949 -0.028173123 0.028790196 0.02893442 -0.032900628 -0.0031937866 0.033924002 0.035906572
0.041215874 -0.0405313 -0.022922968 -0.042944565 -0.008093105 0.026644837 0.078800514 -0.0056928466
0.087635145 0.05542356 -0.038005672 0.015504654 -0.035400663 0.013756318 0.07636569 0.08125267
0.017710596 -0.014931652 -0.01607836 -0.024037752 0.0150849195 -0.033651475 -0.030337552 0.054994736
-0.015961321 -0.02623319 0.03934117 0.04173903 0.037121702 0.11598726 0.02891681 0.044641353
-0.0025366636 0.06383101 -0.0058718286 0.07216649 0.06099832 0.008298183 0.032630786 -0.03697813
00000000: 07b0 623d 9144 fb3c 73f9 25bd 8de3 28bc
00000010: 43a9 4a3b fee7 ab3c 07d0 713b 8071 f8bc
00000020: 154d 233d aa28 28bc ff84 e7bb f662 7c3d
00000030: 3378 153d 13fd 933a 00c5 2fbd dcdd 6a3d
00000040: 92ed ee3c a01d 6d3c c3d3 5bbc c9e9 51bb
00000050: d531 d33c bec9 ef3c bf58 2c3c c2fa 0abd
00000060: f7e2 34bd 24da 303d a4cc 143d 30b9 1e3c
00000070: f0b9 cdbc 9331 1dbd 342a 773c 59f2 40bd
00000080: 4676 9fbb f27e 4ebc a070 693d 6763 953c
00000090: 33fd 863b da40 d83c 5476 5abd 6379 62bd
000000a0: 2f93 55bd 223e 48bc 42d6 49bd fb53 8ebb
000000b0: 4130 113d da91 9cbb fa04 6d3c 67fc a4bc
000000c0: 0707 053c d73c 403d f001 5b3d ddb3 383d
000000d0: 83d9 563d 14bc 7b3d 3fd7 4f3d 32be 13bd
000000e0: f656 9dbc 53d7 f8bc 7d29 493c f4ea ddbc
000000f0: bc91 e13c 6377 df3c a36c 0f3d f95e 60bd
00000100: 6d9e 1fbd 6b74 98bc 5bec e5bc cbaa 33bd
00000110: 612f dd3c e556 f93c e1b3 8c3c 484d 36bd
00000120: 3f48 c33c 8a3b ed3c a5de adbd ad5a 0e3d
00000130: 0c45 fdbc 001d a8bd 5b70 f13c be34 4dbd
00000140: 8389 c0bd 3c4c 5d3d d691 adbc 6982 033c
00000150: bbd9 1a3d 4962 cabc 7f3f a1bc a675 43bd
00000160: a797 d83c a431 14bd fc84 24bd c7b0 05bb
00000170: 7827 193c 1389 43bb f697 013d deae 3fbd
00000180: 16fd aabc 851f 453c 2a12 c5bc 5bbe 69bc
00000190: 8739 ab3b 53e4 a83d 5671 533c b68b 203d
000001a0: 5797 aa3d 795c 303d 9057 333c f74f 7f3d
000001b0: 538e 8cbc 208b 853d 2863 083d 4b39 10bd
000001c0: fd12 71bd ce12 28bd db21 ce3c 8f05 a8bd
000001d0: 1d1f 7dbd dfda 4bbd 06c4 04bb de5a 79bd
000001e0: e67d 8f3c c897 533d b28e 7fbb 0c27 663b
000001f0: 6651 703c 0da1 053d 2422 403d f8dd 47bc
00000200: 39ca e53d ae2c 253d 921d 7fbc e087 a13d
00000210: f00d a33a 0d25 ac3d 8958 d73d d2ff f4bc
00000220: 7ecc 5f3c 160d 87bc 7ad9 9d3b 46af 7fbc
00000230: 9c36 b1bb 1e46 bfbc 056c 2b3c 2f5c 2abd
00000240: 5b33 333c e4f5 4f3c 0c8c 823d f6c5 ee3c
00000250: a6b6 9d3b f509 1f3d 4bba cc3c 2c34 413d
00000260: a473 01bd 8375 3fbd e051 aabc 6f8e d03c
00000270: dc54 4f38 930f f1bb 1a8a 41bd 7210 47bc
00000280: 183d 503d 01cf 97bb 338b 41bd a8ba 103d
00000290: 2065 cd3c 18cd b93c 3097 22bd 5b82 a0bc
000002a0: 3032 aebc 1ed6 6d3b 5350 733c 9129 243c
000002b0: ae8e e83c 8126 963d f2c2 083d c8b2 633d
000002c0: 0c54 e43c 3348 d83c c8c9 563d 6d88 11bb
000002d0: f49b 1ebd 8fe9 13bd 3d7c 893d 7894 c1bb
000002e0: 3919 9cbc 16a2 1abc 02f1 bd3c c847 62bd
000002f0: 05d6 febc 78d3 723c e696 d73c f77b b4bc
00000300: 49fd 3fbd 0335 52bd 4b1f e0bc 4ac1 e73c
00000310: fd3a 07bd 75cc 563d 88b5 643d 433b 39bd
00000320: 6ba7 d6bb 8f52 1a3d d72e 443d bbdc f03c
00000330: e9e8 053b 41d7 6b3d 13e0 31bd b26f 483d
00000340: ae9e 2ebc 52cb e6bc 6bd9 eb3c e007 ed3c
00000350: cfc2 06bd d94e 51bb e5f3 0a3d c512 133d
00000360: fad1 283d 2604 26bd f3c8 bbbc a4e6 2fbd
00000370: f198 04bc 4646 da3c 2a62 a13d 0f8b babb
00000380: 0e7a b33d d103 633d d6ab 1bbd 3b07 7e3c
00000390: 4900 11bd 2e62 613c 9d65 9c3d cd67 a63d
000003a0: d015 913c e3a3 74bc c4b6 83bc d2ea c4bc
000003b0: bd26 773c 21d6 09bd 7586 f8bc 2942 613d
000003c0: 51c1 82bc fde6 d6bc 3524 213d 8cf6 2a3d
000003d0: ed0c 183d bb8a ed3d f2e2 ec3c dad9 363d
000003e0: 273e 26bb d5b9 823d 7868 c0bb 06cc 933d
000003f0: 60d9 793d 1af5 073c dca7 053d 6176 17bd

bias f4 [64]
0.023512676 0.05483501 0.008249463 0.018287556 0.057628382 0.04600201 -0.033856347 0.006318152
-0.06745342 0.065313295 0.06074177 0.05371503 -0.045648735 0.10275258 0.038501956 0.098410256
0.1066292 0.0916194 0.024241932 0.027241372 -0.039082173 -0.03417741 -0.018608881 0.061125297
-0.03455448 0.0322027 0.06505518 -0.029874364 0.05230247 -0.09169929 0.020559171 -0.009870561
0.05982971 -0.050747056 -0.031262834 -0.0768537 0.04624579 0.028486881 0.027224174 0.056059908
0.037434552 0.009825513 0.0067873113 0.02866075 0.039113387 0.06995792 -0.03468683 -0.01155573
-0.08448244 0.06391104 -0.03401544 0.04631132 0.06835017 0.033388175 0.020273203 0.04670639
0.038974304 0.039060246 0.012816215 -0.039055508 -0.03617528 0.06740806 -0.021901509 0.06501227
00000000: a89d c03c ad9a 603d c128 073c c9cf 953c
00000010: bd0b 6c3d 9b6c 3c3d f4ac 0abd 8008 cf3b
00000020: 0525 8abd fac2 853d 5dcc 783d 4b04 5c3d
00000030: 2bfa 3abd f26f d23d 3ab4 1d3d 518b c93d
00000040: 6960 da3d f4a2 bb3d 0497 c63c 4c29 df3c
00000050: a114 20bd 9dfd 0bbd a771 98bc 855e 7a3d
00000060: 0089 0dbd fae6 033d a63b 853d 15bb f4bc
00000070: 1d3b 563d d6cc bbbd b56b a83c 22b8 21bc
00000080: ff0f 753d 25dc 4fbd 750d 00bd 7965 9dbd
00000090: 3a6c 3d3d 525d e93c 3b05 df3c 139f 653d
000000a0: f954 193d 30fb 203c 1868 de3b f3c9 ea3c
000000b0: 5c35 203d 1946 8f3d c713 0ebd 3f54 3dbc
000000c0: 2105 adbd cbe3 823d c653 0bbd f0b0 3d3d
000000d0: 2dfb 8b3d 0ac2 083d fd13 a63c 334f 3f3d
000000e0: 85a3 1f3d a3fd 1f3d 1afb 513c abf8 1fbd
000000f0: 882c 14bd 3d0d 8a3d cb6a b3bc 2725 853d

weight f4 [128, 64, 3, 3]
-0.055984847 -0.00048766015 -0.044992138 -0.029163985 -0.0048628766 -0.045104925 -0.035461858 0.019270027
-0.018224292 -0.027144793 -0.018897377 0.035735685 -0.008035393 -0.02897094 -0.03372447 -0.028702414
0.024687449 0.033102874 -0.03866444 -0.018279709 0.04083574 -0.011767517 -0.013733488 0.011358372
-0.0007630514 0.023168202 -0.039519925 0.026369026 0.002751576 0.02142981 0.032860767 -0.0016525002
-0.024102056 -0.036705844 0.043048024 0.0430762 0.009074907 -0.013987067 -0.024349699 -0.03472454
0.02432243 0.037712395 0.0035232508 -0.03608876 0.04065989 0.017370054 0.042583074 -0.028684098
0.003266927 0.03607309 -0.0047553 0.013186359 0.032879632 -0.02477119 -0.002614684 -0.0065717697
-0.018865757 -0.030263364 -0.029226987 -0.025363335 0.038686614 0.011948803 0.041297313 0.041655984
-0.008534674 0.027709296 0.0064058304 0.011356993 -0.006372234 0.020978656 0.030851088 -0.040507723
-0.05493699 0.008912159 0.0031316958 -0.050639655 -0.06479715 0.009379195 -0.042486314 0.015649652
0.026612123 -0.06308739 -0.02367957 -0.018691996 -0.022067383 0.030684778 -0.013619532 0.006143956
-0.05107309 -0.055260256 -0.015514517 -0.02145406 0.0127549935 -0.00095450046 -0.025256865 -0.0022472306
-0.032153457 -0.01659202 -0.0049012345 -0.030226458 0.026552126 -0.011179498 -0.041663297 0.048270315
-0.030990904 -0.017979376 0.012061337 -0.0011101775 0.009079168 -0.0029121628 -0.013282535 -0.017785313
0.0042499127 0.034794148 -0.024201866 0.0104261525 0.024784138 0.047315314 0.016901776 -0.025589416
0.03986372 0.017621065 0.0024645978 0.06451967 0.012098109 0.06108169 0.0031953643 0.014224995
0.04063759 0.041009776 0.01740843 0.0070907255 0.021567982 0.0038879185 0.022669679 0.03241275
-0.026663922 0.023296487 -0.040522564 -0.036123246 -0.023301227 -0.046814777 -0.014591312 0.015426725
-0.029926471 -0.019660356 0.0036984936 0.032972008 0.031056218 0.030982153 -0.03981833 -0.0010318364
0.016144812 -0.033972416 -0.029497463 0.010883391 0.026744409 -0.0056352704 0.023768624 -0.035568625
-0.01766678 0.016170416 0.0087644765 0.01385591 0.018486246 -0.030090397 -0.011143947 0.0032799353
-0.010438356 -0.025146151 -0.013809871 0.017599288 -0.011947965 -0.016243635 0.02287835 0.018418118
-0.009132783 0.010464813 0.014780806 -0.03786306 -0.0021858094 -0.02937866 -0.011128306 -0.016360983
-0.026796822 -0.0022195266 -0.0035162054 -0.03645239 -0.0075328075 0.032347877 8.3805506e-05 0.03363486
-0.00916528 -0.021105653 -0.021359973 -0.031199213 -0.0144668305 0.032335185 0.014624055 0.005530899
0.03833221 -0.008660254 0.0046571703 0.026957247 0.010860627 -0.017293276 -0.014752846 -0.03791283
0.022224072 0.00018381135 -0.025569953 -0.03929223 -0.02550049 0.027970556 0.009206307 0.009025666
-0.010711248 -0.025499145 0.033912584 0.004622902 0.038691796 0.026323052 0.016541287 0.021906951
-0.024291353 0.022268368 -5.3094586e-06 0.042670004 -0.007490868 0.0031997815 -0.027699845 -0.0060111843
0.00027829924 0.012705784 -0.008868422 -0.018478464 -0.03869407 -0.038221095 -0.013314546 0.01145935
-0.0039090607 0.029411994 0.017743977 -0.011134357 0.0317855 0.0011042148 -0.025288502 0.012257228
-0.0017010417 -0.00672652 0.0152902175 -0.019396255 0.022905432 0.0014342425 0.00068498525 -0.021268267
00000000: 5e50 65bd a3ac ffb9 ad49 38bd 4fe9 eebc
00000010: c458 9fbb f1bf 38bd 7440 11bd 2ddc 9d3c
00000020: 1c4b 95bc c25e debc acce 9abc 955f 123d
00000030: e2a6 03bc 7754 edbc ab22 0abd 5321 ebbc
00000040: 553d ca3c e196 073d 9b5e 1ebd 54bf 95bc
00000050: 6043 273d 8bcc 40bc 6c02 61bc 7718 3a3c
00000060: 8307 48ba 3ecb bd3c a5df 21bd db03 d83c
00000070: c953 343b 928d af3c 0399 063d b598 d8ba
00000080: ad71 c5bc de58 16bd 2053 303d ab70 303d
00000090: ebae 143c 032a 65bc 0579 c7bc 523b 0ebd
000000a0: d53f c73c 5078 1a3d 57e6 663b cfd1 13bd
000000b0: fc8a 263d a54b 8e3c 976b 2e3d eafa eabc
000000c0: f119 563b 60c1 133d 59d2 9bbb 990b 583c
000000d0: cbac 063d f3ec cabc 1e5b 2bbb 0058 d7bb
000000e0: 5c8c 9abc e0ea f7bc 6f6d efbc c5c6 cfbc
000000f0: db75 1e3d eac4 433c 5f27 293d 779f 2a3d
00000100: 04d5 0bbc 9bfe e23c 00e8 d13b ae12 3a3c
00000110: 2cce d0bb 6edb ab3c 6cbb fc3c 6deb 25bd
00000120: 9c05 61bd 4e04 123c 233d 4d3b 876b 4fbd
00000130: 5eb4 84bd 32ab 193c 2106 2ebd b333 803c
00000140: ab01 da3c f633 81bd a8fb c1bc f51f 99bc
00000150: a8c6 b4bc a55e fb3c 7524 5fbc 3d53 c93b
00000160: 0432 51bd 9458 62bd 9a30 7ebc 6dc0 afbc
00000170: 52fa 503c 7137 7aba 7ce7 cebc 4646 13bb
00000180: 58b3 03bd fdeb 87bc 899a a0bb 7a9d f7bc
00000190: d883 d93c 372a 37bc 22a7 2abd 18b7 453d
000001a0: a3e0 fdbc 7c49 93bc ea9c 453c 6083 91ba
000001b0: cac0 143c fcd9 3ebb fd9e 59bc 81b2 91bc
000001c0: da42 8b3b 4f84 0e3d fe42 c6bc 74d2 2a3c
000001d0: 1b08 cb3c b4cd 413d 9875 8a3c e5a0 d1bc
000001e0: 2448 233d 0d5a 903c 1785 213b e422 843d
000001f0: 2637 463c cb30 7a3d 5169 513b f40f 693c
00000200: 9a73 263d def9 273d 209c 8e3c 5159 e83b
00000210: 56af b03c 73cc 7e3b c3b5 b93c 3bc3 043d
00000220: 4c6e dabc 46d8 be3c fdfa 25bd f8f5 13bd
00000230: 37e2 bebc dac0 3fbd 6610 6fbc 60c0 7c3c
00000240: 5c28 f5bc c10e a1bc 6d62 723b a80d 073d
00000250: 9c69 fe3c 49ce fd3c 8c18 23bd af3e 87ba
00000260: 2042 843c a926 0bbd aaa4 f1bc 4050 323c
00000270: 1717 db3c 13a8 b8bb 6bb6 c23c 68b0 11bd
00000280: ecb9 90bc d277 843c e198 0f3c e603 633c
00000290: 7870 973c 2380 f6bc 1a95 36bc 2ff4 563b
000002a0: a305 2bbc 4dff cdbc cc42 62bc 622c 903c
000002b0: 66c1 43bc 5f11 85bc 616b bb3c 98e1 963c
000002c0: aba1 15bc 9b74 2b3c 322b 723c 4c16 1bbd
000002d0: cc3f 0fbb 84ab f0bc 8053 36bc 7807 86bc
000002e0: 0285 dbbc 7a75 11bb 2370 66bb 1a4f 15bd
000002f0: c5d5 f6bb 357f 043d bdc0 af38 b5c4 093d
00000300: f829 16bc c3e5 acbc 1cfb aebc 7e95 ffbc
00000310: 4906 6dbc e671 043d bb99 6f3c 8b3c b53b
00000320: 3c02 1d3d bde3 0dbc 2d9b 983b 72d5 dc3c
00000330: c5f0 313c a1aa 8dbc ecb5 71bc 7c4a 1bbd
00000340: 420f b63c 7cbd 4039 1478 d1bc e4f0 20bd
00000350: 67e6 d0bc 8222 e53c 0dd6 163c 63e0 133c
00000360: 3b7e 2fbc 95e3 d0bc ece7 0a3d b67b 973b
00000370: 4a7b 1e3d 71a3 d73c 9881 873c 3576 b33c
00000380: a9fe c6bc 276c b63c e727 b2b6 bec6 2e3d
00000390: f575 f5bb 6db3 513b c9ea e2bc 78f9 c4bb
000003a0: b1e8 9139 ec2b 503c dc4c 11bc 2660 97bc
000003b0: ac7d 1ebd b98d 1cbd 4125 5abc ffbf 3b3c
000003c0: 9417 80bb 6cf1 f03c d15b 913c e16c 36bc
000003d0: 8331 023d 4dbb 903a d529 cfbc 8ad2 483c
000003e0: 7df5 deba 246a dcbb d283 7a3c e5e4 9ebc
000003f0: 2ca4 bb3c 31fd bb3a 9590 333a ca3a aebc

bias f4 [128]
0.020027902 0.049126986 0.011448102 0.03578048 -0.042038742 -0.042000864 -0.04168354 -0.0208054
-0.00030400127 0.07820605 0.030947063 -0.062318616 -0.063684955 -0.025285639 -0.026746478 -0.0074585197
-0.00028645238 -0.03178435 -0.034630165 -0.006726457 0.004833668 0.007083021 0.030396314 -0.011959542
-0.019076535 0.030796595 -0.09116768 0.04034526 0.058181513 -0.13870536 -0.0018797895 -0.03590081
0.022555623 -0.011611 -0.0358312 -0.026043959 0.028133135 -0.08727216 0.036727257 0.053578857
0.07488371 -0.018328128 -0.029430471 -0.029397061 0.05907258 0.0784494 -0.013375059 -0.02473463
-0.008962341 -0.025170332 0.04581112 0.02448679 -0.0049893274 -0.017997729 0.022064267 0.050777543
0.06500608 0.017462473 0.017979788 -0.02014337 0.091890715 0.022847988 0.004817997 -0.0004969184
-0.014029518 -0.016674992 0.049839932 -0.0044383705 0.04984387 -0.056560945 0.031422477 -0.0040442767
-0.017893774 -0.0014492238 0.015397907 -0.0064471103 0.01945349 0.07219731 0.016369192 0.027997872
0.024116773 -0.009843644 0.044149183 0.03663833 -0.0004324569 0.0072534713 0.04572052 0.014364888
0.0144512225 -0.009803089 0.060557347 -0.032515917 0.035848115 0.005223989 -0.09789006 -0.010732725
-0.01208374 -0.0055666654 0.023232067 -0.023661364 -0.046429064 -0.02664405 0.02009786 0.0054587494
-0.0689781 0.006126337 0.04020398 0.10301868 -0.035294365 0.036294393 -0.020288348 0.0705739
-0.010957325 -0.015564292 -0.05899646 -0.1127028 0.016900308 0.016013365 -0.0011398164 0.04109699
0.044079393 0.01586909 0.23964368 0.044637002 0.002613999 -0.031325106 0.021263659 -0.007621744
00000000: 8e11 a43c 6139 493d d290 3b3c 8d8e 123d
00000010: d130 2cbd 1909 2cbd 5cbc 2abd 1670 aabc
00000020: 5c62 9fb9 7e2a a03d b284 fd3c ce41 7fbd
00000030: 426d 82bd d423 cfbc 6e1b dbbc 9966 f4bb
00000040: fd2e 96b9 4e30 02bd 5cd8 0dbd 9c69 dcbb
00000050: bf63 9e3b b018 e83b b101 f93c f4f1 43bc
00000060: 6546 9cbc 2449 fc3c 1fb6 babd 1241 253d
00000070: bd4f 6e3d c708 0ebe 4563 f6ba ba0c 13bd
00000080: 92c6 b83c 103c 3ebc bdc3 12bd 245a d5bc
00000090: 7677 e63c bfbb b2bd 526f 163d 8175 5b3d
000000a0: a15c 993d df24 96bc 2c18 f1bc 1bd2 f0bc
000000b0: 17f6 713d 14aa a03d 1023 5bbc 47a0 cabc
000000c0: c8d6 12bc 0332 cebc 71a4 3b3d 8598 c83c
000000d0: 837d a3bb f96f 93bc 1fc0 b43c 1dfc 4f3d
000000e0: e821 853d 760d 8f3c 594a 933c b503 a5bc
000000f0: 3331 bc3d b42b bb3c 4ae0 9d3b a143 02ba
00000100: 10dc 65bc fe99 88bc f524 4c3d c06f 91bb
00000110: 1629 4c3d 73ac 67bd dbb4 003d da85 84bb
00000120: f795 92bc e2f3 bdba 8147 7c3c 4842 d3bb
00000130: ed5c 9f3c 2fdc 933d af18 863c cb5b e53c
00000140: 8a90 c53c 3c47 21bc c6d5 343d 1312 163d
00000150: 62bb e2b9 87ae ed3b 7145 3b3d b55a 6b3c
00000160: d2c4 6c3c 239d 20bc fb0a 783d 692f 05bd
00000170: 79d5 123d ff2d ab3b 957a c8bd 50d8 2fbc
00000180: e1fa 45bc 9368 b6bb 2d51 be3c 7ad5 c1bc
00000190: 672c 3ebd 9f44 dabc 44a4 a43c 4fdf b23b
000001a0: 6444 8dbd 71bf c83b eeac 243d 75fb d23d
000001b0: d390 10bd 6ea9 143d c033 a6bc 0d89 903d
000001c0: 5a86 33bc 5f01 7fbc 46a6 71bd bad0 e6bd
000001d0: 8472 8a3c 762e 833c e465 95ba 5155 283d
000001e0: 988c 343d e5ff 813c 2765 753e 4ad5 363d
000001f0: a04f 2b3b c14e 00bd 2031 ae3c d3bf f9bb

weight f4 [128, 64, 3, 3]
-0.00092241087 -0.005472952 -0.0026204127 -0.0022939437 0.014635301 0.03197763 -0.005820775 0.013481382
-0.007913465 0.016429026 -0.023660872 -0.012783163 0.025999079 -0.022499219 0.024539858 -0.043788143
-0.0075554173 0.018335339 0.013543494 -0.024169672 -0.022691892 0.0011296774 -0.024044378 -0.0027745739
0.026641853 0.011295922 -0.015075185 -0.01307914 -0.0221436 0.014317359 0.020873435 -0.03407401
-0.03442086 0.0031651843 0.030062445 0.016365528 -0.025749492 -0.0069859605 0.0039127385 0.027641827
-0.01015715 0.017336115 -0.009669527 -0.014923802 -0.031139104 0.010307989 0.038772374 -0.029163593
-0.0103704035 0.012745286 -0.03936552 0.028644703 0.03495353 -0.009297308 -0.026768045 0.015140809
0.00022029897 0.032650307 0.020994894 0.05018591 -0.051949535 0.02347902 -0.02669669 -0.032898605
-0.010000429 -0.039274067 0.0076806885 -0.024827939 -0.012431061 0.026797567 0.024149347 0.016753001
-0.013856052 0.03479707 0.03671786 0.028878555 0.008000684 -0.039091494 0.025844483 0.025622515
-0.01045581 -0.044325117 0.028735809 0.004164408 0.00569128 -0.012719928 0.0127507895 -0.036526438
0.0015715924 0.023874935 0.049656656 0.03096566 0.0007197954 -0.025316183 0.017966192 -0.018747687
0.04798916 0.08420178 0.07141873 -0.031701766 -0.0228245 0.010789077 -0.0023019202 -0.001548931
0.0052797813 -0.016154487 -0.013421532 0.039223373 -0.022442752 -0.028278576 0.027970495 -0.041078426
0.03206176 -0.042001635 0.027374923 -0.01844462 -0.009941382 0.0018384152 0.019099474 -0.022327097
-0.019957682 0.0155308535 -0.02985823 0.0016117817 -0.013127072 0.014155597 0.015240116 -0.024151364
0.023145378 -0.015010311 0.0035901745 -0.026615854 0.042455126 0.01839192 0.036399197 -0.025527418
0.010892091 0.021358412 0.01497806 -0.0021125479 -0.012297138 -0.029293587 -0.020640664 0.04066288
-0.014336326 0.0009409531 -0.030408569 -0.0116446735 -0.02677169 0.010081331 0.009636391 -0.02876753
-0.01791811 -0.028701926 -0.025511526 0.031071683 0.0020780817 -0.0136067085 -0.040396724 0.017937753
0.007109457 -0.018369572 -0.007378292 0.020920938 -0.021360325 0.014241495 -0.0073972815 -0.020835323
-0.044538256 -0.018344412 -0.034758374 0.0032955236 -0.017335385 0.02876521 0.04855164 0.04497346
0.034360543 0.0025756136 0.0035297177 0.03592283 -0.011234537 0.026474744 0.013024504 -0.021930171
0.04638549 0.004360439 -0.06618597 0.048466425 -0.04365306 -0.0044395253 0.014724912 -0.0032667534
-0.0005855335 -0.028547341 -0.01625785 0.025871808 -0.009968333 -0.012558074 -0.028954972 -0.008740286
0.004441197 -0.035720248 0.007331098 -0.0092654275 0.0069932705 0.030659629 0.03618602 -0.007282651
0.03651131 0.038533896 -0.033013258 0.015335047 0.0146518275 0.041954704 0.0024096426 0.014733324
-0.00942156 0.030700233 0.016761206 0.015825877 0.003526298 -0.0029189943 -0.041468874 0.0352464
-0.023391018 -0.018428093 -0.0109746 -0.00041801884 0.0032626812 -0.027399676 0.03243112 -0.026809148
0.03824933 -0.00554507 0.028511785 -0.040445317 0.030694501 0.021787165 0.011901363 -0.034211665
-0.027093288 -0.04384135 -0.038884234 -0.01719409 -0.05523587 -0.031503268 0.027970154 0.0049804635
0.0010811087 0.031756558 -0.0065436387 -0.020206567 -0.000351877 -0.009186415 0.03811288 -0.031520203
00000000: f2cd 71ba 7356 b3bb 3bbb 2bbb fd55 16bb
00000010: e7c8 6f3c fafa 023d 33bc bebb 04e1 5c3c
00000020: 7aa7 01bc 2a96 863c 72d4 c1bc 7970 51bc
00000030: 05fc d43c 4850 b8bc d007 c93c 325b 33bd
00000040: 6f93 f7bb fe33 963c 88e5 5d3c 7aff c5bc
00000050: 59e4 b9bc af11 943a b7f8 c4bc a0d5 35bb
00000060: 0440 da3c 8812 393c e9fd 76bc e449 56bc
00000070: 7f66 b5bc 5b93 6a3c c4fe aa3c 3091 0bbd
00000080: e3fc 0cbd fb6e 4f3b 8445 f63c 0011 863c
00000090: 99f0 d2bc 7cea e4bb 6e36 803b 1d71 e23c
000000a0: 2d6a 26bc 7804 8e3c f06c 1ebc f682 74bc
000000b0: 6f17 ffbc d7e2 283c c8cf 1e3d 7de8 eebc
000000c0: a0e8 29bc 9bd1 503c bd3d 21bd 4ca8 ea3c
000000d0: 6f2b 0f3d bc53 18bc a948 dbbc 2811 783c
000000e0: 0e00 6739 54bc 053d 7cfd ab3c be8f 4d3d
000000f0: 09c9 54bd 1357 c03c 04b3 dabc b0c0 06bd
00000100: d7d8 23bc d8dd 20bd 49ae fb3b f663 cbbc
00000110: a6ab 4bbc 9286 db3c dad4 c53c 973d 893c
00000120: 7f04 63bc 5f87 0e3d 7765 163d b892 ec3c
00000130: 4d15 033c 671e 20bd cfb7 d33c 4fe6 d13c
00000140: d94e 2bbc 418e 35bd 5c67 eb3c 9675 883b
00000150: eb7d ba3b 3f67 50bc b0e8 503c bf9c 15bd
00000160: e4fd cd3a 5e95 c33c c764 4b3d b2ab fd3c
00000170: a7b0 3c3a e263 cfbc d62d 933c c094 99bc
00000180: 4890 443d fc71 ac3d fc43 923d b6d9 01bd
00000190: 72fa babc abc4 303c d0db 16bb 8005 cbba
000001a0: 0402 ad3b 6a56 84bc fce5 5bbc b0a8 203d
000001b0: ddd9 b7bc 79a8 e7bc 6122 e53c da41 28bd
000001c0: 3153 033d e809 2cbd 6041 e03c 2c19 97bc
000001d0: 2ee1 22bc faf6 f03a 8076 9c3c 51e7 b6bc
000001e0: 4b7e a3bc 1f75 7e3c 3f99 f4bc 6b42 d33a
000001f0: ee12 57bc e1ec 673c aeb1 793c 15d9 c5bc
00000200: 609b bd3c cfed 75bc 2249 6b3b 7e09 dabc
00000210: 6de5 2d3d a7aa 963c 5317 153d e01e d1bc
00000220: be74 323c d6f7 ae3c 8966 753c ac72 0abb
00000230: ef79 49bc 1bf9 efbc 9c16 a9bc 1f8e 263d
00000240: e9e2 6abc 4baa 763a 641b f9bc 4dc9 3ebc
00000250: 4e50 dbbc 2b2c 253c f4e1 1d3c e2a9 ebbc
00000260: 00c9 92bc 4d20 ebbc 8cfd d0bc 0b8a fe3c
00000270: 6d30 083b acee 5ebc 0977 25bd 32f2 923c
00000280: 73f6 e83b c97b 96bc 99c5 f1bb 6362 ab3c
00000290: d9fb aebc 2955 693c e564 f2bb d7ae aabc
000002a0: bf6d 36bd 0547 96bc cc5e 0ebd b6f9 573b
000002b0: f002 8ebc 05a5 eb3c 16de 463d 1736 383d
000002c0: a4bd 0c3d a0cb 283b d652 673b d123 133d
000002d0: 1011 38bc 90e1 d83c bb64 553c e7a6 b3bc
000002e0: b6fe 3d3d 03e2 8e3b 838c 87bd bb84 463d
000002f0: 8dcd 32bd 7079 91bb c240 713c 0717 56bb
00000300: 7d7e 19ba 1ddc e9bc 2f2f 85bc 1df1 d33c
00000310: 3852 23bc 61c0 4dbc fa32 edbc 6b33 0fbc
00000320: 7687 913b 654f 12bd b539 f03b 05ce 17bc
00000330: ce27 e53b e729 fb3c cb37 143d 4ea3 eebb
00000340: e28c 153d b8d5 1d3d e938 07bd d93f 7b3c
00000350: 380e 703c b2d8 2b3d 18eb 1d3b 0a64 713c
00000360: e35c 1abc 0e7f fb3c cc4e 893c 45a5 813c
00000370: 7719 673b 994c 3fbb 44db 29bd 875e 103d
00000380: 859e bfbc 83f6 96bc cfce 33bc 8a29 dbb9
00000390: b5d2 553b 4975 e0bc 7ed6 043d dc9e dbbc
000003a0: 54ab 1c3d 6bb3 b5bb 8c91 e93c fda9 25bd
000003b0: 0973 fb3c ff7a b23c effd 423c 8821 0cbd
000003c0: bef2 ddbc fd92 33bd 1345 1fbd 9fda 8cbc
000003d0: 023f 62bd 9209 01bd aa21 e53c 2833 a33b
000003e0: fdb3 8d3a 2a13 023d 056c d6bb 3e88 a5bc
000003f0: 227c b8b9 9e82 16bc 401c 1c3d 541b 01bd

bias f4 [64]
0.035180535 0.036984615 0.11302707 -0.013095324 -0.033643533 0.014210129 -0.024621513 0.030164236
0.02175739 -0.0065928157 0.020090021 0.050463542 0.049528185 0.012549035 -0.051653054 0.10919139
0.048883263 0.05910218 -0.016614057 0.04179488 0.027568713 0.02884473 0.022234958 -0.009510272
-0.040059112 -0.02566734 0.073185034 0.029835833 0.02649805 0.13013962 -0.01800948 0.021454312
-0.014070194 0.051664595 0.01704029 0.037243377 0.034265388 0.026164807 0.011656884 -0.0095203
0.027569741 0.05974342 0.03291966 0.05424888 -0.029602027 0.026220785 0.010131794 0.06044029
0.15880162 0.04212727 0.009725734 0.032580324 0.066928096 0.048060358 -0.014788197 -0.0022623893
0.017197955 0.04442678 0.013582956 0.001265303 0.019386938 -0.03338261 -0.0045183157 0.022095842
00000000: 7719 103d 2e7d 173d bd7a e73d c58d 56bc
00000010: cdcd 09bd 9ad1 683c 0eb3 c9bc fd1a f73c
00000020: 8e3c b23c 8c08 d8bb d493 a43c dcb2 4e3d
00000030: 11de 4a3d 789a 4d3c 2792 53bd bc9f df3d
00000040: d139 483d 2115 723d 341a 88bc 1c31 2b3d
00000050: c8d7 e13c c94b ec3c 1626 b63c f9d0 1bbc
00000060: 0615 24bd 5044 d2bc 09e2 953d 476a f43c
00000070: 7012 d93c 5243 053e 9e88 93bc f4c0 af3c
00000080: ac86 66bc 419e 533d 1498 8b3c 838c 183d
00000090: dd59 0c3d 9457 d63c 84fc 3e3c 08fb 1bbc
000000a0: f0d9 e13c 84b5 743d c4d6 063d 1334 5e3d
000000b0: f37f f2bc f9cc d63c d3ff 253c 3d90 773d
000000c0: e49c 223e a58d 2c3d af58 1f3c f272 053d
000000d0: 9911 893d f0da 443d 324a 72bc 9844 14bb
000000e0: bae2 8c3c dbf8 353d 0c8b 5e3c 86d8 a53a
000000f0: 5bd1 9e3c 34bc 08bd 610e 94bb 5702 b53c

weight f4 [64, 32, 3, 3]
-0.01427389 0.0404924 0.020017251 -0.01882104 0.054493822 -0.054182094 0.04705443 -0.05166941
-0.04734108 0.002844819 0.00881982 0.03250965 0.04068803 0.014574008 -0.031480465 -0.02413001
0.021500558 0.0070257015 -0.05492417 0.0038155771 0.0527017 0.03977293 -0.055229846 0.03163034
0.055266857 -0.036674596 -0.0056713354 -0.008952635 0.036358498 -0.0076405555 0.030910898 0.04903039
-0.038919996 -0.048618622 0.016247446 0.007610078 0.0055661956 -0.057469666 -0.03187299 -0.044218913
-0.02730146 0.03172077 -0.015925562 0.041268602 -0.0034528524 0.015139052 0.020481402 0.041043784
-0.05800177 -0.022384807 0.053335596 0.024697695 0.010830529 0.017523767 -0.019004408 -0.03207767
0.043329578 -0.006740703 -0.037939996 -0.0051713972 -0.05286795 0.046493296 -0.009449136 -0.034136456
-0.03791176 0.042020943 0.0019394687 -0.0024033424 0.042558722 -0.00998439 -0.058182478 -0.008986766
0.0019908764 -0.024056403 -0.035926048 0.03806469 0.04916794 0.005999968 -0.052754607 -0.022330564
-0.03258171 -0.01685301 -0.042024795 0.0096554095 0.042375773 0.04163597 0.047807675 -0.046808854
-0.020461429 -0.011094587 -0.04590432 -0.017346863 -0.058924988 0.026087247 0.0041665845 0.01570162
-0.056628216 0.003045612 0.013456254 0.006874068 -0.011373092 0.035089497 -0.015393775 -0.03984178
0.024558898 0.031132123 0.0057518557 -0.052805524 0.035805244 -0.029098155 -0.036639445 0.0012625798
-0.047285184 -0.03297148 -0.025227157 -0.054626092 -0.015644826 -0.07087603 -0.033201426 -0.060288373
-0.025139468 0.052649077 0.039358012 0.013217848 0.010223362 0.022517929 0.054659266 0.0053500086
-0.014894007 -0.025304288 -0.0071003833 -0.045860384 0.03425593 -0.014871168 -0.0025483298 0.03357197
-0.03692746 -0.003502608 -0.009063089 -0.03799674 -0.02860304 -0.03136354 0.04633308 0.049913693
-8.059449e-05 0.01801806 -0.0063977633 -0.0010338104 0.0043627163 0.03678921 0.039398465 0.050814617
0.00029916732 -0.025946295 0.032908693 -0.014537898 0.033126075 0.017970994 -0.028112564 0.028075734
-0.027138969 -0.01966343 0.049834594 -0.032124437 -0.017345566 0.057801154 -0.031949945 -0.0003986923
0.0037729044 0.044647742 -0.038236577 -0.095169924 -0.066129275 -0.018415637 0.008521252 0.03994037
-0.010264169 0.016049147 0.078198396 0.022219857 -0.0027355934 -0.015577908 0.027115215 -0.004882366
0.034557436 0.037679184 0.02648735 -0.042649742 0.03383937 -0.016074564 0.008428633 0.03265945
-0.002078845 -0.031543374 -0.00057581114 0.013051781 0.056385085 -0.056291085 0.040259633 -0.05326523
0.037810296 -0.04349976 0.025499286 -0.007331005 0.043797817 -0.012703121 -0.044122472 0.03848647
-0.02253008 -0.031187067 0.01653888 0.020057954 0.039762765 0.015520631 -0.024963764 -0.018520601
-0.009416128 0.0073376326 -0.040423676 0.041158814 0.015753144 -0.05599492 -0.051042363 0.017699828
-0.019374449 0.011792195 0.01773412 0.017185282 -0.035364863 0.054446064 -0.04178727 -0.010525982
0.0436901 -0.027490458 -0.023753852 -0.05711925 -0.0089425165 -0.013456381 -0.015291428 -0.051640507
-0.014743152 0.038701918 -0.01916472 -0.023118163 -0.059756618 -0.036081146 -0.050141137 -0.0390902
0.04763518 0.010235652 -0.02532612 0.025702477 -0.04678144 -0.043880578 -0.060642865 -0.043980055
00000000: 09dd 69bc 5cdb 253d 38fb a33c 952e 9abc
00000010: ea34 5f3d 0bee 5dbd 25bc 403d 4ea3 53bd
00000020: b8e8 41bd 2570 3a3b 0281 103c d728 053d
00000030: 7ea8 263d d2c7 6e3c a9f1 00bd 4cac c5bc
00000040: f021 b03c db37 e63b 2bf8 60bd c30e 7a3b
00000050: bddd 573d f1e8 223d b138 62bd d18e 013d
00000060: 805f 623d 1a38 16bd 9cd6 b9bb 13ae 12bc
00000070: a6ec 143d a05d fabb da38 fd3c 17d4 483d
00000080: 936a 1fbd 5224 47bd 5d19 853c f65d f93b
00000090: a264 b63b 5065 6bbd 418d 02bd e41e 35bd
000000a0: 50a7 dfbc a3ed 013d 5376 82bc 4409 293d
000000b0: 4049 62bb c909 783c 9dc8 a73c 871d 283d
000000c0: 4493 6dbd 5860 b7bc 6d76 5a3d d252 ca3c
000000d0: 8872 313c 018e 8f3c 22af 9bbc e063 03bd
000000e0: 5b7a 313d 1de1 dcbb f866 1bbd d374 a9bb
000000f0: 108c 58bd c16f 3e3d 8dd0 1abc abd2 0bbd
00000100: 5d49 1bbd 271e 2c3d c535 fe3a 6581 1dbb
00000110: 0e52 2e3d 9195 23bc c050 6ebd 3b3d 13bc
00000120: 5d79 023b ef11 c5bc 3127 13bd b8e9 1b3d
00000130: 5264 493d 619b c43b 3715 58bd 96ee b6bc
00000140: 6674 05bd 530f 8abc 3122 2cbd b931 1e3c
00000150: 3892 2d3d 7b8a 2a3d fbd1 433d a4ba 3fbd
00000160: ba9e a7bc 12c6 35bc 2b06 3cbd 021b 8ebc
00000170: 545b 71bd ecb4 d53c d887 883b afa0 803c
00000180: fdf2 67bd e498 473b 9f77 5c3c dd3f e13b
00000190: 3556 3abc 01ba 0f3d 2c36 7cbc 2231 23bd
000001a0: be2f c93c cb08 ff3c 107a bc3b 9b4a 58bd
000001b0: 85a8 123d 415f eebc 3e13 16bd 267d a53a
000001c0: 1cae 41bd 1a0d 07bd 2fa9 cebc 9cbf 5fbd
000001d0: 9429 80bc 7427 91bd 38fe 07bd f1f0 76bd
000001e0: 49f1 cdbc 8fa6 573d de35 213d ac8f 583c
000001f0: e37f 273c 8577 b83c 65e2 5f3d 204f af3b
00000200: fe05 74bc f04a cfbc 55aa e8bb 19d8 3bbd
00000210: f24f 0c3d 33a6 73bc e101 27bb c382 093d
00000220: 4041 17bd 038c 65bb 5a7d 14bc 78a2 1bbd
00000230: ec50 eabc 0e77 00bd c1c7 3d3d 4d72 4c3d
00000240: d604 a9b8 9c9a 933c 54a4 d1bb ec80 87ba
00000250: 1ef5 8e3b 48b0 163d 4960 213d fd22 503d
00000260: 8fd9 9c39 538d d4bc 44cb 063d 5d30 6ebc
00000270: 35af 073d e837 933c 524c e6bc 15ff e53c
00000280: 8b52 debc 3415 a1bc 5c1f 4c3d ea94 03bd
00000290: 4a18 8ebc e7c0 6c3d f2dd 02bd 9307 d1b9
000002a0: d542 773b 8de0 363d f59d 1cbd 73e8 c2bd
000002b0: c96e 87bd 64dc 96bc b99c 0b3c 8398 233d
000002c0: 0c2b 28bc 8079 833c 7b26 a03d 6b06 b63c
000002d0: a447 33bb 7b3a 7fbc ba20 de3c 41fc 9fbb
000002e0: 198c 0d3d 7d55 1a3d 00fc d83c 7fb1 2ebd
000002f0: 279b 0a3d ceae 83bc 4018 0a3c eac5 053d
00000300: 3b3d 08bb a033 01bd 08f2 16ba 23d7 553c
00000310: 0cf4 663d 7b91 66bd 49e7 243d a42c 5abd
00000320: f8de 1a3d ce2c 32bd e1e3 d03c ed38 f0bb
00000330: 5765 333d c020 50bc c4b9 34bd fda3 1d3d
00000340: 0191 b8bc 057c ffbc 8c7c 873c 9450 a43c
00000350: 48de 223d 3f4a 7e3c cf80 ccbc 84b8 97bc
00000360: 1a46 1abc 8670 f03b 4c93 25bd 2596 283d
00000370: bd0c 813c ee5a 65bd cc11 51bd 3bff 903c
00000380: 2ab7 9ebc 0d34 413c 2547 913c 26c8 8c3c
00000390: bfda 10bd d602 5f3d 2129 2bbd 2b75 2cbc
000003a0: 64f4 323d ab33 e1bc 7097 c2bc e0f5 69bd
000003b0: a283 12bc 2778 5cbc e688 7abc ff84 53bd
000003c0: 438d 71bc e785 1e3d 55ff 9cbc 4d62 bdbc
000003d0: 5bc3 74bd d3c9 13bd cb60 4dbd 0c1d 20bd
000003e0: 1b1d 433d 70b3 273c b978 cfbc 008e d23c
000003f0: e59d 3fbd 1fbc 33bd a764 78bd 6e24 34bd

bias f4 [32]
-0.047231272 0.056878917 0.028748132 -0.038750924 0.048046637 0.0064704237 -0.037057504 -0.053390417
-0.012834731 0.024008997 0.048827037 0.05654147 -0.055522513 0.0924981 0.026495103 -0.0029616118
-0.031347945 -0.020185065 0.008055764 0.024616016 -0.07002288 0.0057330127 -0.0002005579 -0.011683803
0.031249924 -0.014215896 0.01196483 -0.018602805 -0.050808635 0.056438815 -0.019664682 -0.05844139
00000000: 9475 41bd def9 683d 3481 eb3c 4ab9 1ebd
00000010: 8dcc 443d d905 d43b 9cc9 17bd e9af 5abd
00000020: c348 52bc 84ae c43c dcfe 473d 0798 673d
00000030: 936b 63bd a56f bd3d 420c d93c 9a17 42bb
00000040: b466 00bd 265b a5bc 53fc 033c 87a7 c93c
00000050: 2868 8fbd ffdb bb3b da4c 52b9 6c6d 3fbc
00000060: d7ff ff3c cae9 68bc 2208 443c e964 98bc
00000070: b71c 50bd 632c 673d d417 a1bc 3d60 6fbd

weight f4 [32, 1, 3, 3]
-0.043673474 0.30573013 -0.18994687 -0.15896466 -0.044655107 -0.27593863 0.11829985 0.04457723
-0.06820639 0.092743166 -0.006023192 0.1911912 -0.16716878 -0.013327161 0.17633088 0.20452549
0.002904746 -0.16100395 -0.23866029 -0.0214989 0.08247986 0.2306197 -0.11476162 0.30651572
0.06473424 0.17686698 -0.14758018 0.07695457 -0.23379564 -0.05711872 -0.21520689 -0.17018543
0.18632236 -0.1570054 0.26132843 -0.20803705 -0.19305357 -0.17480193 0.26310766 0.23126607
0.27477068 -0.048428986 0.20237271 -0.20824625 -0.004741492 -0.0957347 0.25274727 -0.23607795
0.25910234 0.26721555 0.029749911 0.23318055 0.023221746 -0.2694853 -0.2931999 -0.0833863
-0.3206341 -0.17610891 -0.028657028 0.3186282 -0.07308341 0.32603028 -0.05535231 0.13314179
-0.1367759 -0.21139973 -0.21499994 0.118575975 -0.20732449 -0.108490355 -0.0917526 0.23578712
-0.18670537 -0.24114974 -0.2708458 0.3192331 0.0030587893 0.018496137 -0.06954667 -0.14374746
-0.26568118 0.0383607 0.30703393 0.07029459 -0.11239877 0.002830156 0.31944063 0.17733337
-0.017596882 -0.15665239 0.2312583 -0.2091678 -0.04334201 0.04570625 0.12613161 -0.24097185
0.0048498046 -0.21886231 -0.29194373 -0.18897541 0.3215038 0.24956605 -0.23022349 0.20231666
0.27608898 -0.25826535 -0.058989562 -0.26091897 0.2684511 -0.20034572 -0.23816128 0.030892134
-0.14008492 -0.23855163 -0.26025212 -0.2496609 -0.26058915 0.13170163 0.073795445 0.32595313
0.22365065 -0.15101328 0.1443282 0.30937093 -0.21022333 0.21069095 -0.04412975 0.22853713
-0.00040935242 0.27837366 0.27678335 -0.22934477 0.08719323 -0.09917616 -0.23123571 0.14978543
0.32829848 0.120493576 0.036482796 0.26088005 0.06636064 0.17241922 0.27331904 0.20263755
0.01935894 0.18389487 0.05236983 0.31145993 0.2149202 -0.045712102 -0.14836259 -0.22841886
0.27572265 0.032628626 0.14995585 -0.076139756 -0.06892884 0.25035596 0.060095422 -0.10547559
-0.20123403 -0.29214934 0.051107515 0.15265778 -0.07953845 0.31821004 -0.24976544 -0.19863988
0.1650028 0.01289992 0.04862321 -0.02316509 -0.05564836 0.13212638 0.17657945 0.3215287
0.17317207 -0.002711331 -0.14405929 -0.05865735 -0.12444532 -0.18297406 -0.1931237 -0.04350118
0.053130478 -0.16650799 0.30041015 0.13192326 -0.11476306 -0.16861004 -0.3005821 0.22297244
0.035431735 -0.2597918 0.21881247 -0.23453705 -0.16606225 0.10000989 -0.2927734 -0.2965291
0.017346617 -0.24797487 0.30942369 0.29191536 0.06366531 -0.2601966 0.15495445 -0.21000595
-0.19202286 0.13392045 0.1462552 -0.2717737 0.07228121 0.2354319 -0.004921803 0.1382219
0.29038194 0.31439915 -0.22346522 -0.30871475 0.22904731 0.123956025 -0.27843073 0.14124142
0.08062478 0.053034857 -0.06422679 0.15989916 -0.25960532 -0.17524199 0.19261165 -0.20400289
-0.10851338 -0.012518901 -0.28965935 0.13779938 -0.32305503 0.21113427 -0.22676913 0.04770292
-0.11298439 -0.2183109 -0.0027741208 0.17505258 0.09848313 -0.31473973 0.004110553 -0.29556927
-0.24619555 -0.31704536 -0.13944022 0.31616974 -0.24561086 -0.29170275 -0.07312473 -0.09310492
00000000: f5e2 32bd a988 9c3e 6f81 42be a2c7 22be
00000010: 46e8 36bd d447 8dbe 3147 f23d 9d96 363d
00000020: cbaf 8bbd 21f0 bd3d 325e c5bb a0c7 433e
00000030: 4b2e 2bbe 2a5a 5abc 1590 343e 216f 513e
00000040: 8d5d 3e3b 38de 24be 5d63 74be 761e b0bc
00000050: 33eb a83d 9227 6c3e 2408 ebbd a1ef 9c3e
00000060: 6393 843d 9e1c 353e 421f 17be 5c9a 9d3d
00000070: 2068 6fbe 52f5 69bd 325f 5cbe 1745 2ebe
00000080: 4acb 3e3e 06c6 20be d7cc 853e aa07 55be
00000090: d6af 45be 47ff 32be 0cb6 863e 03d1 6c3e
000000a0: beae 8c3e 795d 46bd cb3a 4f3e 813e 55be
000000b0: 855e 9bbb 8e10 c4bd 1768 813e 6bbe 71be
000000c0: 10a9 843e 7ad0 883e 16b6 f33c e2c6 6e3e
000000d0: 883b be3c faf9 89be 4c1e 96be 70c6 aabd
000000e0: 272a a4be e555 34be 25c2 eabc 3c23 a33e
000000f0: c1ac 95bd 71ed a63e 1bb9 62bd 5256 083e
00000100: fb0e 0cbe 2c79 58be f228 5cbe f6d7 f23d
00000110: df4c 54be 3130 debd cae8 bbbd 2e72 713e
00000120: b12f 3fbe f5ef 76be 4dac 8abe 8572 a33e
00000130: f875 483b 3685 973c 7c6e 8ebd 8932 13be
00000140: 5d07 88be 1c20 1d3d 8d33 9d3e 9cf6 8f3d
00000150: 5431 e6bd 237a 393b b98d a33e e196 353e
00000160: 5627 90bc 7c69 20be face 6c3e 1530 56be
00000170: 6487 31bd 7a36 3b3d a528 013e 53c1 76be
00000180: 1ceb 9e3b 711d 60be a679 95be c582 41be
00000190: 259c a43e 3e8e 7f3e b5bf 6bbe 192c 4f3e
000001a0: 895b 8d3e 5b3b 84be 0a9f 71bd 2c97 85be
000001b0: 6c72 893e 6e27 4dbe 8de0 73be 8011 fd3c
000001c0: 6c72 0fbe e146 74be c43f 85be 1ba7 7fbe
000001d0: f16b 85be cbdc 063e 1122 973d 54e3 a63e
000001e0: ad04 653e 3aa3 1abe c6ca 133e de65 9e3e
000001f0: c944 57be 5ebf 573e 66c1 34bd a305 6a3e
00000200: 5a9e d6b9 fe86 8e3e 8cb6 8d3e 5bd9 6abe
00000210: 5d92 b23d df1c cbbd 0ec9 6cbe 5a61 193e
00000220: bd16 a83e 56c5 f63d fc6e 153d 1292 853e
00000230: 16e8 873d aa8e 303e 79f0 8b3e 3880 4f3e
00000240: a496 9e3c f04e 3c3e bf81 563d ad77 9f3e
00000250: 0a14 5c3e 9d3c 3bbd 5dec 17be a2e6 69be
00000260: 852b 8d3e 98a5 053d 078e 193e 29ef 9bbd
00000270: 902a 8dbd a82e 803e 9e26 763d 9603 d8bd
00000280: 4b10 4ebe 9994 95be 1d56 513d 5252 1c3e
00000290: 0ee5 a2bd 6dec a23e 83c2 7fbe 4168 4bbe
000002a0: 7ef6 283e 305a 533c 2229 473d b7c4 bdbc
000002b0: 89ef 63bd 234c 073e 3ed1 343e 699f a43e
000002c0: 0554 313e 96b0 31bb 4784 13be b042 70bd
000002d0: 30dd febd 8d5d 3bbe 38c2 45be 4b2e 32bd
000002e0: 589f 593d 1281 2abe 5ccf 993e e416 073e
000002f0: e508 ebbd 1ca8 2cbe e6e5 99be e352 643e
00000300: de20 113d 6e03 85be 6010 603e 7b2a 70be
00000310: 390c 2abe fcd1 cc3d 65e6 95be aad2 97be
00000320: 7e1a 8e3c 20ed 7dbe c86c 9e3e ee75 953e
00000330: f562 823d 7d38 85be 61ac 1e3e cd0b 57be
00000340: a4a1 44be 7122 093e ecc3 153e ec25 8bbe
00000350: 2c08 943d 0f15 713e 1347 a1bb 0b8a 0d3e
00000360: f1ac 943e edf8 a03e 11d4 64be dc0f 9ebe
00000370: 618b 6a3e a8dc fd3d 798e 8ebe 97a1 103e
00000380: 9b1e a53d 143b 593d 5689 83bd 9bbc 233e
00000390: fdea 84be a372 33be fd3b 453e 22e6 50be
000003a0: 433c debd 141c 4dbc 3b4e 94be 481b 0d3e
000003b0: 7867 a5be 9533 583e 2b36 68be 2364 433d
000003c0: 5c64 e7bd e48c 5fbe 06ce 35bb fc40 333e
000003d0: 86b1 c93d 9125 a1be d1b1 863b db54 97be
000003e0: b01a 7cbe c553 a2be 6bc9 0ebe 00e1 a13e
000003f0: 6a81 7bbe 105a 95be 6bc2 95bd cbad bebd
