models/30.pt (torch, 837106 bytes, 17 tensors)

weight f4 [32, 1, 3, 3]
0	0xbd65a383	-0.05606414
1	0x3c510555	0.012757619
2	0x3da81645	0.082073726
3	0xbe8472c6	-0.25868815
4	0x3e3a1533	0.1817215
5	0xbe5553ca	-0.20832744
6	0x3e88b595	0.26701036
7	0xbe729d50	-0.23692822
8	0xbe7b58c1	-0.24545576
9	0x3d029d5b	0.031888347
10	0x3e31f269	0.17377628
11	0xbdc5dfe4	-0.096618444
12	0xbe0a38cf	-0.13498233
13	0x3e1202dd	0.14258905
14	0x3dd4538f	0.103675
15	0x3e8c6c12	0.274262
16	0xbdb220d3	-0.08697667
17	0xbe71f4b5	-0.23628505
18	0xbe459871	-0.19296433
19	0x3dca6fc6	0.098846
20	0xbe9b981d	-0.3038949
21	0x3e0c467a	0.1369876
22	0x3e4a7835	0.19772418
23	0x3e74d34c	0.23908728
24	0x3df4d40f	0.119545095
25	0xbdebd4be	-0.11515187
26	0xbe1e197b	-0.15439408
27	0xbe3cdc03	-0.18443303
28	0x3ea50fb2	0.32238537
29	0xbd647787	-0.055778053
30	0xbdb6d302	-0.08926965
31	0xbdcc3736	-0.09971468
32	0x3e84d7e3	0.25945958
33	0x3e7a00e0	0.24414396
34	0xbd1a1cdd	-0.037625182
35	0x3e42d076	0.19024834
36	0x3ea61bb9	0.32443026
37	0xbdd4c0b8	-0.10388321
38	0xbdd1c4e0	-0.10242629
39	0x3e99109c	0.29895484
40	0x3e2dd22d	0.16974707
41	0xbda15de1	-0.07879234
42	0x3e981f71	0.29711488
43	0x3e0f0479	0.1396655
44	0x3cd83aa1	0.026395144
45	0x3e9df1de	0.30848593
46	0x3e96814d	0.29395524
47	0xbe162505	-0.1466256
48	0x3d8b83d7	0.06812256
49	0xbdfceaa7	-0.12349444
50	0x3e45a6fa	0.19301978
51	0xbe0c6ca0	-0.13713312
52	0xbe649468	-0.22322237
53	0x3e5dd100	0.21661758
54	0xbdff5bfd	-0.12468717
55	0x3c5e96b4	0.013585735
56	0x3e985fdc	0.29760635
57	0xbe7356e2	-0.23763612
58	0xbda12bac	-0.07869658
59	0x3ddc89d2	0.10768475
60	0x3e0d426c	0.13794869
61	0xbeac4eb1	-0.33653787
62	0x3d462c05	0.048381824
63	0x3dc748e6	0.09730701
64	0x3e03749b	0.1283745
65	0x3e593b38	0.21213996
66	0xbe22831c	-0.15870327
67	0x3ea86665	0.3289062
68	0x3d9b64ee	0.0758761
69	0xbdbfd686	-0.09367089
70	0x3d959d6d	0.07305417
71	0xbe364d56	-0.17802939
72	0xbe43d71d	-0.19125028
73	0xbe5585ea	-0.20851865
74	0xbe1df9b8	-0.15427291
75	0x3e469ebf	0.19396494
76	0xbdc26186	-0.09491257
77	0xbe7c24fa	-0.2462348
78	0x3e813bac	0.2524084
79	0xbe8e358d	-0.2777523
80	0x3c3316a5	0.010930692
81	0x3e8b3499	0.27188566
82	0x3e4fe4a5	0.20302065
83	0xbe3b8166	-0.1831108
84	0x3e9c2a05	0.30500808
85	0x3e71a89d	0.23599477
86	0x3ea87d76	0.3290822
87	0xbe020e51	-0.12700774
88	0xbc0c2b16	-0.008555194
89	0xbe9374a2	-0.2879992
90	0xbeabda31	-0.33564904
91	0x3dca70de	0.09884809
92	0x3cb2e29e	0.021836575
93	0x3e1ed5b4	0.15511209
94	0xbe04344c	-0.12910575
95	0x3e0c06f5	0.13674529
96	0x3e976c76	0.29574937
97	0xbea5b9c5	-0.32368293
98	0x3e6d7124	0.23187691
99	0x3da43fa2	0.080199495
100	0xbd206181	-0.039155487
101	0x3e196a07	0.14981852
102	0x3e8f4e16	0.27989262
103	0xbe7fefee	-0.2499387
104	0xbe8d2412	-0.27566582
105	0xbd75e51f	-0.06003296
106	0xbdd0c9f1	-0.10194767
107	0x3e0d0bfb	0.13774101
108	0x3d3268d7	0.043557014
109	0xbe2fdd2e	-0.17174217
110	0xbe7553bd	-0.23957725
111	0x3e495832	0.1966255
112	0xbe62b2a7	-0.22138463
113	0x3d047313	0.032336306
114	0x3e15a337	0.14613043
115	0xbe6cf60d	-0.23140736
116	0xbe86daed	-0.26338902
117	0x3e9ba48b	0.30398974
118	0x3e70e712	0.23525646
119	0xbda54514	-0.08069816
120	0xbe6b90d1	-0.23004462
121	0xbe992d98	-0.29917598
122	0xbe5f267e	-0.21792027
123	0x3e7e321b	0.24823801
124	0xbe694cc3	-0.22783189
125	0xbe51d534	-0.20491487
126	0xbe808007	-0.25097677
127	0x3e5baebf	0.21453379
128	0xbe8e6bf5	-0.2781674
129	0x3e800357	0.25002548
130	0xbe5062a5	-0.2035013
131	0x3e8f4664	0.2798339
132	0xbe851b19	-0.25997236
133	0x3e3bd24c	0.1834194
134	0xbe6445cb	-0.22292249
135	0xbda2d354	-0.07950464
136	0x3e909438	0.28238082
137	0xbc6d56a9	-0.014485993
138	0x3e8b2eca	0.27184135
139	0xbe6fbec4	-0.23412615
140	0xbeb97bfe	-0.3622741
141	0xbc427bba	-0.011870319
142	0x3e86a0d6	0.26294583
143	0xbdcdc6ce	-0.100476846
144	0xbe97fe7d	-0.29686347
145	0x3e38c6a2	0.18044522
146	0x3ccf1e84	0.025283106
147	0xbc29c85d	-0.010362712
148	0xbe2836d2	-0.16427162
149	0xbe9e4421	-0.30911353
150	0x3e97a4fe	0.29618067
151	0x3d6c8bd8	0.057750553
152	0x3d07e9d0	0.033181965
153	0x3e9a1c1f	0.3009958
154	0xbe827093	-0.25476512
155	0xbe7de649	-0.24794878
156	0x3d91690f	0.071001165
157	0x3ddf0200	0.10889053
158	0x3d6ef045	0.058334608
159	0xbe35999e	-0.17734382
160	0x3e6f3f6f	0.23364042
161	0x3e9a2f05	0.30113998
162	0x3dc838de	0.097764716
163	0x3e9d95f5	0.3077847
164	0x3a340afb	0.00068680913
165	0x3dd95db7	0.10613578
166	0x3e6275c2	0.22115234
167	0xbe0a1408	-0.13484204
168	0x3e819844	0.25311482
169	0x3e5b2c81	0.21403696
170	0xbdb057e1	-0.086105116
171	0xbdf67115	-0.120332874
172	0xbe17759b	-0.14790957
173	0xbe28693d	-0.16446395
174	0x3ea9a0c4	0.33130467
175	0xbdf5da78	-0.1200456
176	0x3e37fc37	0.17967306
177	0xbe9c0a72	-0.3047672
178	0xbdc358f7	-0.09538453
179	0x3ce676c2	0.0281328
180	0xbe00c2a4	-0.1257425
181	0xbe6c6b1f	-0.23087738
182	0xbd1ac1fc	-0.037782654
183	0x3e907c04	0.28219616
184	0x3e51327a	0.20429412
185	0x3e97dc58	0.29660296
186	0xbe5d5db0	-0.2161777
187	0x3dbfde17	0.09368532
188	0x3dd017f1	0.101608165
189	0x3e22b289	0.15888418
190	0x3e214c8e	0.1575186
191	0xbe64520f	-0.22296928
192	0xbdc0a1e5	-0.09405879
193	0x3e62fcd1	0.22166754
194	0xbd8d2514	-0.06891838
195	0xbd7fc314	-0.0624419
196	0x3e0a8c96	0.13530192
197	0xbd03083b	-0.03199027
198	0x3d3fdcf4	0.046841577
199	0xbea4cd70	-0.32187986
200	0xbdd45222	-0.10367228
201	0x3e08b952	0.13351944
202	0xbde2a091	-0.11065782
203	0x3da55762	0.080733076
204	0x3e9218b1	0.28534463
205	0x3e5f8572	0.21828249
206	0x3e959f01	0.29222873
207	0x3e26704d	0.16253777
208	0xbd862450	-0.06549895
209	0xbe17eeb5	-0.14837153
210	0xbe6e7436	-0.23286518
211	0x3dc86e41	0.09786654
212	0xbeac69ef	-0.3367457
213	0x3e50e6a7	0.20400487
214	0x3dc05a99	0.0939228
215	0xbd9b42c1	-0.07581092
216	0x3dc96fff	0.09835815
217	0xbdc9642b	-0.09833559
218	0xbe176a3c	-0.14786619
219	0xbe9929d7	-0.29914734
220	0xbdc4068b	-0.095715605
221	0xbdd5333f	-0.10410165
222	0x3d0d92db	0.03456388
223	0x3e98b427	0.29824945
224	0xbe0932ea	-0.13398328
225	0x3e6caa13	0.23111753
226	0x3e06c382	0.13160518
227	0x3d06274f	0.03275233
228	0xbe883b39	-0.26607683
229	0xbe39ff83	-0.18163876
230	0x3e649bcc	0.22325057
231	0xbe9bd149	-0.3043311
232	0x3e47a749	0.19497408
233	0xbe3f0329	-0.18653549
234	0x3d8415ba	0.064494565
235	0x3e3b6967	0.18301927
236	0xbe720d06	-0.2363778
237	0x3e78d7f1	0.24301125
238	0x3e1c6d38	0.15276039
239	0xbe5534c6	-0.20820913
240	0x3a520af5	0.0008012497
241	0xbe778b5f	-0.2417426
242	0x3d353d16	0.04424771
243	0x3e5c214e	0.2149708
244	0x3e1372c8	0.14399254
245	0xbe7cbe56	-0.24681982
246	0xbd588049	-0.052856717
247	0xbe8a55a6	-0.2701847
248	0x3e4d011e	0.20019957
249	0xbdbc1b87	-0.09184938
250	0x3d956f66	0.07296638
251	0xbe5d4382	-0.21607783
252	0xbddeeb40	-0.10884714
253	0xbe6ccc9e	-0.2312493
254	0xbe95f9d6	-0.29292172
255	0x3e9f4136	0.3110444

bias f4 [32]
0	0x3d75b4e6	0.05998697
1	0x3dcc0a19	0.099628635
2	0x3db90764	0.09034613
3	0xbe967a62	-0.29390246
4	0x3ea330ed	0.31873265
5	0xbd4339eb	-0.047662657
6	0xbd601d29	-0.05471531
7	0x3e5c70a7	0.21527348
8	0x3ea58091	0.3232465
9	0xbcb858d3	-0.022503292
10	0xbe360e1a	-0.17778817
11	0x3e8ff2cc	0.28114927
12	0x3d84b88b	0.06480511
13	0x3e5e1137	0.21686254
14	0x3e099f69	0.13439716
15	0x3e76f3c8	0.24116433
16	0xbdc97160	-0.09836078
17	0xbd3c9ea2	-0.04604972
18	0xbd3350f3	-0.04377837
19	0x3e5ac1f0	0.21363044
20	0xbe7ec656	-0.24880347
21	0xbe0d7d99	-0.13817443
22	0x3d1f3fdd	0.038879264
23	0x3e10b6e6	0.1413227
24	0x3e21b2d6	0.15790877
25	0x3da4df6c	0.08050427
26	0x3d896e6e	0.06710516
27	0xbbb784b5	-0.0056005367
28	0xbe6d5363	-0.23176341
29	0xbdd3e97c	-0.10347268
30	0xbdbcea76	-0.092244074
31	0x3da8fa83	0.08250906

weight f4 [64, 32, 3, 3]
0	0x3d4e5769	0.05037633
1	0x3cd61c24	0.026136465
2	0xbd4e8f92	-0.050429888
3	0xbc1ff02b	-0.00976185
4	0x3b0b9902	0.0021300917
5	0x3c890127	0.016724182
6	0x3c29cc5b	0.010363664
7	0xbd053b89	-0.03252748
8	0x3d1a3ca1	0.037655476
9	0xbc32cc7b	-0.01091301
10	0xbbead66d	-0.007166675
11	0x3d82bcce	0.06383668
12	0x3d19a48b	0.037510436
13	0x3ad958b3	0.001658222
14	0xbd2f8225	-0.042848725
15	0x3d6ecc66	0.0583004
16	0x3cf19676	0.02949069
17	0x3c749b63	0.014929625
18	0xbc4d0d8e	-0.012515439
19	0xbadc9d63	-0.0016831573
20	0x3ceb46a9	0.028720217
21	0x3cf59b29	0.029981213
22	0x3c303a50	0.01075609
23	0xbd10fc4b	-0.035396855
24	0xbd2e0413	-0.042484354
25	0x3d31347a	0.043262936
26	0x3d1e1e08	0.03860286
27	0x3c215c5c	0.00984868
28	0xbccc21a9	-0.024918394
29	0xbd1da4b8	-0.038487166
30	0x3c7e6f42	0.015529456
31	0xbd436cca	-0.04771117
32	0xbbaba9c0	-0.0052387416
33	0xbc4ce43c	-0.012505587
34	0x3d6770af	0.056503948
35	0x3c9c77ce	0.019100096
36	0x3b453300	0.0030090213
37	0x3cd4f76f	0.025996892
38	0xbd5b3e21	-0.053526048
39	0xbd652e83	-0.05595256
40	0xbd563fe2	-0.052307017
41	0xbc4e245d	-0.012581912
42	0xbd4aa3b5	-0.04947253
43	0xbb95147b	-0.0045495606
44	0x3d1008d6	0.035164677
45	0xbbcee802	-0.0063142786
46	0x3c6485c5	0.013947909
47	0xbca775ac	-0.020441853
48	0x3beeaf18	0.0072840564
49	0x3d3e6d55	0.046490986
50	0x3d5d6760	0.054053664
51	0x3d369a79	0.04458091
52	0x3d54b037	0.051925864
53	0x3d81d6ac	0.063397735
54	0x3d51baa3	0.05120338
55	0xbd135db4	-0.035978034
56	0xbc9acac2	-0.01889551
57	0xbd016228	-0.03158775
58	0x3c6493d4	0.013951261
59	0xbce163b6	-0.027513366
60	0x3ccf0c59	0.025274443
61	0x3cd59733	0.026073074
62	0x3d1e6a10	0.038675368
63	0xbd610388	-0.05493501
64	0xbd201da8	-0.039090782
65	0xbc925b9e	-0.017865952
66	0xbce6bfeb	-0.028167685
67	0xbd31f594	-0.043447092
68	0x3cd79a3b	0.02631866
69	0x3cf5c5b9	0.030001508
70	0x3c8b0a65	0.01697273
71	0xbd3b49be	-0.045724623
72	0x3c93f1c2	0.018059615
73	0x3ce7fa4e	0.028317597
74	0xbdb9be96	-0.090695545
75	0x3ceda906	0.02901126
76	0xbce25664	-0.027629085
77	0xbdb4d24b	-0.08829173
78	0x3cc9f370	0.024652213
79	0xbd6561e4	-0.05600156
80	0xbdc9ed49	-0.09859712
81	0x3d578f49	0.05262688
82	0xbcafc756	-0.021457355
83	0x3c089e33	0.008338499
84	0x3d1899d2	0.03725607
85	0xbccade61	-0.024764242
86	0xbca83cba	-0.02053677
87	0xbd45ae3d	-0.04826187
88	0x3cd59d22	0.026075903
89	0xbd14f7dd	-0.036369193
90	0xbd1eecdc	-0.038800105
91	0xba4066d4	-0.00073395413
92	0x3c1ef97e	0.009703038
93	0xba59221a	-0.00082829746
94	0x3cfceccf	0.030874638
95	0xbd3af53e	-0.045644037
96	0xbc9c6ce8	-0.0190949
97	0x3c43dafc	0.011954065
98	0xbcacbee2	-0.021087114
99	0xbc769f8f	-0.01505269
100	0x3bc1388c	0.0058966335
101	0x3da7ab2c	0.08186945
102	0x3c3d0175	0.011535992
103	0x3d23c053	0.039978337
104	0x3db2a942	0.087236896
105	0x3d3b0355	0.045657475
106	0x3c6f8991	0.014620201
107	0x3d8c349e	0.068459734
108	0xbcc2ea04	-0.023793228
109	0x3d7a5217	0.061113443
110	0x3cc4806e	0.023987021
111	0xbd2c5a3c	-0.04207824
112	0xbd727b55	-0.05919965
113	0xbd758cee	-0.059948854
114	0x3c7d730f	0.015469327
115	0xbdb31b50	-0.08745444
116	0xbd8ec026	-0.06970243
117	0xbd555378	-0.052081555
118	0xba36e555	-0.0006976922
119	0xbd833595	-0.06406704
120	0x3c86dc1b	0.016462376
121	0x3d4c1fde	0.04983508
122	0xbc2eb3ca	-0.010662982
123	0x3a83de5f	0.0010060779
124	0x3c4ebc3b	0.01261812
125	0x3cd33523	0.025782173
126	0x3d3ea53c	0.0465443
127	0xbc5710bc	-0.013126548
128	0x3de90ce0	0.11379409
129	0x3d254f69	0.040358935
130	0xbc8f9fc8	-0.017532244
131	0x3da19449	0.07889611
132	0x3bd1ed34	0.0064064506
133	0x3db10a4d	0.08644543
134	0x3deca41b	0.11554738
135	0xbcf74029	-0.030181961
136	0x3c6263e0	0.013817757
137	0xbc897b42	-0.016782407
138	0x3b95f77b	0.004576621
139	0xbc81beb8	-0.015838012
140	0xbb91cafc	-0.0044492465
141	0xbcb68079	-0.022278057
142	0x3c42b278	0.011883371
143	0xbd27f94d	-0.041009236
144	0x3c48d67c	0.012258168
145	0x3c802067	0.01564045
146	0x3d857ba3	0.065177225
147	0x3d01f2f4	0.03172584
148	0x3bac8ebc	0.0052660387
149	0x3d2b5a93	0.041834425
150	0x3cfd1a4c	0.030896328
151	0x3d45aa31	0.04825801
152	0xbcedba5b	-0.029019525
153	0xbd421ded	-0.04739182
154	0xbcad039a	-0.021119881
155	0x3cc9b151	0.024620684
156	0xba9d4eec	-0.001200167
157	0xbc03c388	-0.008042224
158	0xbd42827c	-0.04748772
159	0xbc4c9bbc	-0.012488302
160	0x3d4dfc76	0.050289594
161	0xbb6d50e0	-0.0036211535
162	0xbd443485	-0.04790165
163	0x3d0f6313	0.035006594
164	0x3ccda912	0.025105033
165	0x3cb74610	0.022372276
166	0xbd2329de	-0.03983485
167	0xbca2cada	-0.019872118
168	0xbcaf7881	-0.021419765
169	0x3b676209	0.0035306236
170	0x3c688f89	0.014194378
171	0x3bc8c422	0.0061268965
172	0x3cbcb336	0.023034673
173	0x3d8f0f85	0.06985382
174	0x3ce2434e	0.027619984
175	0x3d561cef	0.052273687
176	0x3cc3c207	0.02389623
177	0x3cd14f9b	0.025550654
178	0x3d5f9897	0.05458888
179	0x3bc1be75	0.005912597
180	0xbd1cd37e	-0.038287632
181	0xbd10ec20	-0.035381436
182	0x3d8838b6	0.06651442
183	0xbbc2d12d	-0.005945346
184	0xbca13752	-0.0196797
185	0xbc2bc3d5	-0.010483702
186	0x3cbd87d4	0.023136057
187	0xbd658377	-0.056033578
188	0xbcff1096	-0.031135838
189	0x3c678252	0.014130192
190	0x3cd22dec	0.025656663
191	0xbca94067	-0.020660592
192	0xbd418cbd	-0.04725336
193	0xbd51f806	-0.051261924
194	0xbce054bc	-0.027384154
195	0x3ce3a7df	0.027790008
196	0xbd060d11	-0.032727305
197	0x3d570ebc	0.052504286
198	0x3d62b652	0.055349655
199	0xbd39a535	-0.04532357
200	0xbbf5db1e	-0.0075029274
201	0x3d1773c4	0.036975637
202	0x3d40568d	0.04695754
203	0x3cec76b9	0.028865205
204	0x3b03ec14	0.0020129727
205	0x3d69cf68	0.057082564
206	0xbd2eadad	-0.0426461
207	0x3d3a15ab	0.04543082
208	0xbc4e4870	-0.012590513
209	0xbd0bdb51	-0.034144703
210	0x3cf196c3	0.029490834
211	0x3cf1bd9e	0.029509362
212	0xbd0ec08e	-0.034851603
213	0xbb1cc193	-0.002391909
214	0x3d03f5ea	0.032216944
215	0x3d0a7500	0.033802986
216	0x3d2517c7	0.04030588
217	0xbd2dd47d	-0.042438973
218	0xbcc756ed	-0.024333442
219	0xbd345f23	-0.044036042
220	0xbbb97b17	-0.0056604254
221	0x3cc691f9	0.024239527
222	0x3da2496f	0.079241626
223	0xbb1838b6	-0.0023227162
224	0x3dbfa9c8	0.09358555
225	0x3d589844	0.052879587
226	0xbd15f24a	-0.036608018
227	0x3c8d553a	0.017252553
228	0xbd0e697d	-0.03476857
229	0x3c6909d2	0.014223533
230	0x3d9ca5a0	0.07648778
231	0x3da988ed	0.0827807
232	0x3c9a1fdc	0.01881402
233	0xbc19fc25	-0.009398495
234	0xbc94c444	-0.018159993
235	0xbcd026c5	-0.025409112
236	0x3c60a61e	0.01371148
237	0xbd1220be	-0.035675757
238	0xbcfab95f	-0.03060597
239	0x3d62b55e	0.055348746
240	0xbc816d10	-0.015799075
241	0xbcd00206	-0.02539159
242	0x3d23fc05	0.040035266
243	0x3d1c2a51	0.038126294
244	0x3d265ba9	0.040614758
245	0x3df8655c	0.12128708
246	0x3cefff1e	0.029296454
247	0x3d348f2e	0.04408186
248	0xbaff728e	-0.0019489096
249	0x3d83233b	0.06403204
250	0xbabbefbd	-0.0014338415
251	0x3da40cf3	0.08010282
252	0x3d778745	0.060431737
253	0x3c08841e	0.00833228
254	0x3d050aef	0.03248113
255	0xbd1a9fc8	-0.037750036

bias f4 [64]
0	0x3cb9b0e9	0.022667365
1	0x3d6095ad	0.054830242
2	0x3c1945a2	0.009354981
3	0x3c9e5487	0.019327415
4	0x3d65f372	0.05614037
5	0x3d3821f6	0.044954263
6	0xbd0b3293	-0.03398378
7	0x3bd7cc52	0.006585636
8	0xbd9ae3d9	-0.0756299
9	0x3dbd0f91	0.09231485
10	0x3d80f2d2	0.06296314
11	0x3d8ed2c8	0.06973797
12	0xbd502197	-0.050813284
13	0x3dda6db7	0.10665458
14	0x3d1be9d5	0.038064796
15	0x3df38b63	0.1189182
16	0x3def5c3f	0.116875164
17	0x3df3c8af	0.11903512
18	0x3cc89006	0.024482738
19	0x3ce21f9c	0.027602963
20	0xbd2311ca	-0.039811887
21	0xbd1119bf	-0.035424944
22	0xbcb5bfa0	-0.0221861
23	0x3d79011d	0.060792077
24	0xbd240c0d	-0.040050555
25	0x3d18d83b	0.03731559
26	0x3d8438e5	0.06456164
27	0xbcf398b5	-0.029735902
28	0x3d81917b	0.06326576
29	0xbdc7c3c5	-0.09754137
30	0x3d11fe05	0.035642643
31	0xb9f8f3ef	-0.0004748399
32	0x3d795884	0.06087543
33	0xbd4bb647	-0.04973438
34	0xbcf6e9bf	-0.030140756
35	0xbdba8b11	-0.09108556
36	0x3d3bf2e4	0.045885935
37	0x3cd8e00e	0.026474025
38	0x3cfa6bdf	0.030569015
39	0x3d7701f3	0.060304593
40	0x3d1cabd3	0.0382498
41	0x3bdd4f38	0.0067538284
42	0x3be47d90	0.006972976
43	0x3cfb1ba4	0.030652829
44	0x3d19eb20	0.03757775
45	0x3d8f2a0a	0.0699044
46	0xbd0dd91c	-0.03463088
47	0xbc499982	-0.0123046655
48	0xbdc9d1af	-0.09854447
49	0x3d87cc60	0.06630778
50	0xbd0a900d	-0.033828784
51	0x3d3bd43b	0.045856696
52	0x3d88107d	0.0664377
53	0x3d1494c3	0.036274683
54	0x3cd8e36e	0.026475634
55	0x3d381fa6	0.044952057
56	0x3d181957	0.03713354
57	0x3d42922b	0.047502678
58	0x3c4ec23c	0.012619551
59	0xbd2073d8	-0.039172977
60	0xbd254a78	-0.040354222
61	0x3d920694	0.07130161
62	0xbce3e4a6	-0.027818989
63	0x3d84070a	0.06446655

weight f4 [128, 64, 3, 3]
0	0xbd75ecc6	-0.060040258
1	0xbb0c2ec6	-0.0021390184
2	0xbd404cfd	-0.04694842
3	0xbcfafde5	-0.030638644
4	0xbc27a5c5	-0.010232394
5	0xbd465850	-0.048424065
6	0xbd1e5bee	-0.03866189
7	0x3c825124	0.015907831
8	0xbc8e00d4	-0.01733438
9	0xbce5942b	-0.028024754
10	0xbca1a61f	-0.019732533
11	0x3d0ccde3	0.034376036
12	0xbc11402e	-0.008865399
13	0xbcf37de9	-0.029723125
14	0xbd0b259c	-0.033971414
15	0xbcf07765	-0.029353807
16	0x3cc0a3dc	0.023515634
17	0x3d03588d	0.03206687
18	0xbd23968f	-0.039938506
19	0xbc9c6241	-0.01908982
20	0x3d27d25c	0.0409721
21	0xbc4909af	-0.012270375
22	0xbc6870d9	-0.014187061
23	0x3c3645e4	0.011125062
24	0xba982f20	-0.0011610724
25	0x3cbc4eb1	0.022986742
26	0xbd2406d5	-0.040045578
27	0x3cd7d14b	0.026344916
28	0x3bb8c95b	0.005639238
29	0x3ca76ff1	0.02043912
30	0x3cfdd0e5	0.030983398
31	0x39003bde	0.00012229334
32	0xbcc681cd	-0.024231816
33	0xbd22db35	-0.039759833
34	0x3d35890f	0.044320162
35	0x3d334e9e	0.043776147
36	0x3c0bcf0b	0.00853325
37	0xbc62f38e	-0.013852013
38	0xbcc9e7b5	-0.02464662
39	0xbd0f97e1	-0.035056952
40	0x3cc3c029	0.02389534
41	0x3d1aa88f	0.037758406
42	0x3b408f1b	0.0029382173
43	0xbd143955	-0.03618749
44	0x3d26f88d	0.04076438
45	0x3c856842	0.016285066
46	0x3d30148d	0.04298835
47	0xbcea3f0f	-0.028594522
48	0x3b110f78	0.0022134464
49	0x3d15797e	0.036492817
50	0xbb960220	-0.00457789
51	0x3c4cd8bf	0.012502848
52	0x3d098754	0.033576325
53	0xbcca349b	-0.024683287
54	0xbb31bd16	-0.002712076
55	0xbbdd66a6	-0.0067566214
56	0xbc94c174	-0.018158652
57	0xbcf7db1a	-0.030255843
58	0xbcf03832	-0.029323671
59	0xbcca6982	-0.024708513
60	0x3d1ff493	0.039051604
61	0x3c45083f	0.012025892
62	0x3d2bde42	0.04196001
63	0x3d296dd3	0.041364502
64	0xbbea0715	-0.0071419575
65	0x3ce11e0a	0.027480144
66	0x3bb74172	0.0055925185
67	0x3c46c0c9	0.0121309245
68	0xbbd5607d	-0.0065117464
69	0x3ca25c10	0.01981929
70	0x3d006c24	0.03135313
71	0xbd270761	-0.04077852
72	0xbd6f9256	-0.058489166
73	0x3c0dfd34	0.008666325
74	0xba0a710d	-0.0005281128
75	0xbd6a6ed9	-0.05723462
76	0xbd8fba0b	-0.07017907
77	0x3c2fd8b8	0.010732822
78	0xbd438993	-0.047738623
79	0x3c482e6f	0.012218102
80	0x3cf5ffbb	0.030029168
81	0xbd884d4b	-0.066553675
82	0xbc781f9e	-0.015144257
83	0xbc2bef57	-0.010494075
84	0xbcd276df	-0.025691448
85	0x3d146914	0.036233023
86	0xbc2609ec	-0.0101342015
87	0x39ce07d9	0.0003929723
88	0xbd4e00d9	-0.050293777
89	0xbd650b1f	-0.05591881
90	0xbc815e14	-0.01579193
91	0xbcb72994	-0.022358693
92	0x3c3cb2ea	0.011517266
93	0xba564f1a	-0.0008175239
94	0xbcd40d1b	-0.025885155
95	0xbb7c038e	-0.0038454267
96	0xbd08bbb8	-0.033382148
97	0xbc8e31fb	-0.017357817
98	0xbc0e5697	-0.008687637
99	0xbd034766	-0.032050513
100	0x3ccc145f	0.024912057
101	0xbc05b90f	-0.008161797
102	0xbd387de9	-0.045041952
103	0x3d4a72be	0.049425833
104	0xbcf9bf84	-0.03048683
105	0xbcac06d3	-0.020999348
106	0x3c6aaaa8	0.014322914
107	0xbb4254d5	-0.0029652615
108	0x3c23a768	0.009988643
109	0xbabc00ba	-0.0014343478
110	0xbc65b7dd	-0.014020887
111	0xbc88ea46	-0.016713273
112	0x3bb039db	0.0053779907
113	0x3d08691c	0.033303365
114	0xbcc71aac	-0.02430471
115	0x3c29b64d	0.010358405
116	0x3cc3d3f4	0.023904778
117	0x3d550a82	0.052011974
118	0x3c9007f4	0.017581917
119	0xbce96a9e	-0.028493222
120	0x3d300980	0.04297781
121	0x3c9bb063	0.019005006
122	0x38b0a26e	8.422589e-05
123	0x3d8576e9	0.06516821
124	0x3c6bae76	0.014384856
125	0x3d82d33c	0.06387946
126	0x3b11f627	0.0022271962
127	0x3c55a49d	0.013039735
128	0x3d246f9b	0.040145498
129	0x3d248a67	0.040171053
130	0x3c89f4fa	0.016840447
131	0x3bd7320b	0.006567245
132	0x3cac2711	0.021014722
133	0x3b4c4838	0.0031170975
134	0x3cb54f7a	0.022132624
135	0x3d09489e	0.03351652
136	0xbcec20a9	-0.028824167
137	0x3cb7c366	0.02243204
138	0xbd2819b9	-0.041040156
139	0xbd167bc5	-0.03673913
140	0xbcd192b3	-0.025582647
141	0xbd45c895	-0.048286993
142	0xbc76e79d	-0.015069869
143	0x3c621c46	0.013800686
144	0xbd1197ae	-0.035545044
145	0xbc9b0521	-0.018923344
146	0x3b8ea546	0.004353198
147	0x3d045aa6	0.03231301
148	0x3d011a57	0.03151926
149	0x3d01be7c	0.0316758
150	0xbd22580b	-0.039634746
151	0x3a85d96a	0.0010211889
152	0x3c8e5c4f	0.017378
153	0xbd2034e1	-0.03911293
154	0xbcdcd565	-0.026957223
155	0x3c1679e7	0.009184337
156	0x3cd38be9	0.02582355
157	0xbb4b1276	-0.0030986345
158	0x3cb536e7	0.022120906
159	0xbd139eac	-0.036039993
160	0xbc74d685	-0.014943724
161	0x3c7cf010	0.015438095
162	0x3bdc320c	0.0067198332
163	0x3c6d4a6d	0.0144830765
164	0x3c9848a4	0.018589325
165	0xbd0bfc5a	-0.034176208
166	0xbc3a5ae5	-0.01137421
167	0x3b4d9c64	0.0031373734
168	0xbc7b6bc0	-0.015345514
169	0xbcd446aa	-0.025912602
170	0xbc59390f	-0.013258233
171	0x3c826409	0.015916841
172	0xbc80cb98	-0.015722081
173	0xbc98179b	-0.018565943
174	0x3c89c500	0.01681757
175	0x3c7dcb38	0.015490346
176	0xbc1f76f5	-0.009732951
177	0x3b427d7a	0.002967684
178	0x3c329677	0.010900131
179	0xbd224dd0	-0.03962499
180	0xbb4ea5ec	-0.0031532003
181	0xbcfa2e2c	-0.030539595
182	0xbc30a0f9	-0.010780566
183	0xbc88c13c	-0.016693704
184	0xbce27908	-0.027645603
185	0xbb0b9af4	-0.0021302076
186	0xbb718ef5	-0.003685889
187	0xbd17e284	-0.037081257
188	0xbbec0a8f	-0.007203407
189	0x3cfcacb1	0.030844064
190	0xb8c0b8ee	-9.189719e-05
191	0x3d0ab679	0.033865426
192	0xbc24f4ed	-0.0100681605
193	0xbcb06c1d	-0.021535927
194	0xbcaeb2f0	-0.021325558
195	0xbd0176fb	-0.03160761
196	0xbc6ebb4b	-0.014571021
197	0x3d040f5d	0.032241214
198	0x3c91e3fb	0.017808905
199	0x3aa821fd	0.0012827512
200	0x3d3e3067	0.04643288
201	0xbc4a71ad	-0.012356204
202	0x3b41fa0a	0.0029598498
203	0x3d003d18	0.031308264
204	0x3c14732c	0.009060662
205	0xbc72ea36	-0.014826348
206	0xbc4c9c80	-0.012488484
207	0xbd1b632e	-0.037936382
208	0x3cb43932	0.02199993
209	0x3a5dcf42	0.0008461365
210	0xbcce8525	-0.025209973
211	0xbd202d03	-0.039105427
212	0xbcd07b9d	-0.025449568
213	0x3ce5f387	0.028070224
214	0x3c1ba49f	0.009499698
215	0x3c15d021	0.00914386
216	0xbc34d089	-0.011036047
217	0xbce3f239	-0.027825462
218	0x3d0fb207	0.03508189
219	0x3ada60d8	0.0016660942
220	0x3d1e5ddd	0.038663734
221	0x3cd9c152	0.02658144
222	0x3c8d4833	0.017246341
223	0x3cb5b673	0.022181725
224	0xbcc62af4	-0.024190404
225	0x3cb2d771	0.021831246
226	0xb9ba158e	-0.00035492744
227	0x3d2f7db8	0.042844504
228	0xbc037ffe	-0.008026121
229	0x3b16d721	0.002301641
230	0xbce68ba8	-0.028142765
231	0xbbd89a3e	-0.006610184
232	0xb98279ad	-0.00024886188
233	0x3c4ef445	0.012631481
234	0xbc188750	-0.009309605
235	0xbc9a149a	-0.018808652
236	0xbd20e503	-0.039280903
237	0xbd1de5f1	-0.038549367
238	0xbc609780	-0.013707995
239	0x3c2e30ef	0.010631784
240	0xbb86e0b5	-0.0041161426
241	0x3cefe770	0.029285163
242	0x3c8fa0fb	0.017532816
243	0xbc52e7fe	-0.012872694
244	0x3cfdfd66	0.031004619
245	0x39059c74	0.00012742152
246	0xbcd8f3a2	-0.02648336
247	0x3c3b1a5d	0.01141986
248	0xbb21ed1e	-0.0024707983
249	0xbbfcaf39	-0.007711318
250	0x3c71dc4d	0.014761996
251	0xbca40d9d	-0.020026023
252	0x3cbe13d6	0.023202818
253	0x39ed3f86	0.0004525149
254	0x39249e98	0.0001569934
255	0xbcafdfca	-0.021469016

bias f4 [128]
0	0x3c91bfc6	0.01779164
1	0x3d4e823f	0.05041718
2	0x3c36ab2f	0.011149212
3	0x3d0eaffc	0.0348358
4	0xbd3328a2	-0.043739922
5	0xbd3c05d1	-0.045903984
6	0xbd2ebfb4	-0.04266329
7	0xbcaa28ca	-0.020771403
8	0x3ab11263	0.0013509508
9	0x3da47806	0.08030705
10	0x3cf80df2	0.030280087
11	0xbda620d7	-0.081117325
12	0xbd960201	-0.07324601
13	0xbd0ce2dc	-0.034396037
14	0xbcc11479	-0.023569332
15	0xbc263244	-0.01014382
16	0x3a957c8a	0.0011404913
17	0xbd159518	-0.03651914
18	0xbd2af01a	-0.041732885
19	0xbc73504b	-0.014850686
20	0x3b6bc8c9	0.0035977832
21	0x3c039853	0.008031922
22	0x3cf96cde	0.03044742
23	0xbc3e5517	-0.011616967
24	0xbd1636d1	-0.03667337
25	0x3d3cbe47	0.0460799
26	0xbdc29616	-0.09501283
27	0x3d2bb1ce	0.041917615
28	0x3d8a5e37	0.06756251
29	0xbe307070	-0.17230392
30	0xbbb4d6d0	-0.0055187717
31	0xbd471d0e	-0.048611693
32	0x3c8e8055	0.017395178
33	0xbc35e545	-0.011102025
34	0xbd5b60f3	-0.053559255
35	0xbce45def	-0.027876822
36	0x3cff9c33	0.031202411
37	0xbde8b05d	-0.113617636
38	0x3d4b777c	0.049674496
39	0x3d60222b	0.054720085
40	0x3dc7a61f	0.09748482
41	0xbccd724b	-0.025078913
42	0xbcd00732	-0.025394056
43	0xbcfc1ee9	-0.030776458
44	0x3d7448d6	0.059639774
45	0x3dab38d3	0.08360448
46	0xbc544811	-0.012956635
47	0xbcdac687	-0.026705993
48	0xbc8ad139	-0.016945468
49	0xbd0af744	-0.033927217
50	0x3d504c32	0.050853916
51	0x3d00467e	0.031317227
52	0xbc360b04	-0.011111025
53	0xbc98a71e	-0.018634375
54	0x3cb468b7	0.022022588
55	0x3d568e5f	0.05238187
56	0x3d9be1a1	0.07611395
57	0x3ca7d17a	0.020485628
58	0x3cec09df	0.0288133
59	0xbca89447	-0.020578517
60	0x3de15d02	0.11004068
61	0x3cd6ca57	0.02621953
62	0x3bae180d	0.0053129257
63	0xbb804a95	-0.003915141
64	0xbc819a16	-0.015820544
65	0xbc6e02da	-0.014527047
66	0x3d4c059b	0.049810033
67	0xbbb61454	-0.0055566225
68	0x3d46ba3e	0.04851746
69	0xbd75c5b3	-0.060002994
70	0x3d06928d	0.032854605
71	0xbb941fe0	-0.0045204014
72	0xbca1ab36	-0.01973496
73	0x3c03d286	0.008045798
74	0x3caaea58	0.020863697
75	0xbc3d75cd	-0.01156373
76	0x3cf68fa5	0.030097792
77	0x3daf7c76	0.08568661
78	0x3c89aaad	0.016805017
79	0x3cf04746	0.02933086
80	0x3ccc1cfe	0.024916168
81	0xbbda612d	-0.0066644163
82	0x3d3360a5	0.04379334
83	0x3d010499	0.031498525
84	0xbb84c903	-0.004052283
85	0x3c28a75f	0.010293811
86	0x3d4a4e93	0.04939134
87	0x3c730a18	0.0148339495
88	0x3c1e7845	0.009672229
89	0xbc272e1b	-0.0102038635
90	0x3d80aa2c	0.06282458
91	0xbce8b071	-0.028404446
92	0x3d0862ca	0.033297338
93	0x3c39f5b1	0.011350081
94	0xbdf2c46f	-0.11853873
95	0xbc2635dd	-0.010144678
96	0xbc063c6e	-0.0081931185
97	0xbbb91561	-0.0056483005
98	0x3cd14e68	0.025550082
99	0xbd02eb02	-0.031962402
100	0xbd73d235	-0.05952664
101	0xbce17cc0	-0.027525306
102	0x3cac0f55	0.021003405
103	0x3b2306ad	0.0024875805
104	0xbda55d46	-0.08074431
105	0x3cca12a3	0.02466709
106	0x3d26ec89	0.04075292
107	0x3def8248	0.11694771
108	0xbd1a945f	-0.037739154
109	0x3d182c98	0.037151903
110	0xbce5f2da	-0.028069902
111	0x3d9aff5a	0.07568236
112	0xbc747dc4	-0.014922563
113	0xbc811782	-0.01575828
114	0xbd96565b	-0.0734069
115	0xbe07903e	-0.13238618
116	0x3cf9ee02	0.030508999
117	0x3c8baea7	0.017051054
118	0x3b80020a	0.003906493
119	0x3d25c43d	0.04047035
120	0x3d31b2f1	0.043383542
121	0x3c89ad14	0.016806163
122	0x3e87153d	0.2638339
123	0x3d372251	0.04471046
124	0x3b7a010d	0.00381476
125	0xbd01ef10	-0.03172213
126	0x3cc1fcc0	0.02368009
127	0xbbc1f0d1	-0.0059186

weight f4 [128, 64, 3, 3]
0	0xbabb67dc	-0.001429792
1	0xbbc5e152	-0.006038823
2	0xbb2c4424	-0.0026285732
3	0xbb3abbbd	-0.0028493248
4	0x3c6818db	0.014166082
5	0x3d0062ca	0.031344213
6	0xbbcd7616	-0.0062701805
7	0x3c4b8c2b	0.012423555
8	0xbc011972	-0.007879602
9	0x3c8ba3ac	0.017045818
10	0xbcbd71e3	-0.023125594
11	0xbc4860d7	-0.01223012
12	0x3cdaa2c2	0.026688937
13	0xbcb42299	-0.021989154
14	0x3ccc3acb	0.024930378
15	0xbd3106d2	-0.043219395
16	0xbbe71894	-0.0070524905
17	0x3c9b3c53	0.018949663
18	0x3c0b337a	0.00849616
19	0xbcb51d12	-0.022108588
20	0xbca575bb	-0.02019774
21	0xba6b9117	-0.00089861586
22	0xbcc44d5c	-0.02396267
23	0xbb33805c	-0.002738974
24	0x3cccf79b	0.025020411
25	0x3bc8fe0a	0.0061337994
26	0xbc79022d	-0.015198273
27	0xbc625a89	-0.013815531
28	0xbcb61083	-0.02222467
29	0x3c5ca047	0.0134659475
30	0x3ca9cc2e	0.020727243
31	0xbd0abf4c	-0.03387384
32	0xbd0f0ecb	-0.034926217
33	0x3b538460	0.0032274947
34	0x3cf84303	0.030305391
35	0x3c8a9745	0.016917834
36	0xbcaaafc2	-0.020835761
37	0xbbc5b13d	-0.0060330913
38	0x3bce75b1	0.006300651
39	0x3cf7e182	0.030258898
40	0xbc00b04e	-0.007854534
41	0x3c8ac5c9	0.016940014
42	0xbb9551c4	-0.0045568664
43	0xbc43cfc2	-0.011951389
44	0xbcfe780d	-0.031063104
45	0x3c232cf2	0.009959446
46	0x3d1fa3db	0.038974624
47	0xbceadd7d	-0.028670067
48	0xbc23545f	-0.009968846
49	0x3c4f5b50	0.012656048
50	0xbd20c3a9	-0.039249096
51	0x3ced5cc6	0.028974902
52	0x3d0e7ef7	0.03478905
53	0xbc19b75e	-0.009382097
54	0xbce8c973	-0.028416371
55	0x3c51a508	0.012795694
56	0xbb09e314	-0.002103989
57	0x3cf45759	0.029826807
58	0x3ca208ca	0.019779582
59	0x3d5226b1	0.05130643
60	0xbd660b11	-0.056162897
61	0x3cb30eea	0.021857698
62	0xbcc1a7d4	-0.023639597
63	0xbd0425ef	-0.03226274
64	0xbc1c7bc7	-0.009550995
65	0xbd1f129d	-0.03883611
66	0x3c031c58	0.008002363
67	0xbcc6a930	-0.024250597
68	0xbc41b8f5	-0.011823882
69	0x3cdf7f39	0.027282344
70	0x3cccb662	0.02498931
71	0x3c8dda5a	0.017316032
72	0xbc586a36	-0.013208916
73	0x3d1075fd	0.035268772
74	0x3d1977b5	0.037467677
75	0x3cf25a22	0.029583994
76	0x3c0afd95	0.00848331
77	0xbd1d5db3	-0.038419437
78	0x3cdb23e8	0.02675052
79	0x3cd37f56	0.025817554
80	0xbc23f7a5	-0.0100077735
81	0xbd367728	-0.04454723
82	0x3ce6b757	0.028163595
83	0x3b835730	0.0040081963
84	0x3bbf16e5	0.0058315867
85	0xbc599026	-0.013278997
86	0x3c4d2c9d	0.012522844
87	0xbd170509	-0.036870036
88	0x3aac54b0	0.0013147797
89	0x3cc0bc49	0.023527281
90	0x3d4b4861	0.049629573
91	0x3d03a5e6	0.032140635
92	0xbb6b306b	-0.0035887014
93	0xbccf6143	-0.025314933
94	0x3c9a49e1	0.018834056
95	0xbc9bf53c	-0.019037835
96	0x3d4e5872	0.050377317
97	0x3db18a79	0.0866899
98	0x3d9cc36e	0.07654463
99	0xbd0295a8	-0.031881005
100	0xbccce48d	-0.025011325
101	0x3bec8e44	0.007219108
102	0xbbc92a04	-0.006139042
103	0xbbb8907b	-0.005632458
104	0x3afbd401	0.0019212962
105	0xbca7c07c	-0.020477526
106	0xbcad9107	-0.021187318
107	0x3d0df22d	0.034654785
108	0xbcb4d400	-0.022073746
109	0xbce7dd24	-0.02830369
110	0x3ce13f79	0.027496086
111	0xbd273e6d	-0.04083102
112	0x3d029dd1	0.031888787
113	0xbd2ad45a	-0.04170642
114	0x3cdf0f5b	0.027229002
115	0xbc976272	-0.01847956
116	0xbc273cb2	-0.010207342
117	0x3aafef34	0.0013422729
118	0x3c98c0da	0.018646646
119	0xbcb964de	-0.022631105
120	0xbca489d5	-0.020085255
121	0x3c7c3f26	0.015395915
122	0xbcf4858c	-0.029848836
123	0x3ad30c68	0.001610172
124	0xbc5735bf	-0.013135373
125	0x3c678847	0.014131612
126	0x3ca3cb03	0.019994264
127	0xbce19bcb	-0.027540108
128	0x3caacf14	0.020850696
129	0xbbda79fc	-0.0066673737
130	0x3bc61a00	0.00604558
131	0xbcb9e168	-0.02269049
132	0x3d403090	0.046921313
133	0x3cb3fd45	0.021971354
134	0x3d40047b	0.046879273
135	0xbcc7f99a	-0.024411011
136	0x3c55b8b4	0.013044525
137	0x3c9edafb	0.019391527
138	0x3c5cdd35	0.013480474
139	0x3a0ded4c	0.0005414083
140	0xbc55df09	-0.013053664
141	0xbd0cc2fa	-0.03436563
142	0xbca3608a	-0.019943494
143	0x3d2544ff	0.040349003
144	0xbc6176e2	-0.013761254
145	0xb9f22481	-0.00046185034
146	0xbd01842a	-0.031620182
147	0xbc3b013d	-0.011413869
148	0xbce86d5b	-0.028372457
149	0x3c18e55c	0.009332027
150	0x3c0b7a3a	0.008513028
151	0xbcfef7f5	-0.031124095
152	0xbcab2f28	-0.02089651
153	0xbce878b1	-0.028377863
154	0xbccc3fb1	-0.024932714
155	0x3d018f1a	0.031630613
156	0x3b213ded	0.002460356
157	0xbc51f477	-0.012814633
158	0xbd21e6cb	-0.039526742
159	0x3c972065	0.018448064
160	0x3bfb0d04	0.0076614637
161	0xbc8ddc39	-0.017316924
162	0xbbf63177	-0.007513221
163	0x3ca04ef1	0.019568892
164	0xbcc15fa8	-0.023605183
165	0x3c5f34fe	0.013623474
166	0xbc216368	-0.00985036
167	0xbcc160fe	-0.02360582
168	0xbd3a0df5	-0.045423467
169	0xbc9a8027	-0.018859936
170	0xbd19be0f	-0.03753477
171	0x3bb575dc	0.0055377316
172	0xbc6b1825	-0.014349018
173	0x3cc35754	0.023845352
174	0x3d54a89a	0.051918603
175	0x3d50b7b7	0.050956454
176	0x3cfc800a	0.030822773
177	0x3b7631a8	0.0037566219
178	0x3c37619d	0.011192706
179	0x3d0bf0d8	0.034165233
180	0xbc50ad8e	-0.012736691
181	0x3ce157f5	0.027507761
182	0x3c58fd2f	0.013243957
183	0xbcc45bf9	-0.023969637
184	0x3d420eef	0.047377523
185	0x3b3d3c93	0.0028875216
186	0xbd94bef7	-0.07262986
187	0x3d46e06c	0.04855387
188	0xbd3c647b	-0.045994263
189	0xbba175e1	-0.0049273823
190	0x3c606b1d	0.013697413
191	0xbc13febe	-0.009032903
192	0xbaa1088b	-0.0012285871
193	0xbcee6d25	-0.029104779
194	0xbca94745	-0.020663867
195	0x3cc9577c	0.024577849
196	0xbc2e854a	-0.010651896
197	0xbc4d97b6	-0.012548378
198	0xbcf23287	-0.029565109
199	0xbc3b5c54	-0.011435587
200	0xbbb0ed38	-0.0053993724
201	0xbd245386	-0.040118717
202	0xbb81ba38	-0.0039589666
203	0xbc766f40	-0.0150411725
204	0x3af4d9bf	0.0018680616
205	0x3cad37bf	0.021144746
206	0x3d1d8045	0.038452405
207	0xbbb7a6eb	-0.005604615
208	0x3d2b0080	0.041748524
209	0x3d3547e9	0.044258032
210	0xbce5db0b	-0.02805855
211	0x3c559bc0	0.013037622
212	0x3c5817ff	0.013189315
213	0x3d4aecde	0.0495423
214	0x3b9c59d2	0.0047714496
215	0x3ca6ef13	0.020377671
216	0xbc1a2c0f	-0.009409918
217	0x3cfb2c0c	0.030660652
218	0x3c8922da	0.016740251
219	0x3c817953	0.015804922
220	0x3b66d039	0.0035219325
221	0xbb3f0d1f	-0.0029152108
222	0xbd29a58e	-0.04141765
223	0x3d102db3	0.035199832
224	0xbcbf5f0b	-0.02336075
225	0xbc94bc94	-0.018156327
226	0xbc2fb20c	-0.010723602
227	0x3b97a2b0	0.004627548
228	0x3b5c51c0	0.0033618063
229	0xbce329db	-0.02772992
230	0x3d286f11	0.041121546
231	0xbd034f8f	-0.032058295
232	0x3d10b2d3	0.03532679
233	0x3b86bef8	0.0041121207
234	0x3ca07ce4	0.019590802
235	0xbd3efd34	-0.046628192
236	0x3cc7047f	0.024294136
237	0x3c3b1e8f	0.01142086
238	0x3bf845db	0.007576687
239	0xbd169bc9	-0.036769662
240	0xbd1d7c2c	-0.038448498
241	0xbd530b15	-0.05152424
242	0xbd33037c	-0.043704495
243	0xbc96fdf0	-0.018431634
244	0xbd74199f	-0.059594747
245	0xbd19fd02	-0.037594803
246	0x3cd880ba	0.02642857
247	0x39a8762c	0.00032131502
248	0xbbdda17f	-0.0067636366
249	0x3cf0e2b4	0.029404975
250	0xbc0ee250	-0.008720949
251	0xbcdafe33	-0.02673254
252	0xbab1810a	-0.0013542485
253	0xbc4c7819	-0.012479805
254	0x3d140654	0.036138847
255	0xbd10215c	-0.035188064

bias f4 [64]
0	0x3d123ae4	0.035700694
1	0x3d1e6a21	0.03867543
2	0x3e0eb024	0.1393438
3	0xbc608442	-0.013703408
4	0xbd011703	-0.031516086
5	0x3c7ac49e	0.015305666
6	0xbc9df6c3	-0.019282704
7	0x3d0115bc	0.03151487
8	0x3cbd8ef2	0.02313945
9	0xbb5761b0	-0.0032864623
10	0x3c9785a6	0.018496346
11	0x3d653782	0.05596114
12	0x3d4f55d4	0.05061896
13	0x3c3c903c	0.0115089975
14	0xbd7b674c	-0.06137781
15	0x3e014b21	0.12626316
16	0x3d5541c1	0.05206466
17	0x3d77098d	0.060311843
18	0xbc611dba	-0.0137399975
19	0x3d368620	0.044561505
20	0x3ccda9d2	0.02510539
21	0x3d20a3ae	0.039218597
22	0x3d0be261	0.03415144
23	0xbc2afcbd	-0.010436234
24	0xbd300318	-0.0429717
25	0xbc8d12fc	-0.017220967
26	0x3dac0784	0.08399871
27	0x3d09ed17	0.033673372
28	0x3cae5173	0.021279072
29	0x3e168ae7	0.14701425
30	0xbc6e3639	-0.014539295
31	0x3cbde252	0.023179207
32	0xbc5725dd	-0.013131586
33	0x3d3e9896	0.046532236
34	0x3c996c54	0.018728413
35	0x3d1e9c28	0.03872314
36	0x3d19e95e	0.037576072
37	0x3cd5a6bc	0.026080482
38	0x3c3eb5b2	0.011639999
39	0x3b90c76b	0.0044183037
40	0x3cd17e65	0.025572965
41	0x3d9d07e6	0.07667522
42	0x3d1594de	0.036518924
43	0x3d604b42	0.05475927
44	0xbcffabb6	-0.031209808
45	0x3ce3c9c2	0.027806167
46	0x3b9d6616	0.0048034294
47	0x3d8f3045	0.069916286
48	0x3e3aa4fe	0.18227002
49	0x3d2f8671	0.042852823
50	0x3c25f161	0.01012835
51	0x3d0a1f74	0.033721402
52	0x3dad3e39	0.08459134
53	0x3d54681e	0.051857106
54	0xbc8751bb	-0.016518464
55	0xb9cc9f8e	-0.0003902879
56	0x3c92ad63	0.017904943
57	0x3d43ee8c	0.047834918
58	0x3c4d6e8a	0.012538562
59	0x3b0e03d4	0.0021669762
60	0x3c9df37e	0.019281145
61	0xbd19fed7	-0.03759655
62	0xbc214834	-0.009843875
63	0x3c846ea2	0.016166035

weight f4 [64, 32, 3, 3]
0	0xbc6b1eac	-0.014350574
1	0x3d25312f	0.04033011
2	0x3ca36d0e	0.019949462
3	0xbc9d132c	-0.01917418
4	0x3d5e5a4d	0.054285336
5	0xbd5dccf1	-0.054150525
6	0x3d3d4fbf	0.04621863
7	0xbd552624	-0.052038327
8	0xbd42ca89	-0.047556434
9	0x3b1b5fd6	0.0023708246
10	0x3c084b18	0.008318685
11	0x3d02d113	0.03193767
12	0x3d248f0a	0.040175475
13	0x3c66fcd9	0.0140983695
14	0xbd02aaf1	-0.031901304
15	0xbcc96f22	-0.024589125
16	0x3cac79a3	0.021054095
17	0x3bd7e126	0.006588119
18	0xbd628229	-0.05529991
19	0x3b5b39e9	0.0033451265
20	0x3d55bc83	0.052181732
21	0x3d20d146	0.03926208
22	0xbd63ad67	-0.05558529
23	0x3cff1bfb	0.031141272
24	0x3d6051ef	0.054765638
25	0xbd1793a1	-0.037006024
26	0xbbc63298	-0.0060485117
27	0xbc170302	-0.009217026
28	0x3d12f088	0.03587392
29	0xbc05a235	-0.008156349
30	0x3cfac1fc	0.030610077
31	0x3d46febd	0.04858278
32	0xbd211633	-0.03932781
33	0xbd4811b3	-0.048845004
34	0x3c819462	0.015817825
35	0x3beb72e6	0.007185328
36	0x3ba72bb9	0.0051016477
37	0xbd6ced56	-0.05784353
38	0xbd046300	-0.032320976
39	0xbd36b1b1	-0.044603053
40	0xbce34399	-0.027742194
41	0x3cffb07b	0.031212082
42	0xbc863041	-0.016380431
43	0x3d270eb0	0.04078549
44	0xbb7c9e7d	-0.0038546615
45	0x3c70d4dc	0.014699187
46	0x3ca3e425	0.020006249
47	0x3d264a8c	0.040598437
48	0xbd6f1ce5	-0.058377165
49	0xbcbade90	-0.022811204
50	0x3d589c46	0.05288341
51	0x3cc62d16	0.02419142
52	0x3c29f46f	0.010373219
53	0x3c8c8c15	0.01715664
54	0xbc9fa236	-0.019486528
55	0xbd065844	-0.03279902
56	0x3d2e459f	0.042546865
57	0xbbe6e186	-0.0070459275
58	0xbd1db278	-0.03850028
59	0xbbc0a606	-0.0058791665
60	0xbd598f2b	-0.05311505
61	0x3d3bbf29	0.0458366
62	0xbc248a2f	-0.010042711
63	0xbd0bd691	-0.034140173
64	0xbd1bb496	-0.038014017
65	0x3d2b8576	0.041875325
66	0x3aefbd29	0.0018290627
67	0xbb2e39dc	-0.002658478
68	0x3d2dab6a	0.0423998
69	0xbc286546	-0.010278052
70	0xbd6fc61b	-0.058538537
71	0xbc152179	-0.009102219
72	0x3aff187d	0.0019462254
73	0xbcc7d6d8	-0.024394438
74	0xbd1b9b1b	-0.037989717
75	0x3d1bad76	0.038007222
76	0x3d455a5c	0.048181877
77	0x3b65bc2f	0.0035054793
78	0xbd57733a	-0.052600123
79	0xbcc129ab	-0.02357944
80	0xbd101b3e	-0.03518223
81	0xbc8c7c93	-0.017149245
82	0xbd2e1df7	-0.042509045
83	0x3c1572ef	0.009121641
84	0x3d2bd7c0	0.041953802
85	0x3d28542e	0.041095905
86	0x3d417f71	0.04724068
87	0xbd407455	-0.046985943
88	0xbca8b094	-0.020592012
89	0xbc36a4c8	-0.011147685
90	0xbd38e53d	-0.045140494
91	0xbc915973	-0.017742848
92	0xbd7a1372	-0.0610537
93	0x3cd2168c	0.025645517
94	0x3b2fc157	0.002681812
95	0x3c62b657	0.0138374185
96	0xbd6bdca6	-0.057583474
97	0x3ad0e51a	0.0015937418
98	0x3c4711d6	0.0121502485
99	0x3bd6ebd0	0.0065588728
100	0xbc3ef499	-0.011654996
101	0x3d0e39ef	0.03472322
102	0xbc80a9ae	-0.01570591
103	0xbd238522	-0.039921887
104	0x3cc785b5	0.024355749
105	0x3cfb4694	0.030673303
106	0x3bb43900	0.005499959
107	0xbd596a78	-0.053080052
108	0x3d126fda	0.0357512
109	0xbcee2727	-0.029071404
110	0xbd15e912	-0.036599226
111	0x3aa5f939	0.0012662775
112	0xbd4169a4	-0.047219887
113	0xbd06ce02	-0.032911308
114	0xbcce598e	-0.025189187
115	0xbd5f6f86	-0.054549716
116	0xbc7fafe4	-0.0156059
117	0xbd93344e	-0.07187711
118	0xbd0d7a2a	-0.034540333
119	0xbd7cea36	-0.0617468
120	0xbcd3aec3	-0.025840169
121	0x3d53e745	0.051734228
122	0x3d1e9d62	0.03872431
123	0x3c501bb6	0.012701919
124	0x3c1dd2ab	0.009632747
125	0x3cb6abd6	0.022298735
126	0x3d5d8c47	0.054088857
127	0x3b9d8438	0.0048070215
128	0xbc7b897e	-0.015352605
129	0xbcd33b34	-0.025785066
130	0xbbfad65d	-0.0076549486
131	0xbd3d8cd7	-0.046276893
132	0x3d09b608	0.033620864
133	0xbc7cc9be	-0.015428958
134	0xbb43cd49	-0.0029876998
135	0x3d0681ab	0.032838505
136	0xbd19596c	-0.037438795
137	0xbb82918b	-0.003984635
138	0xbc20ecd8	-0.009822093
139	0xbd1df13a	-0.03856013
140	0xbcee64a7	-0.02910073
141	0xbd03a1fe	-0.03213691
142	0x3d3af616	0.045644842
143	0x3d4a1e53	0.049345326
144	0xba005875	-0.00048959936
145	0x3c902dcd	0.017599965
146	0xbbdf1c3e	-0.0068087867
147	0xbabac04d	-0.0014247984
148	0x3b81ee4d	0.0039651752
149	0x3d14d819	0.0363389
150	0x3d1fa179	0.03897235
151	0x3d4e3fea	0.050353922
152	0xb8a71a12	-7.9680365e-05
153	0xbcccc939	-0.024998294
154	0x3d098686	0.033575557
155	0xbc67c300	-0.014145613
156	0x3d0e74eb	0.03477947
157	0x3ca47dd1	0.020079525
158	0xbcd3d005	-0.025856027
159	0x3ce8929f	0.028390227
160	0xbcd861a3	-0.026413744
161	0xbc939539	-0.01801549
162	0x3d47b6bd	0.048758257
163	0xbd06c45e	-0.032902114
164	0xbc8e29ae	-0.017353859
165	0x3d6ae1a6	0.0573441
166	0xbd02a6cf	-0.031897362
167	0xb9a1466e	-0.00030760787
168	0x3b5169d7	0.0031953955
169	0x3d36858b	0.04456095
170	0xbd17ef22	-0.03709329
171	0xbdc996b7	-0.098432
172	0xbd932090	-0.07183945
173	0xbccc1368	-0.024911597
174	0x3c004fd0	0.007831529
175	0x3d1f59c0	0.03890395
176	0xbc37cf23	-0.011218819
177	0x3c89a14f	0.01680055
178	0x3da1d6d8	0.07902306
179	0x3cbb60a7	0.022873236
180	0xbb3b8503	-0.0028613217
181	0xbc821668	-0.015879825
182	0x3cd9eb1d	0.026601369
183	0xbb9df9d1	-0.00482104
184	0x3d0ca7f2	0.034339853
185	0x3d1909f5	0.03736301
186	0x3cd8f270	0.02648279
187	0xbd2ec33c	-0.04266666
188	0x3d0998a2	0.033592828
189	0xbc82d2c9	-0.01596965
190	0x3c0a103c	0.008426722
191	0x3d0580ff	0.032593723
192	0xbb03d94a	-0.0020118528
193	0xbd012345	-0.031527776
194	0xba1e035b	-0.00060277217
195	0x3c584a12	0.0132012535
196	0x3d66597f	0.056237694
197	0xbd66eae9	-0.05637637
198	0x3d2642cb	0.040591042
199	0xbd579b6a	-0.05263845
200	0x3d1c2c07	0.038127925
201	0xbd31f5e0	-0.043447375
202	0x3cce5fae	0.025192108
203	0xbc020b55	-0.007937272
204	0x3d340677	0.043951478
205	0xbc538458	-0.012909971
206	0xbd37104b	-0.044693273
207	0x3d1a6aca	0.0376995
208	0xbcbd3453	-0.02309624
209	0xbd038db2	-0.032117553
210	0x3c7dbd50	0.01548703
211	0x3c9cb7cf	0.019130616
212	0x3d1e37b1	0.03862733
213	0x3c64a6c5	0.013955777
214	0xbcd2cb26	-0.025731634
215	0xbc9fa9a8	-0.019490078
216	0xbc28d859	-0.010305488
217	0x3bcb9219	0.0062124846
218	0xbd29c604	-0.041448608
219	0x3d251c6d	0.040310312
220	0x3c7200d5	0.014770706
221	0xbd696a46	-0.056986116
222	0xbd534fb5	-0.051589686
223	0x3c8a82eb	0.01690813
224	0xbca57b53	-0.020200407
225	0x3c3012f6	0.010746708
226	0x3c8a2777	0.016864521
227	0x3c861891	0.016369136
228	0xbd108b8a	-0.035289325
229	0x3d5f04e3	0.05444802
230	0xbd2a3175	-0.041551072
231	0xbc2f5083	-0.010700348
232	0x3d33a141	0.043854956
233	0xbcdd51d7	-0.027016563
234	0xbcd14f7b	-0.025550595
235	0xbd70102b	-0.05860917
236	0xbc22c2ca	-0.009934137
237	0xbc8121d0	-0.015763193
238	0xbc8d13e7	-0.017221404
239	0xbd580f7b	-0.05274914
240	0xbc86f43f	-0.016473887
241	0x3d194087	0.037415054
242	0xbca10367	-0.019654943
243	0xbcc0cf9b	-0.023536494
244	0xbd772b26	-0.060343884
245	0xbd16f5a3	-0.03685535
246	0xbd4da306	-0.0502043
247	0xbd20ff14	-0.03930576
248	0x3d409659	0.047018383
249	0x3c13f239	0.009029918
250	0xbcd4e77e	-0.02598929
251	0x3cd4d1d8	0.025978968
252	0xbd403b2b	-0.046931427
253	0xbd362822	-0.044471867
254	0xbd7d3080	-0.06181383
255	0xbd34c1fb	-0.044130307

bias f4 [32]
0	0xbd589726	-0.05287852
1	0x3d70f418	0.058826536
2	0x3cfbdcb4	0.030744888
3	0xbd249ffa	-0.040191628
4	0x3d4cda83	0.050013077
5	0x3c0b6a62	0.00850925
6	0xbd1f0ba6	-0.03882947
7	0xbd5a193c	-0.05324672
8	0xbc7018aa	-0.014654318
9	0x3cd86640	0.026415944
10	0x3d43d21c	0.047807798
11	0x3d76a1b0	0.06021279
12	0xbd632bf9	-0.055461857
13	0x3dbebca6	0.093133256
14	0x3ce8b505	0.02840663
15	0xba6e1902	-0.0009082706
16	0xbcef357f	-0.029200314
17	0xbcb2e5a3	-0.021838015
18	0x3b1b0132	0.0023651836
19	0x3cc74249	0.0243236
20	0xbd92fbe9	-0.07176954
21	0x3b8e7808	0.004347805
22	0xbb16e3bb	-0.0023023922
23	0xbc1520de	-0.009102074
24	0x3d10584d	0.03524046
25	0xbc813570	-0.015772551
26	0x3c2032c3	0.009777728
27	0xbca1e1b6	-0.019760948
28	0xbd54ad1f	-0.051922914
29	0x3d6f54e9	0.058430586
30	0xbca55268	-0.020180896
31	0xbd6f121d	-0.058366884

weight f4 [32, 1, 3, 3]
0	0xbd29f27f	-0.041491028
1	0x3e9d53d9	0.30728033
2	0xbe3d585e	-0.1849074
3	0xbe202bbd	-0.15641685
4	0xbd2e82df	-0.042605277
5	0xbe8b06fc	-0.27153766
6	0x3df79322	0.1208861
7	0x3d412a16	0.047159277
8	0xbd87f4ed	-0.06638513
9	0x3dbce807	0.09223943
10	0xbbcf52a7	-0.0063269916
11	0x3e434639	0.19069757
12	0xbe2b57dd	-0.16732736
13	0xbc5f035e	-0.013611643
14	0x3e34187b	0.17587464
15	0x3e50d5da	0.20394078
16	0x3b2e379e	0.0026583443
17	0xbe24d924	-0.16098458
18	0xbe744aa2	-0.23856595
19	0xbcb1704a	-0.021659989
20	0x3da85ba8	0.08220607
21	0x3e6bad2c	0.23015279
22	0xbdeafda0	-0.114741564
23	0x3e9cb2c9	0.30605152
24	0x3d842d86	0.064539954
25	0x3e34d23f	0.17658328
26	0xbe16ea48	-0.14737809
27	0x3d9ee4a8	0.077584565
28	0xbe6e2cce	-0.23259279
29	0xbd603c5e	-0.05474507
30	0xbe5b546b	-0.21418922
31	0xbe2d6a31	-0.1693504
32	0x3e40d5f5	0.18831618
33	0xbe1fad7c	-0.15593523
34	0x3e857afd	0.26070395
35	0xbe52c9a7	-0.20584737
36	0xbe45d00c	-0.19317645
37	0xbe331cec	-0.17491502
38	0x3e865f37	0.26244518
39	0x3e6c26e1	0.23061706
40	0x3e8c586f	0.2741122
41	0xbd475092	-0.048660822
42	0x3e4ea301	0.20179369
43	0xbe553fe4	-0.20825154
44	0xbba375be	-0.004988401
45	0xbdc442f5	-0.095830835
46	0x3e8119af	0.25214908
47	0xbe71bf08	-0.23608029
48	0x3e845f21	0.25853828
49	0x3e88851a	0.26664048
50	0x3cf139fb	0.029446593
51	0x3e6e47b8	0.23269546
52	0x3cbc89a5	0.023014853
53	0xbe89e8a9	-0.26935318
54	0xbe94b54e	-0.29044574
55	0xbda49027	-0.080353074
56	0xbea27faf	-0.3173804
57	0xbe313723	-0.17306189
58	0xbccc8f3f	-0.024970649
59	0x3ea46eff	0.32115933
60	0xbd8f3a2e	-0.06993519
61	0x3ea852f2	0.32875782
62	0xbd53b40c	-0.051685378
63	0x3e0834f4	0.1330145
64	0xbe0c2e84	-0.1368962
65	0xbe5843bb	-0.21119587
66	0xbe5bd52b	-0.21468036
67	0x3df1c194	0.118045
68	0xbe53e363	-0.2069221
69	0xbdddc23c	-0.10828063
70	0xbdbbbea4	-0.09167221
71	0x3e71de2d	0.2361991
72	0xbe41a8b9	-0.18912019
73	0xbe7a48f1	-0.24441887
74	0xbe8b67d7	-0.2722766
75	0x3e9efd5e	0.3105268
76	0xb7a8f728	-2.0142252e-05
77	0x3c8deef8	0.017325863
78	0xbda2f73c	-0.079573125
79	0xbe13f341	-0.14448263
80	0xbe88011f	-0.26563355
81	0x3d0e870f	0.03479677
82	0x3e9b1e99	0.30296782
83	0x3d90d6ea	0.070722416
84	0xbdea7bb6	-0.11449377
85	0x3aa22c31	0.0012372789
86	0x3ea3804f	0.3193383
87	0x3e327a19	0.17429389
88	0xbca2ab8a	-0.019857187
89	0xbe1fe7f5	-0.15615828
90	0x3e685fe6	0.22692832
91	0xbe530970	-0.20609069
92	0xbd42f452	-0.047596283
93	0x3d190a00	0.037363052
94	0x3def92f3	0.1169795
95	0xbe783579	-0.24239148
96	0xbbde079c	-0.0067758095
97	0xbe669cbe	-0.2252073
98	0xbe9666f2	-0.29375416
99	0xbe423e57	-0.18969093
100	0x3ea40954	0.32038367
101	0x3e7ecc6a	0.24882665
102	0xbe6c9946	-0.23105344
103	0x3e4df5e3	0.2011333
104	0x3e8cded8	0.27513766
105	0xbe84bca0	-0.2592516
106	0xbd75bc6d	-0.05999415
107	0xbe85cb48	-0.26131654
108	0x3e89471c	0.26812065
109	0xbe4ce383	-0.20008664
110	0xbe738eeb	-0.23784988
111	0x3cfd0c92	0.030889783
112	0xbe0f44fb	-0.13991158
113	0xbe73f99e	-0.2382569
114	0xbe850cdc	-0.25986373
115	0xbe7f591f	-0.24936341
116	0xbe854296	-0.26027364
117	0x3e06f317	0.13178669
118	0x3d987509	0.07444198
119	0x3ea703b0	0.3262
120	0x3e64add1	0.2233193
121	0xbe19f680	-0.15035439
122	0x3e1422c0	0.14466381
123	0x3e9dd2d9	0.30824926
124	0xbe574808	-0.21023571
125	0x3e56849f	0.20949028
126	0xbd359fb2	-0.04434175
127	0x3e6965ad	0.22792692
128	0xba503946	-0.0007943105
129	0x3e8e2cab	0.27768454
130	0x3e8d58e4	0.2760688
131	0xbe6af971	-0.22946717
132	0x3db187dc	0.08668491
133	0xbdcbb134	-0.09945908
134	0xbe6cfd5a	-0.23143521
135	0x3e19ea7e	0.15030858
136	0x3ea81105	0.32825485
137	0x3df24766	0.118300244
138	0x3d18a7e5	0.03726949
139	0x3e85b130	0.26111746
140	0x3d85fa40	0.06541872
141	0x3e318d61	0.17339088
142	0x3e8c9adb	0.27461895
143	0x3e4ea270	0.20179152
144	0x3c9e366c	0.01931306
145	0x3e3c0f87	0.18365298
146	0x3d5642d4	0.052309826
147	0x3e9f4136	0.3110444
148	0x3e5bcf51	0.21465804
149	0xbd3ac64b	-0.045599263
150	0xbe17b4c0	-0.14815044
151	0xbe69846c	-0.22804421
152	0x3e8d0dae	0.275495
153	0x3d248d08	0.04017356
154	0x3e273d80	0.16332054
155	0xbd75d587	-0.06001809
156	0xbd8644bc	-0.06556079
157	0x3e81bbac	0.25338495
158	0x3d83044e	0.063973054
159	0xbdd3695d	-0.10322831
160	0xbe4c52a6	-0.19953403
161	0xbe948dde	-0.29014486
162	0x3d5694e7	0.052388098
163	0x3e1c580f	0.15267967
164	0xbda2ec99	-0.07955284
165	0x3ea33b88	0.31881356
166	0xbe7f0c88	-0.24907124
167	0xbe4b493f	-0.1985216
168	0x3e296fac	0.16546506
169	0x3c53848c	0.01291002
170	0x3d464fcf	0.048415955
171	0xbcb67eda	-0.022277284
172	0xbd5e5b74	-0.054286435
173	0x3e0859b9	0.13315476
174	0x3e3612fe	0.17780682
175	0x3ea56484	0.3230325
176	0x3e328b7f	0.17436026
177	0xbc66ce30	-0.014087245
178	0xbe17d3ba	-0.14826861
179	0xbd837c47	-0.064201884
180	0xbdf5f1cb	-0.12009009
181	0xbe373051	-0.17889525
182	0xbe402ba1	-0.18766643
183	0xbd21b17f	-0.039475914
184	0x3d66798e	0.056268267
185	0xbe25bac8	-0.16184533
186	0x3e9b9ed7	0.30394623
187	0x3e0a399e	0.13498542
188	0xbde3c4ce	-0.11121522
189	0xbe297e09	-0.16551985
190	0xbe986fbd	-0.2977275
191	0x3e65eae3	0.22452883
192	0x3d1e81aa	0.038697876
193	0xbe83ae70	-0.25719023
194	0x3e617cc0	0.22020245
195	0xbe6d39e3	-0.23166613
196	0xbe27cd83	-0.1638699
197	0x3dd00e86	0.1015902
198	0xbe94faae	-0.29097503
199	0xbe978392	-0.29592568
200	0x3c9c455f	0.019076047
201	0xbe7c7fe5	-0.24658163
202	0x3e9e8016	0.30957097
203	0x3e96a9f9	0.29426554
204	0x3d84b799	0.06480331
205	0xbe84337d	-0.25820532
206	0x3e215a0a	0.15757003
207	0xbe557d37	-0.20848547
208	0xbe43c6b1	-0.19118764
209	0x3e093639	0.1339959
210	0x3e160b79	0.14652814
211	0xbe8adeb7	-0.27123043
212	0x3d948776	0.072523996
213	0x3e71d830	0.23617625
214	0xbb8ca68c	-0.004292315
215	0x3e0e0d58	0.13872278
216	0x3e939e8a	0.28831893
217	0x3ea065d8	0.313277
218	0xbe673750	-0.22579694
219	0xbe9e470b	-0.30913576
220	0x3e6962a1	0.2279153
221	0x3df8a645	0.121410884
222	0xbe8ebccd	-0.2787842
223	0x3e0faaa6	0.14029941
224	0x3da1c4a8	0.07898837
225	0x3d580ad7	0.052744713
226	0xbd8057d1	-0.0626675
227	0x3e252f0d	0.1613123
228	0xbe8468d8	-0.2586124
229	0xbe30d741	-0.17269613
230	0x3e477d02	0.1948128
231	0xbe4f42de	-0.20240352
232	0xbdd8c247	-0.105839305
233	0xbc2585ea	-0.010102728
234	0xbe93a0bc	-0.28833568
235	0x3e0db0dd	0.13836999
236	0xbea4de6a	-0.32200938
237	0x3e564269	0.20923771
238	0xbe6922de	-0.22767207
239	0x3d3bb13f	0.045823332
240	0xbdec4f2f	-0.115385406
241	0xbe61a86b	-0.22036903
242	0xbbd4d481	-0.006495059
243	0x3e38f92e	0.18063805
244	0x3dd024ba	0.10163255
245	0xbe9ea91c	-0.30988395
246	0x3c1ea749	0.009683439
247	0xbe987c3e	-0.2978229
248	0xbe7d122e	-0.24713966
249	0xbea2110e	-0.31653637
250	0xbe0e699a	-0.13907471
251	0x3ea1b879	0.31586054
252	0xbe7add10	-0.24498391
253	0xbe95386f	-0.29144618
254	0xbd95e01d	-0.07318137
255	0xbdbd2a57	-0.09236591
