models/35.pt (torch, 837106 bytes, 17 tensors)

weight f4 [32, 1, 3, 3]
-0.056575995 0.013433755 0.08276041 -0.25906503 0.18188672 -0.20760773 0.26659554 -0.23679353
-0.24504682 0.031232573 0.17295241 -0.09709141 -0.13556695 0.14174548 0.1029667 0.27327427
-0.08754873 -0.23667109 -0.19473968 0.09659987 -0.3060414 0.1349311 0.195417 0.23670639
0.11754118 -0.11708367 -0.15610218 -0.18461551 0.32155436 -0.056036204 -0.08963377 -0.09996477
0.25868142 0.24327797 -0.037964232 0.18959127 0.32362399 -0.10413516 -0.10272412 0.29817244
0.16907181 -0.0791548 0.29635546 0.13909522 0.025863107 0.30739638 0.29296362 -0.14705987
0.06732568 -0.12398892 0.19195627 -0.13765281 -0.22362502 0.21553642 -0.12642424 0.012188359
0.29469287 -0.23792571 -0.079383306 0.106921785 0.1359985 -0.3383608 0.048378356 0.096871726
0.12793791 0.21160145 -0.15880175 0.32820758 0.075477004 -0.0938613 0.072702564 -0.17807455
-0.19097249 -0.20763688 -0.15331608 0.19398174 -0.094698615 -0.24539346 0.252878 -0.2766486
0.011343668 0.2712008 0.20241791 -0.1832254 0.30425903 0.23533039 0.32823053 -0.12717097
-0.00888411 -0.28805074 -0.3374957 0.096330106 0.019819526 0.15238102 -0.13137074 0.1340835
0.29264507 -0.3256594 0.22902364 0.079205915 -0.040089402 0.14880213 0.27869073 -0.25050053
-0.27620387 -0.060905397 -0.102482885 0.13693382 0.044872437 -0.17031375 -0.23818572 0.19733177
-0.22101958 0.033090174 0.14672369 -0.23040122 -0.26239917 0.30285764 0.23439018 -0.0814149
-0.23008725 -0.29960045 -0.21858923 0.24704047 -0.22888228 -0.20551957 -0.24903071 0.21529074
-0.27708334 0.25155675 -0.20148204 0.2805436 -0.25760308 0.18414795 -0.22158028 -0.082724355
0.2768315 -0.019446185 0.2659744 -0.23686217 -0.36720055 -0.015231774 0.25610417 -0.106023006
-0.29826573 0.17981002 0.02560714 -0.011283418 -0.16475175 -0.3092935 0.29461437 0.057170577
0.033719413 0.29824173 -0.25659811 -0.2500275 0.06873386 0.10652911 0.05589389 -0.17905016
0.23138441 0.29871514 0.09740151 0.30714503 0.0003554094 0.10575323 0.22056875 -0.1350344
0.2525305 0.21348554 -0.086377434 -0.12031214 -0.14786136 -0.16406082 0.33080164 -0.12054126
0.17879218 -0.30565417 -0.09529415 0.02853062 -0.1274185 -0.23207912 -0.039080966 0.28008482
0.20251746 0.29469967 -0.21738878 0.09215487 0.100134246 0.15511267 0.15266569 -0.2292872
-0.096616596 0.21608818 -0.07567858 -0.06517975 0.129555 -0.03977607 0.04522013 -0.32298043
-0.105282724 0.13183966 -0.1120959 0.07882612 0.28360787 0.21651684 0.28995064 0.16212776
-0.06526041 -0.14844191 -0.232916 0.09754168 -0.33718407 0.20333034 0.09356691 -0.0758068
0.097979985 -0.098353125 -0.14729218 -0.299541 -0.09546593 -0.10319107 0.03428312 0.29830182
-0.13343462 0.23082578 0.13099015 0.03217334 -0.2660629 -0.18208227 0.22199714 -0.3042323
0.19406241 -0.18738945 0.06397226 0.18203984 -0.23722702 0.24186428 0.15165251 -0.20933074
0.0003838676 -0.24234693 0.04290597 0.21465172 0.14420716 -0.24677326 -0.052759953 -0.2693638
0.20112252 -0.08983048 0.07404189 -0.2149273 -0.109595686 -0.23184142 -0.29341525 0.30954713
00000000: 3bbc 67bd 4119 5c3c 4a7e a93d 2ca4 84be
00000010: 8340 3a3e 1f97 54be 367f 883e 017a 72be
00000020: 8eed 7abe 74db ff3c 701a 313e dcd7 c6bd
00000030: 10d2 0abe ba25 113e 35e0 d23d 9bea 8b3e
00000040: c04c b3bd e859 72be d769 47be 27d6 c53d
00000050: 75b1 9cbe 612b 0a3e 651b 483e 2963 723e
00000060: 6eb9 f03d 90c9 efbd 40d9 1fbe d90b 3dbe
00000070: c6a2 a43e 3886 65bd e991 b7bd 54ba ccbd
00000080: e471 843e dc1d 793e 6280 1bbd 3724 423e
00000090: 0bb2 a53e d144 d5bd 0661 d2bd 0faa 983e
000000a0: 2921 2d3e e91b a2bd e7bb 973e fa6e 0e3e
000000b0: dede d33c 0f63 9d3e 54ff 953e dd96 16be
000000c0: 0ce2 893d e7ed fdbd 2f90 443e dcf4 0cbe
000000d0: f5fd 64be 94b5 5c3e 5b75 01be afb1 473c
000000e0: fce1 963e cca2 73be b793 a2bd cff9 da3d
000000f0: 3143 0b3e a03d adbe 6228 463d af64 c63d
00000100: 2802 033e 0dae 583e ed9c 22be d30a a83e
00000110: b093 9a3d 5a3a c0bd 15e5 943d 2d59 36be
00000120: 4b8e 43be c39e 54be e4fe 1cbe 26a3 463e
00000130: 59f1 c1bd 6c48 7bbe 3a79 813e e3a4 8dbe
00000140: cbda 393c d5da 8a3e a446 4f3e 709f 3bbe
00000150: d7c7 9b3e 73fa 703e d50d a83e 1b39 02be
00000160: a88e 11bc 637b 93be 3dcc acbe b848 c53d
00000170: 8f5c a23c c509 1c3e 0d86 06be 2f4d 093e
00000180: 93d5 953e d4bc a6be 2c85 6a3e b636 a23d
00000190: c934 24bd 965f 183e 8db0 8e3e 9b41 80be
000001a0: 986a 8dbe f077 79bd 8ce2 d1bd 6138 0c3e
000001b0: 29cc 373d ba66 2ebe f5e6 73be 5711 4a3e
000001c0: f552 62be 9089 073d bc3e 163e 4cee 6bbe
000001d0: 2f59 86be 2810 9b3e fb03 703e dbbc a6bd
000001e0: fe9b 6bbe 3b65 99be dbd5 5fbe 2df8 7c3e
000001f0: 1e60 6abe b973 52be e801 7fbe 2d75 5c3e
00000200: dedd 8dbe 0ccc 803e 4f51 4ebe 69a3 8f3e
00000210: 8de4 83be 4891 3c3e f1e5 62be 636b a9bd
00000220: dcbc 8d3e 9b4d 9fbc cc2d 883e ff8b 72be
00000230: b601 bcbe b18e 79bc 1620 833e 9722 d9bd
00000240: 49b6 98be 1e20 383e 11c6 d13c 16de 38bc
00000250: afb4 28be b85b 9ebe b2d7 963e b22b 6a3d
00000260: 5e1d 0a3d 24b3 983e d460 83be 9b03 80be
00000270: 57c4 8c3d ef2b da3d fef0 643d ed58 37be
00000280: 09f0 6c3e 31f1 983e 717a c73d 1d42 9d3e
00000290: 3e56 ba39 2695 d83d c6dc 613e 7546 0abe
000002a0: ad4b 813e f49b 5a3e a7e6 b0bd 3666 f6bd
000002b0: f868 17be 8fff 27be d55e a93e 56de f6bd
000002c0: 4c15 373e b47e 9cbe 9429 c3bd 0cb9 e93c
000002d0: ff79 02be 26a6 6dbe 5d13 20bd 4767 8f3e
000002e0: bd60 4f3e e0e2 963e 2a9b 5ebe b1bb bc3d
000002f0: 2f13 cd3d dbd5 1e3e 6554 1c3e 44ca 6abe
00000300: ecde c5bd 3846 5d3e 5ffd 9abd f67c 85bd
00000310: 11aa 043e 3bec 22bd be38 393d b15d a5be
00000320: 789e d7bd fa00 073e 8992 e5bd 976f a13d
00000330: 0d35 913e 97b6 5d3e 6974 943e d204 263e
00000340: 40a7 85bd 2801 18be 8881 6ebe efc3 c73d
00000350: 64a3 acbe d435 503e 02a0 bf3d 9840 9bbd
00000360: bba9 c83d 5d6d c9bd c3d3 16be 705d 99be
00000370: a483 c3bd d755 d3bd 756c 0c3d 04bb 983e
00000380: 16a3 08be 985d 6c3e 4822 063e 31c8 033d
00000390: 6539 88be c673 3abe 3853 633e 56c4 9bbe
000003a0: 4cb8 463e 05e3 3fbe e303 833d a768 3a3e
000003b0: a4eb 72be 45ab 773e cc4a 1b3e cc5a 56be
000003c0: d641 c939 cb29 78be 2cbe 2f3d a9cd 5b3e
000003d0: 0bab 133e 21b2 7cbe d21a 58bd 0dea 89be
000003e0: 10f3 4d3e 0bf9 b7bd 46a3 973d e715 5cbe
000003f0: b473 e0bd d667 6dbe 863a 96be f67c 9e3e

bias f4 [32]
0.06553912 0.09820119 0.089162864 -0.29536557 0.31689692 -0.050377704 -0.05485737 0.21376339
0.3273961 -0.024048107 -0.18052907 0.28327665 0.06716098 0.22073713 0.13236782 0.23975106
-0.10324881 -0.05056068 -0.045542642 0.21939415 -0.25205833 -0.1501522 0.036201164 0.14163542
0.16346228 0.077405214 0.06570122 -0.007836053 -0.23291057 -0.105457574 -0.095304035 0.08572346
00000000: 6039 863d b51d c93d 059b b63d 283a 97be
00000010: 5040 a23e da58 4ebd 1fb2 60bd cae4 5a3e
00000020: 76a0 a73e 8900 c5bc 9ddc 38be a309 913e
00000030: b28b 893d ea08 623e 6e8b 073e 4d81 753e
00000040: 1d74 d3bd b718 4fbd ec8a 3abd dca8 603e
00000050: ca0d 81be 80c1 19be ac47 143d e008 113e
00000060: a862 273e a086 9e3d 5c8e 863d ca62 00bc
00000070: 1c80 6ebe 24fa d7bd c32e c3bd c88f af3d

weight f4 [64, 32, 3, 3]
0.047888786 0.023664966 -0.057600725 -0.0077057593 0.0028584227 0.015792629 0.015043957 -0.034058847
0.037175525 -0.011220902 -0.00692944 0.065983854 0.038748052 0.002357672 -0.04286155 0.059194416
0.030021615 0.015702974 -0.011447456 0.00018252098 0.031710815 0.03128514 0.011249203 -0.03664349
-0.04042886 0.043895718 0.04128347 0.010196761 -0.024640406 -0.038674366 0.016249588 -0.048140407
-0.005490532 -0.012215705 0.056303933 0.020090833 0.0020712703 0.02584715 -0.053538088 -0.056439884
-0.052180275 -0.012745319 -0.049480457 -0.0044600777 0.035155896 -0.0076345312 0.013600098 -0.020683205
0.0065101148 0.046250768 0.054756835 0.044294916 0.051769182 0.06523074 0.051821172 -0.035821516
-0.018542556 -0.032542467 0.015965119 -0.027658796 0.023423215 0.02463016 0.04226951 -0.054814406
-0.039141495 -0.017310433 -0.028048256 -0.043037783 0.025590427 0.029845871 0.016811952 -0.046719268
0.0160276 0.029586755 -0.094236605 0.026529446 -0.022952832 -0.09134605 0.02124398 -0.06088223
-0.10218007 0.051391292 -0.021489762 0.008656119 0.03691066 -0.024674276 -0.021291329 -0.048573177
0.02600027 -0.036394715 -0.03723037 0.00081330154 0.010308152 0.0016699805 0.030568287 -0.043592945
-0.016972877 0.0122944005 -0.017867392 -0.015563432 0.0067821923 0.08152158 0.010455657 0.04119349
0.09109986 0.048389442 0.018337747 0.07421525 -0.027470263 0.058703322 0.016412152 -0.045498885
-0.057103373 -0.07520631 0.009679665 -0.09156382 -0.07686064 -0.05279307 0.0010628399 -0.06689755
0.015884742 0.04875505 -0.016343374 -0.00055028585 0.011214443 0.020025674 0.046669036 -0.012759025
0.11526889 0.04163625 -0.018677829 0.07978523 0.012101453 0.089518175 0.12540662 -0.030088678
0.0145125445 -0.016963009 0.00473166 -0.015830949 -0.003085576 -0.020854957 0.013731776 -0.040245198
0.014027245 0.019389125 0.06688585 0.035091277 0.0064400383 0.045174155 0.03638415 0.049731396
-0.025840994 -0.047750857 -0.021210382 0.024068737 -0.0022813377 -0.008336745 -0.04728816 -0.012493748
0.050222963 -0.0021883629 -0.048338726 0.034891684 0.02519664 0.022286689 -0.039763175 -0.020024756
-0.021360943 0.0036646647 0.013759381 0.003068977 0.019822638 0.067417756 0.023664217 0.050934102
0.021056384 0.026301894 0.057651933 0.013953735 -0.037784655 -0.034629315 0.065885745 -0.0056568617
-0.02010477 -0.011254544 0.023440886 -0.056518685 -0.030875316 0.013806365 0.02524723 -0.018931026
-0.047378186 -0.05091014 -0.027105562 0.027563995 -0.032055337 0.05291009 0.05505037 -0.045182575
-0.0082063 0.036526572 0.04638235 0.028723558 0.002205119 0.057002 -0.04145825 0.043345127
-0.01376001 -0.038612567 0.030564494 0.030910995 -0.035707805 -0.0013467384 0.031234311 0.032674387
0.042189837 -0.042956457 -0.023323206 -0.04406408 -0.0016822277 0.024241097 0.079952404 0.0021034484
0.10101222 0.051145032 -0.034889165 0.018644484 -0.033889264 0.014704376 0.07699911 0.0846254
0.02050611 -0.00405058 -0.020012625 -0.026285123 0.012747107 -0.037312813 -0.030379217 0.056110017
-0.015374917 -0.024295134 0.041113086 0.035295498 0.04424231 0.12610064 0.03018743 0.044071034
-0.0010391077 0.06494488 0.0033060596 0.08768771 0.059998114 0.0087905275 0.032670204 -0.038044628
00000000: 0827 443d 08dd c13c bdee 6bbd 9880 fcbb
00000010: 6054 3b3b 8b5f 813c ee7a 763c 4a81 0bbd
00000020: 5d45 183d e0d7 37bc 5b10 e3bb 8b22 873d
00000030: 47b6 1e3d 2c83 1a3b 988f 2fbd d875 723d
00000040: e4ef f53c 86a3 803c 1c8e 3bbc 1a63 3f39
00000050: 33e3 013d d924 003d 944e 383c 7c17 16bd
00000060: bb98 25bd ffcb 333d db18 293d 5110 273c
00000070: adda c9bc 0369 1ebd db1d 853c e02e 45bd
00000080: ece9 b3bb 6124 48bc f49e 663d 8895 a43c
00000090: 26be 073b 67bd d33c c14a 5bbd 822d 67bd
000000a0: fcba 55bd bed1 50bc 05ac 4abd d825 92bb
000000b0: a1ff 0f3d 172b fabb f2d2 5e3c d36f a9bc
000000c0: cd52 d53b 7271 3d3d b448 603d 966e 353d
000000d0: ec0b 543d b297 853d 7042 543d 95b9 12bd
000000e0: 8fe6 97bc 404b 05bd 48c9 823c b394 e2bc
000000f0: 0be2 bf3c 30c5 c93c cb22 2d3d 1285 60bd
00000100: d552 20bd 9cce 8dbc 75c5 e5bc 6348 30bd
00000110: 04a3 d13c 547f f43c 38b9 893c b45c 3fbd
00000120: 504c 833c ec5f f23c 1fff c0bd 4854 d93c
00000130: 9407 bcbc a313 bbbd db07 ae3c a55f 79bd
00000140: c943 d1bd ad7f 523d 4c0b b0bc 65d2 0d3c
00000150: a22f 173d b521 cabc 276b aebc abf4 46bd
00000160: 85fe d43c a012 15bd df7e 18bd be33 553a
00000170: 86e3 283c 3fe3 da3a 586a fa3c 848e 32bd
00000180: b40a 8bbc 746e 493c a35e 92bc c4fd 7ebc
00000190: 273d de3b c9f4 a63d 344e 2b3c 81ba 283d
000001a0: 9092 ba3d 0234 463d 0b39 963c 2afe 973d
000001b0: 5109 e1bc e572 703d c772 863c 0a5d 3abd
000001c0: 3ae5 69bd c405 9abd 7597 1e3c d085 bbbd
000001d0: 1c69 9dbd 8c3d 58bd fd4e 8b3a 9501 89bd
000001e0: b820 823c 60b3 473d 8ae2 85bc 0f41 10ba
000001f0: c8bc 373c e20c a43c 0828 3f3d 3b0b 51bc
00000200: 1912 ec3d c68a 2a3d 3f02 99bc 7066 a33d
00000210: 2c45 463c 4e55 b73d 986a 003e 887c f6bc
00000220: 06c6 6d3c 02f6 8abc 0a0c 9b3b e8af 81bc
00000230: 6037 4abb 04d8 aabc 3efb 603c 26d8 24bd
00000240: 88d2 653c f1d5 9e3c 73fb 883d dfbb 0f3d
00000250: f506 d33b 8908 393d 8c07 153d 26b3 4b3d
00000260: 7eb0 d3bc 6796 43bd 65c1 adbc cd2b c53c
00000270: 7f82 15bb d896 08bc 3bb1 41bd 94b2 4cbc
00000280: 98b6 4d3d a36a 0fbb d4fe 45bd 95ea 0e3d
00000290: 2f69 ce3c 9392 b63c b6de 22bd f50a a4bc
000002a0: 25fd aebc df2a 703b 076f 613c e420 493b
000002b0: 1663 a23c 5212 8a3d 76db c13c 47a0 503d
000002c0: 707e ac3c 1277 d73c 6f24 6c3d 359e 643c
000002d0: 15c4 1abd 78d7 0dbd 1bef 863d 325d b9bb
000002e0: c2b2 a4bc fb64 38bc 1a07 c03c 2380 67bd
000002f0: 3bee fcbc 1834 623c 47d3 ce3c 3d15 9bbc
00000300: a10f 42bd 2787 50bd 7c0c debc e3cd e13c
00000310: 754c 03bd 40b8 583d 7f7c 613d 5d11 39bd
00000320: b873 06bc e39c 153d 6bfb 3d3d ab4d eb3c
00000330: c283 103b ee7a 693d 20d0 29bd a98a 313d
00000340: aa71 61bc 3628 1ebd 6462 fa3c 0e39 fd3c
00000350: 5942 12bd 0b85 b0ba 19df ff3c 94d5 053d
00000360: 40cf 2c3d 1cf3 2fbd 4f10 bfbc 897c 34bd
00000370: 327e dcba 4495 c63c 16be a33d 02da 093b
00000380: 7fdf ce3d 747d 513d f1e7 0ebd 51bc 983c
00000390: 78cf 0abd a0ea 703c b6b1 9d3d 1550 ad3d
000003a0: 6efc a73c baba 84bb 84f1 a3bc e653 d7bc
000003b0: 3ed9 503c 52d5 18bd d6dd f8bc 9ed3 653d
000003c0: 13e7 7bbc 9706 c7bc 3266 283d 0392 103d
000003d0: 6d37 353d 8720 013e a14b f73c d483 343d
000003e0: ab32 88ba d201 853d 7aaa 583b 9d95 b33d
000003f0: 95c0 753d 2506 103c 31d1 053d afd4 1bbd

bias f4 [64]
0.022206191 0.053840447 0.011167058 0.015667932 0.05382589 0.043854482 -0.03330703 0.0055694412
-0.08428562 0.121186785 0.06564399 0.08465969 -0.06323645 0.10627473 0.03644203 0.14043425
0.1250696 0.14403215 0.024019407 0.02811835 -0.04149425 -0.037572272 -0.02669508 0.060141984
-0.046967976 0.04507137 0.0630948 -0.030741468 0.075369895 -0.09902554 0.05268983 0.010073219
0.06129972 -0.048515912 -0.028119447 -0.10593504 0.044492245 0.023947991 0.033634678 0.06815306
0.03903657 0.0006740825 0.005066324 0.032881003 0.035863895 0.069020584 -0.034317624 -0.0135880215
-0.10922521 0.070585445 -0.034779776 0.044370804 0.063553646 0.038806003 0.03265835 0.042934977
0.028936354 0.057385705 0.010487588 -0.039987236 -0.043901782 0.07141887 -0.035634972 0.06286487
00000000: c2e9 b53c cd87 5c3d 09f6 363c 095a 803c
00000010: 8978 5c3d c2a0 333d f46c 08bd dc7f b63b
00000020: f09d acbd c730 f83d 5b70 863d 0f62 ad3d
00000030: 1d82 81bd 91a6 d93d 3d44 153d ffcd 0f3e
00000040: 3f12 003e 2a7d 133e 59c4 c43c 7458 e63c
00000050: e0f5 29bd 62e5 19bd a4af dabc 7157 763d
00000060: 7e61 40bd c29c 383d d937 813d 88d5 fbbc
00000070: 885b 9a3d e7cd cabd 4bd1 573d 250a 253c
00000080: 6a15 7b3d 9fb8 46bd c15a e6bc 78f4 d8bd
00000090: 803d 363d 942e c43c 84c4 093d d593 8b3d
000000a0: cfe4 1f3d e9b4 303a 6803 a63b 3bae 063d
000000b0: 05e6 123d aa5a 8d3d a390 0cbd 4ba0 5ebc
000000c0: 78b1 dfbd 1a8f 903d 3d75 0ebd 29be 353d
000000d0: 6a28 823d 0bf3 1e3d c3c4 053d 96dc 2f3d
000000e0: ef0b ed3c 460d 6b3d 22d4 2b3c a8c9 23bd
000000f0: 5bd2 33bd 0e44 923d faf5 11bd 4cbf 803d

weight f4 [128, 64, 3, 3]
-0.0638448 -0.00465692 -0.04884379 -0.03309618 -0.014253214 -0.051222917 -0.042244036 0.013264872
-0.013740065 -0.028377853 -0.019794194 0.033855215 -0.009884635 -0.030048333 -0.03358405 -0.030674273
0.022481695 0.030914223 -0.041683752 -0.019904181 0.041612647 -0.013227309 -0.014782074 0.0113824
-0.0017170041 0.022652522 -0.040210888 0.028533442 0.009424581 0.02122923 0.031528294 0.0030267423
-0.022930434 -0.04007078 0.046850637 0.04546208 0.0071572447 -0.013547045 -0.024239998 -0.03615586
0.023450194 0.038571026 0.0018662637 -0.036290206 0.041549947 0.0155302035 0.044391867 -0.028210094
0.0015709125 0.037977368 -0.00416102 0.01209389 0.035419762 -0.023958309 -0.0029794367 -0.006736313
-0.016891915 -0.030402843 -0.029307663 -0.023495836 0.039316613 0.012518548 0.0431223 0.04143734
-0.0039771358 0.027803764 0.00478529 0.014250629 -0.0061104507 0.018780595 0.032948826 -0.040696595
-0.060635515 0.009251967 -0.003699149 -0.06341229 -0.07510634 0.011096167 -0.052078873 0.009927744
0.035289865 -0.06658434 -0.007612857 -0.0042221374 -0.02637594 0.04162763 -0.006095402 -0.0032877035
-0.04881711 -0.055562656 -0.015806643 -0.024973525 0.007866699 -0.0010643696 -0.026088033 -0.006223454
-0.03483889 -0.019375 -0.011830042 -0.036529064 0.020226985 -0.006830189 -0.04960072 0.04926601
-0.030185755 -0.025101364 0.0150002 -0.00571595 0.012299212 4.880128e-05 -0.016163439 -0.01519869
0.0061316113 0.030815473 -0.024905492 0.009018553 0.022502102 0.05647221 0.018509451 -0.029653983
0.0461555 0.020613287 -0.00064529385 0.06693946 0.017459355 0.06569286 0.0013217208 0.0125945425
0.04080584 0.03918779 0.016673036 0.007039974 0.020021664 0.0022527263 0.022106895 0.029833494
-0.03305266 0.020926153 -0.046122376 -0.040506963 -0.028622288 -0.052170902 -0.017220527 0.012185422
-0.045208957 -0.01879065 0.0055089747 0.028655354 0.030569669 0.032841858 -0.042070802 0.0007260558
0.019116351 -0.041869186 -0.024065694 0.008238002 0.025416994 -0.0008018188 0.021119192 -0.035536334
-0.012980672 0.0147085115 0.005836974 0.016738473 0.019973302 -0.036881894 -0.0099236425 0.0042652786
-0.018779052 -0.024896005 -0.011698852 0.011006522 -0.018360782 -0.021168968 0.009239128 0.013716982
-0.009944326 -0.008636338 0.006774178 -0.040210724 -0.0044695134 -0.031760078 -0.00937957 -0.017547488
-0.028889237 -0.0011634647 -0.004568941 -0.038159072 -0.006530774 0.02936927 0.0010664408 0.035388567
-0.011128905 -0.020992942 -0.020064203 -0.032211293 -0.014209008 0.033280876 0.02119126 -0.0006347955
0.053853534 -0.014916718 -8.4050043e-07 0.036712762 0.007738951 -0.015187458 -0.009451311 -0.03810022
0.021917349 0.0016380599 -0.024916647 -0.038923156 -0.02526387 0.028107824 0.009688078 0.0092818495
-0.011235499 -0.031225512 0.03848255 -0.0009995437 0.037896607 0.02863398 0.018414712 0.02245338
-0.022792768 0.020179728 -0.0018657735 0.04259183 -0.010408586 0.00017134499 -0.029511696 -0.008307113
-0.0018727601 0.011905121 -0.00968664 -0.01870516 -0.039295644 -0.038855843 -0.013874794 0.010192828
-0.0041691624 0.029395364 0.01746369 -0.014289826 0.031217089 0.0005979623 -0.027440364 0.011650533
-0.0019475555 -0.008689461 0.015076368 -0.019484235 0.023601184 -0.0007872229 -0.0005586424 -0.02175679
00000000: 10c1 82bd 1499 98bb 6d10 48bd dc8f 07bd
00000010: 5086 69bc 1fcf 51bd 1508 2dbd e854 593c
00000020: 021e 61bc ac78 e8bc 6f27 a2bc c4ab 0a3d
00000030: 2af3 21bc ec27 f6bc 6e8f 09bd 9d48 fbbc
00000040: 882b b83c d33f fd3c 95bc 2abd 180e a3bc
00000050: 0672 2a3d 5bb7 58bc 8330 72bc 3f7d 3a3c
00000060: 190d e1ba c891 b93c 2cb4 24bd f7be e93c
00000070: 8f69 1a3c ece8 ad3c d023 013d 4f5c 463b
00000080: 9bd8 bbbc 4221 24bd 74e6 3f3d 7236 3a3d
00000090: 5287 ea3b 6df4 5dbc f692 c6bc 2b18 14bd
000000a0: 9f1a c03c a7fc 1d3d 6b9d f43a 0aa5 14bd
000000b0: 4730 2a3d 6572 7e3c 3fd4 353d db18 e7bc
000000c0: 14e7 cd3a 288e 1b3d 2a59 88bb 7425 463c
000000d0: 5014 113d 3744 c4bc a742 43bb 4abc dcbb
000000e0: ea60 8abc 620f f9bc a016 f0bc 577a c0bc
000000f0: 750a 213d 991a 4d3c 02a1 303d 33ba 293d
00000100: a252 82bb b8c4 e33c eccd 9c3b 787b 693c
00000110: 2d3a c8bb c3d9 993c 59f5 063d 79b1 26bd
00000120: f25c 78bd 9095 173c 6c6d 72bb 4dde 81bd
00000130: 5ad1 99bd b3cc 353c a850 55bd faa7 223c
00000140: 1b8c 103d 5f5d 88bd 4675 f9bb db59 8abb
00000150: 5b12 d8bc bc81 2a3d f0bb c7bb 8376 57bb
00000160: 73f4 47bd ab95 63bd ef7c 81bc 4795 ccbc
00000170: 54e3 003c 5182 8bba 92b6 d5bc 1eee cbbb
00000180: 39b3 0ebd 52b8 9ebc cbd2 41bc 809f 15bd
00000190: 10b3 a53c c7cf dfbb 202a 4bbd 28cb 493d
000001a0: 1e48 f7bc 60a1 cdbc 66c3 753c dd4c bbbb
000001b0: a282 493c faaf 4c38 3069 84bc ed03 79bc
000001c0: afeb c83b bb70 fc3c 9a06 ccbc 8ec2 133c
000001d0: 5456 b83c 674f 673d 22a1 973c e9ec f2bc
000001e0: 8d0d 3d3d 32dd a83c f028 29ba 8e17 893d
000001f0: ec06 8f3c fa89 863d 973d ad3a 5759 4e3c
00000200: 0624 273d 6083 203d e495 883c 95af e63b
00000210: 7904 a43c 7aa2 133b 8519 b53c 5f65 f43c
00000220: 3a62 07bd 536d ab3c d1ea 3cbd a1ea 25bd
00000230: 4a79 eabc 28b1 55bd 1012 8dbc 5da5 473c
00000240: 072d 39bd d9ee 99bc a184 b43b a2be ea3c
00000250: 3e6d fa3c 2f85 063d 6f52 2cbd c854 3e3a
00000260: e599 9c3c 067f 2bbd 6b25 c5bc aff8 063c
00000270: 4d37 d03c 2631 52ba 2802 ad3c 8c8e 11bd
00000280: e2ac 54bc f8fb 703c 1644 bf3b 1f1f 893c
00000290: 0d9f a33c 7811 17bd c696 22bc c0c3 8b3b
000002a0: 87d6 99bc b5f2 cbbc 8bac 3fbc b354 343c
000002b0: 5a69 96bc 8b6a adbc b65f 173c 31bd 603c
000002c0: 87ed 22bc 6d7f 0dbc ecf9 dd3b 00b4 24bd
000002d0: ff74 92bb db16 02bd c5ac 19bc c0bf 8fbc
000002e0: 1fa9 ecbc 667f 98ba 0eb7 95bb b04c 1cbd
000002f0: 1a00 d6bb d397 f03c d1c7 8b3a 9af3 103d
00000300: 0356 36bc 64f9 abbc af5d a4bc fdef 03bd
00000310: e6cc 68bc 8751 083d 4b99 ad3c 6868 26ba
00000320: 8695 5c3d 4065 74bc c09e 61b5 1f60 163d
00000330: 0797 fd3b d1d4 78bc acd9 1abc fa0e 1cbd
00000340: 038c b33c 2bb4 d63a ff1d ccbc e36d 1fbd
00000350: 2df6 cebc 6142 e63c bfba 1e3c e612 183c
00000360: 1915 38bc a5cc ffbc e19f 1d3d 1f03 83ba
00000370: 7939 1b3d cf91 ea3c 73da 963c 27f0 b73c
00000380: e6b7 babc f54f a53c f88c f4ba c574 2e3d
00000390: c688 2abc 12ab 3339 83c2 f1bc 8f1a 08bc
000003a0: 6777 f5ba b20d 433c b7b4 1ebc 903b 99bc
000003b0: 78f4 20bd 4e27 1fbd 1b53 63bc d2ff 263c
000003c0: 789d 88bb 8cce f03c 0310 8f3c e01f 6abc
000003d0: fbba ff3c 92c0 1c3a 9dca e0bc e1e1 3e3c
000003e0: 1e45 ffba 3e5e 0ebc df02 773c 679d 9fbc
000003f0: 4557 c13c a25d 4eba db71 12ba 4c3b b2bc

bias f4 [128]
0.013110328 0.050989557 0.011064789 0.03397162 -0.043943435 -0.050024424 -0.047410313 -0.02187207
0.0032089052 0.0807141 0.029836742 -0.10178637 -0.08267069 -0.04231967 -0.017608805 -0.013354425
0.0031162337 -0.04190669 -0.047929663 -0.022581581 0.0009260023 0.0070617814 0.029428883 -0.01603237
-0.05505777 0.061456915 -0.09816703 0.043626368 0.07537973 -0.19573988 -0.01031382 -0.0482719
0.01364725 -0.0110925 -0.072185084 -0.029964864 0.034767266 -0.13609695 0.06262715 0.054595087
0.1137906 -0.02387586 -0.016814591 -0.031962864 0.058924228 0.08779286 -0.012497683 -0.028432423
-0.025848107 -0.049203027 0.05466389 0.039705355 -0.016471513 -0.01987754 0.020808978 0.052611653
0.08711405 0.020273548 0.04264506 -0.02207891 0.1283163 0.025842585 0.004580216 -0.0083916085
-0.018500388 -0.011815642 0.048799876 -0.0077119325 0.04284855 -0.061705496 0.034171097 -0.008386242
-0.022538923 0.015490121 0.026950404 -0.016455218 0.037788857 0.09876694 0.01618344 0.030863453
0.024574082 -0.0028523102 0.042364333 0.024333652 -0.008181975 0.013010768 0.052717876 0.01108762
0.0039476063 -0.012236231 0.063487746 -0.023705373 0.029571213 0.01474625 -0.1345103 -0.010774528
-0.004375434 -0.0067245695 0.028369984 -0.044700503 -0.07680968 -0.027791282 0.020740563 0.00033463046
-0.10133813 0.040974773 0.03880349 0.12869626 -0.04151708 0.036725357 -0.041277867 0.079558
-0.0190865 -0.017902698 -0.082401805 -0.15204766 0.043185074 0.016905667 0.007457399 0.03876096
0.043530297 0.016531184 0.2832164 0.043728866 0.0033982035 -0.03199832 0.025144167 -0.0053015514
00000000: b3cc 563c 6dda 503d 1749 353c d325 0b3d
00000010: 08fe 33bd 69e6 4cbd 5131 42bd 0e2d b3bc
00000020: 7f4c 523b 6f4d a53d 2f6c f43c 5f75 d0bd
00000030: 404f a9bd 6457 2dbd 5740 90bc 85cc 5abc
00000040: ba39 4c3b 59a6 2bbd e551 44bd 02fd b8bc
00000050: f6be 723a 8466 e73b d714 f13c 5156 83bc
00000060: 4284 61bd 3fba 7b3d cc0b c9bd 90b1 323d
00000070: b060 9a3d 0970 48be 4cfb 28bc c1b8 45bd
00000080: b798 5f3c 51bd 35bc c6d5 93bd e078 f5bc
00000090: 1f68 0e3d 005d 0bbe aa42 803d 199f 5f3d
000000a0: 0c0b e93d 4f97 c3bc c1be 89bc 7eeb 02bd
000000b0: 885a 713d becc b33d 15c3 4cbc 1deb e8bc
000000c0: 69bf d3bc 1d89 49bd 3ee7 5f3d 15a2 223d
000000d0: 44ef 86bc 39d6 a2bc 9777 aa3c 517f 573d
000000e0: da68 b23d b614 a63c 96ac 2e3d d5de b4bc
000000f0: 5965 033e d4b3 d33c a315 963b f57c 09bc
00000100: 208e 97bc 6596 41bc 61e2 473d 61b4 fcbb
00000110: f681 2f3d e7be 7cbd fef6 0b3d 7366 09bc
00000120: 8ca3 b8bc 47ca 7d3c 18c7 dc3c 18cd 86bc
00000130: 7dc8 1a3d 5246 ca3d 2293 843c 5ad5 fc3c
00000140: 964f c93c d3ed 3abb 3986 2d3d 5e57 c73c
00000150: b10d 06bc 1e2b 553c b3ee 573d d9a8 353c
00000160: ec5a 813b 797a 48bc dd05 823d c531 c2bc
00000170: 543f f23c 419a 713c 11bd 09be a587 30bc
00000180: cd5f 8fbb c759 dcbb 2b68 e83c e017 37bd
00000190: 654e 9dbd 8baa e3bc 1de8 a93c 5771 af39
000001a0: 5e8a cfbd 2ad5 273d 69f0 1e3d f4c8 033e
000001b0: d00d 2abd 546d 163d fb12 29bd 4eef a23d
000001c0: 4b5b 9cbc aea8 92bc 47c2 a8bd 62b2 1bbe
000001d0: d5e2 303d c17d 8a3c 325d f43b d0c3 1e3d
000001e0: d34c 323d 686c 873c bd01 913e 0a1d 333d
000001f0: 65b4 5e3b ac10 03bd 24fb cd3c a3b8 adbb

weight f4 [128, 64, 3, 3]
-0.0024026807 -0.007265912 -0.0030521671 -0.0038476626 0.012920664 0.030066408 -0.0072503206 0.010402029
-0.008646036 0.016763678 -0.02319498 -0.01217939 0.026491338 -0.022147901 0.024773931 -0.043613274
-0.007353048 0.018862935 0.0026879534 -0.018556964 -0.018509552 -0.0039641517 -0.022456404 -0.0021491293
0.01883833 0.0011936247 -0.016099002 -0.014339606 -0.02271038 0.0120475665 0.020711131 -0.03394795
-0.03537489 0.004318784 0.030736832 0.018139107 -0.017867448 -0.0056026406 0.007686077 0.03316264
-0.007413299 0.018178778 -0.0005543297 -0.010382227 -0.030166538 0.008636054 0.038719926 -0.028360017
-0.010476753 0.012009791 -0.039423842 0.028180975 0.033899896 -0.0100745605 -0.030818298 0.009822349
-0.004545473 0.026259268 0.01744708 0.05128984 -0.060824484 0.01920305 -0.021689687 -0.032332595
-0.009890224 -0.039145503 0.007560863 -0.024511203 -0.0119429855 0.027043033 0.024933776 0.017056072
-0.013568249 0.034881823 0.037703656 0.02947566 0.008079046 -0.03840125 0.026763896 0.025112063
-0.010243201 -0.044451162 0.027816119 0.0041027926 0.0061690756 -0.0134692695 0.012648213 -0.03730495
0.001688056 0.023479383 0.051265214 0.034056857 -0.0039956355 -0.023914987 0.020163026 -0.017771928
0.05361708 0.08945689 0.08173642 -0.03468298 -0.028752182 0.003664243 -0.01169673 -0.011838986
-0.0024115504 -0.026753534 -0.03070385 0.028626204 -0.022373417 -0.028654438 0.0264744 -0.041287694
0.03129004 -0.041961093 0.026250837 -0.019069102 -0.011118602 -0.00081177335 0.016640225 -0.024670634
-0.020379541 0.014730159 -0.030690663 0.0015935596 -0.013222588 0.013885223 0.02056325 -0.031457476
0.016529137 -0.0034362706 0.007941028 -0.021887723 0.049907982 0.026346356 0.054210007 -0.022662673
0.012723954 0.016338434 0.012777854 0.0011259695 -0.014464417 -0.03853489 -0.020638734 0.03959226
-0.0120194135 -0.00052509713 -0.03086805 -0.009775589 -0.028046578 0.011375991 0.008176388 -0.03237798
-0.021801015 -0.028829684 -0.024992483 0.031493187 0.0021136361 -0.012791874 -0.03935945 0.018233715
0.0075321305 -0.01698169 -0.008208442 0.016067976 -0.028436847 0.012434635 -0.014117773 -0.028285775
-0.047042727 -0.021029897 -0.042185612 0.007477045 -0.0059001744 0.019747838 0.054297153 0.059119824
0.031648893 0.0032339827 0.01859433 0.03640438 -0.014209809 0.026875893 0.012612435 -0.02562074
0.046650335 0.0012579004 -0.075239025 0.047141906 -0.046907812 -0.0047920705 0.013170419 -0.013615424
-0.0014410567 -0.029113106 -0.023474209 0.023692423 -0.010791594 -0.011013146 -0.030046487 -0.0064075515
-0.0050406666 -0.051168047 -0.012660146 -0.016201071 -0.0060436134 0.017485315 0.04110066 -0.0068839425
0.047242336 0.05970028 -0.024913576 0.0126441475 0.015760316 0.055892333 0.008370151 0.030609822
-0.009398277 0.03062107 0.016719297 0.015783967 0.003517567 -0.0029114273 -0.041366428 0.035153266
-0.023330482 -0.01830464 -0.01279507 0.015974537 0.0029468953 -0.03592932 0.055911038 -0.038907126
0.030771721 0.0126608685 0.014008945 -0.05069728 0.02023398 0.006105202 0.0059779272 -0.036861196
-0.04347852 -0.054627337 -0.045035824 -0.019173427 -0.06283295 -0.045266256 0.025165707 -0.003166847
-0.014083346 0.02747098 -0.010362936 -0.032189142 -0.0015337162 -0.016755547 0.034561206 -0.037817314
00000000: 4b76 1dbb e316 eebb de06 48bb 1129 7cbb
00000010: 31b1 533c d44d f63c 1994 edbb 466d 2a3c
00000020: 1aa8 0dbc fb53 893c 6603 bebc 108c 47bc
00000030: 5d04 d93c 846f b5bc b3f2 ca3c d5a3 32bd
00000040: d6f1 f0bb 7186 9a3c 6028 303b c604 98bc
00000050: 58a1 97bc b7e5 81bb 7ef6 b7bc 68d8 0cbb
00000060: d752 9a3c 6673 9c3a 0ee2 83bc abf0 6abc
00000070: 1e0b babc 2863 453c 64aa a93c 010d 0bbd
00000080: 43e5 10bd 9684 8d3b cfcb fb3c 7798 943c
00000090: c15e 92bc 5b96 b7bb 7ddb fb3b 8cd5 073d
000000a0: 42eb f2bb a9eb 943c 7050 11ba 371a 2abc
000000b0: d11f f7bc 3c7e 0d3c c998 1e3d 4453 e8bc
000000c0: b0a6 2bbc b7c4 443c e57a 21bd cadb e63c
000000d0: 9eda 0a3d c50f 25bc a876 fcbc ebed 203c
000000e0: 31f2 94bb ad1d d73c 2eed 8e3c 4c15 523d
000000f0: 1823 79bd b74f 9d3c 92ae b1bc 2f6f 04bd
00000100: 9b0a 22bc 0957 20bd 1ec1 f73b b8cb c8bc
00000110: 83ac 43bc 5a89 dd3c eb41 cc3c 2db9 8b3c
00000120: 5c4d 5ebc 3ee0 0e3d 266f 1a3d f076 f13c
00000130: fa5d 043c a14a 1dbd f53f db3c d0b7 cd3c
00000140: 19d3 27bc 6c12 36bd a1de e33c b870 863b
00000150: f525 ca3b 36ae 5cbc 733a 4f3c 13cd 18bd
00000160: c341 dd3a d657 c03c 79fb 513d 347f 0b3d
00000170: d2ed 82bb 5de9 c3bc ee2c a53c 6f96 91bc
00000180: 959d 5b3d 2d35 b73d 6d65 a73d be0f 0ebd
00000190: b289 ebbc cc23 703b a4a3 3fbc 4ef8 41bc
000001a0: 1a0b 1ebb 3a2a dbbc a486 fbbc 8081 ea3c
000001b0: 7548 b7bc b6bc eabc d7e0 d83c 491d 29bd
000001c0: fc29 003d 65df 2bbd ff0b d73c ce36 9cbc
000001d0: cc2a 36bc 30cd 54ba 1551 883c 121a cabc
000001e0: fff2 a6bc c456 713c fc6a fbbc fdde d03a
000001f0: 8ea3 58bc d97e 633c 4374 a83c 8ed9 00bd
00000200: 1d68 873c 0e33 61bb 161b 023c e24d b3bc
00000210: 506c 4c3d 50d4 d73c 500b 5e3d 12a7 b9bc
00000220: 2278 503c 2ed8 853c 345a 513c 4495 933a
00000230: 29fc 6cbc c3d6 1dbd 9012 a9bc 7e2b 223d
00000240: 13ed 44bc aca6 09ba fede fcbc cb29 20bc
00000250: f0c1 e5bc 5d62 3a3c 42f6 053c c69e 04bd
00000260: 0b98 b2bc 3b2c ecbc 09bd ccbc 00ff 003d
00000270: ee84 0a3b 0295 51bc 6037 21bd df5e 953c
00000280: 17d0 f63b 2f1d 8bbc b37c 06bc fda0 833c
00000290: 64f4 e8bc a4ba 4b3c 3b4e 67bc 92b7 e7bc
000002a0: e0af 40bd e446 acbc d2ca 2cbd 0002 f53b
000002b0: 4056 c1bb 38c6 a13c b166 5e3d a127 723d
000002c0: 45a2 013d 3af1 533b 2353 983c c21c 153d
000002d0: 42d0 68bc d52a dc3c 63a4 4e3c 96e2 d1bc
000002e0: 6c14 3f3d 22e0 a43a eb16 9abd df17 413d
000002f0: 6822 40bd cd06 9dbb bec8 573c 3a13 5fbc
00000300: d7e1 bcba 9c7e eebc fc4c c0bc 9d16 c23c
00000310: 3acf 30bc 7b70 34bc 0d24 f6bc 70f6 d1bb
00000320: 2d2c a5bb 9695 51bd 806c 4fbc 1cb8 84bc
00000330: 8109 c6bb 5d3d 8f3c 2a59 283d b292 e1bb
00000340: 2e81 413d 4888 743d 8e17 ccbc 6629 4f3c
00000350: c71b 813c 5cef 643d f522 093c 73c1 fa3c
00000360: 3bfb 19bc 0ad9 fa3c e8f6 883c 614d 813c
00000370: fb86 663b a5cd 3ebb d86f 29bd dffc 0f3d
00000380: 911f bfbc 9df3 95bc 6aa2 51bc 08dd 823c
00000390: b320 413b 9f2a 13bd f902 653d 145d 1fbd
000003a0: fa14 fc3c 886f 4f3c c685 653c f3a7 4fbd
000003b0: bbc1 a53c 250e c83b 7de2 c33b c4fb 16bd
000003c0: 8816 32bd eac0 5fbd 7c77 38bd 9711 9dbc
000003d0: 90ae 80bd 1c69 39bd 5028 ce3c e08a 4fbb
000003e0: d6bd 66bc d20a e13c 4ec9 29bc c3d8 03bd
000003f0: fa06 c9ba ee42 89bc 0d90 0d3d 54e6 1abd

bias f4 [64]
0.035143618 0.03916348 0.15950587 -0.0142474305 -0.03284673 0.01514076 -0.01647673 0.031654615
0.023281656 0.00016683772 0.017263005 0.058355954 0.050418966 0.007028037 -0.07472578 0.1398983
0.056248177 0.060181867 -0.011423564 0.045188524 0.021277271 0.050918754 0.03928781 -0.0128209265
-0.04291582 -0.006854108 0.09247068 0.035862166 0.015022579 0.15922433 -0.008993369 0.023584375
-0.01344323 0.039727885 0.019122569 0.03939217 0.037592024 0.026465172 0.011623569 0.013652401
0.025767332 0.09182091 0.038273845 0.054072935 -0.03224613 0.028212404 0.00014972512 0.08013416
0.2011427 0.042525407 0.009277385 0.02541332 0.10053783 0.056440387 -0.01828939 0.003709815
0.018361753 0.05118484 0.011685149 0.0036961853 0.018424323 -0.042134833 -0.01548597 0.0091528315
00000000: c1f2 0f3d e369 203d 8255 233e 0e6e 69bc
00000010: 4b8a 06bd f310 783c 35fa 86bc 45a8 013d
00000020: 2cb9 be3c 29f1 2e39 256b 8d3c a706 6f3d
00000030: 1e84 4e3d 734b e63b d409 99bd 8041 0f3e
00000040: 7d64 663d 4381 763d e629 3bbc 9a17 393d
00000050: ac4d ae3c 2f90 503d 41ec 203d dd0e 52bc
00000060: 80c8 2fbd 6d98 e0bb 4561 bd3d 35e4 123d
00000070: 4321 763c b40b 233e ec58 13bc 0534 c13c
00000080: fe40 5cbc b5b9 223d efa6 9c3c af59 213d
00000090: 18fa 193d 7dcd d83c c870 3e3c 52ae 5f3c
000000a0: 0316 d33c 9a0c bc3d 09c5 1c3d 957b 5d3d
000000b0: 8514 04bd b31d e73c 88ff 1c39 611d a43d
000000c0: 5af8 4d3e 1f2f 2e3d 2c00 183c 982f d03c
000000d0: c7e6 cd3d 092e 673d a1d3 95bc 5e20 733b
000000e0: 636b 963c 32a7 513d 1173 3f3c b33b 723b
000000f0: 9bee 963c 9395 2cbd deb8 7dbc c2f5 153c

weight f4 [64, 32, 3, 3]
-0.013042352 0.041551724 0.021345988 -0.017955968 0.05563062 -0.052546248 0.047182593 -0.050697118
-0.04613015 0.0014782827 0.00739045 0.030917777 0.039225277 0.013177072 -0.032804806 -0.02550581
0.020125136 0.0056391866 -0.05613774 0.0024161397 0.051167563 0.038274 -0.056437343 0.030116165
0.053767577 -0.037861258 -0.0069745495 -0.009074636 0.035802506 -0.008205534 0.03063052 0.048495013
-0.039298918 -0.048790976 0.01577704 0.0072459206 0.004206871 -0.05865329 -0.03322778 -0.045440685
-0.028655495 0.030211508 -0.017302072 0.039810125 -0.0047775186 0.013846304 0.019096686 0.039729465
-0.059184592 -0.023683498 0.05197699 0.023237424 0.009455493 0.016302368 -0.019214079 -0.03280209
0.042471614 -0.006159909 -0.03809454 -0.0055565573 -0.05233773 0.04589453 -0.0096230805 -0.03372056
-0.037739143 0.041770916 0.0019874899 -0.0026856258 0.042286545 -0.010154657 -0.058787063 -0.009173985
0.0029318852 -0.023608446 -0.039442092 0.038928315 0.04790187 0.0013428787 -0.05164435 -0.024806373
-0.037501357 -0.017753182 -0.04330114 0.008320597 0.041315757 0.040252738 0.046319522 -0.04767608
-0.021306641 -0.011871631 -0.042355347 -0.01563464 -0.062338553 0.027675288 0.0029394366 0.012313163
-0.056595936 0.00017774626 0.011500444 0.005612928 -0.012473305 0.03369852 -0.01659822 -0.04054128
0.023378398 0.02962794 0.0046602827 -0.054198183 0.035670426 -0.02903401 -0.036504287 0.0012354606
-0.0471663 -0.03281569 -0.025182616 -0.05450019 -0.015562698 -0.07382484 -0.037315205 -0.06422975
-0.027174225 0.04999907 0.03749658 0.011693399 0.008352778 0.02156225 0.05315995 0.0038887935
-0.01615211 -0.026642343 -0.008594017 -0.047074456 0.03259032 -0.016382528 -0.0038654923 0.03211054
-0.03792263 -0.0044211526 -0.010579588 -0.039121173 -0.029585008 -0.03269964 0.045142386 0.04903498
-0.0013339653 0.01673379 -0.0076810066 -0.002270649 0.003090911 0.035404544 0.03807447 0.049398337
-0.0009649084 -0.0227816 0.035398066 -0.012878191 0.037125837 0.022947067 -0.023270462 0.02584707
-0.028209526 -0.019772323 0.04714698 -0.03458721 -0.018426139 0.056254897 -0.032768846 -0.0012957762
0.0022390997 0.043609604 -0.037092295 -0.1023066 -0.07731572 -0.030707613 0.006304456 0.037571028
-0.012191358 0.01777216 0.08018344 0.02392144 -0.0019262589 -0.015220569 0.026994675 -0.0035735313
0.035234343 0.038125064 0.027760461 -0.041484933 0.034506418 -0.014931501 0.009298911 0.033417147
-0.0009819415 -0.030648753 0.0002701732 0.014344787 0.05694925 -0.05560226 0.040305924 -0.05199634
0.038728677 -0.043091405 0.025187816 -0.00795401 0.044953633 -0.012333958 -0.04421654 0.035841748
-0.02452999 -0.033901338 0.013460593 0.017128814 0.0367015 0.011178756 -0.027910678 -0.021373183
-0.011100022 0.0051787766 -0.042305805 0.039652154 0.013947438 -0.057758197 -0.051900037 0.016333107
-0.020791287 0.010513464 0.016684067 0.016242368 -0.035254184 0.05466309 -0.04112962 -0.010766697
0.0443029 -0.02630771 -0.025409585 -0.058398746 -0.0094984295 -0.015622623 -0.017100258 -0.052102838
-0.016053302 0.03794552 -0.01852495 -0.023595568 -0.060627718 -0.037456878 -0.04908671 -0.038736865
0.046439797 0.009022587 -0.025735144 0.027302925 -0.04634895 -0.04454744 -0.0631214 -0.043636724
00000000: 97af 55bc 2432 2a3d c8dd ae3c 6518 93bc
00000010: efdc 633d bc3a 57bd 8942 413d c8a7 4fbd
00000020: f8f2 3cbd f0c2 c13a 972b f23b 4747 fd3c
00000030: afaa 203d a5e4 573c 555e 06bd 8ff1 d0bc
00000040: 78dd a43c edc8 b83b b0f0 65bd 1958 1e3b
00000050: 1495 513d 33c5 1c3d d82a 67bd 2db6 f63c
00000060: 643b 5c3d 6814 1bbd c38a e4bb c8ad 14bc
00000070: a6a5 123d 8170 06bc dbec fa3c b5a2 463d
00000080: e7f7 20bd 0cd9 47bd da3e 813c 306f ed3b
00000090: cbd9 893b 6f3e 70bd da19 08bd 0320 3abd
000000a0: eebe eabc 207e f73c 13bd 8dbc f10f 233d
000000b0: bb8c 9cbb 9cdb 623c a770 9c3c 5dbb 223d
000000c0: 8b6b 72bd e503 c2bc d3e5 543d 695c be3c
000000d0: 36eb 1a3c 8b8c 853c d866 9dbc 7c5b 06bd
000000e0: b7f6 2d3d 10d9 c9bb 0509 1cbd c813 b6bb
000000f0: 1660 56bd e7fb 3b3d 20aa 1dbc 921e 0abd
00000100: 5c94 1abd fb17 2b3d 8c40 023b 5301 30bb
00000110: a834 2d3d b85f 26bc b4ca 70bd 7b4e 16bc
00000120: df24 403b 8066 c1bc 088e 21bd 4c73 1f3d
00000130: c034 443d 8803 b03a 0789 53bd bc36 cbbc
00000140: 069b 19bd 1f6f 91bc 895c 31bd 1d53 083c
00000150: b63a 293d 0ee0 243d 8ab9 3d3d fe47 43bd
00000160: 448b aebc 3b81 42bc cd7c 2dbd 3714 80bc
00000170: b656 7fbd 49b7 e23c 90a3 403b 26bd 493c
00000180: 24d1 67bd 6661 3a39 5c6c 3c3c a7ec b73b
00000190: d55c 4cbc 7607 0a3d fef8 87bc 9d0e 26bd
000001a0: 0e84 bf3c 4bb6 f23c 49b5 983b eafe 5dbd
000001b0: 271b 123d bbd8 edbc 8585 15bd 2eef a13a
000001c0: 7331 41bd bf69 06bd c64b cebc 973b 5fbd
000001d0: b0fa 7ebc 7a31 97bd d4d7 18bd e38a 83bd
000001e0: 7b9c debc d3cb 4c3d 0496 193d ac95 3f3c
000001f0: 17da 083c 51a3 b03c 3fbe 593d 21db 7e3b
00000200: 6e51 84bc 0b41 dabc ebcd 0cbc 25d1 40bd
00000210: 6d7d 053d a734 86bc 3354 7dbb 5786 033d
00000220: c254 1bbd 51df 90bb 0256 2dbc 863d 20bd
00000230: 425c f2bc 0ff0 05bd 39e7 383d e7d8 483d
00000240: 73d8 aeba 4d15 893c f4b0 fbbb 2bcf 14bb
00000250: e290 4a3b 5b04 113d faf3 1b3d e955 4a3d
00000260: e8f1 7cba 7aa0 babc 90fd 103d 0cff 52bc
00000270: 4311 183d 7dfb bb3c b2a1 bebc 3cbd d33c
00000280: aa17 e7bc 91f9 a1bc 311d 413d 51ab 0dbd
00000290: 6af2 96bc 896b 663d a038 06bd 09d7 a9ba
000002a0: dcbd 123b fc9f 323d 17ee 17bd 1f86 d1bd
000002b0: b457 9ebd 888e fbbc 9c95 ce3b 14e4 193d
000002c0: 43be 47bc ec96 913c 3737 a43d e5f6 c33c
000002d0: 867a fcba b25f 79bc f023 dd3c e831 6abb
000002e0: e351 103d 0729 1c3d e869 e33c 1bec 29bd
000002f0: 9a56 0d3d 41a3 74bc 765a 183c 6be0 083d
00000300: 7db4 80ba 1813 fbbc 08a6 8d39 6606 6b3c
00000310: 9e43 693d 32bf 63bd d317 253d 1dfa 54bd
00000320: f6a1 1e3d 9d80 30bd ae56 ce3c 8951 02bc
00000330: 4d21 383d 5f14 4abc 671c 35bd ccce 123d
00000340: 1ef3 c8bc 21dc 0abd d289 5c3c ba51 8c3c
00000350: 5054 163d 1a27 373c efa4 e4bc d016 afbc
00000360: dedc 35bc bab2 a93b da48 2dbd 4c6a 223d
00000370: cc83 643c dc93 6cbd 2295 54bd 02cd 853c
00000380: 7d52 aabc aa40 2c3c 06ad 883c b70e 853c
00000390: b166 10bd 67e6 5f3d 8877 28bd cd66 30bc
000003a0: f576 353d 4483 d7bc c327 d0bc 8633 6fbd
000003b0: 4d9f 1bbc 08f6 7fbc d715 8cbc c969 55bd
000003c0: 3782 83bc c36c 1b3d a3c1 97bc 7e4b c1bc
000003d0: c554 78bd 626c 19bd 250f 49bd 8caa 1ebd
000003e0: a837 3e3d 79d3 133c 82d2 d2bc 62aa df3c
000003f0: 66d8 3dbd 6077 36bd cb45 81bd 6cbc 32bd

bias f4 [32]
-0.05404763 0.059518885 0.031476088 -0.042059574 0.05072005 0.009284697 -0.041527912 -0.05284804
-0.016999666 0.026639609 0.04661334 0.062871866 -0.05539573 0.091604054 0.029051194 0.0013118959
-0.02832328 -0.023349375 -0.004273812 0.021527013 -0.06949652 0.003770301 -0.004989543 -0.009350134
0.038078465 -0.015885334 0.007669161 -0.023469416 -0.053399872 0.059157304 -0.020934764 -0.058292378
00000000: 0c61 5dbd 13ca 733d 12ed 003d a946 2cbd
00000010: d4bf 4f3d d71e 183c 2c19 2abd 3077 58bd
00000020: e242 8bbc 4f3b da3c a1ed 3e3d f7c2 803d
00000030: a2e6 62bd e89a bb3d c5fc ed3c ecf3 ab3a
00000040: 3906 e8bc 3047 bfbc 550b 8cbb 6b59 b03c
00000050: 3154 8ebd 2717 773b 527f a3bb 4e31 19bc
00000060: 2af8 1b3d f621 82bc 964d fb3b ef42 c0bc
00000070: d3b9 5abd ee4e 723d 627f abbc fdc3 6ebd

weight f4 [32, 1, 3, 3]
-0.041137855 0.307413 -0.18378657 -0.1557768 -0.041939404 -0.27009252 0.12130114 0.04816928
-0.066584334 0.09138126 -0.0070112795 0.18979797 -0.16786939 -0.014307073 0.1749813 0.20295627
0.0019833667 -0.16142152 -0.23884834 -0.022210367 0.08152485 0.22929296 -0.11513731 0.3051537
0.06393266 0.17586029 -0.1476382 0.07778383 -0.23109016 -0.05197045 -0.2131831 -0.16855967
0.19010827 -0.15484709 0.2594587 -0.20435321 -0.1936442 -0.17536025 0.2614502 0.22961071
0.27310067 -0.04925591 0.2008457 -0.20863399 -0.0056218877 -0.096321195 0.25112957 -0.23652454
0.25754893 0.26560867 0.028673902 0.23176037 0.022324959 -0.2697129 -0.28768563 -0.07676687
-0.31279835 -0.16974993 -0.020455569 0.32477966 -0.06522569 0.33351928 -0.045182742 0.13286407
-0.13764925 -0.21188779 -0.2143726 0.11799256 -0.20677897 -0.10811608 -0.09188382 0.23714593
-0.1889129 -0.24650577 -0.27461615 0.3004502 -0.0020617354 0.014261862 -0.091570005 -0.14438789
-0.26767936 0.03098574 0.29824185 0.06891283 -0.116710514 -0.0007306224 0.31812882 0.17089099
-0.022695728 -0.15631859 0.22217979 -0.19681795 -0.054757692 0.030135185 0.10699808 -0.24650364
-0.021141699 -0.23117518 -0.2959811 -0.19067484 0.31896222 0.24772868 -0.23211259 0.19965586
0.27383038 -0.26042527 -0.06124651 -0.26204658 0.26772636 -0.19979039 -0.23669423 0.03107497
-0.14018668 -0.23764001 -0.25895274 -0.24983266 -0.26039326 0.13091825 0.07394952 0.3253575
0.2227881 -0.15028988 0.14437295 0.3065403 -0.2111331 0.20760885 -0.04492252 0.22694251
-0.0015734498 0.27660373 0.27493986 -0.23000051 0.085779205 -0.100162655 -0.23205554 0.15059435
0.3280633 0.115467966 0.03773841 0.2611643 0.06467176 0.17389828 0.27561945 0.20316793
0.01889043 0.18302749 0.051841944 0.31022438 0.21397454 -0.04592793 -0.1483621 -0.22812183
0.27479902 0.044141926 0.1691424 -0.053858336 -0.06309121 0.25503495 0.06621496 -0.10174362
-0.19894709 -0.2895803 0.051434 0.15074849 -0.081488535 0.3172296 -0.2501736 -0.20024478
0.16389504 0.0112419175 0.046488967 -0.021991579 -0.05372985 0.13318066 0.179618 0.32514146
0.17632072 -0.024724904 -0.15303686 -0.06744383 -0.117438026 -0.17659853 -0.18405803 -0.037103735
0.057749998 -0.15877038 0.30575374 0.13639809 -0.10903028 -0.16461208 -0.29620627 0.2249235
0.03973233 -0.25612354 0.22020473 -0.23084508 -0.16322799 0.101740666 -0.29002282 -0.2957364
0.019040532 -0.24649094 0.3090704 0.29514062 0.065212734 -0.25676262 0.15857255 -0.2084776
-0.1921349 0.13249473 0.14544564 -0.2721947 0.07149112 0.23549128 -0.0051930286 0.13810262
0.2863702 0.3121686 -0.22822648 -0.30963922 0.22680844 0.11891192 -0.27937073 0.1391659
0.077200964 0.052225217 -0.06035901 0.16362986 -0.25944978 -0.17232586 0.19493163 -0.20408334
-0.10651934 -0.011031058 -0.28654465 0.13905771 -0.32053626 0.20650828 -0.22862601 0.0444962
-0.11874807 -0.22254841 -0.008652607 0.18725577 0.10255859 -0.30741113 0.01632187 -0.30343467
-0.25153098 -0.3162601 -0.13864397 0.31534445 -0.2453368 -0.29184914 -0.0735674 -0.0922982
00000000: 2b80 28bd 3d65 9d3e 8c32 3cbe f483 1fbe
00000010: a7c8 2bbd 9149 8abe bb6c f83d 274d 453d
00000020: 5e5d 88bd 1926 bb3d e0be e5bb 665a 423e
00000030: f4e5 2bbe 3768 6abc 4c2e 333e c5d3 4f3e
00000040: 5ffb 013b af4b 25be a994 74be 84f2 b5bc
00000050: 80f6 a63d c6cb 6a3e 1ccd ebbd 1b3d 9c3e
00000060: 20ef 823d b814 343e 782e 17be 214d 9f3d
00000070: e6a2 6cbe f7de 54bd ac4c 5abe e89a 2cbe
00000080: beab 423e 3c90 1ebe c5d7 843e f841 51be
00000090: aa4a 46be a391 33be cddc 853e 121f 6b3e
000000a0: dad3 8b3e 91c0 49bd 7faa 4d3e 26a4 55be
000000b0: d037 b8bb 0c44 c5bd 0e94 803e 7d33 72be
000000c0: 74dd 833e dcfd 873e 88e5 ea3c 9752 6d3e
000000d0: d5e2 b63c cf17 8abe 884b 93be f337 9dbd
000000e0: 1b27 a0be edd2 2dbe 7092 a7bc 8549 a63e
000000f0: 0c95 85bd 0ac3 aa3e 8a11 39bd 850d 083e
00000100: edf3 0cbe 1df9 58be 7e84 5bbe 15a6 f13d
00000110: debd 53be f76b ddbd 962d bcbd 62d6 723e
00000120: 6272 41be 026c 7cbe 7d9a 8cbe 9cd4 993e
00000130: 2e1e 07bb 96aa 693c 0e89 bbbd 6bda 13be
00000140: 450d 89be ced5 fd3c 28b3 983e 2b22 8d3d
00000150: ec05 efbd 3d87 3fba c8e1 a23e 0cfe 2e3e
00000160: 64ec b9bc fb11 20be 1983 633e a58a 49be
00000170: 9a49 60bd 10de f63c cf21 db3d 736b 7cbe
00000180: 5b31 adbc 30b9 6cbe d68a 97be 4440 43be
00000190: 044f a33e 96ac 7d3e ecae 6dbe 9672 4c3e
000001a0: 7f33 8c3e 7656 85be 9fdd 7abd f82a 86be
000001b0: 6e13 893e da95 4cbe f95f 72be ef90 fe3c
000001c0: 198d 0fbe e757 73be 7495 84be 22d4 7fbe
000001d0: 4452 85be 6f0f 063e d972 973d 4295 a63e
000001e0: 9022 643e 97e5 19be 81d6 133e daf2 9c3e
000001f0: 4633 58be 6a97 543e ad00 38bd 9e63 683e
00000200: 373c ceba 019f 8d3e ebc4 8c3e 4185 6bbe
00000210: 02ad af3d 1422 cdbd f89f 6dbe 6835 1a3e
00000220: eaf7 a73e 787a ec3d 9793 1a3d 54b7 853e
00000230: a172 843d 6412 323e fe1d 8d3e 410b 503e
00000240: 1ac0 9a3c 8f6b 3b3e 3858 543d bbd5 9e3e
00000250: 241c 5b3e ed1e 3cbd 3cec 17be c598 69be
00000260: 75b2 8c3e 2ace 343d aa33 2d3e 8f9a 5cbd
00000270: f735 81bd f193 823e b59b 873d f65e d0bd
00000280: c9b8 4bbe de43 94be 75ac 523d d05d 1a3e
00000290: 76e3 a6bd eb6b a23e c116 80be f80c 4dbe
000002a0: 1ad4 273e 0530 383c 376b 3e3d af27 b4bc
000002b0: d513 5cbd 8360 083e c8ed 373e f178 a63e
000002c0: 6b8d 343e e28b cabc b2b5 1cbe fe1f 8abd
000002d0: 5983 f0bd 3fd6 34be b579 3cbe 16fa 17bd
000002e0: 438b 6c3d b494 22be c18b 9c3e f1ab 0b3e
000002f0: 444b dfbd 1290 28be 59a8 97be 5952 663e
00000300: 5ebe 223d a022 83be 597d 613e a762 6cbe
00000310: 3d25 27be 695d d03d df7d 94be c36a 97be
00000320: e4fa 9b3c 1f68 7cbe 7a3e 9e3e ac1c 973e
00000330: 418e 853d 6476 83be d860 223e 277b 55be
00000340: 03bf 44be b3ac 073e b4ef 143e 1b5d 8bbe
00000350: f069 923d a024 713e 482a aabb c66a 0d3e
00000360: 1d9f 923e 90d4 9f3e 34b4 69be 0889 9ebe
00000370: 7940 683e 1888 f33d ae09 8fbe 8181 0e3e
00000380: 8a1b 9e3d 1cea 553d 023b 77bd 968e 273e
00000390: 9ad6 84be 3176 30be 289c 473e 39fb 50be
000003a0: d026 dabd 9cbb 34bc fbb5 92be 2565 0e3e
000003b0: 541d a4be e876 533e f01c 6abe a641 363d
000003c0: 3032 f3bd bbe3 63be aac3 0dbc fabf 3f3e
000003d0: 3d0a d23d fe64 9dbe 71b5 853c ca5b 9bbe
000003e0: abc8 80be d8ec a1be aff8 0dbe d474 a13e
000003f0: 9239 7bbe 406d 95be 81aa 96bd d706 bdbd
