models/40.pt (torch, 837106 bytes, 17 tensors)

weight f4 [32, 1, 3, 3]
000000 2e 7d 68 bd 6f 85 6b 3c 8a 8f ab 3d eb b1 84 be
       -0.056760006 0.014375075 0.08376987 -0.2591699
000010 a4 af 3a 3e 73 86 53 be 5b 62 88 3e 73 0c 72 be
       0.18231064 -0.20656757 0.2663754 -0.23637562
000020 7d 32 7a be 4d c9 fe 3c ca bb 30 3e 8d d3 c6 bd
       -0.24433322 0.031101847 0.17259136 -0.09708319
000030 a8 dc 0a be 45 c3 10 3e ca 5c d2 3d f8 a4 8b 3e
       -0.13560736 0.1413699 0.10271604 0.272743
000040 f9 81 b3 bd cc 3c 72 be 22 cd 48 be ff 3a c2 3d
       -0.08765025 -0.23656005 -0.19609502 0.09483909
000050 2e 7c 9d be 30 76 08 3e d3 3a 46 3e 8f 8a 70 3e
       -0.30758804 0.13326335 0.19358377 0.23490356
000060 65 57 ed 3d dd d6 f2 bd a7 09 21 be a8 c0 3c be
       0.11588935 -0.11857388 -0.15726338 -0.18432868
000070 1e 6c a4 3e df 09 65 bd e0 5d b7 bd e4 67 cc bd
       0.32113737 -0.055917617 -0.08953452 -0.09980753
000080 13 3d 84 3e 5c ae 78 3e 7b 4a 1b bd 63 d6 41 3e
       0.25827846 0.24285263 -0.037912827 0.18929438
000090 4f 7d a5 3e bb 00 d5 bd 2a 38 d2 bd cc 76 98 3e
       0.32322165 -0.1040053 -0.10264619 0.29778135
0000a0 00 d6 2c 3e 84 12 a2 bd 20 8a 97 3e 53 38 0e 3e
       0.1687851 -0.07913688 0.2959757 0.13888673
0000b0 06 a8 d2 3c 7f 15 9d 3e f7 b8 95 3e 96 8a 16 be
       0.025714885 0.30680463 0.2924268 -0.14701304
0000c0 8a 50 89 3d 00 f9 fd bd dc f9 43 3e ee f6 0c be
       0.06704815 -0.124010086 0.19138283 -0.13766071
0000d0 7a e5 64 be bc 18 5c 3e bc 3e 02 be 58 97 39 3c
       -0.22353163 0.2149381 -0.12719244 0.011327587
0000e0 45 e0 95 3e 03 0d 73 be b9 76 a2 bd b4 0c db 3d
       0.29272667 -0.23735432 -0.07932801 0.10695782
0000f0 52 fd 09 3e 7f c4 ad be 97 08 49 3d e2 59 c6 3d
       0.1347554 -0.33938977 0.049080458 0.096851125
000100 47 ef 02 3e 5d 79 58 3e 20 4c 22 be 8d dc a7 3e
       0.1278659 0.21140046 -0.15849352 0.32785454
000110 c7 75 9a 3d ab d0 bf bd 5c de 94 3d 6b 0b 36 be
       0.075419955 -0.09365972 0.07268974 -0.17777793
000120 b9 2c 43 be db 9a 53 be 8a cc 1b be 4d ac 46 3e
       -0.19060029 -0.20664541 -0.15214744 0.19401665
000130 44 08 c1 bd f9 37 7a be 55 c9 81 3e 3f ff 8c be
       -0.09425405 -0.24435414 0.25348917 -0.27538487
000140 6e fd 44 3c 61 b6 8a 3e db 09 4f 3e 9b 5e 3b be
       0.012023313 0.2709227 0.20218603 -0.18297808
000150 ea 99 9b 3e 6e aa 70 3e 91 cd a7 3e 64 fe 01 be
       0.30390865 0.23502514 0.32774022 -0.12694699
000160 e1 05 11 bc 5f 51 93 be 9e d8 ad be 4d a4 bf 3d
       -0.008851499 -0.2877302 -0.33954328 0.0935751
000170 e1 25 8f 3c 01 0c 19 3e 8f 25 09 be 2c 2d 06 3e
       0.017474117 0.14945985 -0.13393234 0.13103169
000180 0c 20 94 3e 21 fa a7 be 21 27 67 3e 39 b4 9f 3d
       0.289307 -0.3280802 0.2257352 0.077980466
000190 65 ca 28 bd 24 22 17 3e ee fc 8d 3e 44 a8 80 be
       -0.041208643 0.14759117 0.27732033 -0.25128376
0001a0 4a d3 8d be 5d c7 7d bd 5b 5a d3 bd 7c 3a 0b 3e
       -0.27700263 -0.061957706 -0.10319968 0.13596529
0001b0 81 b1 3c 3d f8 0d 2d be ac 9f 72 be 87 a5 4a 3e
       0.04606772 -0.1689986 -0.23693722 0.19789706
0001c0 94 bc 61 be 68 63 0a 3d be d7 16 3e 41 bc 6a be
       -0.22044593 0.033786207 0.14730737 -0.22923376
0001d0 86 de 85 be 3a 7b 9a 3e fc 1b 6f 3e 74 fa a7 bd
       -0.26146334 0.3017214 0.23350519 -0.08202067
0001e0 d4 b7 6b be 45 9e 99 be 6c 6b 60 be 8c c6 7b 3e
       -0.23019344 -0.30003563 -0.21915978 0.24587458
0001f0 e2 66 6b be dc fe 52 be 2a 61 7d be fa f3 5c 3e
       -0.22988465 -0.20605034 -0.24744096 0.21577445
000200 53 4c 8d be 06 52 81 3e c8 7f 4c be ca e2 8f 3e
       -0.27597293 0.2525789 -0.1997062 0.28102714
000210 e5 e8 82 be 3d 00 3d 3e 1d 8d 61 be d6 cd ae bd
       -0.2556831 0.18457122 -0.22026487 -0.08535354
000220 07 c6 8a 3e a7 3d cb bc 83 98 85 3e 5f f5 74 be
       0.27104208 -0.024809672 0.2609292 -0.23921727
000230 e6 e0 be be 8d 3e 8e bc b8 52 7f 3e 77 c8 e4 bd
       -0.3728096 -0.01736381 0.24933898 -0.11171048
000240 ed 2e 99 be 64 a0 37 3e 92 4b d6 3c 5a 4b 41 bc
       -0.29918614 0.17932278 0.026159082 -0.01179775
000250 0b d8 28 be d5 4f 9e be d6 27 96 3e 3b 45 68 3d
       -0.16488664 -0.30920282 0.29327267 0.05670665
000260 ac 12 0c 3d 46 7f 97 3e de 1c 84 be d1 db 80 be
       0.034197494 0.2958929 -0.25803274 -0.25167707
000270 84 07 89 3d 1b 24 d6 3d da 9b 5c 3d 26 a0 38 be
       0.066908866 0.10456105 0.05385957 -0.18029842
000280 62 ff 6a 3e b0 df 97 3e a3 82 c7 3d 8b 1c 9d 3e
       0.22948983 0.29662848 0.09741714 0.3068584
000290 62 ac c5 39 cf 8b d8 3d 49 9e 61 3e bb 1b 0a be
       0.00037703203 0.105735414 0.22033037 -0.13487141
0002a0 3f 2c 81 3e 7d 61 5a 3e 1f bd b0 bd e1 59 f6 bd
       0.2522907 0.21326251 -0.08629822 -0.12028862
0002b0 22 5b 17 be db 7f 27 be 33 18 a9 3e a4 a3 f7 bd
       -0.14780858 -0.16357367 0.33026275 -0.12091759
0002c0 47 30 36 3e d7 ff 9c be 15 d7 c2 bd 33 81 ed 3c
       0.17791854 -0.3066394 -0.0951368 0.028992271
0002d0 8e ab 03 be 89 6c 6e be 84 8b 23 bd 22 95 8e 3e
       -0.12858412 -0.2328359 -0.039927974 0.27848154
0002e0 e1 ff 4d 3e 39 20 96 3e 2b 5e 5f be 96 74 ba 3d
       0.20117141 0.2932146 -0.21813266 0.09104268
0002f0 47 e2 ca 3d 37 91 1b 3e 1e 28 18 3e 55 a9 6f be
       0.0990644 0.15192114 0.14859053 -0.23404439
000300 47 34 ca bd de 73 58 3e 7e bd a4 bd ce de 89 bd
       -0.09873252 0.2113795 -0.08043955 -0.0673195
000310 af d9 ff 3d ec a6 38 bd e9 5c 34 3d ab b5 a5 be
       0.12492692 -0.045081064 0.04403392 -0.32365164
000320 1e f3 d9 bd 04 aa 05 3e 3a b1 e7 bd 41 73 9e 3d
       -0.10642074 0.13053137 -0.113131 0.07736827
000330 af 7f 90 3e ba 4c 5c 3e 90 83 93 3e 6f 78 25 3e
       0.28222415 0.21513644 0.28811312 0.16159223
000340 25 36 85 bd 60 33 18 be 8c c0 6e be 66 d6 c6 3d
       -0.06504468 -0.14863348 -0.23315638 0.09708862
000350 49 fd ac be 8c 43 4f 3e ee cb be 3d a5 38 9b bd
       -0.3378699 0.20240611 0.0931624 -0.075791635
000360 6d ec c7 3d 0d 34 c9 bd 32 1f 16 be b2 a2 99 be
       0.097618915 -0.09824381 -0.14660338 -0.3000694
000370 41 cd c2 bd 6a 2c d1 bd 2f 44 0b 3d 04 c5 98 3e
       -0.09511805 -0.102135494 0.03400057 0.2983781
000380 6d fa 07 be 97 54 6c 3e 7d d1 05 3e da c0 02 3d
       -0.13279124 0.23079143 0.13068195 0.0319222
000390 ce 04 88 be f0 7c 3a be cc 63 62 3e 44 89 9b be
       -0.26566166 -0.18211722 0.22108382 -0.30378163
0003a0 7e 17 46 3e e8 4e 40 be 99 29 82 3d 77 a8 39 3e
       0.19344899 -0.187801 0.063555904 0.1813067
0003b0 b9 5e 73 be 2d b8 76 3e 89 86 1a 3e 4b ee 56 be
       -0.23766603 0.24093695 0.15090384 -0.20989339
0003c0 bf c0 be 38 dc 73 78 be 5a 51 2c 3d 74 2e 5b 3e
       9.095808e-05 -0.24262947 0.04206977 0.21404439
0003d0 a3 5f 13 3e 95 11 7d be 7c 08 58 bd 2b 9d 89 be
       0.14391951 -0.24713738 -0.052742466 -0.26877722
0003e0 02 3d 4e 3e 37 8a b4 bd 35 b4 98 3d d0 65 5b be
       0.2014046 -0.08815425 0.07456247 -0.21425557
0003f0 2f 6a e2 bd 66 3f 6e be d8 99 96 be d8 a1 9d 3e
       -0.11055409 -0.23266372 -0.29414248 0.3078754

bias f4 [32]
000000 a9 1e 8e 3d be 54 c9 3d 2f 62 b5 3d 7b 27 97 be
       0.06939442 0.098306164 0.08856618 -0.2952231
000010 f0 35 a2 3e 58 b5 51 bd 13 59 66 bd b0 08 5b 3e
       0.31681776 -0.051198334 -0.05623729 0.21390033
000020 62 0d a9 3e b5 23 c4 bc 73 57 3d be 6a 49 91 3e
       0.33018023 -0.023942808 -0.1849039 0.28376323
000030 8c 84 8b 3d 1c 24 64 3e 35 33 05 3e f0 9c 78 3e
       0.06812391 0.222794 0.13007815 0.24278617
000040 53 75 df bd d4 45 5c bd d0 f1 3a bd dc 41 64 3e
       -0.1091105 -0.05377753 -0.045640767 0.22290748
000050 1c 03 82 be 0e 0c 24 be 05 50 11 3d 85 c5 0e 3e
       -0.25392997 -0.16020223 0.035476703 0.13942535
000060 91 02 2b 3e 5b ed 9a 3d 96 68 86 3d 8b c5 3d bc
       0.16700198 0.07564803 0.06562917 -0.011582742
000070 b1 44 71 be 84 93 d8 bd 2d 63 c5 bd 90 55 b3 3d
       -0.2356136 -0.105750114 -0.09638057 0.08756554

weight f4 [64, 32, 3, 3]
000000 62 52 35 3d 5a 81 a0 3c be 56 86 bd dd bc 07 bc
       0.04426802 0.01959293 -0.065595135 -0.008284775
000010 33 98 0b 3b 21 74 65 3c 5f 01 88 3c 7b cd 1a bd
       0.0021300435 0.014004738 0.016602216 -0.037793618
000020 ee 71 0d 3d fa c1 3d bc 72 10 e7 bb 28 f3 89 3d
       0.03453248 -0.011581892 -0.007051521 0.067358315
000030 69 79 22 3d a7 9a 26 3b 2f 3e 30 bd 6d 72 74 3d
       0.039666567 0.002542177 -0.043028053 0.059679437
000040 d3 e3 f5 3c 39 31 84 3c 4c 21 34 bc 7a 0b b2 3a
       0.030015862 0.016136752 -0.010994267 0.0013583743
000050 a7 eb 09 3d 03 4f 02 3d fa c9 35 3c 05 eb 1d bd
       0.033672 0.031813633 0.011095518 -0.03855421
000060 d2 86 20 bd 68 24 33 3d bc 3e 32 3d 5b 25 2b 3c
       -0.039191075 0.04373589 0.04351686 0.010445918
000070 fe 48 c5 bc 33 d0 1d bd 87 76 8a 3c 01 2e 46 bd
       -0.024082657 -0.038528632 0.016902221 -0.048383716
000080 68 a6 a1 bb 0d 6c 45 bc 89 80 66 3d d4 e6 af 3c
       -0.0049331672 -0.012049687 0.056274924 0.021472372
000090 23 b3 9f 3a 93 02 d2 3c 3a 77 5b bd e9 55 69 bd
       0.0012184124 0.025635993 -0.0535805 -0.056966696
0000a0 f6 b6 55 bd 44 79 54 bc ba 84 4b bd 5c 42 96 bb
       -0.05217644 -0.012968365 -0.049687125 -0.0045855474
0000b0 34 91 0f 3d 06 10 0d bc c7 7b 61 3c f2 b7 a9 bc
       0.035050586 -0.008609777 0.013762421 -0.020717595
0000c0 a9 9f c1 3b 9b bf 3c 3d cb 6e 63 3d 78 29 34 3d
       0.0059089256 0.046081167 0.055525582 0.04398486
0000d0 49 e8 53 3d 83 7b 89 3d ec 12 56 3d bb e9 0f bd
       0.051735196 0.06713011 0.05226414 -0.035135012
0000e0 db df 92 bc 85 46 0a bd e7 d2 98 3c 95 a6 e3 bc
       -0.017929008 -0.03375866 0.018655254 -0.027789393
0000f0 14 02 b2 3c b6 78 c4 3c a7 5c 3e 3d 9e ca 5f bd
       0.021729507 0.02398334 0.04647508 -0.05463659
000100 ab f7 20 bd ed 88 87 bc f3 ee e5 bc 5c 0b 2f bd
       -0.039298695 -0.016544783 -0.028068041 -0.042735443
000110 6d 0c ce 3c 3b 94 f2 3c 26 f5 88 3c fa 74 41 bd
       0.02515241 0.029611697 0.016718458 -0.0472307
000120 41 51 69 3c 37 55 f2 3c 3b 83 ca bd a2 06 bb 3c
       0.014240564 0.02958165 -0.098883115 0.022830311
000130 cd 75 a6 bc db a4 c2 bd 6c 5c 7d 3c 0d a4 88 bd
       -0.020319844 -0.095041 0.01546393 -0.06671915
000140 29 2f de bd db 1b 4e 3d 16 5f b0 bc d9 ac 10 3c
       -0.10848839 0.050319534 -0.021529716 0.008830273
000150 65 c1 15 3d 03 3e ca bc 1a ee b3 bc d3 32 48 bd
       0.03656139 -0.024687773 -0.021964122 -0.048876595
000160 85 3c d3 3c 95 d3 14 bd a8 60 13 bd 29 dc 1d 3b
       0.025785694 -0.036334593 -0.03598085 0.0024087525
000170 49 bd 30 3c 00 70 7e 3b fa b8 f8 3c b9 2e 2a bd
       0.010787317 0.0038824081 0.030361641 -0.041548464
000180 f5 cc 7a bc db 89 51 3c 6f 7c 70 bc 6a 41 81 bc
       -0.015307655 0.012789215 -0.014678105 -0.015778262
000190 bc bd f1 3b 72 b0 a4 3d 1b 13 14 3c 93 44 2b 3d
       0.0073773544 0.08041467 0.009037758 0.041813444
0001a0 7c c8 bf 3d ea 18 4e 3d 6c 7f ac 3c b0 0d a1 3d
       0.09364411 0.05031673 0.021056853 0.07863939
0001b0 0f 58 f6 bc cd 7e 65 3d 85 97 0e 3c 41 99 43 bd
       -0.030071286 0.05602913 0.008703117 -0.047753576
0001c0 e0 38 64 bd bf d4 b6 bd 46 6e 3e 3b ff 27 c4 bd
       -0.055718303 -0.08927297 0.0029057427 -0.09577941
0001d0 ec b8 af bd 0c b3 5b bd 68 2c c4 3a f2 dc 90 bd
       -0.08580193 -0.05363755 0.0014966847 -0.07073392
0001e0 13 1e 6d 3c 6d 8d 3f 3d 95 81 bc bc a6 3a 4f bb
       0.014472502 0.046765734 -0.023011008 -0.003162065
0001f0 6f 9f 09 3c 23 39 4d 3c 1a c0 3b 3d 9c 99 61 bc
       0.008399828 0.0125258295 0.0458375 -0.0137695335
000200 86 63 eb 3d b5 4f 2b 3d 66 b1 ad bc 6f f8 a1 3d
       0.11493592 0.04182406 -0.021202754 0.07908713
000210 32 4f 82 3c 83 e6 b9 3d 06 db 07 3e 8e 8e f4 bc
       0.015906904 0.0907717 0.13267145 -0.029853132
000220 b6 95 71 3c 0b c7 92 bc 87 7c 97 3b 80 43 88 bc
       0.0147451665 -0.017917177 0.004622999 -0.016633749
000230 e9 0d 29 bb 5f 95 a2 bc 8d 14 70 3c d4 c5 23 bd
       -0.0025795645 -0.019846616 0.014653337 -0.039983585
000240 dc 36 73 3c 23 58 b3 3c 4c 9f 8a 3d 42 8d 16 3d
       0.014844622 0.021892613 0.06768665 0.036755808
000250 0d e1 ce 3b 53 3b 40 3d 99 e6 22 3d 76 08 4c 3d
       0.0063134492 0.046931576 0.039770696 0.049812756
000260 d7 f8 c2 bc 11 30 45 bd a5 9b ac bc ba fc c4 3c
       -0.023800297 -0.048141543 -0.02107031 0.02404629
000270 85 70 56 bb 9f 56 0a bc cc f8 3f bd ca 53 4f bc
       -0.0032720875 -0.008443504 -0.04686813 -0.012654254
000280 d0 94 4d 3d be c1 21 ba 8f 63 47 bd 28 38 0e 3d
       0.050190747 -0.00061705324 -0.04867893 0.034721524
000290 e3 6e cf 3c 28 3e b5 3c bf 3e 23 bd 4b cb a4 bc
       0.02532143 0.022124365 -0.03985476 -0.020116469
0002a0 28 06 b0 bc 1c 69 6b 3b 9a 2c 5c 3c cc 71 a6 ba
       -0.02148731 0.0035920804 0.013438368 -0.0012698709
0002b0 61 93 7c 3c 53 6e 80 3d 6a 80 95 3c a3 06 43 3d
       0.015415997 0.06271043 0.01824971 0.04761375
0002c0 33 7c 86 3c cc 5e c8 3c 34 26 70 3d 00 ac 9c 3c
       0.016416645 0.024459265 0.058630183 0.019124985
0002d0 9d e1 19 bd 84 1d 0b bd 3e 22 86 3d a8 15 b7 bb
       -0.037568677 -0.033963695 0.065495 -0.0055872984
0002e0 30 cd a5 bc 9c d8 37 bc 4c 76 c1 3c 5f 3e 68 bd
       -0.020239443 -0.011221077 0.023615979 -0.056700107
0002f0 a1 b2 f6 bc 6f 4a 60 3c 73 8c ca 3c f7 f2 8a bc
       -0.030114474 0.013689621 0.024725175 -0.016961558
000300 61 ea 41 bd e4 e1 4f bd 46 10 dc bc 52 e8 de 3c
       -0.04734266 -0.050752535 -0.026863229 0.027210388
000310 f9 39 02 bd 68 6b 5a 3d e7 5e 5f 3d fc 6c 38 bd
       -0.03179357 0.053325087 0.054533865 -0.04502581
000320 f6 5f 0d bc 39 79 13 3d 89 37 3c 3d e6 13 ec 3c
       -0.008628836 0.03600428 0.0459514 0.028818082
000330 f9 22 0a 3b 34 f3 68 3d cc fa 24 bd 69 9c 26 3d
       0.0021077974 0.05687256 -0.04027824 0.040676508
000340 14 5f 81 bc d3 d0 35 bd d4 95 fa 3c 34 30 fd 3c
       -0.015792407 -0.044388603 0.030589022 0.030906774
000350 e5 17 19 bd 01 64 a6 ba f6 f2 ec 3c d7 cd f5 3c
       -0.037376303 -0.0012694598 0.028924447 0.030005379
000360 9a e2 2c 3d 48 4c 38 bd 02 7d c5 bc 69 46 3b bd
       0.04220829 -0.044994622 -0.02410746 -0.045721445
000370 9a d1 bf 38 cc 46 b7 3c 72 a2 9f 3d 22 82 63 3b
       9.146631e-05 0.022372626 0.07794656 0.0034715016
000380 ca f9 d8 3d 86 17 49 3d 3b 6a 09 bd 6c 40 a1 3c
       0.105945185 0.0490947 -0.033548575 0.019684039
000390 60 91 08 bd c0 a1 6e 3c 03 f0 9d 3d 2e 17 af 3d
       -0.033341765 0.014564931 0.07711794 0.08549343
0003a0 31 f6 ae 3c 58 3b f7 39 98 29 b0 bc 4e 29 e0 bc
       0.021357628 0.00047155726 -0.021504208 -0.027363446
0003b0 17 bc 36 3c 53 85 1f bd c4 42 fb bc c3 22 66 3d
       0.011153243 -0.038945507 -0.030671485 0.056185495
0003c0 21 a7 7b bc 0d af c2 bc 1e 64 2a 3d 88 4d 03 3d
       -0.015359671 -0.023765111 0.041599385 0.03205636
0003d0 76 9b 3f 3d 07 0e 04 3e ba 49 fb 3c 66 71 30 3d
       0.04677912 0.12895976 0.030674804 0.043076895
0003e0 58 28 f3 ba 40 50 85 3d d4 8e c6 3b fe f0 be 3d
       -0.0018551452 0.06509447 0.006059507 0.09323309
0003f0 b8 5f 72 3d d3 46 13 3c da b3 05 3d 14 15 1e bd
       0.059173316 0.008989054 0.032642223 -0.03859432

bias f4 [64]
000000 64 84 a6 3c b3 09 5e 3d ca 56 7a 3c d4 b9 f6 3b
       0.0203268 0.05420847 0.015279481 0.0075294767
000010 11 5d 58 3d f7 88 30 3d 3f d9 04 bd 08 cf 7f 3b
       0.05282313 0.04309937 -0.032433745 0.0039033312
000020 98 84 c3 bd cf ee 18 3e 32 69 8b 3d d5 80 c9 3d
       -0.095467746 0.14934848 0.06807174 0.09839026
000030 a7 44 a3 bd 7c 6e d3 3d 04 6a 14 3d 3b 90 27 3e
       -0.07972079 0.103238076 0.036233917 0.16363613
000040 14 a2 04 3e c9 e0 2e 3e 6c 94 bf 3c 44 63 dc 3c
       0.12952453 0.17077936 0.023386203 0.026902802
000050 f9 ce 2b bd 5e d9 1c bd 77 d9 07 bd 5f c1 78 3d
       -0.04194543 -0.038293235 -0.033166375 0.060731288
000060 48 47 65 bd ec 5a 60 3d be e6 81 3d 97 2e f7 bc
       -0.055976182 0.05477421 0.06342839 -0.030173583
000070 8a 67 b6 3d 3e 47 c7 bd 40 91 8d 3d b2 72 81 3c
       0.08906467 -0.09730385 0.0691247 0.015801761
000080 36 2f 7f 3d 72 91 45 bd 93 0d dd bc f0 7d 06 be
       0.062300883 -0.04823441 -0.026984012 -0.13133979
000090 8d 8c 37 3d 4f f3 a4 3c 41 41 15 3d 9f ac a0 3d
       0.044811774 0.02013555 0.036439184 0.07845425
0000a0 ff 62 24 3d 1b b2 e2 bb 48 c5 ee 3a 4c 5b 0e 3d
       0.040133473 -0.0069182045 0.0018216753 0.034755036
0000b0 4c 21 07 3d 75 5d 8e 3d 24 1f 12 bd 98 97 7e bc
       0.03299074 0.06951419 -0.03567423 -0.015539072
0000c0 ef fd ed bd 6d c1 a2 3d 7f 32 0c bd eb 5f 36 3d
       -0.116206996 0.07947049 -0.034227844 0.04452507
0000d0 a4 56 7a 3d c1 8a 24 3d 88 c0 1e 3d 36 6c 20 3d
       0.061117783 0.04017139 0.03875783 0.039165698
0000e0 cf ba a0 3c f8 93 90 3d f1 37 22 3c 23 63 21 bd
       0.019620327 0.07059473 0.009901033 -0.039401185
0000f0 12 b2 47 bd cc d3 88 3d 49 98 33 bd 56 a8 80 3d
       -0.048753805 0.06681022 -0.043846402 0.062821075

weight f4 [128, 64, 3, 3]
000000 4f 73 86 bd be 92 ba bb 17 60 3e bd a4 8d 0e bd
       -0.06564962 -0.0056937626 -0.046478357 -0.034803048
000010 64 2f 82 bc b0 87 4a bd b6 58 39 bd fb d4 50 3c
       -0.015891738 -0.049445808 -0.045250617 0.012746091
000020 f3 fe 0f bc b6 5e f1 bc 24 a4 a5 bc 71 03 07 3d
       -0.008788812 -0.029464107 -0.02021987 0.032962266
000030 16 f3 2e bc 44 e7 f7 bc d7 0c 09 bd a5 4f 00 bd
       -0.010678073 -0.030261643 -0.03345951 -0.031325955
000040 d8 7d b4 3c f8 93 f3 3c 16 29 2f bd d2 3d a9 bc
       0.022032663 0.029733643 -0.042763792 -0.020659361
000050 93 63 2a 3d 64 a4 5f bc 38 d2 7c bc 5d 77 2f 3c
       0.041598868 -0.013650034 -0.015430979 0.010709611
000060 fb ba e1 ba 5b 7f b7 3c 90 02 27 bd 93 e0 f1 3c
       -0.0017221862 0.022399595 -0.04077393 0.02952603
000070 f1 29 3c 3c 50 78 ab 3c 78 53 fd 3c af 6a 96 3b
       0.011484609 0.020931393 0.03092359 0.0045903544
000080 8c 65 ba bc 10 cd 27 bd a6 0d 46 3d c6 de 3c 3d
       -0.0227535 -0.040967047 0.04835286 0.04611089
000090 e0 c4 d0 3b e3 b5 5a bc b3 bd ca bc ef 9c 16 bd
       0.0063711256 -0.013349029 -0.024748659 -0.036770757
0000a0 fe eb b9 3c 9b 17 1d 3d 1d 20 75 3a f5 7e 16 bd
       0.022695538 0.03835259 0.00093507936 -0.03674217
0000b0 4c 65 2b 3d 64 9c 69 3c 85 2f 39 3d d7 18 e7 bc
       0.04184465 0.014258478 0.045211334 -0.028210087
0000c0 4a 77 19 3a c0 17 20 3d ff a2 89 bb b4 44 3d 3c
       0.0005854262 0.03908515 -0.004200339 0.011552025
0000d0 6e fe 18 3d d0 4a bf bc aa ef 4e bb 14 bf f4 bb
       0.037352018 -0.023351103 -0.0031575956 -0.0074690674
0000e0 58 cf 82 bc f1 b4 fb bc 42 d1 f5 bc 5b 11 b6 bc
       -0.01596801 -0.030725928 -0.030007008 -0.022225073
0000f0 95 fb 1f 3d f2 d2 51 3c c3 87 36 3d 27 ce 28 3d
       0.039058287 0.012806641 0.044563066 0.041212227
000100 d3 f7 81 ba a0 f6 e3 3c 53 ac 53 3b af 4e 85 3c
       -0.0009915776 0.02782756 0.0032298758 0.01627287
000110 b7 c6 c6 bb 37 53 8c 3c e1 36 0d 3d 45 a9 27 bd
       -0.006066169 0.017129524 0.034476165 -0.040932912
000120 c7 7a 78 bd 11 09 31 3c a4 23 41 bb ac d4 85 bd
       -0.060663965 0.010805384 -0.0029470706 -0.065347046
000130 ef 27 9c bd 56 a7 5f 3c ee 55 5b bd cb 85 20 3c
       -0.07624804 0.013650736 -0.053548746 0.009797524
000140 9b d2 2b 3d 03 9f 8c bd 45 72 8c bb e7 ce 03 bb
       0.041948896 -0.068662666 -0.004286083 -0.0020112337
000150 95 57 f0 bc ca 9d 34 3d 7c e5 87 bb 54 99 0f bc
       -0.029338637 0.044095792 -0.0041472297 -0.008764584
000160 f4 34 48 bd 74 e4 64 bd f8 47 5a bc bc c4 d1 bc
       -0.048878625 -0.055881932 -0.013322823 -0.025606506
000170 bb ac 80 3b 18 cf 9c b8 ec b6 cb bc df 1a f4 bb
       0.003926841 -7.477234e-05 -0.024867497 -0.0074494923
000180 33 16 17 bd 83 ca ad bc 95 de 65 bc f8 74 24 bd
       -0.036886405 -0.02121473 -0.0140301185 -0.040150613
000190 76 02 7e 3c 0d 45 c3 bb 1e 4f 5d bd 98 4c 46 3d
       0.015503516 -0.005959159 -0.05403053 0.04841289
0001a0 75 0c f0 bc 92 e3 f8 bc 1d ae 81 3c f5 ca cc bb
       -0.029302815 -0.030381951 0.015830094 -0.0062497803
0001b0 5a f7 55 3c 01 fa fc 3a d9 fc 8d bc 66 ca 83 bc
       0.0130594615 0.0019300581 -0.017332481 -0.016087722
0001c0 ed 64 04 3c b7 17 ed 3c 89 36 db bc 62 35 0d 3c
       0.008080703 0.028941972 -0.026759403 0.0086186845
0001d0 c7 ea b1 3c f5 1c 6e 3d b2 d4 87 3c a7 73 0a bd
       0.021718396 0.058133084 0.016580913 -0.0338017
0001e0 5c 81 3e 3d 87 4a a0 3c f7 a4 82 bb 33 69 90 3d
       0.046510085 0.019566787 -0.0039869505 0.07051315
0001f0 6d ce a9 3c 41 f7 86 3d ff 24 42 39 62 03 3f 3c
       0.020728314 0.06590129 0.00018515064 0.011658521
000200 bf 92 26 3d c3 92 1d 3d 82 75 87 3c 91 a2 e8 3b
       0.04066729 0.03847004 0.016535524 0.0070994576
000210 5a 22 a1 3c c5 a8 02 3b 82 80 b6 3c a9 54 f6 3c
       0.0196697 0.001993702 0.022278074 0.030069666
000220 05 8a 0e bd 49 c7 9e 3c 59 13 45 bd 77 4b 2f bd
       -0.034799594 0.019382136 -0.048114154 -0.04279658
000230 4d 5d 00 bd d2 a9 58 bd 71 f4 8d bc 82 b2 43 3c
       -0.03133898 -0.05289633 -0.017328473 0.011944415
000240 53 de 53 bd b3 32 97 bc 6d 41 c7 3b 86 1a d4 3c
       -0.051725697 -0.018456792 0.0060807974 0.025891554
000250 9f 0a e8 3c 6a c8 07 3d 87 db 37 bd 0d 90 0d bb
       0.028325377 0.033150114 -0.044887092 -0.0021600754
000260 12 47 a2 3c 71 82 39 bd f5 3d b5 bc ad 85 fd 3b
       0.01980928 -0.045290414 -0.02212427 0.0077368827
000270 73 0b c7 3c d0 b0 a0 3a f1 84 ab 3c f5 91 12 bd
       0.024297452 0.0012259725 0.020937415 -0.035783727
000280 8a ae 40 bc d4 07 6d 3c c9 8d 83 3b 51 2a 91 3c
       -0.011760363 0.014467198 0.004014705 0.017720373
000290 ea f8 a8 3c e2 26 25 bd c8 93 18 bc cf 65 a1 3b
       0.020626504 -0.040320285 -0.009312578 0.0049254666
0002a0 1b 4d ba bc d0 27 c9 bc a4 61 30 bc f8 f4 6b 3b
       -0.022741845 -0.024555117 -0.010765467 0.0036004167
0002b0 2f f0 9e bc 5b aa d2 bc 8e 81 18 3b 92 f0 41 3c
       -0.019401638 -0.025715997 0.002327058 0.011837142
0002c0 c0 84 0d bc 51 56 ac bc 95 65 dc 3b dd a9 21 bd
       -0.008637607 -0.021037253 0.0067259767 -0.039468635
0002d0 9e 48 ab bb e1 f4 06 bd e3 db 04 bc e7 c2 91 bc
       -0.0052271625 -0.03294838 -0.008109066 -0.017793132
0002e0 40 1c f5 bc 30 5e 63 b9 0a 7e 95 bb fa 64 1e bd
       -0.029920697 -0.00021683495 -0.004562144 -0.038670518
0002f0 30 31 b9 bb e7 06 e5 3c 8a 95 d0 3a 76 85 13 3d
       -0.0056516156 0.027957393 0.0015913707 0.03601595
000300 8e 5b 43 bc 7a e2 a9 bc d9 bc 9d bc a7 e5 04 bd
       -0.011923684 -0.020737875 -0.019255089 -0.032445576
000310 53 e8 61 bc fe 21 0c 3d ec ea d4 3c aa 93 39 bb
       -0.013788301 0.034212105 0.025990926 -0.0028316774
000320 9f b0 7b 3d b1 30 83 bc c5 d1 91 ba 88 c4 38 3d
       0.061447736 -0.016014429 -0.0011125138 0.0451093
000330 a9 ee e6 3b bb 82 85 bc 59 5d 15 bb bf 37 1e bd
       0.0070474935 -0.016297689 -0.0022791235 -0.038627382
000340 23 cd b0 3c b9 9d 05 3b ff 20 cd bc 5d 0e 20 bd
       0.021582192 0.00203882 -0.025040148 -0.039076198
000350 ff e3 ce bc 86 e8 e2 3c a0 0e 1f 3c 93 b8 1c 3c
       -0.025255201 0.027698766 0.009708077 0.00956549
000360 fd 3d 0d bc 82 88 06 bd 27 16 3b 3d 62 52 34 bb
       -0.008620736 -0.032845028 0.045675423 -0.0027514924
000370 7e 2a 1e 3d be af 07 3d e4 ba a4 3c d5 20 c4 3c
       0.038614742 0.033126585 0.020108648 0.023941437
000380 94 8f 94 bc f0 d5 a1 3c e0 f0 08 bb 0d ee 31 3d
       -0.01813487 0.019755334 -0.0020895526 0.043439914
000390 d7 dd 44 bc 6f be 94 ba a7 ab f9 bc 80 80 12 bc
       -0.012015781 -0.0011348258 -0.030477358 -0.00894177
0003a0 ae e2 5b bb 54 cd 2e 3c d0 71 23 bc f7 f7 9a bc
       -0.003355186 0.010669071 -0.0099758655 -0.018917067
0003b0 2c fd 22 bd c4 71 20 bd 35 42 69 bc 17 ed 1c 3c
       -0.039792225 -0.039170995 -0.014236976 0.009578011
0003c0 87 f0 88 bb a1 5d f1 3c 8d 25 8e 3c 46 f0 82 bc
       -0.0041790637 0.029463591 0.01735189 -0.015983712
0003d0 48 33 fa 3c e4 f6 dd b8 14 53 e9 bc 7b fb 37 3c
       0.03054203 -0.00010584088 -0.028481998 0.011229391
0003e0 6a 42 12 bb ad 57 1b bc 51 3a 77 3c 89 24 9f bc
       -0.0022317418 -0.009481353 0.015089587 -0.019426601
0003f0 8c 28 c2 3c 30 73 1f bb f9 cc 11 ba 17 9a b4 bc
       0.023700975 -0.0024330132 -0.00055618543 -0.022046132

bias f4 [128]
000000 c5 b2 0f 3c 06 88 5b 3d 7b 6f 39 3c d6 2c 07 3d
       0.008770649 0.05359652 0.011318083 0.033001743
000010 f9 dc 37 bd 6f 3f 56 bd 45 96 57 bd b4 3b b0 bc
       -0.04488847 -0.05230659 -0.052633543 -0.021512844
000020 e8 9d cd 3b 05 28 a7 3d bc 34 fc 3c 5a c7 fe bd
       0.0062749274 0.0816193 0.030786864 -0.12440367
000030 99 db bf bd 81 9b 54 bd 9b 11 55 bc 45 c6 88 bc
       -0.09368057 -0.051906113 -0.013004686 -0.016696105
000040 fc 77 0b 3c d8 5b 39 bd 7e 5e 54 bd 8f 65 d6 bc
       0.008512493 -0.045253605 -0.051847927 -0.026171474
000050 f8 58 01 bb 6e 8a 92 3b 92 ce f2 3c c9 f6 d5 bc
       -0.0019736867 0.0044720685 0.029639516 -0.026118653
000060 aa dd ad bd ed 35 9d 3d e8 8a ca bd 9d 05 30 3d
       -0.08489545 0.07676301 -0.098897755 0.042974103
000070 26 49 a9 3d 4d a2 5e be 9a c0 91 bc aa 1c 58 bd
       0.08265905 -0.217416 -0.017792035 -0.05276171
000080 ea df 03 3c 0d e4 36 bc 87 69 af bd 1b 66 00 bd
       0.008048991 -0.01116277 -0.085650496 -0.031347375
000090 6c 34 1f 3d 0d 36 22 be e4 b0 9a 3d 68 e7 64 3d
       0.038868353 -0.15840931 0.075532705 0.05588475
0000a0 9e 89 02 3e a9 16 a8 bc 4a fd 2f bc ee 96 0b bd
       0.1274781 -0.020518618 -0.010741541 -0.034079485
0000b0 1b 82 74 3d da 91 bd 3d 69 62 38 bc 0a d5 f8 bc
       0.05969439 0.092563346 -0.011253932 -0.030375022
0000c0 e9 bb 11 bd e5 37 8a bd 86 d3 73 3d e2 c1 41 3d
       -0.035579596 -0.06748942 0.059527896 0.04730404
0000d0 8a 79 b4 bc 5c 0d a9 bc 2f dd ac 3c 1d e7 5d 3d
       -0.02203061 -0.020636253 0.021101562 0.054175485
0000e0 5c d9 c9 3d 18 e2 9c 3c 7e 7d 68 3d a4 9f b6 bc
       0.09855911 0.019150779 0.056760304 -0.02229292
0000f0 67 c0 15 3e a8 59 9d 3c c8 13 ae 3b cc 06 43 bc
       0.14624177 0.01920779 0.0053124167 -0.011903476
000100 68 05 a1 bc 96 2c e4 bb 01 9f 49 3d af c9 15 bc
       -0.019655898 -0.006963323 0.049223904 -0.009142323
000110 78 b6 13 3d 80 aa 71 bd 13 52 05 3d db 50 74 bc
       0.036062688 -0.059000492 0.032548975 -0.014911856
000120 b5 64 d3 bc 98 d3 bc 3c 33 41 fb 3c 01 f4 aa bc
       -0.025804857 0.023050115 0.030670738 -0.020868303
000130 10 6a 26 3d 8c 3c d7 3d 8f ac 8b 3c 0d 60 08 3d
       0.040628493 0.10509595 0.017050056 0.033294726
000140 17 64 d1 3c 05 d2 de 3a d2 eb 2c 3d be d1 75 3c
       0.025560422 0.0016999847 0.042217083 0.01500362
000150 24 10 6f bc fc 00 70 3c 4c 08 6d 3d f2 4b d9 3b
       -0.014591251 0.014648672 0.05786924 0.006631368
000160 9e e8 40 bb 71 fc 8a bc 2e 4a 84 3d 25 2e aa bc
       -0.0029435526 -0.016966077 0.06459461 -0.020773957
000170 94 09 e3 3c 18 53 4f 3c 8f 34 19 be 3b d7 20 bc
       0.027714528 0.012654088 -0.14961456 -0.00981694
000180 56 7d c6 ba 19 94 d3 bb d6 a8 09 3d 80 dd 6f bd
       -0.0015143554 -0.0064568636 0.03360828 -0.05856085
000190 17 6c cb bd 21 5d cc bc 3c 91 b3 3c c3 02 f8 38
       -0.09932726 -0.024946751 0.02191984 0.00011826076
0001a0 31 4a 03 be a1 19 6a 3d fe cd 03 3d 91 f3 0d 3e
       -0.1282127 0.057153348 0.03217887 0.13862444
0001b0 13 53 38 bd 8e e4 1a 3d 0d 5b 56 bd 6a cc a7 3d
       -0.0450011 0.037815623 -0.052332927 0.08193286
0001c0 b8 3f be bc 45 1a 96 bc 0b 94 b3 bd 30 aa 31 be
       -0.023223743 -0.018323073 -0.08768471 -0.17350078
0001d0 a6 ca 5e 3d 2a 7a 95 3c ee ae 5e 3c 0b 83 1c 3d
       0.05439248 0.018246729 0.013591511 0.03821091
0001e0 b5 ab 39 3d 5e 36 91 3c 95 8b 98 3e 8f 72 34 3d
       0.04532977 0.01772612 0.29793993 0.044054564
0001f0 cc 2c 9c 3b ac 9f 06 bd df 44 e5 3c 9a f8 80 bb
       0.0047660824 -0.03286712 0.027986942 -0.0039358856

weight f4 [128, 64, 3, 3]
000000 5c ad 42 bb a5 df 08 bc 50 ea 59 bb 51 7d 88 bb
       -0.002970538 -0.008354102 -0.0033251233 -0.0041653295
000010 c8 0f 47 3c 6c 93 ee 3c 4f 11 00 bc 8f 1a 0f 3c
       0.012149759 0.02912303 -0.007816627 0.008734359
000020 f0 e8 18 bc ec ba 89 3c 72 14 be bc 94 73 46 bc
       -0.00933288 0.016812764 -0.023203108 -0.012112517
000030 b7 6e da 3c d9 32 b5 bc 14 81 cb 3c 7f dd 31 bd
       0.026664121 -0.022118973 0.024841823 -0.043424126
000040 ae de eb bb 2c 6c 9d 3c 5a a3 95 bb 92 fe 8b bc
       -0.0071981763 0.01921662 -0.004566592 -0.017089162
000050 14 f2 a5 bc f5 c3 04 bc 10 5f b0 bc 25 48 86 bb
       -0.020257033 -0.00810336 -0.021529704 -0.0040979558
000060 3e 1c 1c 3c 74 b3 03 bb af d3 94 bc b8 7a 5c bc
       0.009528218 -0.0020095976 -0.018167345 -0.013456993
000070 e5 5d b2 bc 93 ad 28 3c 92 ff ab 3c 9f 3f 0b bd
       -0.021773288 0.01029529 0.020995889 -0.03399622
000080 83 3a 16 bd fc 79 ad 3b 61 d3 f8 3c cd 38 9c 3c
       -0.036676895 0.0052940827 0.03037423 0.019070053
000090 a2 18 7e bc 65 2a f6 bb c1 b2 2f 3c 5d 62 1b 3d
       -0.015508803 -0.007512378 0.010723771 0.037935603
0000a0 c9 c9 00 bc a1 10 a7 3c a4 e1 4a 3b 8a ca 2f bc
       -0.007860609 0.020393671 0.0030957246 -0.010729441
0000b0 1d bf e5 bc 09 3d 00 3c 7a 25 1b 3d f3 6b e7 bc
       -0.028045231 0.007827052 0.037877537 -0.028249716
0000c0 c9 4e 2e bc 8d a0 32 3c 21 ec 22 bd 86 69 e3 3c
       -0.010638901 0.010902536 -0.03977597 0.027760278
0000d0 7d 09 07 3d 7f 24 31 bc 2e 3b 00 bd 43 60 f0 3b
       0.032968033 -0.010811924 -0.03130644 0.007335694
0000e0 e1 49 e7 bb 23 08 c9 3c 4e 15 84 3c 94 76 53 3d
       -0.0070583676 0.024540013 0.01612344 0.051626757
0000f0 b1 35 83 bd dc c4 8d 3c ee 9f 9e bc b7 17 04 bd
       -0.06406725 0.017305784 -0.01936337 -0.03224918
000100 56 74 23 bc 37 94 20 bd b2 02 f1 3b 47 7b c8 bc
       -0.009976467 -0.03920385 0.0073550576 -0.024472846
000110 97 a0 3f bc 8b 24 de 3c 60 d3 ce 3c c3 49 8d 3c
       -0.011696002 0.027117034 0.025247276 0.017247086
000120 32 39 5c bc f3 56 0f 3d ee b8 1a 3d 3c 97 f4 3c
       -0.013441371 0.03499503 0.03777402 0.02985727
000130 b4 4c 06 3c a0 10 1d bd ad a7 df 3c b9 60 cd 3c
       0.008196998 -0.038345933 0.027301634 0.025070535
000140 fb 0b 27 bc 10 27 37 bd 41 ed dc 3c 00 ff 89 3b
       -0.010195727 -0.044714987 0.0269686 0.0042113066
000150 91 8d d3 3b 44 93 68 bc ca 0c 49 3c c2 51 18 bd
       0.006456085 -0.014195267 0.012271116 -0.037187345
000160 21 04 12 3b 2d 9b bb 3c c9 92 53 3d ee cf 0f 3d
       0.0022280293 0.022901142 0.051653657 0.035110407
000170 9c 92 a8 bb 22 af c5 bc 8f c5 ab 3c d5 97 94 bc
       -0.0051444303 -0.024131361 0.020968227 -0.018138805
000180 fa 3f 5e 3d be a7 bb 3d e0 86 ae 3d f6 fc 0a bd
       0.05426023 0.09162854 0.08521819 -0.03393265
000190 8e 27 e9 bc c2 82 33 3b 46 57 65 bc 63 00 6e bc
       -0.028461244 0.002739117 -0.013997858 -0.014526459
0001a0 b1 02 8d bb 38 73 f6 bc 53 de 13 bd e9 b7 d3 3c
       -0.0043032994 -0.030084237 -0.036100697 0.025844531
0001b0 ef 8a b9 bc b0 4e f2 bc e2 8d d1 3c c0 cf 2a bd
       -0.022649257 -0.029578537 0.02558035 -0.041702032
0001c0 7e 60 f7 3c e1 81 2c bd 4f 97 d1 3c 63 84 a2 bc
       0.030197378 -0.04211605 0.025584845 -0.019838518
0001d0 32 72 41 bc b9 3d 40 ba 35 24 89 3c 56 fd c5 bc
       -0.011807011 -0.0007333416 0.016740898 -0.024168652
0001e0 50 ff a5 bc 79 9e 70 3c b5 07 f7 bc 5f 40 d5 3a
       -0.020263344 0.01468622 -0.030155042 0.0016269794
0001f0 15 f2 55 bc d1 4a 66 3c 05 a6 9d 3c 48 90 0f bd
       -0.013058205 0.014055924 0.019244203 -0.035049707
000200 f4 68 63 3c d2 1a 8d ba 78 da 29 3c 99 e4 ac bc
       0.013880003 -0.0010765439 0.010367028 -0.021105098
000210 91 61 61 3d bf 54 0c 3d 01 3f 80 3d f4 c0 9e bc
       0.055024687 0.034260508 0.06262017 -0.019379117
000220 d3 68 5c 3c cb 44 5d 3c ff 32 49 3c 52 98 ef 3a
       0.013452726 0.013505171 0.012280225 0.0018279648
000230 32 c6 83 bc 31 22 2f bd 3f e6 b0 bc 5f 11 1f 3d
       -0.016085718 -0.042757217 -0.021594165 0.038834926
000240 f0 27 17 bc b2 37 53 ba 61 8b fb bc cb 12 df bb
       -0.00922583 -0.00080573105 -0.03070611 -0.00680766
000250 50 3e de bc 23 d8 59 3c dd 71 19 3c ab cd 07 bd
       -0.027129322 0.01329616 0.009365526 -0.033155125
000260 9e 89 ad bc 21 06 ec bc 0f 9a cd bc 21 9b 00 3d
       -0.021183785 -0.028811516 -0.025097875 0.031397942
000270 96 42 1e 3b 51 c8 50 bc 3d 06 20 bd c0 3d 98 3c
       0.0024148575 -0.012743072 -0.03906845 0.018584132
000280 64 cf f8 3b 0d 47 87 bc 1c 2e 18 bc 2b fc 5e 3c
       0.0075930823 -0.016513372 -0.009288337 0.013609926
000290 1e ba 08 bd f8 3b 39 3c 22 72 8e bc 4b 5d 05 bd
       -0.03338062 0.011305802 -0.017388407 -0.032559674
0002a0 90 a1 45 bd cb 1e bb bc 06 a5 3b bd da d1 f3 3b
       -0.04824978 -0.022841832 -0.045811675 0.0074407877
0002b0 7d 90 e2 b8 f0 51 64 3c a6 de 5d 3d c1 0f 83 3d
       -0.00010803433 0.013935551 0.054167412 0.06399489
0002c0 69 c0 ed 3c 65 86 86 b8 3c 3a ba 3c 13 15 16 3d
       0.029022412 -6.414651e-05 0.022732846 0.03664119
0002d0 29 cd 72 bc 7a 08 e3 3c 3c 59 49 3c 4a 6e d7 bc
       -0.014819422 0.027714003 0.012289342 -0.026297707
0002e0 be fb 41 3d 01 fc 28 3a f7 79 9c bd 94 3b 43 3d
       0.04735922 0.0006446243 -0.076404504 0.04766424
0002f0 73 63 34 bd 31 1e b1 bb 88 84 3b 3c 35 e2 83 bc
       -0.044040155 -0.0054052104 0.011445172 -0.016099075
000300 56 e2 0e bb 37 f3 f3 bc 72 97 c4 bc 50 8e b7 3c
       -0.0021802387 -0.02977906 -0.023997996 0.022406727
000310 16 dc 34 bc 12 5d e9 bb 7e 04 02 bd 12 63 0d bc
       -0.011038801 -0.0071216905 -0.031742565 -0.008629577
000320 c2 89 5f bb 04 22 82 bd b2 83 be bc 6c 93 93 bc
       -0.003410921 -0.06354144 -0.023256157 -0.018014632
000330 28 8c f1 bb 05 91 68 3c a8 b0 2b 3d f3 ae 43 bc
       -0.0073714443 0.014194732 0.04191652 -0.011943567
000340 a4 4d 48 3d 79 9a 81 3d 0d 6a a0 bc 18 89 23 3c
       0.04890217 0.063282914 -0.019581819 0.009981416
000350 c5 fa 53 3c 04 29 84 3d 6d 11 51 3c ed f8 01 3d
       0.012938206 0.064531356 0.012760502 0.031731535
000360 67 ca 19 bc 08 86 fa 3c f6 ca 88 3c 6f 21 81 3c
       -0.009386635 0.03058149 0.016698342 0.015763013
000370 bd 3d 66 3b 2b 8e 3e bb 22 3a 29 bd 0b cc 0f 3d
       0.0035132014 -0.0029076438 -0.041315205 0.0351067
000380 17 e0 be bc 9e fc 9d bc ce 4d 36 bc 01 19 01 3d
       -0.023300214 -0.019285496 -0.0111269485 0.031517986
000390 3a a4 95 3b b2 db 1e bd 56 63 9c 3d ae e7 2b bd
       0.0045666965 -0.038783737 0.07636134 -0.041968994
0003a0 52 7a f9 3c 44 9f c8 3c 26 0a 1c 3c 79 72 5b bd
       0.030453835 0.024490006 0.009523904 -0.053575967
0003b0 bd 40 8b 3c 4a 16 3c 3b f7 9f d4 3b 10 67 10 bd
       0.016998643 0.0028699809 0.006488796 -0.035254538
0003c0 f7 5b 44 bd bd 52 68 bd cb 04 40 bd 7f a6 a5 bc
       -0.047939267 -0.05671953 -0.04687957 -0.020220993
0003d0 8b 94 86 bd b4 47 4e bd 19 b5 c2 3c 98 96 c2 bb
       -0.06571301 -0.05036135 0.023767995 -0.0059383623
0003e0 71 69 94 bc a6 30 d3 3c 64 45 3e bc 62 44 10 bd
       -0.018116685 0.025780033 -0.011613224 -0.035221465
0003f0 28 2c e2 ba 7b 14 a9 bc 8f ed 05 3d 46 58 20 bd
       -0.0017255591 -0.020639649 0.032697257 -0.039146684

bias f4 [64]
000000 c5 6c 11 3d 38 0f 28 3d 81 4c 36 3e 2a 77 6b bc
       0.03550412 0.04103014 0.17802621 -0.014371673
000010 14 33 0f bd aa f5 85 3c ce 05 41 bc 7a c4 07 3d
       -0.03496082 0.016352493 -0.011781169 0.03314636
000020 1d db ca 3c 1c 36 a1 3b 60 19 82 3c 74 ef 77 3d
       0.024762684 0.0049197804 0.01588124 0.060531095
000030 5e 40 53 3d 06 10 90 3b 9c c2 b7 bd a2 38 1c 3e
       0.051575057 0.0043964414 -0.08972666 0.15255979
000040 6f 25 77 3d ca e8 7b 3d 8a b2 fc bb 72 ad 2c 3d
       0.060338434 0.0615013 -0.007711713 0.042157598
000050 4b 72 a4 3c 4d 38 82 3d 93 2b 20 3d 87 4f 83 bc
       0.02007403 0.06358395 0.039104056 -0.016029133
000060 e8 8d 2f bd a1 ee 88 ba b0 d6 cd 3d 1c 70 23 3d
       -0.04285994 -0.0010447094 0.10050714 0.039901838
000070 14 04 01 3c 51 cc 30 3e 3e 9e 95 bb af 30 bd 3c
       0.007874507 0.1726544 -0.004565983 0.023094503
000080 a1 17 4c bc 04 d6 0f 3d 10 7f ab 3c 1d a0 27 3d
       -0.012456805 0.03511621 0.020934612 0.04092418
000090 e9 02 19 3d 2b ee e4 3c ee 27 3e 3c 3b 6a 9a 3c
       0.03735629 0.027945599 0.0116062 0.018849483
0000a0 78 4d f7 3c 76 30 d4 3d 94 48 23 3d 34 ff 5d 3d
       0.030188307 0.10360806 0.039864138 0.05419846
0000b0 9a 9c 11 bd 83 ba f5 3c c5 8c 9b bb 88 ce b4 3d
       -0.035549738 0.029996162 -0.0047470056 0.08828455
0000c0 6c fc 5e 3e 18 da 31 3d 1b ba 1a 3c 87 28 6d 3c
       0.21775979 0.04342088 0.009443785 0.0144749945
0000d0 92 1b ee 3d fe 6b 71 3d 13 50 af bc 2f c1 fa 3b
       0.11626352 0.05894088 -0.021400487 0.007652424
0000e0 69 e6 df 3c 46 0f 6c 3d f8 a1 19 3c 78 de c6 3b
       0.027331548 0.057631753 0.009376995 0.006069001
0000f0 3e 4d 9e 3c f4 97 37 bd 76 11 b0 bc 75 5b 2f 3b
       0.019323941 -0.04482265 -0.021492701 0.0026757393

weight f4 [64, 32, 3, 3]
000000 85 61 44 bc 0d b6 2d 3d 27 db b7 3c 2c 8b 8b bc
       -0.011986141 0.042409945 0.022443367 -0.017034136
000010 a2 1e 68 3d 5c 6d 51 bd 99 69 43 3d 95 2e 4c bd
       0.05666984 -0.051129684 0.047708128 -0.04984911
000020 dc a2 38 bd 3b ce 38 3a 8d 08 d8 3b 17 2e f6 3c
       -0.04507719 0.00070497737 0.006592816 0.030051274
000030 e4 51 1d 3d a7 59 4b 3c fa 68 09 bd 6d 43 d7 bc
       0.038408175 0.0124115115 -0.03354738 -0.026277268
000040 2b 91 9e 3c 7a 8d 9f 3b c7 dd 68 bd e4 ca d7 3a
       0.01935633 0.0048691602 -0.05685213 0.0016463664
000050 02 35 4e 3d 92 4b 19 3d 61 f9 69 bd 9d d1 ef 3c
       0.05034352 0.037425585 -0.057122592 0.029274756
000060 48 c8 58 3d b1 d8 1d bd 58 ec fb bb af ec 09 bc
       0.052925378 -0.03853673 -0.0076880865 -0.008418246
000070 1d 01 14 3d 78 68 01 bc f7 61 fe 3c b7 03 48 3d
       0.036133874 -0.007898442 0.031052573 0.048831668
000080 e1 d0 1e bd 6d 53 46 bd 8c 52 84 3c 8a d0 ff 3b
       -0.03877342 -0.048419405 0.016152643 0.007806842
000090 64 fd 60 3b c6 f3 72 bd 15 22 0b bd 98 0c 3d bd
       0.003433072 -0.05931451 -0.03396805 -0.04615459
0000a0 62 18 f1 bc 9d b5 f0 3c 8d 1e 94 bc b6 b9 1f 3d
       -0.029430572 0.029383475 -0.018080974 0.038995467
0000b0 64 09 b5 bb 7a bb 56 3c a5 cd 95 3c 27 af 1f 3d
       -0.005524801 0.013106221 0.018286536 0.038985398
0000c0 ba 52 75 bd 40 4d c8 bc aa b6 51 3d 7d 62 b7 3c
       -0.059893347 -0.024450898 0.051199593 0.02238583
0000d0 cb af 0d 3c 54 4c 7f 3c 24 48 97 bc 2d f4 03 bd
       0.008647869 0.015582163 -0.018467017 -0.032215286
0000e0 fa c7 2e 3d e6 5d ab bb 67 36 1a bd 83 50 ad bb
       0.04267118 -0.0052296994 -0.03764954 -0.0052891388
0000f0 df 01 53 bd de 80 3b 3d 40 a1 18 bc 5d 32 0b bd
       -0.051515456 0.045777194 -0.009315789 -0.033983577
000100 d4 87 1a bd 2b b3 2a 3d fd 07 c2 3a bc 9e 49 bb
       -0.037727192 0.041674774 0.0014803406 -0.003076478
000110 0d e0 2c 3d 52 35 2e bc 8a b7 73 bd 91 ad 16 bc
       0.04220586 -0.01063283 -0.05950121 -0.009196655
000120 73 05 70 3b d5 82 b4 bc ee 4a 23 bd 5f 44 22 3d
       0.0036624342 -0.022035042 -0.03986638 0.039615985
000130 f5 64 46 3d e6 be e4 38 c2 13 51 bd d2 e8 ce bc
       0.048436124 0.00010907445 -0.051044233 -0.025257502
000140 0c 13 20 bd 81 00 94 bc a6 cb 33 bd 2b 69 f9 3b
       -0.039080665 -0.018066647 -0.043895386 0.007611414
000150 6a 35 27 3d b2 12 22 3d 87 54 3a 3d 15 4e 45 bd
       0.040822424 0.03956861 0.045490768 -0.048170168
000160 a1 42 b2 bc cb 3c 4c bc f3 cd 22 bd 8b cb 40 bc
       -0.021760287 -0.012465666 -0.03974719 -0.011767278
000170 44 d0 80 bd e7 61 f5 3c 39 4c b0 3b ee af 38 3c
       -0.062897235 0.02995391 0.00538018 0.011272414
000180 66 db 63 bd 3a 57 41 ba e0 35 36 3c 8a f6 9c 3b
       -0.055629157 -0.00073753635 0.011121243 0.004790132
000190 c4 ab 56 bc fc 0d 07 3d 00 82 8d bc 98 32 27 bd
       -0.013102476 0.03297232 -0.017273903 -0.040819734
0001a0 65 a8 b9 3c 67 c2 eb 3c f8 de 88 3b 40 23 61 bd
       0.022663305 0.028779222 0.0041769706 -0.054965258
0001b0 2d f2 11 3d 74 f0 ed bc a4 26 15 bd ad 8f 9e 3a
       0.035631347 -0.029045321 -0.036413804 0.0012097262
0001c0 3b 14 41 bd 20 5d 06 bd 26 81 ce bc a9 f4 5e bd
       -0.047138434 -0.032803655 -0.025208067 -0.054432545
0001d0 85 ae 7e bc e4 45 9a bd 2c 2f 22 bd 9e 86 88 bd
       -0.015544538 -0.07532862 -0.039595768 -0.06666301
0001e0 d3 84 e6 bc 9c f9 47 3d e9 6f 16 3d 95 14 30 3c
       -0.028139507 0.04882203 0.03672782 0.010747095
0001f0 6e f4 ec 3b 59 ca aa 3c 1c 5a 56 3d 0f 17 47 3b
       0.0072312867 0.02084844 0.05233203 0.0030378734
000200 6d 19 8a bc 02 99 e0 bc 65 0e 1b bc dd b2 43 bd
       -0.016857827 -0.02741671 -0.009463881 -0.047778
000210 c6 8e 01 3d ba 5d 8d bc 46 9c 98 bb 89 fe fe 3c
       0.0316303 -0.017256606 -0.004657301 0.031127231
000220 08 5b 1e bd da 19 a5 bb 01 d1 3d bc 98 94 23 bd
       -0.038661033 -0.005038482 -0.011585475 -0.039936632
000230 99 48 f7 bc eb d8 08 bd c2 3f 36 3d 8a 94 47 3d
       -0.030185984 -0.033409994 0.044494398 0.048725642
000240 09 25 06 bb 2b 24 83 3c 57 9b 09 bc 7b 77 43 bb
       -0.0020468852 0.016008457 -0.008398852 -0.0029825855
000250 64 b6 1a 3b f5 e6 0d 3d 80 d2 18 3d 40 10 47 3d
       0.0023607248 0.034644086 0.037310123 0.04859948
000260 08 3e da ba 8c b1 a3 bc e0 45 1b 3d 46 4b 28 bc
       -0.0016650567 -0.019982122 0.037908435 -0.010271853
000270 4e eb 28 3d 15 21 d9 3c 10 e8 a1 bc e5 b0 c1 3c
       0.04124003 0.026505033 -0.019763976 0.02364392
000280 90 6f f6 bc d0 4a ad bc 6a 8d 39 3d ad 19 16 bd
       -0.030082494 -0.021153837 0.04530088 -0.03664558
000290 c1 eb a0 bc 07 40 61 3d 2d 5b 0a bd 7e 91 ec ba
       -0.019643666 0.0549927 -0.03377836 -0.0018048731
0002a0 a3 d5 95 3a 50 68 2e 3d 80 4d 14 bd 3d 53 da bd
       0.0011431467 0.04257995 -0.036206722 -0.10660408
0002b0 a6 47 ac bd 45 ca 14 bd d7 9f 94 3b f8 42 14 3d
       -0.08412103 -0.03632571 0.004535656 0.03619668
0002c0 66 56 59 bc 88 3d 94 3c cc 8f a5 3d 02 a2 c9 3c
       -0.013265228 0.018095747 0.08084068 0.024613384
0002d0 59 c4 c4 ba 05 52 75 bc c2 fe de 3c 36 00 2e bb
       -0.001501213 -0.014973168 0.027221087 -0.0026550419
0002e0 c4 d5 12 3d c6 7c 1f 3d b4 8f eb 3c f7 20 26 bd
       0.035848394 0.038937353 0.028755046 -0.04055878
0002f0 fd a1 10 3d cf b0 6a bc 48 3c 20 3c 3c 15 0b 3d
       0.035310734 -0.014324381 0.009779997 0.033955798
000300 4b a2 ae b9 13 eb f6 bc 7e 1d 49 3a 53 84 78 3c
       -0.00033308784 -0.030141389 0.0007671936 0.015168267
000310 02 65 6a 3d 0b ca 62 bd 62 04 29 3d 65 de 4b bd
       0.057225235 -0.055368464 0.041263945 -0.04977264
000320 ba 9e 26 3d e5 14 29 bd 1d 97 d5 3c 0b d6 e2 bb
       0.040678717 -0.041279692 0.026073033 -0.0069224886
000330 fe 0c 44 3d 20 a5 21 bc 06 60 2c bd f4 b7 0c 3d
       0.047863953 -0.009866029 -0.042083763 0.03435512
000340 c8 f2 ce bc c3 9f 10 bd ea 47 49 3c f6 ef 81 3c
       -0.025262251 -0.03530861 0.012285212 0.015861493
000350 60 33 10 3d a7 28 1e 3c f6 f9 f2 bc 0b 44 bc bc
       0.035205245 0.009653247 -0.029660206 -0.022981664
000360 e8 5c 42 bc af c0 86 3b a4 d0 30 bd 41 c6 1f 3d
       -0.011862971 0.004112325 -0.043167725 0.03900743
000370 4b 44 56 3c e1 fb 6f bd 03 5b 56 bd 0a 0d 7f 3c
       0.013077806 -0.05858982 -0.05233289 0.015567074
000380 eb b4 b0 bc a0 e5 2b 3c 95 14 89 3c 2f ab 86 3c
       -0.021570643 0.010491759 0.016733447 0.016439049
000390 13 85 10 bd 4d ea 60 3d e3 b4 25 bd bf 40 32 bc
       -0.03528316 0.054910947 -0.04045571 -0.0108796945
0003a0 e6 a3 37 3d 2b de ce bc fa 4d ce bc 06 3f 6e bd
       0.04483404 -0.025252422 -0.025183666 -0.058165573
0003b0 ba 1b 12 bc 25 5c 82 bc e2 ee 8f bc e8 fb 54 bd
       -0.008917743 -0.015913079 -0.017569963 -0.05199805
0003c0 0f 2d 82 bc 1b 93 1b 3d 6e 2e 93 bc 4f 20 c0 bc
       -0.015890626 0.037982088 -0.017966475 -0.023452906
0003d0 ee 7c 78 bd 3c e7 1a bd ac b7 46 bd df 2d 20 bd
       -0.060666017 -0.03781818 -0.048515007 -0.039106246
0003e0 81 5f 38 3d 4c 33 13 3c 75 92 d3 bc 17 cb e6 3c
       0.045012955 0.008984398 -0.025826672 0.028173013
0003f0 44 25 3b bd 6c d9 35 bd bf 71 83 bd 31 76 32 bd
       -0.045689836 -0.044396803 -0.0641818 -0.043569747

bias f4 [32]
000000 92 0f 6d bd 18 06 7c 3d 7b 57 09 3d 03 a6 36 bd
       -0.057876177 0.06152925 0.033530694 -0.044591915
000010 e4 0c 58 3d 98 a4 3a 3c 93 af 3f bd d4 0e 57 bd
       0.05274667 0.011391781 -0.0467983 -0.052504376
000020 20 ed b9 bc fd af ed 3c a0 ee 2a 3d a7 ac 89 3d
       -0.022696078 0.029014582 0.041731477 0.06722384
000030 8e 98 62 bd f2 de b9 3d 93 14 fe 3c 6b 44 d9 3a
       -0.05532127 0.090757266 0.03101567 0.0016576176
000040 8b f4 d5 bc ed 49 c4 bc f3 75 35 bc 39 b9 a0 3c
       -0.026117584 -0.023961032 -0.011075485 0.019619571
000050 49 a9 8a bd b2 2e 1a 3b 97 25 ac bb 99 ad f2 bb
       -0.0677057 0.0023526368 -0.0052535045 -0.0074059484
000060 4f 40 2d 3d aa 79 86 bc 57 e5 6a 3b 36 53 f6 bc
       0.042297658 -0.016415436 0.0035842264 -0.030068975
000070 ee 2e 65 bd e6 c1 7a 3d 27 54 b5 bc dd 75 6e bd
       -0.05595296 0.061220072 -0.022134854 -0.058217872
