models/45.pt (torch, 837106 bytes, 17 tensors)

weight f4 [32, 1, 3, 3]
-0.057266314 0.014879898 0.08428281 -0.25958174 0.18244818 -0.20591263 0.26583907 -0.23626979
-0.24397397 0.030841103 0.17210974 -0.09720542 -0.13578713 0.14088295 0.102363996 0.27211145
-0.08788843 -0.23659234 -0.19742675 0.09310737 -0.30901623 0.13159652 0.1918121 0.23326908
0.11422786 -0.120015316 -0.15835363 -0.18411987 0.320625 -0.055905007 -0.08950231 -0.09974776
0.25778806 0.24235821 -0.03796069 0.18891929 0.32275602 -0.10393791 -0.10261297 0.29732248
0.1684416 -0.079147264 0.29553163 0.1386211 0.025547173 0.30621353 0.29186684 -0.14697959
0.066756666 -0.12404341 0.19081758 -0.13768524 -0.223439 0.21436736 -0.12851346 0.009972757
0.28986996 -0.23743667 -0.08002809 0.106002256 0.13304631 -0.34157974 0.04898684 0.09677794
0.12773056 0.211152 -0.1582459 0.32744744 0.07532547 -0.09351441 0.072627544 -0.17751265
-0.18981844 -0.20552938 -0.15098739 0.1941747 -0.09371761 -0.24326861 0.25425398 -0.27395326
0.012559836 0.2705847 0.20189396 -0.18277368 0.30349773 0.23466086 0.32721984 -0.12678327
-0.0088764215 -0.28743502 -0.34193587 0.09036891 0.0146492105 0.14615221 -0.13689388 0.12743396
0.28552207 -0.33094817 0.22193262 0.07663798 -0.042465888 0.1461249 0.27578074 -0.25224623
-0.27806973 -0.063157566 -0.10411429 0.13468021 0.047756128 -0.16718838 -0.23538737 0.19886056
-0.21938688 0.03468771 0.14831825 -0.22766401 -0.26023373 0.30052966 0.23250496 -0.082778536
-0.23033813 -0.30053043 -0.21992244 0.24458021 -0.2310125 -0.20684513 -0.24571137 0.21629333
-0.27455002 0.2536732 -0.19772318 0.28170446 -0.25354615 0.18521444 -0.21864027 -0.088219374
0.2644157 -0.03145078 0.25586802 -0.24189255 -0.3795401 -0.01961384 0.2426284 -0.11839561
-0.29990092 0.17871624 0.026575934 -0.012152724 -0.1649032 -0.3091415 0.29197964 0.056188863
0.034437984 0.29318726 -0.2597995 -0.25362718 0.064726666 0.10226797 0.051564816 -0.18190499
0.22727166 0.29427844 0.09735773 0.306507 0.00036234304 0.10564155 0.22003259 -0.13473585
0.25197437 0.21299641 -0.08623709 -0.12062878 -0.14803684 -0.1634608 0.3293629 -0.12166668
0.17664416 -0.30802312 -0.09543382 0.028950986 -0.13000199 -0.23383936 -0.0409934 0.27663383
0.19959216 0.29150966 -0.2191671 0.089647345 0.09776608 0.14850552 0.1444683 -0.23865032
-0.10127536 0.20677058 -0.08469084 -0.069844484 0.12040187 -0.049789988 0.042694792 -0.32445684
-0.10765642 0.12906018 -0.11428834 0.075829625 0.2806802 0.2136293 0.2861995 0.160882
-0.065005235 -0.14914551 -0.23345262 0.09622997 -0.33888182 0.20122473 0.09258188 -0.075989656
0.0970443 -0.09822436 -0.14605671 -0.30057508 -0.09481973 -0.10118517 0.03365445 0.29836643
-0.13225025 0.2308104 0.13044757 0.031760246 -0.26517704 -0.18204117 0.22029962 -0.3032281
0.19300851 -0.18800788 0.06298683 0.18050474 -0.23810829 0.23995337 0.15015818 -0.2103856
-0.00031594647 -0.24297518 0.04129139 0.21315439 0.1432508 -0.24777833 -0.052890602 -0.2683433
0.20112307 -0.08672926 0.07467431 -0.21392736 -0.11143627 -0.23340897 -0.2947919 0.30627653
00000000: 1590 6abd d1ca 733c 779c ac3d e6e7 84be
00000010: b2d3 3a3e c3da 52be 0f1c 883e b5f0 71be
00000020: 50d4 79be 7ba6 fc3c 893d 303e a313 c7bd
00000030: c80b 0bbe 9f43 103e 37a4 d13d 3152 8b3e
00000040: d9fe b3bd 4345 72be 3d2a 4abe 14af be3d
00000050: 6037 9ebe 3dc1 063e 646a 443e 17de 6e3e
00000060: 4cf0 e93d 97ca f5bd 7427 22be eb89 3cbe
00000070: f628 a43e a6fc 64bd fd4c b7bd 8e48 ccbd
00000080: ccfc 833e c02c 783e ab7c 1bbd 0f74 413e
00000090: 4740 a53e 66dd d4bd c026 d2bd a73a 983e
000000a0: f47b 2c3e f617 a2bd ec4f 973e b1f2 0d3e
000000b0: 4e48 d13c 05c8 9c3e 926f 953e d181 16be
000000c0: b8b7 883d 790a febd af65 433e 5cfd 0cbe
000000d0: 31cd 64be 1e83 5b3e 0899 03be c664 233c
000000e0: d669 943e 9922 73be c4e5 a3bd b617 d93d
000000f0: 4b3d 083e 8ae3 aebe 6da6 483d 8333 c63d
00000100: cdcb 023e 3b38 583e 370b 22be 31a7 a73e
00000110: 3d44 9a3d 7c84 bfbd c0bd 943d e0c5 35be
00000120: c45f 42be 4b76 52be 709c 1abe bcd5 463e
00000130: 05ef bfbd 681b 79be 942d 823e 9a43 8cbe
00000140: c5c7 4d3c 148a 8a3e 4abd 4e3e 0629 3bbe
00000150: 0e64 9b3e f04a 703e 5c89 a73e 79d3 01be
00000160: 696e 11bc af2a 93be 3812 afbe 5613 b93d
00000170: 3e03 703c eda8 153e e92d 0cbe 0c7e 023e
00000180: f32f 923e 0a72 a9be 4e42 633e 60f4 9c3d
00000190: b6f0 2dbd c4a1 153e 2233 8d3e 6b26 81be
000001a0: 285f 8ebe c158 81bd df39 d5bd 9ce9 093e
000001b0: ee9b 433d 6e33 2bbe 6309 71be 1aa2 4b3e
000001c0: f4a6 60be b314 0e3d bde0 173e c120 69be
000001d0: 5b3d 85be 06df 993e c815 6e3e cb87 a9bd
000001e0: c2dd 6bbe 20df 99be 5933 61be 3c73 7a3e
000001f0: 8a8e 6cbe 36cf 53be c39b 7bbe 007c 5d3e
00000200: d291 8cbe 74e1 813e f277 4abe 913b 903e
00000210: cdd0 81be dba8 3d3e 3ce3 5fbe 5cac b4bd
00000220: 7f61 873e 88d2 00bd 2201 833e aeb2 77be
00000230: 1453 c2be 34ad a0bc 9473 783e 6679 f2bd
00000240: 9d8c 99be 6401 373e c6b5 d93c 381c 47bc
00000250: 62dc 28be cb47 9ebe 5b7e 953e 4b26 663d
00000260: d80e 0d3d a41c 963e 7104 85be 6cdb 81be
00000270: 6a8f 843d df71 d13d a135 533d 4d45 3abe
00000280: e7b9 683e aaab 963e 7d63 c73d 7cee 9c3e
00000290: dcf8 bd39 995a d83d 3950 613e 32f8 09be
000002a0: c902 813e bb1b 5a3e 129d b0bd 390c f7bd
000002b0: f896 17be 4562 27be 41a2 a83e 612c f9bd
000002c0: 35e2 343e 35b5 9dbe ce72 c3bd 9e2a ed3c
000002d0: 3e1f 05be 9673 6fbe b2e8 27bd f3a2 8d3e
000002e0: e361 4c3e c140 953e 576d 60be 0799 b73d
000002f0: 9539 c83d d511 183e 7fef 133e c060 74be
00000300: 7569 cfbd abbb 533e 6472 adbd a00a 8fbd
00000310: 4195 f63d 96f0 4bbd bce0 2e3d 351f a6be
00000320: f87a dcbd 5a28 043e 0110 eabd 904c 9b3d
00000330: 51b5 8f3e a4c1 5a3e be88 923e 40be 243e
00000340: 7721 85bd 9ab9 18be 340e 6fbe 3814 c53d
00000350: eb81 adbe db0d 4e3e 929b bd3d 77a0 9bbd
00000360: 29bf c63d da29 c9bd e48f 15be fae4 99be
00000370: d930 c2bd 2c3a cfbd 40d9 093d 7cc3 983e
00000380: 9c6c 07be 9059 6c3e 0c94 053e 0817 023d
00000390: 49c5 87be 0069 3abe 3996 613e b740 9bbe
000003a0: 06a4 453e 2385 40be 3dff 803d 3cd6 383e
000003b0: a9d2 73be 56b6 753e 11c3 193e 536f 57be
000003c0: 9ea5 a5b9 7cce 78be 2921 293d 2545 5a3e
000003d0: 56b0 123e 9ab9 7dbe d1a3 58bd 4b64 89be
000003e0: 35f3 4d3e 1c9f b1bd d8ee 983d c60f 5bbe
000003f0: b338 e4bd c302 6fbe f7ee 96be 47d0 9c3e

bias f4 [32]
0.07405016 0.09880583 0.0887482 -0.29510653 0.31702384 -0.051704295 -0.058515374 0.21428172
0.33370078 -0.02370248 -0.19016677 0.2844279 0.069718584 0.22555806 0.12879217 0.2448229
-0.11459954 -0.05717439 -0.045547985 0.2273795 -0.25604206 -0.17077783 0.035093334 0.13709657
0.17149939 0.074525945 0.06510625 -0.015109544 -0.23890498 -0.10580645 -0.09768499 0.089992486
00000000: 9ca7 973d b65a ca3d 9ec1 b53d 3418 97be
00000010: f350 a23e e2c7 53bd d1ad 6fbd ab6c 5b3e
00000020: d4da aa3e b42b c2bc 14bb 42be 89a0 913e
00000030: 9ec8 8e3d b1f8 663e 18e2 033e dbb2 7a3e
00000040: 2ab3 eabd b12f 6abd 8690 3abd 2cd6 683e
00000050: f217 83be 62e0 2ebe 07be 0f3d 0b63 0c3e
00000060: 899d 2f3e 0fa1 983d 6d56 853d 058e 77bc
00000070: 82a3 74be 0db1 d8bd 110f c8bd fb4d b83d

weight f4 [64, 32, 3, 3]
0.0405553 0.015017095 -0.072686546 -0.010289005 0.001481667 0.010934038 0.016244963 -0.04214724
0.03107626 -0.011567191 -0.0068058413 0.06861645 0.04090992 0.0030771648 -0.043135617 0.060484417
0.03019136 0.016445542 -0.010460777 0.0028209914 0.03545176 0.032463215 0.010741548 -0.04195151
-0.038164135 0.04341211 0.045075063 0.01078313 -0.023553599 -0.038646232 0.017725771 -0.048746947
-0.004720526 -0.011687887 0.056245036 0.022437137 0.000866766 0.025744503 -0.053505693 -0.05695098
-0.051723458 -0.013080394 -0.049361143 -0.004201981 0.03518946 -0.009558486 0.013806811 -0.020906692
0.005441895 0.045854308 0.05621506 0.04392258 0.051784556 0.06848971 0.05167828 -0.03602869
-0.017363971 -0.035627443 0.02040687 -0.028993469 0.018843994 0.021218957 0.04835512 -0.05429915
-0.039441545 -0.015865996 -0.027836278 -0.04236897 0.024550183 0.029748177 0.016452756 -0.04811105
0.012313119 0.029117737 -0.102876514 0.019253314 -0.017996654 -0.09864379 0.009223485 -0.071468726
-0.11364284 0.049553446 -0.02129712 0.009020053 0.036647044 -0.02445439 -0.022529641 -0.048680484
0.025821958 -0.03645728 -0.035002157 0.003681281 0.011116276 0.0057830904 0.029891081 -0.04028908
-0.014050285 0.013165563 -0.01208048 -0.016256684 0.0075998544 0.079358496 0.00760597 0.042511
0.09598485 0.051965717 0.023492977 0.08199537 -0.033369433 0.05426296 0.0023819983 -0.048241463
-0.05386084 -0.09957642 -0.0021590362 -0.09892247 -0.094136186 -0.054397322 0.0018236637 -0.07435285
0.013132564 0.0456103 -0.028389366 -0.004627724 0.006559134 0.0057364963 0.044030912 -0.015575119
0.11330526 0.041411646 -0.025102757 0.076218046 0.018216949 0.09078416 0.13650675 -0.029407835
0.015062182 -0.019095814 0.0050093303 -0.017271487 -0.002158895 -0.01849762 0.016042864 -0.040008962
0.015570759 0.023713963 0.068159685 0.038182504 0.0061629866 0.047884975 0.042228617 0.04996982
-0.02200764 -0.048214465 -0.021088175 0.02370695 -0.003993552 -0.008667834 -0.04682906 -0.0124635445
0.050395794 0.0008508264 -0.048622265 0.034815434 0.025466252 0.02243787 -0.039570864 -0.020150017
-0.021107055 0.0039245854 0.01320285 -0.007291444 0.010006562 0.057243265 0.0121476175 0.043005705
0.010365673 0.02048305 0.058179814 0.021308368 -0.037242983 -0.033389855 0.064894155 -0.00536835
-0.020774266 -0.0119034955 0.024018174 -0.057107754 -0.02997206 0.014006678 0.024231061 -0.015149433
-0.046835918 -0.050385628 -0.026833301 0.027350675 -0.031130387 0.053626843 0.05444491 -0.044680282
-0.009170201 0.03593462 0.045679342 0.028724039 0.0023362746 0.05707323 -0.038930893 0.03904774
-0.017487383 -0.050061505 0.030705096 0.031543665 -0.03923269 -0.0007957565 0.027409576 0.027851218
0.04125889 -0.04812199 -0.026858268 -0.04781985 -0.0006778378 0.018875688 0.07489425 0.0033865287
0.10894701 0.04646839 -0.03359553 0.019401861 -0.03343351 0.013153136 0.076590076 0.0859225
0.021075469 0.0026474176 -0.022583945 -0.028075159 0.010032993 -0.0397738 -0.030404657 0.056880012
-0.014734641 -0.022256479 0.042214837 0.0279992 0.048198406 0.13020186 0.029972378 0.041259225
-0.0034518368 0.065098666 0.007904152 0.09690378 0.05886462 0.009608992 0.03256917 -0.03843222
00000000: 501d 263d 430a 763c afdc 94bd 3793 28bc
00000010: 7f34 c23a ae24 333c 2814 853c 96a2 2cbd
00000020: a493 fe3c 5184 3dbc 8903 dfbb c886 8c3d
00000030: 2991 273d 42aa 493b f9ae 30bd 82be 773d
00000040: df53 f73c cdb8 863c ae63 2bbc 62e0 383b
00000050: dd35 113d 26f8 043d 51fd 2f3c 59d5 2bbd
00000060: ff51 1cbd e6d0 313d a1a0 383d baab 303c
00000070: 7af3 c0bc 834b 1ebd a335 913c e1aa 47bd
00000080: a4ae 9abb 8d7e 3fbc 3261 663d 16ce b73c
00000090: ae37 633a 23e6 d23c c928 5bbd 6e45 69bd
000000a0: fadb 53bd 264f 56bc e92e 4abd c5b0 89bb
000000b0: d322 103d 329b 1cbc f635 623c 8344 abbc
000000c0: ed51 b23b bad1 3b3d c341 663d 2ae8 333d
000000d0: 0b1c 543d 5544 8c3d 9bac 533d d292 13bd
000000e0: e33e 8ebc 15ee 11bd 4f2c a73c b683 edbc
000000f0: b85e 9a3c 61d3 ad3c 0510 463d c968 5ebd
00000100: 758d 21bd 68f9 81bc e808 e4bc 168b 2dbd
00000110: 771d c93c 73b2 f33c eec7 863c 1810 45bd
00000120: f7bc 493c 5288 ee3c ecb0 d2bd 20b9 9d3c
00000130: b86d 93bc c105 cabd 1a1e 173c 325e 92bd
00000140: 94bd e8bd 8ef8 4a3d 4c77 aebc d8c8 133c
00000150: 361b 163d 9354 c8bc 1590 b8bc 3065 47bd
00000160: 9288 d33c 3b54 15bd 6c5e 0fbd a641 713b
00000170: 0a21 363c 1480 bd3b 24de f43c 2a06 25bd
00000180: 2b33 66bc 60b4 573c 35ed 45bc bd2c 85bc
00000190: 3308 f93b b586 a23d 803b f93b 0420 2e3d
000001a0: b493 c43d 01da 543d 5874 c03c 30ed a73d
000001b0: 63ae 08bd d642 5e3d 4d1b 1c3b d798 45bd
000001c0: 2f9d 5cbd b9ee cbbd 9e7e 0dbb dd97 cabd
000001d0: 79ca c0bd bacf 5ebd 0008 ef3a 4f46 98bd
000001e0: f729 573c ded1 3a3d d190 e8bc 2aa4 97bb
000001f0: 01ee d63b 38f9 bb3b c259 343d c92e 7fbc
00000200: 970c e83d 429f 293d 4ca4 cdbc 3518 9c3d
00000210: b63b 953c 0ced b93d 6dc8 0b3e b3e8 f0bc
00000220: 5fc7 763c d36e 9cbc 4f25 a43b ef7c 8dbc
00000230: 3f7c 0dbb 5288 97bc 536c 833c 70e0 23bd
00000240: 7f1c 7f3c c943 c23c 4e97 8b3d 4265 1c3d
00000250: e1f2 c93b 0923 443d eaf7 2c3d 27ad 4c3d
00000260: 5e49 b4bc 887c 45bd 1cc1 acbc 1435 c23c
00000270: 58dc 82bb 8803 0ebc d4cf 3fbd e533 4cbc
00000280: d26b 4e3d fe09 5f3a 2428 47bd a19a 0e3d
00000290: 9a9e d03c a0cf b73c 0f15 22bd a611 a5bc
000002a0: b4e8 acbc cf99 803b c450 583c 11ed eebb
000002b0: 90f2 233c ea77 6a3d cd06 473c c026 303d
000002c0: c9d4 293c 12cc a73c f54d 6e3d e38e ae3c
000002d0: 198c 18bd cdc3 08bd 3ae7 843d fce8 afbb
000002e0: cb2e aabc e106 43bc c3c1 c43c d2e9 69bd
000002f0: f787 f5bc 447c 653c 3880 c63c 5435 78bc
00000300: 05d7 3fbd 2961 4ebd 83d1 dbbc 860e e03c
00000310: 2705 ffbc d2a7 5b3d a001 5f3d ac02 37bd
00000320: 9c3e 16bc 2e30 133d 431a 3b3d ad4e eb3c
00000330: 2f1c 193b 9fc5 693d 0076 1fbd 86f0 1f3d
00000340: b341 8fbc 4b0d 4dbd 4189 fb3c ee33 013d
00000350: 75b2 20bd 519a 50ba 0c8a e03c 3d28 e43c
00000360: 15ff 283d 901b 45bd df05 dcbc bfde 43bd
00000370: edb0 31ba 30a1 9a3c 2862 993d 86f0 5d3b
00000380: 9c1f df3d a355 3e3d 779b 09bd a7f0 9e3c
00000390: 94f1 08bd 4080 573c 42db 9c3d 23f8 af3d
000003a0: 76a6 ac3c 4c80 2d3b f701 b9bc e0fd e5bc
000003b0: 6c61 243c dae9 22bd 3013 f9bc 04fb 683d
000003c0: 9069 71bc 3853 b6bc 77e9 2c3d 945e e53c
000003d0: b16b 453d a353 053e a288 f53c 6fff 283d
000003e0: 3638 62bb 7352 853d 6b80 013c 7d75 c63d
000003f0: 071c 713d 096f 1d3c 4067 053d 1b6b 1dbd

bias f4 [64]
0.019126352 0.054797962 0.022518788 -0.004843544 0.051504284 0.041601103 -0.032217257 0.0012754797
-0.10657565 0.17840956 0.0713413 0.11499761 -0.100240156 0.10061589 0.03611784 0.18650901
0.13286911 0.1924992 0.021388639 0.02584818 -0.042206258 -0.039251827 -0.039437372 0.06344365
-0.06517537 0.06648099 0.06398044 -0.029434942 0.10238226 -0.096600585 0.08496713 0.02441409
0.062352855 -0.048035488 -0.024575854 -0.15548672 0.045322046 0.016471175 0.043105047 0.08852146
0.045156214 -0.017217433 -0.0004457382 0.036865123 0.030842712 0.069959894 -0.036027282 -0.017834103
-0.12331978 0.0950172 -0.033456832 0.044932984 0.05782577 0.04212716 0.04676152 0.037058648
0.00986482 0.087607644 0.0085753165 -0.03879225 -0.05223022 0.06352255 -0.05374432 0.06299706
00000000: deae 9c3c d473 603d 5279 b83c 98b6 9ebb
00000010: 28f6 523d eb65 2a3d 3ef6 03bd ff2d a73a
00000020: 5644 dabd ffb0 363e 631b 923d de83 eb3d
00000030: b64a cdbd b40f ce3d 4df0 133d 38fc 3e3e
00000040: d70e 083e 831e 453e 3a37 af3c 90bf d33c
00000050: 78e0 2cbd 86c6 20bd 1589 21bd bfee 813d
00000060: aa7a 85bd 2f27 883d 2d08 833d 8c21 f1bc
00000070: caad d13d 87d6 c5bd 3f03 ae3d 0f00 c83c
00000080: b565 7f3d dcc0 44bd 4d53 c9bc e937 1fbe
00000090: 9ca3 393d 8fee 863c eb8e 303d bd4a b53d
000000a0: b9f5 383d 930b 8dbc f8b1 e9b9 e2ff 163d
000000b0: dba9 fc3c 2247 8f3d 5891 13bd d318 92bc
000000c0: 158f fcbd 6198 c23d 080a 09bd a60b 383d
000000d0: b7da 6c3d 878d 2c3d 0289 3f3d cfca 173d
000000e0: 0ea0 213c a36b b33d 7c7f 0c3c 9fe4 1ebd
000000f0: 5bef 55bd 1c18 823d 0123 5cbd 9a04 813d

weight f4 [128, 64, 3, 3]
-0.067310855 -0.006790371 -0.04394004 -0.03678104 -0.017538799 -0.047572214 -0.049720302 0.010985067
-0.0057330336 -0.030697372 -0.020792117 0.03184005 -0.012134294 -0.03075428 -0.03380383 -0.032800864
0.021154094 0.027728755 -0.044073366 -0.02081503 0.0431664 -0.013545384 -0.015630333 0.011714025
-0.00051345635 0.022924444 -0.04006906 0.032471884 0.0135129895 0.020756047 0.03273675 0.0061481083
-0.02243716 -0.03879138 0.0499948 0.04673403 0.005540022 -0.012137243 -0.023853103 -0.03702831
0.023189347 0.039319165 0.0007363813 -0.036051575 0.04281674 0.014266582 0.046067894 -0.028639967
0.00058083347 0.04026021 -0.00477513 0.011852178 0.039695166 -0.023120694 -0.002779882 -0.006948123
-0.014157887 -0.030322911 -0.030083546 -0.020602446 0.039426297 0.013534079 0.046247642 0.04274927
0.003546186 0.027359447 0.0030780958 0.019194158 -0.00617118 0.016625816 0.036495194 -0.04144373
-0.05995803 0.013054625 0.00048554398 -0.066485025 -0.07443696 0.016215077 -0.055706654 0.009594077
0.048459116 -0.06844737 -0.0010298211 0.0011923949 -0.029030452 0.047397092 -0.001003418 -0.01109935
-0.046896037 -0.054545753 -0.0071191294 -0.025728542 -0.0014972105 3.5638157e-05 -0.022612374 -0.009436561
-0.04288885 -0.023136456 -0.0145328995 -0.04042663 0.012292539 -0.0032872595 -0.055787012 0.048336286
-0.027749997 -0.034452207 0.01715636 -0.005668237 0.015861252 0.0035679534 -0.020821549 -0.015873007
0.008863037 0.025384126 -0.027115684 0.007087467 0.01949978 0.060972136 0.01689454 -0.034071345
0.047722615 0.0200755 -0.0050731353 0.07456789 0.025508804 0.068460755 -0.0005610777 0.0113840215
0.04096322 0.037860055 0.01670108 0.0074314624 0.019037211 0.0013319668 0.022244347 0.028994892
-0.032944273 0.01919218 -0.04967042 -0.043975633 -0.03228055 -0.052469246 -0.016958604 0.012630924
-0.05722061 -0.01410316 0.008147893 0.02470581 0.029693872 0.03496239 -0.046029277 -0.001201103
0.021988686 -0.04563669 -0.020376401 0.006626859 0.024072433 0.0023493967 0.019910417 -0.035953294
-0.011607614 0.01357947 0.004676689 0.019142278 0.020904323 -0.04120658 -0.008280531 0.0051853494
-0.023901029 -0.023778385 -0.010284635 -0.007828383 -0.02071662 -0.0295983 -0.005559415 0.01107427
-0.008607387 -0.033641268 0.007314295 -0.038274568 -0.00617248 -0.033477902 -0.0054006684 -0.018315287
-0.030566428 0.002018431 -0.004748491 -0.039209902 -0.004359422 0.027436202 0.0034874605 0.03671049
-0.012409382 -0.019664127 -0.018692875 -0.03267886 -0.013433062 0.034787413 0.031381536 -0.0029512942
0.068605915 -0.016630769 -0.0029086526 0.050810914 0.0065067895 -0.019145576 0.003906624 -0.03958541
0.02179785 0.0029234416 -0.024950622 -0.038603168 -0.024517642 0.02817005 0.010354228 0.00997448
-0.005729211 -0.03231468 0.055549607 -0.004191226 0.040124472 0.04022569 0.02348632 0.026171634
-0.009995009 0.018018559 -0.0031356136 0.045577772 -0.015832985 -0.003569223 -0.030632246 -0.011005457
-0.005165266 0.010409413 -0.009640531 -0.018742044 -0.040303532 -0.03908665 -0.014576644 0.008541534
-0.0041030697 0.02927045 0.016479462 -0.016827192 0.030844064 -0.0002784128 -0.028763492 0.011732464
-0.002192405 -0.009825585 0.0156220915 -0.019336004 0.024885772 -0.0036124436 0.00012565753 -0.022548262
00000000: 46da 89bd c381 debb 79fa 33bd b7a7 16bd
00000010: 87ad 8fbc 15db 42bd 84a7 4bbd b6fa 333c
00000020: 2cdc bbbb 0e79 fbbc 3b54 aabc b66a 023d
00000030: ebce 46bc 66f0 fbbc e375 0abd 335a 06bd
00000040: 5a4b ad3c 6a27 e33c 4686 34bd 4884 aabc
00000050: 40cf 303d 75ed 5dbc 2f0b 80bc 2fec 3f3c
00000060: 7999 06ba 0bcc bb3c 741f 24bd 3d01 053d
00000070: 9665 5d3c 9608 aa3c f816 063d 1276 c93b
00000080: 23ce b7bc b6e3 1ebd 59c7 4c3d 2f6c 3f3d
00000090: 1389 b53b 49db 46bc 9567 c3bc ffaa 17bd
000000a0: 96f7 bd3c 220d 213d b609 413a d1aa 13bd
000000b0: 9b60 2f3d 62be 693c b0b1 3c3d 5d9e eabc
000000c0: 1343 183a e4e7 243d b278 9cbb a32f 423c
000000d0: 6697 223d 9c67 bdbc ae2e 36bb 15ad e3bb
000000e0: 7bf6 67bc c167 f8bc c571 f6bc 76c6 a8bc
000000f0: 787d 213d 0bbe 5d3c 2b6e 3d3d dc19 2f3d
00000100: 2167 683b eb20 e03c e1b9 493b 113d 9d3c
00000110: 9c37 cabb dd32 883c fc7b 153d e7c0 29bd
00000120: 8d96 75bd 11e3 553c 9c90 fe39 4d29 88bd
00000130: 6872 98bd 7bd5 843c a92c 64bd 7a30 1d3c
00000140: 117d 463d 222e 8cbd 10fb 86ba 224a 9c3a
00000150: 45d1 edbc 7423 423d 1f85 83ba 0cda 35bc
00000160: 0f16 40bd 5e6b 5fbd 9647 e9bb aac4 d2bc
00000170: 0c3e c4ba 2e7a 1538 963d b9bc ce9b 1abc
00000180: 38ac 2fbd aa88 bdbc 661b 6ebc 6596 25bd
00000190: a566 493c 106f 57bb ec80 64bd 45fc 453d
000001a0: f653 e3bc c21d 0dbd 7f8b 8c3c 9ebc b9bb
000001b0: 75ef 813c 53d4 693b f491 aabc 1c08 82bc
000001c0: 4636 113c 5ff2 cf3c b621 debc fb3d e83b
000001d0: 01be 9f3c ebbd 793d 6b66 8a3c 658e 0bbd
000001e0: ca78 433d 6075 a43c 8b3c a6bb 0db7 983d
000001f0: d7f7 d03c 2735 8c3d 4915 13ba 0c84 3a3c
00000200: 0dc9 273d 2513 1b3d b4d0 883c a083 f33b
00000210: edf3 9b3c 6495 ae3a c739 b63c b286 ed3c
00000220: 93f0 06bd eb38 9d3c 3673 4bbd cb1f 34bd
00000230: 9c38 04bd fee9 56bd c5ec 8abc eff1 4e3c
00000240: 2960 6abd f110 67bc bd7e 053c d763 ca3c
00000250: 9040 f33c b934 0f3d 3289 3cbd 546e 9dba
00000260: 9e21 b43c 8aed 3abd 69ec a6bc 1f26 d93b
00000270: 8d33 c53c 56f8 193b 2c1b a33c c343 13bd
00000280: dd2d 3ebc 6d7c 5e3c e93e 993b 44d0 9c3c
00000290: 8b3f ab3c 3bc8 28bd 10ab 07bc dde9 a93b
000002a0: 17cc c3bc e3ca c2bc e380 28bc 9e42 00bc
000002b0: e7b5 a9bc 2278 f2bc c12b b6bb db70 353c
000002c0: ff05 0dbc 6dcb 09bd c1ac ef3b cbc5 1cbd
000002d0: 8442 cabb 2020 09bd 17f8 b0bb f109 96bc
000002e0: 7266 fabc a747 043b 3b99 9bbb 909a 20bd
000002f0: 7bd9 8ebb e3c1 e03c e18d 643b bd5d 163d
00000300: b850 4bbc aa16 a1bc cd21 99bc 45da 05bd
00000310: 5816 5cbc 3f7d 0e3d ed89 003d 806a 41bb
00000320: 4281 8c3d 403d 88bc 189f 3ebb 1b1f 503d
00000330: e836 d53b 2fd7 9cbc 2303 803b 5024 22bd
00000340: 6891 b23c 3697 3f3b 3f65 ccbc 5b1e 1ebd
00000350: 39d9 c8bc e0c4 e63c c8a4 293c 006c 233c
00000360: 1bbc bbbb 665c 04bd fc87 633d 8d56 89bb
00000370: 8f59 243d b1c3 243d 6266 c03c e565 d63c
00000380: 1bc2 23bc a89b 933c de7e 4dbb c2af 3a3d
00000390: 2db4 81bc a0e9 69bb 7af0 fabc 3b50 34bc
000003a0: 6441 a9bb 3e8c 2a3c 51f3 1dbc ea88 99bc
000003b0: 5115 25bd 5319 20bd e0d2 6ebc caf1 0b3c
000003c0: 0b73 86bb 95c8 ef3c f0ff 863c 2ed9 89bc
000003d0: b1ac fc3c eff7 91b9 6aa1 ebbc 8539 403c
000003e0: 74ae 0fbb 7efb 20bc cdf3 7f3c 8a66 9ebc
000003f0: 3fdd cb3c bfbe 6cbb f0c2 0339 22b7 b8bc

bias f4 [128]
0.0034139177 0.054942448 0.01090558 0.031763755 -0.049142554 -0.055137306 -0.05437647 -0.021069065
0.009653922 0.082517244 0.031783607 -0.1459137 -0.10459052 -0.059201475 -0.008231495 -0.021007573
0.016490929 -0.04925956 -0.0550208 -0.029172264 -0.006147661 0.0010769558 0.0303416 -0.037289854
-0.1168503 0.07702816 -0.0996497 0.041828357 0.08959238 -0.23662888 -0.024832137 -0.059341125
0.003432905 -0.012458721 -0.09950756 -0.0339029 0.04167064 -0.17979655 0.09048745 0.05739626
0.13807367 -0.016510243 -0.0021224064 -0.038577333 0.060678434 0.09983212 -0.010218565 -0.034430336
-0.041641828 -0.082821526 0.062225565 0.052247774 -0.028125973 -0.020982996 0.021443207 0.055941552
0.10943956 0.0152537655 0.07256028 -0.022443453 0.16628453 0.015081574 0.006184215 -0.016116017
-0.02079071 -0.0020769984 0.04976615 -0.01085128 0.027334312 -0.053912535 0.0311414 -0.020988809
-0.030106202 0.031998478 0.03120156 -0.026464116 0.043305673 0.105643585 0.018259304 0.0356887
0.026741982 0.0060897134 0.042005867 0.0047731083 -0.024269141 0.016520424 0.061826866 0.0034937793
-0.011931761 -0.020718783 0.064519875 -0.018775228 0.025356593 0.009051792 -0.16579892 -0.008652914
0.0011640945 -0.006018825 0.04069181 -0.074121684 -0.12377401 -0.022061706 0.023267107 -0.0005788657
-0.15739381 0.07327509 0.02670418 0.14874625 -0.05006293 0.03906353 -0.06072112 0.080880255
-0.029101525 -0.018971957 -0.09464635 -0.19500849 0.065061465 0.019797048 0.018549731 0.037710883
0.047051106 0.019165862 0.3121291 0.04458242 0.0065940204 -0.037577793 0.03030845 -0.0038204466
00000000: 09bc 5f3b 550b 613d 51ad 323c b61a 023d
00000010: b449 49bd a8d7 61bd ddb9 5ebd 0899 acbc
00000020: 7c2b 1e3c cdfe a83d 872f 023d 676a 15be
00000030: 8e33 d6bd 3f7d 72bd 64dd 06bc 1318 acbc
00000040: fc17 873c 64c4 49bd 7e5d 61bd acfa eebc
00000050: 5172 c9bb a428 8d3a f28e f83c 3fbd 18bd
00000060: 364f efbd f1c0 9d3d 2415 ccbd 3654 2b3d
00000070: 367c b73d d74e 72be c46c cbbc ae0f 73bd
00000080: 97fa 603b aa1f 4cbc 9fca cbbd c4dd 0abd
00000090: d5ae 2a3d 961c 38be 7c51 b93d 5718 6b3d
000000a0: 2f63 0d3e 7d40 87bc 1218 0bbb 4403 1ebd
000000b0: f389 783d c874 cc3d c56b 27bc d306 0dbd
000000c0: 9f90 2abd 559e a9bd 3ce0 7e3d c301 563d
000000d0: 7168 e6bc 88e4 abbc aaa9 af3c f822 653d
000000e0: d921 e03d eeea 793c 7c9a 943d 55db b7bc
000000f0: 7e46 2a3e b518 773c f5a4 ca3b bd05 84bc
00000100: 4751 aabc 401e 08bb 97d7 4b3d 91c9 31bc
00000110: 35ec df3c 64d3 5cbd 401c ff3c b9f0 abbc
00000120: 48a1 f6bc d610 033d 6a9a ff3c 46cb d8bc
00000130: 4a61 313d aa5b d83d 8994 953c 502e 123d
00000140: 0012 db3c 388c c73b 580e 2c3d bc67 9c3b
00000150: 14d0 c6bc d755 873c 2b3e 7d3d e4f7 643b
00000160: 6f7d 43bc 70ba a9bc ff22 843d 82ce 99bc
00000170: a1b8 cf3c f84d 143c 31c7 29be f4c4 0dbc
00000180: 8894 983a 9039 c5bb 75ac 263d 1ccd 97bd
00000190: 3a7d fdbd c0ba b4bc a99a be3c 05bf 17ba
000001a0: d82b 21be 4011 963d b9c2 da3c f050 183e
000001b0: c90e 4dbd 1401 203d b6b6 78bd 8ca4 a53d
000001c0: 5266 eebc 146b 9bbc f2d5 c1bd 4eb0 47be
000001d0: f23e 853d 6b2d a23c 9bf5 973c ba76 1a3d
000001e0: a9b8 403d ba01 9d3c 63cf 9f3e 0e9c 363d
000001f0: a712 d83b 2ceb 19bd 6d49 f83c 7560 7abb

weight f4 [128, 64, 3, 3]
-0.0035606432 -0.009533977 -0.002945785 -0.00390872 0.011564309 0.028852934 -0.00813903 0.0067808162
-0.010229064 0.016959 -0.022865726 -0.011733903 0.026801106 -0.021868085 0.025105799 -0.04326629
-0.006859465 0.01974782 -0.010614687 -0.016847398 -0.022373287 -0.011302105 -0.020133099 -0.0053238706
-0.0005200917 -0.0038607693 -0.01888753 -0.013416172 -0.02204787 0.008123676 0.021998523 -0.03521264
-0.03851468 0.0078047444 0.02964547 0.021094516 -0.012232727 -0.00793718 0.017138641 0.04260451
-0.006474116 0.025934804 0.004672711 -0.0106156785 -0.023991523 0.0072723534 0.037419476 -0.027468594
-0.010929691 0.010068461 -0.039828107 0.027009482 0.032197088 -0.0114188995 -0.031421956 0.0045156684
-0.010745439 0.022618638 0.0144276405 0.051140014 -0.06850952 0.014836788 -0.017812556 -0.03195806
-0.009889076 -0.039219268 0.0072792354 -0.02436431 -0.011390353 0.027309129 0.02556726 0.017477127
-0.013629189 0.034959003 0.037961576 0.029917058 0.008073951 -0.038157344 0.02756816 0.024912134
-0.009959449 -0.044514272 0.026821658 0.0046604876 0.0067827846 -0.014534922 0.012109785 -0.036791265
0.0034182977 0.02239322 0.052012846 0.03669575 -0.0062288023 -0.025565078 0.021436758 -0.018717661
0.05378644 0.09297666 0.088189945 -0.033882886 -0.028962135 0.0011515568 -0.016692976 -0.017590154
-0.0063795676 -0.033778198 -0.041485544 0.023187947 -0.022355016 -0.029711202 0.025257803 -0.04204023
0.02960402 -0.04202979 0.024847401 -0.020363111 -0.012522452 -0.002808741 0.014894267 -0.025381494
-0.020122042 0.014821178 -0.029427413 0.001667422 -0.012339407 0.01489678 0.017758798 -0.03839378
0.010453964 0.0008091836 0.011989309 -0.020252591 0.05943275 0.03999708 0.06993971 -0.018645233
0.014647534 0.012297871 0.009844855 0.0019567858 -0.01578707 -0.047337763 -0.023585595 0.039567772
-0.0050948947 -0.001082884 -0.03084734 -0.0012418581 -0.02406911 0.015487539 0.013652438 -0.031378787
-0.020074291 -0.028755894 -0.024925105 0.031632647 0.002756363 -0.012627103 -0.03856619 0.0189236
0.007750522 -0.015899824 -0.011148924 0.009024465 -0.040749818 0.0097920885 -0.023534913 -0.038372356
-0.049617875 -0.028070062 -0.05131376 0.007021932 0.0015361834 0.013366411 0.054209 0.06657669
0.02996215 -0.0037839664 0.025889248 0.038531937 -0.01469179 0.027971141 0.012471111 -0.026299985
0.047464713 0.0006393815 -0.07638312 0.04748907 -0.03914554 -0.004370021 0.010116843 -0.018477809
-0.0015025424 -0.030381478 -0.024783732 0.022565683 -0.011357044 -0.0050122133 -0.035885923 -0.0141875595
-0.0024334886 -0.06965094 -0.033694014 -0.020866128 -0.004445751 0.006036858 0.04214336 -0.01683711
0.049101405 0.068705425 -0.015799498 0.0056897183 0.0112781115 0.07079704 0.013528481 0.033198394
-0.0036843421 0.02640785 0.031906705 0.022215508 0.00048813256 0.0048679817 -0.038455863 0.035763346
-0.019855814 -0.028103916 -0.0059102178 0.043373436 -0.004542937 -0.033183478 0.09269146 -0.04709951
0.036638558 0.033912007 0.006136396 -0.05757823 0.012637436 0.0014135593 0.007387395 -0.032989327
-0.05046176 -0.056656506 -0.04725727 -0.01988123 -0.06752294 -0.060552116 0.023434015 -0.007992073
-0.026778705 0.025291262 -0.01254017 -0.042523526 -0.0056173597 -0.024440065 0.03260915 -0.043400325
00000000: ae59 69bb 6634 1cbc 120e 41bb b814 80bb
00000010: 3a78 3d3c fd5c ec3c 9159 05bc 9c31 de3b
00000020: ce97 27bc 9aed 8a3c e750 bbbc 8e3f 40bc
00000030: fe8d db3c b324 b3bc adaa cd3c fe37 31bd
00000040: 5dc5 e0bb 2ec6 a13c 39e9 2dbc 8e03 8abc
00000050: 2f48 b7bc 772c 39bc 2bee a4bc dd73 aebb
00000060: c356 08ba f604 7dbb 05ba 9abc 81cf 5bbc
00000070: bc9d b4bc 2b19 053c 3f36 b43c 213b 10bd
00000080: 92c1 1dbd f1be ff3b 0fdb f23c 68ce ac3c
00000090: c76b 48bc f20a 02bc 5666 8c3c 1182 2e3d
000000a0: d224 d4bb 3a75 d43c 8a1d 993b 62ed 2dbc
000000b0: df89 c4bc ec4c ee3b 2a45 193d d105 e1bc
000000c0: 7212 33bc 30f6 243c cc22 23bd fd42 dd3c
000000d0: 18e1 033d 5616 3bbc 4fb4 00bd 2cf8 933b
000000e0: a30d 30bc b94a b93c e961 6c3c 3178 513d
000000f0: b84e 8cbd 0016 733c a3eb 91bc 74e6 02bd
00000100: cb05 22bc 62a4 20bd a786 ee3b a997 c7bc
00000110: 9a9e 3abc 65b7 df3c 6e72 d13c 312c 8f3c
00000120: f64c 5fbc 2c31 0f3d 997d 1b3d 9e14 f53c
00000130: 9b48 043c e04a 1cbd 9fd6 e13c 8814 cc3c
00000140: f52c 23bc 9954 36bd 18b9 db3c 01b7 983b
00000150: 1f42 de3b e223 6ebc 1f68 463c 70b2 16bd
00000160: 8505 603b fc71 b73c 6c0b 553d 484e 163d
00000170: fb1a ccbb db6d d1bc 249c af3c c855 99bc
00000180: 2c4f 5c3d 8c6a be3d ee9c b43d c8c8 0abd
00000190: 0042 edbc d6ef 963a b5bf 88bc 3a19 90bc
000001a0: b10b d1bb 025b 0abd bfec 29bd a6f4 bd3c
000001b0: de21 b7bc e864 f3bc 74e9 ce3c 6032 2cbd
000001c0: 2184 f23c 6e27 2cbd c78c cb3c 8ad0 a6bc
000001d0: f82a 4dbc db12 38bb 1507 743c daec cfbc
000001e0: fbd6 a4bc 87d4 723c c211 f1bc 668d da3a
000001f0: 392b 4abc a011 743c e67a 913c cc42 1dbd
00000200: 1a47 2b3c 641f 543a cf6e 443c c3e8 a5bc
00000210: c16f 733d fad3 233d 8d3c 8f3d e3bd 98bc
00000220: 36fc 6f3c 027d 493c 514c 213c 6b3d 003b
00000230: e353 81bc 3ee5 41bd 9436 c1bc d111 223d
00000240: 13f3 a6bb 8fef 8dba 90b3 fcbc d8c5 a2ba
00000250: 952c c5bc 72bf 7d3c 7aae 5f3c 0b87 00bd
00000260: d772 a4bc 7b91 ebbc bc2f ccbc 3c91 013d
00000270: 19a4 343b e9e1 4ebc 95f7 1dbd aa05 9b3c
00000280: 17f8 fd3b 5940 82bc faa9 36bc 5adb 133c
00000290: 48e9 26bd ff6e 203c 4acc c0bc 552c 1dbd
000002a0: 1d3c 4bbd 30f3 e5bc 612e 52bd 3c18 e63b
000002b0: c359 c93a cbfe 5a3c 420a 5e3d 5c59 883d
000002c0: 2f73 f53c 6cfc 77bb b015 d43c aad3 1d3d
000002d0: d5b5 70bc bc23 e53c a153 4c3c 1173 d7bc
000002e0: 5c6a 423d 2b9c 273a c16e 9cbd e683 423d
000002f0: 1357 20bd 6532 8fbb 1dc1 253c c65e 97bc
00000300: f5f0 c4ba 94e2 f8bc 4107 cbbc abdb b83c
00000310: e512 3abc 7e3d a4bb 1efd 12bd f072 68bc
00000320: 2a7b 1fbb 27a5 8ebd bc02 0abd 71ef aabc
00000330: aaad 91bb d6d0 c53b 849e 2c3d fbed 89bc
00000340: 8e1e 493d 6eb5 8c3d f36d 81bc d170 ba3b
00000350: d4c7 383c 0afe 903d 90a6 5d3c 0afb 073d
00000360: 0175 71bb 4755 d83c 9bb0 023d 4cfd b53c
00000370: 0bec ff39 9783 9f3b e583 1dbd 967c 123d
00000380: a9a8 a2bc 2f3a e6bc 80aa c1bb 58a8 313d
00000390: ebdc 94bb 66eb 07bd 05d5 bd3d 6aeb 40bd
000003a0: 5012 163d 51e7 0a3d d213 c93b 26d7 6bbd
000003b0: 400d 4f3c 2e47 b93a f611 f23b d11f 07bd
000003c0: feb0 4ebd a710 68bd d790 41bd f6dd a2bc
000003d0: 7849 8abd 7f05 78bd b1f8 bf3c 2ff1 02bc
000003e0: 045f dbbc 9f2f cf3c 4975 4dbc 262d 2ebd
000003f0: d411 b8bb 8836 c8bc 2c91 053d 8ac4 31bd

bias f4 [64]
0.035637517 0.04315617 0.19446261 -0.012129065 -0.037933733 0.017858243 -0.008268648 0.034858186
0.026454391 0.0089065125 0.013978524 0.061579186 0.052935824 0.0019763731 -0.10470816 0.16328259
0.06486286 0.06307894 -0.004557849 0.039955076 0.018917661 0.07705177 0.044783667 -0.020868352
-0.037467107 0.005534018 0.111916505 0.0430034 0.001637391 0.18421715 -0.0021190697 0.02142431
-0.011384603 0.030439833 0.022998825 0.041780706 0.03610724 0.029274566 0.011591066 0.019744879
0.03656501 0.11453464 0.042850282 0.054037 -0.03869754 0.032013007 -0.010047925 0.0947948
0.23311481 0.044398174 0.009316742 0.0042402796 0.13214076 0.06421961 -0.024134448 0.010771904
0.039428536 0.06704218 0.006179671 0.009281068 0.015709642 -0.047479514 -0.029263798 -0.0021859054
00000000: a5f8 113d 86c4 303d 3521 473e fcb8 46bc
00000010: 6760 1bbd 734b 923c 3979 07bc 75c7 0e3d
00000020: e1b6 d83c 9fec 113c 2e06 653c 753a 7c3d
00000030: 3cd3 583d 0a86 013b 3b71 d6bd 8d33 273e
00000040: d2d6 843d 882f 813d 025a 95bb efa7 233d
00000050: 36f9 9a3c 52cd 9d3d 146f 373d 1bf4 aabc
00000060: 1c77 19bd b556 b53b 7b34 e53d 5524 303d
00000070: ba9d d63a 6ca3 3c3e 17e0 0abb 0982 af3c
00000080: 7c86 3abc f55c f93c 0868 bc3c 3f22 2b3d
00000090: 2fe5 133d 37d1 ef3c 74e8 3d3c 03c0 a13c
000000a0: 31c5 153d 2391 ea3d c783 2f3d e755 5d3d
000000b0: 5081 1ebd 1220 033d 0da0 24bc c723 c23d
000000c0: a6b5 6e3e dcda 353d 40a5 183c 0bf2 8a3b
000000d0: e84f 073e 9285 833d 9bb5 c5bc a47c 303c
000000e0: d17f 213d 694d 893d d67e ca3b 9f0f 183c
000000f0: 82b1 803c e179 42bd a2ba efbc 6841 0fbb

weight f4 [64, 32, 3, 3]
-0.011173375 0.04275001 0.02315234 -0.016409678 0.05720526 -0.050113972 0.047867388 -0.04953282
-0.044483967 -0.0002559157 0.0055988613 0.02896455 0.037400097 0.0114562325 -0.034508135 -0.027267044
0.018371193 0.0038697422 -0.05777897 0.00066325744 0.04929022 0.036351003 -0.05802195 0.028192664
0.0518477 -0.03944297 -0.008646658 -0.0082751075 0.03615068 -0.007961872 0.030907359 0.0488594
-0.03862465 -0.048625592 0.016133985 0.007956361 0.0024675226 -0.060174637 -0.03493879 -0.047083188
-0.030431826 0.02833802 -0.01908018 0.03796539 -0.0065053515 0.012184408 0.017266287 0.038066935
-0.06081066 -0.02542784 0.05023079 0.021300422 0.0076123043 0.014641851 -0.018425453 -0.03158715
0.042329174 -0.0049785827 -0.037242513 -0.0056463378 -0.051418252 0.045360077 -0.009787553 -0.03365591
-0.03753253 0.041464325 0.0014204779 -0.0033406268 0.042082645 -0.0106740575 -0.06004103 -0.009227988
0.0036290581 -0.021451598 -0.040051848 0.03944766 0.048110683 -0.00023560137 -0.051112942 -0.026398078
-0.039322745 -0.018416578 -0.04432926 0.006907498 0.04020089 0.039076798 0.04475876 -0.048837278
-0.022227028 -0.01325651 -0.0392793 -0.009527204 -0.06547609 0.02953386 0.006399585 0.009996639
-0.057443492 -0.0029006903 0.009333969 0.00391087 -0.01373781 0.03190901 -0.017948449 -0.040933672
0.021818897 0.028010111 0.003915264 -0.05573913 0.035796076 -0.029036477 -0.036275424 0.0014497295
-0.04705432 -0.03265834 -0.025170524 -0.05448147 -0.015576421 -0.07745874 -0.041526694 -0.06837434
-0.029508727 0.047953382 0.036409304 0.009520554 0.006480675 0.020603877 0.05136831 0.002011302
-0.017704638 -0.028364215 -0.010524093 -0.04864159 0.030475749 -0.018315595 -0.00563945 0.030309483
-0.039365254 -0.0056277174 -0.012669932 -0.04096087 -0.030929897 -0.03396433 0.043781675 0.048334602
-0.0029440387 0.015090699 -0.009323797 -0.003898212 0.001413991 0.033674452 0.036335018 0.04758147
-0.0025794015 -0.018077811 0.039333124 -0.008631571 0.043330684 0.027263815 -0.0183671 0.021668494
-0.032144856 -0.022991622 0.044092104 -0.038518403 -0.020714391 0.054296877 -0.03456877 -0.0020362465
0.00016993337 0.041631963 -0.035169832 -0.10778158 -0.08805332 -0.04077987 0.004881146 0.036573317
-0.013814628 0.018044963 0.08117401 0.024848092 -0.0011980038 -0.0148373395 0.027604895 -0.0019308806
0.036401667 0.039931465 0.029257214 -0.03996023 0.03604118 -0.013957049 0.0098352665 0.03396626
0.00024185235 -0.03001452 0.00069329457 0.015973907 0.057177685 -0.055685744 0.042264223 -0.04710376
0.041585196 -0.040262017 0.026767472 -0.0069176364 0.04984796 -0.008075541 -0.040286746 0.032986984
-0.025631547 -0.036955614 0.011371822 0.014714305 0.033467885 0.007495998 -0.03265449 -0.025421867
-0.012481565 0.0030496337 -0.044219825 0.038658805 0.0124086095 -0.059457596 -0.052519035 0.015004657
-0.022301087 0.010608365 0.016903047 0.016633807 -0.035422094 0.055301312 -0.04011456 -0.011126276
0.04616621 -0.023747686 -0.027953215 -0.06068561 -0.010964399 -0.018867582 -0.020231154 -0.053935885
-0.018596878 0.035608117 -0.019441893 -0.022368325 -0.059169315 -0.036815975 -0.049366668 -0.04040827
0.043753497 0.008610848 -0.026348801 0.02885639 -0.04507223 -0.044256844 -0.064859405 -0.043633692
00000000: 8810 37bc a21a 2f3d faa9 bd3c 976d 86bc
00000010: 1050 6a3d 4f44 4dbd 9810 443d ede2 4abd
00000020: d234 36bd 6c2c 86b9 a776 b73b 1047 ed3c
00000030: d830 193d ecb2 3b3c 6758 0dbd 235f dfbc
00000040: 2f7f 963c 809b 7d3b a4a9 6cbd 74de 2d3a
00000050: 8be4 493d cae4 143d 6da8 6dbd 4df4 e63c
00000060: 415e 543d f48e 21bd b6aa 0dbc 5194 07bc
00000070: bc12 143d 8372 02bc 6e31 fd3c cb20 483d
00000080: e234 1ebd a12b 47bd 6b2b 843c 665b 023c
00000090: 29b6 213b ae79 76bd fa1b 0fbd 4dda 40bd
000000a0: 2a4c f9bc 2325 e83c 0a4e 9cbc 9981 1b3d
000000b0: d82a d5bb 1ca1 473c 0772 8d3c 13ec 1b3d
000000c0: 9914 79bd 0c4e d0bc cdbe 4d3d 397e ae3c
000000d0: a370 f93b 60e4 6f3c faf0 96bc 8761 01bd
000000e0: 5b61 2d3d 6123 a3bb 9b8b 18bd ea04 b9bb
000000f0: f29b 52bd 7dcb 393d f95b 20bc c8da 09bd
00000100: b6bb 19bd 7fd6 293d 542f ba3a 6bee 5abb
00000110: da5e 2c3d 3ee2 2ebc 95ed 75bd fd30 17bc
00000120: 7ed5 6d3b 43bb afbc 680d 24bd df93 213d
00000130: b50f 453d c30b 77b9 ce5b 51bd c840 d8bc
00000140: e310 21bd 5dde 96bc 9992 35bd 4b58 e23b
00000150: b0a9 243d fe0e 203d f654 373d 9909 48bd
00000160: 7515 b6bc d531 59bc 55e3 20bd fd17 1cbc
00000170: 5418 86bd fef0 f13c 9cb3 d13b f1c8 233c
00000180: de49 6bbd 8219 3ebb 81ed 183c c126 803b
00000190: 8d14 61bc 06b3 023d a008 93bc 11aa 27bd
000001a0: 8bbd b23c 7675 e53c 9d4b 803b b74e 64bd
000001b0: e89e 123d e8dd edbc 8a95 14bd da04 be3a
000001c0: 08bc 40bd c0c4 05bd 6a32 cebc f627 5fbd
000001d0: 3f34 7fbc b0a2 9ebd e517 2abd d907 8cbd
000001e0: 49bc f1bc c46a 443d ec21 153d 19fc 1b3c
000001f0: d85b d43b 76c9 a83c 9467 523d 0cd0 033b
00000200: 5109 91bc 125c e8bc 3f6d 2cbc 673c 47bd
00000210: 47a8 f93c 960a 96bc 23cb b8bb 984b f83c
00000220: 763d 21bd b768 b8bb 8c95 4fbc 96c6 27bd
00000230: b260 fdbc 2e1e 0bbd 6a54 333d 81fa 453d
00000240: c6f0 40bb fb3e 773c d7c2 18bc 2579 7fbb
00000250: aa55 b93a 39ee 093d 07d4 143d cae4 423d
00000260: 2d0b 29bb eb17 94bc c51b 213d 6f6b 0dbc
00000270: 847b 313d 5d58 df3c 9a76 96bc 2082 b13c
00000280: 53aa 03bd ed58 bcbc ec99 343d 79c5 1dbd
00000290: 3ab1 a9bc 6766 5e3d fc97 0dbd 8c72 05bb
000002a0: 2430 3239 4786 2a3d 3e0e 10bd 97bc dcbd
000002b0: 4d55 b4bd cb08 27bd 05f2 9f3b e7cd 153d
000002c0: c056 62bc 08d3 933c 8f3e a63d 3a8e cb3c
000002d0: 5606 9dba 5018 73bc a923 e23c 9a15 fdba
000002e0: ea19 153d 2d8f 233d d3ac ef3c 57ad 23bd
000002f0: eb9f 133d 1bac 64bc 1924 213c 3420 0b3d
00000300: bf99 7d39 03e1 f5bc 36be 353a b6db 823c
00000310: 2633 6a3d bc16 64bd 401d 2d3d dfef 40bd
00000320: 3d55 2a3d c9e9 24bd 7547 db3c 57ad e2bb
00000330: 602d 4c3d 464f 04bc b703 25bd 5c1d 073d
00000340: 40f9 d1bc c55e 17bd e150 3a3c 4514 713c
00000350: 9f15 093d fda0 f53b b7c0 05bd 8541 d0bc
00000360: 7a7f 4cbc 5ddc 473b d91f 35bd b258 1e3d
00000370: 7b4d 4b3c cf89 73bd 331e 57bd 18d6 753c
00000380: c5b0 b6bc b5ce 2d3c 4278 8a3c 9f43 883c
00000390: c216 11bd a183 623d 2a4f 24bd fc4a 36bc
000003a0: c818 3d3d 828a c2bc 24fe e4bc 7991 78bd
000003b0: 06a4 33bc 3090 9abc cebb a5bc e0eb 5cbd
000003c0: 7b58 98bc d1d9 113d 9b44 9fbc c73d b7bc
000003d0: 865b 72bd 59cc 16bd b434 4abd 2483 25bd
000003e0: de36 333d 8414 0d3c 71d9 d7bc 3c64 ec3c
000003f0: a99d 38bd aa46 35bd 02d5 84bd 3eb9 32bd

bias f4 [32]
-0.061742727 0.06384579 0.03589655 -0.049500264 0.055079505 0.013813182 -0.054166168 -0.051415313
-0.02982826 0.03145974 0.035260294 0.07175816 -0.05513528 0.0906218 0.03327779 0.0029760017
-0.023591962 -0.024837188 -0.01631595 0.017476562 -0.06591756 0.0002871757 -0.0054346463 -0.006098462
0.045253064 -0.017969374 0.00056466163 -0.04020388 -0.059271317 0.06359987 -0.024349948 -0.058143366
00000000: f1e5 7cbd 95c1 823d 4308 133d cac0 4abd
00000010: 0c9b 613d af50 623c 58dd 5dbd dd98 52bd
00000020: 655a f4bc eedb 003d 196d 103d f1f5 923d
00000030: 88d5 61bd ec97 b93d 4b4e 083d 0609 433b
00000040: ee43 c1bc 5c77 cbbc 07a9 85bc 022b 8f3c
00000050: c9ff 86bd 1290 9639 1e15 b2bb 9bd5 c7bb
00000060: 475b 393d 8234 93bc cd05 143a d3ac 24bd
00000070: 7bc6 72bd a640 823d 8b79 c7bc bd27 6ebd

weight f4 [32, 1, 3, 3]
-0.04022842 0.30740166 -0.17946345 -0.15432827 -0.040853698 -0.26598412 0.122974925 0.050519988
-0.065945946 0.09037294 -0.0076634544 0.18876274 -0.16825478 -0.014966109 0.17398024 0.2016971
0.0013665607 -0.16150694 -0.23873189 -0.02260005 0.080932446 0.2282843 -0.115189105 0.30415353
0.06345019 0.17519166 -0.1473416 0.074119486 -0.22758251 -0.04082253 -0.21398033 -0.16785067
0.19752087 -0.15447168 0.25433287 -0.19917023 -0.1938915 -0.17556372 0.26017135 0.22830276
0.2717947 -0.049694277 0.19966094 -0.20866892 -0.00610155 -0.096596435 0.24985534 -0.2365837
0.25630727 0.26433364 0.027974676 0.23065443 0.02175974 -0.26958302 -0.2812995 -0.06487705
-0.29085425 -0.16147082 -0.0037378413 0.34433702 -0.052608445 0.35488942 -0.017328998 0.13185349
-0.14514346 -0.21669526 -0.21396156 0.1277552 -0.20552363 -0.10921223 -0.090992264 0.24564695
-0.18212476 -0.25189555 -0.2718406 0.2804014 -0.0011362191 0.013140503 -0.11287829 -0.13655564
-0.269252 0.026456682 0.2927933 0.06603159 -0.1184968 -0.002410387 0.315221 0.16718656
-0.02635035 -0.15759334 0.20443872 -0.18024783 -0.056618754 0.014477015 0.09302566 -0.24436969
-0.0441433 -0.23346803 -0.29477003 -0.19151832 0.31720465 0.24658848 -0.23317942 0.19776687
0.27225912 -0.26180208 -0.06274603 -0.26251188 0.2693352 -0.19714022 -0.21495046 0.043731216
-0.14761978 -0.22933576 -0.23228651 -0.26348653 -0.262383 0.13119386 0.07490595 0.32471636
0.2233365 -0.14840986 0.14465275 0.3050483 -0.21005455 0.20641169 -0.045456946 0.22560507
-0.002490573 0.27507254 0.2733236 -0.2304203 0.084598064 -0.10092589 -0.23263864 0.1511434
0.32754374 0.10667356 0.038803767 0.26138437 0.062426835 0.17461672 0.27680603 0.20772725
0.018667687 0.18242535 0.05160221 0.30922046 0.21328561 -0.04585889 -0.1481468 -0.22761953
0.27415955 0.052737914 0.18043548 -0.03718431 -0.05708906 0.26003507 0.07393643 -0.099191405
-0.19764446 -0.28760722 0.051660363 0.14948456 -0.0828704 0.3157601 -0.25014618 -0.2014723
0.16223867 0.009792127 0.044626307 -0.02130134 -0.05294708 0.1329821 0.18233071 0.32843736
0.17995729 -0.037042584 -0.15043044 -0.06245331 -0.11095654 -0.17042491 -0.17604373 -0.030957414
0.06243764 -0.15204951 0.31116802 0.14145704 -0.103637084 -0.15967011 -0.29085937 0.22742452
0.04408876 -0.25151047 0.22224532 -0.22722569 -0.15932973 0.10448075 -0.28800508 -0.29131484
0.026088925 -0.24552569 0.31029686 0.30046463 0.06769048 -0.25238287 0.16332209 -0.20612933
-0.19128515 0.13164946 0.14576782 -0.2712282 0.07159962 0.23650059 -0.0043152515 0.1388518
0.28292006 0.3103671 -0.2315978 -0.3101846 0.22513552 0.11512409 -0.27960765 0.1375757
0.07471429 0.057902995 -0.047429513 0.17868306 -0.2620775 -0.17192735 0.20184724 -0.21180405
-0.11108732 -0.012527227 -0.2847477 0.14088927 -0.31439123 0.19888064 -0.22748968 0.048105337
-0.12734114 -0.22218147 -0.005183493 0.19866513 0.10371662 -0.30718607 0.02536504 -0.3122567
-0.25677305 -0.31227994 -0.13609742 0.31628117 -0.24429648 -0.29213277 -0.07217381 -0.08790567
00000000: 8ec6 24bd c063 9d3e 44c5 37be 3b08 1ebe
00000010: 3556 27bd 122f 88be 47da fb3d 0cee 4e3d
00000020: ab0e 87bd 7315 b93d b71d fbbb 054b 413e
00000030: fb4a 2cbe 6934 75bc e027 323e af89 4e3e
00000040: 2b1e b33a 1362 25be 2276 74be bd23 b9bc
00000050: e9bf a53d 5cc3 693e 44e8 ebbd 03ba 9b3e
00000060: 2cf2 813d 7165 333e b7e0 16be f5cb 973d
00000070: 640b 69be 8635 27bd a91d 5bbe 0ce1 2bbe
00000080: e942 4a3e d32d 1ebe eb37 823e 48f3 4bbe
00000090: 7e8b 46be fac6 33be 2e35 853e 33c8 693e
000000a0: ad28 8b3e 3a8c 4bbd eb73 4c3e 4ead 55be
000000b0: 83ef c7bb 5ad4 c5bd 14da 7f3e ff42 72be
000000c0: b53a 833e bd56 873e 262b e53c ad30 6c3e
000000d0: 7b41 b23c c906 8abe 7d06 90be 42de 84bd
000000e0: d9ea 94be 9b58 25be 92f6 74bb f14c b03e
000000f0: f47b 57bd 11b4 b53e 8bf5 8dbc 9a04 073e
00000100: 7da0 14be 5de5 5dbe bd18 5bbe 42d2 023e
00000110: c974 52be a9aa dfbd 275a babd e08a 7b3e
00000120: ea7e 3abe 74f8 80be b12e 8bbe c690 8f3e
00000130: 30ed 94ba 444b 573c bc2c e7bd 3ed5 0bbe
00000140: 66db 89be afbb d83c 01e9 953e 923b 873d
00000150: 73ae f2bd 95f7 1dbb a664 a13e f432 2b3e
00000160: b0dc d7bc 2660 21be 6258 513e e392 38be
00000170: 11e9 67bd 0031 6d3c 3d84 be3d 0c3c 7abe
00000180: 9bcf 34bd 3e12 6fbe 19ec 96be 611d 44be
00000190: a668 a23e b181 7c3e 96c6 6ebe 6683 4a3e
000001a0: 8c65 8b3e ec0a 86be fe80 80bd f567 86be
000001b0: 4ee6 893e 20df 49be f91b 5cbe 811f 333d
000001c0: a429 17be fed6 6abe 84dc 6dbe b5e7 86be
000001d0: 1157 86be af57 063e 4a68 993d 3941 a63e
000001e0: 53b2 643e c1f8 17be da1f 143e 4a2f 9c3e
000001f0: 8a18 57be 965d 533e 1031 3abd 0405 673e
00000200: e238 23bb 4fd6 8c3e 12f1 8b3e 4df3 6bbe
00000210: c041 ad3d 3cb2 cebd d338 6ebe 56c5 1a3e
00000220: d0b3 a73e ab77 da3d b3f0 1e3d 2cd4 853e
00000230: 48b3 7f3d bace 323e 85b9 8d3e 74b6 543e
00000240: faec 983c b6cd 3a3e d75c 533d 2552 9e3e
00000250: 8b67 5a3e 88d6 3bbd cbb3 17be 1815 69be
00000260: a45e 8c3e b603 583d 14c4 383e 934e 18bd
00000270: 38d6 69bd 5123 853e fc6b 973d dd24 cbbd
00000280: 4f63 4abe 4141 93be d199 533d 7b12 193e
00000290: f5b7 a9bd 4fab a13e 2913 80be c14e 4ebe
000002a0: e521 263e 286f 203c 13ca 363d 2680 aebc
000002b0: 0adf 58bd 762c 083e e7b4 3a3e f128 a83e
000002c0: b946 383e f7b9 17bd 700a 1abe 0bcf 7fbd
000002d0: 2f3d e3bd de83 2ebe cf44 34be 679a fdbc
000002e0: 9cbe 7f3d deb2 1bbe 6a51 9f3e 1dda 103e
000002f0: ae3f d4bd 9080 23be 85eb 94be f9e1 683e
00000300: 6a96 343d fbc5 80be 4794 633e daad 68be
00000310: 5527 23be 01fa d53d 6775 93be 3827 95be
00000320: 71b8 d53c 166b 7bbe 3bdf 9e3e 80d6 993e
00000330: 4ea1 8a3d 5438 81be e83d 273e 9113 53be
00000340: 41e0 43be 1ecf 063e 2944 153e 6cde 8abe
00000350: d2a2 923d 362d 723e f466 8dbb 2b2f 0e3e
00000360: e6da 903e 70e8 9e3e f927 6dbe 84d0 9ebe
00000370: ed89 663e 2ec6 eb3d bc28 8fbe a5e0 0c3e
00000380: ce03 993d b12b 6d3d 7345 42bd b1f8 363e
00000390: 062f 86be b90d 30be 0bb1 4e3e 29e3 58be
000003a0: c081 e3bd 003f 4dbc 73ca 91be 4745 103e
000003b0: e3f7 a0be 5ea7 4b3e 0ef3 68be 1a0a 453d
000003c0: b765 02be 8a83 63be 4ada a9bb df6e 4b3e
000003d0: 6169 d43d 7e47 9dbe 58ca cf3c 1ce0 9fbe
000003e0: c277 83be 28e3 9fbe 1f5d 0bbe 9bef a13e
000003f0: db28 7abe 6d92 95be ddcf 93bd e307 b4bd
