models/5.pt (torch, 837012 bytes, 17 tensors)

weight f4 [32, 1, 3, 3]
-0.05525929 0.0052637793 0.07598006 -0.25676045 0.17962319 -0.21354829 0.26873207 -0.23841695
-0.24710684 0.034274694 0.17725652 -0.095342636 -0.13309611 0.14617348 0.10622177 0.27849388
-0.08511848 -0.235888 -0.18351941 0.11083138 -0.29361317 0.14805509 0.21011451 0.25232896
0.12990105 -0.10536688 -0.14589396 -0.18491441 0.32543793 -0.055591203 -0.08863036 -0.09968459
0.26249033 0.24760364 -0.037102908 0.19258776 0.32729563 -0.10382189 -0.10217654 0.30166945
0.17197843 -0.07830091 0.29981843 0.14149475 0.02773403 0.31378 0.29846603 -0.14462414
0.07103152 -0.12193649 0.1986798 -0.13561662 -0.22190219 0.22240555 -0.11113077 0.026564565
0.3175442 -0.22963834 -0.070066944 0.118296646 0.1518617 -0.32708344 0.055616274 0.098001905
0.12911132 0.21340947 -0.15978874 0.33104706 0.07645463 -0.09421804 0.073391594 -0.17946447
-0.19941354 -0.21991293 -0.16694346 0.1838307 -0.103805915 -0.2589544 0.2414085 -0.29081762
0.00027903778 0.2740173 0.20466737 -0.18410891 0.30746868 0.23800367 0.3318715 -0.12770547
-0.0083824 -0.2896142 -0.32451135 0.113052174 0.035401672 0.17066261 -0.115797274 0.15391622
0.3135384 -0.31160268 0.24968608 0.08494444 -0.03358863 0.15552019 0.2863132 -0.24605669
-0.2724613 -0.05567034 -0.09771007 0.14296696 0.02723885 -0.18622889 -0.25578588 0.18283525
-0.23216745 0.017590392 0.1317874 -0.24514145 -0.27988595 0.3125553 0.24171126 -0.07458957
-0.22693689 -0.29392034 -0.21245293 0.25526425 -0.2205839 -0.19993857 -0.26603898 0.20883535
-0.2853473 0.24041992 -0.21780503 0.27621153 -0.27733666 0.17710654 -0.23252057 -0.057534978
0.31141236 0.01050638 0.30251047 -0.21599014 -0.33972576 0.014207954 0.2937234 -0.07415202
-0.2883853 0.18681975 0.029290384 -0.0005282519 -0.15746443 -0.30385038 0.30970255 0.06712141
0.038282342 0.31317863 -0.24732204 -0.23977654 0.0809097 0.11897084 0.06808326 -0.17014061
0.2437248 0.31164438 0.098140836 0.30975908 0.00091232895 0.10664488 0.22272508 -0.13537435
0.25468513 0.21544386 -0.08638261 -0.124680586 -0.15106928 -0.1712621 0.33042338 -0.12189431
0.1787271 -0.305126 -0.099207446 0.019924564 -0.12006597 -0.2272863 -0.03334828 0.29020754
0.21134171 0.30415848 -0.2125271 0.099582605 0.107407436 0.1841202 0.19053125 -0.17777078
-0.075884625 0.25692475 -0.022660851 -0.043182727 0.16873169 0.017097235 0.053266365 -0.31837475
-0.097659774 0.14032733 -0.10532842 0.08814202 0.2928105 0.22555633 0.30143622 0.16710748
-0.06376441 -0.14560522 -0.22851603 0.10236382 -0.33152452 0.2107425 0.09939331 -0.0717048
0.09772056 -0.09929138 -0.15147941 -0.29556865 -0.09754521 -0.10842437 0.034285013 0.29699418
-0.13783595 0.23374622 0.13692321 0.037673783 -0.26573992 -0.17782973 0.23208125 -0.3055869
0.20114179 -0.18024339 0.0674394 0.18981518 -0.23015086 0.25131994 0.16086012 -0.2007049
0.0042760535 -0.23884296 0.050021473 0.21727931 0.1439131 -0.24715601 -0.05284687 -0.27268508
0.19574274 -0.10166448 0.067278534 -0.22314069 -0.10303767 -0.22642855 -0.28861034 0.32022807
00000000: 9157 62bd c87b ac3b 6f9b 9b3d 1b76 83be
00000010: 24ef 373e 67ac 5abe 4097 893e 9323 74be
00000020: 9309 7dbe 9f63 0c3d bc82 353e 0043 c3bd
00000030: 594a 08be 80ae 153e cd8a d93d c096 8e3e
00000040: 9952 aebd a08c 71be 83ec 3bbe 90fb e23d
00000050: 7754 96be c19b 173e 4228 573e 4331 813e
00000060: c804 053e 97ca d7bd 3a65 15be 345a 3dbe
00000070: cd9f a63e 9ab3 63bd d683 b5bd 6f27 ccbd
00000080: 2265 863e cf8b 7d3e 38f9 17bd ba35 453e
00000090: 4b93 a73e 92a0 d4bd ef41 d1bd 6b74 9a3e
000000a0: 1d1b 303e 3a5c a0bd cd81 993e 00e4 103e
000000b0: 7a32 e33c c6a7 a03e 8ad0 983e 5a18 14be
000000c0: f978 913d d7b9 f9bd b872 4b3e 15df 0abe
000000d0: 543a 63be 48be 633e 8798 e3bd ee9d d93c
000000e0: 2795 a23e 5026 6bbe 427f 8fbd 8345 f23d
000000f0: a281 1b3e 7b77 a7be e4cd 633d 39b5 c83d
00000100: c235 043e 0388 5a3e a99f 23be 007f a93e
00000110: 3f94 9c3d 63f5 c0bd 554e 963d 89c5 37be
00000120: 1033 4cbe db30 61be 3af3 2abe 1d3e 3c3e
00000130: 3298 d4bd ac95 84be ca33 773e 0ce6 94be
00000140: d14b 9239 ff4b 8c3e 5394 513e 0c87 3cbe
00000150: 896c 9d3e 3cb7 733e 10eb a93e 39c5 02be
00000160: 5556 09bc 5048 94be 5a26 a6be e687 e73d
00000170: 5801 113d 2ec2 2e3e 1f27 edbd 379c 1d3e
00000180: 1b88 a03e 638a 9fbe b5ad 7f3e 5af7 ad3d
00000190: 3b94 09bd af40 1f3e a597 923e 49f6 7bbe
000001a0: 0c80 8bbe 9506 64bd 381c c8bd ee65 123e
000001b0: 0224 df3c c9b2 3ebe 5ef6 82be 2a39 3b3e
000001c0: 4ebd 6dbe ba19 903c 47f3 063e 5c06 7bbe
000001d0: 364d 8fbe 4007 a03e 2883 773e 6bc2 98bd
000001e0: 2562 68be ba7c 96be 438d 59be ffb1 823e
000001f0: bfe0 61be b2bc 4cbe 4336 88be efd8 553e
00000200: 0b19 92be a430 763e 4808 5fbe 996b 8d3e
00000210: 12ff 8dbe 6b5b 353e df19 6ebe cca9 6bbd
00000220: 7171 9f3e f422 2c3c a7e2 9a3e 852c 5dbe
00000230: 89f0 adbe 7ac8 683c ea62 963e 04dd 97bd
00000240: 3da7 93be ad4d 3f3e 63f2 ef3c 637a 0aba
00000250: 5b3e 21be 4792 9bbe 5591 9e3e f376 893d
00000260: f2cd 1c3d f358 a03e fd41 7dbe fb87 75be
00000270: fcb3 a53d fca6 f33d 3c6f 8b3d 5739 2ebe
00000280: fe92 793e da8f 9f3e 10fe c83d be98 9e3e
00000290: 5c29 6f3a a168 da3d 0b12 643e 939f 0abe
000002a0: 1766 823e 519d 5c3e 5ee9 b0bd 8958 ffbd
000002b0: e8b1 1abe 555f 2fbe 412d a93e b9a3 f9bd
000002c0: 3d04 373e 7a39 9cbe 462d cbbd d738 a33c
000002d0: 26e5 f5bd bdbd 68be 3598 08bd 1596 943e
000002e0: f669 583e a9ba 9b3e b4a0 59be f7f1 cb3d
000002f0: 6ef8 db3d 018a 3c3e a01a 433e 8b09 36be
00000300: 6669 9bbd a48b 833e 40a3 b9bc 5fe0 30bd
00000310: 00c8 2c3e 800f 8c3c d52d 5a3d 0402 a3be
00000320: d901 c8bd f8b1 0f3e 6db6 d7bd ce83 b43d
00000330: 42eb 953e 3df8 663e d955 9a3e 391e 2b3e
00000340: ea96 82bd 8919 15be 1b00 6abe 1fa4 d13d
00000350: 95bd a9be e2cc 573e b88e cb3d f7d9 92bd
00000360: b821 c83d 4759 cbbd 6b1d 1bbe c654 97be
00000370: c8c5 c7bd 990d debd 716e 0c3d 9f0f 983e
00000380: de24 0dbe 2b5b 6f3e 9935 0c3e d34f 1a3d
00000390: 100f 88be ff18 36be b5a6 6d3e e375 9cbe
000003a0: 1df8 4d3e b991 38be ab1d 8a3d e95e 423e
000003b0: abac 6bbe 02ad 803e 84b8 243e 9685 4dbe
000003c0: 231e 8c3b 4093 74be 51e3 4c3d 787e 5e3e
000003d0: f55d 133e 7716 7dbe f675 58bd 619d 8bbe
000003e0: c970 483e 7835 d0bd 54c9 893d fe7e 64be
000003f0: 6a05 d3bd e3dc 67be bcc4 93be eff4 a33e

bias f4 [32]
0.04231438 0.09573034 0.083051644 -0.29855958 0.31979135 -0.04085648 -0.038680293 0.2131239
0.29661122 -0.025031434 -0.15880352 0.2818005 0.041863173 0.2131461 0.12382902 0.28347474
-0.08560797 -0.040508065 -0.044967424 0.18844695 -0.24557973 -0.09053172 0.043361522 0.14186467
0.13601375 0.089252114 0.056029737 -0.007083238 -0.2196198 -0.10223023 -0.0728143 0.06441875
00000000: d851 2d3d 450e c43d fb16 aa3d cddc 98be
00000010: b1bb a33e 2059 27bd 3a6f 1ebd 273d 5a3e
00000020: 6ddd 973e b90e cdbc 649d 22be 2848 903e
00000030: b878 2b3d f942 5a3e 129a fd3d 9a23 913e
00000040: 3b53 afbd c9eb 25bd c32f 38bd 3df8 403e
00000050: 4179 7bbe b268 b9bd da9b 313d f944 113e
00000060: 3047 0b3e d0c9 b63d 707f 653d 821a e8bb
00000070: 03e4 60be 155e d1bd aa1f 95bd faed 833d

weight f4 [64, 32, 3, 3]
0.06451462 0.039630257 -0.0042136754 -0.027287234 0.017310848 0.03861258 -0.03928321 -0.028394401
0.041987132 -0.013043603 -0.011688247 0.049146634 0.026800726 -0.002809318 -0.040215854 0.043469448
0.023749176 0.011569154 -0.028214496 -0.020196823 0.0016798157 0.022462443 0.0077289925 -0.022578798
-0.053958617 0.039465964 0.026882911 0.0067768944 -0.02509825 -0.041188035 0.015882172 -0.04591433
-0.001258043 -0.0109280925 0.059184205 0.016702587 0.0068977564 0.027075322 -0.052811477 -0.054552566
-0.051205926 -0.0105973855 -0.051166326 -0.0032400459 0.037847094 0.0047866805 0.021018198 -0.022489624
0.013251239 0.044570778 0.0480453 0.045807157 0.052858084 0.054715592 0.052579056 -0.04064016
-0.027188407 -0.026859995 0.0056966115 -0.034894884 0.038596787 0.026405413 0.010822917 -0.05297193
-0.04062571 -0.022704283 -0.029930264 -0.044624098 0.025605042 0.032174382 0.019210933 -0.04274079
0.033177786 0.026451636 -0.059289686 0.039467596 -0.02610428 -0.046148017 0.0121677555 -0.014542662
-0.0566929 0.059206266 -0.020800568 0.002108001 0.038052604 -0.024770552 -0.016333338 -0.04768177
0.02670686 -0.03580341 -0.049573876 -0.009307025 0.0017328206 -0.011151535 0.031529058 -0.043486603
-0.024619227 0.012282191 -0.031817626 -0.008975391 0.00049173133 0.07313986 0.0071771503 0.020461073
0.053253345 0.020053694 -0.00888646 0.033541944 -0.025104655 0.063975796 0.05517728 -0.03993722
-0.050692867 0.0078817075 0.0035835817 -0.056985743 -0.03498581 -0.038310427 -0.0024356071 -0.0483768
0.007437793 0.05226583 0.015610142 -0.0010391485 0.021060847 0.053745728 0.029690633 -0.026851086
0.07853594 0.033206403 -0.019366357 0.06621927 -0.029977195 0.06423237 0.052245688 -0.025275588
0.014904834 -0.016415747 0.0009831225 -0.02016185 -0.011108345 -0.034267373 0.0074884286 -0.03859713
-0.0022205147 6.820413e-05 0.062442806 0.0124466065 -0.0009019901 0.027121503 -0.0062980135 0.045627262
-0.03361952 -0.043994118 -0.01833387 0.028024068 0.008073059 -0.0033594086 -0.04746634 -0.010462227
0.053669702 -0.007074112 -0.045024198 0.036083482 0.025780492 0.022069983 -0.039461073 -0.018343579
-0.022617972 0.0055625704 0.018487958 -0.0034551146 0.026749749 0.062472794 0.037419707 0.063569546
0.0443529 -0.002198214 0.0423419 -0.03508369 -0.044259895 -0.041923333 0.062222153 -0.0054633613
-0.014290853 -0.004987704 0.02756153 -0.051618356 -0.032418545 0.018565657 0.028912686 -0.022433184
-0.043725856 -0.050975867 -0.026280737 0.028396517 -0.03141084 0.053322334 0.053698674 -0.045264892
-0.004604039 0.04225028 0.053072054 0.0319664 0.0027203287 0.05983245 -0.04380051 0.054972902
-0.008243097 0.002859565 0.01844196 0.030647047 -0.024025213 -0.020013142 0.04576989 0.04630651
0.042077664 -0.029400848 -0.009081105 -0.038955133 -0.012952457 0.03357287 0.059732232 -0.018314198
0.06595351 0.06629759 -0.039723195 0.00064511306 -0.038065597 0.007848936 0.060949977 0.06900777
0.010365445 -0.044782057 -0.0035865577 -0.02072884 0.01600487 -0.03034658 -0.035732016 0.059395023
-0.028138094 -0.02522496 0.035516463 0.049441155 0.024803834 0.07508832 0.02427978 0.039819356
-0.024274658 0.051360313 -0.03499678 0.035083536 0.057304025 0.0055959574 0.030490207 -0.03240458
00000000: 3e20 843d 5653 223d df12 8abb 7a89 dfbc
00000010: 7bcf 8d3c 3a28 1e3d 6ee7 20bd 609b e8bc
00000020: b3fa 2b3d d6b4 55bc 1080 3fbc fb4d 493d
00000030: 328d db3c 891c 38bb 61b9 24bd 050d 323d
00000040: a28d c23c 8d8c 3d3c 1622 e7bc cf73 a5bc
00000050: 432d dc3a 2803 b83c 7d43 fd3b 2cf7 b8bc
00000060: b603 5dbd 10a7 213d 8d39 dc3c b610 de3b
00000070: d89a cdbc c9b4 28bd 541b 823c aa10 3cbd
00000080: ebe4 a4ba be0b 33bc 236b 723d ddd3 883c
00000090: 9306 e23b 11cd dd3c d950 58bd 8372 5fbd
000000a0: 4ebd 51bd a8a0 2dbc c893 51bd f356 54bb
000000b0: 8e05 1b3d 96d9 9c3b 5b2e ac3c 293c b8bc
000000c0: ba1b 593c d98f 363d 26cb 443d 49a0 3b3d
000000d0: b881 583d 751d 603d 235d 573d 4c76 26bd
000000e0: 39ba debc 7e09 dcbc a4aa ba3b f0ed 0ebd
000000f0: aa17 1e3d 2a50 d83c 9b52 313c 18f9 58bd
00000100: 2567 26bd 55fe b9bc 5030 f5bc c2c7 36bd
00000110: aac1 d13c 49c9 033d 3f60 9d3c f710 2fbd
00000120: 6ee5 073d 1ab1 d83c bed9 72bd c6a8 213d
00000130: a5d8 d5bc b405 3dbd 445b 473c 5844 6ebc
00000140: d036 68bd 4582 723d f465 aabc 6326 0a3b
00000150: 0cdd 1b3d 9deb cabc 7ecd 85bc f64d 43bd
00000160: 58c8 da3c 99a6 12bd fa0d 4bbd 7e7c 18bc
00000170: d01f e33a eeb4 36bc 9d24 013d 021f 32bd
00000180: 43ae c9bc 3e3b 493c 3353 02bd 850d 13bc
00000190: 88e7 003a 5aca 953d 4d2e eb3b fb9d a73c
000001a0: 2e20 5a3d a547 a43c 8498 11bc 4763 093d
000001b0: 47a8 cdbc be05 833d 9201 623d 3695 23bd
000001c0: 53a3 4fbd 4722 013c 86da 6a3b e269 69bd
000001d0: 484d 0fbd 65eb 1cbd b59e 1fbb c026 46bd
000001e0: bbb8 f33b b214 563d aec1 7f3c 0a34 88ba
000001f0: cc87 ac3c 7b24 5c3d c539 f33c cff6 dbbc
00000200: 73d7 a03d 7003 083d 32a6 9ebc f89d 873d
00000210: bc92 f5bc 438c 833d 93ff 553d c00e cfbc
00000220: 6833 743c 517a 86bc 1edc 803a 772a a5bc
00000230: c7ff 35bc f25b 0cbd 7e61 f53b 0618 1ebd
00000240: 0e86 11bb d008 8f38 07c4 7f3d daec 4b3c
00000250: 8873 6cba ea2d de3c 915f cebb a7e3 3a3d
00000260: 9fb4 09bd 2d33 34bd ea30 96bc bb92 e53c
00000270: dd44 043c 8629 5cbb 116c 42bd c369 2bbc
00000280: c3d4 5b3d f4cd e7bb 4b6b 38bd 46cc 133d
00000290: 9c31 d33c 1ccc b43c efa1 21bd 4645 96bc
000002a0: 5349 b9bc 3946 b63b 0f74 973c 346f 62bb
000002b0: 4a22 db3c 79e3 7f3d 6845 193d c030 823d
000002c0: 63ab 353d e90f 10bb b36e 2d3d eab3 0fbd
000002d0: dd49 35bd cdb7 2bbd a8dc 7e3d ff05 b3bb
000002e0: 2f24 6abc e56f a3bb b8c8 e13c c56d 53bd
000002f0: 4fc9 04bd 0117 983c 4cda ec3c ccc5 b7bc
00000300: e219 33bd 12cc 50bd b34a d7bc d09f e83c
00000310: a7a8 00bd 8568 5a3d 24f3 5b3d ae67 39bd
00000320: 7add 96bb a10e 2d3d 1562 593d 33ef 023d
00000330: 8b47 323b df12 753d 2a68 33bd 442b 613d
00000340: 0e0e 07bc 8a67 3b3b 9813 973c 840f fb3c
00000350: 86d0 c4bc 9af2 a3bc 3579 3b3d e5ab 3d3d
00000360: a159 2c3d 0cda f0bc eac8 14bc 6b8f 1fbd
00000370: 8b36 54bc b583 093d c9a9 743d a807 96bc
00000380: a212 873d 08c7 873d cab4 22bd ce1c 293a
00000390: acea 1bbd d398 003c afa6 793d f253 8d3d
000003a0: d4d3 293c 646d 37bd 740c 6bbb 87cf a9bc
000003b0: a51c 833c 6499 f8bc bc5b 12bd 3248 733d
000003c0: dc81 e6bc 93a4 cebc b679 113d cf82 4a3d
000003d0: 6931 cb3c e8c7 993d 64e6 c63c 9f19 233d
000003e0: a6db c6bc 315f 523d c958 0fbd c1b3 0f3d
000003f0: a0b7 6a3d 4b5e b73b 99c6 f93c aaba 04bd

bias f4 [64]
0.014022502 0.04910744 0.003907708 -0.029406935 0.05781276 0.04770452 -0.031765673 -0.0013502374
-0.054927565 0.016679669 0.055048868 -0.00809386 -0.0499982 0.056730993 0.034566086 0.04024438
0.027862666 0.016515173 0.017692033 0.028527426 -0.041723136 -0.034726333 -0.02830896 0.0592171
-0.034995012 0.020281788 0.063365206 -0.03629712 0.027588705 -0.057391286 -0.006073589 -0.03152944
0.050674815 -0.051227514 -0.037440255 -0.057860572 0.04322271 0.020652536 0.008494393 0.04887198
0.03248404 0.009774974 -0.025633926 0.022562189 0.036636323 0.06539728 -0.042025007 -0.013914947
-0.03363193 0.0566917 -0.040328622 0.042990696 0.06791787 0.026915051 0.0014976249 0.046916246
0.025120432 0.03220113 0.029751308 -0.0429478 -0.027433764 0.03884851 -0.004694892 0.06172849
00000000: a3be 653c e224 493d 3b0c 803b d0e6 f0bc
00000010: 13cd 6c3d d165 433d b91c 02bd 73fa b0ba
00000020: bafb 60bd cda3 883c ec7a 613d 1c9c 04bc
00000030: eaca 4cbd c25e 683d 2b95 0d3d 4ad7 243d
00000040: 3f40 e43c d44a 873c e2ee 903c 59b2 e93c
00000050: e1e5 2abd 333d 0ebd 31e8 e7bc a18d 723d
00000060: ee56 0fbd fe25 a63c 9ec5 813d 4aac 14bd
00000070: b501 e23c 2013 6bbd f504 c7bb 0425 01bd
00000080: 6590 4f3d f1d3 51bd f45a 19bd 35ff 6cbd
00000090: 4c0a 313d 822f a93c 112c 0b3c fc2d 483d
000000a0: fc0d 053d 3627 203c 3dfe d1bc 57d4 b83c
000000b0: f80f 163d 02ef 853d 6a22 2cbd 85fb 63bc
000000c0: a2c1 09bd 8e35 683d a02f 25bd 0317 303d
000000d0: 8618 8b3d f47c dc3c f44b c43a 402b 403d
000000e0: 5dc9 cd3c 55e5 033d 04b9 f33c 08ea 2fbd
000000f0: c6bc e0bc 9d1f 1f3d 9cd7 99bb 03d7 7c3d

weight f4 [128, 64, 3, 3]
-0.0453318 0.0035977226 -0.041385714 -0.027361823 0.015765997 -0.031538576 -0.030837867 0.033603255
-0.019648012 -0.026827535 -0.018655404 0.03813104 -0.0077514453 -0.028497951 -0.033707358 -0.029190134
0.025620358 0.032690555 -0.03530309 -0.01573649 0.039538775 -0.009161431 -0.011209856 0.011466592
0.0018018964 0.025371691 -0.038218006 0.019615864 -0.012879265 0.025516944 0.03382292 -0.012935218
-0.02575105 -0.031201687 0.03355601 0.0365195 0.010030128 -0.0141627025 -0.023864336 -0.033210777
0.02534269 0.03792592 0.005906696 -0.03559113 0.041010156 0.019689562 0.042066257 -0.028029298
0.006086141 0.035923723 -0.0047641094 0.015325433 0.031807844 -0.024754327 -0.00237034 -0.0065893405
-0.019763269 -0.03007784 -0.029306022 -0.026123196 0.038634956 0.012567513 0.040263336 0.041639738
-0.010823726 0.029804388 0.0071597393 0.0100946175 -0.0054173735 0.023044195 0.029776467 -0.039842065
-0.03990663 0.021699326 0.025473263 -0.03127446 -0.045389604 0.013770792 -0.02734061 0.03222883
0.03096651 -0.035282906 -0.03130503 -0.029752512 0.011396043 0.040172152 -0.0039861132 0.03103775
-0.035755366 -0.036587 -0.013114119 -0.018635254 0.014772777 0.00028854556 -0.020154985 0.0038084367
-0.028332068 -0.014096306 0.0037997214 -0.029802408 0.02440331 -0.021699773 -0.038947154 0.040243614
-0.03613687 -0.01856364 0.0038312683 -0.0059150252 0.0056952373 -0.006033979 -0.013234742 -0.02135971
0.0007863057 0.03683927 -0.025178405 0.008118208 0.02525127 0.007207793 0.00819683 -0.016765852
-0.00057004666 -0.032860376 -0.0017593394 0.06642214 0.0088783195 0.050279424 0.005289051 0.01630177
0.040638473 0.043678656 0.018707123 0.0075766607 0.022959333 0.0051520965 0.02236964 0.031567376
-0.021543372 0.025426637 -0.03889111 -0.034867693 -0.019454416 -0.041070376 -0.012179913 0.022908403
-0.022615317 -0.019377964 0.0011774533 0.034738515 0.02843444 0.030849699 -0.03825959 -0.0072353957
0.01372592 -0.01246602 -0.03237877 0.019389357 0.035969198 -0.017505897 0.027592387 -0.029509064
-0.03506312 0.009453545 0.009794496 0.010316726 0.018061811 -0.024231471 -0.012962352 0.0035879249
-0.0016778167 -0.024545481 -0.015701542 0.01937522 0.0129034035 -0.010288125 0.029259758 0.035368737
-0.004410602 0.030746369 0.028106252 -0.027894642 0.00044835813 -0.027691524 -0.012312838 -0.014293324
-0.025012022 -0.0026893995 -0.0022787366 -0.034339394 -0.008413738 0.037032377 -0.00035887593 0.032244127
-0.0055438336 -0.021226794 -0.022927409 -0.02877738 -0.015324902 0.030670576 0.0030284228 0.016856058
0.026875008 0.0023647519 0.013021228 0.02890765 0.018129848 -0.03068792 -0.018588636 -0.03709867
0.023475 -0.0008174176 -0.025829164 -0.03810153 -0.024807556 0.029035252 0.010385304 0.0111466665
-0.0074329474 -0.02188979 0.036260795 0.012950913 0.040567823 0.029447947 0.019035863 0.023323402
-0.020205047 0.023096915 7.5393626e-05 0.040081937 -0.007902691 0.004293131 -0.03017873 -0.0055970685
0.00037716818 0.009495098 -0.009212764 -0.018457562 -0.038395613 -0.038525935 -0.013681327 0.011945406
-0.0042557283 0.028598748 0.016359137 -0.008801536 0.031468812 0.0027030786 -0.022657003 0.013623148
-0.0007922846 -0.0037232754 0.016589068 -0.018676387 0.023251811 0.0034124258 0.0019862265 -0.021360936
00000000: d6ad 39bd c5c7 6b3b 1184 29bd e725 e0bc
00000010: b127 813c 982e 01bd b29f fcbc 91a3 093d
00000020: def4 a0bc 6bc5 dbbc 38d3 98bc 4b2f 1c3d
00000030: d6ff fdbb 8974 e9bc ba10 0abd 2620 efbc
00000040: c9e1 d13c 88e6 053d f999 10bd d0e9 80bc
00000050: 69f3 213d d419 16bc 8ba9 37bc 5fde 3b3c
00000060: 9c2d ec3a 4bd8 cf3c 7c8a 1cbd 73b1 a03c
00000070: 8d03 53bc e908 d13c e789 0a3d 3dee 53bc
00000080: def3 d2bc ae9a ffbc 0772 093d 7995 153d
00000090: 6855 243c ae0a 68bc 247f c3bc 0608 08bd
000000a0: 799b cf3c 3658 1b3d f58c c13b 01c8 11bd
000000b0: 44fa 273d 014c a13c ab4d 2c3d b39d e5bc
000000c0: 406e c73b c124 133d 3f1c 9cbb 8617 7b3c
000000d0: f148 023d 96c9 cabc b557 1bbb 65eb d7bb
000000e0: 94e6 a1bc cd65 f6bc 2f13 f0bc 5000 d6bc
000000f0: b03f 1e3d f8e7 4d3c 2beb 243d 6e8e 2a3d
00000100: ff55 31bc 5528 f43c 3f9c ea3b e563 253c
00000110: 3984 b1bb 2ec7 bc3c c7ed f33c 6f31 23bd
00000120: 2275 23bd c9c2 b13c 4ead d03c a619 00bd
00000130: 73ea 39bd e39e 613c 6af9 dfbc 6102 043d
00000140: 7aad fd3c cf84 10bd b439 00bd 8abb f3bc
00000150: 78b6 3a3c 8e8b 243d f19d 82bb e142 fe3c
00000160: 3874 12bd 40dc 15bd 9adc 56bc f6a8 98bc
00000170: 8509 723c ee47 9739 111c a5bc f796 793b
00000180: a718 e8bc 31f4 66bc bf04 793b 2e24 f4bc
00000190: 73e9 c73c b9c3 b1bc 0d87 1fbd 7dd6 243d
000001a0: 4104 14bd c612 98bc 0416 7b3b d4d2 c1bb
000001b0: 1d9f ba3b afb8 c5bb 88d6 58bc 8ffa aebc
000001c0: 1520 4e3a c6e4 163d f142 cebc 3b02 053c
000001d0: c0db ce3c 5a2f ec3b ff4b 063c 8a58 89bc
000001e0: 2f6f 15ba 9a98 06bd a299 e6ba 5508 883d
000001f0: 5f76 113c ccf1 4d3d c74f ad3b 4a8b 853c
00000200: 8774 263d 64e8 323d ae3f 993c a345 f83b
00000210: 3615 bc3c ebd2 a83b 8940 b73c cb4c 013d
00000220: ba7b b0bc 864b d03c 494c 1fbd 6dd1 0ebd
00000230: de5e 9fbc 6939 28bd 428e 47bc 67aa bb3c
00000240: c243 b9bc 89be 9ebc c754 9a3a f949 0e3d
00000250: 58ef e83c 82b8 fc3c 16b6 1cbd e616 edbb
00000260: aee2 603c 473e 4cbc 9a9f 04bd 6ed6 9e3c
00000270: 7054 133d 8768 8fbc 6e09 e23c febc f1bc
00000280: 599e 0fbd 0be3 1a3c 1879 203c 7c07 293c
00000290: 5df6 933c 1481 c6bc 0b60 54bc 6423 6b3b
000002a0: 30ea dbba 9b13 c9bc 85a0 80bc c8b8 9e3c
000002b0: cc68 533c 868f 28bc 29b2 ef3c cfde 103d
000002c0: d086 90bb cfdf fb3c 153f e63c 4e83 e4bc
000002d0: 9c11 eb39 56d9 e2bc c9bb 49bc 8c2e 6abc
000002e0: 03e6 ccbc a340 30bb db56 15bb 77a7 0cbd
000002f0: c6d9 09bc 43af 173d 8327 bcb9 6b12 043d
00000300: 0ca9 b5bb d0e3 adbc 43d2 bbbc 8abe ebbc
00000310: 4c15 7bbc dc40 fb3c 8178 463b b715 8a3c
00000320: fa28 dc3c f4f9 1a3b fd56 553c bccf ec3c
00000330: 0c85 943c 3c65 fbbc 3247 98bc c6f4 17bd
00000340: a54e c03c f747 56ba af97 d3bc 5a10 1cbd
00000350: 3739 cbbc 56db ed3c 1f27 2a3c 82a0 363c
00000360: 1590 f3bb 3852 b3bc 3386 143d 1130 543c
00000370: 722a 263d d23c f13c 19f1 9b3c b810 bf3c
00000380: 0e85 a5bc be35 bd3c a51c 9e38 f52c 243d
00000390: 4a7a 01bc 65ad 8c3b 6239 f7bc 9d67 b7bb
000003a0: a8be c539 5491 1b3c 22f1 16bc 5034 97bc
000003b0: b844 1dbd 5fcd 1dbd a527 60bc aab6 433c
000003c0: a373 8bbb ec47 ea3c 9903 863c 5134 10bc
000003d0: 71e5 003d 2226 313b 2e9b b9bc a033 5f3c
000003e0: 52b1 4fba 3202 74bb cce5 873c 39ff 98bc
000003f0: 957a be3c 01a3 5f3b 5a2b 023b 21fd aebc

bias f4 [128]
0.007138586 0.026508497 0.007710563 0.025108479 -0.037148587 -0.027727414 -0.033653304 -0.026900606
-0.007986116 0.048152603 0.025742808 -0.031030566 -0.031901192 -0.0035225672 -0.037362196 -0.0073247235
-0.004125327 0.006871653 -0.024855241 0.020035071 -0.0017847879 0.004456783 0.022353305 -0.024818279
0.010876523 0.006924444 -0.04977416 0.03468818 0.009406033 -0.03155682 -0.016969174 -0.026864396
-0.0022309078 -0.023915818 -0.013104466 -0.01957632 0.019320412 -0.03421122 -0.013932116 0.041473996
-0.0038224228 0.002335197 -0.034893163 -0.03172543 0.05095494 0.021939658 -0.013988066 -0.02393012
0.004166611 -0.029901171 0.026849583 0.012642375 -0.0028291682 -0.023741527 0.016363971 0.038566977
0.0055034417 -0.0013481252 0.00056611554 -0.024661534 0.02026693 0.012235332 -0.0043933685 -0.0073900023
-0.010979024 -0.025515307 0.043936282 -0.007671642 -0.0020525546 -0.042900614 0.031706303 -0.01017761
-0.0138599565 -0.035108875 -0.0016569709 0.009796181 -0.014619725 0.03391509 0.008961396 0.025867585
0.015011691 0.0035058637 0.03873926 0.036783375 0.0166554 0.00157684 0.03720571 -0.01469102
0.017387656 -0.019123638 0.04607092 -0.036211517 0.03697964 -0.0031311444 -0.04213178 -0.019093568
-0.021561138 -0.010679968 0.013733313 -0.028298182 -0.028057136 -0.03442152 0.011015836 0.022520794
-0.03400051 -0.03537747 0.035310637 0.047412045 -0.038298085 0.027182419 -0.015392789 0.034738027
-0.003788485 -0.00834909 -0.035046812 -0.04828667 -0.008708817 0.0060779746 -0.020326197 0.041702487
0.04024355 0.005967334 0.026014725 0.03860375 -0.0032047776 -0.028718967 0.02971787 -0.019078825
00000000: cdea e93b 5928 d93c e4a8 fc3b 4cb0 cd3c
00000010: 1e29 18bd 9a24 e3bc 0cd8 09bd a95e dcbc
00000020: 33d8 02bc aa3b 453d 95e2 d23c d033 febc
00000030: d3aa 02bd dfda 66bb 1a09 19bd 3c04 f0bb
00000040: c02d 87bb 9a2b e13b 389d cbbc 9720 a43c
00000050: 8bef e9ba 350a 923b 471e b73c b44f cbbc
00000060: 7233 323c 72e6 e23b fddf 4bbd 3115 0e3d
00000070: c31b 1a3c b941 01bd f002 8bbc b912 dcbc
00000080: 6c34 12bb 1beb c3bc 1db4 56bc 855e a0bc
00000090: d745 9e3c 1021 0cbd 8843 64bc a3e0 293d
000000a0: 9d81 7abb 1b0a 193b 22ec 0ebd 86f2 01bd
000000b0: 21b6 503d ccba b33c 342e 65bc 1909 c4bc
000000c0: 1188 883b 4df3 f4bc a8f3 db3c f721 4f3c
000000d0: 9169 39bb 977d c2bc bc0d 863c 68f8 1d3d
000000e0: 3756 b43b 93b3 b0ba 5f67 143a fc06 cabc
000000f0: d506 a63c b476 483c 3ff6 8fbb d527 f2bb
00000100: 5de1 33bc 7a05 d1bc 88f6 333d 6662 fbbb
00000110: 2784 06bb 8eb8 2fbd 78de 013d febf 26bc
00000120: df14 63bc 53ce 0fbd b82e d9ba 2980 203c
00000130: 9287 6fbc 8dea 0a3d d2d2 123c 42e8 d33c
00000140: 98f3 753c a2c2 653b 0fad 1e3d 2aaa 163d
00000150: e870 883c f8ad ce3a 0465 183d 9bb2 70bc
00000160: 8f70 8e3c 2da9 9cbc dcb4 3c3d 8752 14bd
00000170: f777 173d e333 4dbb 6092 2cbd 1d6a 9cbc
00000180: fca0 b0bc 08fb 2ebc b101 613c 97d1 e7bc
00000190: 14d8 e5bc 94fd 0cbd c47b 343c 877d b83c
000001a0: 1e44 0bbd f7e7 10bd e3a1 103d 2233 423d
000001b0: 74de 1cbd aaad de3c 0932 7cbc 7649 0e3d
000001c0: 3b48 78bb 9fca 08bc 3f8d 0fbd 3ec8 45bd
000001d0: 6daf 0ebc bf29 c73b 2083 a6bc 3ad0 2a3d
000001e0: 6cd6 243d a089 c33b d51c d53c f71e 1e3d
000001f0: 3f07 52bb 0a44 ebbc e472 f33c 324b 9cbc

weight f4 [128, 64, 3, 3]
0.0035043648 -0.0021571917 0.00090895523 0.0027193176 0.017830767 0.034916677 -0.0024515535 0.01778211
-0.0069741756 0.017740272 -0.022249114 -0.010883769 0.027683191 -0.020981014 0.027192587 -0.04225929
-0.0061148573 0.020047072 0.023194883 -0.030045237 -0.025597448 0.00057912327 -0.03395379 -0.0009816523
0.0059153764 0.023120755 -0.015078647 -0.010744888 -0.018534394 0.01591408 0.02200351 -0.031230107
-0.032647803 0.0031502629 0.032155044 0.015288123 -0.024814334 -0.00763213 0.002556604 0.028957361
-0.01059273 0.02987333 -0.029172037 -0.0357687 -0.025950225 0.013499543 0.040409163 -0.0250996
-0.008999624 0.016434899 -0.035714336 0.03081454 0.040052164 -0.0051980074 -0.024060518 0.01963113
0.004572327 0.03652476 0.019083127 0.044271998 -0.03896722 0.029937936 -0.027975067 -0.03210891
-0.008507852 -0.037479453 0.009039204 -0.024381578 -0.010278213 0.028567726 0.024846299 0.018739494
-0.0137112485 0.035639353 0.037924405 0.03036648 0.009232232 -0.038049884 0.026408501 0.027090063
-0.008672933 -0.04303495 0.030933851 0.0046570036 0.0062564826 -0.010886995 0.013195049 -0.035438523
0.0037487138 0.024272498 0.040615108 0.012794925 0.0013863348 -0.036430042 -0.004390219 -0.039737806
0.029497227 0.05991179 0.0277861 -0.021658558 -0.009074775 0.028160406 0.025114408 0.015409044
0.01748671 0.000775515 0.0116328 0.05195602 -0.020583509 -0.02465944 0.033743978 -0.03877715
0.036180045 -0.037688453 0.031225635 -0.013310321 -0.0040158466 0.0022335579 0.019433526 -0.022508584
-0.020107057 0.015861465 -0.029986165 0.0014462677 -0.012783223 0.014385017 0.010009391 -0.021724552
0.028791683 -0.017755458 0.0005582113 -0.028415294 0.04507313 0.016823366 0.035012417 -0.032766126
0.0010919701 0.023099668 0.0129135735 -0.010535821 -0.013078353 -0.024858763 -0.0247799 0.041012067
-0.014960239 0.0054841796 -0.025686642 -0.010191867 -0.01975224 0.014027579 0.014965314 -0.021098135
-0.014038418 -0.026693428 -0.024684241 0.03506341 0.004436409 -0.013993202 -0.037993476 0.0195856
0.009014141 -0.016329706 -0.0024415264 0.025007425 -0.019589288 0.017955968 -0.00053416233 -0.016531842
-0.041320212 -0.015713425 -0.030060744 -0.0062020575 -0.028949747 0.009229474 0.032709546 0.02473142
0.024979044 -0.012063385 -0.018102149 0.037069768 -0.004054865 0.021293279 0.009347458 -0.012337324
0.041701514 0.011189757 -0.057866372 0.052141696 -0.039054416 0.00039387518 0.014053359 0.011015774
0.0048179533 -0.029943699 -0.007203009 0.031152625 -0.0132989455 -0.012477946 -0.029103983 -0.006068538
0.00446448 -0.035906512 0.008346703 -0.009217497 0.007028195 0.030817954 0.036582455 -0.0058959005
0.023499276 0.03813067 -0.040837385 0.026885016 0.033458058 0.026964873 0.005837374 0.024349427
-0.009468126 0.030858558 0.016845025 0.018745573 0.004064971 -0.0029341283 -0.0403417 0.035978608
-0.023111684 -0.01891032 -0.011060188 -0.00096869044 0.0049749766 -0.030009892 0.024944842 -0.01850151
0.035743825 -0.034248445 0.040447205 -0.032086942 0.02964218 0.03737628 0.019189628 -0.0302318
-0.008504291 -0.029610666 -0.031024504 -0.01105007 -0.042710748 -0.037392356 0.033416014 0.017028466
0.0055573857 0.0359885 -0.008983304 -0.019249542 0.00035876135 -0.0041738176 0.039893534 -0.026276017
00000000: 7ca9 653b ac5f 0dbb f446 6e3a 9436 323b
00000010: d411 923c ca04 0f3d 3eaa 20bb caab 913c
00000020: a087 e4bb 0c54 913c c643 b6bc d651 32bc
00000030: dcc7 e23c 60e0 abbc fdc2 de3c 1418 2dbd
00000040: 245f c8bb c239 a43c 3203 be3c 6e21 f6bc
00000050: bdb1 d1bc 4ed0 173a 2113 0bbd c9aa 80ba
00000060: c6d5 c13b bd67 bd3c 6e0c 77bc 540b 30bc
00000070: 71d5 97bc 3f5e 823c b440 b43c 48d6 ffbc
00000080: b4b9 05bd a474 4e3b 02b5 033d 097b 7a3c
00000090: 6e47 cbbc f216 fabb b38c 273b fd37 ed3c
000000a0: 218d 2dbc eab8 f43c 32fa eebc 3382 12bd
000000b0: 9195 d4bc 302d 5d3c 1484 253d ad9d cdbc
000000c0: 2973 13bc 7ba2 863c 3249 12bd c66e fc3c
000000d0: bd0d 243d 0c54 aabb 901a c5bc 77d1 a03c
000000e0: 75d3 953b fd9a 153d 3854 9c3c 8e56 353d
000000f0: 179c 1fbd 6740 f53c f82b e5bc a284 03bd
00000100: 8564 0bbc 0e84 19bd 2b19 143c e0bb c7bc
00000110: f365 28bc dd06 ea3c 778a cb3c 9183 993c
00000120: 25a5 60bc 92fa 113d 9f56 1b3d 20c3 f83c
00000130: ca42 173c 32da 1bbd a456 d83c fbeb dd3c
00000140: eb18 0ebc 6a45 30bd fd68 fd3c c799 983b
00000150: 2e03 cd3b 5e5f 32bc 0c30 583c fc27 11bd
00000160: fbac 753b 1ed7 c63c 075c 263d cea1 513c
00000170: adb5 b53a ab37 15bd d4db 8fbb 1cc4 22bd
00000180: 2ba4 f13c 1166 753d ad9f e33c 4a6d b1bc
00000190: 5dae 14bc a7b0 e63c bbbc cd3c 3776 7c3c
000001a0: 4a40 8f3c ee4b 4b3a 8097 3e3c d6cf 543d
000001b0: bf9e a8bc 9802 cabc 2037 0a3d cad4 1ebd
000001c0: 8731 143d 355f 1abd e7cc ff3c 8813 5abc
000001d0: 5d97 83bb e260 123b 0f33 9f3c ec63 b8bc
000001e0: 8eb7 a4bc e7ef 813c 8ca5 f5bc b190 bd3a
000001f0: b970 51bc 22af 6b3c 6efe 233c b0f7 b1bc
00000200: 89dc eb3c e573 91bc ed54 123a 31c7 e8bc
00000210: 9a9e 383d 28d1 893c 2e69 0f3d c635 06bd
00000220: 7020 8f3a 843b bd3c 7493 533c 709e 2cbc
00000230: 9746 56bc 9ba4 cbbc 38ff cabc 45fc 273d
00000240: ca1b 75bc a2b4 b33b cb6c d2bc cafb 26bc
00000250: 73cf a1bc eed3 653c 1431 753c ffd5 acbc
00000260: 6501 66bc 2dac dabc 9b36 cabc a69e 0f3d
00000270: 4c5f 913b be43 65bc 0c9f 1bbd fb71 a03c
00000280: 0cb0 133c e0c5 85bc 0402 20bb 5fdc cc3c
00000290: b779 a0bc 6518 933c 0707 0cba c96d 87bc
000002a0: 623f 29bd 71b9 80bc f341 f6bc a13a cbbb
000002b0: 0528 edbc 3837 173c 72fa 053d 8c99 ca3c
000002c0: daa0 cc3c 81a5 45bc f54a 94bc 78d6 173d
000002d0: acde 84bb 3e6f ae3c 1526 193c 7d22 4abc
000002e0: 35cf 2a3d 3e55 373c 4a05 6dbd 8892 553d
000002f0: 86f7 1fbd 0881 ce39 0f40 663c 817b 343c
00000300: ecdf 9d3b 7d4c f5bc 3807 ecbb ca33 ff3c
00000310: d2e3 59bc 4c70 4cbc 7a6b eebc 96da c6bb
00000320: c64a 923b b512 13bd 9cc0 083c fc04 17bc
00000330: c64c e63b ef75 fc3c 7cd7 153d 6632 c1bb
00000340: 8e81 c03c e82e 1c3d 1a45 27bd f73d dc3c
00000350: 510b 093d 70e5 dc3c 7147 bf3b 7378 c73c
00000360: 3320 1bbc 16cb fc3c 94fe 893c 5190 993c
00000370: 7333 853b 814a 40bb 573d 25bd 4e5e 133d
00000380: b754 bdbc d1e9 9abc ca35 35bc b7ef 7dba
00000390: 2105 a33b 4ed7 f5bc 2059 cc3c 7b90 97bc
000003a0: 1e68 123d 1948 0cbd f8ab 253d 996d 03bd
000003b0: 28d4 f23c df17 193d 9133 9d3c aea8 f7bc
000003c0: 9555 0bbc 1192 f2bc 1a27 febc 5a0b 35bc
000003d0: 77f1 2ebd ba28 19bd 3bdf 083d 487f 8b3c
000003e0: bb1a b63b ad68 133d b52e 13bc 37b1 9dbc
000003f0: 2218 bc39 85c4 88bb 6767 233d cd40 d7bc

bias f4 [64]
0.02648193 0.024319367 -0.0020920846 -0.017593933 -0.042846117 0.0037127198 -0.041397374 0.018891428
0.010217494 -0.013281974 0.017084012 3.2293243e-05 0.038661174 0.018439842 -0.043847132 0.033789065
0.04080186 0.047937244 -0.028709112 0.026609033 0.012215366 0.0046318835 0.022430448 -0.009610908
-0.03978555 -0.029907174 0.0005257348 0.006579452 0.025907364 0.018388113 -0.023720644 0.0073278775
-0.023967927 0.04985868 0.0042415545 0.026683884 0.0214747 0.018921247 0.011717613 -0.024820171
0.0073037045 -0.013079374 0.026249524 0.0454242 -0.025973601 0.013874334 -0.004375699 0.027722416
0.044884987 0.03271446 7.05673e-05 0.032418385 0.02286844 0.014094345 -0.018433092 -0.008167708
0.018067291 0.035195153 0.008786856 -0.006810791 0.02069233 -0.020698493 -0.00011736812 0.02950735
00000000: a2f0 d83c 6939 c73c 5b1b 09bb 2721 90bc
00000010: 697f 2fbd 1a51 733b 4b90 29bd 32c2 9a3c
00000020: 4767 273c a39c 59bc c5f3 8b3c 9b72 0738
00000030: 2e5b 1e3d 270f 973c 0d99 33bd 6766 0a3d
00000040: da1f 273d d859 443d 5f2f ebbc 30fb d93c
00000050: f522 483c 0ec7 973b 0fc0 b73c 1277 1dbc
00000060: 2cf6 22bd e4ff f4bc 77d1 093a 7298 d73b
00000070: ae3b d43c aba2 963c cc51 c2bc b11e f03b
00000080: 6358 c4bc 9e38 4c3d bdfc 8a3b 2998 da3c
00000090: b6eb af3c bb00 9b3c 3bfb 3f3c ac53 cbbc
000000a0: ea53 ef3b df4a 56bc 3e09 d73c ba0e 3a3d
000000b0: 97c6 d4bc 2d51 633c 0662 8fbb 1f1a e33c
000000c0: 52d9 373d 99ff 053d 88fd 9338 24c9 043d
000000d0: 9856 bb3c f8eb 663c ff00 97bc dad1 05bc
000000e0: db01 943c cb28 103d bff6 0f3c 0e2d dfbb
000000f0: f682 a93c e38f a9bc 8823 f6b8 66b9 f13c

weight f4 [64, 32, 3, 3]
-0.017807854 0.03752943 0.018578513 -0.021777691 0.051648606 -0.05713946 0.045219958 -0.054092873
-0.049710706 0.0046612406 0.0107916035 0.03486851 0.042751994 0.016605936 -0.029820837 -0.022181794
0.023317799 0.008822354 -0.053445805 0.006005833 0.054825135 0.04192786 -0.053761166 0.033715628
0.05723103 -0.035402484 -0.0042613386 -0.008193197 0.038052753 -0.00589955 0.031845473 0.050533216
-0.037733316 -0.048071675 0.017546555 0.008908961 0.007650198 -0.055876642 -0.029927688 -0.042683598
-0.025331208 0.033938672 -0.014020483 0.04324311 -0.0018642133 0.01697946 0.022446197 0.042937048
-0.05631395 -0.020614658 0.055380814 0.02671384 0.012748569 0.019061683 -0.017399376 -0.030001435
0.046734326 -0.0058030216 -0.03668752 -0.0024783835 -0.05253455 0.047990277 -0.00730144 -0.03413864
-0.03773948 0.04281653 0.0024198573 -0.0016953272 0.043440074 -0.009486029 -0.057768676 -0.008188829
0.002471276 -0.02267376 -0.032991678 0.038828347 0.05164098 0.009504467 -0.052337322 -0.019781886
-0.02926886 -0.01670341 -0.041955695 0.009630093 0.04291524 0.041993544 0.04792372 -0.047025263
-0.020870408 -0.011987407 -0.04783235 -0.01738764 -0.058342744 0.025689596 0.0044721733 0.016216097
-0.056663893 0.0034469252 0.013956199 0.006042233 -0.011788533 0.035283286 -0.0148484465 -0.040192626
0.02474889 0.033180237 0.007102695 -0.051995736 0.035987634 -0.029220408 -0.036794372 0.0012638471
-0.047514126 -0.03312555 -0.025361883 -0.054902755 -0.01572427 -0.067902446 -0.030090816 -0.05684655
-0.022698825 0.055185035 0.040772047 0.015695836 0.012545658 0.023671044 0.056961536 0.0073780897
-0.013043277 -0.023281077 -0.004811135 -0.043909635 0.03691449 -0.012404192 -0.000603071 0.034158047
-0.037003525 -0.0034397377 -0.008692619 -0.038115516 -0.028742602 -0.031187639 0.046523567 0.050040506
0.0016499966 0.019697249 -0.004772432 0.00067424186 0.006030087 0.03872027 0.041218206 0.052774236
0.0018866399 -0.027318094 0.03119858 -0.015394224 0.029616438 0.013024894 -0.032577176 0.02464677
-0.029887037 -0.023034578 0.054131966 -0.03133541 -0.01613964 0.059596132 -0.034048904 0.0005840444
0.0061891037 0.044101115 -0.040915675 -0.08763765 -0.052449152 -0.0034416078 0.0089016 0.04101393
-0.011451966 0.010340658 0.07195748 0.0174331 -0.0025084834 -0.015271542 0.027799096 -0.0058349418
0.034219343 0.037072837 0.02526864 -0.044266082 0.032373026 -0.01739098 0.0071352166 0.030972647
-0.002995461 -0.032821253 -0.0022569278 0.011971856 0.055838864 -0.05797122 0.039086733 -0.05482317
0.037914276 -0.044475198 0.025727617 -0.0067406576 0.041563403 -0.014283141 -0.044424314 0.04156682
-0.019299729 -0.027870186 0.020192636 0.022840612 0.042573653 0.020532835 -0.023883779 -0.018250216
-0.007928894 0.00918797 -0.038293164 0.043715004 0.018034467 -0.05375778 -0.04903232 0.019946657
-0.01737539 0.012099347 0.018132271 0.017409446 -0.036247347 0.0542461 -0.042878594 -0.010052853
0.04413171 -0.02761561 -0.024165459 -0.057708267 -0.0093003195 -0.0139196655 -0.015813408 -0.05234075
-0.015239304 0.038427062 -0.01978161 -0.022873566 -0.059644535 -0.035726607 -0.05079959 -0.03955224
0.04832781 0.01221489 -0.02411133 0.025404371 -0.04744614 -0.044032175 -0.060262434 -0.044561896
00000000: c7e1 91bc 76b8 193d f731 983c 2167 b2bc
00000010: 7d8d 533d 110b 6abd 9038 393d 7d90 5dbd
00000020: 749d 4bbd 52bd 983b 44cf 303c 48d2 0e3d
00000030: b71c 2f3d 2c09 883c d44a f4bc 98b6 b5bc
00000040: f804 bf3c a28b 103c fde9 5abd 94cc c43b
00000050: 5290 603d 8cbc 2b3d ab34 5cbd 6619 0a3d
00000060: 166b 6a3d 3202 11bd b3a2 8bbb c23c 06bc
00000070: 34dd 1b3d 0351 c1bb 6670 023d ebfb 4e3d
00000080: 408e 1abd cee6 44bd cbbd 8f3c e4f6 113c
00000090: 83ae fa3b e8de 64bd e92a f5bc ffd4 2ebd
000000a0: 6583 cfbc 4703 0b3d 2bb6 65bc b01f 313d
000000b0: 9e58 f4ba 8218 8b3c 16e1 b73c c2de 2f3d
000000c0: 75a9 66bd 12e0 a8bc fed6 623d fcd6 da3c
000000d0: 60df 503c 3f27 9c3c 2389 8ebc 92c5 f5bc
000000e0: 7e6c 3f3d 4627 bebb a745 16bd 606c 22bb
000000f0: 782e 57bd 7491 443d eb40 efbb f5d4 0bbd
00000100: b794 1abd 6360 2f3d 7896 1e3b be35 deba
00000110: 38ee 313d 4a6b 1bbc d99e 6cbd 702a 06bc
00000120: 22f5 213b 52be b9bc 4822 07bd 790a 1f3d
00000130: 7e85 533d a0b8 1b3c a95f 56bd 9f0d a2bc
00000140: 40c5 efbc 97d5 88bc bcd9 2bbd 8ac7 1d3c
00000150: e4c7 2f3d 6c01 2c3d aa4b 443d 909d 40bd
00000160: 6bf8 aabc d466 44bc dbeb 43bd 8670 8ebc
00000170: cdf8 6ebd fd72 d23c 4f8b 923b 9fd7 843c
00000180: 6618 68bd cfe5 613b 8ba8 643c edfd c53b
00000190: b124 41bc 3585 103d e646 73bc 06a1 24bd
000001a0: 2fbe ca3c 00e8 073d b9bd e83b 7bf9 54bd
000001b0: c567 133d a35f efbc b2b5 16bd aca7 a53a
000001c0: 2c9e 42bd a8ae 07bd b9c3 cfbc b6e1 60bd
000001d0: 2fd0 80bc 7010 8bbd 0481 f6bc eed7 68bd
000001e0: e3f2 b9bc b409 623d 9700 273d 8e94 803c
000001f0: 4e8c 4d3c c7e9 c13c 8050 693d e7c3 f13b
00000200: 78b3 55bc f5b7 bebc baa6 9dbb 97da 33bd
00000210: a633 173d f43a 4bbc 6917 1eba 4fe9 0b3d
00000220: 0291 17bd 396d 61bb 7d6b 0ebc 041f 1cbd
00000230: 9b75 ebbc 387d ffbc 7f8f 3e3d 46f7 4c3d
00000240: b344 d83a 205c a13c 1062 9cbb 9bbf 303a
00000250: 0998 c53b 2599 1e3d 6cd4 283d cc29 583d
00000260: 2149 f73a 32ca dfbc 2a94 ff3c 0e38 7cbc
00000270: 2c9e f23c 5d66 553c a56f 05bd 06e8 c93c
00000280: a9d5 f4bc 03b3 bcbc 7bb9 5d3d 8f59 00bd
00000290: 4737 84bc 131b 743d dd76 0bbd 8e1a 193a
000002a0: f7cd ca3b 5fa3 343d 3297 27bd 5e7b b3bd
000002b0: ecd4 56bd 998c 61bb 04d8 113c 39fe 273d
000002c0: 07a1 3bbc dd6b 293c 715e 933d dccf 8e3c
000002d0: 5e65 24bb 7d35 7abc eeba e33c 0a33 bfbb
000002e0: 9529 0c3d b0d9 173d 2e00 cf3c 5a50 35bd
000002f0: 9499 043d 8777 8ebc 89ce e93b 59ba fd3c
00000300: 7f4f 44bb 946f 06bd f7e8 13bb 9a25 443c
00000310: 4bb7 643d 3b73 6dbd 6919 203d 438e 60bd
00000320: 004c 1b3d a02b 36bd b9c2 d23c bce0 dcbb
00000330: 633e 2a3d d603 6abc 45f6 35bd f841 2a3d
00000340: 771a 9ebc 0450 e4bc 076b a53c 3c1c bb3c
00000350: b661 2e3d 7a34 a83c eaa7 c3bc 7a81 95bc
00000360: 31e8 01bc 2489 163c 4bd9 1cbd 810e 333d
00000370: 05bd 933c 1e31 5cbd 1dd6 48bd 2c67 a33c
00000380: d556 8ebc 573c 463c 218a 943c 419e 8e3c
00000390: 1978 14bd 2931 5e3d 77a1 2fbd b9b4 24bc
000003a0: 74c3 343d 223a e2bc a4f6 c5bc 815f 6cbd
000003b0: 5e60 18bc 4f0f 64bc 1f8b 81bc 4163 56bd
000003c0: 46ae 79bc b265 1d3d 0b0d a2bc 5861 bbbc
000003d0: d44d 74bd 1056 12bd 3b13 50bd 8801 22bd
000003e0: 62f3 453d f620 483c 2085 c5bc d41c d03c
000003f0: e256 42bd 155b 34bd bed5 76bd 8986 36bd

bias f4 [32]
-0.03735298 0.043323137 0.014938239 -0.0345227 0.034451354 -0.0075071766 -0.035011563 -0.053840075
-0.012975195 0.016063586 0.049069144 0.037330072 -0.05579683 0.072601 0.012896756 -0.00789297
-0.04573173 -0.011252778 0.03925088 -0.006201132 -0.057033498 0.010422602 0.00798774 -0.02280115
0.00733741 -0.01168212 0.011848429 -0.017164486 -0.04990537 0.042773567 -0.0187344 -0.058739413
00000000: 70ff 18bd 9a73 313d 84bf 743c ad67 0dbd
00000010: dd1c 0d3d c3fe f5bb 4968 0fbd 6987 5cbd
00000020: ea95 54bc c897 833c bafc 483d 6be7 183d
00000030: 388b 64bd d5af 943d ea4c 533c 8451 01bc
00000040: 3251 3bbd 925d 38bc 88c5 203d de32 cbbb
00000050: f59b 69bd 90c3 2a3c 03df 023c 7ac9 babc
00000060: a86e f03b 5d66 3fbc ea1f 423c 899c 8cbc
00000070: 9369 4cbd 5633 2f3d e278 99bc bd98 70bd

weight f4 [32, 1, 3, 3]
-0.048468117 0.3042828 -0.20102806 -0.16488253 -0.047863714 -0.28282607 0.11085922 0.037961558
-0.062427174 0.095822595 -0.0037577727 0.19430867 -0.16547087 -0.011078985 0.1793145 0.207979
0.005024127 -0.15995683 -0.2379577 -0.019636223 0.08483307 0.23379238 -0.113480665 0.3098578
0.06697556 0.17952816 -0.14691968 0.076472476 -0.23660915 -0.060943827 -0.21620427 -0.17161852
0.18459335 -0.15780278 0.2636995 -0.21130134 -0.19167711 -0.17331104 0.26691264 0.23493217
0.2786039 -0.046288054 0.20584321 -0.20700566 -0.0024836997 -0.09402751 0.25657067 -0.23465109
0.2627728 0.2709844 0.032422137 0.23662084 0.02555938 -0.2685962 -0.29783407 -0.08897381
-0.32638067 -0.18086416 -0.03549361 0.31616604 -0.07611653 0.3236333 -0.05996992 0.13369668
-0.13720399 -0.21236998 -0.21683611 0.11878327 -0.20878668 -0.10948898 -0.092573814 0.23638608
-0.18496111 -0.23845793 -0.27079305 0.32725057 0.009118039 0.020343263 -0.061118618 -0.13801645
-0.2648835 0.04681195 0.3151296 0.058781996 -0.108653165 0.005172311 0.31909123 0.18499683
-0.012198099 -0.15585014 0.23442678 -0.20897923 -0.041164506 0.05068408 0.1324483 -0.24125041
0.009853717 -0.2153298 -0.29126325 -0.1834955 0.32857174 0.25517893 -0.22437815 0.20956698
0.28249335 -0.25208566 -0.052485425 -0.25690436 0.2697922 -0.20138797 -0.23935196 0.031046238
-0.14083172 -0.23974293 -0.2615939 -0.25098294 -0.26193014 0.12955144 0.066913426 0.32146442
0.22018534 -0.16138844 0.1376095 0.3089179 -0.21724102 0.20931031 -0.042147666 0.23208313
0.0022592559 0.28234944 0.280756 -0.22785023 0.09033506 -0.097020626 -0.2295678 0.14671402
0.324439 0.12202516 0.032968186 0.25719666 0.06714887 0.16903065 0.26845944 0.20497948
0.020523403 0.18595554 0.053679083 0.3141793 0.21708502 -0.04512063 -0.14817168 -0.2288693
0.27764258 0.004821315 0.10081448 -0.0972047 -0.07519071 0.24079953 0.05213334 -0.110500835
-0.21075672 -0.30007616 0.057206158 0.15959573 -0.06942852 0.32632917 -0.24602306 -0.19120553
0.17237526 0.018692916 0.054321866 -0.033249106 -0.06662584 0.12400155 0.16924074 0.31129193
0.1668238 0.014544957 -0.14059207 -0.049885888 -0.14226875 -0.19924401 -0.2129884 -0.060665008
0.040827483 -0.18186176 0.284767 0.1191922 -0.1263757 -0.17786679 -0.31193197 0.21125716
0.025171632 -0.26973903 0.20858026 -0.24330276 -0.17472543 0.089572825 -0.30507046 -0.30322036
0.010794503 -0.25962275 0.3064284 0.28232494 0.05450214 -0.26948118 0.14485897 -0.20975833
-0.18575981 0.14894275 0.15261781 -0.26558074 0.085010394 0.24001801 3.0613868e-05 0.14737599
0.3024464 0.32287505 -0.20922756 -0.30214438 0.23630232 0.13751407 -0.2712065 0.14815961
0.09090701 0.053175885 -0.06614422 0.15866083 -0.26219234 -0.17986836 0.18960491 -0.2082671
-0.11357403 -0.017296568 -0.2912239 0.13849995 -0.3245429 0.21232891 -0.22764789 0.048383072
-0.11307025 -0.21861169 -0.0017066727 0.17471202 0.10078795 -0.3163567 -0.00011332594 -0.29246786
-0.24506359 -0.31869176 -0.14020006 0.31781203 -0.24688983 -0.29238126 -0.07258663 -0.09411255
00000000: 8186 46bd f5ca 9b3e 4dda 4dbe f7d6 28be
00000010: be0c 44bd 94ce 90be 290a e33d 947d 1b3d
00000020: a3b3 7fbd a33e c43d f744 76bb daf8 463e
00000030: 3271 29be a284 35bc 389e 373e 72f8 543e
00000040: 6fa1 a43b b9cb 23be 2fab 73be 25dc a0bc
00000050: f6bc ad3d 4567 6f3e 8d68 e8bd aea5 9e3e
00000060: 7b2a 893d 3bd6 373e 1d72 16be 9a9d 9c3d
00000070: ab49 72be 3ca0 79bd a764 5dbe c4bc 2fbe
00000080: 0a06 3d3e 0d97 21be 9f03 873e 615f 58be
00000090: 0147 44be 7378 31be c6a8 883e 0f92 703e
000000a0: 2ca5 8e3e 8b98 3dbd 90c8 523e 4bf9 53be
000000b0: 91c5 22bb 7f91 c0bd 3b5d 833e 6048 70be
000000c0: 288a 863e 78be 8a3e 13cd 043d bc4c 723e
000000d0: e861 d13c 7185 89be b57d 98be e737 b6bd
000000e0: 5e1b a7be 7434 39be bf61 11bd 84e0 a13e
000000f0: fce2 9bbd 44b3 a53e 05a3 75bd c8e7 083e
00000100: 347f 0cbe 8477 59be 490a 5ebe a544 f33d
00000110: 2dcc 55be c23b e0bd 5797 bdbd 310f 723e
00000120: 7266 3dbe 512e 74be 63a5 8abe 638d a73e
00000130: d463 153c eaa6 a63c 8457 7abd 2f54 0dbe
00000140: cf9e 87be e3bd 3f3d ab58 a13e 64c5 703d
00000150: 8d85 debd 7d7c a93b ed5f a33e cf6f 3d3e
00000160: 89da 47bc 2e97 1fbe 930d 703e a7fe 55be
00000170: 1d9c 28bd 1c9a 4f3d 87a0 073e 590a 77be
00000180: 7c71 213c 6a7f 5cbe 7520 95be 3fe6 3bbe
00000190: 8e3a a83e d0a6 823e 63c3 65be ba98 563e
000001a0: f8a2 903e 5f11 81be f5fa 56bd f888 83be
000001b0: 3422 8a3e a638 4ebe ae18 75be ae54 fe3c
000001c0: 3136 10be 2c7f 75be a3ef 85be d680 80be
000001d0: b51b 86be 22a9 043e e809 893d fc96 a43e
000001e0: 4478 613e 0343 25be 81e9 0c3e 7d2a 9e3e
000001f0: 6e74 5ebe 7155 563e 08a3 2cbd 33a7 6d3e
00000200: 0610 143b 1b90 903e 40bf 8f3e 9251 69be
00000210: 9701 b93d c0b2 c6bd d213 6bbe 333c 163e
00000220: de1c a63e 54e8 f93d a609 073d 48af 833e
00000230: 5985 893d 5f16 2d3e 8473 893e 24e6 513e
00000240: b220 a83c 216b 3e3e 99de 5b3d 1cdc a03e
00000250: 894b 5e3e 69d0 38bd 51ba 17be b75c 6abe
00000260: 2b27 8e3e 1ffc 9d3b d277 ce3d 4213 c7bd
00000270: 96fd 99bd 2794 763e c589 553d 434e e2bd
00000280: 9cd0 57be 95a3 99be 0151 6a3d 106d 233e
00000290: 8a30 8ebd 9e14 a73e 78ed 7bbe 62cb 43be
000002a0: 2483 303e e321 993c 9b80 5e3d 3730 08bd
000002b0: 2173 88bd 86f4 fd3d 724d 2d3e a861 9f3e
000002c0: dcd3 2a3e f94d 6e3c 5ef7 0fbe 2555 4cbd
000002d0: e6ae 11be 9f06 4cbe a219 5abe df7b 78bd
000002e0: b83a 273d f839 3abe fbcc 913e 0a1b f43d
000002f0: a268 01be b622 36be 8cb5 9fbe cc53 583e
00000300: bd34 ce3c 3c1b 8abe 1096 553e 5c24 79be
00000310: 39eb 32be f571 b73d 3232 9cbe b33f 9bbe
00000320: 6ddb 303c 46ed 84be 2fe4 9c3e e58c 903e
00000330: a33d 5f3d 70f9 89be e955 143e e3ca 56be
00000340: d237 3ebe 7384 183e d847 1c3e 33fa 87be
00000350: ee19 ae3d 48c7 753e 6467 0038 bbe9 163e
00000360: 41da 9a3e e14f a53e c03f 56be abb2 9abe
00000370: 3cf9 713e 7dd0 0c3e 94db 8abe 27b7 173e
00000380: 742d ba3d f5ce 593d 9f76 87bd fc77 223e
00000390: 133e 86be 692f 38be ca27 423e f843 55be
000003a0: 8099 e8bd 88b1 8dbc 4d1b 95be eed2 0d3e
000003b0: 7d2a a6be c06c 593e 871c 69be 542d 463d
000003c0: 6091 e7bd bedb 5fbe 6fb2 dfba b5e7 323e
000003d0: ea69 ce3d 81f9 a1be 67a9 edb8 59be 95be
000003e0: f3f1 7abe 912b a3be 9b90 0fbe 42b8 a23e
000003f0: b0d0 7cbe ffb2 95be 4da8 94bd 15be c0bd
