models/50.pt (torch, 837106 bytes, 17 tensors)

weight f4 [32, 1, 3, 3]
0	0xbd69956a	-0.057027258
1	0x3c842f0a	0.016135711
2	0x3daf2177	0.08551305
3	0xbe84b754	-0.25921118
4	0x3e3bb8a2	0.1833215
5	0xbe5164d0	-0.20448613
6	0x3e883996	0.26606435
7	0xbe7106de	-0.23537776
8	0xbe78b8a2	-0.24289182
9	0x3cfb3c65	0.030668447
10	0x3e2fce71	0.17168595
11	0xbdc725dc	-0.09724018
12	0xbe0b1bef	-0.13584875
13	0x3e0fd67a	0.1404666
14	0x3dd111e0	0.102084875
15	0x3e8b08d5	0.27155176
16	0xbdb44322	-0.08801867
17	0xbe722960	-0.23648596
18	0xbe4b255c	-0.1983847
19	0x3dbbdde5	0.091731824
20	0xbe9ebe67	-0.3100464
21	0x3e055e86	0.13024339
22	0x3e42f054	0.1903699
23	0x3e6d92b5	0.23200496
24	0x3de74f11	0.112943776
25	0xbdf7f243	-0.12106755
26	0xbe22dd11	-0.15904643
27	0xbe3c3bd7	-0.18382202
28	0x3ea3ef4b	0.32018504
29	0xbd6497c7	-0.05580881
30	0xbdb71174	-0.08938876
31	0xbdcbfe43	-0.09960606
32	0x3e83c6bf	0.2573757
33	0x3e77c2d0	0.24195409
34	0xbd1b59f6	-0.03792759
35	0x3e412653	0.18862276
36	0x3ea50bde	0.32235616
37	0xbdd498f3	-0.10380735
38	0xbdd1fc3c	-0.10253188
39	0x3e98062d	0.29692212
40	0x3e2c311d	0.1681561
41	0xbda205e8	-0.07911283
42	0x3e971e1d	0.29515162
43	0x3e0dbc14	0.13841277
44	0x3cd054e2	0.0254311
45	0x3e9c868d	0.30571404
46	0x3e953174	0.29139292
47	0xbe165d66	-0.14684066
48	0x3d8856b7	0.066571645
49	0xbdfde2b6	-0.12396757
50	0x3e42e89d	0.19034047
51	0xbe0ce1e6	-0.13758048
52	0xbe64934c	-0.22321814
53	0x3e5b0422	0.21388295
54	0xbe04084e	-0.12893793
55	0x3c1d0b4f	0.009585216
56	0x3e936c7b	0.28793702
57	0xbe723494	-0.2365287
58	0xbda32d30	-0.07967603
59	0x3dd9ad5b	0.10628768
60	0x3e077ae0	0.13230467
61	0xbeaf857a	-0.34281522
62	0x3d4ba01a	0.04971323
63	0x3dc62252	0.09674515
64	0x3e02b1be	0.12763116
65	0x3e580174	0.21094304
66	0xbe21baaf	-0.1579387
67	0x3ea776dc	0.3270787
68	0x3d9a2874	0.07527247
69	0xbdbf1a7e	-0.09331225
70	0x3d94b6ee	0.072614536
71	0xbe35708e	-0.17718717
72	0xbe412335	-0.18861087
73	0xbe50bda2	-0.20384839
74	0xbe18d187	-0.14923678
75	0x3e478793	0.19485311
76	0xbdbdcecd	-0.0926796
77	0xbe7758be	-0.24154946
78	0x3e82d3d1	0.25552228
79	0xbe8b32d2	-0.2718721
80	0x3c612f1f	0.013744145
81	0x3e8a6613	0.27031
82	0x3e4e7f19	0.20165671
83	0xbe3ae6ee	-0.18252155
84	0x3e9b363f	0.30314824
85	0x3e6ff96b	0.23434989
86	0x3ea74a42	0.32673842
87	0xbe019341	-0.12653829
88	0xbc10c1ef	-0.0088353
89	0xbe92fba7	-0.2870762
90	0xbeb05bc1	-0.34445003
91	0x3db27c26	0.08715086
92	0x3c432b46	0.011912173
93	0x3e123812	0.14279202
94	0xbe0f4b68	-0.13993609
95	0x3dfd5b79	0.12370963
96	0x3e9036c8	0.28166795
97	0xbeab0327	-0.33400843
98	0x3e5f454d	0.2180378
99	0x3d9aabfd	0.075523354
100	0xbd319a54	-0.04336007
101	0x3e14939e	0.14509436
102	0x3e8c92f1	0.27455857
103	0xbe817ca5	-0.2529041
104	0xbe8ec433	-0.27884063
105	0xbd834128	-0.06408912
106	0xbdd64510	-0.104623914
107	0x3e091422	0.13386586
108	0x3d4b8807	0.049690273
109	0xbe28d80e	-0.16488668
110	0xbe6ef1c3	-0.23334412
111	0x3e4cfeb3	0.20019035
112	0xbe5f3577	-0.21797739
113	0x3d142081	0.03616381
114	0x3e194af7	0.14970003
115	0xbe672400	-0.22572327
116	0xbe8465cd	-0.25858918
117	0x3e9989f6	0.29988068
118	0x3e6d9ec7	0.232051
119	0xbda9ce28	-0.08291274
120	0xbe6ba7b1	-0.23013188
121	0xbe99e677	-0.30058643
122	0xbe616198	-0.22009885
123	0x3e799e88	0.24376881
124	0xbe6d3fc5	-0.23168857
125	0xbe540804	-0.20706183
126	0xbe7a5d99	-0.24449767
127	0x3e5d9bc3	0.2164145
128	0xbe8c00f8	-0.2734449
129	0x3e82374c	0.25432813
130	0xbe48f180	-0.19623375
131	0x3e9067e2	0.28204256
132	0xbe80fb5b	-0.2519177
133	0x3e3df785	0.18551452
134	0xbe5e870e	-0.21731207
135	0xbdb74f30	-0.08950651
136	0x3e854bab	0.26034293
137	0xbd12bf8e	-0.035827212
138	0x3e816b2d	0.2527708
139	0xbe78d03f	-0.2429819
140	0xbec48471	-0.38382295
141	0xbca9ad77	-0.020712597
142	0x3e743c97	0.23851238
143	0xbdfa830e	-0.12232028
144	0xbe99c1a9	-0.30030563
145	0x3e36c724	0.17849404
146	0x3ce12dda	0.027487684
147	0xbc46ddb0	-0.012137815
148	0xbe288569	-0.16457142
149	0xbe9e1f8c	-0.30883443
150	0x3e9500a6	0.29102057
151	0x3d65b158	0.05607733
152	0x3d0f44f8	0.034977883
153	0x3e94d0ab	0.2906545
154	0xbe85ced3	-0.26134357
155	0xbe82c1fb	-0.2553862
156	0x3d808ada	0.06276484
157	0x3dcd23fe	0.100166306
158	0x3d4a9642	0.049459703
159	0xbe3ba18a	-0.18323341
160	0x3e66ab9d	0.22526403
161	0x3e958cb7	0.2920892
162	0x3dc759f3	0.09733953
163	0x3e9cc576	0.306194
164	0x39c69618	0.00037877331
165	0x3dd83ead	0.105588295
166	0x3e610c6b	0.21977393
167	0xbe09cdc6	-0.13457403
168	0x3e80df25	0.25170246
169	0x3e59e117	0.21277271
170	0xbdb06f1f	-0.08614945
171	0xbdf64243	-0.12024357
172	0xbe170607	-0.14748393
173	0xbe26830f	-0.16260932
174	0x3ea89b27	0.32930872
175	0xbdf8dd67	-0.12151604
176	0x3e3470cd	0.17621155
177	0xbe9df919	-0.3085411
178	0xbdc25170	-0.09488189
179	0x3cf278f6	0.029598694
180	0xbe062ec0	-0.13103771
181	0xbe701ce1	-0.23448516
182	0xbd2af3cd	-0.041736413
183	0x3e8cdbf4	0.2751156
184	0x3e4b12c4	0.19831377
185	0x3e948355	0.29006448
186	0xbe611d36	-0.219838
187	0x3db55f18	0.08856028
188	0x3dc6299b	0.09675904
189	0x3e1562d6	0.14588484
190	0x3e10cf63	0.14141612
191	0xbe77cc2d	-0.2419898
192	0xbdd35f05	-0.10320858
193	0x3e5001af	0.20313142
194	0xbdb341ae	-0.08752762
195	0xbd92d29b	-0.07169076
196	0x3def7305	0.1169186
197	0xbd599da6	-0.05312886
198	0x3d2a837a	0.041629292
199	0xbea6610c	-0.32495916
200	0xbdde704d	-0.108612634
201	0x3e02e54b	0.12782781
202	0xbdebdc6c	-0.115166515
203	0x3d98ad16	0.074548885
204	0x3e8f0da1	0.27940086
205	0x3e598041	0.21240331
206	0x3e91b13e	0.28455538
207	0x3e24dd72	0.161001
208	0xbd83122f	-0.063999526
209	0xbe189607	-0.14900981
210	0xbe6ecd76	-0.23320565
211	0x3dc4965c	0.09598991
212	0xbeade1b1	-0.3396125
213	0x3e4d5754	0.20052844
214	0x3dbdbd89	0.092646666
215	0xbd9a73ff	-0.07541656
216	0x3dc7001d	0.097168185
217	0xbdc7c140	-0.097536564
218	0xbe143b14	-0.14475662
219	0xbe99ce93	-0.30040416
220	0xbdc04cb6	-0.093896315
221	0xbdcbed48	-0.09957367
222	0x3d0b4eed	0.034010816
223	0x3e991ed5	0.29906335
224	0xbe060daa	-0.1309115
225	0x3e6c57e5	0.23080404
226	0x3e055d09	0.13023771
227	0x3d01c538	0.031682223
228	0xbe877fb3	-0.26464614
229	0xbe3a486f	-0.18191694
230	0x3e60d173	0.21954899
231	0xbe9af5a5	-0.30265537
232	0x3e452cc6	0.19255361
233	0xbe40a8cc	-0.18814391
234	0x3d7f7249	0.06236485
235	0x3e37ef33	0.17962341
236	0xbe7449d4	-0.23856288
237	0x3e74abf9	0.23893727
238	0x3e18e6ae	0.14931747
239	0xbe57f05f	-0.21087788
240	0xba4bc7cc	-0.00077736075
241	0xbe7931ca	-0.243354
242	0x3d259cd0	0.04043275
243	0x3e597af4	0.21238309
244	0x3e12123b	0.14264767
245	0xbe7e48bc	-0.24832433
246	0xbd58ecfe	-0.05296039
247	0xbe8925a8	-0.26786542
248	0x3e4de036	0.20105061
249	0xbdae98c6	-0.08525233
250	0x3d9965c2	0.07490112
251	0xbe5ab45c	-0.21357864
252	0xbde59b01	-0.11211205
253	0xbe6f91a0	-0.23395395
254	0xbe972d7f	-0.29526898
255	0x3e9c1e08	0.30491662

bias f4 [32]
0	0x3da1c55d	0.07898972
1	0x3dc9a279	0.09845442
2	0x3db4b874	0.08824244
3	0xbe976f2b	-0.29577002
4	0x3ea229df	0.3167257
5	0xbd58887c	-0.052864537
6	0xbd7c60ab	-0.061615627
7	0x3e5b3674	0.21407491
8	0x3eace588	0.33768868
9	0xbcc58336	-0.024110418
10	0xbe48fb37	-0.19627081
11	0x3e92022a	0.28517276
12	0x3d926a52	0.07149185
13	0x3e6a91f4	0.22907239
14	0x3e0155c6	0.12630376
15	0x3e7cc043	0.24682717
16	0xbdf86676	-0.12128918
17	0xbd7a629a	-0.06112919
18	0xbd3cc22d	-0.046083618
19	0x3e6dce41	0.23223211
20	0xbe8472ec	-0.25868928
21	0xbe3a0416	-0.18165621
22	0x3d0dee32	0.03465099
23	0x3e08e1f7	0.13367449
24	0x3e34518f	0.17609237
25	0x3d943c0c	0.072380155
26	0x3d81ac3b	0.063316785
27	0xbca3b01a	-0.019981433
28	0xbe775ec0	-0.24157238
29	0xbdd9eda6	-0.10641031
30	0xbdcc461d	-0.099743105
31	0x3dbddf9d	0.092711665

weight f4 [64, 32, 3, 3]
0	0x3d18ae55	0.03727563
1	0x3c3cc779	0.011522167
2	0xbd9e5558	-0.07731122
3	0xbc3ea839	-0.011636787
4	0x3ab2ef63	0.0013651665
5	0x3c23ace3	0.00998995
6	0x3c834e1c	0.016028456
7	0xbd3bf84e	-0.0458911
8	0x3cecfc29	0.028928833
9	0xbc426148	-0.011864014
10	0xbbe37d4c	-0.006942427
11	0x3d8ec938	0.06971973
12	0x3d2ad981	0.041711334
13	0x3b57aa42	0.0032907878
14	0xbd3146ea	-0.04328052
15	0x3d7959bf	0.060876604
16	0x3cf4f9e6	0.029904317
17	0x3c8915aa	0.016733963
18	0xbc250593	-0.01007213
19	0x3b83dd89	0.004024212
20	0x3d19c858	0.03754458
21	0x3d05f5dd	0.032705177
22	0x3c28d6b3	0.0103050945
23	0xbd38d9dd	-0.045129646
24	0xbd192582	-0.037389286
25	0x3d2f1224	0.04274191
26	0x3d3e8545	0.046513814
27	0x3c33a475	0.010964503
28	0xbcbd9535	-0.023142437
29	0xbd1f207b	-0.038849335
30	0x3c963372	0.018335078
31	0xbd4906ea	-0.04907886
32	0xbb9eebbb	-0.0048498786
33	0xbc3db441	-0.01157862
34	0x3d65628b	0.05600218
35	0x3cbca3ce	0.023027327
36	0x37ba90e9	2.2240407e-05
37	0x3cd093b1	0.02546105
38	0xbd5bd734	-0.05367203
39	0xbd6b08a2	-0.05738128
40	0xbd53d93f	-0.051720854
41	0xbc5bfefb	-0.013427491
42	0xbd4a537e	-0.04939603
43	0xbb8af006	-0.004240039
44	0x3d0f7afa	0.03502939
45	0xbc2edff1	-0.010673509
46	0x3c5d18f0	0.013494715
47	0xbcaf6818	-0.02141194
48	0x3b8ee05d	0.0043602423
49	0x3d39f826	0.04540267
50	0x3d67ed27	0.05662265
51	0x3d31d5a3	0.04341663
52	0x3d532deb	0.051557463
53	0x3d8e6864	0.06953505
54	0x3d50ae1a	0.050947286
55	0xbd162137	-0.03665277
56	0xbc898b3d	-0.016790027
57	0xbd16cd71	-0.036817018
58	0x3cbb9dc3	0.022902375
59	0xbcf560ed	-0.029953444
60	0x3c83c6e5	0.016086051
61	0x3c9a4172	0.018830035
62	0x3d4dd56d	0.050252367
63	0xbd5ec1e4	-0.054384127
64	0xbd22e4d4	-0.03976901
65	0xbc7c6040	-0.015403807
66	0xbce4eea2	-0.02794582
67	0xbd2cdb56	-0.042201363
68	0x3cc4782f	0.02398309
69	0x3cf14e3b	0.029456249
70	0x3c82c317	0.015962167
71	0xbd492eda	-0.049116947
72	0x3c20eb3c	0.009821709
73	0x3cdf513e	0.027260419
74	0xbdd7e94b	-0.10542544
75	0x3c75cca3	0.0150024025
76	0xbc840ad1	-0.016118439
77	0xbdcec53c	-0.10096213
78	0x3b3d1610	0.0028852262
79	0xbd9b9e59	-0.07598562
80	0xbdf0f63e	-0.11765717
81	0x3d466602	0.048437126
82	0xbcaf426a	-0.021393973
83	0x3c15683b	0.009119089
84	0x3d145e91	0.036222998
85	0xbcc91bcb	-0.024549386
86	0xbcbd9630	-0.023142904
87	0xbd4822df	-0.04886138
88	0x3cd1a76a	0.025592525
89	0xbd1679fe	-0.036737435
90	0xbd0bf30a	-0.034167327
91	0x3b9996df	0.0046871747
92	0x3c3c436a	0.011490682
93	0x3bfaa68a	0.0076492475
94	0x3cf1ef2b	0.02953299
95	0xbd2210e8	-0.039566904
96	0xbc52a9b2	-0.012857841
97	0x3c57de61	0.013175578
98	0xbc2311d8	-0.009952985
99	0xbc8e8eda	-0.017402101
100	0x3bdd4084	0.0067520756
101	0x3d9f8d79	0.07790656
102	0x3bb95e73	0.005657011
103	0x3d2e122d	0.042497803
104	0x3dc85345	0.097815074
105	0x3d58f92d	0.052972008
106	0x3ccf22a5	0.025285074
107	0x3dadb6ca	0.0848213
108	0xbd195dc4	-0.037442937
109	0x3d502a54	0.050821617
110	0xbb28806d	-0.0025711313
111	0xbd474f64	-0.048659697
112	0xbd554b5a	-0.052073814
113	0xbddd76ed	-0.10813699
114	0xbbd79a4b	-0.0065796725
115	0xbdd1b1a1	-0.10238958
116	0xbdd00429	-0.101570435
117	0xbd65340c	-0.05595784
118	0x3a33874a	0.0006848468
119	0xbda049e2	-0.07826592
120	0x3c40bf13	0.011764306
121	0x3d361d10	0.04446131
122	0xbd0496f4	-0.032370523
123	0xbbd5e674	-0.0065277163
124	0x3b83676b	0.004010131
125	0xba14b7ee	-0.00056731596
126	0x3d300b25	0.04297938
127	0xbc84c81c	-0.0162087
128	0x3de6e52d	0.112741806
129	0x3d27407b	0.040832978
130	0xbce61a5d	-0.028088743
131	0x3d988a0c	0.07448205
132	0x3c9ff0ad	0.019523943
133	0x3db9f293	0.090794705
134	0x3e0f7444	0.14009196
135	0xbcf4a3e0	-0.029863298
136	0x3c6e7355	0.0145538645
137	0xbca603f1	-0.020265551
138	0x3ba1eb05	0.0049413466
139	0xbc958e7e	-0.018256422
140	0xbacd9c12	-0.0015686771
141	0xbc8fafd9	-0.017539905
142	0x3c8b6a67	0.01701851
143	0xbd23ac1f	-0.03995907
144	0x3c81f040	0.01586163
145	0x3cce44c3	0.025179273
146	0x3d8ca3ef	0.06867205
147	0x3d21fa59	0.03954539
148	0x3bc74e48	0.00608233
149	0x3d48b7b7	0.04900333
150	0x3d34fa17	0.044183817
151	0x3d4a7f53	0.049437832
152	0xbca79aa8	-0.020459488
153	0xbd46b357	-0.048510876
154	0xbcad0102	-0.021118645
155	0x3cbe7796	0.023250382
156	0xbbabb001	-0.005239487
157	0xbc1959d5	-0.0093597965
158	0xbd40bc01	-0.047054294
159	0xbc503923	-0.012708935
160	0x3d4da38e	0.050204806
161	0x3afd7ae2	0.001933899
162	0xbd48e4f9	-0.04904649
163	0x3d0d7c8c	0.034542605
164	0x3cd03bd1	0.025419148
165	0x3cb72261	0.02235526
166	0xbd221c16	-0.039577566
167	0xbca633fb	-0.020288458
168	0xbcaca1eb	-0.021073302
169	0x3b803b9e	0.003913357
170	0x3c51c041	0.012802185
171	0xbc3bb26f	-0.011456116
172	0x3bbb589a	0.0057173492
173	0x3d584fe7	0.052810576
174	0x3bd93fc4	0.006629916
175	0x3d1f6361	0.038913134
176	0x3ba281d2	0.0049593234
177	0x3c8bc977	0.01706384
178	0x3d6c7c59	0.057735775
179	0x3cbe4501	0.023226263
180	0xbd17fba5	-0.03710522
181	0xbd061b41	-0.032740835
182	0x3d83f294	0.064427525
183	0xbbad8f93	-0.0052966564
184	0xbcaf245a	-0.021379638
185	0xbc5117c4	-0.012762014
186	0x3cc65148	0.02420868
187	0xbd6c39d1	-0.057672326
188	0xbcf87fa8	-0.030334309
189	0x3c66b72d	0.014081758
190	0x3cc0a1d1	0.02351466
191	0xbc560b12	-0.013064163
192	0xbd4031dc	-0.04692255
193	0xbd4dfc09	-0.050289188
194	0xbcd968d2	-0.02653924
195	0x3cdddb8a	0.027082223
196	0xbcfdbd7b	-0.03097414
197	0x3d5de571	0.05417389
198	0x3d5d4916	0.05402478
199	0xbd368b7a	-0.04456661
200	0xbc21fd33	-0.009887028
201	0x3d11c268	0.03558579
202	0x3d385348	0.0450013
203	0x3ce6b762	0.028163616
204	0x3b124a0e	0.0022321972
205	0x3d68edd0	0.05686742
206	0xbd1c2e99	-0.038130376
207	0x3d16afb2	0.03678865
208	0xbc9df279	-0.019280659
209	0xbd62d658	-0.055380195
210	0x3cf8cf87	0.030372394
211	0x3d019971	0.031640474
212	0xbd2551e9	-0.04036132
213	0xba70d41f	-0.0009186882
214	0x3cceec31	0.02525911
215	0x3cd38490	0.025820047
216	0x3d2544db	0.04034887
217	0xbd51bcdf	-0.051205512
218	0xbcebfac1	-0.028806092
219	0xbd4ccabf	-0.04999804
220	0xbaf8c430	-0.0018979367
221	0x3c83726d	0.016045773
222	0x3d91f74e	0.07127248
223	0x3b0b36f1	0.0021242464
224	0x3de3c406	0.11121373
225	0x3d348ab4	0.04407759
226	0xbd09ef84	-0.033675686
227	0x3c9913cf	0.018686203
228	0xbd09fe1a	-0.033689596
229	0x3c3f90c3	0.011692229
230	0x3d9c68de	0.07637189
231	0x3daf3dfd	0.08556745
232	0x3ca8b96c	0.020596229
233	0x3b94e6f7	0.0045441347
234	0xbcc85495	-0.024454394
235	0xbcf01342	-0.029306058
236	0x3c116bc0	0.008875787
237	0xbd2a22d8	-0.041537136
238	0xbcfac7f5	-0.030612925
239	0x3d6bd567	0.057576563
240	0xbc6ec22e	-0.014572663
241	0xbcaedadd	-0.021344597
242	0x3d2fbb91	0.042903487
243	0x3cca18ab	0.024669966
244	0x3d48f1c9	0.04905871
245	0x3e067765	0.13131483
246	0x3cf177ac	0.02947601
247	0x3d22453f	0.03961682
248	0xbb957365	-0.0045608752
249	0x3d847331	0.064672835
250	0x3c1562a7	0.009117759
251	0x3dcdc8fc	0.100481
252	0x3d6dfaef	0.058100637
253	0x3c22a9e0	0.009928197
254	0x3d055224	0.03254904
255	0xbd1df5c1	-0.038564447

bias f4 [64]
0	0x3c85c812	0.016330753
1	0x3d64e4de	0.055882327
2	0x3d08dd26	0.03341403
3	0xbc9bb950	-0.019009262
4	0x3d4d0cbc	0.050060973
5	0x3d236335	0.039889533
6	0xbd0516ba	-0.032492377
7	0xbb09a024	-0.0020999992
8	0xbdf44eac	-0.11929068
9	0x3e5108bb	0.20413487
10	0x3d97aa66	0.07405548
11	0x3e06e779	0.13174237
12	0xbdf9088f	-0.121598355
13	0x3dc664e0	0.09687209
14	0x3d1050af	0.035233196
15	0x3e579597	0.21053158
16	0x3e095563	0.13411479
17	0x3e598559	0.21242274
18	0x3c9e4777	0.019321186
19	0x3cba708c	0.022758745
20	0xbd2e17c0	-0.04250312
21	0xbd25d10a	-0.04048256
22	0xbd410fb4	-0.047134116
23	0x3d8aa8a9	0.067704506
24	0xbd9cb6ab	-0.07652029
25	0x3d9e9d20	0.07744813
26	0x3d82bd89	0.06383807
27	0xbcf15271	-0.029458256
28	0x3dee6884	0.116410285
29	0xbdcca3e8	-0.099922
30	0x3dccd8f4	0.10002318
31	0x3d1fbaa3	0.03899635
32	0x3d811f6f	0.063048236
33	0xbd43ded7	-0.04781994
34	0xbcbb97ad	-0.022899473
35	0xbe35d227	-0.17755948
36	0x3d389fc9	0.045074258
37	0x3c2acdfe	0.010425089
38	0x3d518640	0.05115342
39	0x3dc134e5	0.09433917
40	0x3d463230	0.048387706
41	0xbcfccc4d	-0.030859137
42	0xbb9cb536	-0.004782344
43	0x3d0f7a7c	0.03502892
44	0x3cdfe60b	0.027331373
45	0x3d90ee78	0.07076734
46	0xbd1a902f	-0.03773516
47	0xbcbabd39	-0.022795307
48	0xbe044cb0	-0.12919879
49	0x3dee8995	0.116473354
50	0xbd0953f3	-0.033527326
51	0x3d36938a	0.044574298
52	0x3d5f8f9a	0.05458031
53	0x3d3777bc	0.044791922
54	0x3d5e7c6a	0.05431787
55	0x3d073383	0.03300811
56	0x3aff0b11	0.0019458254
57	0x3dda5d85	0.10662369
58	0x3bdbcfc3	0.0067081167
59	0xbd1d3f5a	-0.038390495
60	0xbd6a00c2	-0.05712963
61	0x3d69c921	0.057076577
62	0xbd895f8e	-0.06707679
63	0x3d7f9ee6	0.062407397

weight f4 [128, 64, 3, 3]
0	0xbd901f37	-0.07037204
1	0xbbd2f2bf	-0.006437629
2	0xbd2203cc	-0.039554402
3	0xbd1c43b4	-0.038150504
4	0xbc988586	-0.018618356
5	0xbd388e26	-0.04505744
6	0xbd5aeca4	-0.053448334
7	0x3c1e82c1	0.009674729
8	0xbb790dd4	-0.0038002627
9	0xbd058697	-0.032599058
10	0xbcae0815	-0.021244088
11	0x3d006617	0.03134736
12	0xbc64cb9a	-0.013964558
13	0xbd000e3b	-0.03126357
14	0xbd0ac6f1	-0.03388113
15	0xbd0c185b	-0.034202915
16	0x3ca8a243	0.020585185
17	0x3cd35bdd	0.02580064
18	0xbd3829df	-0.044961806
19	0xbcb0de68	-0.021590427
20	0x3d2fb68b	0.042898696
21	0xbc5c94a2	-0.013463171
22	0xbc8cbeda	-0.017180849
23	0x3c2cfc44	0.010558192
24	0x37bd28a3	2.2549479e-05
25	0x3cb5626c	0.022141658
26	0xbd28f9de	-0.041253917
27	0x3d0c1b44	0.03420569
28	0x3c7f0997	0.015566251
29	0x3caa7d53	0.020811712
30	0x3d068074	0.032837346
31	0x3bf7d865	0.007563638
32	0xbcb66724	-0.022265978
33	0xbd1f2e2e	-0.0388624
34	0x3d52cdb3	0.0514657
35	0x3d4142c0	0.0471828
36	0x3ba092f3	0.00490033
37	0xbc36c218	-0.011154674
38	0xbcc3bf55	-0.023894945
39	0xbd175eda	-0.036955692
40	0x3cc08f23	0.023505753
41	0x3d21a948	0.03946808
42	0x3a4f5273	0.0007908709
43	0xbd118156	-0.035523735
44	0x3d307fd1	0.043090645
45	0x3c52e2dc	0.01287147
46	0x3d40850b	0.04700188
47	0xbce8fb49	-0.028440135
48	0xba05e5c5	-0.00051077857
49	0x3d2a0da1	0.041516904
50	0xbb9dc2f3	-0.0048144995
51	0x3c458ec6	0.012057966
52	0x3d2e517f	0.04255819
53	0xbcb94943	-0.022617942
54	0xbb1b7af9	-0.002372442
55	0xbc0e072d	-0.008668703
56	0xbc6e816b	-0.014557223
57	0xbcfdfa2c	-0.03100308
58	0xbd04fa32	-0.032465167
59	0xbca02b89	-0.01955201
60	0x3d1c352c	0.038136646
61	0x3c585adb	0.013205255
62	0x3d463d78	0.048398465
63	0x3d2ee578	0.042699307
64	0x3c032990	0.008005515
65	0x3cdeee63	0.027213281
66	0x3a7ccff4	0.00096440245
67	0x3cb3b4a5	0.021936724
68	0xbbbb1b79	-0.005710062
69	0x3c681ffd	0.014167783
70	0x3d1e95b7	0.038716998
71	0xbd2a678b	-0.041602653
72	0xbd73a5c5	-0.059484262
73	0x3c913226	0.017724108
74	0x3b991b24	0.004672425
75	0xbd8ac2a8	-0.06775409
76	0xbd93beb4	-0.07214108
77	0x3c9b07ab	0.018924555
78	0xbd6c4d2f	-0.057690796
79	0x3c15ddf7	0.009147159
80	0x3d5ace52	0.05341942
81	0xbd903d56	-0.07042949
82	0x3aa62d6d	0.0012678333
83	0x3b81f66f	0.0039661448
84	0xbd00f31b	-0.031481843
85	0x3d49854a	0.04919938
86	0x3ad5b244	0.0016303738
87	0xbc84621e	-0.016160067
88	0xbd3ca6cc	-0.046057507
89	0xbd5a1f69	-0.05325261
90	0xba8be8fc	-0.0010674293
91	0xbcd29e57	-0.025710268
92	0xbc1fae01	-0.009746076
93	0xbb80442b	-0.0039143763
94	0xbccc91b9	-0.02497183
95	0xbc69580c	-0.014242183
96	0xbd5e82af	-0.05432385
97	0xbce24ef9	-0.027625548
98	0xbc81b20e	-0.015831973
99	0xbd3016f6	-0.042990647
100	0x3ba17c7f	0.004928171
101	0xbb6e21d5	-0.0036336083
102	0xbd703c9e	-0.05865156
103	0x3d386c51	0.045025174
104	0xbcf15f70	-0.029464453
105	0xbd2878fc	-0.041131005
106	0x3c80cf6f	0.015723912
107	0xbbeeb91c	-0.0072852504
108	0x3c721dbe	0.014777599
109	0x3b1895a7	0.002328256
110	0xbcbe9155	-0.02326266
111	0xbc966b60	-0.018361747
112	0x3c188454	0.009308893
113	0x3cafccac	0.0214599
114	0xbcf1e5b2	-0.029528473
115	0x3bbec5b6	0.005821909
116	0x3c8ab08f	0.016929893
117	0x3d81a24c	0.06329784
118	0x3c921dae	0.017836418
119	0xbd08c5d9	-0.033391807
120	0x3d41c775	0.047309358
121	0x3ca30fcb	0.019904992
122	0xbbdc74aa	-0.0067277746
123	0x3d988a44	0.07448247
124	0x3ce613cb	0.02808561
125	0x3d8edb70	0.06975448
126	0xbae369ed	-0.0017350294
127	0x3c3405c0	0.010987699
128	0x3d28e93b	0.04123805
129	0x3d180361	0.037112597
130	0x3c8a25c7	0.016863717
131	0x3bfa1467	0.0076318267
132	0x3c987dbc	0.018614642
133	0x3a82b56a	0.0009972278
134	0x3cb6b246	0.022301804
135	0x3ce42430	0.027849287
136	0xbd02dda2	-0.031949647
137	0x3c88cf4b	0.016700407
138	0xbd552cf3	-0.05204482
139	0xbd3af002	-0.045639046
140	0xbd10fc4f	-0.03539687
141	0xbd574a0e	-0.05256086
142	0xbc913947	-0.017727507
143	0x3c3b1e88	0.011420853
144	0xbd76a5fd	-0.060216893
145	0xbc3b9183	-0.011448267
146	0x3c182b62	0.009287687
147	0x3cc55a9d	0.02409106
148	0x3ce0e345	0.02745212
149	0x3d10efef	0.03538507
150	0xbd491235	-0.04908963
151	0xbb9e9430	-0.0048394427
152	0x3cb9cf74	0.02268193
153	0xbd4218a6	-0.047386788
154	0xbc9bab67	-0.01900263
155	0x3bbe6a3b	0.0058110035
156	0x3cbf0381	0.0233171
157	0x3b668c44	0.003517882
158	0x3c9dfb90	0.019284993
159	0xbd13f3c5	-0.03612115
160	0xbc37399c	-0.011183169
161	0x3c53cc67	0.012927151
162	0x3b90ba50	0.0044167414
163	0x3cab3040	0.02089703
164	0x3cb3fcc9	0.021971123
165	0xbd302f55	-0.04301389
166	0xbbe65af8	-0.0070298873
167	0x3bc603b4	0.006042922
168	0xbcd7193f	-0.026257155
169	0xbcbc4aec	-0.022984944
170	0xbc19e29b	-0.009392406
171	0xbc8486f6	-0.016177636
172	0xbca519ff	-0.020153997
173	0xbd159fbe	-0.036529295
174	0xbc1bb024	-0.009502444
175	0x3c1029ac	0.008798998
176	0xbc2d15e1	-0.010564298
177	0xbd331b0b	-0.043726962
178	0x3b98f9fc	0.0046684723
179	0xbd23d172	-0.039994664
180	0xbbe1ccde	-0.006890877
181	0xbd0c0ed6	-0.034193836
182	0xbb3bf298	-0.0028678533
183	0xbc998360	-0.018739402
184	0xbcffd57c	-0.031229727
185	0x3b86bbd8	0.004111748
186	0xbb9a183b	-0.0047025955
187	0xbd229035	-0.039688308
188	0xbb700ec7	-0.0036629902
189	0x3cddf4a8	0.0270942
190	0x3b9a917e	0.004717051
191	0x3d195b4f	0.037440594
192	0xbc4a2789	-0.0123385275
193	0xbc9e2d9f	-0.019308863
194	0xbc93b5fc	-0.018031113
195	0xbd03f413	-0.03221519
196	0xbc5a88ac	-0.013338249
197	0x3d1285f0	0.035772264
198	0x3d1230d2	0.03569109
199	0xbb49ed80	-0.0030811727
200	0x3d9a5571	0.07535828
201	0xbc87594f	-0.016522078
202	0xbbb18ae4	-0.0054181684
203	0x3d5d54f1	0.054036085
204	0x3be2aa52	0.0069172764
205	0xbcab7daa	-0.020933945
206	0x3c1d22e3	0.009590837
207	0xbd2bea63	-0.041971575
208	0x3cac1c38	0.02100955
209	0x3b8356ab	0.0040081344
210	0xbcd70036	-0.026245218
211	0xbd1e632a	-0.03866879
212	0xbcc26447	-0.023729457
213	0x3cde0456	0.027101677
214	0x3c2ba16a	0.010475496
215	0x3c2ad21e	0.010426072
216	0xbb22c83d	-0.002483859
217	0xbcf7ecba	-0.030264247
218	0x3d866833	0.06562843
219	0xbbe121c4	-0.0068704803
220	0x3d2cd63a	0.04219649
221	0x3d3d51f8	0.04622075
222	0x3ce212d6	0.027596872
223	0x3ce40770	0.027835578
224	0xb8b63243	-8.687798e-05
225	0x3c7eb166	0.015545225
226	0xbb8f3667	-0.004370499
227	0x3d40e6e5	0.0470952
228	0xbca50287	-0.020142807
229	0xbbccfdf6	-0.0062558604
230	0xbd02afa6	-0.031905793
231	0xbc57c6c8	-0.013169952
232	0xbc042d3a	-0.0080674235
233	0x3c02c729	0.007982054
234	0xbc17cd54	-0.009265263
235	0xbc9855b0	-0.018595546
236	0xbd26a0d0	-0.040680707
237	0xbd1eea21	-0.0387975
238	0xbc70878f	-0.014680757
239	0x3c010b62	0.007876249
240	0xbb7b81d8	-0.0038376953
241	0x3cefda2f	0.029278843
242	0x3c832c54	0.016012348
243	0xbc903885	-0.017605076
244	0x3cfde38b	0.03099229
245	0xb9a52d2a	-0.00031504902
246	0xbcf049cf	-0.02933207
247	0x3c4218c5	0.011846726
248	0xbb0b8d31	-0.0021293873
249	0xbc27671e	-0.010217456
250	0x3c81dbae	0.015851822
251	0xbc9cf915	-0.01916174
252	0x3cce0379	0.02514814
253	0xbbaa6cd1	-0.00520096
254	0x39fff5b9	0.00048820468
255	0xbcbbc03c	-0.022918813

bias f4 [128]
0	0xbb410024	-0.0029449547
1	0x3d698c92	0.057018824
2	0x3c21c54b	0.009873698
3	0x3d0400fb	0.032227498
4	0xbd673886	-0.05645039
5	0xbd677cc2	-0.056515463
6	0xbd6a990a	-0.057274856
7	0xbcad97dd	-0.021190578
8	0x3c56f7f5	0.013120641
9	0x3da9e8bb	0.08296343
10	0x3d07b101	0.03312779
11	0xbe2c76c3	-0.16842179
12	0xbdea723e	-0.11447571
13	0xbd88291a	-0.066484645
14	0xbb652331	-0.0034963603
15	0xbccacdf7	-0.024756415
16	0x3cc85348	0.024453774
17	0xbd519549	-0.05116776
18	0xbd6bef75	-0.05760141
19	0xbd09909e	-0.033585183
20	0xbc2603df	-0.010132759
21	0xbb3744cf	-0.0027964597
22	0x3d015519	0.031575296
23	0xbd598d78	-0.05311343
24	0xbe190192	-0.14942005
25	0x3d9f4e3e	0.077785954
26	0xbdcd06fb	-0.10011097
27	0x3d1d4dab	0.038404148
28	0x3dbf02bf	0.09326696
29	0xbe81bc17	-0.25338814
30	0xbd0cb683	-0.034353744
31	0xbd924b89	-0.071433134
32	0x3928af61	0.00016087062
33	0xbc555d1c	-0.013022687
34	0xbde9f0e2	-0.11422898
35	0xbd12688f	-0.035744246
36	0x3d3a9be8	0.04555884
37	0xbe4f97f6	-0.20272812
38	0x3dceff4b	0.10107287
39	0x3d6ce8da	0.057839252
40	0x3e17650f	0.14784645
41	0xbc018c86	-0.007907039
42	0x3867fe50	5.531154e-05
43	0xbd3b6522	-0.045750745
44	0x3d79508e	0.06086784
45	0x3dda6ad6	0.106649086
46	0xbc1f4488	-0.009720929
47	0xbd3006ae	-0.04297512
48	0xbd544d6a	-0.05183164
49	0xbdc9f639	-0.09861416
50	0x3d871cb9	0.06597275
51	0x3d61d80a	0.05513767
52	0xbd01dbbf	-0.031703707
53	0xbcaa5b0b	-0.020795366
54	0x3cadb94a	0.021206517
55	0x3d681f82	0.056670673
56	0x3df438da	0.11924906
57	0x3c309367	0.010777331
58	0x3dba041d	0.09082816
59	0xbcc14713	-0.023593461
60	0x3e3e8876	0.18606743
61	0x3bc8932c	0.00612106
62	0x3bd2add6	0.0064294143
63	0xbc98aedd	-0.018638069
64	0xbcb9de9b	-0.022689154
65	0x3ba573ae	0.0050491905
66	0x3d4c937a	0.049945332
67	0xbc512f2a	-0.012767592
68	0x3c964b0c	0.018346332
69	0xbd47251e	-0.048619382
70	0x3cee4ce6	0.029089402
71	0xbce77b67	-0.028257085
72	0xbd0f95d7	-0.035055008
73	0x3d187a07	0.03722575
74	0x3cf0618c	0.029343389
75	0xbcf93346	-0.030419957
76	0x3d3bc4c5	0.04584195
77	0x3de586a8	0.11207324
78	0x3c97b194	0.018517293
79	0x3d1f7227	0.038927224
80	0x3cdcfc6f	0.026975838
81	0x3c1eb6c8	0.009687133
82	0x3d28c6d4	0.041205242
83	0xbbe08cbf	-0.0068527157
84	0xbd119abe	-0.035547964
85	0x3ca4f686	0.020137083
86	0x3d8746c6	0.06605296
87	0xb958cda7	-0.00020675977
88	0xbc948ac4	-0.018132575
89	0xbcee3547	-0.029078139
90	0x3d85b108	0.06527907
91	0xbca6635a	-0.020311046
92	0x3cb90cb0	0.022589058
93	0x3b9dc7c7	0.004815075
94	0xbe398a36	-0.1811913
95	0xbc08dcf2	-0.008353459
96	0x3b75f6b5	0.0037531082
97	0xbbd58f01	-0.0065172915
98	0x3d4813e6	0.0488471
99	0xbdb14024	-0.08654812
100	0xbe194cda	-0.14970723
101	0xbc936348	-0.017991677
102	0x3cc1cc3f	0.023656962
103	0x3901734c	0.0001234535
104	0xbe34a1ae	-0.17639801
105	0x3daefee7	0.085447125
106	0x3ca77c9e	0.020445164
107	0x3e20f9b1	0.1572025
108	0xbd5b3f34	-0.053527072
109	0x3d21028e	0.039309077
110	0xbd9415ae	-0.072306976
111	0x3da86f2a	0.08224328
112	0xbd195bc6	-0.037441038
113	0xbc9cec09	-0.01915552
114	0xbdcd964a	-0.10038431
115	0xbe5dc13a	-0.21655741
116	0x3d963e90	0.073361516
117	0x3ca68892	0.020328794
118	0x3cc56515	0.024096051
119	0x3d0f9570	0.035054624
120	0x3d4ae0c4	0.04953076
121	0x3ca17e8a	0.019713659
122	0x3ea7aadb	0.3274754
123	0x3d372db2	0.044721313
124	0x3bf465c9	0.007458423
125	0xbd3cdc9f	-0.04610884
126	0x3d09225b	0.03348003
127	0xbb5e30a3	-0.0033903501

weight f4 [128, 64, 3, 3]
0	0xbb6d6844	-0.0036225477
1	0xbc2f7c1f	-0.010710745
2	0xbb157ae1	-0.0022808837
3	0xbb490e55	-0.0030678709
4	0x3c45ead9	0.012079918
5	0x3cf617b9	0.030040609
6	0xbc0dcacd	-0.0086543085
7	0x3bb7486a	0.005593349
8	0xbc253874	-0.01008426
9	0x3c8c7b32	0.017148588
10	0xbcb9842b	-0.02264603
11	0xbc3e41db	-0.011612381
12	0x3cdd8190	0.02703932
13	0xbcb14eaa	-0.021643955
14	0x3cce85b2	0.025210235
15	0xbd30555b	-0.04305015
16	0xbbd77318	-0.0065749995
17	0x3ca5398a	0.020169038
18	0xbc762f92	-0.01502599
19	0xbc958d8d	-0.018255973
20	0xbcc69c36	-0.024244409
21	0xbc532551	-0.012887315
22	0xbca4c16d	-0.020111764
23	0xbbc520f2	-0.0060158903
24	0xbc2effec	-0.010681134
25	0xbbb878c8	-0.0056296326
26	0xbca7d470	-0.02048704
27	0xbc7cdde3	-0.015433761
28	0xbcbfee7d	-0.02342915
29	0x3b9e5156	0.0048314733
30	0x3ca3e2d2	0.020005617
31	0xbd1751ef	-0.036943372
32	0xbd2ee23a	-0.042696215
33	0x3c20d392	0.009816067
34	0x3cf09180	0.029366255
35	0x3cb59c8f	0.02216938
36	0xbc26bd80	-0.010177016
37	0xbc397455	-0.01131924
38	0x3ccbb0b9	0.024864541
39	0x3d31a4bc	0.043369994
40	0xbc11d126	-0.0088999625
41	0x3ce43d94	0.027861394
42	0x3b9c74a3	0.0047746464
43	0xbc432ad0	-0.011912063
44	0xbcb27b3f	-0.021787284
45	0x3bea4d8e	0.0071503585
46	0x3d150f5a	0.036391594
47	0xbce1332c	-0.027490221
48	0xbc2f593c	-0.0107024275
49	0x3c145781	0.009054066
50	0xbd25f15b	-0.040513378
51	0x3cd902a8	0.026490524
52	0x3cff7701	0.031184675
53	0xbc4e4ee5	-0.012592052
54	0xbcf83cbf	-0.030302403
55	0x3abbfc43	0.0014342148
56	0xbc7baca8	-0.015360989
57	0x3cb24952	0.021763477
58	0x3c5482e7	0.012970663
59	0x3d4f5d75	0.050626237
60	0xbd93db46	-0.072195575
61	0x3c49506c	0.0122872405
62	0xbc868a00	-0.016423225
63	0xbd0233c7	-0.03178766
64	0xbc23108a	-0.009952674
65	0xbd20f219	-0.039293382
66	0x3becf401	0.007231236
67	0xbcc6f6c9	-0.024287598
68	0xbc34ac60	-0.0110274255
69	0x3ce19f0d	0.027541662
70	0x3cd40774	0.02588246
71	0x3c91c443	0.01779378
72	0xbc5de793	-0.013543981
73	0x3d102114	0.035187796
74	0x3d1b239b	0.037875753
75	0x3cf706e1	0.030154647
76	0x3c075313	0.0082595525
77	0xbd1c4827	-0.038154747
78	0x3ce47fb9	0.027892934
79	0x3ccd4634	0.02505789
80	0xbc20fbab	-0.009825627
81	0xbd3b9ee2	-0.04580582
82	0x3ccc726e	0.024956908
83	0x3bb7b096	0.0056057675
84	0x3bc90246	0.006134304
85	0xbc860592	-0.016360078
86	0x3c46d5b6	0.012135914
87	0xbd0dd6dc	-0.034628734
88	0x3bb5a8b3	0.005543792
89	0x3cbace58	0.02280347
90	0x3d4e214e	0.05032473
91	0x3d188df0	0.037244737
92	0xbc0af57d	-0.0084813805
93	0xbce89bcd	-0.028394604
94	0x3cacb036	0.021080118
95	0xbca86eaf	-0.02056059
96	0x3d577eff	0.052611347
97	0x3dbfbd67	0.093622975
98	0x3db89aca	0.09013899
99	0xbd07ff3f	-0.033202406
100	0xbce3e41f	-0.027818738
101	0x3a84e72e	0.0010139698
102	0xbc9a8ae0	-0.018865049
103	0xbc9de493	-0.019274032
104	0xbbe3954e	-0.0069452887
105	0xbd150f0b	-0.0363913
106	0xbd384908	-0.044991523
107	0x3cb51c8d	0.02210834
108	0xbcb80a23	-0.022465771
109	0xbcfbab7c	-0.030721419
110	0x3cc743cd	0.024324322
111	0xbd2d711c	-0.042344198
112	0x3ce8dc67	0.028425409
113	0xbd2dc635	-0.042425353
114	0x3cc506cc	0.024051093
115	0xbcaf63f1	-0.02140996
116	0xbc60f088	-0.013729222
117	0xbb3a680c	-0.0028443364
118	0x3c3e33ff	0.0116090765
119	0xbcc64e8c	-0.024207376
120	0xbc9fd6f3	-0.019511675
121	0x3c4b60ed	0.012413246
122	0xbce15bfe	-0.027509686
123	0x3b20d86f	0.0024543067
124	0xbc4c5221	-0.012470753
125	0x3c71cf25	0.01475886
126	0x3c87526f	0.0165188
127	0xbd226ed1	-0.039656464
128	0x3c0e1ffe	0.00867462
129	0x3b286c72	0.0025699404
130	0x3c74c1f2	0.014938818
131	0xbc94d848	-0.018169537
132	0x3d835523	0.06412723
133	0x3d43c6c6	0.047796987
134	0x3da260bf	0.07928609
135	0xbc93621f	-0.017991124
136	0x3c6e65a2	0.014550598
137	0x3c2ade8f	0.010429039
138	0x3c04cb0e	0.008105053
139	0x3ab4bcf7	0.0013789226
140	0xbc82546c	-0.015909396
141	0xbd503b54	-0.05083783
142	0xbcc8142f	-0.024423687
143	0x3d24db2f	0.040248092
144	0xba912d93	-0.0011076204
145	0xbafdb7d0	-0.0019357149
146	0xbd06a950	-0.032876313
147	0x3b993014	0.004674921
148	0xbcb64fbf	-0.022254823
149	0x3c81e446	0.01585592
150	0x3ca0b807	0.019619001
151	0xbcf83127	-0.030296875
152	0xbca13132	-0.019676778
153	0xbce92701	-0.028460981
154	0xbccd6cde	-0.025076326
155	0x3d0090c5	0.031388063
156	0x3b63c351	0.0034753869
157	0xbc4efba1	-0.012633235
158	0xbd1d47ad	-0.038398433
159	0x3ca0f4de	0.019648012
160	0x3c03c253	0.008041936
161	0xbc7e5f4d	-0.015525651
162	0xbc879cd6	-0.016554277
163	0x3b80c1f8	0.003929373
164	0xbd5327d5	-0.05155166
165	0x3bd4fba2	0.0064997235
166	0xbcf267db	-0.029590538
167	0xbd3ac297	-0.04559573
168	0xbd542f4d	-0.051802922
169	0xbd0894f2	-0.03334517
170	0xbd69d5be	-0.057088606
171	0x3bf54b68	0.0074857958
172	0x39b5a32e	0.0003464459
173	0x3c4821e3	0.0122151105
174	0x3d6211d0	0.05519277
175	0x3d8700ac	0.06591925
176	0x3cfad2fb	0.030618181
177	0xbbc96a19	-0.006146681
178	0x3cd80685	0.026370296
179	0x3d227039	0.039657805
180	0xbc6f4fe3	-0.014606449
181	0x3ce87465	0.028375814
182	0x3c4a4e13	0.012347716
183	0xbcda1617	-0.026621861
184	0x3d439234	0.047746852
185	0x3a1d0d36	0.0005991043
186	0xbd9b7c2d	-0.07592044
187	0x3d456fcd	0.048202325
188	0xbd00f1f9	-0.031480763
189	0xbb873cc5	-0.0041271173
190	0x3c080078	0.008300893
191	0xbcaa93ac	-0.020822369
192	0xbafcc4e3	-0.0019284751
193	0xbd00716d	-0.03135817
194	0xbcd26ed2	-0.025687609
195	0x3cac36ba	0.02102219
196	0xbc44c881	-0.0120106945
197	0xbb593463	-0.0033142797
198	0xbd280430	-0.04101962
199	0xbc8fdbce	-0.017560866
200	0x3954c9bc	0.00020293047
201	0xbd904ffc	-0.07046506
202	0xbd281806	-0.041038536
203	0xbcbb0b58	-0.022832558
204	0xbb167c47	-0.0022962259
205	0x38d4a8ce	0.0001014039
206	0x3d323838	0.043510646
207	0xbcb75ebe	-0.022384044
208	0x3d50de3a	0.05099318
209	0x3d986ea5	0.07442979
210	0xbc584f65	-0.013202523
211	0x3b56cb48	0.0032774974
212	0x3c54c97f	0.012987494
213	0x3d9c751f	0.076395266
214	0x3c84ee13	0.016226804
215	0x3d11af8e	0.035567813
216	0xbb85a371	-0.0040783216
217	0x3cd68664	0.02618713
218	0x3d087a85	0.03331997
219	0x3ceabd17	0.028654618
220	0x3b9aada3	0.004720406
221	0x3bd0694d	0.006360209
222	0xbd0b27c9	-0.03397349
223	0x3d0ca213	0.034334254
224	0xbca1bf49	-0.019744532
225	0xbd3e3409	-0.046436343
226	0xbb63f3c9	-0.0034782758
227	0x3d561ac2	0.052271612
228	0xbc7095d6	-0.014684161
229	0xbcf86961	-0.030323686
230	0x3dd3d806	0.103439376
231	0xbd52f382	-0.05150176
232	0x3d353ac9	0.044245515
233	0x3d1ef30b	0.038806003
234	0x3b6bd552	0.0035985303
235	0xbd7a3eba	-0.061094977
236	0x3bf3b38d	0.0074371756
237	0x3a1316c4	0.00056109973
238	0x3c00e40d	0.007866872
239	0xbd04db44	-0.03243567
240	0xbd5f77a6	-0.054557465
241	0xbd6ddb64	-0.058070555
242	0xbd500dfb	-0.050794583
243	0xbca4a37a	-0.020097483
244	0xbd8e37b2	-0.06944217
245	0xbd8d0c5d	-0.06887124
246	0x3cb7708d	0.022392536
247	0xbc231ce2	-0.009955617
248	0xbd056ba8	-0.032573372
249	0x3cc6f482	0.024286512
250	0xbc5f00ee	-0.0136110615
251	0xbd38bdf5	-0.045103032
252	0xbbee548b	-0.007273262
253	0xbccccbd7	-0.024999542
254	0x3d038a37	0.032114234
255	0xbd378f35	-0.044814307

bias f4 [64]
0	0x3d1103d0	0.035404027
1	0x3d353d81	0.044248108
2	0x3e546125	0.20740183
3	0xbc1ae3a3	-0.009453687
4	0xbd1f1654	-0.038839653
5	0x3c961889	0.018322246
6	0xbbd0302e	-0.0063533997
7	0x3d11e2c5	0.035616655
8	0x3cded639	0.027201759
9	0x3c642acf	0.013926222
10	0x3c6cfbda	0.014464343
11	0x3d812acf	0.06306993
12	0x3d5a4729	0.05329052
13	0xbb614ba5	-0.0034377363
14	0xbdf1123e	-0.117710575
15	0x3e2fa8b8	0.17154205
16	0x3d8cc6dd	0.06873868
17	0x3d8254da	0.063638404
18	0xbae7e81d	-0.0017693077
19	0x3d1683e4	0.036746874
20	0x3c94612d	0.018112743
21	0x3dbac335	0.09119264
22	0x3d42d057	0.04756197
23	0xbcc36e66	-0.023856353
24	0xbd2df68e	-0.04247146
25	0x3be6dd75	0.0070454427
26	0x3e02b680	0.1276493
27	0x3d41c514	0.04730709
28	0xbb5f5263	-0.0034076206
29	0x3e45a2e4	0.19300419
30	0x3ad780e6	0.0016441613
31	0x3cb21417	0.021738095
32	0xbc378d4c	-0.011203121
33	0x3cd35795	0.025798598
34	0x3cc4b3d1	0.024011524
35	0x3d348dfe	0.044080727
36	0x3d0c7a8d	0.03429656
37	0x3cf3de3b	0.029769054
38	0x3c3da8fa	0.011575932
39	0x3ca35e1d	0.019942338
40	0x3d3acbfa	0.045604683
41	0x3dfe5e26	0.12420301
42	0x3d41ef75	0.047347505
43	0x3d5b547e	0.053547375
44	0xbd27450f	-0.040837344
45	0x3d073ad7	0.0330151
46	0xbc4327a5	-0.011911307
47	0x3dce0009	0.100586005
48	0x3e7b95dd	0.24568887
49	0x3d382a4b	0.04496221
50	0x3c08bcb1	0.008345769
51	0xbac9469a	-0.0015356124
52	0x3e1299f1	0.14316536
53	0x3d8c3cf9	0.06847567
54	0xbce08781	-0.027408363
55	0x3c55db43	0.013052764
56	0x3d6bcabb	0.057566386
57	0x3da0a556	0.07844035
58	0x3b74838f	0.003730986
59	0x3c3253c2	0.010884227
60	0x3c844190	0.016144544
61	0xbd4b182e	-0.049583606
62	0xbd0c96fb	-0.034323674
63	0xbbd6fa5f	-0.0065606083

weight f4 [64, 32, 3, 3]
0	0xbc2c8da9	-0.010531821
1	0x3d30b6ca	0.04314307
2	0x3cc7fddb	0.02441304
3	0xbc853231	-0.016259285
4	0x3d6afa67	0.05736771
5	0xbd486c3e	-0.048931353
6	0x3d43b33c	0.047778353
7	0xbd49a457	-0.049228992
8	0xbd33cbc8	-0.043895513
9	0xba3fba9b	-0.0007313878
10	0x3ba70fb1	0.005098306
11	0x3ce86b4b	0.028371474
12	0x3d1713ae	0.036884002
13	0x3c344abb	0.011004145
14	0xbd0f4849	-0.034981046
15	0xbce387ac	-0.027774654
16	0x3c929150	0.017891556
17	0x3b5d5b35	0.0033776287
18	0xbd6ea35c	-0.05826126
19	0x3926c526	0.00015904437
20	0x3d47a2b7	0.04873916
21	0x3d126461	0.03574026
22	0xbd6f5dfa	-0.058439232
23	0x3ce23398	0.027612492
24	0x3d52013a	0.0512707
25	0xbd231aef	-0.039820608
26	0xbc14a688	-0.009072907
27	0xbc091729	-0.008367338
28	0x3d138f28	0.036025196
29	0xbc05a75c	-0.008157577
30	0x3cfaa26e	0.03059503
31	0x3d47899a	0.04871521
32	0xbd1e950d	-0.038716365
33	0xbd4825c7	-0.048864152
34	0x3c825d5a	0.015913654
35	0x3c0082ac	0.007843655
36	0x3b00ea59	0.0019670932
37	0xbd780df7	-0.060560193
38	0xbd11115f	-0.035416957
39	0xbd42d46d	-0.047565866
40	0xbcfdbd98	-0.030974194
41	0x3ce3a6c6	0.027789485
42	0xbca093c9	-0.01960172
43	0x3d1953c8	0.037433416
44	0xbbe468f2	-0.0069705183
45	0x3c40bd43	0.0117638735
46	0x3c88c27d	0.016694302
47	0x3d1a2deb	0.037641447
48	0xbd7afe81	-0.06127787
49	0xbcd4a597	-0.025957866
50	0x3d4bc51b	0.04974852
51	0x3ca9199a	0.02064209
52	0x3be6df83	0.0070456876
53	0x3c688465	0.014191722
54	0xbc9b2ae3	-0.018941348
55	0xbd015a56	-0.03158029
56	0x3d2b33df	0.041797515
57	0xbbb7b3b9	-0.0056061414
58	0xbd195301	-0.037432674
59	0xbbd3d6be	-0.0064648082
60	0xbd574ad1	-0.052561585
61	0x3d35724f	0.044298466
62	0xbc30fbd7	-0.010802231
63	0xbd06bc48	-0.032894403
64	0xbd1b6229	-0.03793541
65	0x3d28a4c1	0.041172747
66	0x3ae81023	0.0017705004
67	0xbb801be2	-0.003909574
68	0x3d2bdd15	0.041958887
69	0xbc2938fe	-0.010328529
70	0xbd780ac7	-0.060557153
71	0xbc173f69	-0.009231427
72	0x3b714eab	0.0036820571
73	0xbcaef336	-0.021356206
74	0xbd24950c	-0.040181205
75	0x3d2126dc	0.0393437
76	0x3d42fd32	0.047604747
77	0xb9ea2834	-0.00044661912
78	0xbd50c49b	-0.050968748
79	0xbce0a77f	-0.027423618
80	0xbd208ce8	-0.03919688
81	0xbc96d57b	-0.018412342
82	0xbd357518	-0.044301122
83	0x3bd4e5b4	0.0064971093
84	0x3d236126	0.03988757
85	0x3d2022e9	0.039095793
86	0x3d368f7b	0.044570427
87	0xbd48ab6a	-0.0489916
88	0xbcb5b0dc	-0.02217906
89	0xbc5c07db	-0.013429607
90	0xbd20b771	-0.039237443
91	0xbbd9831d	-0.0066379444
92	0xbd8a80cd	-0.06762848
93	0x3ceed214	0.029152907
94	0x3c07a8a1	0.00827995
95	0x3c1961fe	0.009361742
96	0xbd7561cc	-0.05990772
97	0xbbdc5574	-0.006724054
98	0x3bf1e9f2	0.007382625
99	0x3b636677	0.0034698525
100	0xbc63292b	-0.013864796
101	0x3d0070bb	0.03135751
102	0xbc955036	-0.018226724
103	0xbd2577f6	-0.040397607
104	0x3cae143d	0.021249885
105	0x3ce15daa	0.027510483
106	0x3b8a8c9e	0.0042281887
107	0xbd66bb09	-0.056330714
108	0x3d122e76	0.03568884
109	0xbcf1f5ff	-0.029536245
110	0xbd176e1c	-0.036970243
111	0x3aa5b9f0	0.0012643915
112	0xbd41f99f	-0.047357198
113	0xbd07a914	-0.03312023
114	0xbcd054bb	-0.025431028
115	0xbd6084e2	-0.054814227
116	0xbc8214a5	-0.015878985
117	0xbda08966	-0.07838707
118	0xbd29f73b	-0.041495543
119	0xbd8d1145	-0.068880595
120	0xbcf779d9	-0.030209469
121	0x3d450eea	0.048109926
122	0x3d16349b	0.036671262
123	0x3c11076c	0.008851867
124	0x3bd87cc7	0.0066066715
125	0x3ca9d94f	0.020733504
126	0x3d50b99c	0.05095826
127	0x3abe0438	0.0014497107
128	0xbc93c820	-0.018039763
129	0xbcec6f16	-0.028861564
130	0xbc36c1a7	-0.011154569
131	0xbd48d343	-0.0490296
132	0x3cf36cfe	0.029715057
133	0xbc9b1bf1	-0.018934222
134	0xbbca0266	-0.0061648367
135	0x3cf55515	0.029947797
136	0xbd21f7f0	-0.039543092
137	0xbbb721e3	-0.0055887564
138	0xbc5fd48d	-0.013661516
139	0xbd2adeb8	-0.041716307
140	0xbcffbf8f	-0.031219272
141	0xbd0b3643	-0.033987295
142	0x3d32d4ec	0.04366009
143	0x3d468aa2	0.048472054
144	0xbb59c502	-0.0033228998
145	0x3c706474	0.014672387
146	0xbc1fd9d6	-0.009756526
147	0xbb8de25e	-0.0043299636
148	0x3a78371a	0.000946866
149	0x3d07ff08	0.0332022
150	0x3d12c6cb	0.035834115
151	0x3d40ae2c	0.047041103
152	0xbb43a136	-0.0029850728
153	0xbc9dc21f	-0.019257603
154	0x3d194e56	0.037428223
155	0xbc23e4b4	-0.010003258
156	0x3d40099d	0.046884168
157	0x3cec2a6e	0.028828826
158	0xbc87067c	-0.016482584
159	0x3cb0c4d3	0.021578228
160	0xbd049b9a	-0.032374956
161	0xbcc87a57	-0.024472399
162	0x3d31ba62	0.04339064
163	0xbd224e4c	-0.03962545
164	0xbca481fe	-0.020081516
165	0x3d5c6a6f	0.05381244
166	0xbd0ef3d8	-0.034900516
167	0xbaa271a1	-0.0012393483
168	0xba14eab9	-0.00056807284
169	0x3d292600	0.041296005
170	0xbd0c5cab	-0.034268063
171	0xbddc0c41	-0.10744525
172	0xbdb81059	-0.08987493
173	0xbd307a10	-0.043085158
174	0x3be482ee	0.006973616
175	0x3d1c469b	0.038153272
176	0xbc6e24a3	-0.014535102
177	0x3c97e883	0.018543487
178	0x3da807fa	0.082046464
179	0x3ccf5024	0.025306769
180	0xba9e5d08	-0.0012082169
181	0xbc718949	-0.014742204
182	0x3ce75056	0.02823655
183	0xbad7be21	-0.0016459861
184	0x3d16d2df	0.036822196
185	0x3d28c5e2	0.04120434
186	0x3cf03fbf	0.029327272
187	0xbd220c33	-0.039562415
188	0x3d16c486	0.036808513
189	0xbc6438cd	-0.013929558
190	0x3c1f26b4	0.009713817
191	0x3d0af455	0.03392442
192	0x3a2327b2	0.00062238716
193	0xbcf60fdc	-0.03003686
194	0x3a01dad6	0.00049535686
195	0x3c886f2a	0.01665457
196	0x3d698061	0.057007197
197	0xbd667542	-0.05626417
198	0x3d2ecaf3	0.042674016
199	0xbd3532dd	-0.04423796
200	0x3d2f024f	0.04272681
201	0xbd2c2931	-0.04203147
202	0x3cda954d	0.02668252
203	0xbbfcfeb5	-0.007720793
204	0x3d4f9e5a	0.050688125
205	0xbbd97b13	-0.006636986
206	0xbd18d6e0	-0.037314296
207	0x3d021c7b	0.031765442
208	0xbcd0737f	-0.025445698
209	0xbd192d3d	-0.03739666
210	0x3c2aab0a	0.010416755
211	0x3c5d85b4	0.013520647
212	0x3d081ed9	0.033232544
213	0x3bb33b72	0.005469733
214	0xbd143735	-0.036185462
215	0xbcdf2eac	-0.027243935
216	0xbc45e7f5	-0.012079229
217	0x3b3b1d7e	0.0028551514
218	0xbd368ee8	-0.04456988
219	0x3d216e90	0.03941208
220	0x3c51eec3	0.012813273
221	0xbd73ad65	-0.059491534
222	0xbd54735d	-0.05186783
223	0x3c7e6759	0.01552757
224	0xbcb63bb0	-0.022245258
225	0x3c2b526b	0.010456662
226	0x3c8923ea	0.016740758
227	0x3c8a9eeb	0.016921481
228	0xbd161563	-0.03664149
229	0x3d5f0db1	0.054456417
230	0xbd24f685	-0.04027416
231	0xbc48beca	-0.012252519
232	0x3d42da96	0.04757174
233	0xbcb18f26	-0.021674704
234	0xbce3f3d8	-0.027826235
235	0xbd77e757	-0.060523357
236	0xbc31f54b	-0.010861705
237	0xbc99fd1d	-0.018797452
238	0xbca52723	-0.020160263
239	0xbd5c6dd3	-0.053815674
240	0xbc97be1b	-0.018523267
241	0x3d11e61e	0.035619847
242	0xbc9ec6f7	-0.019381983
243	0xbcc706dc	-0.024295263
244	0xbd786fa4	-0.060653344
245	0xbd27d522	-0.040974744
246	0xbd5bd9f8	-0.053674668
247	0xbd37a1c7	-0.044832017
248	0x3d24a3f1	0.04019541
249	0x3c190c81	0.00934136
250	0xbcce797f	-0.025204418
251	0x3d01b9c5	0.031671304
252	0xbd387713	-0.045035433
253	0xbd35361f	-0.044241067
254	0xbd84d4bb	-0.064858876
255	0xbd35af29	-0.0443565

bias f4 [32]
0	0xbd87d2ac	-0.06631979
1	0x3d854156	0.065066025
2	0x3d183838	0.03716299
3	0xbd5aa072	-0.05337567
4	0x3d66b0c7	0.05632093
5	0x3c77f4f4	0.015134085
6	0xbd788ed6	-0.060683094
7	0xbd54219f	-0.051789876
8	0xbd127ca1	-0.035763387
9	0x3d0401b0	0.03222817
10	0x3cf8bfc4	0.030364878
11	0x3d9a79a1	0.0754273
12	0xbd696820	-0.056984067
13	0x3db5d1f9	0.0887794
14	0x3d0d3421	0.034473542
15	0x3b2384e0	0.0024951026
16	0xbcb5b726	-0.022182059
17	0xbcc371c9	-0.023857968
18	0xbcbd2025	-0.023086617
19	0x3c6e832d	0.014557642
20	0xbd7b65cf	-0.06137639
21	0x3a38cbba	0.00070494006
22	0xbbf648df	-0.007516011
23	0xbb9c0720	-0.0047615916
24	0x3d4589b0	0.048227012
25	0xbcac0099	-0.020996379
26	0x3a3c07cc	0.00071727927
27	0xbd430d90	-0.047620356
28	0xbd7efd86	-0.062253498
29	0x3d84dc57	0.06487339
30	0xbce53d1f	-0.027983246
31	0xbd6dd99d	-0.05806886

weight f4 [32, 1, 3, 3]
0	0xbd21ad34	-0.03947182
1	0x3e9d561f	0.30729768
2	0xbe3631db	-0.17792456
3	0xbe1d1bab	-0.15342586
4	0xbd24f3d3	-0.04027159
5	0xbe876078	-0.26440787
6	0x3dfdb334	0.12387696
7	0x3d53ac73	0.051678132
8	0xbd88243d	-0.06647537
9	0x3db83157	0.08993786
10	0xbc020e7f	-0.007938026
11	0x3e40cf91	0.1882918
12	0xbe2c6e13	-0.16838865
13	0xbc79cb00	-0.015246153
14	0x3e31b127	0.17352735
15	0x3e4df126	0.20111522
16	0x3a9061e4	0.0011015502
17	0xbe2560f8	-0.16150272
18	0xbe745d55	-0.23863728
19	0xbcba7473	-0.022760605
20	0x3da5382e	0.08067356
21	0x3e694847	0.22781478
22	0xbdebe95d	-0.1151912
23	0x3e9b7c2b	0.3036817
24	0x3d817f6c	0.06323132
25	0x3e33138f	0.1748793
26	0xbe16b347	-0.14716826
27	0x3d94098a	0.07228382
28	0xbe66d157	-0.22540794
29	0xbd1470e8	-0.03624049
30	0xbe5b2134	-0.21399385
31	0xbe2aa93e	-0.16666123
32	0x3e4ddb15	0.20103104
33	0xbe1db5f8	-0.15401447
34	0x3e816cee	0.2527842
35	0xbe485db2	-0.19566992
36	0xbe469435	-0.19392474
37	0xbe33cd8f	-0.17558883
38	0x3e84eb2b	0.2596067
39	0x3e6934c7	0.22774039
40	0x3e8adc34	0.27121127
41	0xbd4c25a1	-0.049840573
42	0x3e4bed6f	0.19914792
43	0xbe559f65	-0.20861585
44	0xbbcd4bd7	-0.0062651443
45	0xbdc5ee38	-0.09664577
46	0x3e7f518c	0.24933451
47	0xbe7229e6	-0.23648795
48	0x3e82f40e	0.25576824
49	0x3e870f57	0.2637889
50	0x3ce35683	0.027751213
51	0x3e6bb4b8	0.23018157
52	0x3cb0b030	0.021568388
53	0xbe89ee10	-0.2693944
54	0xbe8ec85c	-0.27887237
55	0xbd7813e6	-0.06056585
56	0xbe8ecb84	-0.27889645
57	0xbe21be9d	-0.1579537
58	0x3b6c2daf	0.0036037972
59	0x3eb56e63	0.3543578
60	0xbd447e34	-0.04797192
61	0x3ebab4ec	0.36466157
62	0xbb3d5d00	-0.0028894544
63	0x3e0780e6	0.13232765
64	0xbe1bb17b	-0.15204422
65	0xbe649eba	-0.22326174
66	0xbe57f15c	-0.21088165
67	0x3e09c075	0.13452323
68	0xbe520cde	-0.20512721
69	0xbddeeb15	-0.10884682
70	0xbdb3ae49	-0.08773477
71	0x3e7ffef1	0.24999596
72	0xbe2f3bf7	-0.17112719
73	0xbe8134b8	-0.25235534
74	0xbe8b3e0c	-0.27195776
75	0x3e8fac7f	0.28061292
76	0xba17b7da	-0.0005787589
77	0x3c3ac4dd	0.011399475
78	0xbdeb68c5	-0.114945926
79	0xbe07ddcb	-0.13268201
80	0xbe8ac956	-0.27106732
81	0x3cc5d899	0.024151133
82	0x3e9480f6	0.2900464
83	0x3d83c07a	0.06433196
84	0xbdf44fe8	-0.119293034
85	0xbb526c95	-0.0032108177
86	0x3ea08506	0.3135149
87	0x3e29a20b	0.1656572
88	0xbce47fd0	-0.027892977
89	0xbe2229cb	-0.15836255
90	0x3e4751df	0.19464825
91	0xbe368b55	-0.17826588
92	0xbd606dbc	-0.05479215
93	0x3bc3884e	0.0059671765
94	0x3db61191	0.08890069
95	0xbe772577	-0.24135385
96	0xbd63336e	-0.05546897
97	0xbe6e7b59	-0.23289241
98	0xbe96bf19	-0.2944267
99	0xbe443c12	-0.1916354
100	0x3ea21090	0.3165326
101	0x3e7c1827	0.24618588
102	0xbe6efea2	-0.23339322
103	0x3e49c965	0.19705732
104	0x3e8b15b3	0.27164993
105	0xbe863b4f	-0.26217124
106	0xbd8186ea	-0.06324561
107	0xbe866ade	-0.26253408
108	0x3e9029d6	0.28156918
109	0xbe44490c	-0.1916849
110	0xbe4234c4	-0.18965441
111	0x3d80176e	0.06254469
112	0xbe1b03c5	-0.15138157
113	0xbe5d3dd8	-0.21605623
114	0xbe58407e	-0.21118352
115	0xbe8a05f6	-0.26957673
116	0xbe82b76e	-0.2553057
117	0x3e0621f7	0.13098894
118	0x3d99c8ee	0.075090274
119	0x3ea60b9b	0.3243073
120	0x3e64e11e	0.223515
121	0xbe170746	-0.14748868
122	0x3e144ea6	0.14483127
123	0x3e9bd9a6	0.3043949
124	0xbe563f31	-0.20922543
125	0x3e52e0c6	0.20593557
126	0xbd3b1f97	-0.045684423
127	0x3e6661f4	0.22498304
128	0xbb3bfaf8	-0.0028683525
129	0x3e8c7684	0.2743417
130	0x3e8b8cd6	0.27255887
131	0xbe6c1513	-0.23054914
132	0x3dac24df	0.0840547
133	0xbdcf5f58	-0.10125607
134	0xbe6e6ed8	-0.23284471
135	0x3e1b45e8	0.15163386
136	0x3ea7ae3d	0.3275012
137	0x3dcc944e	0.099892244
138	0x3d210926	0.039315365
139	0x3e85ea1f	0.26155183
140	0x3d70ecbe	0.058819525
141	0x3e32fcce	0.1747925
142	0x3e8dfba2	0.27731043
143	0x3e543929	0.2072493
144	0x3c98a712	0.018634353
145	0x3e3a91de	0.18219706
146	0x3d532d5f	0.05155694
147	0x3e9e1a94	0.30879653
148	0x3e5a22e9	0.2130238
149	0xbd3b6906	-0.045754455
150	0xbe178688	-0.14797413
151	0xbe68c278	-0.22730434
152	0x3e8c3e5b	0.27391323
153	0x3d61249a	0.054966547
154	0x3e3b8033	0.18310623
155	0xbd0c58e4	-0.03426446
156	0xbd63f121	-0.05564988
157	0x3e855f73	0.26049384
158	0x3d98a259	0.0745284
159	0xbdcbc8bf	-0.09950399
160	0xbe4b8f96	-0.19878992
161	0xbe93f4d9	-0.2889774
162	0x3d51e033	0.051239204
163	0x3e180d6b	0.14848869
164	0xbdabd922	-0.08391024
165	0x3ea126d8	0.31474948
166	0xbe802e2b	-0.25035223
167	0xbe4f3de2	-0.2023845
168	0x3e2521e1	0.16126205
169	0x3c10a8e8	0.008829333
170	0x3d313d3c	0.04327129
171	0xbcb10d78	-0.021612868
172	0xbd5a5497	-0.053303327
173	0x3e078614	0.1323474
174	0x3e3bbb7d	0.1833324
175	0x3ea8bca2	0.32956415
176	0x3e399e68	0.18126833
177	0xbd0c29a7	-0.03421941
178	0xbe1a25c3	-0.15053467
179	0xbd7fdc08	-0.062465698
180	0xbdde6331	-0.10858763
181	0xbe2c58a5	-0.1683069
182	0xbe3186ba	-0.1733655
183	0xbceb8118	-0.02874808
184	0x3d82bd3e	0.06383751
185	0xbe19d4f2	-0.15022638
186	0x3ea043a1	0.31301597
187	0x3e12ac52	0.14323547
188	0xbdd10d32	-0.10207595
189	0xbe2316c4	-0.15926653
190	0xbe93faea	-0.2890237
191	0x3e697446	0.22798261
192	0x3d36c03f	0.044616934
193	0xbe7ffc00	-0.24998474
194	0x3e63c736	0.22243962
195	0xbe680f86	-0.22662172
196	0xbe21acd4	-0.15788585
197	0x3dd6d4c9	0.10489804
198	0xbe93fabd	-0.28902236
199	0xbe9476ed	-0.28996983
200	0x3ce77147	0.028252257
201	0xbe7af32c	-0.24506825
202	0x3e9f2767	0.3108475
203	0x3e9b2b77	0.303066
204	0x3d8f9b81	0.07012082
205	0xbe7f27eb	-0.24917571
206	0x3e2a9b2d	0.16660757
207	0xbe521dd0	-0.20519185
208	0xbe439306	-0.19099054
209	0x3e060370	0.13087249
210	0x3e1556f4	0.14583951
211	0xbe8aa144	-0.2707616
212	0x3d924b5d	0.07143281
213	0x3e72a386	0.23695192
214	0xbb7f46c9	-0.0038952103
215	0x3e0e9080	0.1392231
216	0x3e8fe8ed	0.28107396
217	0x3e9e4e8c	0.30919302
218	0xbe6edd8e	-0.23326704
219	0xbe9f12a3	-0.31068906
220	0x3e656e5d	0.22405382
221	0x3de80bb0	0.11330354
222	0xbe8f5d19	-0.28000715
223	0x3e0bbcdc	0.13646263
224	0x3d961c8d	0.073296644
225	0x3d874776	0.06605427
226	0xbd13c759	-0.036078785
227	0x3e45b6f7	0.19308077
228	0xbe8744ae	-0.26419586
229	0xbe32d1b5	-0.1746281
230	0x3e5879d4	0.21140224
231	0xbe611014	-0.2197879
232	0xbdf77d5e	-0.12084459
233	0xbc5d2181	-0.0134967575
234	0xbe91ad0d	-0.2845234
235	0x3e0ff4f1	0.14058281
236	0xbea0d042	-0.31408888
237	0x3e4b2606	0.19838724
238	0xbe68d456	-0.2273725
239	0x3d443678	0.047903508
240	0xbe026dbc	-0.12737173
241	0xbe63605c	-0.22204727
242	0xbbae936d	-0.005327633
243	0x3e4f6682	0.20253947
244	0x3dd51112	0.104036465
245	0xbe9dba3d	-0.3080615
246	0x3ce76a63	0.028248971
247	0xbea18e22	-0.3155375
248	0xbe842f1c	-0.25817192
249	0xbe9d0e83	-0.30675134
250	0xbe02f02e	-0.12786934
251	0x3ea66e47	0.3250601
252	0xbe78fc62	-0.24315026
253	0xbe950463	-0.2910491
254	0xbd91f431	-0.07126654
255	0xbdacffa5	-0.08447198
