models/55.pt (torch, 837106 bytes, 17 tensors)

weight f4 [32, 1, 3, 3]
-0.05749186 0.016875912 0.08613945 -0.25940323 0.18366665 -0.20362198 0.2655928 -0.2350427
-0.24247661 0.030291498 0.17105733 -0.09748072 -0.13612927 0.13986082 0.10161448 0.27077255
-0.088357985 -0.23659247 -0.19948901 0.09016106 -0.3112536 0.12870204 0.18872339 0.23049243
0.11141973 -0.12233655 -0.15999657 -0.18373734 0.31955498 -0.05592897 -0.08947564 -0.0996658
0.25676778 0.24137256 -0.0380795 0.18813188 0.3217935 -0.103841014 -0.102629565 0.29635867
0.16771811 -0.07924727 0.29460546 0.1380487 0.025149796 0.30496338 0.29066265 -0.14700055
0.06612584 -0.12415706 0.18959767 -0.13774382 -0.22326198 0.21314256 -0.13154073 0.0072272266
0.2846037 -0.23775174 -0.081414066 0.10458544 0.1302404 -0.34560728 0.048569195 0.09657298
0.12740314 0.2105935 -0.15779126 0.32658482 0.07507756 -0.09326735 0.07246553 -0.17701825
-0.18832995 -0.203025 -0.14830762 0.19467087 -0.092434034 -0.24062982 0.25598395 -0.2705886
0.01400299 0.26989055 0.20126975 -0.1824527 0.30265787 0.23390251 0.32609612 -0.12645258
-0.008947125 -0.28689593 -0.3483298 0.082666874 0.008020895 0.13805465 -0.14424437 0.118536964
0.2763078 -0.33870068 0.21264033 0.074232586 -0.044465717 0.1437904 0.27305892 -0.2538289
-0.27980357 -0.06524403 -0.10539108 0.13276902 0.05073963 -0.16344954 -0.23220237 0.200569
-0.21745005 0.036704622 0.15013386 -0.22485912 -0.25796455 0.29890472 0.23135939 -0.08337602
-0.2301263 -0.30087778 -0.22050056 0.24255832 -0.2327259 -0.20757908 -0.24368745 0.21613824
-0.27272084 0.254591 -0.19521321 0.28200188 -0.25077483 0.1854531 -0.21646376 -0.091199964
0.25530005 -0.04080951 0.24935956 -0.24435343 -0.38899878 -0.022100894 0.2337629 -0.1268746
-0.30139652 0.17753296 0.02754523 -0.012886234 -0.16497585 -0.3093371 0.28923008 0.05508722
0.034620203 0.2871366 -0.26376176 -0.2579539 0.059858255 0.09718518 0.046485044 -0.18545964
0.22238068 0.28900844 0.09719469 0.30576414 0.00025784166 0.10540999 0.21940516 -0.13454631
0.2513029 0.21242723 -0.086193904 -0.12029009 -0.14743061 -0.16224843 0.32866573 -0.1219675
0.1753211 -0.3095072 -0.09486567 0.029801538 -0.13261911 -0.23556466 -0.04290871 0.27303514
0.19661863 0.2882048 -0.22107868 0.0870121 0.09531597 0.14282198 0.13776782 -0.24583389
-0.105506636 0.19900662 -0.09073248 -0.073895276 0.113022976 -0.05677513 0.04018836 -0.32585636
-0.10997032 0.1262189 -0.11644539 0.072855115 0.27776638 0.21075518 0.28247905 0.16029009
-0.06385636 -0.14965615 -0.23367497 0.094939716 -0.34123388 0.1989094 0.0919755 -0.07551938
0.09659742 -0.09754477 -0.1441459 -0.30087808 -0.09353096 -0.09861068 0.03364171 0.29908204
-0.13019884 0.23042613 0.12967882 0.031238785 -0.26449674 -0.18215807 0.21844745 -0.3024517
0.19173099 -0.18861385 0.061484158 0.17842253 -0.2392839 0.23771437 0.14819749 -0.21157202
-0.0014340914 -0.24393943 0.03933273 0.2109325 0.1413112 -0.24960157 -0.05354244 -0.26809582
0.20020226 -0.0844919 0.07448484 -0.2139946 -0.11298018 -0.23469865 -0.29594505 0.30334094
00000000: 967c 6bbd 5a3f 8a3c e169 b03d 80d0 84be
00000010: 1c13 3c3e 4882 50be c8fb 873e 09af 70be
00000020: ca4b 78be e025 f83c a729 2f3e f9a3 c7bd
00000030: 7965 0bbe ad37 0f3e 411b d03d b3a2 8a3e
00000040: 08f5 b4bd 4c45 72be d946 4cbe 5da6 b83d
00000050: a25c 9fbe 78ca 033e b440 413e 3506 6c3e
00000060: 0730 e43d 968b fabd 24d6 23be a425 3cbe
00000070: b69c a33e c715 65bd 013f b7bd 951d ccbd
00000080: 1177 833e 5e2a 773e 40f9 1bbd a5a5 403e
00000090: 1ec2 a43e 99aa d4bd 732f d2bd 53bc 973e
000000a0: 4cbe 2b3e 654c a2bd 87d6 963e a35c 0d3e
000000b0: f206 ce3c 2924 9c3e bcd1 943e 5087 16be
000000c0: fc6c 873d 0f46 febd e425 423e b70c 0dbe
000000d0: ca9e 64be 0b42 5a3e 9db2 06be 5fd2 ec3b
000000e0: 93b7 913e 3175 73be 6bbc a6bd e430 d63d
000000f0: bd5d 053e 70f3 b0be 7ef0 463d 0ec8 c53d
00000100: f875 023e d3a5 573e 0894 21be 2036 a73e
00000110: 44c2 993d f402 bfbd cf68 943d 4644 35be
00000120: 91d9 40be c9e5 4fbe f4dd 17be cd57 473e
00000130: 0e4e bdbd aa67 76be 5410 833e 978a 8abe
00000140: cc6c 653c 182f 8a3e a819 4e3e e1d4 3abe
00000150: f9f5 9a3e 2484 6f3e 12f6 a63e c97c 01be
00000160: f696 12bc 06e4 92be 4958 b2be 404d a93d
00000170: 126a 033c 335e 0d3e ccb4 13be 82c3 f23d
00000180: 3778 8d3e 2d6a adbe 63be 593e 4107 983d
00000190: af21 36bd ca3d 133e 61ce 8b3e ddf5 81be
000001a0: 6a42 8fbe a99e 85bd 47d7 d7bd 9af4 073e
000001b0: 5cd4 4f3d 515f 27be 75c6 6dbe f661 4d3e
000001c0: 3aab 5ebe 9657 163d b1bc 193e 7841 66be
000001d0: ee13 84be 0a0a 993e 7ae9 6c3e 0cc1 aabd
000001e0: 3ba6 6bbe a70c 9abe e6ca 61be 3561 783e
000001f0: b34f 6ebe 9c8f 54be 3489 79be 5853 5d3e
00000200: 11a2 8bbe c059 823e f9e5 47be 8d62 903e
00000210: 8f65 80be 6be7 3d3e ada8 5dbe 0cc7 babd
00000220: b0b6 823e df27 27bd 1d58 7f3e c937 7abe
00000230: d92a c7be ef0c b5bc 8b5f 6f3e 6aeb 01be
00000240: a550 9abe 33cb 353e 89a6 e13c c820 53bc
00000250: 6eef 28be 6f61 9ebe f715 943e 23a3 613d
00000260: eacd 0d3d 9203 933e c80b 87be 8912 84be
00000270: ee2d 753d 0609 c73d 1a67 3e3d 22e9 3dbe
00000280: c3b7 633e eaf8 933e 020e c73d 1e8d 9c3e
00000290: ec2e 8739 31e1 d73d bfab 603e 82c6 09be
000002a0: c6aa 803e 8686 593e 6e86 b0bd a75a f6bd
000002b0: 0df8 16be 7424 26be e046 a83e 19ca f9bd
000002c0: 6087 333e ba77 9ebe ef48 c2bd 5b22 f43c
000002d0: 4ecd 07be dd37 71be 0bc1 2fbd 43cb 8b3e
000002e0: 6556 493e 948f 933e 7362 62be 6633 b23d
000002f0: 0535 c33d ed3f 123e 0213 0d3e e1bb 7bbe
00000300: dd13 d8bd 64c8 4b3e f3d1 b9bd 6856 97bd
00000310: 9778 e73d 0a8d 68bd 8d9c 243d a5d6 a6be
00000320: 1e38 e1bd 873f 013e ec7a eebd 1035 953d
00000330: 6537 8e3e 35d0 573e 18a1 903e 1623 243e
00000340: 20c7 82bd 763f 19be 7e48 6fbe c16f c23d
00000350: 35b6 aebe e8ae 4b3e a75d bc3d e8a9 9abd
00000360: ded4 c53d 8dc5 c7bd fc9a 13be b10c 9abe
00000370: 298d bfbd 65f4 c9bd e4cb 093d 4821 993e
00000380: d852 05be d4f4 6b3e 86ca 043e 7be8 ff3c
00000390: 1e6c 87be a587 3abe b0b0 5f3e f3da 9abe
000003a0: 2155 443e fd23 41be d0d6 7b3d 65b4 363e
000003b0: d706 75be 656b 733e 15c1 173e 56a6 58be
000003c0: 1ff8 bbba 42cb 79be 5b1b 213d b0fe 573e
000003d0: e2b3 103e 8e97 7fbe 514f 5bbd db43 89be
000003e0: d201 4d3e 170a adbd 828b 983d 6721 5bbe
000003f0: 2762 e7bd d854 70be 1c86 97be 814f 9b3e

bias f4 [32]
0.08326004 0.09841334 0.0883736 -0.29620054 0.31677917 -0.053631697 -0.065574914 0.21425779
0.34064314 -0.024252338 -0.2048326 0.2859274 0.072240345 0.23169097 0.12534362 0.2467744
-0.12784311 -0.06640212 -0.04626858 0.23677848 -0.2616663 -0.1941506 0.03427592 0.12872304
0.18008567 0.07096375 0.06175726 -0.024048269 -0.24512018 -0.10683126 -0.10179369 0.09485576
00000000: 3d84 aa3d ef8c c93d 38fd b43d 99a7 97be
00000010: e130 a23e e9ac 5bbd 244c 86bd 6566 5b3e
00000020: c768 ae3e d7ac c6bc a3bf 51be 1465 923e
00000030: bff2 933d 6640 6d3e 145a 003e 6eb2 7c3e
00000040: 4ee9 02be d6fd 87bd 1f84 3dbd 0f76 723e
00000050: 20f9 85be 6acf 46be e864 0c3d f9cf 033e
00000060: 6168 383e 7155 913d 2ef5 7c3d e000 c5bc
00000070: c900 7bbe 59ca dabd 3679 d0bd bd43 c23d

weight f4 [64, 32, 3, 3]
0.032917544 0.00790964 -0.08193635 -0.014091914 0.0006833045 0.008715779 0.014487965 -0.0497413
0.026116228 -0.011972106 -0.0068372185 0.07071008 0.042362865 0.0035186028 -0.043740757 0.06133974
0.029761754 0.01691392 -0.009599467 0.0052514584 0.03954201 0.032384798 0.0094968425 -0.049491182
-0.03691157 0.04224928 0.047979034 0.011192382 -0.022743823 -0.03895525 0.018738711 -0.04932137
-0.004881269 -0.011516893 0.055896666 0.023635674 -0.00051157695 0.025351098 -0.05375263 -0.05757221
-0.0515774 -0.013687721 -0.049337562 -0.004178079 0.03494415 -0.011643729 0.0133990925 -0.021605467
0.0036552818 0.045154408 0.057019804 0.04304487 0.051546767 0.070498385 0.04965645 -0.037720475
-0.015672391 -0.03859827 0.025194077 -0.030408723 0.013270622 0.016808677 0.05192353 -0.054331675
-0.03994754 -0.014826087 -0.027893353 -0.04210239 0.023578595 0.029372673 0.015504623 -0.04983213
0.0052686636 0.024313506 -0.10859923 0.009669955 -0.014782217 -0.10394228 -0.0034637898 -0.07978009
-0.121457316 0.04764116 -0.02129269 0.0093709575 0.03605615 -0.02462104 -0.023844957 -0.048858825
0.025523346 -0.036870766 -0.033371992 0.005355294 0.012005959 0.00868145 0.02935962 -0.03882875
-0.01205446 0.013484115 -0.007828276 -0.01805595 0.005750274 0.076587744 0.00399289 0.04261869
0.09975295 0.053491496 0.026790233 0.08728878 -0.041545827 0.04723518 -0.007642391 -0.05064794
-0.051034767 -0.11617008 -0.01155196 -0.10622217 -0.10931841 -0.05745679 -0.00013569505 -0.08193938
0.010388871 0.043319773 -0.036173474 -0.008206346 0.0015128871 -0.0068596066 0.041414708 -0.017679904
0.11195549 0.039678056 -0.03141147 0.07202888 0.020305008 0.09064467 0.14281857 -0.029936865
0.013953645 -0.021699542 0.0049162474 -0.019015323 -0.0011068374 -0.016684167 0.017692907 -0.04046025
0.015749944 0.025884803 0.06807691 0.039982643 0.0059462166 0.049831886 0.045214754 0.048371457
-0.019762244 -0.048816588 -0.02119397 0.022971522 -0.0062086317 -0.00986682 -0.047110155 -0.012912736
0.05016021 0.003209876 -0.04920976 0.034441873 0.02535852 0.022421526 -0.03948936 -0.020363841
-0.020945445 0.003911356 0.012450394 -0.01627427 0.0002207119 0.048356783 4.249098e-05 0.033955604
-0.0014747137 0.012146701 0.056922775 0.024644192 -0.036885813 -0.03224695 0.0642001 -0.0053248703
-0.022101866 -0.013523591 0.024218636 -0.058021784 -0.03024689 0.014221228 0.022975711 -0.011226653
-0.04683937 -0.05013631 -0.026492955 0.027101843 -0.030728944 0.054907925 0.05370395 -0.044503853
-0.010470863 0.035216253 0.04449867 0.027876565 0.0020322753 0.056793418 -0.037249073 0.034599174
-0.021009956 -0.06032769 0.029988127 0.03152796 -0.041353416 -0.0012411982 0.023033256 0.023516431
0.038318887 -0.05497932 -0.031351935 -0.051780034 -0.0036713476 0.013322699 0.067240186 -0.0003250906
0.11304978 0.041286282 -0.03415241 0.018186197 -0.03382958 0.0098074805 0.076299295 0.08546133
0.020050466 0.0061941226 -0.025636716 -0.030170487 0.007884872 -0.042734653 -0.030550247 0.05823523
-0.014305017 -0.02030334 0.04383628 0.02131346 0.04976536 0.13191533 0.028697869 0.037532993
-0.0062996647 0.064687915 0.0101058455 0.103541285 0.05749188 0.010164216 0.0323674 -0.038875196
00000000: 8cd4 063d 6f97 013c 3fce a7bd c5e1 66bc
00000010: ca1f 333a a0cc 0e3c ee5e 6d3c 89bd 4bbd
00000020: b3f1 d53c a726 44bc bf0a e0bb 72d0 903d
00000030: af84 2d3d 5c98 663b 8229 33bd 613f 7b3d
00000040: ecce f33c 108f 8a3c 1547 1dbc 6d14 ac3b
00000050: cdf6 213d eca5 043d a598 1b3c 44b7 4abd
00000060: 9630 17bd 950d 2d3d aa85 443d 4160 373c
00000070: 4151 babc 8a8f 1fbd ed81 993c 3405 4abd
00000080: 0df3 9fbb 5ab1 3cbc e7f3 643d 9a9f c13c
00000090: 591b 06ba 1bad cf3c b82b 5cbd d6d0 6bbd
000000a0: d342 53bd 7742 60bc 2f16 4abd 44e8 88bb
000000b0: 9921 0f3d 57c5 3ebc de87 5b3c f3fd b0bc
000000c0: 748d 6f3b d4f3 383d 998d 693d d14f 303d
000000d0: b422 533d 7561 903d 9064 4b3d c980 1abd
000000e0: 6363 80bc 3819 1ebd cf63 ce3c b71b f9bc
000000f0: 066d 593c 5ab2 893c c4ad 543d e48a 5ebd
00000100: 08a0 23bd 1ee9 72bc 9a80 e4bc 8e73 2cbd
00000110: e627 c13c f69e f03c 1a07 7e3c c71c 4cbd
00000120: c1a4 ac3b 1e2d c73c 4669 debd bb6e 1e3c
00000130: 1d31 72bc b1df d4bd c000 63bb be63 a3bd
00000140: 9dbe f8bd 6123 433d 026e aebc a588 193c
00000150: 9daf 133d 10b2 c9bc 8056 c3bc 3120 48bd
00000160: 5616 d13c cd05 17bd 12b1 08bd 767b af3b
00000170: a4b4 443c a43c 0e3c 9683 f03c e50a 1fbd
00000180: 1280 45bc 7aec 5c3c 2b42 00bc 12ea 93bc
00000190: cb6c bc3b 09da 9c3d cad6 823b ef90 2e3d
000001a0: 464b cc3d e619 5b3d 3177 db3c 76c4 b23d
000001b0: f52b 2abd ad79 413d 066d fabb 3774 4fbd
000001c0: d509 51bd 94ea edbd 6f44 3dbc 028b d9bd
000001d0: 55e2 dfbd d057 6bbd 5d49 0eb9 d5cf a7bd
000001e0: 1536 2a3c 1370 313d a32a 14bd e973 06bc
000001f0: 114c c63a 8dc6 e0bb 78a2 293d 72d5 90bc
00000200: ec48 e53d 7585 223d 50a9 00bd e183 933d
00000210: b056 a63c eaa3 b93d 083f 123e 283e f5bc
00000220: d49d 643c 3dc3 b1bc 7918 a13b 06c6 9bbc
00000230: 4d13 91ba 3cad 88bc b7f0 903c a6b9 25bd
00000240: 0706 813c 5e0c d43c e86b 8b3d d7c4 233d
00000250: 7bd8 c23b 851c 4c3d 1b33 393d 2621 463d
00000260: 6ee4 a1bc e7f3 47bd fa9e adbc c62e bc3c
00000270: c771 cbbb 71a8 21bc 94f6 40bd f18f 53bc
00000280: cb74 4d3d c85c 523b 2c90 49bd ec12 0d3d
00000290: acbc cf3c 59ad b73c 98bf 21bd 12d2 a6bc
000002a0: c895 abbc d52a 803b bdfc 4b3c 9e51 85bc
000002b0: e66e 6739 c311 463d 5838 3238 0815 0b3d
000002c0: 2e4b c1ba f502 473c db27 693d 9ee2 c93c
000002d0: 9415 17bd 6115 04bd 587b 833d 407c aebb
000002e0: f90e b5bc 0d92 5dbc 2966 c63c 40a8 6dbd
000002f0: 53c8 f7bc 2700 693c 8f37 bc3c ffef 37bc
00000300: a4da 3fbd bb5b 4dbd c107 d9bc af04 de3c
00000310: 44bb fbbc 22e7 603d acf8 5b3d ac49 36bd
00000320: fc8d 2bbc eb3e 103d 3d44 363d 655d e43c
00000330: ec2f 053b 37a0 683d 7c92 18bd ddb7 0d3d
00000340: 121d acbc 2b1a 77bd a9a9 f53c 7623 013d
00000350: 3362 29bd b3af a2ba 3db0 bc3c 88a5 c03c
00000360: 44f4 1c3d ff31 61bd e36a 00bd 4d17 54bd
00000370: fe9a 70bb 7347 5a3c 39b5 893d ec70 aab9
00000380: a586 e73d ce1b 293d 66e3 0bbd 38fb 943c
00000390: e390 0abd 8eaf 203c ce42 9c3d 5a06 af3d
000003a0: e040 a43c 11f8 ca3b 1704 d2bc 1928 f7bc
000003b0: 8d2f 013c 880a 2fbd 8344 fabc 1188 6e3d
000003c0: 975f 6abc 3153 a6bc ac8d 333d 9199 ae3c
000003d0: c3d6 4b3d d014 073e cb17 eb3c 32bc 193d
000003e0: 6b6d cebb 197b 843d fd92 253c 740d d43d
000003f0: 9b7c 6b3d d087 263c ae93 043d 993b 1fbd

bias f4 [64]
0.014242328 0.05768261 0.04354335 -0.033118904 0.047732074 0.036473893 -0.036125403 -0.0076541267
-0.13146022 0.22916177 0.076027565 0.14962675 -0.14421001 0.092499346 0.034700546 0.23356253
0.13402668 0.22873323 0.01685445 0.01969674 -0.042391524 -0.04229282 -0.054168113 0.07416207
-0.08773424 0.08581275 0.06417267 -0.029053163 0.1299743 -0.1035454 0.11010014 0.05569933
0.0622713 -0.048623107 -0.0206462 -0.20058128 0.04526133 0.0046147513 0.060324863 0.0978061
0.050777126 -0.04596644 -0.008233168 0.03046534 0.024133531 0.07167133 -0.039025623 -0.02971463
-0.13522616 0.13975483 -0.03315892 0.044719297 0.049924403 0.04623797 0.062412333 0.028059265
-0.0057128975 0.1279572 0.0050143288 -0.037628744 -0.061240733 0.048508644 -0.08260813 0.06222737
00000000: a758 693c 9a44 6c3d 835a 323d b0a7 07bd
00000010: b582 433d a665 153d 3bf8 13bd 78cf fabb
00000020: 829d 06be 62a9 6a3e 57b4 9b3d c137 193e
00000030: caab 13be 4c70 bd3d 2922 0e3d 042b 6f3e
00000040: 4a3e 093e 0b39 6a3e 5812 8a3c 0f5b a13c
00000050: bca2 2dbd 3c3b 2dbd 62df 5dbd 49e2 973d
00000060: 02ae b3bd 98be af3d f66c 833d e600 eebc
00000070: fc17 053e 9c0f d4bd 2f7c e13d fb24 643d
00000080: 3110 7f3d 0629 47bd 3822 a9bc 2e65 4dbe
00000090: f263 393d 5737 973b 3417 773d 914e c83d
000000a0: adfb 4f3d 4e47 3cbd 69e4 06bc 7392 f93c
000000b0: afb3 c53c 6bc8 923d 55d9 1fbd 196c f3bc
000000c0: ba78 0abe e41b 0f3e a6d1 07bd 952b 373d
000000d0: 887d 4c3d 0764 3d3d 13a4 7f3d 8bdc e53c
000000e0: 4233 bbbb 3607 033e 3d4f a43b 9920 1abd
000000f0: 90d7 7abd 00b1 463d 742e a9bd 20e2 7e3d

weight f4 [128, 64, 3, 3]
-0.07304843 -0.007741278 -0.036657948 -0.040648233 -0.020333389 -0.04473629 -0.058604706 0.008235008
-0.0029847117 -0.034296 -0.020992555 0.031191232 -0.015828243 -0.03167134 -0.03417343 -0.03530972
0.019984111 0.023561472 -0.046617124 -0.02400341 0.04285917 -0.014366016 -0.0189217 0.010185891
-7.251183e-05 0.02106923 -0.04153579 0.036071338 0.017101716 0.020907072 0.033401657 0.008728936
-0.02225256 -0.038436968 0.052969992 0.047457792 0.0030374483 -0.011058493 -0.02431045 -0.03790795
0.023763714 0.039669093 0.00020998398 -0.03509208 0.04346576 0.011719837 0.047546886 -0.028471772
-0.0025251706 0.042390984 -0.0052944515 0.011942297 0.045210417 -0.022567473 -0.001176983 -0.009130146
-0.015518428 -0.03129147 -0.033759296 -0.01823091 0.03706568 0.01302541 0.05110994 0.043473255
0.012252665 0.026375014 -0.00018836524 0.024946313 -0.006108656 0.012853351 0.04109011 -0.04244929
-0.058226336 0.020965043 0.007741314 -0.068826966 -0.071339235 0.020103764 -0.0615352 0.006760739
0.05607933 -0.07228632 0.0015249909 0.005069788 -0.03348951 0.049528018 0.0027548666 -0.01986331
-0.04535993 -0.05272039 0.0031263 -0.02159883 -0.015108474 -0.0064731585 -0.024392754 -0.0182312
-0.06937736 -0.031741392 -0.017409472 -0.045808416 -0.0017498313 -0.003311771 -0.0599282 0.043397132
-0.030485997 -0.048243057 0.015137218 -0.0068084076 0.015355649 0.0023930182 -0.026247753 -0.019124255
0.010056113 0.019618947 -0.030734831 0.005141395 0.01724914 0.064297065 0.017015427 -0.035501126
0.047344506 0.019301794 -0.008810391 0.07579335 0.030318223 0.06981896 -0.0028109765 0.010975682
0.041846793 0.036301322 0.017455855 0.008365588 0.018240815 0.0010418342 0.022972187 0.026587447
-0.03315409 0.013725158 -0.05546772 -0.048344206 -0.037640594 -0.054217454 -0.019072438 0.011019743
-0.06496413 -0.0123295905 0.011414697 0.0225444 0.023509905 0.036800712 -0.052361358 -0.00906166
0.025005713 -0.049181998 -0.017547995 0.0053628036 0.022745315 0.0050113737 0.019357182 -0.036330543
-0.010420221 0.01298344 0.003923641 0.022379443 0.02258623 -0.044845577 -0.005876836 0.0065689427
-0.028860044 -0.022240454 -0.008842798 -0.023773162 -0.021516778 -0.046939388 -0.013473384 0.005842663
-0.0144016845 -0.05184003 0.0017839599 -0.042684335 -0.007889134 -0.03533935 0.00012555135 -0.020001272
-0.03205078 0.006439712 -0.0053483616 -0.04068857 -0.0029522418 0.026501138 0.007369294 0.038728286
-0.012826169 -0.017967824 -0.01666924 -0.032268688 -0.012699888 0.03771961 0.037951373 -0.0041826135
0.07932485 -0.016050214 -0.005180705 0.054976422 0.00656354 -0.022984995 0.016253456 -0.045779362
0.01983777 0.005415451 -0.029020598 -0.03943177 -0.021315051 0.026312489 0.0111189755 0.012661206
-0.0033058575 -0.025993982 0.073436856 -0.013440661 0.044931084 0.05135312 0.029824575 0.02918972
0.00786927 0.013480095 -0.0053650807 0.049452543 -0.024277333 -0.008916117 -0.031979218 -0.015454022
-0.011205946 0.0058906036 -0.008896392 -0.018462693 -0.04092481 -0.038414948 -0.0145319775 0.0074613816
-0.0036617178 0.029358553 0.015715327 -0.018464813 0.031122614 -0.00036556544 -0.029834634 0.012230029
-0.0018550172 -0.010637331 0.01643663 -0.01862928 0.024505027 -0.0069205724 0.0007136181 -0.023565888
00000000: 6a9a 95bd 8caa fdbb a526 16bd c37e 26bd
00000010: 3592 a6bc 663d 37bd 7d0b 70bd 21ec 063c
00000020: 279b 43bb f679 0cbd 94f8 abbc c184 ff3c
00000030: 3baa 81bc cfb9 01bd 70f9 0bbd eda0 10bd
00000040: b8b5 a33c fd03 c13c 99f1 3ebd cda2 c4bc
00000050: 198d 2f3d 705f 6bbc ae01 9bbc b9e2 263c
00000060: 7e11 98b8 6199 ac3c 6f21 2abd 8abf 133d
00000070: e618 8c3c 4f45 ab3c 2dd0 083d d003 0f3c
00000080: 004b b6bc 1570 1dbd 10f7 583d 1a63 423d
00000090: ed0f 473b ae2e 35bc b526 c7bc 5e45 1bbd
000000a0: 1fac c23c 0f7c 223d 252f 5c39 b6bc 0fbd
000000b0: 2709 323d 8f04 403c 86c0 423d a23d e9bc
000000c0: 557d 25bb 2ba2 2d3d 147d adbb a0a9 433c
000000d0: 8f2e 393d 6cdf b8bc ff44 9aba 9c96 15bc
000000e0: 0141 7ebc 7c2b 00bd 3047 0abd fd58 95bc
000000f0: 2fd2 173d 8768 553c a858 513d 0311 323d
00000100: 67bf 483c 6a10 d83c e983 45b9 365c cc3c
00000110: 1f2b c8bb dd96 523c 1a4e 283d 4fdf 2dbd
00000120: bd7e 6ebd e2be ab3c d9aa fd3b 27f5 8cbd
00000130: 4e1a 92bd a6b0 a43c 550c 7cbd 3089 dd3b
00000140: 71b3 653d da0a 94bd 34e2 c73a 7720 a63b
00000150: 4c2c 09bd e4dd 4a3d fe8a 343b 61b8 a2bc
00000160: 55cb 39bd 56f1 57bd 9ce2 4c3b 08f0 b0bc
00000170: 8889 77bc ca1c d4bb 50d3 c7bc 9959 95bc
00000180: b815 8ebd 4303 02bd 4f9e 8ebc 9ba1 3bbd
00000190: 985a e5ba 4c0a 59bb 4677 75bd 31c1 313d
000001a0: c5bd f9bc 839a 45bd 1802 783c 1019 dfbb
000001b0: 4396 7b3c 2fd4 1c3b 8705 d7bc 78aa 9cbc
000001c0: 65c2 243c eab7 a03c 9dc7 fbbc 2679 a83b
000001d0: 124e 8d3c 2eae 833d f063 8b3c a169 11bd
000001e0: 50ec 413d cc1e 9e3c 7559 10bc 8b39 9b3d
000001f0: ec5d f83c 3efd 8e3d 5c38 38bb 59d3 333c
00000200: 8b67 2b3d b2b0 143d 95ff 8e3c d20f 093c
00000210: c36d 953c 288e 883a 2b30 bc3c ebcd d93c
00000220: 95cc 07bd 7cdf 603c 1f32 63bd 9304 46bd
00000230: 062d 1abd 1f13 5ebd cd3d 9cbc 278c 343c
00000240: ea0b 85bd 0d02 4abc b604 3b3c 09af b83c
00000250: d897 c03c 58bc 163d dd78 56bd 5b77 14bc
00000260: c8d8 cc3c 1073 49bd d0c0 8fbc 75ba af3b
00000270: 6254 ba3c 7336 a43b f492 9e3c 56cf 14bd
00000280: 93b9 2abc 7fb8 543c e391 803b 1855 b73c
00000290: c206 b93c ffaf 37bd 7992 c0bb 4940 d73b
000002a0: e66b ecbc 9d31 b6bc 62e1 10bc efbf c2bc
000002b0: f443 b0bc 8443 40bd 78bf 5cbc cf73 bf3b
000002c0: 0bf5 6bbc 3656 54bd c3d3 e93a c5d5 2ebd
000002d0: 6d41 01bc ffbf 10bd 6fa6 0339 b5d9 a3bc
000002e0: ae47 03bd 3804 d33b 4f41 afbb 0fa9 26bd
000002f0: 667a 41bb ea18 d93c 1e7a f13b 8da1 1e3d
00000300: da24 52bc 4231 93bc ee8d 88bc 2c2c 04bd
00000310: 3113 50bc e17f 1a3d e672 1b3d 4e0e 89bb
00000320: 1175 a23d bd7b 83bc e7c2 a9bb f52e 613d
00000330: f712 d73b 074b bcbc f825 853c 2483 3bbd
00000340: d282 a23c 1874 b13b 9bbc edbc 3583 21bd
00000350: e79c aebc 4a8d d73c 5d2c 363c f270 4f3c
00000360: 16a7 58bb 55f1 d4bc 1066 963d 3836 5cbc
00000370: a809 383d a657 523d ab52 f43c 481f ef3c
00000380: 1cee 003c 9edb 5c3c 8fcd afbb c08e 4a3d
00000390: 42e1 c6bc e814 12bc a4fc 02bd de32 7dbc
000003a0: 2599 37bc f705 c13b 2cc2 11bc 133f 97bc
000003b0: c6a0 27bd fe58 1dbd 8817 6ebc 9b7e f43b
000003c0: 6ef9 6fbb 5981 f03c 6ebd 803c 8543 97bc
000003d0: daf4 fe3c 5da9 bfb9 c367 f4bc 7660 483c
000003e0: 0c24 f3ba 3348 2ebc 1da6 863c 6f9c 98bc
000003f0: c4be c83c f8c5 e2bb 1a12 3b3a 400d c1bc

bias f4 [128]
-0.010395763 0.058326636 0.0066207955 0.03102429 -0.061344374 -0.059049696 -0.06079207 -0.020855103
0.018041825 0.08281163 0.033783667 -0.19155997 -0.12462764 -0.07296684 -0.00039730547 -0.029098654
0.03191812 -0.053314377 -0.06694585 -0.03636698 -0.016626675 -0.008659812 0.03384147 -0.06927682
-0.17152476 0.081705526 -0.10083513 0.03024741 0.097338825 -0.26961356 -0.04567688 -0.08153598
-0.0044550286 -0.015984634 -0.12555043 -0.038136583 0.04609368 -0.22365421 0.111060865 0.058748133
0.15901037 3.7480884e-05 -0.0021219174 -0.054106563 0.061492234 0.113221616 -0.011073587 -0.056048457
-0.05947756 -0.1167401 0.06861904 0.05542858 -0.036356933 -0.020768246 0.021069426 0.057901945
0.12949683 0.004273669 0.10037582 -0.0245848 0.20698014 -0.0023510244 0.006917213 -0.022621967
-0.024665324 0.013824349 0.050469987 -0.015210875 0.013043913 -0.041632805 0.02579819 -0.0353702
-0.040310685 0.03999938 0.027494395 -0.0355124 0.045837615 0.119205125 0.019401617 0.04128792
0.02770386 0.013778856 0.040552344 -0.018446967 -0.04656753 0.024272757 0.07000604 -0.0026787654
-0.025665846 -0.03875958 0.06468968 -0.023800224 0.018960238 -0.0027317845 -0.1983268 -0.0075031123
0.006121689 -0.006675901 0.05683339 -0.098484494 -0.17610137 -0.013619978 0.024663148 -0.00012848759
-0.19789986 0.09540316 0.012596165 0.16618027 -0.05899009 0.040174827 -0.08320905 0.084751815
-0.04831524 -0.022636667 -0.10619352 -0.2402578 0.08061366 0.021504976 0.0290578 0.033685505
0.0521005 0.020897653 0.33910045 0.04499559 0.009170367 -0.05806338 0.03542564 -0.0043642037
00000000: fe52 2abc e9e7 6e3d 42f3 d83b a726 fe3c
00000010: 3d44 7bbd 18de 71bd 1b01 79bd 52d8 aabc
00000020: 73cc 933c 2599 a93d be60 0a3d 4c28 44be
00000030: c73c ffbd a36f 95bd 704d d0b9 4d60 eebc
00000040: 93bc 023d 2d60 5abd e81a 89bd 8bf5 14bd
00000050: aa34 88bc e2e1 0dbc 5a9d 0a3d 01e1 8dbd
00000060: 30a4 2fbe 3a55 a73d a682 cebd 6bc9 f73c
00000070: 9459 c73d ca0a 8abe ae17 3bbd 56fc a6bd
00000080: 7dfb 91bb 35f2 82bc 4b90 00be 1b35 1cbd
00000090: bacc 3c3d 9c05 65be e173 e33d e2a1 703d
000000a0: 9dd3 223e cb34 1d38 de0f 0bbb d89e 5dbd
000000b0: 48df 7b3d bce0 e73d fe6d 35bc 1193 65bd
000000c0: be9e 73bd 6f15 efbd 2488 8c3d 1409 633d
000000d0: 02eb 14bd 2b22 aabc ca99 ac3c 972a 6d3d
000000e0: d19a 043e 220a 8c3b d791 cd3d 1066 c9bc
000000f0: 9af2 533e a513 1abb caa9 e23b b451 b9bc
00000100: ef0e cabc 867f 623c 9eb9 4e3d 0937 79bc
00000110: 23b6 553c 2987 2abd ba56 d33c 58e0 10bd
00000120: d11c 25bd 64d6 233d ed3b e13c 7375 11bd
00000130: 39c0 3b3d d121 f43d 24f0 9e3c 861d 293d
00000140: 35f3 e23c b6c0 613c 371a 263d 181e 97bc
00000150: 98bd 3ebd a9d7 c63c 545f 8f3d 3a8e 2fbb
00000160: 2e41 d2bc 5ec2 1ebd 067c 843d b0f8 c2bc
00000170: 8052 9b3c bd07 33bb 2e16 4bbe abdc f5bb
00000180: 7398 c83b 84c1 dabb 21ca 683d 3db2 c9bd
00000190: eb53 34be 5426 5fbc 5f0a ca3c a0ba 06b9
000001a0: 43a6 4abe bb62 c33d 2560 4e3c 292b 2a3e
000001b0: 989f 71bd 5c8e 243d 8269 aabd 5c92 ad3d
000001c0: 33e6 45bd 8870 b9bc fd7b d9bd 2406 76be
000001d0: c618 a53d 342b b03c a00a ee3c d0f9 093d
000001e0: 5567 553d 8e31 ab3c 939e ad3e 4c4d 383d
000001f0: 4f3f 163c ded3 6dbd 7a1a 113d 9801 8fbb

weight f4 [128, 64, 3, 3]
-0.0024272578 -0.011961563 -0.00076825486 -0.0027241667 0.01222132 0.031638023 -0.011270951 0.0035682407
-0.009596793 0.017366244 -0.022301065 -0.011322836 0.0272506 -0.021414833 0.02538861 -0.042933468
-0.0064256466 0.02049916 -0.019381136 -0.020110326 -0.02351855 -0.013459061 -0.020232607 -0.0060039763
-0.01882141 -0.006476022 -0.020754721 -0.017588448 -0.0231323 -0.00079845486 0.01623758 -0.037932027
-0.04887825 0.0072749914 0.027052285 0.020478206 -0.006395723 -0.010189763 0.03143216 0.04478127
-0.009003266 0.026887897 0.0033247606 -0.013245587 -0.022032313 0.0071705403 0.035513613 -0.02751859
-0.010589879 0.008245489 -0.041054577 0.025799872 0.030238517 -0.013545787 -0.027580118 0.0002717886
-0.018061558 0.021593692 0.012255748 0.05064132 -0.07517922 0.010310443 -0.014518184 -0.031756688
-0.010157039 -0.039340045 0.0070884274 -0.02445391 -0.010851462 0.027528454 0.02573823 0.01759349
-0.013604584 0.03526554 0.037814025 0.030218804 0.008140234 -0.0383323 0.028044969 0.024905076
-0.010038272 -0.04737751 0.022358099 0.004655231 0.0011689052 -0.020171918 0.0081140855 -0.034136157
0.006977439 0.018595176 0.04831271 0.03782664 -0.0122111235 -0.031485204 0.021001896 -0.02309429
0.049491677 0.09400078 0.09116861 -0.03305399 -0.02740684 0.00043018247 -0.0214091 -0.021672558
-0.008196467 -0.03907871 -0.049463544 0.019914608 -0.023265205 -0.0320334 0.02266015 -0.04320895
0.027038185 -0.043038793 0.023019543 -0.022766378 -0.015227664 0.01069294 0.014270557 -0.018001912
-0.006362668 0.022276394 -0.017414492 0.011482397 -0.005446845 0.0262344 0.016526014 -0.04026676
0.007279026 0.0037128988 0.016525643 -0.017452188 0.06719028 0.053168673 0.08618177 -0.012149428
0.015787203 0.009554777 0.012427693 0.0028692142 -0.015290945 -0.045419168 -0.023482207 0.041373115
0.004493192 -0.0023934168 -0.03470422 0.013358317 -0.019961944 0.015860124 0.026376491 -0.02837751
-0.01927506 -0.02838337 -0.02517781 0.031085549 0.0038244755 -0.012722793 -0.038288556 0.019992167
0.008052269 -0.015364578 -0.019270603 -0.00042640648 -0.061463743 0.004943801 -0.033719636 -0.051595595
-0.052921966 -0.037045147 -0.06158921 0.008702336 0.0006943387 0.013076519 0.056228142 0.066619836
0.032954905 -0.009062875 0.026513007 0.041988894 -0.014581036 0.029130898 0.012822533 -0.026525898
0.04841655 0.0010578011 -0.07402407 0.049145747 -0.023939166 -0.0036451614 0.0061849384 -0.02316719
-0.0021925636 -0.03253001 -0.02700027 0.02021914 -0.012424299 -0.0018416261 -0.041438494 -0.01357289
0.001706324 -0.06484809 -0.03747129 -0.02429506 0.006654076 0.0036278644 0.044834 -0.02384021
0.05327063 0.07792388 -0.009702163 0.0026258756 0.014350649 0.07979113 0.018492516 0.03772685
-0.0009167042 0.031777445 0.038350515 0.038172685 0.017062545 0.01386556 -0.019389031 0.039856892
-0.014731959 -0.0563763 -0.005285399 0.05944996 -0.017879048 -0.030530686 0.1122761 -0.056256972
0.046616822 0.04259821 0.0040799826 -0.0628764 0.0032652644 0.0021094505 0.010408104 -0.031471174
-0.057322506 -0.05929782 -0.05413212 -0.019795042 -0.071075946 -0.07921125 0.021761667 -0.011487229
-0.039959162 0.023486184 -0.014366128 -0.04887327 -0.0070213373 -0.024512207 0.031828884 -0.044336375
00000000: a112 1fbb 6efa 43bc b664 49ba ef87 32bb
00000010: ee3b 483c df96 013d cba9 38bc 25d9 693b
00000020: de3b 1dbc a743 8e3c b9b0 b6bc 6b83 39bc
00000030: a63c df3c 296e afbc c6fb cf3c 01db 2fbd
00000040: 3b8e d2bb dbed a73c 30c5 9ebc 69be a4bc
00000050: f9a9 c0bc 6583 5cbc dabe a5bc 01bd c4bb
00000060: 5c2f 9abc cf34 d4bb ce05 aabc a615 90bc
00000070: f37f bdbc 664f 51ba ac04 853c 9d5e 1bbd
00000080: 8f34 48bd 0d63 ee3b c19c dd3c e9c1 a73c
00000090: 3793 d1bb f7f2 26bc 02bf 003d 916c 373d
000000a0: 6f82 13bc 0244 dc3c 3ae4 593b 0504 59bc
000000b0: 1c7d b4bc daf6 ea3b b976 113d ab6e e1bc
000000c0: 2c81 2dbc 1618 073c d828 28bd 415a d33c
000000d0: c4b6 f73c 26ef 5dbc b3ef e1bc d97e 8e39
000000e0: d5f5 93bc 41e5 b03c 55cc 483c 466d 4f3d
000000f0: 90f7 99bd 22ed 283c addd 6dbc 4d13 02bd
00000100: b669 26bc 0723 21bd 0a46 e83b 9153 c8bc
00000110: 55ca 31bc 5a83 e13c fbd8 d23c 3920 903c
00000120: c3e5 5ebc 9972 103d e1e2 1a3d 6d8d f73c
00000130: 9e5e 053c 5402 1dbd 90be e53c bb05 cc3c
00000140: 9077 24bc ec0e 42bd 5528 b73c e88a 983b
00000150: f335 993a 943f a5bc f1f0 043c 5bd2 0bbd
00000160: 00a3 e43b e954 983c 8ce3 453d 1bf0 1a3d
00000170: 2a11 48bc a1f6 00bd 2b0c ac3c 3d30 bdbc
00000180: c9b7 4a3d 7b83 c03d 9cb6 ba3d 9f63 07bd
00000190: 4f84 e0bc 1d8a e139 2362 afbc a68a b1bc
000001a0: 794a 06bc ff10 20bd 499a 4abd f623 a33c
000001b0: ac96 bebc 7435 03bd c7a1 b93c defb 30bd
000001c0: 2f7f dd3c 7249 30bd 7b93 bc3c 8e80 babc
000001d0: 747d 79bc 7131 2f3c 0ecf 693c bf78 93bc
000001e0: ed7d d0bb fc7c b63c d6a8 8ebc aa20 3c3c
000001f0: 737b b2bb 86e9 d63c 9061 873c c2ee 24bd
00000200: e584 ee3b 1b54 733b c960 873c e4f7 8ebc
00000210: 0f9b 893d 65c7 593d 1180 b03d 650e 47bc
00000220: 2a54 813c a48b 1c3c 869d 4b3c 6d09 3c3b
00000230: df86 7abc 7309 3abd c25d c0bc db76 293d
00000240: a03b 933b dfda 1cbb 0326 0ebd d8dc 5a3c
00000250: 3b87 a3bc 17ed 813c 8313 d83c f477 e8bc
00000260: bbe6 9dbc 3e84 e8bc b241 cebc 1fa7 fe3c
00000270: 0da4 7a3b 4373 50bc 76d4 1cbd 9dc6 a33c
00000280: aaed 033c b6bb 7bbc 62dd 9dbc 4f8f dfb9
00000290: 68c1 7bbd 9cff a13b 9a1d 0abd e755 53bd
000002a0: b4c4 58bd a7bc 17bd f844 7cbd 3e94 0e3c
000002b0: 4804 363a e53e 563c 7b4f 663d fb6f 883d
000002c0: b9fb 063d 747c 14bc ce31 d93c 8cfc 2b3d
000002d0: 4ce5 6ebc eca3 ee3c 9a15 523c d74c d9bc
000002e0: 6f50 463d eaa5 8a3a ee99 97bd 0d4d 493d
000002f0: 121c c4bc a9e3 6ebb 06ab ca3b 1ec9 bdbc
00000300: 1db1 0fbb 303e 05bd ac2f ddbc 9ca2 a53c
00000310: 498f 4bbc b862 f1ba 69bb 29bd d460 5ebc
00000320: bca6 df3a 13cf 84bd 7f7b 19bd 6f06 c7bc
00000330: 6f0a da3b 77c1 6d3b dba3 373d 8b4c c3bc
00000340: 4e32 5a3d 8e96 9f3d d2f5 1ebc e216 2c3b
00000350: fc1e 6b3c 8869 a33d 9e7d 973c 7887 1a3d
00000360: fa4e 70ba 1129 023d 6e15 1d3d f65a 1c3d
00000370: c0c6 8b3c 602c 633c bfd5 9ebc fb40 233d
00000380: 515e 71bc d6ea 66bd 2431 adbb cd81 733d
00000390: 1577 92bc 7d1b fabc 03f1 e53d b66d 66bd
000003a0: 48f1 3e3d 767b 2e3d 60b1 853b 58c5 80bd
000003b0: 0cfe 553b b53e 0a3b c186 2a3c ebe7 00bd
000003c0: 01cb 6abd 45e2 72bd a4b9 5dbd 3629 a2bc
000003d0: 4490 91bd 8239 a2bd 8645 b23c ee34 3cbc
000003e0: 38ac 23bd 1966 c03c e85f 6bbc 572f 48bd
000003f0: 3f13 e6bb d3cd c8bc 015f 023d 0f9a 35bd

bias f4 [64]
0.03517281 0.0461293 0.22159615 -0.010332206 -0.041086785 0.01940199 -0.004657936 0.037045788
0.028559683 0.01681863 0.013209562 0.064549394 0.054157987 -0.005633574 -0.12988666 0.17902325
0.06963691 0.06494505 0.0025022167 0.03384829 0.017378433 0.102497354 0.050664626 -0.027791979
-0.04310273 0.003530269 0.14039452 0.05129095 -0.009072963 0.2017055 0.0033481435 0.020471292
-0.010637779 0.021839503 0.025812456 0.044805348 0.032224268 0.029623166 0.011198138 0.01983357
0.052684564 0.13379176 0.050096788 0.052220378 -0.043826334 0.03474486 -0.015230634 0.10615851
0.26113328 0.046538815 0.0069403825 -0.0020436284 0.15785953 0.07186201 -0.026619105 0.017514475
0.07671716 0.088946536 0.0019378372 0.010209237 0.010376947 -0.051532567 -0.039496146 -0.011161162
00000000: 5d11 103d 14f2 3c3d 1aea 623e 6a48 29bc
00000010: 9e4a 28bd ecf0 9e3c 99a1 98bb 53bd 173d
00000020: fff5 e93c 39c7 893c eb6c 583c 7932 843d
00000030: c4d4 5d3d d899 b8bb 0201 05be df51 373e
00000040: cc9d 8e3d e901 853d 3bfc 233b 81a4 0a3d
00000050: 375d 8e3c 22ea d13d b685 4f3d 01ac e3bc
00000060: 7d8c 30bd 165c 673b 95c3 0f3e 7616 523d
00000070: c4a6 14bc e38b 4e3e 876c 5b3b 69b3 a73c
00000080: 144a 2ebc c2e8 b23c a574 d33c d085 373d
00000090: 98fd 033d 48ac f23c 6578 373c 037a a23c
000000a0: c5cb 573d b500 093e 4a32 4d3d 09e5 553d
000000b0: 3e83 33bd a050 0e3d e989 79bc a269 d93d
000000c0: 43b3 853e 7c9f 3e3d 266c e33b 65ee 05bb
000000d0: eea5 213e 642c 933d 4f10 dabc 847a 8f3c
000000e0: e31d 9d3d 9a29 b63d 07ff fd3a a544 273c
000000f0: 1204 2a3c d013 53bd b6c6 21bd 4edd 36bc

weight f4 [64, 32, 3, 3]
-0.010323146 0.04301928 0.024696251 -0.016475068 0.05710514 -0.048318546 0.047398783 -0.049313184
-0.04351117 -0.0010709218 0.0047595133 0.027996145 0.036602177 0.010810383 -0.035204794 -0.028075462
0.01764744 0.0031263144 -0.058620308 -9.78788e-05 0.04847 0.03527102 -0.05868008 0.027314167
0.050971624 -0.03992476 -0.009201738 -0.00854786 0.03584161 -0.008286485 0.030175801 0.048611496
-0.038731698 -0.04912311 0.015756948 0.007878513 0.0016846174 -0.060740825 -0.035684884 -0.04796778
-0.03137652 0.027519595 -0.019893762 0.037147127 -0.007193075 0.011578518 0.016266176 0.037450284
-0.0616101 -0.026374364 0.049484007 0.020095158 0.0066411127 0.013939026 -0.019829113 -0.031588055
0.04150724 -0.006826411 -0.03796893 -0.0072812075 -0.05446354 0.042837657 -0.011751369 -0.031796426
-0.03988771 0.04071762 0.0028214501 -0.0065121194 0.04180311 -0.009326319 -0.06264667 -0.009229636
0.0033212863 -0.021835273 -0.040213265 0.038688153 0.04642195 -0.00047959876 -0.051225707 -0.029762855
-0.039389163 -0.018378183 -0.044173297 0.0061376086 0.03937084 0.039330605 0.044300817 -0.049402572
-0.02216275 -0.01362977 -0.039828718 -0.0042767497 -0.07039775 0.029110044 0.01209938 0.008414841
-0.062313866 -0.013385446 0.004011472 0.003258415 -0.013898999 0.031324867 -0.01806981 -0.039230585
0.021262793 0.027145853 0.005153019 -0.056874793 0.03653432 -0.02831679 -0.038361713 0.0022633765
-0.045035183 -0.032877047 -0.024917379 -0.052763645 -0.01567257 -0.07885883 -0.040530894 -0.0688352
-0.030419612 0.048959874 0.037689675 0.00858313 0.007418926 0.021706713 0.05085086 0.0009942366
-0.018232193 -0.029278968 -0.011752984 -0.049250256 0.028962962 -0.019480044 -0.0065976977 0.029779049
-0.039540075 -0.005035142 -0.014793271 -0.04252815 -0.031116983 -0.034129217 0.043539368 0.049005106
-0.0033977993 0.014517592 -0.009948897 -0.004544751 0.0006981277 0.033007506 0.03552952 0.046737567
-0.0030948287 -0.020389354 0.03509034 -0.012041295 0.053538397 0.03275981 -0.012733979 0.022557946
-0.031338632 -0.024816902 0.041812785 -0.041297253 -0.020002939 0.05280377 -0.035407957 -0.00039325128
-0.0018345667 0.041178633 -0.03277262 -0.10844072 -0.089450575 -0.04532586 0.010764415 0.040969554
-0.015740713 0.019667285 0.08397105 0.026818221 -0.0021185894 -0.015262904 0.02873955 -0.0023066713
0.036454756 0.042475928 0.028825525 -0.03991615 0.037176676 -0.014367635 0.009103589 0.033490863
0.0005281722 -0.030620376 -0.000248008 0.017133893 0.056271106 -0.05757874 0.04292453 -0.041329015
0.045037642 -0.044854067 0.026556699 -0.007983676 0.05036303 -0.006500684 -0.035032287 0.029518269
-0.025686972 -0.036767356 0.0082491245 0.010819519 0.0342675 0.0041317916 -0.03997531 -0.02757073
-0.011354836 0.002949124 -0.044794664 0.040323373 0.013581577 -0.059284784 -0.051342454 0.016346898
-0.021897405 0.009645441 0.01662647 0.01802278 -0.037161116 0.054884844 -0.038743414 -0.014229917
0.050205205 -0.017614195 -0.027566265 -0.060221896 -0.010610657 -0.01863949 -0.020002484 -0.053658407
-0.01838572 0.03565708 -0.019379878 -0.024084186 -0.06036635 -0.040889055 -0.0537024 -0.044824775
0.04006012 0.008879339 -0.026077626 0.03196218 -0.045211855 -0.044023592 -0.064933375 -0.04529732
00000000: 6a22 29bc fc34 303d cb4f ca3c b9f6 86bc
00000010: 14e7 693d abe9 45bd 3a25 423d 9ffc 49bd
00000020: c538 32bd 2c5e 8cba b1f5 9b3b 2c58 e53c
00000030: 2aec 153d 081e 313c e732 10bd 83fe e5bc
00000040: 5d91 903c dae2 4c3b d91b 70bd 4844 cdb8
00000050: 7b88 463d 5878 103d 865a 70bd f6c1 df3c
00000060: 9fc7 503d 2588 23bd e3c2 16bc 530c 0cbc
00000070: a7ce 123d 0ac4 07bc 3e33 f73c d91c 473d
00000080: 21a5 1ebd 5035 49bd b714 813c e114 013c
00000090: 61ce dc3a 5fcb 78bd 502a 12bd dd79 44bd
000000a0: aa84 00bd c670 e13c 3ef8 a2bc 9627 183d
000000b0: e3b3 ebbb d3b3 3d3c a540 853c 7865 193d
000000c0: df5a 7cbd 0d0f d8bc beaf 4a3d 9a9e a43c
000000d0: b19d d93b 8360 643c aa70 a2bc 7a62 01bd
000000e0: 7f03 2a3d 16b0 dfbb 4f85 1bbd 3297 eebb
000000f0: 2915 5fbd 8a76 2f3d d088 40bc f83c 02bd
00000100: 4c61 23bd 85c7 263d 14e8 383b 9e63 d5bb
00000110: bd39 2b3d 6bcd 18bc e64c 80bd e637 17bc
00000120: f0a9 593b e3df b2bc aab6 24bd 7877 1e3d
00000130: f124 3e3d a872 fbb9 0cd2 51bd 3bd1 f3bc
00000140: 8856 21bd d88d 96bc 0fef 34bd fe1d c93b
00000150: 5143 213d 2119 213d c674 353d 5a5a 4abd
00000160: a88e b5bc 664f 5fbc 7023 23bd fa23 8cbb
00000170: b22c 90bd 3078 ee3c 7a3c 463c 67de 093c
00000180: d33c 7fbd a14e 5bbc ab72 833b 228b 553b
00000190: a1b8 63bc 814e 003d 2307 94bc 40b0 20bd
000001a0: 4f2f ae3c fb60 de3c a8da a83b 8bf5 68bd
000001b0: 03a5 153d 9df8 e7bc 2c21 1dbd 2855 143b
000001c0: d076 38bd 15aa 06bd 881f ccbc b11e 58bd
000001d0: c363 80bc bd80 a1bd b903 26bd 78f9 8cbd
000001e0: 8d32 f9bc 268a 483d 7d60 1a3d 42a0 0c3c
000001f0: 761a f33b 47d2 b13c fe48 503d 0b51 823a
00000200: ae5b 95bc 72da efbc 968f 40bc a3ba 49bd
00000210: bc43 ed3c 9d94 9fbc 8031 d8bb 31f3 f33c
00000220: c6f4 21bd d5fd a4bb 7a5f 72bc ff31 2ebd
00000230: 0be9 febc 14cb 0bbd 5656 323d 94b9 483d
00000240: 9dad 5ebb 32db 6d3c b300 23bc 22ec 94bb
00000250: 8f02 373a e132 073d 6787 113d e46f 3f3d
00000260: 9cd2 4abb 9307 a7bc e3ba 0f3d da48 45bc
00000270: 144b 5b3d 272f 063d 2ea2 50bc 71cb b83c
00000280: f05c 00bd d14c cbbc e243 2b3d 4f27 29bd
00000290: 34dd a3bc c448 583d ef07 11bd 4b2d ceb9
000002a0: d875 f0ba edaa 283d 953c 06bd 2b16 debd
000002b0: dd31 b7bd 9ca7 39bd 3b5d 303c b1cf 273d
000002c0: abf2 80bc 491d a13c 04f9 ab3d e3b1 db3c
000002d0: 08d8 0abb 4211 7abc 346f eb3c 862b 17bb
000002e0: 9551 153d 3dfb 2d3d 8223 ec3c 1e7f 23bd
000002f0: 9246 183d 3b66 6bbc 3827 153c b72d 093d
00000300: 0975 0a3a 95d7 fabc 1207 82b9 615c 8c3c
00000310: 887c 663d afd7 6bbd a2d1 2f3d 9d48 29bd
00000320: 6479 383d e6b8 37bd 6f8d d93c f7cd 02bc
00000330: 7749 4e3d b103 d5bb 047e 0fbd 4cd0 f13c
00000340: 7c6d d2bc 5e99 16bd 5627 073c 5a44 313c
00000350: 145c 0c3d fb63 873b 27bd 23bd 03dc e1bc
00000360: a209 3abc 1746 413b 9c7a 37bd 1f2a 253d
00000370: 4385 5e3c 9ad4 72bd 774c 52bd eee9 853c
00000380: 3062 b3bc e907 1e3c 3c34 883c 82a4 933c
00000390: 4136 18bd eece 603d 6ab1 1ebd 9924 69bc
000003a0: f9a3 4d3d a54b 90bc a6d2 e1bc 3cab 76bd
000003b0: 52d8 2dbc d8b1 98bc 40dc a3bc ebc8 5bbd
000003c0: a69d 96bc 290d 123d 8dc2 9ebc 334c c5bc
000003d0: b542 77bd 487b 27bd 0cf7 5bbd 2f9a 37bd
000003e0: 1516 243d a67a 113c bfa0 d5bc c6ea 023d
000003f0: 1130 39bd 1552 34bd cafb 84bd af89 39bd

bias f4 [32]
-0.069712505 0.06715114 0.039304446 -0.05763092 0.05843161 0.017344238 -0.06802836 -0.051661834
-0.043254543 0.034861136 0.023669124 0.07987669 -0.063139334 0.0888078 0.036531843 0.0029285592
-0.019873729 -0.024027428 -0.029741757 0.014745908 -0.058033127 -0.0010906677 -0.010538633 -0.0026464323
0.051366415 -0.029320762 0.00087003846 -0.05441766 -0.06674493 0.067041524 -0.034162294 -0.057994355
00000000: 6ec5 8ebd 8986 893d b3fd 203d 660e 6cbd
00000010: fc55 6f3d 8115 8e3c 7452 8bbd 5c9b 53bd
00000020: ad2b 31bd 8dca 0e3d c0e5 c13c 6496 a33d
00000030: 324f 81bd dde0 b53d 6aa2 153d 12ed 3f3b
00000040: 3bce a2bc 2bd5 c4bc fca4 f3bc d298 713c
00000050: 25b4 6dbd bcf4 8eba 3baa 2cbc c46f 2dbb
00000060: 9765 523d 1832 f0bc 4b13 643a 0de5 5ebd
00000070: 91b1 88bd 114d 893d c3ed 0bbd 7d8b 6dbd

weight f4 [32, 1, 3, 3]
-0.038813625 0.30730593 -0.17659496 -0.15268388 -0.039678454 -0.2630246 0.12462812 0.052739244
-0.06647931 0.089289926 -0.008402113 0.1876325 -0.16873491 -0.01571581 0.1728851 0.2003352
0.0006488049 -0.16168693 -0.23879203 -0.023153378 0.0801808 0.22712511 -0.115420684 0.30298093
0.06278042 0.1743427 -0.1472304 0.070546724 -0.22480987 -0.031662446 -0.21395782 -0.16690163
0.20419814 -0.15288445 0.2512037 -0.19212766 -0.1942766 -0.17590635 0.25876158 0.22689092
0.2703521 -0.05025656 0.1983475 -0.20883738 -0.006694972 -0.09688089 0.24861407 -0.23664226
0.2550589 0.26305196 0.027276311 0.22953504 0.021181302 -0.26945826 -0.2759673 -0.05589232
-0.26860863 -0.15404986 0.0105555495 0.3625219 -0.0434188 0.3733565 0.009797935 0.13427387
-0.16260931 -0.22993386 -0.20900224 0.13990317 -0.20372804 -0.10944118 -0.08024536 0.2573081
-0.16229746 -0.25192848 -0.27267265 0.27942258 0.0005440797 0.009821226 -0.114817426 -0.12881926
-0.27231273 0.022654379 0.28744665 0.06274928 -0.11955215 -0.0039166533 0.3118416 0.16442776
-0.029544149 -0.15939242 0.1897266 -0.1794049 -0.05340721 0.00035759664 0.086242944 -0.23880337
-0.062129553 -0.23075405 -0.29365507 -0.19200549 0.3157194 0.24566096 -0.23388395 0.19618091
0.2708973 -0.2628265 -0.06395106 -0.2627447 0.28552505 -0.19251734 -0.17049749 0.07163958
-0.15530948 -0.20081158 -0.19995783 -0.2728649 -0.24347562 0.13118878 0.075726114 0.3244501
0.22409661 -0.14601116 0.14584571 0.3042724 -0.20755786 0.20678228 -0.046215586 0.2240351
-0.0036475516 0.2732986 0.2714605 -0.2310936 0.08318645 -0.101933666 -0.23346677 0.15164833
0.3272094 0.09305035 0.039434854 0.2615898 0.056653116 0.17467047 0.2776714 0.20648807
0.01839836 0.18177871 0.051313892 0.3082082 0.21258053 -0.045844592 -0.1479909 -0.2271729
0.27347684 0.057284135 0.18557315 -0.03133044 -0.054355495 0.26089463 0.07520692 -0.09996287
-0.20019439 -0.29043 0.052716352 0.14944239 -0.08298587 0.31584716 -0.24849352 -0.20120685
0.16252582 0.010067095 0.04406198 -0.021635586 -0.05329794 0.13211763 0.1845038 0.33120885
0.18327245 -0.02967777 -0.14869191 -0.059217133 -0.10523295 -0.16502814 -0.16896594 -0.02560277
0.06617212 -0.14712557 0.31578773 0.14577055 -0.09979409 -0.15720455 -0.28635132 0.22958027
0.046624452 -0.24773866 0.2237909 -0.22459057 -0.15573886 0.10641574 -0.28938565 -0.28817433
0.030845435 -0.24490508 0.31133682 0.3058933 0.0714257 -0.24681535 0.16970171 -0.20395558
-0.19017632 0.1306667 0.14624052 -0.26997295 0.071557015 0.2377051 -0.003363749 0.13938545
0.27954543 0.30839297 -0.23430428 -0.3110744 0.22333585 0.112050876 -0.28034335 0.1357451
0.07238527 0.080993615 -0.017192904 0.21821244 -0.25966975 -0.16995491 0.23057838 -0.22446999
-0.12744156 -0.010715112 -0.28453615 0.14011067 -0.31395546 0.19748683 -0.22748844 0.047417097
-0.1277647 -0.22211614 -0.0057266583 0.20616549 0.104930736 -0.30738154 0.031633567 -0.31890061
-0.2602569 -0.30642873 -0.12772882 0.32465476 -0.24120852 -0.28973314 -0.06932539 -0.079707235
00000000: 09fb 1ebd 3457 9d3e 4fd5 34be 2a59 1cbe
00000010: e085 22bd 29ab 86be 073d ff3d 1b05 583d
00000020: 4e26 88bd a3dd b63d 04a9 09bc bc22 403e
00000030: d8c8 2cbe 71be 80bc cb08 313e ac24 4d3e
00000040: 8f14 2a3a 4291 25be e685 74be 27ac bdbc
00000050: d535 a43d 7c93 683e ae61 ecbd 5120 9b3e
00000060: 0593 803d e586 323e 91c3 16be cd7a 903d
00000070: 8f34 66be 7bb0 01bd c217 5bbe 43e8 2abe
00000080: 5119 513e be8d 1cbe c59d 803e 1dbd 44be
00000090: 72f0 46be cb20 34be 667c 843e 1856 683e
000000a0: 976b 8a3e d3d9 4dbd 9b1b 4b3e 77d9 55be
000000b0: 7f61 dbbb 7d69 c6bd b094 7e3e 5952 72be
000000c0: 1597 823e bfae 863e 9272 df3c 3c0b 6b3e
000000d0: 6984 ad3c 6ff6 89be 964b 8dbe 58ef 64bd
000000e0: 1287 89be 3fbf 1dbe 2ff1 2c3c 789c b93e
000000f0: e9d7 31bd 9528 bf3e 8587 203c 177f 093e
00000100: 0e83 26be c873 6bbe af04 56be c742 0f3e
00000110: 159e 50be b322 e0bd ae57 a4bd e3bd 833e
00000120: 4e31 26be c5fc 80be c09b 8bbe 7a10 8f3e
00000130: 92a0 0e3a 35e9 203c 6625 ebbd 32e9 03be
00000140: 936c 8bbe ad95 b93c 352c 933e b282 803d
00000150: c2d7 f4bd 4557 80bb b4a9 9f3e c05f 283e
00000160: 9206 f2bc c437 23be b147 423e ebb5 37be
00000170: 85c1 5abd cf7b bb39 24a0 b03d df88 74be
00000180: 8f7b 7ebd ca4a 6cbe f559 96be 169d 44be
00000190: f9a5 a13e 8c8e 7b3e 467f 6fbe a6e3 483e
000001a0: 0db3 8a3e 3291 86be c6f8 82bd 7986 86be
000001b0: 5730 923e 4423 45be e596 2ebe c6b7 923d
000001c0: 7309 1fbe 8da1 4dbe bfc1 4cbe f3b4 8bbe
000001d0: ac51 79be 5a56 063e 4b16 9b3d 531e a63e
000001e0: 9579 653e f383 15be 9458 153e 98c9 9b3e
000001f0: 0c8a 54be bcbe 533e 8e4c 3dbd 7569 653e
00000200: c30b 6fbb cbed 8b3e dffc 8a3e cda3 6cbe
00000210: a85d aa3d 99c2 d0bd ea11 6fbe b349 1b3e
00000220: fe87 a73e 2f91 be3d 7186 213d 19ef 853e
00000230: 190d 683d d1dc 323e f22a 8e3e 9c71 533e
00000240: 28b8 963c 3324 3a3e 842e 523d 77cd 9d3e
00000250: b6ae 593e 8ac7 3bbd ed8a 17be 03a0 68be
00000260: 2805 8c3e c5a2 6a3d e306 3e3e 5954 00bd
00000270: dea3 5ebd fb93 853e 1606 9a3d 55b9 ccbd
00000280: c2ff 4cbe 3eb3 94be 1aed 573d 6d07 193e
00000290: 7ff4 a9bd b8b6 a13e 1675 7ebe 2b09 4ebe
000002a0: 2b6d 263e 75f0 243c 567a 343d 1d3d b1bc
000002b0: f14e 5abd d849 073e 90ee 3c3e 3594 a93e
000002c0: c6ab 3b3e cb1e f3bc b142 18be aa8d 72bd
000002d0: 5f84 d7bd 23fd 28be 6805 2dbe e6bc d1bc
000002e0: 4085 873d 16a8 16be eeae a13e e044 153e
000002f0: d860 ccbd 3bfa 20be a49c 92be 1717 6b3e
00000300: 48f9 3e3d 34af 7dbe 7129 653e 12fb 65be
00000310: 027a 1fbe 7ff0 d93d 5b2a 94be 968b 93be
00000320: 91af fc3c 66c8 7abe 8a67 9f3e 0c9e 9c3e
00000330: a347 923d 2abd 7cbe 49c6 2d3e bbd9 50be
00000340: 95bd 42be 7ecd 053e 13c0 153e e539 8abe
00000350: 7c8c 923d f768 733e 5872 5cbb 0fbb 0e3e
00000360: 9420 8f3e afe5 9d3e 76ed 6fbe 2545 9fbe
00000370: 27b2 643e ee7a e53d 2a89 8fbe c300 0b3e
00000380: ba3e 943d fbdf a53d 22d8 8cbc 1573 5f3e
00000390: 6ff3 84be a908 2ebe bd1c 6c3e 76db 65be
000003a0: 0a80 02be 708e 2fbc b9ae 91be 2c79 0f3e
000003b0: c5be a0be fd39 4a3e bbf2 68be 6e38 423d
000003c0: c0d4 02be 6a72 63be b1a6 bbbb 0c1d 533e
000003d0: ede5 d63d 1d61 9dbe 3392 013d f146 a3be
000003e0: 6440 85be 3ae4 9cbe 58cb 02be 2639 a63e
000003f0: 5eff 76be e757 94be 78fa 8dbd 8c3d a3bd
