models/60.pt (torch, 837106 bytes, 17 tensors)

weight f4 [32, 1, 3, 3]
-0.057873867 0.017477 0.08653206 -0.25961372 0.18382798 -0.20294079 0.2651857 -0.23474412
-0.24209683 0.03006408 0.17057699 -0.097579695 -0.13625588 0.13943185 0.101309076 0.27019015
-0.08853148 -0.23654376 -0.20016332 0.0891157 -0.31191573 0.12762746 0.18765017 0.2296601
0.11034068 -0.12310868 -0.16038969 -0.18348545 0.31910402 -0.05585537 -0.08938597 -0.099553734
0.256347 0.24096665 -0.038063385 0.1878235 0.32138833 -0.103722245 -0.10257104 0.29595518
0.16743656 -0.07922727 0.29423136 0.1378379 0.025023239 0.3044147 0.29011288 -0.14696664
0.06587925 -0.12416308 0.18905662 -0.13770945 -0.2231163 0.21261792 -0.13233727 0.006586526
0.28326952 -0.23761098 -0.08160586 0.10420898 0.12910528 -0.34655473 0.04842255 0.0965403
0.12730327 0.21038406 -0.15748863 0.32621798 0.07502268 -0.09306138 0.07245802 -0.1767026
-0.18735291 -0.20181467 -0.1470615 0.19491373 -0.09161888 -0.23930356 0.2570185 -0.26856726
0.014726369 0.26960155 0.20101565 -0.18223701 0.30230075 0.23358688 0.32560208 -0.12621747
-0.008916018 -0.28656098 -0.35190168 0.07887362 0.0048803035 0.13405715 -0.1477208 0.11404798
0.27166206 -0.3428581 0.20816368 0.073221005 -0.04519601 0.1427749 0.27187255 -0.25437528
-0.28048703 -0.066097766 -0.105777204 0.13197368 0.052442472 -0.16140613 -0.23052832 0.20152318
-0.21616851 0.037714347 0.15129688 -0.22321583 -0.2566328 0.29817492 0.23077558 -0.083663635
-0.22982787 -0.30097005 -0.22079085 0.24160214 -0.23352422 -0.20800324 -0.24235237 0.21635118
-0.27142316 0.25538787 -0.19371843 0.2824715 -0.24919099 0.18592033 -0.21503592 -0.09196445
0.25206044 -0.043498788 0.24689007 -0.24479309 -0.39270043 -0.022863159 0.23041655 -0.12913643
-0.30160603 0.17738834 0.028515436 -0.012760679 -0.16455667 -0.3090054 0.28833333 0.05502858
0.035183687 0.28397593 -0.26585856 -0.26023465 0.057375617 0.094607264 0.043921247 -0.1871879
0.21991572 0.2863519 0.09718701 0.30547053 0.00028375004 0.10536954 0.21916594 -0.13437648
0.25104877 0.21221372 -0.08610119 -0.12029445 -0.1472891 -0.1618951 0.3281252 -0.12217281
0.17447825 -0.31034726 -0.094725214 0.030007023 -0.13364528 -0.23618051 -0.043609243 0.27153903
0.19541666 0.28682238 -0.22174123 0.08596144 0.09435363 0.1403753 0.13503641 -0.24882314
-0.10734326 0.19582269 -0.09288869 -0.0755206 0.11003974 -0.059322342 0.039233953 -0.32623115
-0.11076966 0.12509975 -0.11718594 0.07169903 0.2766572 0.20966999 0.28098178 0.16045505
-0.0625511 -0.14957711 -0.23304966 0.094633624 -0.34229058 0.19817977 0.0923586 -0.07475333
0.09606131 -0.09745641 -0.14352542 -0.30111092 -0.09304207 -0.09757865 0.033640474 0.29926142
-0.12930685 0.23059838 0.12968412 0.03134557 -0.26376286 -0.18187639 0.21788698 -0.3016727
0.19150731 -0.18855312 0.06079934 0.17752607 -0.2397322 0.23673332 0.14733541 -0.2119908
-0.0019122194 -0.24431045 0.038578108 0.21025537 0.14074466 -0.25006244 -0.053375203 -0.26759666
0.20007099 -0.082973905 0.0747968 -0.21374843 -0.11356514 -0.23517433 -0.29638267 0.30204698
00000000: 260d 6dbd ed2b 8f3c b837 b13d 17ec 84be
00000010: 673d 3c3e b6cf 4fbe 6cc6 873e c360 70be
00000020: 3be8 77be f248 f63c bcab 2e3e ddd7 c7bd
00000030: a986 0bbe 39c7 0e3e 227b cf3d 5d56 8a3e
00000040: fe4f b5bd 8738 72be 9df7 4cbe 4b82 b63d
00000050: 6bb3 9fbe c6b0 023e 5e27 403e 042c 6b3e
00000060: 4bfa e13d 6720 fcbd 323d 24be 9ce3 3bbe
00000070: 9a61 a33e 9ac8 64bd fe0f b7bd d4e2 cbbd
00000080: ea3f 833e f6bf 763e 5ae8 1bbd ce54 403e
00000090: 038d a43e 546c d4bd c410 d2bd 7087 973e
000000a0: 7d74 2b3e e841 a2bd 7ea5 963e 6125 0d3e
000000b0: 89fd cc3c 3edc 9b3e ad89 943e 6c7e 16be
000000c0: b3eb 863d 3649 febd 0f98 413e b503 0dbe
000000d0: 9978 64be 83b8 593e 6c83 07be c9d3 d73b
000000e0: b408 913e 4b50 73be f920 a7bd 856b d53d
000000f0: 2d34 043e 9f6f b1be b956 463d ecb6 c53d
00000100: ca5b 023e eb6e 573e b344 21be 0b06 a73e
00000110: 7ea5 993d f796 bebd df64 943d 87f1 34be
00000120: 71d9 3fbe 81a8 4ebe 4a97 16be 7797 473e
00000130: aea2 bbbd fe0b 75be ee97 833e a681 89be
00000140: de46 713c 3709 8a3e 0cd7 4d3e 579c 3abe
00000150: 2ac7 9a3e 6631 6f3e 51b5 a63e 273f 01be
00000160: 7d14 12bc 1fb8 92be 752c b4be 7e88 a13d
00000170: f4ea 9f3b 4746 093e 1f44 17be fd91 e93d
00000180: 4a17 8b3e 198b afbe dc28 553e e5f4 953d
00000190: 741f 39bd 9533 123e e132 8b3e 7a3d 82be
000001a0: ff9b 8fbe 445e 87bd b8a1 d8bd 1c24 073e
000001b0: ebcd 563d a647 25be 9e0f 6cbe 185c 4e3e
000001c0: 475b 5dbe 5c7a 1a3d 92ed 1a3e b192 64be
000001d0: 6065 83be 62aa 983e 6f50 6c3e d757 abbd
000001e0: ff57 6bbe bf18 9abe ff16 62be 8d66 773e
000001f0: f920 6fbe cdfe 54be 382b 78be 2a8b 5d3e
00000200: faf7 8abe 33c2 823e 205e 46be 1ba0 903e
00000210: ec2b 7fbe e661 3e3e 6032 5cbe dc57 bcbd
00000220: 110e 813e c92b 32bd c0d0 7c3e 0aab 7abe
00000230: 0810 c9be 854b bbbc 51f2 6b3e 573c 04be
00000240: 1b6c 9abe 4aa5 353e 3499 e93c 2b12 51bc
00000250: 8b81 28be f535 9ebe 6da0 933e a665 613d
00000260: c51c 103d 4b65 913e 9d1e 88be 7a3d 85be
00000270: b202 6b3d 74c1 c13d c4e6 333d 2fae 3fbe
00000280: 9631 613e b79c 923e fc09 c73d a266 9c3e
00000290: 49c4 9439 fccb d73d 096d 603e fd99 09be
000002a0: 7789 803e 8e4e 593e d255 b0bd f05c f6bd
000002b0: f4d2 16be d4c7 25be 0700 a83e bd35 fabd
000002c0: 6daa 323e d6e5 9ebe 4bff c1bd 4ad1 f53c
000002d0: 4fda 08be 4ed9 71be 9b9f 32bd 2a07 8b3e
000002e0: 4e1b 483e 62da 923e 2210 63be 8d0c b03d
000002f0: 7a3c c13d 8bbe 0f3e fc46 0a3e 7ecb 7ebe
00000300: c8d6 dbbd be85 483e 6d3c bebd 8baa 9abd
00000310: 845c e13d fcfb 72bd c8b3 203d c507 a7be
00000320: 34db e2bd 261a 003e 2fff efbd f1d6 923d
00000330: 03a6 8d3e bbb3 563e d8dc 8f3e 544e 243e
00000340: cb1a 80bd be2a 19be 92a4 6ebe 46cf c13d
00000350: b640 afbe a3ef 4a3e 8126 bd3d 4618 99bd
00000360: cbbb c43d 3a97 c7bd 54f8 12be 362b 9abe
00000370: d78c bebd 51d7 c7bd 98ca 093d cb38 993e
00000380: 0469 04be fb21 6c3e eacb 043e 3664 003d
00000390: ed0b 87be ce3d 3abe c41d 5f3e d874 9abe
000003a0: 7e1a 443e 1214 41be bb08 793d 65c9 353e
000003b0: 5c7c 75be 386a 723e 18df 163e 1e14 59be
000003c0: 70a3 faba 852c 7abe 1404 1e3d 2f4d 573e
000003d0: 5e1f 103e 2f08 80be f59f 5abd 6e02 89be
000003e0: 69df 4c3e 39ee a9bd 112f 993d dee0 5abe
000003f0: d794 e8bd 8ad1 70be 78bf 97be e7a5 9a3e

bias f4 [32]
0.08704616 0.099203184 0.090146735 -0.29614308 0.31760645 -0.053779542 -0.06851457 0.21510056
0.34358576 -0.023823917 -0.213195 0.28739384 0.0732023 0.23416877 0.12563124 0.24771766
-0.1334338 -0.07090605 -0.045876704 0.24097003 -0.26401722 -0.20765398 0.035411164 0.1240848
0.18378054 0.070579015 0.061066747 -0.027544888 -0.24919696 -0.10642008 -0.10329549 0.09674296
00000000: 4245 b23d 0a2b cb3d da9e b83d 11a0 97be
00000010: 509d a23e f047 5cbd 5e51 8cbd 5243 5c3e
00000020: 79ea af3e 602a c3bc ca4f 5abe 4925 933e
00000030: 16eb 953d f0c9 6f3e 7aa5 003e b3a9 7d3e
00000040: dfa2 08be 3137 91bd 36e9 3bbd d9c0 763e
00000050: 442d 87be 3fa3 54be 4c0b 113d 2c20 fe3d
00000060: f730 3c3e bb8b 903d 2021 7a3d d1a5 e1bc
00000070: 7d2d 7fbe c5f2 d9bd 968c d3bd 2c21 c63d

weight f4 [64, 32, 3, 3]
0.029858591 0.00468632 -0.08563921 -0.015787836 0.00063050736 0.007368317 0.01383409 -0.052598838
0.02308414 -0.011924266 -0.006595193 0.07201851 0.043229483 0.0038418737 -0.043675914 0.06204645
0.029862516 0.017274538 -0.009132694 0.0064451196 0.041707523 0.032541104 0.008672049 -0.053212162
-0.035987258 0.041937232 0.049327288 0.011586694 -0.022057192 -0.038756404 0.019442042 -0.049418893
-0.0048096753 -0.011289353 0.05585031 0.024075788 -0.0008444391 0.025311014 -0.053644624 -0.0575183
-0.05133341 -0.013798352 -0.04899967 -0.0040160306 0.034998532 -0.012423894 0.013421165 -0.021547766
0.0030766584 0.044952463 0.05746755 0.042850506 0.051558655 0.07146395 0.04911566 -0.038373277
-0.013970858 -0.03979535 0.028107252 -0.030610038 0.011084819 0.0150600495 0.05352567 -0.054190654
-0.039864093 -0.013925581 -0.027823316 -0.041683204 0.02349153 0.029326027 0.015366385 -0.05038284
0.0012335212 0.021923691 -0.11056859 0.007042713 -0.012634481 -0.10595629 -0.0075014196 -0.08112723
-0.12298086 0.046971947 -0.021073693 0.009855867 0.03602626 -0.024527447 -0.024173265 -0.04858791
0.025636831 -0.0368476 -0.032207754 0.005998783 0.012546149 0.01033227 0.029201308 -0.038398862
-0.010754465 0.013621164 -0.005819859 -0.017878912 0.004688824 0.075168684 0.0024636888 0.042702746
0.101580754 0.05428764 0.02800742 0.09075316 -0.043476056 0.044320364 -0.011862322 -0.049484354
-0.048539706 -0.12208325 -0.013479847 -0.10795676 -0.11649212 -0.057686895 -0.00015293101 -0.08406756
0.0101522915 0.04297248 -0.038843583 -0.008668582 -9.703431e-05 -0.012662154 0.040162485 -0.018196639
0.11114204 0.039096106 -0.034818444 0.06930923 0.021262176 0.09040377 0.14421964 -0.02969065
0.013595991 -0.023170605 0.00517693 -0.01960814 -0.0004048438 -0.01553957 0.018709078 -0.040720213
0.016405165 0.026932955 0.06802719 0.041313004 0.0061915955 0.050963804 0.046323497 0.04765155
-0.018559135 -0.048885934 -0.021178378 0.02282684 -0.007055077 -0.010377666 -0.04737411 -0.013013924
0.049957957 0.004241501 -0.04924008 0.034477763 0.025573403 0.022658898 -0.03924081 -0.02019969
-0.020628126 0.0040921313 0.012274426 -0.020608755 -0.0042100507 0.044045508 -0.005885004 0.029071325
-0.007847019 0.007877332 0.05655307 0.025576124 -0.036542397 -0.03148047 0.06413046 -0.0051294453
-0.02253769 -0.014304107 0.0245105 -0.058373544 -0.030499212 0.014421632 0.022308266 -0.009042517
-0.046880845 -0.049930118 -0.02658246 0.026975097 -0.030270943 0.055687115 0.05368525 -0.044304874
-0.010981652 0.035325665 0.04404248 0.027450575 0.0021525517 0.056698654 -0.036540538 0.03372676
-0.022299578 -0.06435794 0.030878427 0.032443084 -0.042373996 -0.0010710136 0.021863716 0.021329585
0.03639031 -0.058554273 -0.034345794 -0.052695267 -0.0049137846 0.009969304 0.06350288 -0.0031641882
0.11398169 0.038570758 -0.034177687 0.0178359 -0.034077164 0.008378524 0.07635245 0.0852918
0.019554127 0.0075363275 -0.026842969 -0.0311287 0.0073227216 -0.0437096 -0.030570215 0.05911695
-0.013720186 -0.019004716 0.04509275 0.01834885 0.05069795 0.13264734 0.028345294 0.03583704
-0.008192104 0.0649656 0.010998952 0.10628497 0.057156 0.010490895 0.032331124 -0.03854737
00000000: 019a f43c b48f 993b 9c63 afbd 7e55 81bc
00000010: a248 253a ec71 f13b 61a8 623c e171 57bd
00000020: f31a bd3c ff5d 43bc 7d1c d8bb 717e 933d
00000030: 6611 313d f2c7 7b3b 84e5 32bd 6b24 7e3d
00000040: 3ca2 f43c 5583 8d3c 4ca1 15bc 9531 d33b
00000050: 82d5 2a3d d249 053d 3615 0e3c fff4 59bd
00000060: 6067 13bd 60c6 2b3d 690b 4a3d 1ed6 3d3c
00000070: 49b1 b4bc 09bf 1ebd eb44 9f3c 776b 4abd
00000080: 7b9a 9dbb faf6 38bc 4bc3 643d 963a c53c
00000090: 595d 5dba 0b59 cf3c 77ba 5bbd 4f98 6bbd
000000a0: fb42 52bd 7c12 62bc e1b3 48bd e898 83bb
000000b0: 9f5a 0f3d 978d 4bbc 72e4 5b3c f184 b0bc
000000c0: c3a1 493b 1320 383d 1863 6b3d 0384 2f3d
000000d0: 2b2f 533d b15b 923d 812d 493d 4c2d 1dbd
000000e0: 07e6 64bc 7300 23bd 2e41 e63c e7c1 fabc
000000f0: 1a9d 353c 6dbe 763c bc3d 5b3d 05f7 5dbd
00000100: 8848 23bd 1f28 64bc b9ed e3bc 02bc 2abd
00000110: 4f71 c03c 233d f03c 4ac3 7b3c 3d5e 4ebd
00000120: 1aae a13a 5099 b33c c971 e2bd 8fc6 e63b
00000130: db00 4fbc 9dff d8bd 78ce f5bb 0826 a6bd
00000140: 64dd fbbd a865 403d bda2 acbc 817a 213c
00000150: 4690 133d c9ed c8bc 0307 c6bc 1e04 47bd
00000160: 5504 d23c 82ed 16bd 47ec 03bd 7091 c43b
00000170: 5d8e 4d3c ae48 293c 9537 ef3c 2048 1dbd
00000180: 7f33 30bc 4d2b 5f3c 84b4 bebb cc76 92bc
00000190: b5a4 993b 0af2 993d d775 213b 13e9 2e3d
000001a0: 9209 d03d b75c 5e3d d16f e53c cbdc b93d
000001b0: f313 32bd 4589 353d 2f5a 42bc 1bb0 4abd
000001c0: 92d1 46bd c806 fabd 94da 5cbc 6f18 ddbd
000001d0: 6c93 eebd 1849 6cbd 1b5c 20b9 9d2b acbd
000001e0: cc55 263c e903 303d 731a 1fbd ab06 0ebc
000001f0: e67e cbb8 ec74 4fbc 6b81 243d 1e11 95bc
00000200: 709e e33d 3d23 203d c99d 0ebd fff1 8d3d
00000210: 042e ae3c 9d25 b93d 50ae 133e ce39 f3bc
00000220: b8c1 5e3c 48d0 bdbc 3da3 a93b 40a1 a0bc
00000230: 3741 d4b9 ae99 7ebc c843 993c 3dca 26bd
00000240: 2064 863c 80a2 dc3c d751 8b3d d337 293d
00000250: dee2 ca3b 6cbf 503d b5bd 3d3d 462e 433d
00000260: 5409 98bc 9e3c 48bd 477e adbc 5aff ba3c
00000270: 462e e7bb 1607 2abc 5b0b 42bd 5a38 55bc
00000280: b7a0 4c3d 4afc 8a3b f7af 49bd 8e38 0d3d
00000290: 507f d13c 279f b93c f9ba 20bd d279 a5bc
000002a0: 51fc a8bc 4917 863b ad1a 493c b1d3 a8bc
000002b0: 77f4 89bb 1069 343d fed6 c0bb fd26 ee3c
000002c0: c890 00bc ed0f 013c 31a4 673d 0585 d13c
000002d0: 7bad 15bd aaf1 00bd d556 833d e814 a8bb
000002e0: f6a0 b8bc c65b 6abc 3eca c83c 1919 6fbd
000002f0: 7cd9 f9bc b548 6c3c d3bf b63c 1127 14bc
00000300: 2106 40bd 8683 4cbd 76c3 d9bc e1fa dc3c
00000310: c5fa f7bc 2c18 643d 11e5 5b3d 0779 35bd
00000320: 63ec 33bc a5b1 103d e365 343d 07e0 e03c
00000330: d311 0d3b d93c 683d 88ab 15bd 1225 0a3d
00000340: 9bad b6bc 18ce 83bd c1f4 fc3c 0ae3 043d
00000350: 5b90 2dbd 4161 8cba 891b b33c 62bb ae3c
00000360: 010e 153d 9bd6 6fbd 2dae 0cbd fed6 57bd
00000370: d003 a1bb 4b56 233c cc0d 823d 455e 4fbb
00000380: 3b6f e93d 5ffc 1d3d e7fd 0bbd 981c 923c
00000390: 7f94 0bbd 1446 093c ac5e 9c3d 78ad ae3d
000003a0: fa2f a03c 4cf3 f63b c9e5 dbbc 9e01 ffbc
000003b0: 71f3 ef3b d608 33bd 636e fabc 9d24 723d
000003c0: a2ca 60bc c7af 9bbc 2db3 383d 5450 963c
000003d0: a7a8 4f3d b4d4 073e 6434 e83c dcc9 123d
000003e0: 2d38 06bc af0c 853d f334 343c efab d93d
000003f0: 691c 6a3d 01e2 2b3c a46d 043d d9e3 1dbd

bias f4 [64]
0.012179393 0.06191852 0.05551664 -0.04776587 0.044921763 0.033080827 -0.038810745 -0.013196201
-0.14319998 0.25505716 0.07916874 0.16940238 -0.16148496 0.08754605 0.03472559 0.25510383
0.13402815 0.24314955 0.013410548 0.017161896 -0.041520398 -0.043812267 -0.06098372 0.08293211
-0.09813654 0.09670676 0.06516844 -0.028190043 0.13995081 -0.107185416 0.118356414 0.07827776
0.06154121 -0.048831943 -0.018247545 -0.22377793 0.0459507 0.0002584157 0.073173024 0.10338658
0.054687284 -0.062061347 -0.011067892 0.028384563 0.021579135 0.073854834 -0.039805736 -0.03656348
-0.14222544 0.16598755 -0.032279387 0.045332137 0.045678057 0.04836123 0.07170865 0.024707709
-0.012384883 0.14851251 0.0025397567 -0.03546778 -0.064594224 0.044493884 -0.10168363 0.06254781
00000000: 148c 473c 469e 7d3d 6b65 633d 25a6 43bd
00000010: e2ff 373d c37f 073d 04f8 1ebd e134 58bc
00000020: 04a3 12be da96 823e 3823 a23d d177 2d3e
00000030: 505c 25be 584b b33d 6c3c 0e3d f89c 823e
00000040: ad3e 093e 32fc 783e eab7 5b3c 1b97 8c3c
00000050: 4b11 2abd 7e74 33bd 11ca 79bd 4fd8 a93d
00000060: cffb c8bd 320e c63d 0877 853d ceee e6bc
00000070: 444f 0f3e 0784 dbbd d964 f23d 1750 a03d
00000080: a312 7c3d 0104 48bd e07b 95bc 0b26 65be
00000090: cd36 3c3d f87b 8739 bddb 953d 58bc d33d
000000a0: c6ff 5f3d 0a34 7ebd 1b56 35bc be86 e83c
000000b0: bac6 b03c 3441 973d 570b 23bd 96c3 15bd
000000c0: 8ca3 11be a4f8 293e 6437 04bd 31ae 393d
000000d0: ea18 3b3d 6d16 463d fcdb 923d d267 ca3c
000000e0: f7e9 4abc aa13 183e 0c72 263b aa46 11bd
000000f0: fa49 84bd 383f 363d 823f d0bd 1119 803d

weight f4 [128, 64, 3, 3]
-0.07361284 -0.007722836 -0.032475743 -0.040953908 -0.020411395 -0.041833237 -0.061899178 0.009323033
0.000275244 -0.03662135 -0.020996148 0.030691214 -0.018330257 -0.032367654 -0.0347293 -0.036100097
0.019467413 0.021596184 -0.046913758 -0.023977652 0.043922566 -0.0128048 -0.018039431 0.011007946
0.0027954967 0.021941112 -0.040883992 0.037765227 0.018200027 0.019803379 0.034306146 0.009826621
-0.023164837 -0.037343536 0.05455015 0.047014683 0.0027145396 -0.009119417 -0.023494516 -0.036588088
0.026141686 0.041184902 0.0016051019 -0.03298624 0.044635013 0.010788033 0.047914244 -0.02955363
-0.0035119203 0.043251432 -0.006662015 0.014082224 0.04835781 -0.023125453 0.0020601323 -0.009211019
-0.015248182 -0.030345533 -0.03526296 -0.01603522 0.036075074 0.012482698 0.05390568 0.04482402
0.017580217 0.025111722 -0.000821103 0.029086206 -0.0070918673 0.012424197 0.045210402 -0.043823723
-0.055666868 0.025452698 0.013476989 -0.06752466 -0.06728994 0.026100954 -0.064842306 0.006370961
0.06094692 -0.07479394 0.001713749 0.005765847 -0.035817735 0.0498326 0.0031098616 -0.0231713
-0.04496752 -0.052725956 0.006407666 -0.018188434 -0.018915901 -0.0107374955 -0.024844633 -0.024471896
-0.081875 -0.03262176 -0.021657247 -0.04573728 -0.0070518167 -0.002935073 -0.059558954 0.041512012
-0.032055013 -0.05426642 0.013996527 -0.0054834806 0.017100306 0.0024330881 -0.028004633 -0.018121889
0.011290999 0.018772919 -0.030216478 0.004890833 0.01722065 0.0653218 0.016234757 -0.03760009
0.048291255 0.01923176 -0.01027023 0.07633036 0.03206282 0.069641426 -0.003374898 0.011271579
0.04225027 0.035665568 0.0181113 0.008744191 0.018040422 0.0009881838 0.023365008 0.0247526
-0.03283506 0.012443773 -0.056618635 -0.04810971 -0.03789369 -0.05241486 -0.018468922 0.011433639
-0.06619002 -0.009704281 0.014010681 0.026761808 0.02114143 0.038855005 -0.051125515 -0.011006086
0.028038358 -0.05151885 -0.017097348 0.0041629807 0.021491047 0.005628159 0.018846562 -0.03692942
-0.010239756 0.012619574 0.0033687719 0.023153035 0.022329727 -0.04644589 -0.005119396 0.0064997054
-0.030828668 -0.021552363 -0.0087211365 -0.028117342 -0.020251771 -0.05276018 -0.015422677 0.005726637
-0.0133895 -0.05646258 0.00042341204 -0.04033571 -0.008323109 -0.03563306 0.0040539787 -0.020789804
-0.03188886 0.0094910525 -0.004763586 -0.0408968 -0.001933261 0.026602658 0.0099803815 0.039492898
-0.012626544 -0.01677472 -0.015785962 -0.031749744 -0.01217455 0.03940682 0.043295275 -0.0005438233
0.08677657 -0.014439396 -0.0033577178 0.05722432 0.008656787 -0.023818426 0.024472617 -0.051674947
0.018826777 0.008234801 -0.031702377 -0.040057942 -0.017651757 0.027190842 0.011032344 0.013974702
-0.0036593266 -0.019010644 0.083266735 -0.016512986 0.048869357 0.055675913 0.03309746 0.029031156
0.018416168 0.011299046 -0.006361799 0.052567583 -0.028060582 -0.011236037 -0.031119099 -0.01612575
-0.0118513685 0.005100078 -0.007817707 -0.017906122 -0.041284885 -0.037479073 -0.0140458485 0.0069941264
-0.0030508656 0.029573558 0.015300946 -0.01826434 0.03195158 -0.00019110677 -0.029547077 0.013094209
-0.0015834341 -0.010473503 0.017242083 -0.018292265 0.024966124 -0.0077406103 0.0012908061 -0.023873033
00000000: 54c2 96bd d80f fdbb 4905 05bd 49bf 27bd
00000010: cc35 a7bc 5459 2bbd fe89 7dbd a2bf 183c
00000020: a04e 9039 4500 16bd 1d00 acbc 246c fb3c
00000030: 5629 96bc f293 04bd 4f40 0ebd b2dd 13bd
00000040: 207a 9f3c 7bea b03c a428 40bd c86c c4bc
00000050: 26e8 333d 39cb 51bc 6ec7 93bc ac5a 343c
00000060: a734 373b d9bd b33c f975 27bd b6af 1a3d
00000070: 3918 953c b23a a23c 9a84 0c3d d6ff 203c
00000080: 2fc4 bdbc 89f5 18bd fa6f 5f3d 7892 403d
00000090: 6be6 313b 9b69 15bc 9277 c0bc 64dd 15bd
000000a0: 1727 d63c 80b1 283d 4862 d23a 941c 07bd
000000b0: 34d3 363d 4ac0 303c ba41 443d 741a f2bc
000000c0: 3f28 66bb 6a28 313d 084d dabb 21b9 663c
000000d0: d712 463d 9771 bdbc 4903 073b d0e9 16bc
000000e0: 83d3 79bc 3297 f8bc e56f 10bd 4b5c 83bc
000000f0: 75c3 133d 3b84 4c3c 34cc 5c3d 6499 373d
00000100: 6304 903c 19b7 cd3c 4a3f 57ba 3246 ee3c
00000110: e562 e8bb dc8e 4b3c 8b2e 393d 8180 33bd
00000120: f102 64bd 2d82 d03c 97ce 5c3c 5e4a 8abd
00000130: 4fcf 89bd abd1 d53c 0bcc 84bd 7fc3 d03b
00000140: 7aa3 793d 912d 99bd e09f e03a 6eef bc3b
00000150: 9eb5 12bd 451d 4c3d d2ce 4b3b bdd1 bdbc
00000160: dd2f 38bd 2cf7 57bd 66f7 d13b e9ff 94bc
00000170: 85f5 9abc 52ec 2fbc f986 cbbc 4979 c8bc
00000180: 14ae a7bd 659e 05bd 8a6a b1bc 0457 3bbd
00000190: ed12 e7bb 5b5a 40bb 17f4 73bd 8008 2a3d
000001a0: 1e4c 03bd 7746 5ebd b051 653c c5ae b3bb
000001b0: f115 8c3c 7274 1f3b f969 e5bc 5b74 94bc
000001c0: e2fd 383c aac9 993c 8c88 f7bc 4843 a03b
000001d0: 5212 8d3c 70c7 853d c1fe 843c 8d02 1abd
000001e0: 0dcd 453d ed8b 9d3c 7744 28bc 1753 9c3d
000001f0: 4e54 033d 2aa0 8e3d 652d 5dbb 6eac 383c
00000200: 9e0e 2d3d 0f16 123d 265e 943c cc43 0f3c
00000210: 82c9 933c f285 813a f967 bf3c f7c5 ca3c
00000220: 0e7e 06bd f8e0 4b3c f1e8 67bd b00e 45bd
00000230: 6a36 1bbd f7b0 56bd 234c 97bc 2854 3b3c
00000240: a28e 87bd b4fe 1ebc 0e8d 653c 943b db3c
00000250: cb30 ad3c 6d26 1f3d fd68 51bd df52 34bc
00000260: b3b0 e53c 6e05 53bd bd0f 8cbc 9d69 883b
00000270: fe0d b03c 6b6c b83b 1b64 9a3c 4e43 17bd
00000280: a6c4 27bc 54c2 4e3c 9dc6 5c3b 6fab bd3c
00000290: d5ec b63c 0c3e 3ebd 9bc0 a7bb 7bfb d43b
000002a0: 678c fcbc 958e b0bc 19e3 0ebc 5756 e6bc
000002b0: 0be7 a5bc 0f1b 58bd 65af 7cbc 83a6 bb3b
000002c0: a25f 5bbc 4e45 67bd 67fd dd39 0f37 25bd
000002d0: a65d 08bc f9f3 11bd 3dd7 843b 614f aabc
000002e0: e59d 02bd 5c80 1b3c db17 9cbb 6783 27bd
000002f0: 7a65 fdba d1ed d93c c184 233c 4ec3 213d
00000300: 90df 4ebc 236b 89bc 9051 81bc 050c 02bd
00000310: c477 47bc 0c69 213d 6356 313d 5d8f 0eba
00000320: eab7 b13d 3793 6cbc 280d 5cbb 0c64 6a3d
00000330: 32d5 0d3c dc1e c3bc cc7a c83c 1ca9 53bd
00000340: 9d3a 9a3c 42eb 063c 5ada 01bd cc13 24bd
00000350: 6b9a 90bc 54bf de3c 01c1 343c 26f6 643c
00000360: 50d1 6fbb 36bc 9bbc c087 aa3d 3e46 87bc
00000370: 3c2b 483d 6d0c 643d 3491 073d bfd2 ed3c
00000380: 81dd 963c a21f 393c a376 d0bb 1b51 573d
00000390: 4edf e5bc 5b17 38bc 7bed febc 261a 84bc
000003a0: 3e2c 42bc 8e1e a73b d715 00bc dcaf 92bc
000003b0: 571a 29bd a883 19bd 8f20 66bc fc2e e53b
000003c0: 08f1 47bb 3f44 f23c d2b0 7a3c 199f 95bc
000003d0: a9df 023d d563 48b9 b60c f2bc 1889 563c
000003e0: 3b8b cfba 0e99 2bbc 453f 8d3c a9d9 95bc
000003f0: c285 cc3c f2a4 fdbb 4430 a93a 6191 c3bc

bias f4 [128]
-0.015627954 0.059157964 0.0064954674 0.030274525 -0.066982396 -0.0610655 -0.062622875 -0.02007497
0.024503764 0.08455113 0.03741348 -0.21246344 -0.13454707 -0.076835684 0.0031667019 -0.03461136
0.037905004 -0.0564783 -0.06999369 -0.038378716 -0.021804739 -0.013959461 0.038375665 -0.08385272
-0.20380454 0.08999526 -0.10159427 0.023076488 0.10081428 -0.2859689 -0.05610685 -0.092870936
-0.008876893 -0.018342443 -0.13582774 -0.040053412 0.046114374 -0.24391186 0.119735144 0.059997607
0.16974355 0.008985954 -0.006017117 -0.05902767 0.06258041 0.1215686 -0.011685398 -0.06469135
-0.06305349 -0.13436697 0.07009411 0.056387942 -0.04004667 -0.022103183 0.021545485 0.059630826
0.14008714 -0.0021840462 0.107265644 -0.025390882 0.2277417 -0.012781377 0.008031978 -0.026246298
-0.025794052 0.022430537 0.051448904 -0.018349718 0.0067025097 -0.036070563 0.023337718 -0.04217362
-0.046175037 0.043349534 0.02700112 -0.04032988 0.046207763 0.1330182 0.020551065 0.042649608
0.028775524 0.016785847 0.040226538 -0.027436912 -0.057839464 0.029802771 0.07289842 -0.006082055
-0.03366287 -0.048071485 0.06448744 -0.026397437 0.016329825 -0.008798225 -0.21500315 -0.006353693
0.008697017 -0.0065460396 0.06298875 -0.10964284 -0.20431155 -0.009387587 0.025905633 -0.00022334229
-0.2217758 0.106291 0.0064318664 0.1774706 -0.06331723 0.041334335 -0.09509277 0.083430104
-0.05796063 -0.02327409 -0.111360155 -0.2623323 0.08928343 0.02292409 0.030990792 0.033267166
0.056306455 0.022309726 0.35221684 0.045949187 0.01004475 -0.068178095 0.03637252 -0.005272285
00000000: 3206 80bc 9f4f 723d eed7 d43b 4802 f83c
00000010: 112e 89bd d11f 7abd 6c40 80bd 4374 a4bc
00000020: 1ebc c83c 2529 ad3d e13e 193d 0490 59be
00000030: b5c6 09be 075c 9dbd 7188 4f3b a4c4 0dbd
00000040: 4742 1b3d ca55 67bd da58 8fbd 0033 1dbd
00000050: da9f b2bc 39b6 64bc cd2f 1d3d faba abbd
00000060: 23b2 50be 6f4f b83d a810 d0bd e70a bd3c
00000070: b877 ce3d 846a 92be 4cd0 65bd 1e33 bebd
00000080: 6370 11bc e442 96bc 6d16 0bbe 0c0f 24bd
00000090: 6de2 3c3d 08c4 79be b337 f53d 0dc0 753d
000000a0: 41d1 2d3e d339 133c 3c2b c5bb 00c7 71bd
000000b0: 282a 803d f5f8 f83d 1d74 3fbc e67c 84bd
000000c0: 3022 81bd 7f97 09be 808d 8f3d 0bf7 663d
000000d0: fa07 24bd bc11 b5bc 2880 b03c 743f 743d
000000e0: 0173 0f3e 3722 0fbb 17ae db3d 8a00 d0bc
000000f0: 1f35 693e fb68 51bc 8f98 033c 7a02 d7bc
00000100: 0c4e d3bc 3fc0 b73c 16bc 523d 2652 96bc
00000110: baa0 db3b babe 13bd be2e bf3c 3fbe 2cbd
00000120: 0922 3dbd 488f 313d 7431 dd3c f230 25bd
00000130: 5a44 3d3d ec35 083e b55a a83c 5bb1 2e3d
00000140: a6ba eb3c 7982 893c 95c4 243d 60c3 e0bc
00000150: 13e9 6cbd f124 f43c c44b 953d fa4b c7bb
00000160: 14e2 09bd 9be6 44bd fe11 843d 703f d8bc
00000170: 20c6 853c 6e26 10bc c929 5cbe a432 d0bb
00000180: ef7d 0e3c 2980 d6bb 3f00 813d 6d8c e0bd
00000190: 0c37 51be 65ce 19bc 0d38 d43c fd30 6ab9
000001a0: 3219 63be 19af d93d 68c2 d23b daba 353e
000001b0: 77ac 81bd 314e 293d 00c0 c2bd 67dd aa3d
000001c0: 2068 6dbd 4ea9 bebc cb10 e4bd 6b50 86be
000001d0: 3bda b63d 4dcb bb3c 67e0 fd3c 2743 083d
000001e0: 99a1 663d e3c2 b63c c455 b43e 3735 3c3d
000001f0: bc92 243c f5a0 8bbd 5afb 143d 22c3 acbb

weight f4 [128, 64, 3, 3]
0.0023785639 -0.014348776 0.00077719305 -0.0015581878 0.01035079 0.031259604 -0.013986172 0.00093776896
-0.011515613 0.018016893 -0.021243403 -0.010227513 0.028003734 -0.020396551 0.026428595 -0.042144507
-0.0054270476 0.021722881 -0.022425836 -0.026409678 -0.025188496 -0.012197469 -0.023033878 -0.007606152
-0.028231522 -0.010025601 -0.024319243 -0.01853647 -0.021171289 -0.0032399117 0.013900521 -0.03757416
-0.051335797 0.0074186972 0.026536714 0.022034112 -0.0038846731 -0.008990869 0.039558712 0.04684795
-0.0092941765 0.028037557 0.001969697 -0.015367072 -0.023598947 0.0075653354 0.03543884 -0.026818465
-0.010115697 0.008339449 -0.04072968 0.025713474 0.03011194 -0.0134943705 -0.022528227 0.00040072072
-0.020342043 0.02347868 0.0129019525 0.051338244 -0.07572975 0.011162788 -0.010444099 -0.031077838
-0.009739551 -0.038610954 0.0076489653 -0.023967244 -0.009986396 0.02820307 0.026312184 0.018205822
-0.01331789 0.03591652 0.03836447 0.030592673 0.0087377345 -0.037738204 0.028563466 0.02562046
-0.009386431 -0.04524284 0.021050053 0.0029576425 -0.0015341036 -0.021926532 0.0046335184 -0.031417035
0.013852093 0.018728483 0.048965536 0.039605334 -0.012458209 -0.03126395 0.02181716 -0.02308305
0.049869895 0.095149696 0.094203494 -0.031439774 -0.025835793 0.00043130238 -0.022618342 -0.022251619
-0.008523179 -0.040903233 -0.05202455 0.018858483 -0.023378579 -0.03272554 0.021325134 -0.043352947
0.026210273 -0.04354495 0.022728989 -0.023495248 -0.016328216 0.01732243 0.023474276 -0.011306543
-0.00527727 0.028146442 -0.010986995 0.011700136 -0.006840389 0.029024964 0.01665109 -0.04035358
0.005938522 0.004342748 0.018294504 -0.016745457 0.0702659 0.058418397 0.09200346 -0.009040783
0.017170733 0.008964671 0.0145072825 0.004968283 -0.014333413 -0.041509744 -0.021256078 0.04321977
0.01041169 -0.0021719867 -0.036636494 0.019535027 -0.018949397 0.0149833895 0.031052373 -0.028235687
-0.01926404 -0.027632 -0.024808655 0.03152012 0.00492277 -0.012143478 -0.037519395 0.021154147
0.0089008985 -0.014534516 -0.022561273 -0.005593044 -0.073181294 0.0038216002 -0.03845221 -0.058218315
-0.05328133 -0.0416727 -0.06692759 0.008440374 -0.0017866364 0.011931695 0.055610687 0.06424653
0.032818098 -0.014059711 0.02324066 0.041004706 -0.014040249 0.030064708 0.013550874 -0.026108492
0.04924506 0.0013740667 -0.07059496 0.050549317 -0.018333038 -0.00256076 0.004324897 -0.023085011
-0.0018789165 -0.033635397 -0.026459703 0.020159837 -0.012731854 0.0009299359 -0.043912552 -0.013276531
0.0042547183 -0.062651016 -0.038411666 -0.02495492 0.015007254 0.006986677 0.0468018 -0.028444894
0.051812127 0.08024192 -0.008635475 -0.0014312603 0.014973077 0.07936658 0.016328635 0.03889825
-0.00012859894 0.040470906 0.046034914 0.043494917 0.024093756 0.023953833 -0.011651852 0.038893122
-0.008103535 -0.072545506 -0.008927188 0.06417331 -0.013567791 -0.03256584 0.117198594 -0.057865128
0.046993762 0.04404979 0.003331026 -0.06599244 -0.0020668004 0.0027372101 0.011626581 -0.031471502
-0.06004654 -0.060377125 -0.057487626 -0.017943095 -0.07139556 -0.087967515 0.022956572 -0.011731028
-0.045467775 0.024932193 -0.0141231185 -0.05108446 -0.008632213 -0.023184974 0.03210655 -0.045424618
00000000: aee1 1b3b 2117 6bbc 8bbc 4b3a 1b3c ccba
00000010: 5c96 293c 120a 003d 4226 65bc 9cd4 753a
00000020: fbab 3cbc 2a98 933c a506 aebc 4c91 27bc
00000030: 1668 e53c ab16 a7bc c880 d83c b89f 2cbd
00000040: 60d5 b1bb 2ff4 b13c 63b6 b7bc 1c59 d8bc
00000050: 1b58 cebc e5d7 47bc 8bb1 bcbc 073d f9bb
00000060: cb45 e7bc 6b42 24bc 2639 c7bc ccd9 97bc
00000070: 696f adbc b354 54bb 03bf 633c 5de7 19bd
00000080: 7c45 52bd 8b18 f33b 8663 d93c e280 b43c
00000090: 0096 7ebb 704e 13bc 5108 223d a3e3 3f3d
000000a0: 9a46 18bc 05af e53c 0816 013b 2cc6 7bbc
000000b0: 9452 c1bc a2e6 f73b 5128 113d 66b2 dbbc
000000c0: 4fbc 25bc 2fa2 083c 2ad4 26bd 10a5 d23c
000000d0: 51ad f63c 7e17 5dbc 1e8d b8bc d317 d239
000000e0: 5ba4 a6bc 5c56 c03c b662 533c 0d48 523d
000000f0: 3318 9bbd 20e4 363c ba1d 2bbc f396 febc
00000100: a392 1fbc 8526 1ebd 2ca4 fa3b f456 c4bc
00000110: fb9d 23bc 200a e73c a68c d73c 6024 953c
00000120: 4833 5abc 331d 133d 1024 1d3d 7c9d fa3c
00000130: b728 0f3c 6093 1abd eefd e93c 00e2 d13c
00000140: 8cc9 19bc 8e50 39bd 2971 ac3c 02d5 413b
00000150: fa13 c9ba 459f b3bc c5d4 973b 26af 00bd
00000160: e4f3 623c 7a6c 993c 1690 483d 3439 223d
00000170: 841d 4cbc a10e 00bd e7b9 b23c aa18 bdbc
00000180: 6044 4c3d d8dd c23d c3ed c03d fec6 00bd
00000190: 96a5 d3bc 6d20 e239 1a4a b9bc 0749 b6bc
000001a0: cea4 0bbc 268a 27bd b217 55bd 1b7d 9a3c
000001b0: 6f84 bfbc 370b 06bd 0cb2 ae3c dc92 31bd
000001c0: edb6 d63c 315c 32bd 2532 ba3c 1b79 c0bc
000001d0: c0c2 85bc c5e7 8d3c 204d c03c 143f 39bc
000001e0: f3ec acbb 5e93 e63c cc02 34bc edb1 3f3c
000001f0: 5825 e0bb c3c5 ed3c de67 883c cc49 25bd
00000200: ef97 c23b 9c4d 8e3b 5bde 953c c52d 89bc
00000210: 91e7 8f3d 2148 6f3d 4f6c bc3d cb1f 14bc
00000220: a3a9 8c3c 8ee0 123c f4af 6d3c fbcc a23b
00000230: b1d6 6abc 1f06 2abd 3a21 aebc 3707 313d
00000240: cb95 2a3c e457 0ebb 2610 16bd ec07 a03c
00000250: c43b 9bbc e47c 753c 8c61 fe3c 874e e7bc
00000260: 9fcf 9dbc 815c e2bc 853b cbbc 3e1b 013d
00000270: 304f a13b 70f5 46bc f0ad 19bd 764b ad3c
00000280: 13d5 113c 2e22 6ebc 6bd2 b8bc db45 b7bb
00000290: 13e0 95bd d073 7a3b 1180 1dbd 5476 6ebd
000002a0: 863d 5abd feb0 2abd 5511 89bd 7f49 0a3c
000002b0: 922d eaba 287d 433c 08c8 633d af93 833d
000002c0: 456c 063d b45a 66bc 3263 be3c 8df4 273d
000002d0: 1309 66bc 434a f63c 7c04 5e3c 7ae1 d5bc
000002e0: 30b5 493d 071a b43a 1794 90bd cd0c 4f3d
000002f0: 2b2f 96bc 6cd2 27bb deb7 8d3b c71c bdbc
00000300: fa45 f6ba 45c5 09bd 05c2 d8bc 3e26 a53c
00000310: 4499 50bc f1c6 733a a6dd 33bd cf85 59bc
00000320: 2a6b 8b3b 2d4f 80bd 8d55 1dbd 436e ccbc
00000330: fce0 753c 7ff0 e43b 3fb3 3f3d 4405 e9bc
00000340: f438 543d e055 a43d cf7b 0dbc 2099 bbba
00000350: a351 753c f28a a23d a1c3 853c c553 1f3d
00000360: 84d8 06b9 d2c4 253d 1b8f 3c3d ba27 323d
00000370: 4560 c53c d43a c43c 69e7 3ebc 654e 1f3d
00000380: b0c4 04bc bd92 94bd 5743 12bc 4c6d 833d
00000390: 714b 5ebc c263 05bd d105 f03d fc03 6dbd
000003a0: 887c 403d 8d6d 343d 584d 5a3b 0b27 87bd
000003b0: 2873 07bb c462 333b 6a7d 3e3c 43e8 00bd
000003c0: 5cf3 75bd 014e 77bd 2578 6bbd 66fd 92bc
000003d0: d637 92bd 5028 b4bd 6c0f bc3c 7f33 40bc
000003e0: 6b3c 3abd 993e cc3c a764 67bc f03d 51bd
000003f0: 206e 0dbc 6aee bdbc 2882 033d 2a0f 3abd

bias f4 [64]
0.035357498 0.048044078 0.2356355 -0.0084711 -0.04648073 0.020735402 -0.0022996413 0.038625687
0.030095598 0.020090915 0.012986947 0.064918414 0.055258498 -0.012667581 -0.14097181 0.18796721
0.07126764 0.06642752 0.006010448 0.030464163 0.018869562 0.115085796 0.054244623 -0.0334351
-0.044642705 -0.00049091433 0.15384194 0.05564077 -0.013949308 0.21045537 0.0027427708 0.020496292
-0.009834245 0.019836804 0.027661728 0.04612918 0.031390823 0.028122336 0.011184168 0.02064842
0.061408382 0.143132 0.05376502 0.050109733 -0.04575559 0.036541138 -0.01712046 0.10868572
0.27618292 0.048920657 0.0057684826 -0.0023270096 0.17059432 0.07596166 -0.025931587 0.01800963
0.09240364 0.09597712 -0.0014574745 0.012922415 0.004561415 -0.05305649 -0.04289962 -0.015300842
00000000: 06d3 103d dec9 443d 6f4a 713e 5eca 0abc
00000010: 9462 3ebd 4add a93c 94b5 16bb f835 1e3d
00000020: 0b8b f63c b495 a43c 34c7 543c f2f3 843d
00000030: bc56 623d b08b 4fbc ea5a 10be 7a7a 403e
00000040: c5f4 913d 270b 883d 4bf3 c43b fb8f f93c
00000050: 5794 9a3c 1ab2 eb3d 9c2f 5e3d 3ef3 08bd
00000060: 45db 36bd b4b0 00ba be88 1d3e 93e7 633d
00000070: a38b 64bc 9d81 573e 0fc0 333b d7e7 a73c
00000080: d01f 21bc cb80 a23c d99a e23c f3f1 3c3d
00000090: aa93 003d d060 e63c cd3d 373c e026 a93c
000000a0: 5b87 7b3d 3291 123e b638 5c3d dd3f 4d3d
000000b0: 376a 3bbd 29ac 153d 3540 8cbc 9e96 de3d
000000c0: d967 8d3e 0761 483d 8a05 bd3b be80 18bb
000000d0: 47b0 2e3e c991 9b3d 7b6e d4bc ee88 933c
000000e0: 1f3e bd3d a78f c43d bb08 bfba 89b8 533c
000000f0: ec77 953b c351 59bd 83b7 2fbd 62b0 7abc

weight f4 [64, 32, 3, 3]
-0.009440283 0.04329817 0.02517129 -0.017264001 0.05645828 -0.048151087 0.047992453 -0.04779183
-0.041863356 -0.001171952 0.004686776 0.027834529 0.036507506 0.01080983 -0.03525241 -0.02822213
0.017515285 0.003012452 -0.05890033 -0.00019646423 0.048342083 0.034929235 -0.058777586 0.027190594
0.050796553 -0.039919067 -0.009148844 -0.00849702 0.03596692 -0.008123483 0.029592536 0.048946828
-0.038471326 -0.04945224 0.016084183 0.008242574 0.0015134328 -0.060710303 -0.035794575 -0.048271727
-0.031589836 0.02745046 -0.020070568 0.03700229 -0.007262996 0.011703622 0.016091522 0.037451275
-0.061697464 -0.026522312 0.049359854 0.019713419 0.0064557646 0.013746117 -0.019175949 -0.030494565
0.040219065 -0.007813056 -0.03964767 -0.0097394595 -0.056414664 0.039239533 -0.0142077515 -0.02821624
-0.042687654 0.04008317 0.0040374147 -0.011303713 0.041515823 -0.006352243 -0.06778613 -0.009234737
0.003133921 -0.021354577 -0.040228873 0.038404636 0.046065222 -0.0005454881 -0.05041885 -0.03267693
-0.039436173 -0.018700141 -0.044548735 0.005921493 0.038174056 0.039386503 0.044144794 -0.050550852
-0.02220122 -0.0132428035 -0.03751956 0.0010673251 -0.06932075 0.035710648 0.022589458 0.010078648
-0.057522394 -0.012097816 0.0014622337 0.0030701447 -0.014297699 0.03129879 -0.01742366 -0.03851046
0.020639688 0.027676454 0.0056154216 -0.058811013 0.04201985 -0.023336934 -0.04342539 0.00834526
-0.036109116 -0.034922354 -0.017876767 -0.039747696 -0.014453617 -0.07989819 -0.038328137 -0.07187572
-0.030916614 0.049847636 0.038195252 0.008144589 0.008518123 0.02278278 0.051198885 0.00089704205
-0.018201536 -0.029407423 -0.0120209055 -0.049345233 0.028403852 -0.019777149 -0.0070784152 0.030050712
-0.03951701 -0.0042726016 -0.0157158 -0.042904254 -0.030047162 -0.03322665 0.04409776 0.051290903
-0.0031702246 0.014588335 -0.009919886 -0.0045168963 0.00064413063 0.033015966 0.035459194 0.046656482
-0.0029914165 -0.022448288 0.03345133 -0.013805692 0.059956767 0.038149897 -0.010733726 0.024042636
-0.02933947 -0.02627604 0.040989112 -0.04109924 -0.019524693 0.053175192 -0.03333275 -0.00079673325
-0.0020267486 0.043500964 -0.032291662 -0.11252802 -0.08845663 -0.053468116 0.019242093 0.04737329
-0.017313635 0.02018269 0.0854797 0.02758373 -0.0035502755 -0.016044179 0.028896706 -0.003115306
0.036596183 0.04457459 0.028649224 -0.039737917 0.038349412 -0.014663408 0.008744314 0.03371164
0.0006418361 -0.03096919 -0.00037600208 0.018133795 0.055997282 -0.05857707 0.04341532 -0.038916253
0.046139687 -0.04801922 0.024402052 -0.010821607 0.048491288 -0.00965252 -0.033976175 0.025930116
-0.02580299 -0.03621128 0.0050939773 0.008166615 0.03698069 0.0028895736 -0.043627143 -0.02569783
-0.010951381 0.0020944108 -0.045739837 0.041353855 0.0138124 -0.059526086 -0.0508148 0.016895851
-0.0219212 0.007935588 0.017070854 0.020317815 -0.0375426 0.05534898 -0.03659286 -0.014200444
0.05876398 -0.014664444 -0.026830563 -0.059435185 -0.009970624 -0.01844751 -0.0198884 -0.05356923
-0.01841321 0.035539847 -0.01989552 -0.022527637 -0.058081504 -0.040345747 -0.05331347 -0.044859868
0.03984977 0.0088003585 -0.026765915 0.03238887 -0.043713674 -0.04220943 -0.063145906 -0.045092776
00000000: 6bab 1abc 6c59 313d 0534 ce3c 3c6d 8dbc
00000010: cc40 673d 133a 45bd bc93 443d 5ec1 43bd
00000020: e978 2bbd 2f9c 99ba 8793 993b 3d05 e43c
00000030: e588 153d b71b 313c d564 10bd 1932 e7bc
00000040: 377c 8f3c 8f6c 453b 7941 71bd f701 4eb9
00000050: 5902 463d f511 0f3d c4c0 70bd cfbe de3c
00000060: 0c10 503d 2d82 23bd 08e5 15bc 1637 0bbc
00000070: 0d52 133d 5b18 05bc 0c6c f23c 787c 483d
00000080: 1c94 1dbd 6f8e 4abd fac2 833c dc0b 073c
00000090: 615e c63a 5eab 78bd 559d 12bd 93b8 45bd
000000a0: 5864 01bd c9df e03c 086b a4bc b78f 173d
000000b0: 6dfe edbb 8cc0 3f3c 5ed2 833c 8266 193d
000000c0: 7bb6 7cbd 5245 d9bc 8f2d 4a3d 097e a13c
000000d0: e18a d33b 6537 613c e116 9dbc bdcf f9bc
000000e0: bfbc 243d 5502 00bc 9865 22bd 4192 1fbc
000000f0: 1013 67bd a2b9 203d a1c7 68bc bf25 e7bc
00000100: 40d9 2ebd 402e 243d 4a4c 843b 3533 39bc
00000110: 7f0c 2a3d 7a26 d0bb 74d3 8abd 4b4d 17bc
00000120: 7862 4d3b cbef aebc 08c7 24bd 2e4e 1d3d
00000130: e3ae 3c3d 16ff 0eba ff83 4ebd 3fd8 05bd
00000140: d387 21bd 0a31 99bc bc78 36bd 1509 c23b
00000150: 665c 1c3d be53 213d 2cd1 343d 690e 4fbd
00000160: 55df b5bc 58f8 58bc 1cae 19bd 7de5 8b3a
00000170: 0af8 8dbd 5445 123d 870d b93c ea20 253c
00000180: 9a9c 6bbd eb35 46bc 6ca8 bf3a 7b34 493b
00000190: e540 6abc 2933 003d 10bc 8ebc 25bd 1dbd
000001a0: 9014 a93c bbb9 e23c 9201 b83b d1e3 70bd
000001b0: 021d 2c3d 192d bfbc d2de 31bd 8fba 083c
000001c0: 27e7 13bd be0a 0fbd 4c72 92bc 7bce 22bd
000001d0: ddce 6cbc aaa1 a3bd f7fd 1cbd 9433 93bd
000001e0: d744 fdbc 092d 4c3d a072 1c3d e270 053c
000001f0: 998f 0b3c f4a2 ba3c ecb5 513d 7927 6b3a
00000200: 631b 95bc d6e7 f0bc 55f3 44bc 3a1e 4abd
00000210: 32af e83c b003 a2bc 0df2 e7bb e92c f63c
00000220: 97dc 21bd 2e01 8cbb 6cbe 80bc 5fbc 2fbd
00000230: 7725 f6bc ab18 08bd da9f 343d 6916 523d
00000240: 8bc3 4fbb e903 6f3c 0487 22bc 7902 94bb
00000250: e0da 283a c03b 073d a93d 113d de1a 3f3d
00000260: a40b 44bb 79e5 b7bc 4304 093d 4531 62bc
00000270: 3a95 753d 1143 1c3d 83dc 2fbc 10f5 c43c
00000280: 5459 f0bc da40 d7bc 33e4 273d ad57 28bd
00000290: 40f2 9fbc 3bce 593d ec87 08bd dddb 50ba
000002a0: 33d3 04bb 112e 323d 4344 04bd 1775 e6bd
000002b0: c028 b5bd 6201 5bbd 98a1 9d3c 7f0a 423d
000002c0: 53d5 8dbc 2b56 a53c fb0f af3d 46f7 e13c
000002d0: bdab 68bb 156f 83bc c9b8 ec3c 292a 4cbb
000002e0: e1e5 153d d893 363d c7b1 ea3c 3ac4 22bd
000002f0: 4614 1d3d ca3e 70bc 5044 0f3c 3715 0a3d
00000300: e440 283a 19b3 fdbc 2522 c5b9 538d 943c
00000310: 685d 653d 82ee 6fbd 43d4 313d a666 1fbd
00000320: f8fc 3c3d cdaf 44bd d0e6 c73c 1c4d 31bc
00000330: cd9e 463d 9a25 1ebc 9a2a 0bbd 656b d43c
00000340: cb60 d3bc 4752 14bd 61eb a63b 44cd 053c
00000350: 1079 173d 005f 3d3b 60b2 32bd 4184 d2bc
00000360: 6c6d 33bc 6242 093b b259 3bbd a962 293d
00000370: 684d 623c a0d1 73bd 2e23 50bd 2b69 8a3c
00000380: 1794 b3bc 4504 023c 2dd8 8b3c 8c71 a63c
00000390: 45c6 19bd 9db5 623d 65e2 15bd fba8 68bc
000003a0: 80b2 703d 2343 70bc c5cb dbbc 4f72 73bd
000003b0: d45b 23bc 3c1f 97bc ffec a2bc 696b 5bbd
000003c0: 4dd7 96bc 3b92 113d eefb a2bc e18b b8bc
000003d0: dfe6 6dbd 9541 25bd 3a5f 5abd fbbe 37bd
000003e0: 8339 233d 612f 103c 3144 dbbc 31aa 043d
000003f0: 1c0d 33bd cce3 2cbd a452 81bd 34b3 38bd

bias f4 [32]
-0.07332709 0.069190815 0.04139126 -0.061833806 0.060491703 0.019492477 -0.07314749 -0.051296372
-0.048573267 0.03691366 0.017550651 0.0841161 -0.06626558 0.0884848 0.038559675 0.0033445274
-0.017638216 -0.024730952 -0.035126552 0.013691972 -0.054888513 -0.0013125075 -0.007841992 -0.0011699059
0.05404391 -0.042163767 0.0005905176 -0.0632406 -0.070719436 0.06914702 -0.04269697 -0.05791985
00000000: 832c 96bd eab3 8d3d e289 293d 7245 7dbd
00000010: 26c6 773d b0ae 9f3c 5ace 95bd 251c 52bd
00000020: c3f4 46bd c732 173d 62c6 8f3c 1045 ac3d
00000030: 40b6 87bd 8537 b53d c0f0 1d3d dc2f 5b3b
00000040: 057e 90bc 9198 cabc dce0 0fbd 4b54 603c
00000050: c7d2 60bd 7208 acba b37b 00bc 8757 99ba
00000060: 265d 5d3d eab3 2cbd f7cc 1a3a 4a84 81bd
00000070: 5ad5 90bd f49c 8d3d 05e3 2ebd 5d3d 6dbd

weight f4 [32, 1, 3, 3]
-0.038059395 0.30718186 -0.17588358 -0.15178804 -0.039039254 -0.26194656 0.12520589 0.05356495
-0.06757413 0.0889103 -0.008624385 0.1872171 -0.16881359 -0.015939219 0.17248577 0.19980882
0.00043843762 -0.1616288 -0.23867938 -0.023276879 0.07996489 0.22669245 -0.11539249 0.30254745
0.06258548 0.17405671 -0.1470317 0.06849774 -0.22454937 -0.026886748 -0.21369885 -0.1672316
0.20728432 -0.15145779 0.25026688 -0.18801345 -0.19428162 -0.1758952 0.258241 0.2263737
0.26980504 -0.05035987 0.19788873 -0.2087461 -0.0068162326 -0.096863 0.24817002 -0.23646489
0.2545888 0.26257902 0.027127635 0.22912592 0.021056058 -0.2692055 -0.27409187 -0.05348593
-0.2616623 -0.1514143 0.014777688 0.36706287 -0.040620282 0.3783146 0.018043093 0.13858537
-0.17753077 -0.24265732 -0.20703368 0.13866939 -0.20700552 -0.11167563 -0.07608254 0.2609911
-0.15510403 -0.25128743 -0.2739007 0.27985975 0.00023588742 0.007925955 -0.11283223 -0.12698036
-0.2738153 0.021467086 0.2860153 0.061221033 -0.11930018 -0.0039048137 0.3101845 0.1639921
-0.030302437 -0.16033147 0.18163444 -0.18188453 -0.051486406 -0.006794683 0.08388096 -0.23684448
-0.06850406 -0.2293777 -0.29386452 -0.19216356 0.31500277 0.2452075 -0.23412755 0.19542946
0.27022362 -0.2632087 -0.06447393 -0.26282075 0.2855147 -0.19420494 -0.15395072 0.07793115
-0.15720397 -0.1854229 -0.19579273 -0.27759236 -0.23556131 0.13148876 0.07656095 0.32469705
0.22450826 -0.14465694 0.14662327 0.30346704 -0.20645137 0.20677851 -0.046432965 0.22341543
-0.004030933 0.2725655 0.27068993 -0.23123974 0.08263859 -0.102274224 -0.23369607 0.15276909
0.32772684 0.08737218 0.040686347 0.26245046 0.055529423 0.17573747 0.2788776 0.20674239
0.018396437 0.1815893 0.051310554 0.30784598 0.21235818 -0.045705155 -0.14778389 -0.2268242
0.2732626 0.05864623 0.18631577 -0.03188972 -0.053896274 0.2599447 0.07351199 -0.100980885
-0.20222034 -0.29270843 0.052701287 0.14885034 -0.083667256 0.31540433 -0.24813522 -0.2016063
0.1622505 0.009856428 0.043302868 -0.02116618 -0.052808844 0.13248277 0.18496859 0.33194134
0.18419074 -0.024180058 -0.14578459 -0.057178766 -0.10333982 -0.16347726 -0.1668338 -0.02388669
0.06707791 -0.14592572 0.3170824 0.147152 -0.098845944 -0.15712912 -0.2846293 0.23023589
0.046649758 -0.24636765 0.22414121 -0.22404969 -0.15447222 0.10686537 -0.29074252 -0.28682327
0.03248623 -0.24431925 0.31203687 0.30822992 0.07333473 -0.24371018 0.17296326 -0.20282213
-0.18937002 0.13033748 0.14654258 -0.26908836 0.07173973 0.23836598 -0.0026878077 0.13986978
0.27794072 0.30743995 -0.23574193 -0.31160194 0.22240263 0.11032707 -0.280972 0.13470986
0.07093847 0.095455304 -0.0049888236 0.23061009 -0.2518608 -0.16521169 0.24286866 -0.2283615
-0.13540322 -0.013149137 -0.28455153 0.13987967 -0.3135382 0.19624808 -0.22756106 0.04726984
-0.12845425 -0.22201039 -0.0060339146 0.20954882 0.10641403 -0.30638358 0.033472467 -0.32248768
-0.2617414 -0.307606 -0.12834269 0.3239546 -0.2383141 -0.28744856 -0.06728412 -0.07623641
00000000: 2be4 1bbd f146 9d3e d31a 34be 536e 1bbe
00000010: a0e7 1fbd dc1d 86be f935 003e ec66 5b3d
00000020: 4e64 8abd 9a16 b63d 4b4d 0dbc d7b5 3f3e
00000030: 78dd 2cbe f792 82bc 1ca0 303e af9a 4c3e
00000040: 1ade e539 0582 25be 5e68 74be 27af bebc
00000050: a2c4 a33d 1122 683e e652 ecbd 80e7 9a3e
00000060: d12c 803d ec3b 323e 7a8f 16be 8b48 8c3d
00000070: 45f0 65be 9941 dcbc dfd3 5abe c33e 2bbe
00000080: 5742 543e c017 1bbe fb22 803e 9986 40be
00000090: c3f1 46be df1d 34be 2a38 843e 82ce 673e
000000a0: e323 8a3e 2746 4ebd 58a3 4a3e 8ac1 55be
000000b0: b45a dfbb 1c60 c6bd 4820 7e3e da23 72be
000000c0: 7759 823e c270 863e c63a de3c fc9f 6a3e
000000d0: c17d ac3c 4ed5 89be c555 8cbe 1014 5bbd
000000e0: 9af8 85be 5a0c 1bbe 1e1e 723c aaef bb3e
000000f0: 7461 26bd 74b2 c13e 1ccf 933c 53e9 0d3e
00000100: a0ca 35be 297b 78be a300 54be 59ff 0d3e
00000110: 41f9 53be 31b6 e4bd 2ad1 9bbd a0a0 853e
00000120: 97d3 1ebe bfa8 80be b63c 8cbe c749 8f3e
00000130: 8c58 7739 dddb 013c 9614 e7bd 2407 02be
00000140: 8531 8cbe bedb af3c 9970 923e e8c2 7a3d
00000150: a753 f4bd e7e7 7fbb 81d0 9e3e 8ced 273e
00000160: d13c f8bc ef2d 24be 61fe 393e f03f 3abe
00000170: 69e3 52bd efa5 debb c8c9 ab3d 5c87 72be
00000180: db4b 8cbd fde1 6abe 6975 96be 86c6 44be
00000190: 0b48 a13e ad17 7b3e 22bf 6fbe a91e 483e
000001a0: c05a 8a3e 4ac3 86be e80a 84bd 7190 86be
000001b0: fc2e 923e a9dd 46be 42a5 1dbe 5e9a 9f3d
000001c0: 14fa 20be 80df 3dbe e47d 48be 9620 8ebe
000001d0: fc36 71be fda4 063e fdcb 9c3d b13e a63e
000001e0: 7ee5 653e f320 14be 6924 163e 0860 9b3e
000001f0: fd67 53be bfbd 533e 7e30 3ebd 04c7 643e
00000200: eb15 84bb b58d 8b3e df97 8a3e 1cca 6cbe
00000210: 6c3e a93d 2675 d1bd 064e 6fbe 806f 1c3e
00000220: d0cb a73e 2ff0 b23d baa6 263d e85f 863e
00000230: d272 633d 86f4 333e 0bc9 8e3e 47b4 533e
00000240: 20b4 963c 8cf2 393e 042b 523d fd9d 9d3e
00000250: 6c74 593e 5435 3bbd a954 17be 9a44 68be
00000260: 13e9 8b3e 0737 703d 90c9 3e3e cc9e 02bd
00000270: 57c2 5cbd 7917 853e 748d 963d 11cf cebd
00000280: d912 4fbe e1dd 95be 4edd 573d 396c 183e
00000290: bd59 abbd ad7c a13e 2917 7ebe e271 4ebe
000002a0: ff24 263e db7c 213c 595e 313d b264 adbc
000002b0: 164e 58bd 90a9 073e 6868 3d3e 37f4 a93e
000002c0: 7f9c 3c3e 4215 c6bc 8e48 15be 4834 6abd
000002d0: d4a3 d3bd 9566 27be 7bd6 2abe 05ae c3bc
000002e0: 2560 893d 8d6d 15be a058 a23e 04af 163e
000002f0: be6f cabd 75e6 20be eeba 91be f5c2 6b3e
00000300: d113 3f3d cd47 7cbe 4685 653e 486d 65be
00000310: f72d 1ebe 3bdc da3d 34dc 94be 80da 92be
00000320: 4810 053d d32e 7abe 4cc3 9f3e 50d0 9d3e
00000330: 8530 963d 298f 79be 481d 313e 9bb0 4fbe
00000340: 37ea 41be 3077 053e 420f 163e f3c5 89be
00000350: 48ec 923d 3616 743e ee25 30bb 063a 0f3e
00000360: 3f4e 8e3e c568 9d3e 5566 71be 4a8a 9fbe
00000370: 84bd 633e 29f3 e13d 90db 8fbe 62f1 093e
00000380: 3048 913d 127e c33d 4979 a3bb 0d25 6c3e
00000390: e6f3 80be 412d 29be 90b2 783e 99d7 69be
000003a0: 24a7 0abe 7a6f 57bc bdb0 91be 9e3c 0f3e
000003b0: 1488 a0be 42f5 483e c405 69be 059e 413d
000003c0: 8389 03be b156 63be 25b8 c5bb f793 563e
000003d0: 99ef d93d 4fde 9cbe 6d1a 093d 1b1d a5be
000003e0: f802 86be 897e 9dbe 446c 03be 61dd a53e
000003f0: 9d08 74be 752c 93be 42cc 89bd d621 9cbd
