models/65.pt (torch, 837106 bytes, 17 tensors)

weight f4 [32, 1, 3, 3]
-0.0592968 0.017116532 0.085824504 -0.26086333 0.18306617 -0.20332769 0.2636935 -0.23546202
-0.24269602 0.02950297 0.16978996 -0.098014645 -0.13673714 0.13870217 0.100705795 0.2693244
-0.08904216 -0.23685999 -0.20089793 0.0880937 -0.3125849 0.1265999 0.18663086 0.22890325
0.109323144 -0.12388577 -0.16078496 -0.18355614 0.31836677 -0.05608041 -0.08959754 -0.09974673
0.2556463 0.24029908 -0.038329385 0.18725522 0.32073742 -0.103857316 -0.102754086 0.29530445
0.16691153 -0.07944052 0.29361695 0.13739301 0.02467456 0.30358502 0.28928897 -0.14724185
0.06532417 -0.124482535 0.1882526 -0.13800614 -0.22330114 0.21183464 -0.13308692 0.0059519033
0.2819989 -0.23757143 -0.081815444 0.10364514 0.1278095 -0.3473848 0.04805905 0.09622761
0.12693241 0.20991431 -0.1574948 0.32558778 0.07469826 -0.09315134 0.07217028 -0.17668454
-0.18747863 -0.20158724 -0.14690296 0.19406098 -0.092089325 -0.23918569 0.25682032 -0.2678199
0.014340565 0.26905718 0.20050472 -0.18229254 0.30168995 0.23301469 0.32486868 -0.12625943
-0.009153641 -0.28650412 -0.35547057 0.07527183 0.0018014066 0.13030924 -0.15076618 0.1096903
0.26718757 -0.34699267 0.20395595 0.0723367 -0.04569498 0.14194259 0.27079242 -0.25469723
-0.2809733 -0.066743724 -0.10589218 0.13133463 0.05330694 -0.16031453 -0.22974856 0.20153415
-0.21588449 0.037903003 0.15144381 -0.22251669 -0.2562473 0.2968879 0.22957437 -0.08459128
-0.2299506 -0.30147436 -0.22158958 0.24011154 -0.23479076 -0.20893681 -0.24089609 0.21682023
-0.2699186 0.25645226 -0.1920492 0.28327346 -0.24742474 0.18669721 -0.21341136 -0.09323805
0.2483403 -0.04616629 0.24397774 -0.24578717 -0.3965893 -0.024051528 0.22680971 -0.13125622
-0.3015893 0.17741501 0.029658485 -0.012454716 -0.1639525 -0.30843866 0.28769338 0.055165373
0.03601387 0.280585 -0.26816756 -0.2627209 0.054586448 0.09176647 0.041097093 -0.18927327
0.21710674 0.28337055 0.09692303 0.3049228 6.8807945e-05 0.10507269 0.21867576 -0.13444094
0.25054732 0.21175475 -0.086236574 -0.121185996 -0.14798842 -0.16226387 0.32670003 -0.12325771
0.17288993 -0.31202248 -0.09540272 0.029367054 -0.13497047 -0.23709057 -0.04458493 0.26973706
0.1939094 0.28515545 -0.22276124 0.08458418 0.093108945 0.13798425 0.13242427 -0.25165284
-0.10923954 0.19264297 -0.09473386 -0.077140406 0.107196845 -0.06127825 0.03803785 -0.32687962
-0.111784235 0.123770356 -0.11815285 0.070368186 0.27531806 0.2083771 0.27934507 0.1598817
-0.06161581 -0.14968567 -0.2333374 0.09361461 -0.34366 0.19695877 0.09233949 -0.07395407
0.09472054 -0.09813094 -0.14383824 -0.3022449 -0.09348076 -0.09750186 0.032548618 0.29843286
-0.12945831 0.23070209 0.12956157 0.031255394 -0.263249 -0.18179028 0.21717316 -0.30111232
0.19117257 -0.18872423 0.059898026 0.17646158 -0.24036045 0.23560205 0.14632945 -0.21259066
-0.002583402 -0.24490154 0.037708562 0.20953679 0.14003624 -0.25060606 -0.05324904 -0.26708603
0.19988766 -0.08148646 0.075123996 -0.2134124 -0.11383483 -0.23532695 -0.29651886 0.30096772
00000000: 34e1 72bd f837 8c3c c2c4 af3d e18f 85be
00000010: b375 3b3e 2235 50be d602 873e f51c 71be
00000020: 4e85 78be 36b0 f13c 6bdd 2d3e e7bb c8bd
00000030: d204 0cbe f107 0e3e d73e ce3d e3e4 893e
00000040: bc5b b6bd 6d8b 72be 30b8 4dbe 786a b43d
00000050: 210b a0be 67a3 013e 291c 3f3e 9d65 6a3e
00000060: d0e4 df3d d3b7 fdbd d0a4 24be 24f6 3bbe
00000070: f800 a33e 92b4 65bd ea7e b7bd 0348 ccbd
00000080: 12e4 823e f610 763e 46ff 1cbd d5bf 3f3e
00000090: b237 a43e 25b3 d4bd bc70 d2bd 2532 973e
000000a0: dbea 2a3e b6b1 a2bd f654 963e c1b0 0c3e
000000b0: 4e22 ca3c 7f6f 9b3e af1d 943e 91c6 16be
000000c0: aec8 853d b3f0 febd 4ac5 403e 7b51 0dbe
000000d0: 0ea9 64be 2eeb 583e f047 08be 2f08 c33b
000000e0: 2962 903e ed45 73be db8e a7bd e743 d43d
000000f0: 7ee0 023e 6cdc b1be 91d9 443d fb12 c53d
00000100: 92fa 013e c7f3 563e 5146 21be 71b3 a63e
00000110: 67fb 983d 21c6 bebd 03ce 933d cbec 34be
00000120: 66fa 3fbe e36c 4ebe bb6d 16be ecb7 463e
00000130: 5499 bcbd 18ed 74be f47d 833e b11f 89be
00000140: b0f4 6a3c ddc1 893e 1c51 4d3e e5aa 3abe
00000150: 1b77 9a3e 679b 6e3e 3055 a63e 274a 01be
00000160: 27f9 15bc abb0 92be 3d00 b6be 1e28 9a3d
00000170: 2d1d ec3a c96f 053e 7362 1abe 4fa5 e03d
00000180: cfcc 883e 06a9 b1be d4d9 503e 4425 943d
00000190: a92a 3bbd 6659 113e 4ea5 8a3e ad67 82be
000001a0: bbdb 8fbe efb0 88bd 00de d8bd 967c 063e
000001b0: 6158 5a3d 7e29 24be 3543 6bbe f85e 4e3e
000001c0: d310 5dbe 2e40 1b3d 1614 1b3e 6adb 63be
000001d0: d932 83be b101 983e 8b15 6b3e 313e adbd
000001e0: 2c78 6bbe d95a 9abe 61e8 62be cddf 753e
000001f0: fd6c 70be 88f3 55be 77ad 76be 1f06 5e3e
00000200: c532 8abe b64d 833e 8ca8 44be 3809 913e
00000210: e95c 7dbe 8e2d 3f3e 8288 5abe 97f3 bebd
00000220: eb4c 7e3e dd18 3dbd 4dd5 793e a2af 7bbe
00000230: c10d cbbe b607 c5bc ce40 683e 0868 06be
00000240: ea69 9abe 48ac 353e 5af6 f23c dd0e 4cbc
00000250: 2ae3 27be aceb 9dbe 8c4c 933e 16f5 613d
00000260: 4883 133d d6a8 8f3e 424d 89be 5b83 86be
00000270: 0a96 5f3d 0ff0 bb3d 6d55 283d dad0 41be
00000280: 3b51 5e3e f215 913e 957f c63d d71e 9c3e
00000290: fc4c 9038 5a30 d73d 8aec 5f3e e3aa 09be
000002a0: bd47 803e 3dd6 583e cd9c b0bd 5d30 f8bd
000002b0: 478a 17be 8028 26be 3a45 a73e 8a6e fcbd
000002c0: 0f0a 313e 69c1 9fbe 8062 c3bd 2d93 f03c
000002d0: b335 0abe dfc7 72be b09e 36bd fa1a 8a3e
000002e0: 3090 463e e5ff 913e 861b 64be 783a ad3d
000002f0: e7af be3d be4b 0d3e 3a9a 073e a4d8 80be
00000300: fbb8 dfbd 3344 453e d303 c2bd cafb 9dbd
00000310: 058a db3d e7fe 7abd 94cd 1b3d c45c a7be
00000320: 22ef e4bd 507b fd3d 1ffa f1bd 321d 903d
00000330: 7df6 8c3e ce60 553e 5106 8f3e 07b8 233e
00000340: dc60 7cbd 3347 19be 00f0 6ebe 04b9 bf3d
00000350: 34f4 afbe 8faf 493e 7d1c bd3d 3b75 97bd
00000360: d8fc c13d e0f8 c8bd 554a 13be d8bf 9abe
00000370: d772 bfbd 0eaf c7bd b351 053d 31cc 983e
00000380: b890 04be 2b3d 6c3e caab 043e a805 003d
00000390: 93c8 86be 3b27 3abe a462 5e3e 652b 9abe
000003a0: bec2 433e ed40 41be a257 753d 58b2 343e
000003b0: 0d21 76be aa41 713e 63d7 153e 5eb1 59be
000003c0: 4b4e 29bb 78c7 7abe 4b74 1a3d d090 563e
000003d0: a965 0f3e 704f 80be aa1b 5abd 80bf 88be
000003e0: 5aaf 4c3e 60e2 a6bd 9cda 993d c888 5abe
000003f0: 3c22 e9bd 8cf9 70be 52d1 97be 7118 9a3e

bias f4 [32]
0.090453714 0.100407965 0.09269452 -0.29599446 0.31889075 -0.053774364 -0.07097772 0.21631293
0.3457325 -0.023189187 -0.22276923 0.28955567 0.0732988 0.23632167 0.12690987 0.24931648
-0.13944395 -0.07603139 -0.045260042 0.24526207 -0.26664796 -0.22399376 0.03723682 0.11822153
0.1871326 0.07076504 0.06047982 -0.03147238 -0.25434965 -0.105796486 -0.104636855 0.098101944
00000000: cc3f b93d b1a2 cd3d a0d6 bd3d 968c 97be
00000010: a645 a33e 8242 5cbd c45c 91bd 2381 5d3e
00000020: da03 b13e 40f7 bdbc 9e1d 64be a440 943e
00000030: ae1d 963d 4ffe 713e a9f4 013e d24c 7f3e
00000040: 65ca 0ebe 58b6 9bbd 9862 39bd fb25 7b3e
00000050: 1586 88be 9f5e 65be a385 183d 211e f23d
00000060: b09f 3f3e 43ed 903d b0b9 773d 2fe9 00bd
00000070: 1e3a 82be d4ab d8bd d94b d6bd ace9 c83d

weight f4 [64, 32, 3, 3]
0.025589682 0.0009058827 -0.09083754 -0.018633207 -0.0011012143 0.005698499 0.011187841 -0.055909358
0.019700594 -0.012085445 -0.0066100946 0.0730255 0.043554757 0.0037583185 -0.043853953 0.062491544
0.02989456 0.017636985 -0.008911565 0.0070857094 0.043887552 0.032024994 0.007520216 -0.058086623
-0.035305034 0.04164265 0.051105246 0.011781172 -0.021766504 -0.038830034 0.019802524 -0.049620546
-0.0051622763 -0.0111549515 0.055619575 0.024223352 -0.0014168859 0.025158461 -0.053748384 -0.057723932
-0.0512319 -0.014015448 -0.04892241 -0.003924427 0.034931336 -0.013396538 0.01319089 -0.021753443
0.0021980254 0.04455471 0.057376575 0.0423547 0.05121776 0.07205139 0.047687486 -0.040574178
-0.013484537 -0.041543018 0.029661266 -0.03161792 0.008030339 0.012975587 0.054075032 -0.05423171
-0.0400425 -0.013392698 -0.027909223 -0.041627184 0.023263734 0.029185202 0.015128046 -0.051115237
-0.0059138285 0.017495235 -0.11494608 0.002107123 -0.012329296 -0.11169734 -0.013441057 -0.083288066
-0.124868914 0.046163935 -0.021084568 0.010230215 0.0356978 -0.02465327 -0.024874426 -0.048526514
0.025666742 -0.036831863 -0.03170099 0.0058557224 0.012910517 0.011094639 0.028656755 -0.0386934
-0.010048171 0.013432327 -0.0041159345 -0.018649194 0.002935261 0.0731681 0.00036329153 0.042584453
0.102777265 0.05416394 0.028360458 0.09320532 -0.047056314 0.0403369 -0.017967433 -0.050886083
-0.047153622 -0.1290268 -0.016955368 -0.10903807 -0.12327478 -0.05932744 -0.00065127027 -0.08697199
0.008594578 0.041748296 -0.042306487 -0.009721386 -0.00195785 -0.018850507 0.038908765 -0.01944034
0.11073039 0.037825245 -0.037989814 0.06553042 0.021797573 0.08995588 0.14590997 -0.0298163
0.0124733895 -0.025342213 0.004998593 -0.020481424 -0.0002956259 -0.01463265 0.01888674 -0.041234538
0.016139446 0.026733134 0.066273436 0.041556776 0.005974964 0.051960744 0.04669676 0.04639883
-0.017878756 -0.049278595 -0.021279143 0.02246372 -0.008065971 -0.0110801235 -0.04792047 -0.0134039875
0.04949806 0.004910666 -0.049456462 0.034327175 0.02550232 0.02264866 -0.039149303 -0.020157592
-0.020495294 0.0041628834 0.0119827315 -0.025789408 -0.009699982 0.04009543 -0.012660987 0.024090331
-0.015079074 0.002257054 0.055266652 0.025873061 -0.036504462 -0.031093957 0.06398624 -0.0051449225
-0.023224348 -0.0156085845 0.024589658 -0.058845058 -0.030877886 0.014450779 0.021291578 -0.0073061204
-0.047178168 -0.050266422 -0.027166253 0.026868448 -0.030332893 0.05638192 0.053296946 -0.044269126
-0.011698288 0.035126522 0.043546412 0.026924409 0.0019988404 0.056481563 -0.03613557 0.031932283
-0.02393024 -0.06927794 0.03047619 0.03199535 -0.043994904 -0.0016472652 0.020060392 0.018734982
0.033633254 -0.06336989 -0.037351035 -0.0552524 -0.008537383 0.0064693117 0.059047107 -0.006622829
0.11400364 0.03577611 -0.035066485 0.017132431 -0.034980547 0.0061167614 0.07605834 0.084668376
0.018474938 0.008095611 -0.028521793 -0.03234566 0.006383704 -0.04502993 -0.030911908 0.059123114
-0.013836651 -0.018551547 0.04638778 0.0150901815 0.050827943 0.13329184 0.026617942 0.033179462
-0.010555778 0.06469557 0.011243702 0.10828366 0.056427673 0.010552314 0.032222196 -0.038776986
00000000: 74a1 d13c c278 6d3a 0809 babd aba4 98bc
00000010: 9f56 90ba 79ba ba3b 354d 373c 3601 65bd
00000020: 2463 a13c 0802 46bc 7e99 d8bb 658e 953d
00000030: 7966 323d 1f4e 763b 34a0 33bd 22f7 7f3d
00000040: 70e5 f43c 707b 903c d001 12bc 3d2f e83b
00000050: 6fc3 333d a42c 033d 256c f63b 3dec 6dbd
00000060: 039c 10bd 7c91 2a3d bc53 513d d105 413c
00000070: ab4f b2bc 3e0c 1fbd e738 a23c ea3e 4bbd
00000080: 5028 a9bb 42c3 36bc 5ad1 633d 0d70 c63c
00000090: cdb6 b9ba 1e19 ce3c 4427 5cbd ee6f 6cbd
000000a0: 8ad8 51bd 0da1 65bc dd62 48bd 7b98 80bb
000000b0: 2914 0f3d 277d 5bbc 9a1e 583c 4734 b2bc
000000c0: bf0c 103b 007f 363d b303 6b3d 1f7c 2d3d
000000d0: b7c9 513d ae8f 933d f453 433d 1c31 26bd
000000e0: 3fee 5cbc 0329 2abd 2ffc f23c cb81 01bd
000000f0: af91 033c 8e97 543c c87d 5d3d 1222 5ebd
00000100: 9b03 24bd 0c6d 5bbc e2a1 e4bc 4481 2abd
00000110: 9693 be3c ce15 ef3c a0db 773c 365e 51bd
00000120: cac8 c1bb 2b52 8f3c da68 ebbd a817 0a3b
00000130: d100 4abc 93c1 e4bd e137 5cbc ef92 aabd
00000140: 46bb ffbd 6516 3d3d 8bb9 acbc a29c 273c
00000150: db37 123d a8f5 c9bc 74c5 cbbc bdc3 46bd
00000160: 0f43 d23c 02dd 16bd e6d8 01bd 5ce1 bf3b
00000170: a286 533c 4ac6 353c 92c1 ea3c f87c 1ebd
00000180: 15a1 24bc 4313 5c3c f6de 86bb 32c6 98bc
00000190: 825d 403b 28d9 953d 2a78 be39 096d 2e3d
000001a0: e37c d23d 02db 5d3d 3154 e83c 6ee2 be3d
000001b0: 1fbe 40bd 4e38 253d 7030 93bc ed6d 50bd
000001c0: 2824 41bd 9a1f 04be fce5 8abc 5a4f dfbd
000001d0: 7d77 fcbd 5401 73bd 02ba 2aba 5f1e b2bd
000001e0: 46d0 0c3c 4300 2b3d 9149 2dbd 7346 1fbc
000001f0: 464f 00bb 616c 9abc cc5e 1f3d 5941 9fbc
00000200: 9dc6 e23d a5ee 1a3d 359b 1bbd d034 863d
00000210: d390 b23c ca3a b83d 6c69 153e 5041 f4bc
00000220: 305d 4c3c 799a cfbc 3dcb a33b a9c8 a7bc
00000230: 3dfe 9ab9 c8bd 6fbc 5db8 9a3c 8ce5 28bd
00000240: df36 843c 72ff da3c 5eba 873d 7037 2a3d
00000250: a1c9 c33b cad4 543d 1a45 3f3d b30c 3e3d
00000260: 7876 92bc 5ad8 49bd 9951 aebc d605 b83c
00000270: 2227 04bc 6889 35bc 4148 44bd 669c 5bbc
00000280: 7abe 4a3d a7e9 a03b dc92 4abd a79a 0c3d
00000290: 3eea d03c af89 b93c 055b 20bd 8921 a5bc
000002a0: bfe5 a7bc cc68 883b 3853 443c 4f44 d3bc
000002b0: acec 1ebc 1b3b 243d 0770 4fbc 1659 c53c
000002c0: 380e 77bc 15eb 133b 495f 623d bef3 d33c
000002d0: b485 15bd c1b8 febc 380b 833d bd96 a8bb
000002e0: fd40 bebc 26bb 7fbc 4070 c93c 8407 71bd
000002f0: 9ff3 fcbc f6c2 6c3c ad6b ae3c 2e68 efbb
00000300: e53d 41bd 2ae4 4dbd c38b debc 381b dc3c
00000310: b07c f8bc baf0 663d e64d 5a3d 8b53 35bd
00000320: 2daa 3fbc d4e0 0f3d b95d 323d 9490 dc3c
00000330: fafe 023b 3659 673d e402 14bd 6dcb 023d
00000340: 5a09 c4bc 98e1 8dbd 34a9 f93c 8e0d 033d
00000350: 0034 34bd 0ce9 d7ba b155 a43c 1b7a 993c
00000360: 06c3 093d 13c8 81bd 66fd 18bd 5750 62bd
00000370: 61e0 0bbc 85fc d33b 61db 713d 5104 d9bb
00000380: be7a e93d f889 123d e0a1 0fbd 5059 8c3c
00000390: c347 0fbd 1d6f c83b 7ac4 9b3d 9d66 ad3d
000003a0: c158 973c 74a3 043c 89a6 e9bc e27c 04bd
000003b0: 642e d13b 4e71 38bd f83a fdbc 142b 723d
000003c0: 1fb3 62bc 6af9 97bc 1d01 3e3d cf3c 773c
000003d0: f630 503d a87d 083e df0d da3c 30e7 073d
000003e0: 24f2 2cbc 1c7f 843d 8137 383c d3c3 dd3d
000003f0: b420 673d 9de3 2c3c 6cfb 033d 9ed4 1ebd

bias f4 [64]
0.010399467 0.06993443 0.06582022 -0.06426712 0.04061425 0.028816259 -0.04237002 -0.020309458
-0.15609613 0.27956346 0.08151941 0.18894652 -0.18349917 0.08288753 0.034921188 0.27907875
0.13402842 0.26111647 0.009889764 0.01366345 -0.040151145 -0.045736667 -0.06802349 0.095091514
-0.110039756 0.111551695 0.06664592 -0.0270978 0.1535394 -0.11306777 0.1252905 0.10946093
0.06056284 -0.050329726 -0.016370632 -0.24661623 0.046883184 -0.0016330709 0.08801711 0.11347758
0.05931788 -0.077699155 -0.013391125 0.027919954 0.018337175 0.0772692 -0.041173734 -0.0437565
-0.15007496 0.1889237 -0.031174252 0.046212964 0.04053948 0.049680192 0.08216136 0.019438514
-0.01923928 0.1722563 0.00044517947 -0.033152625 -0.06826252 0.045242645 -0.12233477 0.063178025
00000000: 8762 2a3c c839 8f3d c0cc 863d 7b9e 83bd
00000010: 215b 263d 1310 ec3c 308c 2dbd 0560 a6bc
00000020: aad7 1fbe f122 8f3e a6f3 a63d 327b 413e
00000030: 35e7 3bbe f0c0 a93d 8509 0f3d 69e3 8e3e
00000040: bf3e 093e 0fb1 853e ad08 223c aadc 5f3c
00000050: 8775 24bd 5f56 3bbd e64f 8bbd 57bf c23d
00000060: 865c e1bd 3775 e43d a87d 883d 35fc ddbc
00000070: 6f39 1d3e 1390 e7bd 274c 003e 0d2d e03d
00000080: be10 783d 8b26 4ebd b41b 86bc f788 7cbe
00000090: 9508 403d c40c d6ba 5142 b43d ef66 e83d
000000a0: 4ef7 723d bc20 9fbd 7366 5bbc 63b8 e43c
000000b0: d837 963c 503f 9e3d caa5 28bd 043a 33bd
000000c0: 40ad 19be 3775 413e 2561 ffbc ce49 3d3d
000000d0: ba0c 263d 757d 4b3d 3744 a83d 853d 9f3c
000000e0: b29b 9dbc f563 303e fa66 e939 0ccb 07bd
000000f0: 38cd 8bbd 5a50 393d a78a fabd 7b63 813d

weight f4 [128, 64, 3, 3]
-0.075740926 -0.008180409 -0.029663466 -0.043140788 -0.021572314 -0.042497158 -0.06736926 0.006981597
-0.00039684898 -0.040547527 -0.02108846 0.03115637 -0.022128338 -0.034034513 -0.035180945 -0.038181394
0.01721288 0.018114148 -0.046906013 -0.027767804 0.042660598 -0.012017286 -0.021421634 0.0092558265
0.0036938472 0.01994967 -0.04227106 0.039660897 0.019784715 0.020160716 0.03497865 0.0112327235
-0.02273141 -0.03646808 0.056268357 0.047700923 0.00031902018 -0.009310785 -0.024805933 -0.03724145
0.026651375 0.040827136 0.0009618563 -0.032562517 0.044321593 0.010321386 0.04833379 -0.029561335
-0.0049532205 0.04416838 -0.0070183338 0.01625369 0.051399387 -0.02292314 0.004068347 -0.010742003
-0.015599095 -0.030414827 -0.03814928 -0.014128239 0.03437974 0.010862506 0.0571888 0.045137547
0.021746662 0.02528882 -0.001778378 0.03216443 -0.007214654 0.011631057 0.04851715 -0.04414543
-0.056727882 0.02531167 0.012349326 -0.07123002 -0.06927023 0.026820974 -0.069980785 0.0005693269
0.060501363 -0.0760045 0.002188382 0.007729243 -0.037282918 0.050185725 0.0047109392 -0.026659481
-0.044492085 -0.051222637 0.002815096 -0.02094102 -0.024263224 -0.018714584 -0.032396443 -0.034206383
-0.09520054 -0.037719414 -0.02830033 -0.04887392 -0.014837124 -0.005663306 -0.06250554 0.036842436
-0.036172234 -0.06333527 0.010681134 -0.0063690096 0.018669866 0.002071815 -0.029414298 -0.017856447
0.012634374 0.018688012 -0.031011617 0.0051096077 0.017264538 0.06723752 0.016615612 -0.037538137
0.0499489 0.019907964 -0.010399534 0.07705735 0.034932327 0.07101763 -0.0054149264 0.010484868
0.04270105 0.03378977 0.017546665 0.008902605 0.016710246 -0.00019893535 0.023197053 0.024105879
-0.03631324 0.008274796 -0.058835734 -0.05152609 -0.041347124 -0.052252878 -0.019823002 0.010130134
-0.068782635 -0.012414273 0.014608297 0.03043716 0.01221879 0.038525313 -0.053933613 -0.017747143
0.02841418 -0.053564876 -0.016104933 0.0042085457 0.021061026 0.0070737884 0.01955956 -0.03696066
-0.009410798 0.013287595 0.003593547 0.024769098 0.023457421 -0.04721258 -0.0035412882 0.007644061
-0.032066107 -0.0200501 -0.0075580515 -0.035758078 -0.023608228 -0.061004944 -0.01881697 0.0026255546
-0.019061323 -0.06659898 -0.004054234 -0.0421581 -0.009490819 -0.037954155 0.005975843 -0.022345189
-0.0330883 0.010186161 -0.0052122124 -0.042351253 -0.002833828 0.025016073 0.01030623 0.040058877
-0.013591244 -0.01811156 -0.015307043 -0.032044217 -0.013850477 0.040268213 0.044218812 0.0036050074
0.09045405 -0.016203474 -0.0016969962 0.056583505 0.0072195507 -0.025981111 0.027283477 -0.05885099
0.015287137 0.009093851 -0.035148207 -0.04182756 -0.015153294 0.027848853 0.011171119 0.015039747
-0.009844111 -0.016985973 0.08599916 -0.025229795 0.04849359 0.052799962 0.030550761 0.024671981
0.022723364 0.009325413 -0.008432882 0.0541356 -0.030370012 -0.0153637165 -0.032641634 -0.016371643
-0.01545859 0.00043803817 -0.008221718 -0.018473165 -0.04194712 -0.037849367 -0.014589904 0.006245849
-0.003873051 0.028763015 0.014603215 -0.01963538 0.031652663 -0.00020541428 -0.030920163 0.012548676
-0.0015863902 -0.011878692 0.016571352 -0.018303003 0.025557699 -0.007952766 0.0025118957 -0.023097891
00000000: 0f1e 9bbd 1f07 06bc cc00 f3bc 65b4 30bd
00000010: 6cb8 b0bc 8011 2ebd e5f8 89bd e1c5 e43b
00000020: 2b10 d0b9 2a15 26bd b5c1 acbc a53b ff3c
00000030: 7d46 b5bc c667 0bbd e519 10bd 1864 1cbd
00000040: 0702 8d3c 1f64 943c 8520 40bd 4e79 e3bc
00000050: e1bc 2e3d 27e4 44bc 6c7c afbc c0a5 173c
00000060: 7914 723b 7e6d a33c 6b24 2dbd 7773 223d
00000070: 8e13 a23c 1628 a53c c645 0f3d 7509 383c
00000080: 3937 babc 8e5f 15bd a679 663d 0b62 433d
00000090: 2a42 a739 438c 18bc d035 cbbc 7e8a 18bd
000000a0: fc53 da3c 5b3a 273d 1525 7c3a 4660 05bd
000000b0: 8f8a 353d 081b 293c a7f9 453d 9d2a f2bc
000000c0: a04e a2bb e7e9 343d 0dfa e5bb 7526 853c
000000d0: 2a88 523d 4fc9 bbbc c54f 853b 3aff 2fbc
000000e0: 5993 7fbc 8428 f9bc 6b42 1cbd 217a 67bc
000000f0: c5d1 0c3d a7f8 313c ce3e 6a3d 26e2 383d
00000100: 0e26 b23c 802a cf3c 7718 e9ba d9be 033d
00000110: e768 ecbb 3090 3e3c ebb9 463d d7d1 34bd
00000120: 7f5b 68bd 6b5a cf3c d454 4a3c 0be1 91bd
00000130: 8ddd 8dbd a9b7 db3c 1652 8fbd e23e 153a
00000140: 47d0 773d 3fa8 9bbd f56a 0f3b 9745 fd3b
00000150: f9b5 18bd 8c8f 4d3d 395e 9a3b fc64 dabc
00000160: 553d 36bd d4ce 51bd 797d 383b 818c abbc
00000170: abc3 c6bc 544f 99bc 22b2 04bd fe1b 0cbd
00000180: 80f8 c2bd ac7f 1abd 18d6 e7bc 0530 48bd
00000190: 6917 73bc 4193 b9bb e802 80bd 18e8 163d
000001a0: 5629 14bd ecb5 81bd ecff 2e3c 20b3 d0bb
000001b0: 8cf1 983c 4ac7 073b 41f6 f0bc af47 92bc
000001c0: 6800 4f3c 9a17 993c 130c febc 7f6e a73b
000001d0: 5c6e 8d3c d3b3 893d 771d 883c 97c1 19bd
000001e0: 3897 4c3d 0716 a33c cf62 2abc 3ed0 9d3d
000001f0: 3315 0f3d b171 913d b26f b1bb b9c8 2b3c
00000200: 4ce7 2e3d 2467 0a3d 06be 8f3c 3bdc 113c
00000210: ede3 883c 4d99 50b9 bf07 be3c b179 c53c
00000220: 31bd 14bd 0393 073c bdfd 70bd 050d 53bd
00000230: 9a5b 29bd 1d07 56bd d963 a2bc ddf8 253c
00000240: e9dd 8cbd 3c65 4bbc a357 6f3c 5a57 f93c
00000250: 5231 483c b8cc 1d3d 7ee9 5cbd 7562 91bc
00000260: dbc4 e83c d866 5bbd 7eee 83bc d7e7 893b
00000270: 2c88 ac3c 3dcb e73b 5f3b a03c 1064 17bd
00000280: bf2f 1abc 36b4 593c b781 6b3b 90e8 ca3c
00000290: c729 c03c fa61 41bd f514 68bb 087b fa3b
000002a0: c057 03bd 1b40 a4bc 88a9 f7bb 1077 12bd
000002b0: 0b66 c1bc 52e0 79bd 0c26 9abc 7f11 2c3b
000002c0: 7e26 9cbc 0c65 88bd 61d9 84bb f9ad 2cbd
000002d0: 617f 1bbc d175 1bbd 01d1 c33b 420d b7bc
000002e0: 9987 07bd dbe3 263c 35cb aabb 8278 2dbd
000002f0: bfb7 39bb 82ee cc3c 76db 283c c714 243d
00000300: cfad 5ebc b25e 94bc 64ca 7abc cc40 03bd
00000310: 1ced 62bc 48f0 243d c91e 353d fd41 6c3b
00000320: f93f b93d 26bd 84bc be6d deba 1bc4 673d
00000330: fb91 ec3b 57d6 d4bc 9981 df3c bc0d 71bd
00000340: e676 7a3c 60fe 143c 91f7 0fbd 6053 2bbd
00000350: 8645 78bc 4723 e43c 1207 373c 4569 763c
00000360: 3249 21bc 2b26 8bbc 5420 b03d b7ae cebc
00000370: 37a1 463d c644 583d 9745 fa3c e51c ca3c
00000380: 5926 ba3c 9ec9 183c 122a 0abc 4abd 5d3d
00000390: 88ca f8bc 19b8 7bbc 3cb3 05bd d31d 86bc
000003a0: 0746 7dbc 7da8 e539 62b4 06bc 0955 97bc
000003b0: bed0 2bbd f007 1bbd 7e0a 6fbc fba9 cc3b
000003c0: 03d3 7dbb 6aa0 eb3c 5342 6f3c 60da a0bc
000003d0: 39a6 013d 7a64 57b9 484c fdbc f698 4d3c
000003e0: 6cee cfba d89e 42bc a5c0 873c 2ef0 95bc
000003f0: 615e d13c 514c 02bc 9e9e 243b ca37 bdbc

bias f4 [128]
-0.021584194 0.060112268 0.0039002567 0.029415844 -0.071322076 -0.06377201 -0.06444541 -0.019005323
0.03463939 0.08605585 0.04243995 -0.23482165 -0.14469431 -0.079624236 0.007858447 -0.039868783
0.049281392 -0.059387695 -0.07020534 -0.0402278 -0.027139677 -0.020126078 0.044868577 -0.09692772
-0.23895325 0.10470008 -0.102395445 0.014988033 0.10692107 -0.30274534 -0.066797405 -0.10280402
-0.01283075 -0.021361832 -0.14388645 -0.042172533 0.045949686 -0.26417467 0.12785113 0.061472196
0.17991361 0.021475093 -0.010040582 -0.06525186 0.063915774 0.13005567 -0.014395574 -0.07734141
-0.07400021 -0.1502346 0.072617404 0.056630533 -0.043519493 -0.023328222 0.02189953 0.06160885
0.15052678 -0.008175916 0.124948286 -0.026599284 0.24504608 -0.02283828 0.009646851 -0.029642709
-0.026927395 0.03778699 0.0526796 -0.02256805 0.0001303078 -0.031064648 0.021108888 -0.0498808
-0.0521628 0.047376532 0.024353875 -0.04554428 0.048583925 0.14360963 0.021951769 0.04718004
0.030100064 0.020376055 0.040069923 -0.03765209 -0.07158993 0.036375936 0.07552075 -0.008558568
-0.041897994 -0.058661122 0.064215206 -0.029205902 0.01356405 -0.0153476065 -0.2312649 -0.0049501145
0.009997603 -0.0063934666 0.06798768 -0.1180153 -0.23315422 -0.005111807 0.027380351 -0.00032078748
-0.2468628 0.115928866 -0.00090064004 0.18865274 -0.067728415 0.04271655 -0.10860792 0.08698832
-0.07083886 -0.024810415 -0.11696 -0.28391597 0.09743209 0.024560522 0.03341549 0.034863397
0.057677843 0.02398363 0.3678398 0.0471229 0.011289461 -0.08259265 0.03765416 -0.0058663273
00000000: 56d1 b0bc 4838 763d 739b 7f3b 7ff9 f03c
00000010: 4f11 92bd e69a 82bd f5fb 83bd 0db1 9bbc
00000020: 08e2 0d3d 0d3e b03d 83d5 2d3d 1675 70be
00000030: bf2a 14be 0812 a3bd b7c0 003c 734d 23bd
00000040: 49db 493d 8340 73bd d1c7 8fbd e8c5 24bd
00000050: 0754 debc 72df a4bc 1dc8 373d 0a82 c6bd
00000060: 29b0 74be ff6c d63d b4b4 d1bd 5e90 753c
00000070: 6ff9 da3d 7001 9bbe 14cd 88bd ea8a d2bd
00000080: 1138 52bc 02ff aebc f856 13be 1bbd 2cbd
00000090: bd35 3c3d e741 87be 68eb 023e 45ca 7b3d
000000a0: 463b 383e 89ec af3c 4181 24bc c4a2 85bd
000000b0: 46e6 823d 502d 053e 6adb 6bbc 2c65 9ebd
000000c0: 6c8d 97bd 19d7 19be 6fb8 943d 6bf5 673d
000000d0: 7f41 32bd d41a bfbc a566 b33c 9059 7c3d
000000e0: b123 1a3e 47f4 05bc e3e4 ff3d bee6 d9bc
000000f0: 5ced 7a3e 5817 bbbc d30d 1e3c 44d5 f2bc
00000100: d796 dcbc 88c6 1a3d 90c6 573d a2e0 b8bc
00000110: 3ca3 0839 4a7b febc 8cec ac3c cf4f 4cbd
00000120: a9a8 55bd e50d 423d c781 c73c a48c 3abd
00000130: f0ff 463d 670e 133e 32d4 b33c dc3f 413d
00000140: 6994 f63c afeb a63c 5c20 243d 1439 1abd
00000150: be9d 92bd effe 143d 9faa 9a3d 3c39 0cbc
00000160: 3b9d 2bbd a546 70bd 4383 833d 3741 efbc
00000170: c03b 5e3c 8774 7bbc b5d0 6cbe 9234 a2bb
00000180: fccc 233c 4980 d1bb 203d 8b3d 01b2 f1bd
00000190: fbbf 6ebe f280 a7bb c24c e03c 5e2f a8b9
000001a0: 9ac9 7cbe 1d6c ed3d ee18 6cba 2f2e 413e
000001b0: 32b5 8abd 8df7 2e3d d46d debd ef26 b23d
000001c0: f713 91bd 363f cbbc b988 efbd 6f5d 91be
000001d0: 7a8a c73d 2633 c93c aede 083d eccc 0e3d
000001e0: 9a3f 6c3d 5179 c43c 8055 bc3e f103 413d
000001f0: 6ef7 383c 5626 a9bd 403b 1a3d 523a c0bb

weight f4 [128, 64, 3, 3]
0.00908831 -0.019071566 9.500862e-05 0.0012018782 0.009195778 0.029899556 -0.015176383 0.0018911472
-0.0107086 0.017692707 -0.021310775 -0.010319124 0.027683074 -0.02062822 0.026111001 -0.04249207
-0.005737806 0.021526864 -0.023635952 -0.03151418 -0.025824236 -0.008614709 -0.025277132 -0.008344542
-0.032216467 -0.012717993 -0.025822561 -0.015927952 -0.018427534 -0.0025280872 0.01458797 -0.0362328
-0.0488265 0.0075563528 0.025281241 0.026592577 -0.00068433856 -0.007905238 0.042373084 0.047053434
-0.010237278 0.023237782 -0.00021382408 -0.017568532 -0.026610473 0.007269528 0.03438708 -0.027183061
-0.010514785 0.0073485873 -0.04181644 0.024792016 0.028897645 -0.014883842 -0.020412004 -0.0016436887
-0.024519308 0.021693181 0.01018407 0.04866676 -0.08015814 0.007804195 -0.011198641 -0.031556565
-0.010469428 -0.03907772 0.007021599 -0.024643809 -0.010396757 0.02764839 0.02569325 0.017527975
-0.013929896 0.035424747 0.03757224 0.030040119 0.008135607 -0.038623154 0.028013198 0.025119802
-0.010193563 -0.043958932 0.017896904 0.0031697624 -0.0047023618 -0.024190053 0.0026945935 -0.02585301
0.02241625 0.0180046 0.046723537 0.03948409 -0.014186253 -0.03470318 0.020529777 -0.024893709
0.047453113 0.094222434 0.09586064 -0.031746864 -0.026014851 -0.00057276594 -0.025424125 -0.024421476
-0.009822423 -0.044372693 -0.055898063 0.01684528 -0.023371518 -0.03361567 0.019945325 -0.04404536
0.024793224 -0.044710945 0.021527003 -0.025078284 -0.018543644 0.023753071 0.033390153 0.0039785285
-0.0019258496 0.034143947 -0.0012452812 0.016404066 -0.0050665606 0.033294752 0.01609051 -0.04125184
0.00362343 0.005037968 0.019914744 -0.016290419 0.07324459 0.06281775 0.0973361 -0.0077794325
0.01605599 0.0074014 0.012723285 0.00280195 -0.0142546445 -0.045447502 -0.024411429 0.043506954
0.019702563 0.00019435743 -0.037387174 0.027315555 -0.015699692 0.01482639 0.036791608 -0.028481133
-0.019296218 -0.02758416 -0.02534061 0.031133624 0.005063238 -0.012614956 -0.03777863 0.021133771
0.008608872 -0.014927561 -0.02737049 -0.010820333 -0.08301613 0.0010212256 -0.04364796 -0.062739596
-0.055501837 -0.04749768 -0.072437964 0.009334055 -0.0031768524 0.011348283 0.056042355 0.06289994
0.032641534 -0.017544484 0.021365749 0.040781017 -0.0141347535 0.029972494 0.014067457 -0.026186645
0.04900506 0.0014735039 -0.06684202 0.050738595 -0.011410727 -0.0019323218 0.0016210017 -0.022329329
-0.0018730136 -0.03537434 -0.02557571 0.019210882 -0.014424219 0.0024685627 -0.048446797 -0.013312277
0.005131192 -0.062374562 -0.041271772 -0.026795115 0.022720192 0.010431751 0.047281034 -0.030967873
0.051627707 0.08315444 -0.0042237155 -0.0038451843 0.016270915 0.08367504 0.016810829 0.04172763
0.001394326 0.035509106 0.05354534 0.05756891 0.026926516 0.03502417 0.004678154 0.035244107
0.002315509 -0.08253815 -0.012274883 0.07001144 -0.0042116167 -0.03383496 0.12213274 -0.058985353
0.048922468 0.045619387 0.0021684354 -0.06958059 -0.0064350623 0.0035066633 0.012745136 -0.029277781
-0.061942 -0.06050488 -0.058081634 -0.01731058 -0.07242859 -0.0982253 0.02261583 -0.0131159
-0.053385053 0.02480896 -0.0153864585 -0.056109603 -0.009601038 -0.023788592 0.0320137 -0.044981275
00000000: 23e7 143c f93b 9cbc 5d3f c738 5788 9d3a
00000010: e3a9 163c eaef f43c 5da6 78bc 5fe0 f73a
00000020: 2073 2fbc 4cf0 903c ef93 aebc 8b11 29bc
00000030: 9dc7 e23c 83fc a8bc bde6 d53c 2a0c 2ebd
00000040: 3504 bcbb 1b59 b03c 2fa0 c1bc 0315 01bd
00000050: 598d d3bc b524 0dbc fd11 cfbc 8cb7 08bc
00000060: 6af5 03bd 215f 50bc d689 d3bc 567b 82bc
00000070: 57f5 96bc 44ae 25bb 6202 6f3c d868 14bd
00000080: 4cfe 47bd 489b f73b 9b1a cf3c add8 d93c
00000090: 2f65 33ba f984 01bc 668f 2d3d 1abb 403d
000000a0: 42ba 27bc 295d be3c f735 60b9 e2eb 8fbc
000000b0: 35fe d9bc 3935 ee3b 78d9 0c3d 03af debc
000000c0: 3446 2cbc 6bcc f03b b747 2bbd a018 cb3c
000000d0: c1ba ec3c 5cdb 73bc 1337 a7bc 0a71 d7ba
000000e0: b7dc c8bc e6b5 b13c 16db 263c cc56 473d
000000f0: f329 a4bd 55ba ff3b 817a 37bc 7541 01bd
00000100: f787 2bbc f60f 20bd 7115 e63b d0e1 c9bc
00000110: 2957 2abc e07e e23c a77a d23c d496 8f3c
00000120: 383a 64bc 8a19 113d 59e5 193d b216 f63c
00000130: 354b 053c 5033 1ebd ef7b e53c 0bc8 cd3c
00000140: e702 27bc 480e 34bd 879c 923c cabb 4f3b
00000150: 4516 9abb 382a c6bc c797 303b b1c9 d3bc
00000160: 49a2 b73c 627e 933c 2e61 3f3d 12ba 213d
00000170: 756d 68bc ec24 0ebd 102e a83c e4ed cbbc
00000180: 325e 423d b1f7 c03d 9552 c43d 0009 02bd
00000190: 191d d5bc ac25 16ba 4146 d0bc 8c0f c8bc
000001a0: 3aee 20bc 24c0 35bd 5ef5 64bd 1dff 893c
000001b0: a075 bfbc 96b0 09bd 6164 a33c e868 34bd
000001c0: 291b cb3c d322 37bd 6659 b03c f970 cdbc
000001d0: d7e8 97bc cd95 c23c 1dc4 083d 515e 823b
000001e0: ca6c fcba 86da 0b3d b438 a3ba d261 863c
000001f0: 6405 a6bb 1460 083d 3fd0 833c b0f7 28bd
00000200: 1177 6d3b 8a15 a53b 3f24 a33c 7c73 85bc
00000210: 4201 963d 98a6 803d 2658 c73d 9cea febb
00000220: da87 833c 7187 f23b 5375 503c eca0 373b
00000230: 508c 69bc 2927 3abd 7afa c7bc 5934 323d
00000240: 4567 a13c 6dcc 4b39 4b23 19bd dfc4 df3c
00000250: a49c 80bc 63ea 723c ccb2 163d 4451 e9bc
00000260: 1a13 9ebc 2df8 e1bc 1c97 cfbc f10b ff3c
00000270: 85e9 a53b f6ae 4ebc c4bd 1abd bb20 ad3c
00000280: 3a0c 0d3c bb92 74bc 1438 e0bc c447 31bc
00000290: 5c04 aabd a5da 853a 34c8 32bd 9e7d 80bd
000002a0: e555 63bd ed8c 42bd 5b5a 94bd dded 183c
000002b0: bd32 50bb 26ee 393c ab8c 653d afd1 803d
000002c0: 21b3 053d 73b9 8fbc 3907 af3c ff09 273d
000002d0: 7495 67bc e088 f53c 317b 663c 6085 d6bc
000002e0: 88b9 483d 9622 c13a 78e4 88bd 46d3 4f3d
000002f0: 0ff4 3abc f645 fdba cb77 d43a ffeb b6bc
00000300: e87f f5ba afe4 10bd 2784 d1bc 2460 9d3c
00000310: 8f53 6cbc 9cc7 213b 2670 46bd bd1b 5abc
00000320: 8f23 a83b 787c 7fbd 970c 29bd 6e81 dbbc
00000330: b21f ba3c efe9 2a3c c2a9 413d 56b0 fdbc
00000340: 9377 533d e04c aa3d 1867 8abb 7dff 7bbb
00000350: 954a 853c d25d ab3d ddb6 893c 97ea 2a3d
00000360: d1c1 b63a ff71 113d 5c52 5b3d 61cd 6b3d
00000370: ff94 dc3c 8175 0f3d 334b 993b 205c 103d
00000380: cbbf 173b c309 a9bd 971c 49bc 2862 8f3d
00000390: 9a01 8abb 8796 0abd bb20 fa3d a09a 71bd
000003a0: ed62 483d 65db 3a3d 4f1c 0e3b 4580 8ebd
000003b0: 37dd d2bb 0cd0 653b fad0 503c f5d7 efbc
000003c0: e5b6 7dbd f7d3 77bd 02e7 6dbd ebce 8dbc
000003d0: 7155 94bd 592a c9bd d544 b93c 12e4 56bc
000003e0: 49aa 5abd 293c cb3c 7c17 7cbc 2fd3 65bd
000003f0: ac4d 1dbc 4be0 c2bc cc20 033d 493e 38bd

bias f4 [64]
0.036750674 0.0501862 0.24946125 -0.006119154 -0.051721722 0.022245677 -0.0015035558 0.040439945
0.031838015 0.025194108 0.012785945 0.06598962 0.056568325 -0.02003406 -0.1492016 0.19738728
0.07372366 0.06815731 0.010243076 0.031088887 0.0196162 0.12722735 0.057248484 -0.038013626
-0.047397237 -0.007391139 0.16757673 0.060455203 -0.017920535 0.22092298 0.0029900891 0.020858556
-0.008937992 0.018165294 0.02976054 0.048260186 0.028692106 0.026537541 0.011170198 0.019343367
0.07117555 0.15234482 0.056078725 0.047813125 -0.04911461 0.03857493 -0.018378932 0.11283102
0.29074064 0.051952373 0.0055578942 -0.0022915297 0.17806879 0.07953089 -0.024371592 0.018518882
0.11160704 0.09863974 -0.0031843376 0.011914545 0.0015492203 -0.054711957 -0.04446785 -0.019433469
00000000: e087 163d 0b90 4d3d c572 7f3e 2f83 c8bb
00000010: 28da 53bd 913c b63c f612 c5ba 5ba4 253d
00000020: 9468 023d e063 ce3c 247c 513c 9125 873d
00000030: 30b4 673d 781e a4bc 4ec8 18be e41f 4a3e
00000040: 6efc 963d 0f96 8b3d 93d2 273c 1fae fe3c
00000050: 27b2 a03c e347 023e 637d 6a3d 2db4 1bbd
00000060: 9b23 42bd 5e31 f2bb 3c99 2b3e e09f 773d
00000070: 16ce 92bc a239 623e 5ff5 433b 90df aa3c
00000080: a870 12bc 62cf 943c 60cc f33c 79ac 453d
00000090: b50b eb3c 4265 d93c 3503 373c fb75 9e3c
000000a0: 7dc4 913d 4800 1c3e ceb2 653d b2d7 433d
000000b0: 672c 49bd bf00 1e3d 6a8f 96bc f313 e73d
000000c0: f5db 943e 03cc 543d ff1e b63b 7d2d 16bb
000000d0: aa57 363e 17e1 a23d efa6 c7bc e9b4 973c
000000e0: 3b92 e43d a203 ca3d 52b0 50bb 3935 433c
000000f0: 350f cb3a a519 60bd ec23 36bd f032 9fbc

weight f4 [64, 32, 3, 3]
-0.008025534 0.042983495 0.025625385 -0.018663155 0.055008523 -0.049135137 0.047972687 -0.04613915
-0.041967567 -0.0010938529 0.0048660734 0.027962422 0.036543828 0.010982751 -0.035092976 -0.028231334
0.017497575 0.0030412981 -0.059252504 -0.00022336542 0.048381377 0.034637906 -0.05873835 0.027377237
0.05082323 -0.039659612 -0.008734936 -0.008190024 0.036022443 -0.007544366 0.028632257 0.049722742
-0.038107336 -0.049766216 0.016952125 0.008529642 0.0013594327 -0.060595978 -0.03579757 -0.04863067
-0.031659182 0.027623748 -0.020103918 0.037100717 -0.0071081715 0.012099076 0.016001659 0.037537113
-0.06164009 -0.026567062 0.04932486 0.019469084 0.006408528 0.0136410445 -0.018571 -0.029737469
0.039004896 -0.008188542 -0.04020431 -0.010207124 -0.05626493 0.036835384 -0.016556889 -0.01979707
-0.046615724 0.03883855 0.0028020702 -0.02050369 0.040730853 -0.005570107 -0.07783211 -0.009192339
0.001312013 -0.023848344 -0.04036264 0.036157418 0.04185363 -0.000573745 -0.052094214 -0.04219984
-0.03995046 -0.020288413 -0.046227653 0.0051645185 0.036774553 0.038946353 0.043777224 -0.05219049
-0.02241317 -0.01328717 -0.037104648 0.003190211 -0.069264635 0.037224438 0.025612762 0.011768327
-0.0569391 -0.012991903 -0.002148097 0.002749572 -0.015167912 0.032836985 -0.017109463 -0.03876827
0.019824665 0.028521758 0.0054415786 -0.06188926 0.04771715 -0.019492744 -0.0514086 0.01502838
-0.026411938 -0.04225566 -0.004319759 -0.019570468 -0.011237813 -0.08112061 -0.0360329 -0.07658429
-0.031772107 0.05035827 0.03816284 0.007602311 0.00998515 0.023915168 0.052071944 0.00095592364
-0.018133262 -0.029467342 -0.01231382 -0.049494203 0.02785474 -0.020127853 -0.007730522 0.029579155
-0.040284082 -0.004986385 -0.0179605 -0.043861162 -0.030122135 -0.033328824 0.044569407 0.052895583
-0.0026112406 0.014888553 -0.009666518 -0.0042993794 0.00076186756 0.033228803 0.035590224 0.046855666
-0.0025916975 -0.022586303 0.033497937 -0.013714762 0.061705507 0.04029002 -0.011918557 0.026510349
-0.025519509 -0.028318861 0.039361667 -0.042054843 -0.020567883 0.05339012 -0.030755293 -0.0016192733
-0.0022527669 0.048017364 -0.031551648 -0.11383755 -0.08276718 -0.056042098 0.028543228 0.05523427
-0.01918701 0.020575803 0.08692657 0.02810674 -0.0066370345 -0.017664567 0.028101787 -0.004879917
0.036791775 0.04749033 0.028518831 -0.039804287 0.04006027 -0.015292465 0.007991768 0.033555165
0.0008450508 -0.03156326 -0.0010028005 0.019771855 0.055712853 -0.06048979 0.043901104 -0.036814395
0.047110125 -0.047314353 0.026117617 -0.010984886 0.048751563 -0.009966811 -0.030469233 0.020208865
-0.028155604 -0.037723776 0.0013626058 0.0060162195 0.040646102 0.0021873016 -0.045783337 -0.022888627
-0.010060636 0.0010285499 -0.04664255 0.04301763 0.014128055 -0.059572335 -0.04932496 0.018051863
-0.021512989 0.005018769 0.01782082 0.02350204 -0.03582641 0.05748153 -0.031882737 -0.008429547
0.0691688 -0.0082957875 -0.025898084 -0.058463927 -0.009392503 -0.018762598 -0.020424169 -0.053697716
-0.018787615 0.03472496 -0.021685824 -0.005833362 -0.04899202 -0.041619897 -0.03685867 -0.05306092
0.03503116 0.010051504 -0.027032448 0.033874348 -0.04158555 -0.04057019 -0.05987366 -0.04460731
00000000: 887d 03bc 760f 303d 54ec d13c 79e3 98bc
00000010: 9e50 613d ed41 49bd 027f 443d 68fc 3cbd
00000020: 2fe6 2bbd 9d5f 8fba 9573 9f3b 7311 e53c
00000030: fbae 153d fff0 333c a7bd 0fbd 6645 e7bc
00000040: 1357 8f3c 8450 473b c1b2 72bd 3337 6ab9
00000050: 8d2b 463d 7ae0 0d3d a097 70bd 3a46 e03c
00000060: 052c 503d 1e72 22bd fa1c 0fbc 732f 06bc
00000070: 458c 133d bb36 f7bb 328e ea3c 13aa 4b3d
00000080: 7016 1cbd a9d7 4bbd 2fdf 8a3c e9bf 0b3c
00000090: fe2e b23a 7d33 78bd 79a0 12bd f430 47bd
000000a0: 0fad 01bd 334b e23c f9b0 a4bc ecf6 173d
000000b0: aaeb e8bb 343b 463c e915 833c 84c0 193d
000000c0: 527a 7cbd 2ba3 d9bc dd08 4a3d a17d 9f3c
000000d0: a1fe d13b b07e 5f3c 3622 98bc fe9b f3bc
000000e0: 99c3 1f3d 3c29 06bc 46ad 24bd c83b 27bc
000000f0: 0e76 66bd b3e0 163d 50a2 87bc 772d a2bc
00000100: 21f0 3ebd 2c15 1f3d f0a2 373b 5bf7 a7bc
00000110: 65d5 263d 7285 b6bb 7166 9fbd 779b 16bc
00000120: daf7 ab3a 9a5d c3bc 4c53 25bd cd19 143d
00000130: b66e 2b3d 6067 16ba be60 55bd bdd9 2cbd
00000140: 18a3 23bd e333 a6bc 3559 3dbd 1f3b a93b
00000150: eaa0 163d 3686 1f3d bf4f 333d b2c5 55bd
00000160: d39b b7bc 6eb2 59bc 0bfb 17bd dc12 513b
00000170: 9eda 8dbd a778 183d dbd1 d13c f1cf 403c
00000180: f938 69bd fedb 54bc 16c7 0cbb 2a32 343b
00000190: d582 78bc 1380 063d 2529 8cbc 7acb 1ebd
000001a0: 5667 a23c 76a6 e93c 454f b23b 987f 7dbd
000001b0: 0f73 433d 3faf 9fbc d391 52bd 9839 763c
000001c0: d95d d8bc 4514 2dbd c48c 8dbb 3f52 a0bc
000001d0: ce1e 38bc 9022 a6bd 3c97 13bd 39d8 9cbd
000001e0: 7823 02bd 7944 4e3d a350 1c3d cf1c f93b
000001f0: c198 233c bee9 c33c 6449 553d f396 7a3a
00000200: 358c 94bc 7f65 f1bc e8bf 49bc 6fba 4abd
00000210: a02f e43c 2be3 a4bc 5250 fdbb fc4f f23c
00000220: ec00 25bd d464 a3bb e621 93bc c3a7 33bd
00000230: b2c2 f6bc ce83 08bd 698e 363d 0aa9 583d
00000240: 5921 2bbb 1eef 733c 5160 1ebc cfe1 8cbb
00000250: 11b8 473a ed1a 083d 0ec7 113d baeb 3f3d
00000260: 78d9 29bb e906 b9bc 2235 093d e2b3 60bc
00000270: eabe 7c3d 2607 253d 0d46 43bc 3b2c d93c
00000280: 4a0e d1bc f5fc e7bc b339 213d b341 2cbd
00000290: fa7d a8bc 99af 5a3d 86f2 fbbc cc3d d4ba
000002a0: 28a3 13bb dbad 443d 4d3c 01bd a923 e9bd
000002b0: d781 a9bd 668c 65bd 7dd3 e93c 543d 623d
000002c0: 142e 9dbc 968e a83c 8f06 b23d 1b40 e63c
000002d0: 7b7b d9bb 48b5 90bc b835 e63c b6e7 9fbb
000002e0: f9b2 163d 3885 423d 53a0 e93c d209 23bd
000002f0: 3d16 243d 3f8d 7abc e8ef 023c 2471 093d
00000300: 6686 5d3a 7a48 01bd 6770 83ba 96f8 a13c
00000310: 2933 643d 24c4 77bd a5d1 333d b1ca 16bd
00000320: 8cf6 403d b2cc 41bd 9df4 d53c f4f9 33bc
00000330: b8af 473d d64b 23bc 9d9a f9bc 108d a53c
00000340: 95a6 e6bc 3f84 1abd 7799 b23a b523 c53b
00000350: 877c 263d d558 0f3b 4f87 3bbd ee80 bbbc
00000360: 5ed5 24bc 68d0 863a 420c 3fbd 4133 303d
00000370: 5c79 673c 1f02 74bd f808 4abd 80e1 933c
00000380: 023c b0bc 7c74 a43b f8fc 913c 5a87 c03c
00000390: b7be 12bd c171 6b3d 7997 02bd 151c 0abc
000003a0: 5fa8 8d3d 0eeb 07bc 3828 d4bc df77 6fbd
000003b0: 03e3 19bc 05b4 99bc 9650 a7bc 23f2 5bbd
000003c0: 7ce8 99bc c23b 0e3d 78a6 b1bc ca25 bfbb
000003d0: dbab 48bd a079 2abd 1ef9 16bd 6856 59bd
000003e0: d57c 0f3d 10af 243c 2773 ddbc d4bf 0a3d
000003f0: 9c55 2abd ed2c 26bd 153e 75bd 28b6 36bd

bias f4 [32]
-0.07758 0.07144185 0.043694805 -0.065929405 0.06277014 0.021859234 -0.07748421 -0.04945568
-0.055157375 0.039483953 0.011157389 0.08881051 -0.0710864 0.08845516 0.040828142 0.0042349063
-0.015186964 -0.028601013 -0.040471386 0.012663865 -0.052080583 -0.0016486718 -0.013557703 0.0012426022
0.057345774 -0.057479106 -0.001495689 -0.07444771 -0.07569787 0.07147046 -0.05017058 -0.057845343
00000000: 43e2 9ebd 1b50 923d 53f9 323d ff05 87bd
00000010: a28d 803d 2312 b33c 0bb0 9ebd 0a92 4abd
00000020: b3ec 61bd edb9 213d 7bcd 363c 49e2 b53d
00000030: bf95 91bd fb27 b53d 693b 273d f8c4 8a3b
00000040: bed2 78bc ac4c eabc 53c5 25bd 1a7c 4f3c
00000050: 7352 55bd 3f18 d8ba 2121 5ebc d0de a23a
00000060: 67e3 6a3d 366f 6bbd ff0a c4ba 0a78 98bd
00000070: 7c07 9bbd 1b5f 923d ab7f 4dbd 3def 6cbd

weight f4 [32, 1, 3, 3]
-0.03784586 0.30671304 -0.17568511 -0.15134451 -0.038796775 -0.26144186 0.12546436 0.053972967
-0.06891937 0.08831481 -0.009064347 0.1865804 -0.16910516 -0.016381709 0.17186384 0.19906794
1.0163141e-05 -0.1617925 -0.23879266 -0.023625936 0.07952558 0.22602871 -0.11559764 0.30187848
0.062159166 0.17352957 -0.14707908 0.06448424 -0.22715408 -0.025073405 -0.21498929 -0.17009035
0.20748565 -0.15082501 0.24763608 -0.18635905 -0.19450705 -0.17610374 0.25750092 0.22563565
0.26903358 -0.05068731 0.1972137 -0.20887725 -0.0071613537 -0.09706928 0.24750564 -0.23650864
0.25388992 0.26187778 0.026747195 0.22848785 0.020698953 -0.2691936 -0.2733351 -0.052406844
-0.25800604 -0.15014412 0.016943658 0.36773008 -0.03935435 0.38079172 0.022951424 0.15218368
-0.18978651 -0.25358137 -0.20123847 0.13737498 -0.20839329 -0.115822375 -0.07075213 0.26711255
-0.14961165 -0.25209695 -0.27668038 0.2790566 -0.0032090826 0.0049622147 -0.11180655 -0.12896761
-0.27599418 0.019892527 0.28389046 0.0593736 -0.11943255 -0.004537922 0.30808505 0.1630971
-0.031641234 -0.16170476 0.17556795 -0.18372793 -0.05054857 -0.011742462 0.0818909 -0.23581237
-0.072090656 -0.22858272 -0.29359072 -0.1923609 0.31419584 0.24463631 -0.23439525 0.19460107
0.2694457 -0.2636002 -0.065048 -0.26296636 0.28109705 -0.19891134 -0.14299965 0.08026818
-0.15895481 -0.1743714 -0.19707586 -0.283737 -0.22926491 0.13103537 0.076875284 0.3245852
0.2242745 -0.1437039 0.14722 0.3025572 -0.20518331 0.20718172 -0.046893384 0.22254676
-0.0046707625 0.27158865 0.26966786 -0.23165236 0.08185772 -0.10285688 -0.23418422 0.15253928
0.3272521 0.08044693 0.04060719 0.26229498 0.05365775 0.17538968 0.27878758 0.20351176
0.018175261 0.18117449 0.051078245 0.307259 0.21190508 -0.045801077 -0.14779964 -0.22670569
0.2728136 0.05990407 0.18737794 -0.031124154 -0.053283732 0.2595071 0.07285496 -0.101664595
-0.20345408 -0.2939717 0.05310942 0.14851467 -0.08403953 0.31527022 -0.24748863 -0.20157899
0.16229694 0.009945956 0.04299681 -0.021521866 -0.05292583 0.13227925 0.18501142 0.3323632
0.18471473 -0.020409744 -0.14048745 -0.053159326 -0.10158301 -0.1618193 -0.16455358 -0.022374254
0.06792397 -0.14478928 0.31806576 0.14827983 -0.09819339 -0.15711977 -0.282436 0.23145893
0.046786044 -0.2444668 0.22508901 -0.22298303 -0.1525551 0.10786431 -0.29116085 -0.28517625
0.03437521 -0.24346338 0.3128797 0.3106117 0.0750673 -0.24080084 0.17641371 -0.20188098
-0.18874529 0.1296679 0.14658909 -0.26847345 0.07148089 0.2386838 -0.0024261374 0.1397166
0.27612445 0.3061939 -0.23710814 -0.31232 0.22112034 0.10861279 -0.28168517 0.13335435
0.06951613 0.104474865 0.0034016704 0.24021205 -0.2480795 -0.16160788 0.25412825 -0.23256187
-0.1426281 -0.01408277 -0.28413534 0.14052133 -0.31261876 0.19464765 -0.22759807 0.046928506
-0.129838 -0.22148716 -0.0071808333 0.21397854 0.10856476 -0.30537164 0.036244664 -0.32491863
-0.26332793 -0.31280607 -0.12691012 0.32762367 -0.23671912 -0.2864296 -0.06594485 -0.071683325
00000000: 4304 1bbd 7e09 9d3e cce6 33be 0efa 1abe
00000010: 5ee9 1ebd b5db 85be bb79 003e c212 5d3d
00000020: 9925 8dbd 65de b43d a082 14bc ef0e 3f3e
00000030: e729 2dbe ef32 86bc 13fd 2f3e 77d8 4b3e
00000040: 5c82 2a37 efac 25be 1086 74be 2e8b c1bc
00000050: 4fde a23d 1274 673e 75be ecbd d18f 9a3e
00000060: 9c9a 7e3d bcb1 313e e69b 16be 5010 843d
00000070: 149b 68be be66 cdbc 2726 5cbe 2a2c 2ebe
00000080: 1e77 543e df71 1abe 5094 7d3e e8d4 3ebe
00000090: db2c 47be 8a54 34be 29d7 833e 080d 673e
000000a0: c5be 893e 7f9d 4fbd 63f2 493e ebe3 55be
000000b0: caa9 eabb 42cc c6bd 1e72 7d3e 522f 72be
000000c0: dcfd 813e d814 863e ef1c db3c b8f8 693e
000000d0: da90 a93c bed3 89be 94f2 8bbe 8fa8 56bd
000000e0: 5e19 84be 61bf 19be 6dcd 8a3c 1e47 bc3e
000000f0: 0732 21bd 22f7 c23e a004 bc3c 0ad6 1b3e
00000100: 6557 42be 6bd5 81be 7511 4ebe 07ac 0c3e
00000110: 0d65 55be 4834 edbd 7ee6 90bd fac2 883e
00000120: cc33 19be da12 81be 0da9 8dbe 82e0 8e3e
00000130: 794f 52bb 139a a23b d5fa e4bd 1610 04be
00000140: 1c4f 8dbe a7f5 a23c 175a 913e bb31 733d
00000150: 0e99 f4bd d9b2 94bb 53bd 9d3e ed02 273e
00000160: 3d9a 01bd ef95 25be 16c8 333e 2d23 3cbe
00000170: 040c 4fbd 7563 40bc 6bb6 a73d cc78 71be
00000180: 44a4 93bd 9711 6abe 8651 96be 41fa 44be
00000190: 47de a03e f181 7a3e 4f05 70be 8145 473e
000001a0: c9f4 893e 9bf6 86be e337 85bd 87a3 86be
000001b0: f4eb 8f3e 6aaf 4bbe 806e 12be a563 a43d
000001c0: 0dc5 22be 6b8e 32be 41ce 49be fa45 91be
000001d0: 6cc4 6abe 232e 063e ca70 9d3d 0830 a63e
000001e0: 37a8 653e 1d27 13be d7c0 163e c7e8 9a3e
000001f0: 931b 52be 7227 543e 4713 40bd 4ce3 633e
00000200: 320d 99bb ab0d 8b3e e811 8a3e 4736 6dbe
00000210: 05a5 a73d a1a6 d2bd fdcd 6fbe 4233 1c3e
00000220: 968d a73e 5cc1 a43d ba53 263d 874b 863e
00000230: 3bc8 5b3d 5a99 333e 3fbd 8e3e 6365 503e
00000240: 49e4 943c ce85 393e 6c37 513d 0d51 9d3e
00000250: a5fd 583e e999 3bbd ca58 17be 8925 68be
00000260: 39ae 8b3e f85d 753d 01e0 3f3e 15f8 febc
00000270: 0b40 5abd 1dde 843e fb34 953d 8735 d0bd
00000280: 4456 50be 7583 96be 4389 593d 3b14 183e
00000290: eb1c acbd 196b a13e a96d 7dbe b96a 4ebe
000002a0: 2b31 263e 5df4 223c 6c1d 303d a04e b0bc
000002b0: c1c8 58bd 3674 073e a273 3d3e 822b aa3e
000002c0: dc25 3d3e 5632 a7bc f1db 0fbe 98bd 59bd
000002d0: c10a d0bd f5b3 25be bc80 28be 364a b7bc
000002e0: b91b 8b3d a443 14be 84d9 a23e abd6 173e
000002f0: 9e19 c9bd 01e4 20be 749b 90be 9203 6d3e
00000300: b9a2 3f3d 8155 7abe bc7d 663e aa55 64be
00000310: 6737 1cbe f7e7 dc3d 0913 95be 9f02 92be
00000320: 05cd 0c3d 774e 79be c531 a03e 7f08 9f3e
00000330: e2bc 993d 7f94 76be cca5 343e e3b9 4ebe
00000340: 7246 41be a9c7 043e 731b 163e 5a75 89be
00000350: 9364 923d 8769 743e d5ff 1ebb de11 0f3e
00000360: 2f60 8d3e 72c5 9c3e 7acc 72be 68e8 9fbe
00000370: 5f6d 623e 6270 de3d 0a39 90be 0b8e 083e
00000380: 795e 8e3d ebf6 d53d 8fee 5e3b 26fa 753e
00000390: 8d08 7ebe 897c 25be 191d 823e b324 6ebe
000003a0: 1a0d 12be 6bbb 66bc 307a 91be d3e4 0f3e
000003b0: 910f a0be b751 473e 780f 69be 1b38 403d
000003c0: 41f4 04be 88cd 62be 324d ebbb 311d 5b3e
000003d0: 3357 de3d ac59 9cbe 4975 143d bc5b a6be
000003e0: ebd2 86be 1e28 a0be baf4 01be 4abe a73e
000003f0: 7f66 72be e7a6 92be 180e 87bd b5ce 92bd
