models/70.pt (torch, 837106 bytes, 17 tensors)

weight f4 [32, 1, 3, 3]
0	0xbd73f849	-0.059562955
1	0x3c92e7aa	0.017932732
2	0x3db0df73	0.086363696
3	0xbe8597e2	-0.2609244
4	0x3e3bd555	0.18343098
5	0xbe4f70fb	-0.20257942
6	0x3e86db1d	0.26339045
7	0xbe709dd6	-0.2349771
8	0xbe780067	-0.24218903
9	0x3cee18fb	0.029064646
10	0x3e2d2977	0.16910349
11	0xbdc95668	-0.09830934
12	0xbe0c5c3a	-0.13707057
13	0x3e0d642b	0.13807742
14	0x3dcd390c	0.100206465
15	0x3e897cfd	0.2685317
16	0xbdb71d6d	-0.089411594
17	0xbe72b10b	-0.23700349
18	0xbe4e35d6	-0.20137724
19	0x3db28c4d	0.087181665
20	0xbea04b3a	-0.31307393
21	0x3e00b2b6	0.12568173
22	0x3e3e27b7	0.18569838
23	0x3e69a545	0.22816952
24	0x3dde0525	0.10840825
25	0xbdfeda34	-0.12443963
26	0xbe24e507	-0.16102992
27	0xbe3beaca	-0.18351284
28	0x3ea2a972	0.31769902
29	0xbd665e11	-0.056242052
30	0xbdb7bd68	-0.08971673
31	0xbdcc7d9b	-0.09984895
32	0x3e828f46	0.25499934
33	0x3e75710e	0.23968908
34	0xbd1dc8a5	-0.038521428
35	0x3e3f37c9	0.18673624
36	0x3ea3eb11	0.3201528
37	0xbdd4d944	-0.10393003
38	0xbdd2b175	-0.102877535
39	0x3e96e482	0.29471213
40	0x3e2a72f0	0.16645408
41	0xbda301ee	-0.079593524
42	0x3e960a1d	0.2930459
43	0x3e0c4985	0.1369992
44	0x3cc7c0c7	0.024383916
45	0x3e9b0f9a	0.3028534
46	0x3e93bc73	0.28854713
47	0xbe16f25d	-0.14740892
48	0x3d84df55	0.0648791
49	0xbdff57c7	-0.12467914
50	0x3e4009ae	0.18753693
51	0xbe0d7bef	-0.13816808
52	0xbe64b465	-0.2233444
53	0x3e583480	0.21113777
54	0xbe08e388	-0.13368046
55	0x3bb733c1	0.0055908863
56	0x3e8ff929	0.28119782
57	0xbe730ee1	-0.23736145
58	0xbda76da1	-0.08175207
59	0x3dd3ddca	0.10345037
60	0x3e019d8d	0.12657757
61	0xbeb21ab6	-0.34786004
62	0x3d448300	0.047976494
63	0x3dc4a159	0.09601087
64	0x3e01b116	0.12665209
65	0x3e568b65	0.20951612
66	0xbe2127cf	-0.15737842
67	0x3ea66c1a	0.3250435
68	0x3d987f36	0.074461386
69	0xbdbebe59	-0.0931365
70	0x3d936434	0.071968466
71	0xbe34cb79	-0.17655744
72	0xbe3eda56	-0.18637976
73	0xbe4cf4f6	-0.2001532
74	0xbe1504e8	-0.14552653
75	0x3e472a3a	0.19449702
76	0xbdbafe52	-0.09130539
77	0xbe738f2e	-0.23785087
78	0x3e840569	0.25785378
79	0xbe88163d	-0.26579466
80	0x3c787613	0.01516487
81	0x3e89839e	0.26858228
82	0x3e4cdc61	0.20005943
83	0xbe3aa65d	-0.18227525
84	0x3e9a3057	0.30115005
85	0x3e6e18f0	0.232517
86	0x3ea5fd64	0.32419884
87	0xbe013f0b	-0.12621705
88	0xbc186f7b	-0.009303923
89	0xbe929bd1	-0.28634503
90	0xbeb7f8ff	-0.35932156
91	0x3d92bb57	0.071646385
92	0xba975de5	-0.0011548368
93	0x3e017766	0.12643203
94	0xbe1d44dd	-0.153583
95	0x3dd7b145	0.10531858
96	0x3e86752a	0.26261264
97	0xbeb3bc00	-0.3510437
98	0x3e4cacc5	0.19987781
99	0x3d92008e	0.07129012
100	0xbd3d9de5	-0.046293158
101	0x3e10779d	0.14108129
102	0x3e89fe44	0.26951802
103	0xbe82a729	-0.25518158
104	0xbe9032c4	-0.2816373
105	0xbd8a87f1	-0.0676421
106	0xbdd96568	-0.10615045
107	0x3e05b997	0.13059078
108	0x3d61f549	0.055165563
109	0xbe220750	-0.15823102
110	0xbe6963ea	-0.2279202
111	0x3e4f92d3	0.20270853
112	0xbe5b9d72	-0.2144678
113	0x3d205ff0	0.039153993
114	0x3e1c5eef	0.1527059
115	0xbe6202bf	-0.2207136
116	0xbe8270da	-0.25476724
117	0x3e97d602	0.29655463
118	0x3e6adaa8	0.22934973
119	0xbdad2337	-0.08453982
120	0xbe6acc8d	-0.22929592
121	0xbe9a2ee0	-0.30113888
122	0xbe62dbc7	-0.22154151
123	0x3e7536cc	0.23946685
124	0xbe70e76a	-0.23525777
125	0xbe5612c2	-0.20905593
126	0xbe75d173	-0.2400568
127	0x3e5dd8e4	0.21664768
128	0xbe89bc44	-0.26901448
129	0x3e837195	0.25672594
130	0xbe43ac19	-0.19108619
131	0x3e9110c2	0.28333098
132	0xbe7c3b03	-0.24631886
133	0x3e3f3fb2	0.18676642
134	0xbe5986b5	-0.21242793
135	0xbdc1a0af	-0.09454476
136	0x3e7a5a7e	0.24448583
137	0xbd4a2d45	-0.04935958
138	0x3e76c8c1	0.24100019
139	0xbe7ca47c	-0.24672121
140	0xbecd1030	-0.40051413
141	0xbcce4509	-0.025179403
142	0x3e648d0c	0.2231943
143	0xbe08e363	-0.13367991
144	0xbe9a7317	-0.30165932
145	0x3e3560e3	0.1771274
146	0x3cf98c96	0.030462544
147	0xbc49ec8f	-0.012324466
148	0xbe276357	-0.16346489
149	0xbe9dc14b	-0.30811533
150	0x3e92cf92	0.2867399
151	0x3d619e12	0.05508239
152	0x3d1555c5	0.03645875
153	0x3e8d90e8	0.27649617
154	0xbe8ac6cf	-0.27104804
155	0xbe882198	-0.2658813
156	0x3d51f7fe	0.051261894
157	0x3db4f26a	0.08835299
158	0x3d1a20bd	0.037628878
159	0xbe444f28	-0.1917082
160	0x3e5af0e1	0.2138095
161	0x3e8f4582	0.27982718
162	0x3dc61b2e	0.09673153
163	0x3e9be0ad	0.30444852
164	0xb8b5c089	-8.666615e-05
165	0x3dd6bd5c	0.10485336
166	0x3e5f7ff0	0.21826148
167	0xbe09a9b8	-0.13443649
168	0x3e800e5d	0.25010958
169	0x3e586ff2	0.21136454
170	0xbdb0c032	-0.08630408
171	0xbdf7d1e3	-0.121005796
172	0xbe173a4c	-0.14768332
173	0xbe2576c2	-0.16158584
174	0x3ea71927	0.32636377
175	0xbdfc67ab	-0.123244606
176	0x3e30917e	0.17243001
177	0xbea00db4	-0.31260455
178	0xbdc2b07e	-0.095063195
179	0x3cf3e3f1	0.029771777
180	0xbe0b8bc9	-0.13627543
181	0xbe73a8da	-0.2379488
182	0xbd3ac61b	-0.045599084
183	0x3e892e3b	0.26793084
184	0x3e44fd86	0.19237337
185	0x3e911ffd	0.28344718
186	0xbe6516b2	-0.22371939
187	0x3daa6bc2	0.083213344
188	0x3dbc12aa	0.091832474
189	0x3e0a7285	0.13520248
190	0x3e04a682	0.12954143
191	0xbe82874f	-0.25493857
192	0xbde3b5bb	-0.11118647
193	0x3e41a42a	0.1891028
194	0xbdc6677a	-0.09687705
195	0xbda14d23	-0.07876041
196	0x3dd59311	0.10428441
197	0xbd8228b0	-0.06355417
198	0x3d16b1fb	0.03679083
199	0xbea7b8c4	-0.32758152
200	0xbde73183	-0.112887405
201	0x3dfaa516	0.12238519
202	0xbdf41ade	-0.11919187
203	0x3d8d35b3	0.06895008
204	0x3e8c3eb1	0.2739158
205	0x3e53f5d1	0.2069924
206	0x3e8e28c1	0.27765468
207	0x3e23436b	0.15943687
208	0xbd769987	-0.06020501
209	0xbe19b60a	-0.15010849
210	0xbe6e6ea6	-0.23284397
211	0x3dbdd45c	0.0926902
212	0xbeb10538	-0.34574294
213	0x3e4817a6	0.19540271
214	0x3dbd6518	0.09247798
215	0xbd968a7b	-0.07350632
216	0x3dc13e48	0.09435707
217	0xbdc866e3	-0.09785249
218	0xbe127a3d	-0.14304443
219	0xbe9ac688	-0.30229592
220	0xbdbe38a9	-0.09288151
221	0xbdc567bf	-0.096389286
222	0x3d059ca2	0.03262008
223	0x3e98f1ab	0.29871878
224	0xbe0376ec	-0.12838334
225	0x3e6c33f1	0.23066689
226	0x3e048571	0.12941529
227	0x3cffd89f	0.031231223
228	0xbe867e9b	-0.26268467
229	0xbe3a04c3	-0.18165879
230	0x3e5da70f	0.21645759
231	0xbe99d8f2	-0.3004833
232	0x3e434f97	0.1907333
233	0xbe415e40	-0.1888361
234	0x3d7149ff	0.05890846
235	0x3e336925	0.17520578
236	0xbe76e018	-0.24108922
237	0x3e6fef4e	0.23431131
238	0x3e149a39	0.14511956
239	0xbe5a7434	-0.2133339
240	0xbb5b5dfb	-0.0033472765
241	0xbe7b6918	-0.24551809
242	0x3d15f0da	0.036606647
243	0x3e555fec	0.20837373
244	0x3e0e48ae	0.13894913
245	0xbe80b437	-0.25137493
246	0xbd5b36d9	-0.053519104
247	0xbe88b793	-0.26702556
248	0x3e4c0731	0.19924618
249	0xbda496e0	-0.080365896
250	0x3d99997a	0.074999765
251	0xbe5ab193	-0.21356802
252	0xbdea3513	-0.11435904
253	0xbe716a93	-0.23575811
254	0xbe9806c0	-0.2969265
255	0x3e997104	0.29969037

bias f4 [32]
0	0x3dc116d4	0.09428182
1	0x3dceae62	0.10091855
2	0x3dc07222	0.09396769
3	0xbe97c61e	-0.2964334
4	0x3ea3a034	0.31958163
5	0xbd5e8885	-0.054329414
6	0xbd972ff7	-0.073821954
7	0x3e5e2d30	0.21696925
8	0x3eb2a302	0.3488999
9	0xbcbd92aa	-0.023141224
10	0xbe6f075e	-0.23342654
11	0x3e955508	0.29166436
12	0x3d9833c7	0.07431751
13	0x3e74ed52	0.23918656
14	0x3e021c2c	0.12706059
15	0x3e7f1d40	0.24913502
16	0xbe15710d	-0.14593907
17	0xbda95899	-0.08268852
18	0xbd393281	-0.04521418
19	0x3e800bcb	0.25008997
20	0xbe8a44b9	-0.27005556
21	0xbe7940b7	-0.24341093
22	0x3d1cb28f	0.038256224
23	0x3de49df6	0.11162941
24	0x3e439e34	0.19103318
25	0x3d8fcf35	0.070219435
26	0x3d7060c8	0.058686048
27	0xbd13b625	-0.03606238
28	0xbe84ca42	-0.2593556
29	0xbdd88610	-0.105724454
30	0xbdda165b	-0.10648795
31	0x3dcd6405	0.10028843

weight f4 [64, 32, 3, 3]
0	0x3cbad4ee	0.02280661
1	0xbad92d95	-0.0016569371
2	0xbdbf2810	-0.09333813
3	0xbca53788	-0.02016808
4	0xba439192	-0.00074603513
5	0x3b961f23	0.0045813485
6	0x3c1bc5da	0.009507621
7	0xbd6d78da	-0.05797658
8	0x3c891692	0.016734395
9	0xbc423d66	-0.011855459
10	0xbbce5d30	-0.00629773
11	0x3d980281	0.074223526
12	0x3d35d6fd	0.044394482
13	0x3b8a780e	0.0042257374
14	0xbd347a0e	-0.044061713
15	0x3d81f458	0.06345433
16	0x3cf69bba	0.030103553
17	0x3c9480b9	0.018127786
18	0xbc06d97c	-0.008230563
19	0x3c06fa82	0.008238437
20	0x3d3d75e4	0.046255007
21	0x3d040a55	0.032236416
22	0x3bde100a	0.0067768143
23	0xbd7dcf69	-0.06196538
24	0xbd0acfe7	-0.033889677
25	0x3d2af82a	0.041740574
26	0x3d587fe1	0.05285633
27	0x3c49174c	0.012273621
28	0xbcadc9f8	-0.02121447
29	0xbd1db1bc	-0.03849958
30	0x3ca881e1	0.020569744
31	0xbd4a69fa	-0.049417473
32	0xbba83b88	-0.00513405
33	0xbc2d4513	-0.010575551
34	0x3d64bff2	0.055847116
35	0x3ccb39c6	0.024807822
36	0xbac62ef2	-0.0015120192
37	0x3ccf6236	0.025315385
38	0xbd5b643c	-0.053562388
39	0xbd6b4c4e	-0.057445817
40	0xbd4ff2e2	-0.05076874
41	0xbc63ec9a	-0.013911391
42	0xbd45ca1f	-0.04828846
43	0xbb63885d	-0.003471873
44	0x3d106aa7	0.03525796
45	0xbc637c33	-0.013884592
46	0x3c580e9c	0.013187077
47	0xbcb0ccec	-0.02158209
48	0x3ae9561c	0.0017802152
49	0x3d366530	0.044530094
50	0x3d6c1082	0.05763293
51	0x3d2ce3e5	0.042209525
52	0x3d51f8b9	0.05126259
53	0x3d953067	0.07284623
54	0x3d3f1175	0.046647508
55	0xbd30539e	-0.043048494
56	0xbc445867	-0.011983967
57	0xbd2f137e	-0.0427432
58	0x3d0052d0	0.031328976
59	0xbd03390b	-0.032036822
60	0x3bcde522	0.0062834183
61	0x3c37d7af	0.011220857
62	0x3d610984	0.054940715
63	0xbd5d30ca	-0.054001607
64	0xbd23a4d4	-0.039952114
65	0xbc50054e	-0.012696577
66	0xbce305cc	-0.027712725
67	0xbd2944b7	-0.041325297
68	0x3cbefa08	0.023312584
69	0x3cefc2c4	0.029267676
70	0x3c7707b0	0.015077516
71	0xbd52e2d8	-0.051485866
72	0xbc2dc2a7	-0.010605491
73	0x3c75d86f	0.015005215
74	0xbdee903e	-0.11648606
75	0xba300e1d	-0.000671597
76	0xbc303b62	-0.0107563455
77	0xbdeb6ac5	-0.11494974
78	0xbc8edb87	-0.017438663
79	0xbdac81b5	-0.08423177
80	0xbe013864	-0.12619168
81	0x3d3b85f4	0.045782045
82	0xbcaa6299	-0.020798968
83	0x3c313ed1	0.010818199
84	0x3d128f2f	0.03578108
85	0xbcc89a63	-0.02448768
86	0xbccefd00	-0.025267124
87	0xbd44f9f5	-0.04808994
88	0x3cd52d64	0.02602262
89	0xbd15edf9	-0.0366039
90	0xbcfa8f1c	-0.030585818
91	0x3bc6ca88	0.006066624
92	0x3c68053d	0.014161405
93	0x3c467640	0.012113154
94	0x3ce974a1	0.028497996
95	0xbd1f2a73	-0.038858842
96	0xbc0c0311	-0.008545653
97	0x3c6000b2	0.013672041
98	0xbb03e600	-0.0020126104
99	0xbc947481	-0.01812196
100	0x3acedb6b	0.0015781944
101	0x3d928d12	0.07155813
102	0xba767ede	-0.000940306
103	0x3d2e9ca1	0.04262984
104	0x3dd5e1f6	0.10443489
105	0x3d6007e0	0.05469501
106	0x3cede4d7	0.029039783
107	0x3dc43bbe	0.095817074
108	0xbd48bd84	-0.04900886
109	0x3d17e9ca	0.037088193
110	0xbcb34c12	-0.02188686
111	0xbd4dee83	-0.05027629
112	0xbd3ab06b	-0.0455784
113	0xbe09a80f	-0.13443016
114	0xbc9c9525	-0.019114086
115	0xbddfbf63	-0.10925176
116	0xbe03ca41	-0.12870122
117	0xbd748756	-0.05969938
118	0xba16a5e6	-0.00057467667
119	0xbdb528cc	-0.08845672
120	0x3c048f29	0.008090773
121	0x3d2a9caf	0.04165333
122	0xbd3437b5	-0.04399844
123	0xbc1fadb0	-0.009746
124	0xbb3d786e	-0.0028910893
125	0xbcc0b52e	-0.023523893
126	0x3d1d0127	0.038331177
127	0xbc9e17b6	-0.019298416
128	0x3de2b6b5	0.11070005
129	0x3d19f3bd	0.037585963
130	0xbd24b328	-0.04020992
131	0x3d809027	0.06277495
132	0x3cb7bb50	0.022428185
133	0x3db8b0f1	0.09018124
134	0x3e169114	0.1470378
135	0xbcf54ef6	-0.029944878
136	0x3c4a7d71	0.012359009
137	0xbcda97c6	-0.0266837
138	0x3bb016a8	0.0053737946
139	0xbca94eee	-0.02066752
140	0x3985248c	0.00025394966
141	0xbc59f4fd	-0.013303039
142	0x3ca1c114	0.019745387
143	0xbd2ae1e9	-0.04171935
144	0x3c899bcb	0.01679792
145	0x3ce0e195	0.027451316
146	0x3d861617	0.06547182
147	0x3d2fa346	0.04288032
148	0x3be6bb3c	0.007041363
149	0x3d5a2bb7	0.053264346
150	0x3d438385	0.04773285
151	0x3d3bd3d1	0.0458563
152	0xbc89c459	-0.016817259
153	0xbd494852	-0.049141236
154	0xbcac2c2d	-0.021017158
155	0x3cb85dd7	0.022505684
156	0xbc0f3e07	-0.008742816
157	0xbc3976f2	-0.011319863
158	0xbd44da96	-0.048060022
159	0xbc5b0a69	-0.013369181
160	0x3d4ab82e	0.049492054
161	0x3bc487d2	0.0059976364
162	0xbd49feb9	-0.049315188
163	0x3d0d47ca	0.03449229
164	0x3cd21cc3	0.02564848
165	0x3cbcf012	0.023063693
166	0xbd1e8db3	-0.038709354
167	0xbca2ab5a	-0.019857097
168	0xbca317b2	-0.01990876
169	0x3b96273b	0.0045823134
170	0x3c45a7d0	0.012063935
171	0xbce94dc8	-0.028479472
172	0xbc636776	-0.0138796475
173	0x3d19080a	0.037361182
174	0xbc8f8e4a	-0.017523903
175	0x3ca37d37	0.019957168
176	0xbcaa1dbe	-0.020766135
177	0xbb169ea9	-0.0022982752
178	0x3d602830	0.054725826
179	0x3cd74d4e	0.026281979
180	0xbd138df5	-0.036024053
181	0xbcf8718b	-0.030327579
182	0x3d83a19c	0.06427309
183	0xbb9f414b	-0.0048600785
184	0xbcc0f696	-0.023555081
185	0xbc84f1c3	-0.016228562
186	0x3ccd8138	0.02508603
187	0xbd7057f0	-0.058677614
188	0xbcfc0e25	-0.030768463
189	0x3c72aaca	0.014811227
190	0x3caa799f	0.020809947
191	0xbbba5bb4	-0.0056872014
192	0xbd41380d	-0.047172595
193	0xbd4d3e1b	-0.050108057
194	0xbce0b6b8	-0.027430877
195	0x3cdd51d0	0.02701655
196	0xbcf5ff4f	-0.030028967
197	0x3d6af8b6	0.057366095
198	0x3d5ad0bf	0.053421732
199	0xbd33c3e3	-0.043887984
200	0xbc42bd60	-0.011885971
201	0x3d118e42	0.03553606
202	0x3d325d08	0.043545753
203	0x3cdc600c	0.026901267
204	0x3b258b04	0.0025259862
205	0x3d68a41c	0.056797132
206	0xbd102428	-0.03519073
207	0x3cff1ba3	0.031141108
208	0xbccb1034	-0.024788
209	0xbd9313fb	-0.07181545
210	0x3d0066bd	0.03134798
211	0x3d06a6da	0.032873966
212	0xbd35d2d6	-0.044390522
213	0xbab1e8dd	-0.0013573427
214	0x3c9d1798	0.01917629
215	0x3c8af060	0.016960323
216	0x3d00ec19	0.03147516
217	0xbd877406	-0.066139266
218	0xbd20bba5	-0.03924145
219	0xbd66f9ac	-0.05639045
220	0xbc3a12ba	-0.011357004
221	0x3b73f3f9	0.0037224276
222	0x3d6225c0	0.055211782
223	0xbc1878da	-0.009306157
224	0x3de9a99f	0.11409306
225	0x3d09056f	0.033452448
226	0xbd11d378	-0.035602063
227	0x3c8b11ad	0.016976202
228	0xbd0f2c13	-0.03495414
229	0x3b8c3e46	0.0042798845
230	0x3d9bce5f	0.076077215
231	0x3dac6e87	0.08419519
232	0x3c92cbda	0.01791947
233	0x3c11a293	0.008888858
234	0xbcf1e77c	-0.029529326
235	0xbd075e2e	-0.0330488
236	0x3bc6842e	0.0060582375
237	0xbd3b21b7	-0.04568645
238	0xbcfbad38	-0.030722246
239	0x3d74922d	0.059709717
240	0xbc594121	-0.013260157
241	0xbc8d4327	-0.017243935
242	0x3d44315f	0.047898646
243	0x3c56dab5	0.013113667
244	0x3d52d6e4	0.051474467
245	0x3e099eed	0.13439532
246	0x3cd71346	0.026254307
247	0x3d007101	0.03135777
248	0xbc484a4d	-0.012224746
249	0x3d84bc19	0.06481189
250	0x3c3f5571	0.011678086
251	0x3de25e0c	0.11053094
252	0x3d6695fd	0.056295384
253	0x3c356999	0.01107254
254	0x3d057348	0.032580644
255	0xbd1c801c	-0.038208112

bias f4 [64]
0	0x3c0e157e	0.008672116
1	0x3da552a1	0.08072401
2	0x3d99126f	0.07474219
3	0xbda34833	-0.07972755
4	0x3d138cc9	0.036022935
5	0x3cd0befe	0.025481697
6	0xbd3ecdd2	-0.046583004
7	0xbcecf9ef	-0.028927771
8	0xbe2bd0a2	-0.16778806
9	0x3e99e4a5	0.30057254
10	0x3da9856c	0.08277401
11	0x3e542c76	0.20720086
12	0xbe4fcf74	-0.20293981
13	0x3da1c340	0.07898569
14	0x3d0d5b71	0.034511033
15	0x3e9974d9	0.2997196
16	0x3e0853b0	0.13313174
17	0x3e8dc8d9	0.27692297
18	0x3bd16d02	0.0063911686
19	0x3c252e14	0.010081787
20	0xbd1eeff0	-0.03880304
21	0xbd448a6d	-0.047983576
22	0xbd996ab7	-0.07491057
23	0x3dd7e7a4	0.10542229
24	0xbdf7deb6	-0.121030256
25	0x3dff626d	0.12469945
26	0x3d8a3308	0.06748015
27	0xbcd95bc4	-0.026533015
28	0x3e285ee1	0.16442443
29	0xbdf2d764	-0.11857489
30	0x3e0703cd	0.13185044
31	0x3e0d4223	0.1379476
32	0x3d72ba4d	0.0592597
33	0xbd535f81	-0.05160475
34	0xbc68dae8	-0.014212348
35	0xbe889fe8	-0.266845
36	0x3d4176c7	0.047232416
37	0xbb814dc1	-0.0039460366
38	0x3dd3b458	0.10337132
39	0x3df548d5	0.11976782
40	0x3d7ea120	0.06216538
41	0xbdba6707	-0.09101682
42	0xbc8f7508	-0.01751186
43	0x3cdcb378	0.026941046
44	0x3c754224	0.014969382
45	0x3da61029	0.08108551
46	0xbd2fada4	-0.042890206
47	0xbd56bf93	-0.052428793
48	0xbe20e884	-0.15713698
49	0x3e53fb9b	0.20701449
50	0xbcfac00f	-0.030609159
51	0x3d3ee2b3	0.046602916
52	0x3d17f963	0.037103068
53	0x3d5439d1	0.05181295
54	0x3dbca867	0.09211808
55	0x3c669406	0.0140733775
56	0xbccc2afe	-0.024922844
57	0x3e451dd4	0.1924966
58	0xbaa9545a	-0.0012918815
59	0xbcfee0e2	-0.031113092
60	0xbd9310b2	-0.07180919
61	0x3d3d6e91	0.046248022
62	0xbe0ffd0e	-0.14061376
63	0x3d819d03	0.06328776

weight f4 [128, 64, 3, 3]
0	0xbd9e4f6c	-0.07729992
1	0xbc069d46	-0.008216208
2	0xbcd55f8b	-0.026046535
3	0xbd33573c	-0.043784365
4	0xbcb09acf	-0.021558193
5	0xbd27b3bb	-0.04094289
6	0xbd922c3e	-0.07137345
7	0x3bed64ed	0.0072446973
8	0x3b24c5be	0.0025142278
9	0xbd2e7240	-0.042589426
10	0xbca6c55b	-0.020357778
11	0x3d013875	0.031547982
12	0xbcc98d46	-0.024603497
13	0xbd0d12b3	-0.03444166
14	0xbd0ed27a	-0.034868695
15	0xbd1f25e0	-0.03885448
16	0x3c851522	0.016245428
17	0x3c82ac90	0.015951425
18	0xbd41f19b	-0.047349554
19	0xbcfccd8e	-0.030859735
20	0x3d2c7a9b	0.042109113
21	0xbc4009bd	-0.011721072
22	0xbcbefbdb	-0.023313453
23	0x3c03e4ed	0.008050186
24	0x3bbbf531	0.005736016
25	0x3ca28f97	0.01984386
26	0xbd3153d6	-0.043292843
27	0x3d2a0078	0.041504353
28	0x3caf6204	0.021409042
29	0x3ca67cbf	0.020323155
30	0x3d125654	0.03572686
31	0x3c51334c	0.012768578
32	0xbcb8e22f	-0.02256879
33	0xbd12b273	-0.035814714
34	0x3d6e5d0b	0.0581942
35	0x3d4469b1	0.047952358
36	0xbacb505d	-0.0015511621
37	0xbc077406	-0.008267408
38	0xbccb60e2	-0.02482647
39	0xbd183404	-0.03715898
40	0x3ceb0a3c	0.028691404
41	0x3d2a7a43	0.041620504
42	0x3b0f4837	0.0021863112
43	0xbcf959d0	-0.030438334
44	0x3d3acff5	0.04560848
45	0x3c171f19	0.009223723
46	0x3d48b715	0.049002726
47	0xbcf28fe7	-0.029609634
48	0xbbdb03a3	-0.006683783
49	0x3d387a68	0.04503861
50	0xbbfbd1f0	-0.0076849386
51	0x3ca30d60	0.019903839
52	0x3d5d7a71	0.054071847
53	0xbcbc8eda	-0.023017336
54	0x3bd6f7d0	0.0065603033
55	0xbc38deb1	-0.0112835625
56	0xbc6ea91d	-0.014566687
57	0xbce86bb6	-0.028371673
58	0xbd22a383	-0.03970672
59	0xbc456bd5	-0.012049635
60	0x3d11b363	0.035571467
61	0x3c2b4399	0.010453128
62	0x3d77471b	0.060370546
63	0x3d39330a	0.04521469
64	0x3ce18327	0.027528359
65	0x3cceeb18	0.025258586
66	0xbb3c536a	-0.0028736242
67	0x3d147d17	0.036252107
68	0xbc0231be	-0.00794643
69	0x3c3e9f57	0.011634669
70	0x3d585ab6	0.052820884
71	0xbd375d1b	-0.044766527
72	0xbd65254b	-0.05594377
73	0x3ce776e1	0.028254928
74	0x3c57b4f7	0.013165704
75	0xbd91705d	-0.0710151
76	0xbd8eda72	-0.06975259
77	0x3d013536	0.031544887
78	0xbd9624f5	-0.07331268
79	0xba57bbf7	-0.0008229608
80	0x3d82dccb	0.06389769
81	0xbd9ca311	-0.0764829
82	0x3b7ee1fd	0.0038892024
83	0x3c25419a	0.010086441
84	0xbd1bb576	-0.03801485
85	0x3d54772c	0.051871464
86	0x3bd342bf	0.0064471657
87	0xbcebf2d1	-0.028802307
88	0xbd30073c	-0.04297565
89	0xbd4c863c	-0.049932703
90	0x37872eee	1.6115107e-05
91	0xbcb2de9f	-0.02183467
92	0xbcdf5cd7	-0.02726595
93	0xbccb6cf3	-0.024832224
94	0xbd190b97	-0.03736457
95	0xbd2bafe4	-0.04191579
96	0xbdd718cf	-0.10502779
97	0xbd25db15	-0.040492136
98	0xbd0dc31e	-0.034609906
99	0xbd4ab665	-0.04949035
100	0xbca9b679	-0.020716893
101	0xbbce170f	-0.00628937
102	0xbd819440	-0.063271046
103	0x3d0e1181	0.03468466
104	0xbd1b84d5	-0.037968475
105	0xbd8d17b7	-0.06889289
106	0x3c1c9d77	0.009559027
107	0xbbb8a155	-0.0056344667
108	0x3cb2e635	0.021838287
109	0x3ba124e7	0.004917729
110	0xbd03d642	-0.032186754
111	0xbc7b8560	-0.015351623
112	0x3c841878	0.016124949
113	0x3c91e8f4	0.017811276
114	0xbcf2b14c	-0.029625557
115	0x3bbdac84	0.0057883877
116	0x3c87ed27	0.016592575
117	0x3d8e70f4	0.06955138
118	0x3c91142c	0.017709814
119	0xbd17b66d	-0.03703921
120	0x3d56442e	0.052311115
121	0x3cb0b89a	0.0215724
122	0xbc23207f	-0.009956478
123	0x3da1f42a	0.07907899
124	0x3d20d374	0.039264157
125	0x3d969aad	0.07353721
126	0xbbc5677f	-0.0060243006
127	0x3c331b49	0.010931798
128	0x3d33152a	0.043721355
129	0x3d075208	0.033037215
130	0x3c9529db	0.018208435
131	0x3c2423b1	0.010018275
132	0x3c85e7c9	0.016345875
133	0xb9f1695c	-0.000460456
134	0x3cc5be8d	0.024138713
135	0x3cd01eb5	0.025405267
136	0xbd1609be	-0.036630385
137	0x3bdd56bd	0.006754725
138	0xbd6debf0	-0.058086336
139	0xbd560229	-0.052248154
140	0xbd2df49e	-0.042469613
141	0xbd484627	-0.048895027
142	0xbc9c55a2	-0.019083802
143	0x3c2906c9	0.010316559
144	0xbd8d4b84	-0.06899169
145	0xbc5a62ca	-0.013329217
146	0x3c8313a3	0.016000574
147	0x3d0a3313	0.033740114
148	0x3becd4d8	0.0072275214
149	0x3d205cd1	0.039151017
150	0xbd5d1747	-0.053977277
151	0xbca4b406	-0.020105373
152	0x3cf1e6dc	0.029529028
153	0xbd614fa9	-0.05500761
154	0xbc6ca246	-0.014442986
155	0x3b8dcd5e	0.00432746
156	0x3cae5cba	0.02128445
157	0x3c100b09	0.0087916935
158	0x3ca53290	0.020165712
159	0xbd1455aa	-0.036214508
160	0xbc05d93b	-0.008169468
161	0x3c66121a	0.014042402
162	0x3b603b60	0.0034215078
163	0x3cd6440c	0.026155494
164	0x3cc47b74	0.023984648
165	0xbd454e1d	-0.048170198
166	0xbb0c0fdc	-0.0021371758
167	0x3c08339f	0.008313089
168	0xbd077297	-0.033068266
169	0xbc9844b6	-0.018587451
170	0xbbdbdef1	-0.0067099263
171	0xbd20703d	-0.03916954
172	0xbcc11b19	-0.023572491
173	0xbd7a175b	-0.06105743
174	0xbca964e0	-0.020677984
175	0x3b833077	0.00400358
176	0xbc88f3dc	-0.016717844
177	0xbd8e76b6	-0.06956236
178	0xbb955588	-0.0045573153
179	0xbd2403b7	-0.040042605
180	0xbc0cf5fd	-0.00860357
181	0xbd1d9a13	-0.038477015
182	0x3c1468a4	0.009058151
183	0xbcb615e7	-0.02222724
184	0xbd073e37	-0.033018317
185	0x3c3ff939	0.011717134
186	0xbb9137f2	-0.004431718
187	0xbd2ddf33	-0.042449187
188	0xbb48e2c8	-0.003065275
189	0x3cc82342	0.024430875
190	0x3c410a4a	0.011782238
191	0x3d287a31	0.041132156
192	0xbc61ef8d	-0.0137900235
193	0xbc958a61	-0.01825446
194	0xbc67b793	-0.014142889
195	0xbd00a807	-0.031410243
196	0xbc6ee934	-0.014581967
197	0x3d2ba8a5	0.04190888
198	0x3d471034	0.048599437
199	0x3c1d8723	0.009614739
200	0x3dc8480d	0.097793676
201	0xbc7be0b9	-0.015373402
202	0x3b09fae1	0.0021054076
203	0x3d6f7f45	0.058470983
204	0x3c06fae8	0.008238532
205	0xbcd43356	-0.025903385
206	0x3d0136c6	0.031546377
207	0xbd8131ad	-0.06308303
208	0x3c64fd1b	0.013976361
209	0x3c17e6be	0.009271322
210	0xbd0c7ebf	-0.034300562
211	0xbd2eb8c7	-0.042656686
212	0xbc562f1c	-0.013072755
213	0x3d005d30	0.03133887
214	0x3c326c76	0.010890117
215	0x3c727c2a	0.014800111
216	0xbc47e69e	-0.0122009795
217	0xbc547136	-0.012966445
218	0x3dba632a	0.09100945
219	0xbcf8f254	-0.030388989
220	0x3d4d5e72	0.0501389
221	0x3d57c92c	0.052682087
222	0x3cfcb338	0.030847177
223	0x3cc3f2e0	0.023919523
224	0x3cecbade	0.028897699
225	0x3c14aece	0.00907488
226	0xbc1ef523	-0.009702
227	0x3d69f0b7	0.05711433
228	0xbd00c91a	-0.031441785
229	0xbc9812fc	-0.01856374
230	0xbd078896	-0.033089243
231	0xbc7fbcde	-0.015608994
232	0xbc8b4332	-0.016999815
233	0xbaf5c499	-0.0018750607
234	0xbbeec8fb	-0.0072871423
235	0xbc9129a7	-0.017720057
236	0xbd2ab6b1	-0.041678134
237	0xbd169f06	-0.03677275
238	0xbc62d679	-0.01384508
239	0x3bd210c8	0.006410692
240	0xbb4aa232	-0.003091943
241	0x3cf1548e	0.029459264
242	0x3c743478	0.014905088
243	0xbc9fe9c3	-0.019520646
244	0x3d055c28	0.03255859
245	0x39f78fcd	0.0004721865
246	0xbcfc1ccd	-0.030775452
247	0x3c5ace5f	0.013354867
248	0xba59544e	-0.00082904554
249	0xbc41b13f	-0.011822044
250	0x3c8d0d66	0.017218303
251	0xbc8f4ec7	-0.017493619
252	0x3cdeff18	0.027221248
253	0xbc0118ee	-0.007879479
254	0x3b555c9b	0.0032556418
255	0xbcb7ce8e	-0.02243736

bias f4 [128]
0	0xbce690ea	-0.028145272
1	0x3d7cd04c	0.061722085
2	0x3b64cec4	0.003491328
3	0x3cec43f3	0.028840994
4	0xbd9a6aa7	-0.075398736
5	0xbd87ea07	-0.06636434
6	0xbd86a9fc	-0.06575391
7	0xbc97ba14	-0.018521346
8	0x3d364888	0.044502765
9	0x3db3f71c	0.08787367
10	0x3d3fa330	0.046786487
11	0xbe81ccf3	-0.25351676
12	0xbe1a4b4c	-0.15067786
13	0xbdaa3080	-0.08310032
14	0x3c3fdbdd	0.011710134
15	0xbd38711d	-0.04502975
16	0x3d5d741c	0.05406581
17	0xbd78bf54	-0.06072934
18	0xbd933dad	-0.07189498
19	0xbd2cf66d	-0.042227197
20	0xbd0167ff	-0.03159332
21	0xbcc05a36	-0.023480516
22	0x3d537123	0.051621567
23	0xbddc0ce9	-0.1074465
24	0xbe89c263	-0.26906118
25	0x3df4aa5a	0.119465545
26	0xbdd15ec4	-0.10223153
27	0x3ba2808f	0.004959173
28	0x3de393c5	0.11112169
29	0xbea26852	-0.31720215
30	0xbd991eeb	-0.074766
31	0xbde52b80	-0.111899376
32	0xbc8180e2	-0.015808526
33	0xbcca6aa5	-0.024709055
34	0xbe1bb6f8	-0.15206516
35	0xbd33e7a9	-0.0439221
36	0x3d33dc29	0.043911133
37	0xbe9060eb	-0.28198943
38	0x3e0adf04	0.13561636
39	0x3d7f8515	0.062382776
40	0x3e400101	0.18750383
41	0x3d03b42e	0.032154255
42	0xbc601478	-0.013676755
43	0xbd908b97	-0.07057875
44	0x3d845fa9	0.06463558
45	0x3e0d346f	0.13789533
46	0xbc8bf648	-0.01708521
47	0xbdb3deda	-0.0878274
48	0xbdaa36db	-0.08311244
49	0xbe26ae84	-0.1627751
50	0x3d9a2748	0.075270236
51	0x3d6718ab	0.05642001
52	0xbd3e71f4	-0.046495393
53	0xbcd92ba3	-0.026510065
54	0x3cb70b1f	0.02234417
55	0x3d80ccae	0.062890396
56	0x3e22f80a	0.15914932
57	0xbc59f050	-0.013301924
58	0x3e11cd38	0.14238441
59	0xbce24551	-0.027620943
60	0x3e84df32	0.25951535
61	0xbcf24275	-0.029572705
62	0x3c3ca2c0	0.011513412
63	0xbd05a47e	-0.032627575
64	0xbce51e64	-0.027968593
65	0x3d5bebf4	0.05369182
66	0x3d59538a	0.053058185
67	0xbcde6d18	-0.02715163
68	0xbbd06fc3	-0.0063609793
69	0xbcd4ae38	-0.02596198
70	0x3c8e5557	0.017374678
71	0xbd6444f7	-0.055729833
72	0xbd696741	-0.056983236
73	0x3d4c471f	0.049872514
74	0x3cc03bfa	0.023466099
75	0xbd51255a	-0.05106101
76	0x3d4fff76	0.050780736
77	0x3e1c03dc	0.15235847
78	0x3cbb8e05	0.022894869
79	0x3d4b4247	0.049623754
80	0x3cfcf4f4	0.030878522
81	0x3cc0ca24	0.023533888
82	0x3d252fc0	0.04032874
83	0xbd3af999	-0.04564819
84	0xbdabe575	-0.08393375
85	0x3d2554d5	0.040364105
86	0x3d9e8841	0.07740832
87	0xbc287e6e	-0.010284049
88	0xbd43ec1d	-0.047832597
89	0xbd8a9518	-0.067667186
90	0x3d84113e	0.06448601
91	0xbd04006a	-0.032226957
92	0x3c451698	0.012029313
93	0xbcabdb24	-0.020978518
94	0xbe7c8aab	-0.24662273
95	0xbb838efe	-0.0040148487
96	0x3c4311ec	0.011906128
97	0xbbde5316	-0.006784807
98	0x3d89b889	0.067246504
99	0xbdfcbdd9	-0.12340898
100	0xbe847ccc	-0.25876462
101	0xba507c5c	-0.00079531013
102	0x3ce8780d	0.028377557
103	0x3990316e	0.00027502648
104	0xbe891f52	-0.26781708
105	0x3dfb6800	0.12275696
106	0xbbd0f4b7	-0.0063768285
107	0x3e4c3cbc	0.19945043
108	0xbd920efe	-0.07131766
109	0x3d32a6b2	0.043616004
110	0xbded6cc3	-0.1159301
111	0x3db70ba7	0.089377694
112	0xbda5bc28	-0.080925286
113	0xbcce96e6	-0.025218438
114	0xbdfe0838	-0.12403911
115	0xbe9b1d83	-0.30295953
116	0x3dd69199	0.10476989
117	0x3cd2ba48	0.025723591
118	0x3d1126d0	0.035437405
119	0x3d04290c	0.032265708
120	0x3d8092a1	0.06277967
121	0x3cce9cf6	0.02522133
122	0x3ec32251	0.3811212
123	0x3d45843d	0.048221815
124	0x3c4ccc3b	0.012499864
125	0xbdb896ec	-0.09013161
126	0x3d224db2	0.039624877
127	0xbbacdcf8	-0.005275365

weight f4 [128, 64, 3, 3]
0	0x3c907e1f	0.017638264
1	0xbcc915c3	-0.02454651
2	0xbb13f1be	-0.002257451
3	0x3b8364cf	0.00400982
4	0x3bf64f74	0.007516796
5	0x3cc8c51d	0.024508053
6	0xbc5bf841	-0.013425888
7	0x3b841a23	0.004031436
8	0xbc5249b6	-0.012834957
9	0x3c9458bb	0.018108716
10	0xbcaa033b	-0.020753494
11	0xbc237144	-0.009975735
12	0x3ce7f1ba	0.028313506
13	0xbca39354	-0.019967712
14	0x3cd8de41	0.026473166
15	0xbd2bc57e	-0.04193639
16	0xbbaaa314	-0.0052074287
17	0x3cb411f9	0.021981226
18	0xbcd060c6	-0.02543677
19	0xbd1214a6	-0.035664223
20	0xbcda3ba7	-0.026639773
21	0xbbb84d9a	-0.005624485
22	0xbce21531	-0.027597995
23	0xbc331e61	-0.010932536
24	0xbd1d873a	-0.03845904
25	0xbc8251a4	-0.01590807
26	0xbcf66e1d	-0.030081803
27	0xbc8c8671	-0.01715395
28	0xbc881afb	-0.016614428
29	0xbb423dda	-0.0029638917
30	0x3c41af7c	0.011821624
31	0xbd1632ad	-0.036669422
32	0xbd4cdf93	-0.050017904
33	0x3c023f78	0.007949702
34	0x3cd287ae	0.025699463
35	0x3ceeaba4	0.029134579
36	0xb8ab1c5f	-8.1592e-05
37	0xbbdb8e9d	-0.0067003504
38	0x3d362f17	0.044478502
39	0x3d3fcd8f	0.046826895
40	0xbc29ddfc	-0.010367867
41	0x3caf2c80	0.021383524
42	0xbb378e4f	-0.0028008407
43	0xbca0ed84	-0.019644506
44	0xbce38bf7	-0.027776701
45	0x3be85593	0.0070902794
46	0x3d08f0e8	0.03343287
47	0xbce11b6c	-0.027478896
48	0xbc2b2683	-0.010446194
49	0x3be557c5	0.0069989883
50	0xbd2d879e	-0.042365663
51	0x3cc79bb8	0.024366245
52	0x3ce76451	0.028246077
53	0xbc7fdac2	-0.015616121
54	0xbc771146	-0.015079802
55	0xb96936b9	-0.00022240997
56	0xbcca4245	-0.024689803
57	0x3cc1c86f	0.023655144
58	0x3c3424db	0.010995115
59	0x3d4b24ba	0.049595572
60	0xbda74448	-0.081673205
61	0x3bdbdc19	0.0067095873
62	0xbc2995dc	-0.010350671
63	0xbd00059b	-0.031255346
64	0xbc2d1783	-0.010564688
65	0xbd2012cb	-0.039080422
66	0x3bedc6a3	0.0072563454
67	0xbcc9e204	-0.024643905
68	0xbc27e55b	-0.010247554
69	0x3ce55f2d	0.027999485
70	0x3cd31c1c	0.02577024
71	0x3c8e2547	0.01735176
72	0xbc5d3410	-0.013501182
73	0x3d1277cf	0.03575879
74	0x3d196c16	0.037456594
75	0x3cf9bd37	0.030485732
76	0x3c0bcd6e	0.008532865
77	0xbd1e4c78	-0.038647145
78	0x3ce8d609	0.028422372
79	0x3cd15d97	0.025557322
80	0xbc2659ed	-0.010153276
81	0xbd346bfe	-0.044048302
82	0x3cbc2958	0.022968933
83	0x3bb5c0ae	0.005546651
84	0xbba4c6aa	-0.0050285654
85	0xbc998999	-0.01874237
86	0x3bb4ba43	0.005515368
87	0xbc9b02a9	-0.018922167
88	0x3d1129da	0.035440303
89	0x3cab5aa5	0.020917246
90	0x3d3b722c	0.04576318
91	0x3d23777a	0.039908864
92	0xbc7774e2	-0.015103551
93	0xbd144276	-0.036196195
94	0x3ca35a3c	0.019940488
95	0xbcd57622	-0.026057307
96	0x3d3def9a	0.04637108
97	0x3dc06edc	0.09396145
98	0x3dc7e987	0.09761339
99	0xbd01050c	-0.031498954
100	0xbcd1dc1c	-0.025617652
101	0xba926fd7	-0.0011172247
102	0xbce3f045	-0.02782453
103	0xbcd3f287	-0.025872482
104	0xbc2cac21	-0.010539086
105	0xbd405b7b	-0.046962243
106	0xbd725921	-0.05916703
107	0x3c7d82e3	0.0154731
108	0xbcbb4e69	-0.022864537
109	0xbd0b6792	-0.03403432
110	0x3c9c4566	0.01907606
111	0xbd344822	-0.044014104
112	0x3cc6d3f1	0.024270983
113	0xbd37ef56	-0.044905983
114	0x3caa0276	0.020753127
115	0xbcd5a091	-0.02607754
116	0xbca344c5	-0.019930253
117	0x3cfa457e	0.030550715
118	0x3d2c01a4	0.041993752
119	0x3c90cc17	0.017675443
120	0x3b5a3e35	0.0033301238
121	0x3d241d91	0.04006726
122	0x3bf63352	0.007513442
123	0x3cb97463	0.022638505
124	0xba55887f	-0.00081456447
125	0x3d1a5d59	0.03768668
126	0x3c7ea170	0.015541419
127	0xbd2cb341	-0.042163137
128	0x3a77dce3	0.0009455217
129	0x3b894bef	0.00418996
130	0x3ca3da43	0.020001536
131	0xbc929ff1	-0.017898532
132	0x3d981f8d	0.07427893
133	0x3d861ea1	0.06548811
134	0x3dccb5f8	0.09995645
135	0xbbc4bbdb	-0.0060038394
136	0x3c6d8737	0.01449757
137	0x3bc40e4f	0.005983151
138	0x3c53a14d	0.012916875
139	0xb92f0a84	-0.00016693218
140	0xbc6c7e09	-0.014434346
141	0xbd3662c0	-0.04452777
142	0xbce5b17e	-0.028038736
143	0x3d31ecb4	0.04343863
144	0x3cce5adb	0.025189808
145	0x3b0cddf1	0.0021494592
146	0xbd1b546b	-0.037922304
147	0x3d07e10e	0.033173613
148	0xbc473b49	-0.012160131
149	0x3c713b27	0.014723576
150	0x3d2d5450	0.042316735
151	0xbcdfc929	-0.0273176
152	0xbc9bec99	-0.019033717
153	0xbce17478	-0.027521357
154	0xbcd3e017	-0.02586369
155	0x3cfbc647	0.030734194
156	0x3bb3eb07	0.005490664
157	0xbc52b990	-0.012861624
158	0xbd1b32ef	-0.03789037
159	0x3cb163d9	0.021654056
160	0x3c0f90d2	0.008762555
161	0xbc750dbe	-0.01495689
162	0xbd01de67	-0.03170624
163	0xbc9670b2	-0.018364284
164	0xbdbea196	-0.09308164
165	0xbac1d919	-0.0014789432
166	0xbd4def1b	-0.050276857
167	0xbd8e233b	-0.069403134
168	0xbd6a206a	-0.05715982
169	0xbd59235e	-0.053012244
170	0xbda3256a	-0.079661205
171	0x3c3692be	0.0111433845
172	0xbb2d001b	-0.0026397768
173	0x3c2f31dd	0.010693041
174	0x3d6715ff	0.05641746
175	0x3d83b852	0.06431641
176	0x3d0aba36	0.03386899
177	0xbcb27785	-0.021785507
178	0x3cad8803	0.02118302
179	0x3d3207bf	0.04346442
180	0xbc664834	-0.0140553005
181	0x3cf9ec24	0.030508108
182	0x3c7337c4	0.0148448385
183	0xbcd3ea5e	-0.02586859
184	0x3d4aceba	0.049513556
185	0x3afd1d80	0.001931116
186	0xbd81de4b	-0.06341227
187	0x3d540e33	0.051771354
188	0xbbcdadc8	-0.00627682
189	0xbb2508b9	-0.00251822
190	0xbaff6636	-0.0019485417
191	0xbcb845a8	-0.022494152
192	0xbb5b7353	-0.0033485487
193	0xbd1d0f6d	-0.03834479
194	0xbcd864f9	-0.026415335
195	0x3c86451f	0.016390381
196	0xbc9091d1	-0.017647656
197	0x3acf5598	0.0015818356
198	0xbd316cb8	-0.043316573
199	0xbc370f6e	-0.011173112
200	0x3bcc2f2e	0.00623121
201	0xbd704037	-0.05865499
202	0xbd26db85	-0.040736694
203	0xbce5a0d9	-0.0280308
204	0x3cf89faf	0.03034958
205	0x3c6eb15e	0.014568655
206	0x3d443ac9	0.047907624
207	0xbd02e642	-0.031957872
208	0x3d51ac6b	0.05118982
209	0x3daf6eb1	0.085660346
210	0xba4ef47c	-0.00078947074
211	0xbbb4a33f	-0.0055126245
212	0x3c919a68	0.017773822
213	0x3dad1a38	0.084522665
214	0x3c85d3c2	0.016336326
215	0x3d35eab6	0.04441329
216	0x3bb01659	0.005373758
217	0x3d0deb20	0.03464806
218	0x3d816954	0.06318918
219	0x3d7b15b9	0.061300013
220	0x3cf7e718	0.030261561
221	0x3d33c7ce	0.04389172
222	0x3c5183e5	0.012787794
223	0x3d16d14a	0.036820687
224	0x3c351d7a	0.011054391
225	0xbdbcd22e	-0.09219776
226	0xbc5cd357	-0.013478122
227	0x3d97faf7	0.074209146
228	0x3ad92486	0.0016566671
229	0xbd0c7f1f	-0.03430092
230	0x3dfe91e6	0.12430172
231	0xbd73cdb5	-0.05952235
232	0x3d53fff5	0.05175777
233	0x3d382035	0.04495259
234	0x3a5b9bb9	0.00083773915
235	0xbd92435e	-0.071417555
236	0xbc01e772	-0.007928716
237	0x3b801c3b	0.0039096153
238	0x3c7642ea	0.015030602
239	0xbcce3d33	-0.025175666
240	0xbd83740e	-0.0641862
241	0xbd74651c	-0.059666738
242	0xbd6b4a48	-0.057443887
243	0xbc87701c	-0.01653295
244	0xbd95c584	-0.07313064
245	0xbddda10e	-0.10821734
246	0x3cba327a	0.022729147
247	0xbc650ce7	-0.013980127
248	0xbd7e0d2c	-0.06202428
249	0x3ccb8ec4	0.02484835
250	0xbc8426b0	-0.016131729
251	0xbd7ed089	-0.062210593
252	0xbc4cba9c	-0.012495663
253	0xbcb42b8d	-0.021993423
254	0x3d0556bb	0.032553416
255	0xbd4363f8	-0.04770276

bias f4 [64]
0	0x3d1f3ef8	0.03887841
1	0x3d54cf28	0.051955372
2	0x3e84eef2	0.2596355
3	0xbbb8dd3a	-0.0056416066
4	0xbd6530d1	-0.055954758
5	0x3cbe7cfb	0.023252955
6	0xb947bac4	-0.00019047695
7	0x3d2b54ac	0.041828796
8	0x3d07bdcf	0.03314
9	0x3cd5e4a8	0.026110008
10	0x3c4eae68	0.012614824
11	0x3d8b3317	0.06796854
12	0x3d6ad181	0.057328705
13	0xbcd4f45f	-0.025995431
14	0xbe1ff643	-0.15621285
15	0x3e51a5dd	0.20473428
16	0x3d9eafa0	0.077483416
17	0x3d8e4f3f	0.06948709
18	0x3c65b72a	0.0140207205
19	0x3ce6691d	0.028126294
20	0x3cae26f5	0.02125881
21	0x3e0ce159	0.13757838
22	0x3d74f726	0.05980601
23	0xbd2b1086	-0.041763805
24	0xbd4f6a1d	-0.050638307
25	0xbc975863	-0.018474763
26	0x3e36e398	0.17860258
27	0x3d84ec5a	0.06490393
28	0xbcb1a318	-0.021684214
29	0x3e6a60b7	0.22888456
30	0x3b65faed	0.003509219
31	0x3cb09eda	0.021560121
32	0xbc0f1a6c	-0.008734327
33	0x3c9077e9	0.017635303
34	0x3d00eb24	0.031474248
35	0x3d46e857	0.04856142
36	0x3cd3a038	0.025833234
37	0x3cb88fb4	0.02252946
38	0x3c3773fa	0.011197085
39	0x3c98eece	0.018668558
40	0x3da09c6d	0.07842336
41	0x3e245844	0.16049296
42	0x3d6fda82	0.058557995
43	0x3d39b203	0.04533578
44	0xbd533f71	-0.051574174
45	0x3d24aef8	0.040205926
46	0xbc9e6269	-0.019334035
47	0x3dec1bb7	0.11528724
48	0x3e9aab04	0.302086
49	0x3d629ec5	0.055327196
50	0x3b3ac02e	0.0028495896
51	0xba148d17	-0.0005666776
52	0x3e3ca210	0.18421197
53	0x3da993f9	0.08280177
54	0xbccae03b	-0.024765125
55	0x3ca8a410	0.020586044
56	0x3e00788b	0.12545983
57	0x3dcd316e	0.100191936
58	0xbbc8ab73	-0.006123954
59	0x3c3406a0	0.010987908
60	0xb9df252b	-0.00042561567
61	0xbd671435	-0.056415755
62	0xbd38ee43	-0.0451491
63	0xbcbba7fa	-0.022907246

weight f4 [64, 32, 3, 3]
0	0xbbd30910	-0.0064402893
1	0x3d31657c	0.043309674
2	0x3cd2cbdc	0.025731973
3	0xbc9d91eb	-0.019234618
4	0x3d5fd127	0.054642823
5	0xbd4c8760	-0.04993379
6	0x3d45a196	0.048249803
7	0xbd35bbe8	-0.044368654
8	0xbd2f4af3	-0.042796087
9	0xbaa05ced	-0.0012234725
10	0x3b9f7e08	0.004867319
11	0x3ce42f84	0.027854688
12	0x3d14cee9	0.036330137
13	0x3c333ed6	0.010940274
14	0xbd1016f7	-0.03517815
15	0xbcea2888	-0.02858378
16	0x3c8bcf80	0.017066717
17	0x3b2e876b	0.0026631008
18	0xbd761900	-0.060082436
19	0xba137c1a	-0.00056260976
20	0x3d44ef43	0.04807974
21	0x3d0ad441	0.033893827
22	0xbd7216bb	-0.05910371
23	0x3cdf483a	0.02725612
24	0x3d4eafda	0.050460674
25	0xbd22e70a	-0.039771117
26	0xbc0db3b2	-0.0086488
27	0xbbf684fc	-0.007523177
28	0x3d13c0ab	0.036072414
29	0xbbfe7198	-0.0077650063
30	0x3ce1d227	0.027566029
31	0x3d512e1c	0.051069364
32	0xbd1d7780	-0.038444042
33	0xbd4d2102	-0.050080307
34	0x3c99626e	0.018723693
35	0x3c080fe3	0.008304569
36	0x3a4aa16b	0.00077297416
37	0xbd79269e	-0.060827844
38	0xbd13f488	-0.036121875
39	0xbd4af7d3	-0.04955275
40	0xbd035e93	-0.032072615
41	0x3ce099f6	0.027417164
42	0xbca81092	-0.020515714
43	0x3d16fe1a	0.036863424
44	0xbbf1a105	-0.0073739314
45	0x3c46a789	0.012124904
46	0x3c8023a8	0.015642002
47	0x3d1931cd	0.03740101
48	0xbd7e4ef7	-0.062087025
49	0xbcdd2709	-0.026996152
50	0x3d4866a6	0.04892602
51	0x3c99a886	0.018757116
52	0x3bc23a6f	0.005927376
53	0x3c553395	0.013012786
54	0xbc982c1c	-0.01857572
55	0xbcef6431	-0.02922258
56	0x3d1c7a22	0.038202412
57	0xbc0b92e8	-0.008518912
58	0xbd26ecb8	-0.040753096
59	0xbc2400dc	-0.0100099705
60	0xbd646154	-0.05575688
61	0x3d0d8554	0.03455098
62	0xbc959c3a	-0.018262971
63	0xbc23c1cb	-0.009994934
64	0xbd4d7f7b	-0.050170403
65	0x3d1affdc	0.037841663
66	0xba24c08a	-0.0006284794
67	0xbd05e308	-0.032687217
68	0x3d23fd75	0.040036637
69	0xbbba9ff6	-0.0056953384
70	0xbdba5e3a	-0.091000035
71	0xbc164fa4	-0.009174261
72	0x3860153f	5.342555e-05
73	0xbcd56152	-0.026047383
74	0xbd27a58f	-0.040929373
75	0x3d0d9dd1	0.034574334
76	0x3d1d5d8f	0.038419303
77	0xba7482b8	-0.000932734
78	0xbd56b8d8	-0.052422374
79	0xbd4db2ff	-0.050219532
80	0xbd29a50e	-0.041417174
81	0xbcada616	-0.02119736
82	0xbd3e5d38	-0.04647562
83	0x3bc16fce	0.0059032207
84	0x3d1a9e4b	0.037748616
85	0x3d24321f	0.04008686
86	0x3d389937	0.045067992
87	0xbd52350e	-0.05132013
88	0xbcab2f6c	-0.020896636
89	0xbc44a983	-0.012003305
90	0xbd12e043	-0.035858404
91	0x3bcc2636	0.006230141
92	0xbd8af3cb	-0.06784781
93	0x3d22f855	0.03978761
94	0x3cec0be3	0.028814262
95	0x3c8223ea	0.015886266
96	0xbd62de0a	-0.055387534
97	0xbc3c395e	-0.011488287
98	0xbb058d07	-0.0020378248
99	0x3b71219a	0.003679371
100	0xbc773a6c	-0.015089612
101	0x3d0bdfd4	0.034149006
102	0xbc80c8c0	-0.015720725
103	0xbd1f666d	-0.03891604
104	0x3c9935a9	0.018702345
105	0x3cfc84ea	0.030825097
106	0x3baf677f	0.005352914
107	0xbd86b9e2	-0.06578423
108	0x3d5af979	0.053460572
109	0xbc50b458	-0.01273831
110	0xbd60d07b	-0.054886322
111	0x3cbc3e52	0.022978935
112	0xbc849b66	-0.016187381
113	0xbd3b4a30	-0.045725048
114	0x3c1936c7	0.009351439
115	0xbaa506dd	-0.0012590546
116	0xbc377a67	-0.011198617
117	0xbda785cf	-0.08179819
118	0xbd0f5ede	-0.03500258
119	0xbdaac88b	-0.08339032
120	0xbd00d426	-0.03145232
121	0x3d531b1c	0.051539525
122	0x3d1e31b1	0.03862161
123	0x3c05392f	0.008131309
124	0x3c45806c	0.012054544
125	0x3cd2449e	0.025667485
126	0x3d5809b5	0.052743632
127	0x3a59f630	0.0008314578
128	0xbc959299	-0.01825838
129	0xbcf60f2e	-0.030036535
130	0xbc54065b	-0.012940968
131	0xbd4cd3c7	-0.050006654
132	0x3cdc2557	0.026873274
133	0xbcab5907	-0.020916475
134	0xbc13c1fb	-0.0090184165
135	0x3ce50c7a	0.02796005
136	0xbd2d3cf1	-0.042294446
137	0xbbb87917	-0.0056296694
138	0xbc941841	-0.018077971
139	0xbd2e8994	-0.042611673
140	0xbcecf870	-0.028927058
141	0xbd02579b	-0.03182183
142	0x3d3d392a	0.046197094
143	0x3d62655d	0.05527245
144	0xbb0fe997	-0.0021959299
145	0x3c75f36f	0.015011652
146	0xbc1caa51	-0.009562091
147	0xbb90a3e4	-0.0044140685
148	0x3a2029cd	0.00061097444
149	0x3d081345	0.0332215
150	0x3d10cd93	0.0353523
151	0x3d3fce6e	0.046827726
152	0xbb1ccdf6	-0.0023926473
153	0xbcaa76c3	-0.020808583
154	0x3d1036a3	0.035208356
155	0xbc45c407	-0.012070662
156	0x3d841df8	0.064510286
157	0x3d339952	0.04384739
158	0xbc23d896	-0.010000369
159	0x3cfb87aa	0.030704338
160	0xbca5f820	-0.020259917
161	0xbcf363da	-0.029710699
162	0x3d2168c8	0.039406568
163	0xbd2f4d76	-0.042798482
164	0xbca0e2af	-0.019639341
165	0x3d6222c5	0.05520894
166	0xbcead550	-0.028666168
167	0xbad85deb	-0.0016507482
168	0xbac2e5db	-0.0014869528
169	0x3d576083	0.052582275
170	0xbcf12ae6	-0.0294394
171	0xbde58e8f	-0.112088315
172	0xbd9cc7a6	-0.076552674
173	0xbd66284e	-0.05619078
174	0x3d117def	0.03552049
175	0x3d7a8ebf	0.06117129
176	0xbca4d4e7	-0.020121051
177	0x3cb66218	0.022263572
178	0x3db869ce	0.09004556
179	0x3cf9c9e5	0.030491779
180	0xbc26bf0e	-0.010177387
181	0xbca4e416	-0.020128291
182	0x3cd218d2	0.0256466
183	0xbbe808f7	-0.007081147
184	0x3d17aff9	0.037033055
185	0x3d49702e	0.04917925
186	0x3ce850c3	0.028358823
187	0xbd238901	-0.03992558
188	0x3d2a4f71	0.041579667
189	0xbc8004e7	-0.015627338
190	0x3c030876	0.007997623
191	0x3d0b6825	0.034034867
192	0x3aa83337	0.0012832646
193	0xbd01dcbf	-0.03170466
194	0xba8bed83	-0.0010675642
195	0x3cafbfc9	0.021453755
196	0x3d6586ad	0.05603664
197	0xbd7de9fb	-0.06199072
198	0x3d345550	0.044026673
199	0xbd103b81	-0.035212997
200	0x3d43ced9	0.047804687
201	0xbd40eeef	-0.047102865
202	0x3cde16d2	0.027110491
203	0xbc450105	-0.012024169
204	0x3d504792	0.050849505
205	0xbc0a06f4	-0.008424509
206	0xbce3ff10	-0.027831584
207	0x3c58a1d9	0.013222181
208	0xbd02254f	-0.03177386
209	0xbd253c6f	-0.040340837
210	0xbb0ec4c2	-0.0021784757
211	0x3b9ead0b	0.0048424057
212	0x3d30a63a	0.043127276
213	0x3bad05d4	0.005280236
214	0xbd35778a	-0.044303454
215	0xbc97fabf	-0.018552182
216	0xbc30b982	-0.010786416
217	0xbabafc57	-0.0014265877
218	0xbd466ecf	-0.04844552
219	0x3d32d1d6	0.043657146
220	0x3c5dca85	0.013537054
221	0xbd76bb5f	-0.060237285
222	0xbd43c15c	-0.047791824
223	0x3c99db98	0.018781468
224	0xbcaf4a4a	-0.021397728
225	0x3b044779	0.0020184203
226	0x3c8436ae	0.016139355
227	0x3cd6e06b	0.026230058
228	0xbd111d2c	-0.03542821
229	0x3d5fe7b1	0.054664318
230	0xbcf66977	-0.030079586
231	0xbb506f17	-0.0031804496
232	0x3d93b2e3	0.07211854
233	0xbba5d9f5	-0.005061383
234	0xbcc61145	-0.024178157
235	0xbd6945ed	-0.056951452
236	0xbbe18cf1	-0.0068832566
237	0xbc8a5560	-0.016886413
238	0xbc9d9225	-0.019234726
239	0xbd53f6f3	-0.05174918
240	0xbc950231	-0.018189522
241	0x3d0fab09	0.03507522
242	0xbcb64af7	-0.022252543
243	0x3ca28891	0.01984051
244	0xbd000297	-0.03125247
245	0xbd2924fe	-0.041295044
246	0xbc38d34a	-0.011280844
247	0xbd5448c6	-0.051827215
248	0x3d05dd49	0.032681737
249	0x3c4f2857	0.012643895
250	0xbcdd0e9f	-0.026984511
251	0x3d11f9d5	0.03563865
252	0xbd238f11	-0.03993136
253	0xbd2432dd	-0.04008757
254	0xbd678ed2	-0.05653269
255	0xbd353882	-0.044243343

bias f4 [32]
0	0xbda689b0	-0.081317306
1	0x3d964198	0.0733673
2	0x3d3b1b33	0.045680236
3	0xbd90a45a	-0.070625976
4	0x3d848c48	0.06472069
5	0x3cc3e17d	0.023911232
6	0xbda60421	-0.08106256
7	0xbd3fce04	-0.04682733
8	0xbd79d062	-0.060989745
9	0x3d27d08a	0.040970363
10	0x3bbe361b	0.0058047897
11	0x3dbed637	0.09318202
12	0xbd978f63	-0.07400396
13	0x3db6832d	0.089117385
14	0x3d2f3e14	0.04278381
15	0x3b8a5560	0.0042216033
16	0xbc55bda8	-0.013045706
17	0xbcfd41a0	-0.030915082
18	0xbd3b4b17	-0.045725908
19	0x3c57b27b	0.013165112
20	0xbd487d1c	-0.04894744
21	0xba2ed96e	-0.0006669973
22	0xbc7c4190	-0.015396491
23	0x3b6c87f3	0.0036091774
24	0x3d79e5f8	0.06101033
25	0xbd9e608f	-0.07733261
26	0xbb8d1909	-0.004305963
27	0xbda1c7d6	-0.07899444
28	0xbda4df42	-0.080503955
29	0x3d967aa3	0.0734761
30	0xbd723536	-0.059132777
31	0xbd6ca11d	-0.057770837

weight f4 [32, 1, 3, 3]
0	0xbd1ac940	-0.037789583
1	0x3e9cfb45	0.30660453
2	0xbe33f6ec	-0.17574662
3	0xbe1aa62f	-0.15102457
4	0xbd1c7a37	-0.03820249
5	0xbe858bfc	-0.26083362
6	0x3e008abc	0.12552923
7	0x3d5faae7	0.054606345
8	0xbd8f6901	-0.0700245
9	0x3db3b437	0.08774608
10	0xbc1b31d9	-0.009472334
11	0x3e3e6f0a	0.18597046
12	0xbe2d6f32	-0.16936949
13	0xbc899d10	-0.016798526
14	0x3e2f609d	0.17126699
15	0x3e4b1996	0.19833979
16	0xb9d33970	-0.0004028785
17	0xbe25d353	-0.16193895
18	0xbe74a052	-0.23889282
19	0xbcc44a3b	-0.023961177
20	0x3da1fbb7	0.07909339
21	0x3e66cd6a	0.22539297
22	0xbded1ad0	-0.1157738
23	0x3e9a3b7d	0.3012351
24	0x3d7cf7eb	0.06175987
25	0x3e3130e8	0.17303813
26	0xbe16a004	-0.14709479
27	0x3d7dce32	0.06196422
28	0xbe6a4a58	-0.22879922
29	0xbcad2e4c	-0.02114024
30	0xbe5bb153	-0.21454363
31	0xbe304729	-0.17214645
32	0x3e565fdd	0.20935006
33	0xbe17dc7b	-0.148302
34	0x3e7bb726	0.24581584
35	0xbe3c0e0e	-0.18364736
36	0xbe476d85	-0.19475372
37	0xbe349112	-0.17633465
38	0x3e8372c1	0.25673488
39	0x3e66484a	0.22488514
40	0x3e8957b3	0.26824722
41	0xbd5104cc	-0.051029965
42	0x3e493b57	0.19651543
43	0xbe560bc1	-0.20902921
44	0xbbf6698f	-0.007519908
45	0xbdc72010	-0.09722912
46	0x3e7cceb8	0.24688232
47	0xbe7235af	-0.23653291
48	0x3e81a9c6	0.2532484
49	0x3e85bfce	0.26122898
50	0x3cd84c08	0.026403442
51	0x3e695f61	0.2279029
52	0x3ca70f62	0.020393077
53	0xbe89cd17	-0.26914284
54	0xbe8b5292	-0.27211434
55	0xbd4f729d	-0.050646413
56	0xbe81e6f9	-0.2537153
57	0xbe17e39b	-0.14832918
58	0x3ca38da3	0.019964999
59	0x3ebd33e8	0.36953664
60	0xbd190797	-0.037360754
61	0x3ec4921a	0.38392717
62	0x3ce6f711	0.028193982
63	0x3e28d5e3	0.16487841
64	0xbe4cf28a	-0.20014396
65	0xbe87bfa9	-0.26513413
66	0xbe4809c8	-0.19534981
67	0x3e0a4ae6	0.13505134
68	0xbe58a6f7	-0.21157442
69	0xbde797d9	-0.113082595
70	0xbd8af03c	-0.06784102
71	0x3e8ae342	0.2712651
72	0xbe141597	-0.14461361
73	0xbe815a62	-0.2526427
74	0xbe8f6f86	-0.28014773
75	0x3e8f032f	0.27932116
76	0xbbe07302	-0.0068496475
77	0x3ad49498	0.0016218601
78	0xbddf2218	-0.10895175
79	0xbe069891	-0.13144137
80	0xbe8e955f	-0.27848336
81	0x3c9d65eb	0.019213637
82	0x3e907e16	0.28221196
83	0x3d70230e	0.05862718
84	0xbdf3b6f9	-0.11900134
85	0xbb981578	-0.004641231
86	0x3e9d2580	0.30692673
87	0x3e26dc12	0.16294888
88	0xbd03ad78	-0.032147855
89	0xbe2606db	-0.16213553
90	0x3e2c1ec9	0.16808619
91	0xbe3d6055	-0.18493779
92	0xbd49cb66	-0.04926624
93	0xbc8b80c2	-0.01702917
94	0x3da547fb	0.0807037
95	0xbe708f7a	-0.23492232
96	0xbd9900cd	-0.07470856
97	0xbe68deb2	-0.22741202
98	0xbe96575e	-0.2936353
99	0xbe4515e3	-0.1924663
100	0x3ea08511	0.31351522
101	0x3e7a11d8	0.2442087
102	0xbe703e5c	-0.23461288
103	0x3e4684fd	0.19386669
104	0x3e899e5b	0.26878628
105	0xbe8729b7	-0.26399013
106	0xbd864dce	-0.06557809
107	0xbe86aec8	-0.26305223
108	0x3e8eae1f	0.2786722
109	0xbe4f0e8c	-0.20220393
110	0xbe0b0cb0	-0.13579059
111	0x3dac6cf5	0.084192194
112	0xbe23ec02	-0.16007999
113	0xbe2b15b5	-0.167075
114	0xbe4972b6	-0.19672665
115	0xbe93bd07	-0.28855154
116	0xbe675854	-0.22592288
117	0x3e060da7	0.13091145
118	0x3d9ea7d3	0.07746854
119	0x3ea64b54	0.32479346
120	0x3e65df47	0.22448455
121	0xbe11bc32	-0.14231947
122	0x3e17e9bd	0.14835258
123	0x3e9ac29e	0.30226606
124	0xbe504e76	-0.2034243
125	0x3e5531f8	0.20819843
126	0xbd41e841	-0.047340635
127	0x3e630111	0.22168376
128	0xbbae544f	-0.005320109
129	0x3e8a8d9f	0.27061173
130	0x3e898c07	0.26864645
131	0xbe6da57a	-0.23207656
132	0x3da5fe5a	0.08105154
133	0xbdd3e23b	-0.103458844
134	0xbe705529	-0.23469986
135	0x3e1c521f	0.15265702
136	0x3ea7b5be	0.32755846
137	0x3d98c677	0.07459729
138	0x3d26b868	0.040703207
139	0x3e867f3c	0.26268947
140	0x3d5325fa	0.05154989
141	0x3e33982e	0.1753852
142	0x3e8f0395	0.2793242
143	0x3e4d3948	0.20041382
144	0x3c935a22	0.017987315
145	0x3e3921d2	0.18079308
146	0x3d505fe3	0.050872695
147	0x3e9d0878	0.30670524
148	0x3e58907f	0.21148871
149	0xbd3bdc83	-0.045864593
150	0xbe1756ef	-0.14779256
151	0xbe67fe87	-0.22655688
152	0x3e8b774d	0.27239457
153	0x3d7c90fc	0.061661705
154	0x3e41b7c9	0.18917765
155	0xbcf27558	-0.02959697
156	0xbd556e4d	-0.052107144
157	0x3e84fa20	0.2597208
158	0x3d94f17c	0.07272622
159	0xbdd00765	-0.101576604
160	0xbe50b864	-0.2038284
161	0xbe96c70b	-0.29448733
162	0x3d605f4b	0.05477838
163	0x3e18f44b	0.1493694
164	0xbdaa9523	-0.08329227
165	0x3ea1e0e2	0.31616884
166	0xbe7bb1fd	-0.24579616
167	0xbe4d3c2b	-0.20042484
168	0x3e2720a5	0.16321047
169	0x3c334a2a	0.010942975
170	0x3d3365f9	0.04379842
171	0xbcb103b6	-0.021608215
172	0xbd585478	-0.05281493
173	0x3e077080	0.13226509
174	0x3e3e9520	0.18611574
175	0x3eaaf4d8	0.33389926
176	0x3e3efdd3	0.18651514
177	0xbc8986a5	-0.016787836
178	0xbe0c76f3	-0.1371725
179	0xbd4929d7	-0.049112167
180	0xbdcbac85	-0.09945015
181	0xbe230a79	-0.15921964
182	0xbe251117	-0.161198
183	0xbca7952e	-0.020456877
184	0x3d8e76f9	0.06956286
185	0xbe11e069	-0.14245762
186	0x3ea3a874	0.31964457
187	0x3e19c633	0.15017013
188	0xbdc52485	-0.09626106
189	0xbe20f0ce	-0.1571686
190	0xbe8fe63b	-0.2810534
191	0x3e6d37ec	0.23165864
192	0x3d3f9812	0.046775885
193	0xbe791c2a	-0.2432715
194	0x3e665ed7	0.22497116
195	0xbe635cc9	-0.22203363
196	0xbe1af047	-0.15130721
197	0x3ddca45f	0.10773539
198	0xbe952386	-0.29128665
199	0xbe90dba3	-0.2829257
200	0x3d14f14c	0.03636293
201	0xbe78f00b	-0.24310319
202	0x3ea0716b	0.3133653
203	0x3e9ff10c	0.31238592
204	0x3d9c7391	0.0763923
205	0xbe7412c4	-0.23835284
206	0x3e373a92	0.17893437
207	0xbe4dd2c7	-0.20099936
208	0xbe410971	-0.18851258
209	0x3e03a1bd	0.12854667
210	0x3e164984	0.14676481
211	0xbe893457	-0.26797745
212	0x3d918146	0.07104735
213	0x3e752163	0.23938517
214	0xbb010f1f	-0.001969285
215	0x3e0f0fb9	0.13970841
216	0x3e8c4aac	0.2740072
217	0x3e9c05e0	0.30473232
218	0xbe746a7d	-0.23868747
219	0xbea069f9	-0.3133085
220	0x3e60fff8	0.21972644
221	0x3dda7ee9	0.106687374
222	0xbe90de1c	-0.28294456
223	0x3e06de7f	0.13170813
224	0x3d8a5815	0.067550816
225	0x3de64663	0.11243894
226	0x3c3520aa	0.011055151
227	0x3e7d276c	0.2472207
228	0xbe79b436	-0.24385151
229	0xbe212550	-0.1573689
230	0x3e86aa11	0.26301625
231	0xbe71c9c0	-0.23612118
232	0xbe18e914	-0.14932662
233	0xbc8f30d3	-0.017479336
234	0xbe91272c	-0.28350198
235	0x3e1074eb	0.141071
236	0xbe9f67fe	-0.31134027
237	0x3e44fed8	0.1923784
238	0xbe696034	-0.22790605
239	0x3d404633	0.046941947
240	0xbe070745	-0.13186367
241	0xbe61cee2	-0.22051576
242	0xbc15ba3b	-0.009138639
243	0x3e5dbbff	0.21653746
244	0x3de2fadd	0.110830046
245	0xbe9bc97c	-0.30427158
246	0x3d1ea030	0.038726985
247	0xbea699ae	-0.32539123
248	0xbe87304c	-0.26404035
249	0xbea13d52	-0.31492096
250	0xbe02ab79	-0.12760724
251	0x3ea8f61f	0.33000275
252	0xbe6fb286	-0.23407945
253	0xbe91dd6e	-0.2848925
254	0xbd828cba	-0.06374498
255	0xbd85821a	-0.065189555
