models/75.pt (torch, 837106 bytes, 17 tensors)

weight f4 [32, 1, 3, 3]
000000 9e 2e 75 bd 8a 1f 99 3c d5 ba b1 3d 04 ae 85 be
       -0.05985891 0.018691797 0.086782135 -0.26109326
000010 ba 26 3c 3e d1 b1 4e be f1 9f 86 3e 0f 2e 70 be
       0.18374148 -0.20185019 0.262939 -0.2345507
000020 04 7d 77 be 0b 72 eb 3c 41 99 2c 3e 57 a7 c9 bd
       -0.24168783 0.028740903 0.16855337 -0.09846371
000030 be 91 0c be 96 e1 0c 3e 0b 79 cc 3d 28 27 89 3e
       -0.13727471 0.13757929 0.099840246 0.26787686
000040 cd 91 b7 bd 9f ae 72 be 64 87 4e be fa 18 b1 3d
       -0.08963356 -0.23699425 -0.20168835 0.08647342
000050 6b 6d a0 be 11 db ff 3d 46 65 3d 3e f6 21 69 3e
       -0.3133348 0.124929555 0.18495664 0.22766861
000060 29 62 dc 3d b3 c1 ff bd 4e 00 25 be 83 be 3b be
       0.1076091 -0.12488117 -0.16113397 -0.18334393
000070 a6 64 a2 3e 4e 59 66 bd bc af b7 bd ed 63 cc bd
       0.31717414 -0.05623751 -0.089690655 -0.09979997
000080 25 50 82 3e 4a fd 74 3e ea df 1d bd a9 dd 3e 3e
       0.2545177 0.23924747 -0.03854362 0.18639244
000090 b8 ab a3 3e 67 c9 d4 bd bf b8 d2 bd ab a4 96 3e
       0.31966949 -0.10389977 -0.10289144 0.29422507
0000a0 8a 16 2a 3e 11 1a a3 bd fc cd 95 3e 43 ff 0b 3e
       0.1661016 -0.07963956 0.29258716 0.13671593
0000b0 50 45 c6 3c f7 be 9a 3e e4 6b 93 3e 90 f6 16 be
       0.024202973 0.3022382 0.28793252 -0.14742494
0000c0 51 38 84 3d b3 81 ff bd a7 76 3f 3e 02 82 0d be
       0.06456054 -0.1247591 0.18697606 -0.13819125
0000d0 2f 9f 64 be e3 a6 57 3e 15 e1 08 be 25 29 bf 3b
       -0.22326349 0.21059756 -0.13367112 0.005833762
0000e0 2d c9 8f 3e 4d 94 72 be 2e 63 a6 bd 86 3f d4 3d
       0.28083172 -0.23689385 -0.08124386 0.10363679
0000f0 37 d6 00 3e 04 24 b2 be 3a 29 45 3d e8 5f c4 3d
       0.12581716 -0.34793103 0.04813502 0.09588605
000100 1e 81 01 3e e3 42 56 3e 11 f1 20 be 1c 32 a6 3e
       0.1264691 0.20923953 -0.1571696 0.32460105
000110 a0 3f 98 3d 01 7b be bd f9 36 93 3d 99 8c 34 be
       0.074340105 -0.09300805 0.071882196 -0.17631759
000120 63 2e 3e be b1 c1 4b be 0f c3 13 be 40 49 47 3e
       -0.18572383 -0.19898106 -0.14429878 0.19461536
000130 b4 98 b9 bd 30 65 72 be ea 65 84 3e 7f 20 87 be
       -0.09062329 -0.23671412 0.25859004 -0.2639198
000140 cf b2 81 3c eb 53 89 3e 6e 86 4c 3e 1f 80 3a be
       0.015832333 0.26821837 0.19973156 -0.18212937
000150 ba f8 99 3e 47 b5 6d 3e 00 b6 a5 3e 21 16 01 be
       0.30072576 0.23213683 0.32365417 -0.12606098
000160 42 fe 18 bc 7b 77 92 be 43 43 b9 be 0e 80 8e 3d
       -0.009337964 -0.2860678 -0.3618413 0.06958018
000170 8d 50 34 bb 30 d9 fd 3d 1f 7f 1e be 1a e7 d1 3d
       -0.0027513832 0.12394941 -0.1547818 0.10249157
000180 5f c2 84 3e fb 2d b5 be b0 06 4a 3e 55 5b 90 3d
       0.25929543 -0.35386643 0.19729114 0.0704867
000190 47 07 3f bd ba d1 0f 3e ef 70 89 3e 58 cf 82 be
       -0.0466378 0.14044848 0.26843974 -0.25548816
0001a0 08 78 90 be 10 0b 8c bd 85 93 d9 bd f2 3e 05 3e
       -0.28216577 -0.068380475 -0.1062384 0.13012293
0001b0 56 09 66 3d 45 a9 20 be 7d 3c 68 be c5 06 50 3e
       0.056161247 -0.15689571 -0.22679324 0.20315082
0001c0 12 d4 5a be 4f bb 23 3d bb e3 1c 3e e4 d5 60 be
       -0.21369961 0.039973553 0.15321247 -0.21956593
0001d0 71 ff 81 be cf b0 97 3e 0e d8 6a 3e f9 37 ac bd
       -0.253902 0.29627082 0.22933981 -0.084091134
0001e0 db 1a 6a be 41 ee 99 be 95 8a 62 be a5 9c 74 3e
       -0.22861807 -0.30064586 -0.22123177 0.2388788
0001f0 14 39 71 be 26 ef 55 be 17 fc 74 be f8 b9 5d 3e
       -0.2355693 -0.20892009 -0.2392429 0.21652973
000200 e9 41 89 be ca 9a 83 3e 71 ad 42 be 76 2a 91 3e
       -0.26808098 0.25704032 -0.19011475 0.28352708
000210 e9 1e 7b be 2d 68 3f 3e ef 81 58 be ee 56 c2 bd
       -0.2452351 0.18692084 -0.21143316 -0.09489237
000220 eb a6 77 3e 85 30 4f bd 8b b5 74 3e 28 a7 7c be
       0.24184768 -0.05058338 0.23897378 -0.2467314
000230 a8 7b ce be 90 18 d2 bc 30 2d 62 3e cc e4 09 be
       -0.40328717 -0.025646478 0.2208755 -0.13466185
000240 13 68 9a be 62 41 35 3e c8 0f 00 3d 73 45 47 bc
       -0.30157527 0.17700723 0.03126505 -0.012162554
000250 78 f1 26 be e7 8f 9d be 32 5b 92 3e 07 0b 61 3d
       -0.1630305 -0.3077385 0.28585202 0.054942157
000260 40 72 17 3d 14 ce 8b 3e 3e ea 8b be 28 66 89 be
       0.03697419 0.27305663 -0.2732715 -0.26835752
000270 a3 5c 46 3d 4c f4 ae 3d c1 03 0e 3d 1f 6e 46 be
       0.04842819 0.0854269 0.03467155 -0.19377945
000280 16 ed 57 3e b4 a1 8d 3e b4 e5 c5 3d f3 ae 9b 3e
       0.21086535 0.27662432 0.09662953 0.30406913
000290 c5 1b 04 b9 46 7c d6 3d 03 2e 5f 3e 89 8a 09 be
       -0.00012598846 0.10472922 0.21794896 -0.13431753
0002a0 9d c8 7f 3e 6f 25 58 3e 22 a6 b0 bd 95 31 f7 bd
       0.24978872 0.2110803 -0.08625437 -0.12070004
0002b0 ca b7 16 be 99 ab 24 be 55 f0 a6 3e 03 15 fc bd
       -0.14718547 -0.16081084 0.32605234 -0.12308695
0002c0 bb 2c 30 3e c2 59 a0 be 93 c3 c1 bd a5 61 f7 3c
       0.17204563 -0.3131848 -0.09461131 0.030197928
0002d0 52 93 0c be 8a 3d 74 be d4 c1 3d bd 05 68 88 3e
       -0.13728073 -0.238516 -0.046327427 0.2664186
0002e0 f8 b3 43 3e 70 63 90 3e 91 ca 65 be 7a 2c a8 3d
       0.19111621 0.28200865 -0.22440554 0.08211608
0002f0 4c 0a ba 3d c1 71 08 3e 53 cf 02 3e 2a b7 83 be
       0.09083995 0.13324644 0.127744 -0.2572568
000300 04 ef e5 bd 00 de 3e 3e 77 e0 c7 bd 33 9c a2 bd
       -0.11227229 0.18639374 -0.0975961 -0.07939949
000310 cf b3 d1 3d ca 06 84 bd bf 7a 13 3d 5f d4 a7 be
       0.10239374 -0.064466074 0.03600573 -0.32779214
000320 24 4a e8 bd 9a a1 f8 3d 20 54 f5 bd da 66 8b 3d
       -0.11342266 0.12140198 -0.11978936 0.06806727
000330 42 b8 8b 3e 1f f4 52 3e 1e 8a 8d 3e 55 91 23 3e
       0.27289015 0.20600937 0.27644438 0.15973409
000340 6a ff 6d bd a5 02 19 be 56 73 6d be 6a 6c bd 3d
       -0.05810491 -0.14942415 -0.23188528 0.09249194
000350 40 87 b1 be f5 95 47 3e 2c 02 bf 3d 4c 9d 93 bd
       -0.346735 0.19490798 0.09326586 -0.072077364
000360 44 74 c0 3d b4 cd c7 bd ef 9d 11 be a8 d8 9a be
       0.09397176 -0.09756032 -0.14220403 -0.3024342
000370 8f 19 bd bd 76 f6 c2 bd 8f cc 05 3d c6 09 99 3e
       -0.092333905 -0.09519665 0.032665785 0.2989027
000380 92 63 02 be bc 28 6c 3e 81 55 04 3e ec f4 fe 3c
       -0.12733296 0.23062414 0.12923242 0.031122647
000390 df 3d 86 be 84 ee 39 be 23 ed 5c 3e 8f 8e 99 be
       -0.2621908 -0.18157393 0.21574835 -0.29991576
0003a0 34 e5 42 3e 03 79 41 be 50 6c 6e 3d 06 7c 32 3e
       0.19032747 -0.18893819 0.058208764 0.17430124
0003b0 8d 35 77 be da e4 6e 3e 89 ac 13 3e 12 cd 5a be
       -0.24141522 0.23329487 0.14421286 -0.2136729
0003c0 9c f2 7b bb 3c c6 7b be 1f 0b 13 3d 83 7d 54 3e
       -0.0038444167 -0.24587339 0.035899278 0.20751004
0003d0 72 63 0d 3e 9c 0b 81 be 7b 1f 5b bd d5 9e 88 be
       0.13807467 -0.2520417 -0.05349682 -0.2668368
0003e0 54 aa 4b 3e d7 c9 a1 bd 18 fc 99 3d 69 a4 5a be
       0.19889194 -0.07899826 0.07518786 -0.2135178
0003f0 e1 5b eb bd 62 ea 71 be 78 4b 98 be 9e c4 98 3e
       -0.11492134 -0.23624566 -0.29745078 0.29837507

bias f4 [32]
000000 1d fd c7 3d 9f 99 d2 3d 82 65 c5 3d 3e 60 97 be
       0.097650744 0.10283207 0.09638502 -0.29565614
000010 9e 93 a4 3e ae 91 5b bd 88 e8 9b bd b8 1e 60 3e
       0.32143873 -0.053605728 -0.07612711 0.21886718
000020 56 de b3 3e e8 9c b3 bc c3 78 78 be a6 93 96 3e
       0.35130566 -0.021925405 -0.24264817 0.29409522
000030 43 fa 97 3d 80 15 77 3e c5 fa 03 3e c5 71 81 3e
       0.074207805 0.24129295 0.1288863 0.25282112
000040 10 f5 1a be 25 86 b4 bd 6a 48 34 bd fe 50 82 3e
       -0.15132546 -0.088146485 -0.044014372 0.25452417
000050 8f 74 8b be 51 5e 88 be 8d e7 27 3d d8 ee d9 3d
       -0.27237365 -0.26634458 0.04099231 0.10641259
000060 b5 37 47 3e e7 da 91 3d 49 34 6e 3d 9a 7c 22 bd
       0.19454844 0.071218304 0.05815533 -0.03966961
000070 50 05 88 be 43 ea d5 bd d8 2f db bd 73 65 d1 3d
       -0.26566553 -0.104450725 -0.10702485 0.10224428

weight f4 [64, 32, 3, 3]
000000 7f f3 ab 3c 47 dc 45 bb 8a 96 c2 bd 44 8b b1 bc
       0.020990131 -0.003019111 -0.09501369 -0.021672852
000010 08 5c be b9 7d 25 ac 3b b1 8f 18 3c 52 fa 72 bd
       -0.00036308193 0.0052534924 0.009311602 -0.059320755
000020 83 83 63 3c 37 e2 3f bc be bf cb bb 4f 1e 9a 3d
       0.013886335 -0.011711649 -0.006217926 0.07525312
000030 b2 64 37 3d ce 15 8b 3b 2d 6a 33 bd c0 ef 83 3d
       0.044773765 0.0042445427 -0.04380243 0.06442213
000040 aa 9e f5 3c 51 ca 95 3c 94 02 f3 bb 47 d0 1a 3c
       0.029982883 0.018284949 -0.007416079 0.009449071
000050 b7 06 47 3d 35 9d 04 3d f6 0e c6 3b 69 59 84 bd
       0.04859039 0.032376487 0.006044264 -0.06462366
000060 b3 5e 05 bd f1 0e 2c 3d 2e a3 60 3d c7 51 4b 3c
       -0.032561015 0.042006437 0.05484312 0.012409634
000070 6e ab ab bc 2a 6f 1d bd 9a 24 ab 3c aa d3 4a bd
       -0.020955767 -0.038436092 0.020891476 -0.049518265
000080 ea 9e ae bb a4 03 2c bc 34 c2 63 3d 39 df cc 3c
       -0.0053290026 -0.010498915 0.05560513 0.025008785
000090 10 4a 00 bb af 8f cd 3c 3b f2 5b bd e9 0f 6c bd
       -0.0019575395 0.025092928 -0.053697806 -0.05763236
0000a0 6a f5 4f bd e3 74 67 bc 84 5c 45 bd f7 85 6d bb
       -0.050771154 -0.014126989 -0.048183933 -0.003624318
0000b0 90 cc 0f 3d f6 78 6e bc 94 c9 55 3c c3 d2 b0 bc
       0.035107195 -0.0145552065 0.013048548 -0.021584874
0000c0 0b 42 98 3a dc 97 35 3d 24 f7 6b 3d e5 8a 2b 3d
       0.0011616362 0.044334278 0.05760874 0.041880507
0000d0 41 65 51 3d 93 9a 96 3d ca 31 3d 3d 76 04 35 bd
       0.051121954 0.073537014 0.04619006 -0.044193707
0000e0 77 5a 20 bc ff 7c 30 bd 5c 45 09 3d 9c 09 01 bd
       -0.0097871935 -0.043087956 0.033513412 -0.031503305
0000f0 f9 86 b3 3b 32 d4 31 3c 08 5c 68 3d b3 48 5d bd
       0.0054787365 0.010853814 0.056728393 -0.05402441
000100 e5 48 24 bd 40 a2 46 bc 87 79 e4 bc 8c 1e 29 bd
       -0.04010858 -0.012123644 -0.02788998 -0.041288897
000110 76 ac be 3c 16 ae ed 3c b0 8e 74 3c c5 b1 54 bd
       0.023275595 0.029013675 0.0149265975 -0.051927347
000120 b7 aa 88 bc d4 5f 40 3c f5 0d f1 bd 9d 1f b9 bb
       -0.016682966 0.011741597 -0.1177024 -0.0056495205
000130 31 23 29 bc 19 61 ef bd 56 23 b1 bc 66 6a ad bd
       -0.010323332 -0.11688442 -0.021623295 -0.084675595
000140 54 44 01 be e9 c8 38 3d ab bc aa bc 1e ad 36 3c
       -0.12623721 0.045113478 -0.020841917 0.011149673
000150 f6 58 11 3d 87 0b ca bc 8e 27 d4 bc 15 6f 44 bd
       0.03548523 -0.0246637 -0.025897767 -0.0479575
000160 7c 64 d5 3c c8 c3 15 bd 4d a2 f1 bc 1f 54 d9 3b
       0.026048891 -0.036563665 -0.029496336 0.0066323425
000170 d0 d7 7f 3c 9c 8f 59 3c b4 fc e8 3c 21 cb 1b bd
       0.015615419 0.013278868 0.02844081 -0.038035516
000180 8a 11 db bb 4d d2 65 3c 32 0a b8 38 8b 61 8b bc
       -0.0066854404 0.01402719 8.775703e-05 -0.017014286
000190 7c ae 22 3a 5d c5 90 3d 46 a9 f5 ba c5 0f 2f 3d
       0.000620581 0.07068894 -0.0018742464 0.04273965
0001a0 40 bd d8 3d ce 87 61 3d 08 a9 f4 3c 0c a6 cd 3d
       0.105829716 0.055061154 0.029865757 0.100414366
0001b0 fc ef 52 bd 93 f2 08 3d ac 8d d2 bc 8a 47 50 bd
       -0.0514984 0.03343446 -0.02570232 -0.050849475
0001c0 b4 d9 34 bd e4 b7 0e be ad 3d b4 bc 5e 8c df bd
       -0.04415293 -0.13937336 -0.022002066 -0.10915445
0001d0 be 00 08 be 9d 00 76 bd 0c 88 1c ba c3 0f b7 bd
       -0.13281533 -0.06005918 -0.00059712003 -0.08938553
0001e0 b1 4e f4 3b fe 0f 2b 3d dc 65 36 bd 1c 24 13 bc
       0.00745567 0.0417633 -0.044530734 -0.008980777
0001f0 5c db 81 bb af ad ec bc 6a a6 1c 3d 17 06 94 bc
       -0.0039629173 -0.028891413 0.038244642 -0.01806931
000200 38 e1 e3 3d 57 e4 1a 3d d2 ba 29 bd 2d b5 79 3d
       0.111269414 0.037815418 -0.04143793 0.0609638
000210 f6 72 ba 3c 45 71 b9 3d 8d 5c 18 3e 1b 60 f6 bc
       0.022759896 0.090548076 0.14879055 -0.030075124
000220 6f 21 49 3c 81 98 df bc 4b b5 bd 3b d7 ee a9 bc
       0.012276038 -0.0272944 0.005789434 -0.02074377
000230 4d 1b 70 3a 11 9f 47 bc ea 10 a4 3c 33 92 27 bd
       0.00091593416 -0.0121839205 0.020027597 -0.04091091
000240 6a 4a 90 3c fb f4 e7 3c 06 7a 85 3d 0e 04 32 3d
       0.017613608 0.028315058 0.06517415 0.043460898
000250 ea 89 fb 3b ef 37 62 3d 26 81 45 3d 1d 2a 37 3d
       0.0076763527 0.055229124 0.04821887 0.044717897
000260 0f 32 7f bc ad d2 49 bd 3f 92 aa bc 2e 70 b9 3c
       -0.0155759 -0.04927318 -0.020821689 0.0226365
000270 30 4d 1d bc 97 70 3e bc 87 60 45 bd 98 e4 64 bc
       -0.009600922 -0.011623523 -0.04818776 -0.013970517
000280 01 14 49 3d aa c1 e3 3b 39 ea 4a bd ba 61 0c 3d
       0.049091343 0.006950577 -0.04953978 0.034272887
000290 7a 11 d1 3c 6a 78 bc 3c 09 9a 1e bd 96 71 a2 bc
       0.025521029 0.023006637 -0.038721118 -0.019829553
0002a0 0c bf a2 bc 64 2f 90 3b aa 6e 40 3c 2b 5f f7 bc
       -0.019866489 0.0044001807 0.011745134 -0.030196747
0002b0 cf 9f 84 bc b6 31 11 3d a2 dc aa bc f3 e2 88 3c
       -0.016189484 0.0354478 -0.020857159 0.01670978
0002c0 90 b2 d1 bc ed a8 e4 bb a7 96 61 3d 6f c1 e2 3c
       -0.02559784 -0.0069781453 0.055075314 0.027680127
0002d0 f2 e9 12 bd f5 af f3 bc fe dd 83 3d 0b cb 9c bb
       -0.03586764 -0.029746989 0.06438826 -0.004784947
0002e0 d1 80 c3 bc 36 7e 8a bc ed df cc 3c 42 69 70 bd
       -0.023865135 -0.016905885 0.02500912 -0.05869413
0002f0 7e 88 fb bc 35 f7 77 3c e7 3c a5 3c 45 1f 64 bb
       -0.030704733 0.015134622 0.020170642 -0.0034808677
000300 82 1e 42 bd f9 3c 4d bd 33 df df bc 69 28 dc 3c
       -0.047392376 -0.050106976 -0.02732811 0.026874738
000310 42 89 f5 bc b8 58 6f 3d a4 c0 59 3d 25 95 33 bd
       -0.029972676 0.05843422 0.053162232 -0.043843407
000320 26 ab 4a bc c2 21 11 3d f1 d1 30 3d b9 fe d9 3c
       -0.0123699065 0.035432585 0.043168966 0.026610719
000330 6b b8 1c 3b 60 1d 67 3d 07 92 0e bd d0 d4 fd 3c
       0.0023913633 0.0564245 -0.03480723 0.030985266
000340 50 d3 cd bc b4 20 97 bd 8d e8 00 3d 10 b0 0a 3d
       -0.025125176 -0.073792845 0.031471778 0.033859313
000350 18 52 35 bd 49 02 45 ba 4a d6 94 3c 84 4e 75 3c
       -0.044267744 -0.0007515294 0.018168587 0.014972333
000360 0e 08 f3 3c 52 84 8b bd dc a6 25 bd c4 54 6d bd
       0.029666927 -0.068123475 -0.040442333 -0.057942167
000370 8d bc 62 bc 14 17 e3 3a 1f 2c 55 3d d9 4c 3e bc
       -0.013838899 0.0017325603 0.05204403 -0.011615002
000380 47 b6 eb 3d 98 99 02 3d 05 b2 0f bd ed b7 8e 3c
       0.11509376 0.03188476 -0.035081882 0.017421687
000390 61 f8 0d bd 8e e4 61 3b 02 44 9d 3d 5f ef ab 3d
       -0.0346607 0.0034468505 0.07678987 0.08395266
0003a0 35 c5 91 3c 1a cb 29 3c 11 13 f9 bc 7c d6 0a bd
       0.017794231 0.010363365 -0.0304046 -0.033895954
0003b0 65 8b c4 3b e9 74 3d bd 44 82 fd bc f1 8a 76 3d
       0.0059980624 -0.046254072 -0.030945905 0.0601911
0003c0 a0 70 50 bc 75 31 84 bc 45 75 4b 3d 11 11 45 3c
       -0.012722164 -0.016136864 0.049672384 0.012027995
0003d0 c2 17 59 3d 48 53 0b 3e f3 86 da 3c 91 f3 f6 3c
       0.053001173 0.13605988 0.026675677 0.030145438
0003e0 d9 27 4e bc 97 f9 85 3d 04 bd 49 3c cf b8 e7 3d
       -0.012582743 0.06541746 0.012313131 0.11314546
0003f0 a5 40 64 3d ed 9b 37 3c 71 bf 05 3d 09 0d 1c bd
       0.055725712 0.011206609 0.032653276 -0.03809837

bias f4 [64]
000000 dd 61 f2 3b 1f 5c b7 3d f5 b8 a3 3d 8a 24 c5 bd
       0.00739692 0.089531176 0.07994262 -0.0962611
000010 bf 1e f5 3c 03 75 aa 3c ae 71 4c bd dd f2 15 bd
       0.029921887 0.020807749 -0.0499131 -0.036608566
000020 8c ee 36 be b9 22 a5 3e 8d 92 ae 3d ef 4b 64 3e
       -0.17864436 0.32253054 0.08524046 0.22294591
000030 88 51 63 be 44 6a 99 3d c1 4c 10 3d ef 95 a3 3e
       -0.2219907 0.07490972 0.03522945 0.31950328
000040 1a 41 07 3e 20 01 96 3e 8c d4 74 3b f4 03 ed 3b
       0.13208428 0.29297733 0.0037358133 0.0072331373
000050 e4 2e 17 bd 88 a5 4c bd d5 4d a6 bd 24 17 ec 3d
       -0.036909953 -0.04996255 -0.08120314 0.11527851
000060 86 91 06 be 66 b8 0a 3e 40 70 8e 3d 6b cd cb bc
       -0.1314145 0.13546905 0.06955004 -0.024878224
000070 e6 06 32 3e 93 c9 fb bd d7 ce 0e 3e ae 79 2a 3e
       0.17385444 -0.122943066 0.1394609 0.1664798
000080 0e 8a 6f 3d c2 67 5a bd 99 9f 3d bc e7 22 92 be
       0.05848127 -0.053321607 -0.011573696 -0.28542253
000090 4d b1 47 3d 6f 00 a4 bb bf 9c ee 3d ea 85 06 3e
       0.04875307 -0.0050049345 0.11650991 0.13137022
0000a0 35 8a 86 3d 3a da d8 bd 35 da b2 bc 39 0c d0 3c
       0.0656933 -0.105884984 -0.021832565 0.025396453
0000b0 49 bb 47 3c 50 eb af 3d 54 d7 33 bd cf 17 61 bd
       0.012190648 0.08589804 -0.043906525 -0.054954346
0000c0 49 7c 27 be 32 fb 64 3e 0e 0c ed bc 59 11 45 3d
       -0.16356005 0.22361448 -0.028936412 0.048112247
0000d0 3c 88 03 3d 11 15 5a 3d 0e f4 ce 3d 57 62 1b 3c
       0.032112345 0.053242747 0.101051435 0.009483895
0000e0 ea 98 f7 bc 81 58 57 3e 67 fd 25 bb ff 4c ee bc
       -0.030224282 0.21029855 -0.0025328042 -0.029089449
0000f0 b3 50 98 bd 31 06 43 3d 71 4c 23 be 17 52 84 3d
       -0.07437267 0.047613326 -0.15947129 0.0646097

weight f4 [128, 64, 3, 3]
000000 fc 65 a4 bd ea 6e 09 bc ea 54 bf bc b8 7f 32 bd
       -0.080272645 -0.00838826 -0.02335592 -0.043578833
000010 9c 70 b0 bc 1a fa 25 bd e7 93 9c bd eb 50 f2 3b
       -0.021538071 -0.04052172 -0.07645398 0.0073949
000020 dc 1c 8e 3b a9 66 38 bd ce 0d a6 bc 3e 28 02 3d
       0.0043369364 -0.04501978 -0.020270254 0.03177666
000030 e5 51 e2 bc 10 23 11 bd a6 2d 0e bd da 18 21 bd
       -0.027626941 -0.03543383 -0.034711502 -0.03933034
000040 1e 2e 79 3c 6d 3e 60 3c 63 26 3d bd 33 02 07 bd
       0.015208749 0.0136867585 -0.046179187 -0.03296108
000050 80 60 2f 3d 98 17 21 bc d4 12 c8 bc 15 96 06 3c
       0.04281664 -0.009832285 -0.02442304 0.008214493
000060 94 93 0d 3c 13 f1 9f 3c 9b 60 30 bd 58 e3 2d 3d
       0.008641142 0.019524133 -0.04306088 0.04245314
000070 6b 31 b1 3c 9a 5e 9d 3c e4 f5 13 3d d2 01 58 3c
       0.02163001 0.019210149 0.03612317 0.013184028
000080 a1 c1 c0 bc f6 e9 0d bd b9 72 73 3d 3f 4d 42 3d
       -0.02352983 -0.03464695 0.05943558 0.04743695
000090 ac ee 1b bb ab 76 dd bb 44 cf c2 bc 93 99 12 bd
       -0.0023793383 -0.006758531 -0.023780473 -0.03579099
0000a0 11 f2 01 3d fb c8 31 3d dd 86 83 3b 88 db e5 bc
       0.031724993 0.04340456 0.0040138797 -0.028058782
0000b0 58 2e 41 3d 0c a8 11 3c 68 b1 45 3d 84 9a fc bc
       0.047163337 0.008890163 0.04826489 -0.030835398
0000c0 fe b3 eb bb 61 d5 37 3d d8 68 16 bc 21 b9 ba 3c
       -0.0071930876 0.04488123 -0.00918027 0.022793354
0000d0 c7 80 66 3d e2 88 c3 bc 93 b0 0f 3c 30 12 33 bc
       0.056275155 -0.023868982 0.008770126 -0.010929629
0000e0 76 4a 61 bc 3c 06 d7 bc 02 49 25 bd 4c d1 14 bc
       -0.013750663 -0.02624809 -0.04035283 -0.009083103
0000f0 16 a8 14 3d 5a 29 2f 3c ad 6f 84 3d ad 9e 3c 3d
       0.03629311 0.010691011 0.06466613 0.046049763
000100 20 f2 fc 3c 74 b4 c7 3c 03 f9 18 bb ae 19 1e 3d
       0.030877173 0.024378039 -0.0023341782 0.03859871
000110 7f fc 17 bc fe 82 61 3c c1 91 66 3d 5b 85 3c bd
       -0.009276508 0.013764141 0.056291346 -0.046025615
000120 b3 2e 67 bd 6e 18 e0 3c 7b e9 55 3c 7d 7a 93 bd
       -0.05644102 0.027355399 0.013056154 -0.07201097
000130 e1 fa 92 bd 41 8e 0f 3d d9 2c a1 bd 71 76 a2 bb
       -0.071767576 0.035047773 -0.07869882 -0.004957967
000140 ca 6b 85 3d ea c5 a0 bd e0 7b 62 3b 9b 47 2c 3c
       0.065147 -0.07850249 0.0034558699 0.010515119
000150 27 ae 24 bd 23 a8 52 3d 6f a8 d2 3b 1e 2a 01 bd
       -0.040205147 0.05142988 0.0064287703 -0.031534307
000160 27 db 30 bd e6 eb 4b bd 60 54 23 bb df c5 b5 bc
       -0.04317775 -0.049785517 -0.0024922118 -0.022189079
000170 61 d0 f7 bc d1 6d fd bc de 92 36 bd 69 e5 40 bd
       -0.03025073 -0.030936154 -0.044573657 -0.047093783
000180 5d 28 e6 bd 71 04 31 bd 26 ed 23 bd 52 ee 4f bd
       -0.112381674 -0.043217126 -0.040021084 -0.05076439
000190 5c 25 e1 bc 1d 4b 12 bc dc 85 81 bd c8 be 00 3d
       -0.027483635 -0.008929041 -0.0632436 0.031431943
0001a0 58 6a 2e bd 3d 55 98 bd 41 ae ef 3b 32 5e d1 bb
       -0.042581886 -0.07438133 0.007314474 -0.006389403
0001b0 50 96 e8 3c eb b4 e2 3b 04 67 09 bd ad be 39 bc
       0.028391987 0.0069185398 -0.03354551 -0.011336965
0001c0 e4 bd 9b 3c 4c 38 91 3c 19 4b ea bc 15 81 d1 3b
       0.019011445 0.01772704 -0.028600262 0.0063935616
0001d0 29 ff 8e 3c 54 11 8e 3d 3b 80 83 3c 7e 0e 21 bd
       0.017455654 0.06936899 0.016052356 -0.03932046
0001e0 96 d4 5b 3d 03 7c af 3c 1e 49 3c bc a6 ba a0 3d
       0.053669535 0.021421438 -0.011492042 0.078481
0001f0 a7 5d 26 3d f3 f0 95 3d be f0 da bb 41 7f 35 3c
       0.040616658 0.07321348 -0.0066815307 0.011077703
000200 7b 32 35 3d 4a 32 03 3d ff 38 99 3c 4b 96 31 3c
       0.044237595 0.03203038 0.018703936 0.010839055
000210 1b 6d 81 3c 66 0a 1d ba a0 41 ce 3c 6c dd dd 3c
       0.015799096 -0.0005990624 0.025177777 0.027083121
000220 07 2e 18 bd 6b 98 b8 3b b3 16 68 bd b3 c6 59 bd
       -0.03715327 0.005633404 -0.056662273 -0.05316801
000230 31 44 31 bd 4b bd 39 bd 93 a5 99 bc d3 80 2d 3c
       -0.043277923 -0.04534654 -0.01875571 0.010589796
000240 e8 c7 89 bd 62 e6 65 bc 53 fb 95 3c 2c be 20 3d
       -0.06727582 -0.014031978 0.018308317 0.039243862
000250 0f b7 14 3b af e1 25 3d 21 74 58 bd 8a 09 bc bc
       0.002269212 0.04049843 -0.052845124 -0.022953767
000260 90 8d 01 3d 6d 7a 6b bd e4 66 64 bc e0 c6 7c 3b
       0.031629145 -0.0574898 -0.013940547 0.0038570687
000270 ce 52 a5 3c 00 dc 1f 3c ab eb a6 3c 13 37 16 bd
       0.020181086 0.009757042 0.020376047 -0.036673617
000280 2e 14 fc bb 74 fb 68 3c e4 10 2c 3b 47 a9 d8 3c
       -0.0076928353 0.014220107 0.0026255185 0.026447905
000290 63 81 c1 3c 1c 01 4a bd 86 cc d4 ba b3 74 05 3c
       0.023621267 -0.049317464 -0.0016235269 0.008145499
0002a0 79 ff 0a bd e5 a6 90 bc 19 dd d9 bb 8f 23 3c bd
       -0.033935044 -0.017657707 -0.0066486713 -0.04593235
0002b0 db ac eb bc cb 9a 89 bd 84 fb c9 bc db a9 40 3b
       -0.028768947 -0.067189775 -0.024656065 0.0029398117
0002c0 aa 06 9c bc f4 ec 9e bd 36 a0 10 bc 4f 42 25 bd
       -0.019046146 -0.07760039 -0.00882726 -0.04034644
0002d0 eb 97 fd bb 35 57 20 bd 83 59 51 3c 11 fd b5 bc
       -0.0077390573 -0.039145667 0.012777689 -0.022215398
0002e0 7e 94 08 bd a4 45 5c 3c 2c 03 60 bb 41 0a 32 bd
       -0.03334474 0.013444338 -0.0034181578 -0.04346681
0002f0 2b e9 64 bb 2c 5f c0 3c 85 2e 5b 3c dd 97 29 3d
       -0.0034929018 0.023482881 0.01337779 0.041404594
000300 2a 85 6f bc ca ea 93 bc 93 c8 5a bc 35 30 02 bd
       -0.014619151 -0.018056292 -0.013353485 -0.031784255
000310 21 fc 7a bc c5 02 33 3d 3b 0a 4e 3d 47 a6 87 3c
       -0.015318901 0.043703813 0.050302725 0.01655878
000320 79 73 d2 3d 2b c8 81 bc 6e 1f 97 3b e2 0b 6f 3d
       0.10275931 -0.015842518 0.004611901 0.05836094
000330 9f 50 04 3c 42 3e da bc 7f 3e 14 3d ab c7 85 bd
       0.008075862 -0.026641015 0.036192413 -0.06532224
000340 8d af 6b 3c 50 2d 36 3c dc 16 06 bd 6a 1c 2c bd
       0.014385116 0.011119202 -0.032736644 -0.042019285
000350 02 d1 28 bc 6f 6e 15 3d 59 0f 3e 3c 5d d5 82 3c
       -0.010303738 0.03648227 0.011600339 0.01597088
000360 3b b9 8a bc cf 47 24 bc 34 20 be 3d d6 29 1c bd
       -0.016934028 -0.010026886 0.09283486 -0.038125835
000370 d7 f3 4d 3d 10 16 59 3d 5a f7 ef 3c 9f e5 a2 3c
       0.050281372 0.052999556 0.029292751 0.019884882
000380 19 97 07 3d ab 06 0a 3c 15 9e 29 bc a7 e5 7a 3d
       0.033103082 0.008424441 -0.010352631 0.06125417
000390 fb 43 00 bd 42 56 a5 bc 50 10 00 bd ac d4 70 bc
       -0.03131483 -0.020182732 -0.031265557 -0.014699142
0003a0 f8 c4 90 bc d4 95 39 bb 79 2a e0 bb bc fb 90 bc
       -0.017672047 -0.0028318064 -0.0068410006 -0.017698161
0003b0 f6 45 2d bd 77 69 14 bd c0 9d 61 bc 76 30 bf 3b
       -0.042303048 -0.03623339 -0.013770521 0.0058346344
0003c0 c1 c9 50 bb c0 1c ef 3c 43 8c 6c 3c b9 e3 a0 bc
       -0.0031858536 0.029188514 0.014437738 -0.019639837
0003d0 f3 bf 06 3d 79 f8 c6 39 d4 80 fc bc db 3c 5f 3c
       0.0328979 0.0003795063 -0.030823149 0.013625349
0003e0 67 8c 49 ba 23 10 47 bc 17 be 8e 3c f3 40 8d bc
       -0.0007688463 -0.012149843 0.017424626 -0.017242884
0003f0 64 ba e3 3c a2 8a 13 bc 01 dc 4a 3b 4b 8b b6 bc
       0.027798839 -0.009005221 0.0030953886 -0.022283217

bias f4 [128]
000000 05 3b 0e bd 5c 53 81 3d d2 68 ae 3b 08 21 e5 3c
       -0.034724254 0.06314728 0.005322554 0.027969852
000010 c1 71 a1 bd 29 11 8b bd 25 0b 87 bd 52 ef 8a bc
       -0.07883025 -0.067903824 -0.065939225 -0.01695982
000020 13 07 36 3d d4 51 b8 3d e0 f8 51 3d 7a cf 8a be
       0.04444034 0.089999825 0.051262736 -0.27111417
000030 1f 8d 21 be 49 b5 ad bd e1 31 8d 3c aa 66 3e bd
       -0.1577649 -0.08481843 0.017235698 -0.046484627
000040 76 0f 86 3d d2 0d 7f bd 88 ad 95 bd 7a e7 36 bd
       0.06545918 -0.06226904 -0.07308489 -0.044654347
000050 43 a3 14 bd da 0f e9 bc fa 7c 69 3d 06 fc ea bd
       -0.03628851 -0.028449941 0.057003953 -0.11473851
000060 a3 fc 97 be cf ab fb 3d 88 43 d2 bd 58 1f 8a bb
       -0.29684934 0.12288629 -0.10266787 -0.0042151622
000070 37 6c f0 3d 8a db a9 be 34 d1 aa bd 0f 50 f3 bd
       0.1173939 -0.33175308 -0.083406836 -0.11880504
000080 82 f9 9d bc 5d f3 e2 bc 54 da 23 be e1 0a 3a bd
       -0.019284014 -0.027703935 -0.16001254 -0.04542053
000090 19 f4 26 3d b3 50 99 be a5 05 12 3e 2b e4 83 3d
       0.040760133 -0.2994438 0.14259966 0.06440004
0000a0 c4 bb 49 3e 95 af 38 3d f8 c1 96 bc b6 54 91 bd
       0.19700533 0.045089323 -0.018403038 -0.070962355
0000b0 e6 23 88 3d db 75 16 3e f2 30 ad bc d1 c3 c9 bd
       0.06647472 0.14693396 -0.021141503 -0.09851802
0000c0 85 60 b8 bd 7e 03 32 be 30 9d 9f 3d 0e 80 6f 3d
       -0.09002785 -0.17384145 0.07793653 0.05847173
0000d0 d9 41 4b bd 72 ac f4 bc ff 73 c1 3c 66 af 85 3d
       -0.049623344 -0.029867385 0.023614882 0.06527595
0000e0 58 09 2a 3e 7c 7e 9b bc 2e 7c 1e 3e 4c b6 e4 bc
       0.16605127 -0.01898121 0.15477058 -0.027918957
0000f0 bb 2d 8a 3e e0 9a 14 bd 4f d5 65 3c e7 e8 12 bd
       0.26988015 -0.036280513 0.0140279075 -0.035866644
000100 62 7c e8 bc c4 4c 95 3d 9d c1 5f 3d 0f 2d 03 bd
       -0.028379623 0.072900325 0.054628003 -0.032025393
000110 ae bb 42 bc d5 d1 b3 bc 82 0a 71 3c a6 e6 81 bd
       -0.011885567 -0.021950642 0.014711978 -0.06342821
000120 6f 02 80 bd 56 5b 63 3d f7 0b ba 3c c8 f0 60 bd
       -0.06250464 0.055507027 0.022710783 -0.054917127
000130 11 df 59 3d a7 66 22 3e d1 35 cb 3c 03 4d 49 3d
       0.05319125 0.15859471 0.024805935 0.04914571
000140 f0 e4 05 3d d2 02 d8 3c 2c ee 27 3d d9 0f 57 bd
       0.032689035 0.026368532 0.040998623 -0.052505348
000150 d0 21 c3 bd 2e ae 33 3d 94 54 a3 3d f5 12 39 bc
       -0.095279336 0.043867283 0.07975116 -0.011296024
000160 15 5e 5c bd 1e d4 9c bd fb e4 83 3d cd 16 14 bd
       -0.05380066 -0.07657646 0.06440159 -0.036154557
000170 ee 3b 17 3c ff 5f eb bc bb 9c 86 be 78 c3 04 bb
       0.009230597 -0.028732298 -0.2629145 -0.002025811
000180 08 37 66 3c ed 13 d0 bb 00 8e 82 3d 97 7d 04 be
       0.014051206 -0.0063500316 0.063747406 -0.12938534
000190 cf bd 91 be ad b1 8b 3b ca 66 f9 3c a7 8c ac 3a
       -0.28465125 0.004263124 0.030444521 0.0013164476
0001a0 85 3e 93 be 1a ed 05 3e 6a e1 63 bc 3c e0 57 3e
       -0.28758636 0.13078728 -0.013908723 0.21081632
0001b0 95 8b 98 bd d0 b2 3a 3d 21 2a ff bd b1 59 b9 3d
       -0.07448498 0.045580685 -0.12459207 0.090503104
0001c0 f6 26 b7 bd e2 70 e4 bc fd c0 06 be 1f 67 a5 be
       -0.08942978 -0.027885858 -0.13159557 -0.32305238
0001d0 07 eb e7 3d 06 42 e4 3c 68 f8 15 3d 87 f4 08 3d
       0.11324125 0.027863514 0.03661385 0.033436324
0001e0 29 15 8a 3d a0 c5 e0 3c 75 8b c8 3e be bb 4c 3d
       0.06742317 0.027437985 0.39168897 0.049983732
0001f0 95 ce 61 3c a6 38 d3 bd df 51 29 3d 50 45 b7 bb
       0.013782163 -0.10313539 0.041337844 -0.0055929795

weight f4 [128, 64, 3, 3]
000000 4b a5 a1 3c 7c 41 04 bd ec ed 64 bb e9 f7 c0 3b
       0.019732138 -0.032289013 -0.0034931852 0.005888928
000010 f9 e3 a4 3b 88 40 af 3c 71 14 3f bc 80 c6 7f 3b
       0.0050320593 0.021393076 -0.011662588 0.0039028227
000020 cb ee 76 bc af fe 93 3c 7a 13 a7 bc 94 a1 1d bc
       -0.015071581 0.018065779 -0.02039503 -0.009621043
000030 89 04 e8 3c 64 a9 a1 bc 2d 0f da 3c 46 7a 2b bd
       0.028322475 -0.019734092 0.026618565 -0.041864656
000040 07 19 a6 bb 96 a3 b5 3c ec 64 c8 bc 62 a2 1c bd
       -0.0050689015 0.02217273 -0.024462186 -0.038240798
000050 58 b2 f4 bc c4 db a1 3a 6e 57 dc bc 05 45 5e bc
       -0.029870197 0.001234882 -0.026897158 -0.01356626
000060 cf 95 29 bd 87 22 76 bc 33 bd 03 bd b4 9b 9c bc
       -0.041402634 -0.01502288 -0.032162856 -0.019117214
000070 09 fe 91 bc b5 cf 3c bb 3d 14 1b 3c 75 78 23 bd
       -0.017821329 -0.0028810326 0.009465274 -0.0399098
000080 6d d0 49 bd 20 0e 06 3c 74 1d b5 3c 1a 9b 02 3d
       -0.049271036 0.008182079 0.02210877 0.031886198
000090 fc 5a 7f 3b 1d d4 d6 bb 43 8e 32 3d da e3 45 3d
       0.0038964143 -0.0065560476 0.043592703 0.048313
0000a0 76 f2 38 bc 1b 3f 92 3c 03 4e 8b bb c8 12 ba bc
       -0.011288276 0.017852357 -0.004251243 -0.022714034
0000b0 f4 61 00 bd 5b d9 da 3b e4 5d 06 3d fd 59 e0 bc
       -0.031343415 0.006678743 0.032804385 -0.02738666
0000c0 08 f9 36 bc 7e 81 d4 3b 80 8e 2f bd 13 a0 bf 3c
       -0.011167772 0.0064851632 -0.042860508 0.023391759
0000d0 6a 8e e0 3c bc 3d 86 bc 82 20 48 bc db 8b 3c ba
       0.027411658 -0.01638686 -0.012214782 -0.0007192471
0000e0 9b bc de bc e1 57 c6 3c 46 91 29 3c a5 89 46 3d
       -0.027189543 0.024211826 0.010349577 0.04847111
0000f0 66 9e aa bd de ab 9f 3b 9f 53 3c bc 72 c8 ff bc
       -0.08330993 0.004872783 -0.011494546 -0.03122351
000100 c6 52 32 bc 98 f0 20 bd 40 dd e9 3b 66 d6 cc bc
       -0.010883993 -0.039291948 0.0071369708 -0.025004577
000110 d6 31 2b bc fd 93 e4 3c 2e 18 d1 3c 0d 77 8a 3c
       -0.0104488935 0.027902598 0.025524225 0.016902471
000120 10 8f 61 bc 18 08 11 3d 83 00 18 3d 53 45 f8 3c
       -0.013767019 0.03540811 0.037109863 0.030306494
000130 c5 8c 07 3c b7 f1 1f bd 53 6a e8 3c d0 1d d0 3c
       0.008273308 -0.039048877 0.028371012 0.02540484
000140 d7 ca 2c bc 24 25 2b bd b8 ef a3 3c a6 cd bf b9
       -0.010546408 -0.041783467 0.020011768 -0.0003658358
000150 3e 57 2a bc 1f a0 b0 bc 9b 4b fe 3a e6 9c 8d bc
       -0.010396777 -0.021560727 0.0019401194 -0.017286729
000160 41 c0 21 3d 97 55 8a 3c 18 c9 3a 3d 3f c3 2a 3d
       0.03948999 0.016886516 0.045601934 0.041690107
000170 9d da 70 bc 79 71 1c bd c3 ea a4 3c 20 a3 d7 bc
       -0.014700559 -0.038194153 0.020131474 -0.026322901
000180 a7 5f 37 3d 71 cb c0 3d bf a3 cc 3d 82 e3 fd bc
       0.044768956 0.09413803 0.099921696 -0.030992273
000190 55 39 cc bc 2d 5f b1 ba 84 b6 ef bc bc 3a d8 bc
       -0.024929682 -0.0013532393 -0.029261835 -0.026395194
0001a0 aa ed 30 bc db 8c 48 bd 3e 8b 7a bd 1c f7 71 3c
       -0.010798851 -0.048962455 -0.061167948 0.014768388
0001b0 3a 5d ab bc 8c 35 07 bd c9 e3 a0 3c ae 95 32 bd
       -0.020918477 -0.03301005 0.019639866 -0.043599777
0001c0 c8 df c7 3c d3 22 35 bd dd ff a3 3c 5d 20 da bc
       0.0243987 -0.044222664 0.020019466 -0.02662676
0001d0 b5 4e a9 bc 64 6b 0f 3d 63 fc 48 3d 37 66 00 3d
       -0.020667413 0.035014525 0.04906882 0.03134748
0001e0 b7 c2 b5 3b 21 a0 32 3d eb 91 72 3c 60 4e d9 3c
       0.0055468935 0.043609742 0.014805297 0.02652663
0001f0 f3 2d 26 3a e7 2c 1f 3d c5 44 88 3c 2d 62 29 bd
       0.00063392444 0.03886118 0.016634354 -0.041353393
000200 e7 eb 06 b9 9b ec c2 3b 79 5c b9 3c 97 06 8a bc
       -0.00012867116 0.0059486157 0.022627102 -0.016848845
000210 a9 f8 9d 3d cf e5 8d 3d 85 ef d4 3d a0 ae 09 bc
       0.07713444 0.06928598 0.10397247 -0.00840345
000220 54 6d 63 3c c2 bb af 3b d4 5d 10 3c b6 e8 1a bb
       0.013881046 0.0053629586 0.008811433 -0.0023637242
000230 76 e0 5c bc ff 24 48 bd 7b 53 ff bc 4f 9a 36 3d
       -0.01348125 -0.048863407 -0.031167736 0.044580754
000240 03 50 03 3d a8 54 8c 3b b7 19 1e bd 4a da 1e 3d
       0.032058727 0.0042825527 -0.038598742 0.038782395
000250 b5 d5 0f bc c4 89 6f 3c 16 3c 44 3d 74 97 d8 bc
       -0.008778979 0.014620248 0.047908865 -0.026439406
000260 f0 69 97 bc 10 1f e2 bc 4c aa d6 bc ea d9 f9 3c
       -0.018483132 -0.027602702 -0.02620425 0.030499417
000270 c4 38 b7 3b 30 20 58 bc 61 d5 1b bd f9 95 b1 3c
       0.005591484 -0.013191268 -0.03804529 0.021677958
000280 bd 05 0d 3c 80 a2 78 bc 21 ea 04 bd be 47 c7 bc
       0.008607325 -0.015175462 -0.032449845 -0.024326202
000290 1b 90 d0 bd ed b2 2c ba 63 bf 5c bd 38 f9 96 bd
       -0.10183736 -0.00065879413 -0.053893458 -0.073717535
0002a0 ed 33 68 bd 31 80 67 bd 6b cb ac bd 45 70 37 3c
       -0.056690145 -0.056518737 -0.084372364 0.011196201
0002b0 f8 16 87 bb 44 0e ee 3b 90 cd 61 3d f5 83 7e 3d
       -0.004122611 0.007264884 0.05512768 0.062137563
0002c0 40 79 03 3d 5e 6b df bc 30 5c 8b 3c f0 d5 2a 3d
       0.032098055 -0.027272876 0.017011732 0.041707933
0002d0 e8 48 64 bc a9 0e 00 3d c4 0d 7d 3c a1 f7 d2 bc
       -0.013933398 0.03126398 0.0154451765 -0.025752844
0002e0 84 6d 4d 3d 6d 29 fc 3a 5d c9 7e bd 9e 0d 58 3d
       0.05015327 0.001923842 -0.062203754 0.05274736
0002f0 17 1b 92 bb b7 a9 d3 b9 a9 47 7c bb f6 77 b7 bc
       -0.004458796 -0.00040371504 -0.0038494861 -0.022396069
000300 8b d1 df ba 2a e7 1f bd 26 59 d7 bc ff a4 8d 3c
       -0.0017075998 -0.039038815 -0.026287626 0.01729059
000310 4f ca 97 bc cc c4 8d 3a c5 fd 0a bd d0 b8 13 bc
       -0.018529085 0.0010816096 -0.03393342 -0.009016231
000320 25 4b f7 3b ab 0e 5c bd a7 fb 23 bd 47 86 ed bc
       0.0075467997 -0.053724926 -0.040034916 -0.028994692
000330 27 32 1e 3d e4 d6 91 3c 5e da 46 3d 76 1a 05 bd
       0.038622048 0.017802663 0.048548095 -0.03249594
000340 2d 18 48 3d 1c c1 b0 3d ad db fd 3a 51 a9 1e bc
       0.04885118 0.08630583 0.0019367837 -0.009683923
000350 28 96 91 3c 6a cc b1 3d a3 30 67 3c 30 e3 3b 3d
       0.017771795 0.08681567 0.014110717 0.04587096
000360 2f 65 89 3c 3b f7 24 3d 7c 49 8f 3d 1b 2d 86 3d
       0.01677188 0.04027484 0.06996438 0.06551572
000370 67 2b 19 3d e5 af 57 3d e4 df ac 3c 99 88 38 3d
       0.037394907 0.05265798 0.021102853 0.045052145
000380 ff 11 9e 3c 47 38 db bd dd be 80 bc 99 ec a0 3d
       0.01929569 -0.107040934 -0.01571601 0.078576274
000390 8f 8e d8 3b 59 30 14 bd 62 68 02 3e 9c 1c 70 bd
       0.006608791 -0.03617892 0.12735131 -0.058621034
0003a0 09 32 57 3d 39 5f 39 3d 09 0d 59 b9 13 b8 95 bd
       0.05253795 0.045256827 -0.00020699589 -0.073105
0003b0 3f 71 35 bc 24 40 a9 3b 2c eb 8d 3c 5f 2d b8 bc
       -0.011074363 0.005165117 0.017324053 -0.022482572
0003c0 cf 7c 85 bd b7 28 6c bd ee 1d 69 bd 48 5e 6d bc
       -0.06517946 -0.057656016 -0.05691331 -0.01448781
0003d0 6c 6a 94 bd 68 83 ee bd b8 60 c2 3c 6a be 5b bc
       -0.07246861 -0.116461575 0.02372776 -0.0134120975
0003e0 ee 39 8b bd 55 e7 d0 3c 02 d7 81 bc 2a 5d 85 bd
       -0.067981586 0.025500933 -0.015849594 -0.0651191
0003f0 c7 9b 4b bc c9 bb 9e bc 3a 12 0a 3d 7a b6 40 bd
       -0.012427277 -0.019376652 0.03370879 -0.047049023

bias f4 [64]
000000 c7 88 2c 3d 13 b0 5f 3d 20 b2 8a 3e 60 68 2f bb
       0.04212263 0.054611277 0.27089024 -0.0026765093
000010 0a d7 70 bd 5d 2a ce 3c 91 0b 94 3a 65 c6 34 3d
       -0.058798827 0.025166685 0.0011294951 0.044134516
000020 de a3 10 3d 85 da d8 3c 15 b3 5a 3c 2a 9c 90 3d
       0.035312526 0.026471386 0.013348361 0.07061036
000030 c6 c7 71 3d 81 d1 f7 bc 68 22 26 be 15 6f 5a 3e
       0.05902841 -0.030251266 -0.16224062 0.21331437
000040 ed 29 a0 3d 74 e7 92 3d 92 fe 95 3c be a4 d4 3c
       0.07820497 0.071730524 0.018309865 0.025957461
000050 4c ec b9 3c 58 43 17 3e 8b eb 81 3d d2 c8 3b bd
       0.022695683 0.14771783 0.063437544 -0.045845814
000060 42 81 58 bd a3 af e7 bc 6f 0a 40 3e ca b7 8e 3d
       -0.052857645 -0.028281992 0.1875398 0.06968649
000070 de 23 d1 bc 91 41 74 3e b9 a7 82 3b 68 ae b5 3c
       -0.025529798 0.23853137 0.0039872793 0.02217789
000080 e0 e9 00 bc 3d 0e 92 3c 89 a3 0b 3d 96 5c 4d 3d
       -0.00786826 0.017829055 0.034091506 0.050137125
000090 8e 21 c1 3c 51 2d 94 3c be 00 17 3c eb c3 93 3c
       0.02357557 0.018088015 0.009216486 0.018037757
0000a0 17 7e ad 3d 90 4f 2c 3e 2f ea 79 3d cb 27 43 3d
       0.08471315 0.16827226 0.06101435 0.04764537
0000b0 3f ae 63 bd 38 17 2f 3d d6 e0 a0 bc 92 96 f4 3d
       -0.055586096 0.042746753 -0.01963846 0.119427815
0000c0 ca 47 a1 3e 54 5a 6e 3d 85 d4 45 3b 4b 19 17 3b
       0.31500083 0.058191612 0.0030186486 0.0023055847
0000d0 96 2e 41 3e 73 c2 ac 3d 88 18 a3 bc ee 2a b3 3c
       0.18865427 0.08435526 -0.019909158 0.021871056
0000e0 d6 fe 0d 3e d4 25 d1 3d 3d f7 02 bc 41 cc 49 3c
       0.13866743 0.10212293 -0.0079935165 0.012316764
0000f0 e5 25 86 bb 44 49 71 bd db fa 3f bd 07 af df bc
       -0.004093873 -0.058907762 -0.046870094 -0.02730514

weight f4 [64, 32, 3, 3]
000000 cf 31 d2 bb 57 52 27 3d 62 2a cd 3c d3 4c b2 bc
       -0.006414629 0.04085001 0.025044624 -0.021765148
000010 4a 59 53 3d 0e 80 57 bd d4 91 42 3d a1 27 37 bd
       0.051598825 -0.052612357 0.047502354 -0.044715527
000020 6c 76 2e bd ee 84 53 ba f1 83 af 3b a5 ee e6 3c
       -0.042593405 -0.00080688193 0.005356305 0.028189966
000030 06 dc 15 3d 64 a6 38 3c 5f 4a 0f bd 73 0a e9 bc
       0.036586784 0.011270139 -0.034983035 -0.028447365
000040 9f 94 8b 3c 35 3b 27 3b 15 5d 78 bd 9b 60 33 ba
       0.017038641 0.0025517468 -0.060635645 -0.00068427034
000050 1e f8 44 3d 9d 8a 09 3d 8d 0a 72 bd 31 01 e1 3c
       0.048088185 0.033579458 -0.059092093 0.027466388
000060 a5 63 4e 3d 40 4b 22 bd a3 33 0a bc 58 5d 17 bc
       0.050387997 -0.039622545 -0.008435163 -0.0092385635
000070 e8 b5 0a 3d 79 42 f3 bb c0 6d d0 3c f1 52 50 3d
       0.033864886 -0.0074236956 0.025442958 0.05086035
000080 df f7 1c bd fd 5a 4f bd ec b0 9a 3c 4c dd 00 3c
       -0.038322326 -0.050623883 0.018883191 0.007865261
000090 8a b3 ff 39 44 2a 79 bd e8 cd 13 bd 2c aa 4c bd
       0.00048771157 -0.060831323 -0.03608504 -0.049966976
0000a0 b4 55 03 bd 90 04 e2 3c a8 0a a8 bc 78 18 17 3d
       -0.032064155 0.027590066 -0.020512894 0.03688857
0000b0 67 18 f5 bb 8f eb 4e 3c 24 2a 80 3c cc 87 1a 3d
       -0.0074797156 0.012629404 0.015645094 0.037727162
0000c0 6e 29 7e bd 8c 56 dd bc b9 c7 48 3d 2f 04 97 3c
       -0.06205123 -0.027018808 0.049018595 0.018434612
0000d0 a7 a4 ba 3b 8e 07 50 3c 6c c5 ab bc 69 8c ff bc
       0.0056958976 0.012697114 -0.020968162 -0.031194882
0000e0 22 0c 17 3d 6e 36 30 bc 35 79 2a bd 77 b5 f2 bb
       0.036876805 -0.010755165 -0.0416195 -0.007406886
0000f0 02 f8 67 bd 32 3a 05 3d 6a 2d 9b bc ba 75 25 3b
       -0.056633003 0.032526202 -0.018942554 0.0025247172
000100 aa 6b 5c bd 9e 30 13 3d 70 b1 d4 bb 84 25 43 bd
       -0.053813614 0.035935037 -0.0064908788 -0.0476432
000110 ae 00 1d 3d d8 ee 1e bc b6 e4 de bd fa 56 17 bc
       0.038330726 -0.0097004995 -0.10883467 -0.009237045
000120 a2 f8 7d ba 5f 87 e0 bc b0 91 2b bd 4e d2 02 3d
       -0.0009688233 -0.0274083 -0.041886985 0.031938843
000130 a3 09 0f 3d ce 2a 2f bb 0d b0 59 bd d5 11 6b bd
       0.0349213 -0.0026728394 -0.05314641 -0.057390053
000140 9f 71 29 bd 8d 1b ad bc 89 f8 41 bd 45 0e cf 3b
       -0.041368123 -0.021131301 -0.047356162 0.0063188397
000150 8a e1 1d 3d 51 40 23 3d 91 b8 3a 3d 6c 78 5d bd
       0.03854517 0.03985626 0.045586172 -0.05406992
000160 d7 c1 b2 bc 36 a9 41 bc 52 3f 12 bd 79 f7 d5 3b
       -0.021820946 -0.011820128 -0.03570492 0.006529745
000170 33 54 8a bd 3f 85 26 3d 6b e5 e4 3c 26 c3 92 3c
       -0.06754341 0.040654417 0.027941426 0.01791532
000180 fe ac 67 bd a3 75 4b bc ed 2b 08 bb a1 fc b5 3b
       -0.056561463 -0.0124181835 -0.0020778135 0.0055537974
000190 cd 42 53 bc 1b 96 19 3d 19 09 5a bc 19 f0 14 bd
       -0.0128943445 0.037496667 -0.013307833 -0.036361787
0001a0 4d 54 a9 3c b7 51 0a 3d ea 3a ec 3b 40 03 8a bd
       0.02067008 0.033769336 0.0072091715 -0.06738901
0001b0 c6 bc 61 3d 8a 4b ee bb 41 04 6f bd 24 af c5 3c
       0.05511167 -0.0072721886 -0.058353666 0.024131365
0001c0 7f b1 0c bc 3b 7f 49 bd 90 fc a5 3c d3 89 4a 3c
       -0.00858724 -0.049193602 0.020262033 0.012361961
0001d0 6a 49 48 bc 50 f0 ad bd c6 fd 13 bd 2e 5c b6 bd
       -0.0122245345 -0.084931016 -0.03613069 -0.08904301
0001e0 69 c7 02 bd 4c cf 54 3d 3d 16 1d 3d 6b 00 0b 3c
       -0.031928454 0.051955506 0.038351286 0.008483986
0001f0 4e d9 68 3c da 10 df 3c 10 50 5d 3d 61 ee 93 3a
       0.014211966 0.027229715 0.05403143 0.0011286252
000200 33 c2 91 bc 90 0a f6 bc 63 b8 56 bc 74 72 4c bd
       -0.017792797 -0.030034333 -0.013105485 -0.04991384
000210 e0 b7 d8 3c 62 19 af bc 23 6f 22 bc 17 d4 dd 3c
       0.026454866 -0.021374408 -0.009914192 0.027078671
000220 6e 11 30 bd 03 0e c1 bb 71 27 9a bc 12 9c 2b bd
       -0.042985372 -0.005891563 -0.018817635 -0.041896887
000230 5d 0c e7 bc de 7b 07 bd 70 46 3c 3d cd b5 67 3d
       -0.028204137 -0.033077113 0.045965612 0.056569863
000240 f6 2f a6 ba 7e 43 7f 3c e1 8a 14 bc ea e0 85 bb
       -0.0012679088 0.015580056 -0.009066314 -0.0040856497
000250 56 0d 70 3a f8 c6 09 3d 0f 60 11 3d 31 50 41 3d
       0.00091572606 0.033637017 0.035492 0.047195617
000260 6a 22 ea ba 6f c9 ad bc ae 63 0f 3d 25 94 50 bc
       -0.0017863039 -0.021214215 0.03500717 -0.012730633
000270 fe 11 81 3d 27 91 33 3d fe 91 4c bc e3 d9 09 3d
       0.0630226 0.0438396 -0.012485979 0.03365506
000280 7d d9 8a bc de a8 09 bd eb ef 13 3d 7a d3 43 bd
       -0.01694941 -0.03360831 0.036117475 -0.0478091
000290 f1 2e ad bc 1e f0 62 3d 6b ff eb bc ca ff 23 bb
       -0.021140547 0.055404775 -0.028808316 -0.0025024288
0002a0 91 39 24 bb 99 30 60 3d e9 aa f4 bc 58 81 e5 bd
       -0.0025058726 0.054733846 -0.029866653 -0.11206311
0002b0 05 74 96 bd 82 29 69 bd 63 d3 24 3d f1 40 84 3d
       -0.07346348 -0.05692435 0.040240657 0.06457699
0002c0 f4 16 bd bc f0 ba b8 3c 2d a8 bb 3d 14 29 00 3d
       -0.023082234 0.022550076 0.09162936 0.031289175
0002d0 16 9e 82 bc 62 24 cc bc 05 62 bc 3c 2b d4 3d bc
       -0.015944522 -0.024919692 0.022995958 -0.011586229
0002e0 c5 4e 0c 3d bc a4 48 3d 7d 42 d3 3c 44 53 33 bd
       0.034254808 0.048985228 0.02578854 -0.04378058
0002f0 ed 3b 22 3d 74 08 80 bc ae 4c 04 3c 3c e3 0e 3d
       0.03960793 -0.01562903 0.0080749225 0.034884676
000300 52 63 30 3b 86 3a 00 bd e9 6e ed b9 ae 11 c1 3c
       0.0026914668 -0.031305812 -0.00045286797 0.023568
000310 60 8d 67 3d bb 4d 81 bd 24 a7 3c 3d a8 c2 02 bd
       0.05653131 -0.06313654 0.046057835 -0.03192392
000320 3b 35 4d 3d 0f 4c 39 bd d5 19 fe 3c 81 b5 31 bc
       0.050099593 -0.04523855 0.031018177 -0.010846497
000330 d8 62 51 3d 09 51 f0 bb 6d 75 cd bc 82 db f1 3b
       0.051119655 -0.007333879 -0.025080407 0.0073809037
000340 26 a5 0e bd 1e 77 25 bd 71 6d ba bb dd 83 69 3b
       -0.034825467 -0.040396802 -0.005689316 0.0035631575
000350 e8 5e 3d 3d 1a 2b b6 3b 56 6b 36 bd 14 f3 85 bc
       0.046233088 0.0055593373 -0.044535957 -0.01635126
000360 bb a2 09 bc 15 16 22 ba 5d 95 41 bd 5d 74 41 3d
       -0.008400614 -0.00061831 -0.047261585 0.047230113
000370 1a 00 84 3c 06 4a 6c bd 2d 8b 32 bd 16 ad b7 3c
       0.01611333 -0.05768778 -0.04358976 0.022421401
000380 8d a8 96 bc 6f c0 26 bb 67 d9 91 3c 43 ff f4 3c
       -0.018390918 -0.002544429 0.01780386 0.029906875
000390 50 56 13 bd ce f4 64 3d fd 1b dc bc a7 7b 4b 3b
       -0.035970986 0.055897526 -0.026868815 0.0031049044
0003a0 79 ab a3 3d 6c 7c 6a 39 2a 31 bb bc f3 67 5c bd
       0.0799169 0.0002236233 -0.022850592 -0.05381007
0003b0 42 e8 93 ba 14 0b 58 bc 11 75 68 bc 76 3b 32 bd
       -0.0011284428 -0.013186235 -0.014188067 -0.043513738
0003c0 e9 c3 4a bc b7 2b 29 3d 9f 23 87 bc b1 5c 74 3d
       -0.01237581 0.041301455 -0.016496478 0.05965871
0003d0 c2 c9 12 bb 01 2e 1e bd a6 c0 bb 3c 50 5c 26 bd
       -0.002239809 -0.03861809 0.02291901 -0.04061538
0003e0 22 7c 26 3d 05 f7 4b 3c 2e f3 ec bc 0f 41 11 3d
       0.040645726 0.012449031 -0.02892455 0.035462435
0003f0 74 e0 26 bd 8e 3f 26 bd 88 98 51 bd ed 83 3b bd
       -0.0407414 -0.040587954 -0.051170856 -0.04578011

bias f4 [32]
000000 16 f4 b1 bd 08 e1 9b 3d f6 93 46 3d 87 41 9a bd
       -0.08689134 0.07611281 0.04848095 -0.075320296
000010 00 39 8a 3d b6 58 db 3c 63 17 ad bd 5f 71 31 bd
       0.06749153 0.0267757 -0.08451726 -0.04332101
000020 bc 4f 8a bd 52 4f 31 3d 3e d4 7e ba 04 06 cb 3d
       -0.067534894 0.043288536 -0.00097209576 0.09913257
000030 85 49 9e bd 4e 9b ba 3d 43 a6 3a 3d f1 13 d2 3b
       -0.077288665 0.09111653 0.045568716 0.0064110686
000040 f6 6a 25 bc 2c 4e 12 bd 7c 31 4e bd 58 ed 61 3c
       -0.010096302 -0.03571908 -0.05034016 0.013789497
000050 28 38 3c bd 9a 93 d0 b9 ec 4d 8d bc f6 7f d6 3b
       -0.045951992 -0.00039782823 -0.01724907 0.006546016
000060 40 8d 86 3d 0c 9c b7 bd f2 5d da bb 93 f9 a8 bd
       0.0656991 -0.089653105 -0.006664031 -0.082507275
000070 27 f7 b0 bd 7c 42 9c 3d 96 55 86 bd fd 52 6c bd
       -0.086408906 0.076298684 -0.06559293 -0.05769633
