models/80.pt (torch, 837106 bytes, 17 tensors)

weight f4 [32, 1, 3, 3]
00000000: 31d6 75bd 23c9 a03c bded b23d b3b5 85be
00000010: bb92 3c3e aee9 4dbe 6880 863e 5996 6fbe
00000020: 4dd1 76be c580 e83c 70fc 2b3e 2512 cabd
00000030: 3ad3 0cbe 5d50 0c3e e3a6 cb3d bbcd 883e
00000040: a720 b8bd b1b3 72be c0c5 4ebe 27dc af3d
00000050: fb83 a0be ca7d fe3d 6db4 3c3e 49c5 683e
00000060: f0ec da3d 3c44 00be 29fc 24be f8a1 3bbe
00000070: 2415 a23e b0aa 66bd 71c8 b7bd 1276 ccbd
00000080: d805 823e 2274 743e ce50 1ebd 786e 3e3e
00000090: 6165 a33e b3d5 d4bd 64d7 d2bd d65d 963e
000000a0: 5faa 293e 434e a3bd a68a 953e 6fa4 0b3e
000000b0: 0c4b c43c ab65 9a3e 8111 933e 5608 17be
000000c0: c373 833d 4bc6 ffbd 54d6 3e3e 2a96 0dbe
000000d0: c292 64be 880c 573e 0ebc 08be 123a c73b
000000e0: 13af 8f3e 4718 72be c465 a5bd c0d0 d43d
000000f0: ed42 003e 141f b2be e8ca 453d 63ff c33d
00000100: 783d 013e 38e6 553e 24c7 20be 98ee a53e
00000110: d5db 973d 8c54 bebd 5be3 923d 675d 34be
00000120: 3103 3dbe c048 4abe c628 12be 13c9 473e
00000130: 9286 b7bd 5bf1 70be 58fe 843e 3ffe 85be
00000140: ab38 8b3c 371a 893e fd1b 4c3e a169 3abe
00000150: 69b6 993e 353b 6d3e 7f65 a53e e4fe 00be
00000160: 4fcb 1abc 805a 92be b28f babe 3084 8a3d
00000170: b40b 91bb ba0d f93d fb91 1fbe 6e1b cc3d
00000180: d028 833e 7091 b6be ad8f 473e 1f93 8f3d
00000190: ca0e 3fbd 0792 0f3e 3a14 893e 1ecc 82be
000001a0: 8194 90be b6b9 8cbd 38e0 d8bd 9a22 053e
000001b0: 40ea 6c3d 1c9a 1ebe a070 66be e52a 513e
000001c0: ec7c 59be 1428 293d 340e 1e3e dc22 5fbe
000001d0: bf3b 81be 3aad 973e e5f8 6a3e d515 abbd
000001e0: 5a33 69be 669b 99be d621 62be a439 743e
000001f0: e370 71be 1bb4 55be 0b1a 74be 0cb1 5d3e
00000200: 77c6 88be a6c7 833e a5c4 41be 6644 913e
00000210: 9c14 7abe 3b99 3f3e bb7f 57be 28c5 c3bd
00000220: 416d 753e b200 52bd 646f 723e 0ae9 7cbe
00000230: e0c8 cfbe 205c d8bc daeb 5f3e 5cc1 0abe
00000240: 8960 9abe 2842 353e 78c3 033d 4c74 44bc
00000250: 8383 26be 7d57 9dbe 29f8 913e 0fff 603d
00000260: 16dd 193d bbc6 893e 5747 8dbe 53ec 8abe
00000270: da0a 393d eef9 a73d 9906 003d f6e4 48be
00000280: bb6b 543e d9bd 8b3e a08c c53d f872 9b3e
00000290: 3cdb 77b9 4115 d63d 50c6 5e3e f17e 09be
000002a0: c363 7f3e b6c6 573e d8b1 b0bd f22a f6bd
000002b0: 6c16 16be 8da0 23be 57e6 a63e 4a64 fbbd
000002c0: 6309 303e 0a8a a0be 015a c0bd 4049 fd3c
000002d0: 3798 0dbe 1be0 74be f1f4 40bd 209e 873e
000002e0: 5e55 423e d699 8f3e bd81 66be e3b6 a53d
000002f0: 09d5 b73d 5662 053e 633b 003e 5935 85be
00000300: 4cd7 e9bd 8913 3b3e 49dc c9bd a3a4 a5bd
00000310: 7472 cc3d fe19 87bd 0f10 103d 2bf7 a7be
00000320: 3e85 e9bd 7d81 f63d d2a9 f6bd 9272 893d
00000330: c726 8b3e 4ae1 513e 1fe4 8c3e 2d60 233e
00000340: 6d4a 67bd 4141 18be b7c2 6dbe deec bb3d
00000350: 5741 b2be ad8f 463e 4106 c03d f847 90bd
00000360: 9548 c03d 3696 c6bd 2073 10be 54d9 9abe
00000370: af4e bbbd 29eb bfbd 3062 073d b947 993e
00000380: a909 01be c712 6c3e f01c 043e d9b5 fd3c
00000390: 4eff 85be d1e3 39be 1725 5c3e 8e47 99be
000003a0: 2476 423e 6aa7 41be 06bb 6a3d ce60 313e
000003b0: 8eb5 77be e0a4 6d3e 118c 123e 514c 5bbe
000003c0: afe4 94bb 215b 7cbe b435 0f3d 47e3 533e
000003d0: 28d5 0c3e cd54 81be 3017 5abd c376 88be
000003e0: 2566 4b3e e2aa 9ebd f6a1 9a3d 6c91 5abe
000003f0: 6f3e ecbd 9a46 72be f07a 98be 0526 983e
-0.060018722 0.01962716 0.08736751 -0.26115188 0.18415348 -0.20108673 0.2626984 -0.23397197
-0.2410328 0.028381715 0.16795516 -0.09866742 -0.13752452 0.13702531 0.099439405 0.2671946
-0.08990603 -0.2370136 -0.20192623 0.085869126 -0.31350693 0.12426336 0.18428202 0.22731508
0.106897235 -0.1252603 -0.16111816 -0.18323505 0.31656754 -0.056315124 -0.08973778 -0.099834576
0.25395083 0.23872426 -0.03865128 0.18596828 0.31913283 -0.103923224 -0.10294989 0.29368466
0.16568898 -0.079739116 0.29207343 0.13636945 0.023961566 0.30155692 0.28724292 -0.14749274
0.06418564 -0.12488993 0.18636447 -0.13826814 -0.22321609 0.21000874 -0.13352987 0.0060799206
0.2806326 -0.23642074 -0.08076051 0.103913784 0.1252553 -0.34789336 0.04828921 0.095701955
0.12621105 0.20888603 -0.15700966 0.32408595 0.074149765 -0.0929347 0.07172271 -0.17613755
-0.18458249 -0.19754314 -0.14273366 0.19510297 -0.08961214 -0.2352957 0.259753 -0.26170537
0.016994795 0.26777813 0.19932552 -0.18204357 0.3002198 0.23167117 0.32303998 -0.12597233
-0.009447887 -0.2858467 -0.36437756 0.06763494 -0.004426444 0.12160821 -0.15583031 0.09966169
0.25617075 -0.35657835 0.19488402 0.07010483 -0.046644963 0.14020549 0.26773244 -0.25546354
-0.282383 -0.06871359 -0.10589641 0.1300148 0.057840586 -0.15488476 -0.225039 0.20426519
-0.2123906 0.041297987 0.15435106 -0.21790642 -0.25240895 0.2962435 0.22946508 -0.083537735
-0.22773495 -0.30001372 -0.2208322 0.23850113 -0.23578219 -0.20869486 -0.2383806 0.2164957
-0.26713917 0.25738257 -0.1892267 0.28372496 -0.24421924 0.18710797 -0.21044819 -0.09559089
0.23967458 -0.051270194 0.23675305 -0.24698272 -0.40582943 -0.026411116 0.21867314 -0.13550323
-0.30151775 0.17701018 0.032168835 -0.011990618 -0.16261105 -0.3073081 0.28509644 0.054930743
0.03756436 0.26909432 -0.2759349 -0.27133426 0.045176364 0.08201967 0.031256292 -0.19618592
0.20744221 0.2729328 0.09645963 0.30361152 -0.00023637427 0.104532726 0.21755338 -0.1342733
0.249404 0.21071896 -0.08627671 -0.1201991 -0.14656991 -0.15979214 0.3259761 -0.12274988
0.17191081 -0.31355315 -0.09392167 0.030918717 -0.13827597 -0.23913614 -0.047108594 0.26487827
0.18977877 0.28047055 -0.22510429 0.080915235 0.0897618 0.13025793 0.12522654 -0.26017264
-0.11418018 0.18269171 -0.09856469 -0.080880426 0.09982768 -0.065967545 0.035171565 -0.32805762
-0.11402367 0.12036417 -0.120441094 0.06711306 0.27178022 0.20496097 0.27517793 0.15954657
-0.056467462 -0.14868642 -0.23218809 0.09176038 -0.34815475 0.19390745 0.09376193 -0.07044977
0.09388844 -0.09696619 -0.14106417 -0.30243933 -0.09145867 -0.09371025 0.033052623 0.29937533
-0.12601341 0.23054038 0.12901664 0.0309705 -0.26171345 -0.18153311 0.21498524 -0.29937404
0.1899038 -0.1891152 0.057307266 0.17322084 -0.24190351 0.23207426 0.14311244 -0.21415831
-0.004543863 -0.24644138 0.034963325 0.20692168 0.13753188 -0.2526001 -0.05324477 -0.26653108
0.19863184 -0.07747437 0.07550423 -0.21344537 -0.11535346 -0.23659745 -0.29781294 0.29716507

bias f4 [32]
00000000: e1e0 cd3d cce5 d73d 5335 cd3d 9bcf 96be
00000010: dac8 a53e f1b1 56bd 612e a0bd ac8e 623e
00000020: ec0a b53e 873b a6bc 6b20 80be 5188 983e
00000030: f199 973d d4a2 783e a7af 073e 9830 843e
00000040: 8616 1fbe 8b4f c0bd d07e 2dbd b683 843e
00000050: 35a8 8cbe 4048 96be d107 363d 09c8 d03d
00000060: d294 4a3e 226f 963d 1af5 6e3d c1a1 2bbd
00000070: 2a9b 8bbe 7e3a d2bd fe82 dbbd 001a d53d
0.10052658 0.10541877 0.100199364 -0.29455265 0.323798 -0.052415792 -0.07821346 0.22124738
0.35359895 -0.020292057 -0.25024733 0.297915 0.07402409 0.24280864 0.132506 0.25818324
-0.15535936 -0.093901716 -0.042357266 0.25881737 -0.27472082 -0.29351997 0.044441048 0.10194404
0.19783333 0.07345416 0.058339216 -0.041902307 -0.27266818 -0.10265063 -0.10718344 0.1040535

weight f4 [64, 32, 3, 3]
00000000: 6dea 9e3c c6ce a1bb cb3a c6bd 23d5 babc
00000010: a540 243a fa66 bf3b 42d7 183c f9b4 74bd
00000020: 60a7 3c3c a8a8 3cbc 806f c4bb 14ed 9b3d
00000030: 2260 3a3d 8d00 973b 0631 32bd 5fa0 863d
00000040: 3197 f73c eac6 953c 494f debb 49f8 2d3c
00000050: b6a8 4e3d b327 063d 6c89 b63b a783 87bd
00000060: 303d fdbc 29fc 2d3d 2e2a 663d 9785 4d3c
00000070: b853 aabc 1c0c 1ebd c2a0 ae3c f2fa 4bbd
00000080: 069f bebb 3401 2bbc a10f 623d e620 cb3c
00000090: 74b7 17bb 95ea cc3c 2c32 5cbd c172 6cbd
000000a0: 5e38 4fbd 4b3e 6bbc c256 44bd a469 6dbb
000000b0: 0dd5 0e3d f98b 78bc a208 543c 21c5 b0bc
000000c0: 4998 1b3a 637d 343d 08e4 6b3d e355 293d
000000d0: 146f 503d c4b3 973d f8f0 3b3d eb45 3dbd
000000e0: 313f ffbb 432b 31bd 9ac2 103d 79d9 00bd
000000f0: 6edb 923b 84f9 233c d468 6f3d 287e 5cbd
00000100: 939e 24bd 5586 3fbc b4c8 e4bc eca1 28bd
00000110: 90ec bc3c dd77 ed3c afdf 703c 6a7f 57bd
00000120: 194c b7bc 64d4 133c 42f1 f3bd aa71 0cbc
00000130: 67ee 13bc 1b81 f5bd a273 c4bc fcf9 abbd
00000140: 40b5 00be f75c 363d dfa0 a9bc 077a 3a3c
00000150: b5af 103d 61f2 c9bc 707c d7bc 4665 43bd
00000160: f8d3 d63c 4760 16bd e3ea e9bc 03b3 dc3b
00000170: bed5 8b3c 29fd 643c b7c3 e43c 072b 1abd
00000180: c41b abbb c55d 6a3c a383 043b 6d5f 83bc
00000190: 89e3 e4b7 ad34 8f3d 4a38 43bb 9ce6 2f3d
000001a0: 9065 db3d 11b6 633d 7b9d fc3c 1c02 d83d
000001b0: 9084 5bbd b061 fa3c 3015 f2bc d4ff 4cbd
000001c0: cb27 2cbd ade9 12be 735b bebc bf48 dcbd
000001d0: ae1c 0cbe 4761 76bd 96ae 79ba ba69 b7bd
000001e0: a033 ea3b f02d 2d3d 2fbc 37bd 9f95 fbbb
000001f0: 039f 86bb 024b 08bd 7759 1b3d b089 87bc
00000200: 5cd1 e33d ac5a 1c3d c3b3 2fbd 307c 733d
00000210: 021a be3c 67fd b93d 4b6c 193e 04de f8bc
00000220: 1357 503c 4452 e4bc 1068 d33b 3ee4 aabc
00000230: d995 cd3a 9325 2cbc fa9d aa3c 1d5e 23bd
00000240: e84c 943c f837 ef3c 7c60 843d bce0 353d
00000250: 679c 0b3c 2a56 683d 702c 483d f531 343d
00000260: 430a 72bc 8854 4abd 6603 aabc 9bb8 b83c
00000270: 8390 29bc 6f45 46bc ef2c 47bd 41dc 70bc
00000280: 1682 453d 280e f73b f247 4bbd da21 0c3d
00000290: de1a d03c fe21 bd3c 311d 1ebd 021a a3bc
000002a0: 94de a0bc bb41 8f3b a699 383c b649 07bd
000002b0: 1322 98bc 6a3b 073d 8b65 c6bc 14fb 603c
000002c0: 7099 f6bc 0d05 39bc ca3b 643d 214e ed3c
000002d0: 5770 12bd d82f f1bc 593f 833d 77e1 9abb
000002e0: 110f c9bc 4518 92bc d7f9 cb3c 4c8b 72bd
000002f0: 115f ffbc ef72 813c aefd a13c 4ff8 a9ba
00000300: 2a34 41bd 3c6d 4bbd eb99 dfbc 9b4b dd3c
00000310: 3d0a f3bc 5176 733d 0772 583d 74af 33bd
00000320: 2e5a 53bc 2905 113d 274c 2f3d 698d d53c
00000330: 2d62 183b 8142 653d 6e17 0ebd e0b7 fb3c
00000340: b069 d0bc 2ed3 99bd 1b5d 023d c9f3 0f3d
00000350: 2cab 36bd 0fac 9039 bd96 923c 9997 563c
00000360: b281 e23c 88e6 8fbd 9d57 26bd f83b 71bd
00000370: 1e83 85bc c564 7cb9 0263 483d b603 58bc
00000380: 2c35 ed3d 82a6 f83c 3956 0ebd 31d9 8f3c
00000390: 609c 0cbd e324 233b e83f 9e3d 0324 ab3d
000003a0: 69e1 8f3c f90b 3f3c 9218 ffbc 4c0a 0dbd
000003b0: 68c6 d03b 17ec 3ebd 243e fcbc aa71 793d
000003c0: 80af 47bc 1fa3 6ebc af2b 533d 597f 303c
000003d0: e0e5 5f3d 983b 0d3e a40c de3c 65df ee3c
000003e0: b3f5 47bc 9f9a 863d 6348 5a3c 0e02 ed3d
000003f0: 3392 613d 2d48 3b3c b7d1 053d 63b2 1abd
0.019398892 -0.0049379794 -0.096791826 -0.02280671 0.00062657363 0.005841133 0.009328665 -0.0597429
0.011514515 -0.01151482 -0.005994737 0.076135784 0.045501836 0.00460822 -0.043503784 0.06573557
0.03022346 0.018283326 -0.006784354 0.010618278 0.050453864 0.032752704 0.005570581 -0.066169076
-0.030912966 0.042476807 0.05619257 0.012544057 -0.020791873 -0.038585767 0.02131689 -0.049799867
-0.005817297 -0.010437299 0.055190686 0.02479596 -0.0023150118 0.025014201 -0.053758785 -0.057726625
-0.050590865 -0.0143581135 -0.0479343 -0.0036226297 0.03487115 -0.015170091 0.012941511 -0.021578373
0.0005935473 0.04406489 0.057590514 0.041341674 0.050887182 0.074073344 0.045884103 -0.046209257
-0.0077895154 -0.04325415 0.035341837 -0.031457398 0.0044817245 0.01000822 0.05844958 -0.05383125
-0.04019029 -0.011689742 -0.027927734 -0.041170046 0.02306202 0.02898782 0.014701768 -0.052611746
-0.022375153 0.009022806 -0.11911251 -0.0085720215 -0.0090290075 -0.119875155 -0.02398092 -0.0839729
-0.12569141 0.044522252 -0.020706592 0.011381633 0.035323817 -0.024651708 -0.026304454 -0.047704004
0.026224121 -0.03671291 -0.028554386 0.006735207 0.017069694 0.013976374 0.027925355 -0.03763869
-0.005221816 0.014304583 0.0020220063 -0.016036713 -2.7285672e-05 0.06992469 -0.002978819 0.042944536
0.10712731 0.055593554 0.030836811 0.10547277 -0.05359322 0.03056416 -0.029551119 -0.050048664
-0.042030137 -0.14346953 -0.023236966 -0.10756063 -0.13682815 -0.060151365 -0.00095246115 -0.089557126
0.0071472675 0.042280138 -0.0448572 -0.0076777483 -0.004108311 -0.033274658 0.037927117 -0.016545147
0.111239165 0.03817241 -0.042896044 0.059444606 0.02320576 0.09081536 0.14982717 -0.030379303
0.012716073 -0.027871259 0.006451614 -0.020860787 0.0015684917 -0.010507005 0.020827282 -0.039884675
0.018103078 0.029201493 0.064637154 0.044403777 0.008521176 0.056722797 0.048870504 0.043992955
-0.014772954 -0.04939702 -0.020753574 0.022548964 -0.010349396 -0.012101515 -0.048626836 -0.01470095
0.048219763 0.0075395294 -0.04962916 0.03421197 0.025403436 0.023087498 -0.038602058 -0.019909862
-0.019637384 0.0043718494 0.011267101 -0.03302928 -0.018570935 0.033015646 -0.024218341 0.013731737
-0.030102462 -0.011292708 0.05572108 0.028967919 -0.035751667 -0.029441759 0.06408567 -0.0047265845
-0.024543317 -0.017833838 0.024899406 -0.059214875 -0.03117326 0.015801875 0.019774284 -0.0012967678
-0.04716889 -0.04966472 -0.027295073 0.02701359 -0.029667968 0.059439007 0.05284312 -0.043868497
-0.0128999185 0.03540531 0.042797234 0.026068406 0.0023251877 0.055971626 -0.034690313 0.030727327
-0.02544102 -0.075109825 0.031827074 0.0351446 -0.044596836 0.00027594014 0.017894143 0.013097667
0.027649734 -0.07026392 -0.0406109 -0.05889508 -0.016297873 -0.00024070132 0.048922546 -0.0131844785
0.11582407 0.030352835 -0.034750197 0.01755962 -0.03432882 0.0024893812 0.07727033 0.08356478
0.017563539 0.011660569 -0.031139646 -0.034433648 0.006371308 -0.04661187 -0.03079135 0.060899414
-0.012187839 -0.014565258 0.05155533 0.01077255 0.054662585 0.13792264 0.027105637 0.029159257
-0.012204575 0.065724604 0.013322922 0.115726575 0.055071067 0.011430782 0.032670703 -0.03776778

bias f4 [64]
00000000: 989e db3b bdf8 c93d 0b00 ac3d ee38 e8bd
00000010: 86a2 bd3c 0737 853c a856 5cbd 7611 3dbd
00000020: 6af2 40be f6cf ae3e f8d1 b33d f4d4 733e
00000030: 51e9 75be 0da1 923d d41b 153d 3452 ad3e
00000040: 431b 073e 6911 9f3e ac56 e139 aa84 aa3b
00000050: b3fd 1abd 3b4c 56bd 6937 b2bd d6ce f93d
00000060: d643 10be e459 163e d68f 933d c87a babc
00000070: 56d8 3d3e 49b3 02be 60c3 163e cd3f 473e
00000080: 30fe 683d 2e59 5bbd 897d febb e6bf 9abe
00000090: ec04 503d 5301 a8bb 6db7 033e c3c6 133e
000000a0: 9c59 8e3d 8b20 f7bd e259 cfbc d7e2 c93c
000000b0: d05d 243c bc71 b93d ec31 33bd 3191 82bd
000000c0: 2525 2ebe 839d 743e 9537 dbbc ac29 4d3d
000000d0: 5c61 da3c 4bd6 5f3d 2899 e13d f4c1 bd3b
000000e0: 7714 11bd 2b54 653e a43e 96bb a523 e1bc
000000f0: 822d 9bbd 4147 4c3d 86af 3abe 2103 883d
0.0067022555 0.09861896 0.08398446 -0.113389835 0.023148786 0.01626159 -0.05379358 -0.04615923
-0.18842474 0.34143037 0.08780283 0.23811704 -0.24014784 0.07159624 0.036403492 0.33851779
0.13193993 0.3106797 0.0004297992 0.005203803 -0.037839603 -0.052318793 -0.08701975 0.12197654
-0.14088377 0.14682728 0.07205169 -0.022763625 0.18539557 -0.12763704 0.14722967 0.19457932
0.056883037 -0.053551845 -0.00776643 -0.30224532 0.050785944 -0.005127111 0.1286294 0.1443129
0.069506854 -0.12066754 -0.025311414 0.024644298 0.010032132 0.09054896 -0.04374878 -0.06375349
-0.17006357 0.23888211 -0.026759902 0.05008857 0.026657753 0.054647725 0.1101554 0.0057909433
-0.035419907 0.22395389 -0.004585104 -0.027482817 -0.07577039 0.04987264 -0.1823102 0.06641222

weight f4 [128, 64, 3, 3]
00000000: 12db abbd 96cd 0cbc 158f a9bc 0c2c 2dbd
00000010: a7ac b0bc b20f 28bd 5019 a6bd ec7f ee3b
00000020: 6697 a03b d161 46bd e47b a6bc cfdd 033d
00000030: f039 02bd 4324 1cbd 87b5 0fbd 4cb7 27bd
00000040: 4c50 403c 8786 1d3c d760 3fbd 5130 14bd
00000050: 26a7 2e3d 387c 09bc 1b9c d9bc 010d 033c
00000060: 5421 3e3c 2a64 9d3c cf35 30bd 87cb 313d
00000070: e588 b73c 41ca 9b3c 2076 153d 8879 643c
00000080: 7ff1 c1bc 4ef0 09bd 1814 793d 5529 423d
00000090: 569d 6cbb f813 afbb d824 bebc 43da 0bbd
000000a0: ae00 0d3d da3b 373d b36c d73b 3631 cebc
000000b0: 72d8 473d 52cf fb3b 2383 443d a02f fdbc
000000c0: 6257 04bc a410 373d 6080 1fbc 46d6 d33c
000000d0: 6524 6f3d f304 c5bc 0910 2d3c 5079 2ebc
000000e0: 4b7f 43bc d70c c8bc 1848 28bd 82e6 b2bb
000000f0: a74e 183d 917a 313c b1e5 8d3d 497a 403d
00000100: a2a1 0c3d 42a2 c73c e67e 74ba 3220 273d
00000110: 1b41 23bc 7c21 9a3c 6149 763d ae31 3ebd
00000120: cebb 6bbd 2ebc df3c 439a 253c 9eb3 95bd
00000130: b3f2 98bd f048 173d 6a09 acbd e0ba 01bc
00000140: 0f4e 863d de3f a3bd 0423 6f3b d920 423c
00000150: 4369 2abd 9b96 533d 6ad5 ec3b 2143 0bbd
00000160: a3c3 30bd cb11 49bd ff67 e5bb a1bd b5bc
00000170: 02c0 00bd 9853 13bd 18b5 4dbd abcb 52bd
00000180: 951e f4bd dd56 3abd 0765 3dbd 804c 4fbd
00000190: 9e1a 0abd 7c6f 3ebc 6e66 80bd 40d6 ea3c
000001a0: a852 3fbd 4009 a5bd a22a 9b3b 73d0 05bc
000001b0: 4d12 0d3d 77bf 2b3c 217d 0fbd 1d95 eabb
000001c0: a65d bc3c e95e 983c c067 dbbc 633d 003c
000001d0: 0566 9e3c 2745 8f3d 75b9 7c3c 88e9 26bd
000001e0: 8635 643d f3c8 b83c 4eb5 3dbc b7e6 a53d
000001f0: 844f 343d 8b64 983d 7e75 ffbb d320 343c
00000200: 9055 383d 9ca8 fa3c b544 993c ac8e 3d3c
00000210: 4fbe 703c 2c2b d7ba 03c1 d13c af06 db3c
00000220: 7f08 22bd e855 343b af0d 65bd 6233 5dbd
00000230: ca20 35bd cfad 2abd 1e2c 92bc fee7 3a3c
00000240: 3a35 8bbd 3142 80bc 098c 9f3c cdf5 283d
00000250: 3e3d 33bb 9a8f 273d 9cb2 5cbd 9499 d0bc
00000260: 9864 063d 3e13 74bd d7f9 59bc ddec 793b
00000270: 147c a03c cd5d 303c 3a41 aa3c 3d58 16bd
00000280: 42de e3bb e514 713c 5fa7 053b 0413 de3c
00000290: 970d c43c 400b 4ebd 53ee 3fba 41e4 0c3c
000002a0: eacd 0dbd 9edb 85bc 3c59 c6bb 86ab 57bd
000002b0: 6ff6 07bd 4f16 8fbd 153c dfbc 0cbc 693b
000002c0: 78e6 aebc b5de abbd 8e93 48bc 2316 2cbd
000002d0: a5e1 febb b48d 26bd 9ad2 783c c264 babc
000002e0: fb0d 0cbd 37a0 613c 58b3 3ebb b46c 38bd
000002f0: 513e 99bb fa36 b83c 2536 673c bdc7 2a3d
00000300: aa60 7fbc fca3 99bc 9acb 55bc 3b50 04bd
00000310: 605b 8abc 46b0 373d cb01 573d e204 c63c
00000320: 3c2d de3d 11ee 8cbc b1bb 973b 7cf0 653d
00000330: 0a69 ab3b 490c e1bc b59b 163d 9bec 8abd
00000340: f03b 673c 5508 483c 7775 01bd 2cdc 2abd
00000350: 32be 08bc e7f2 283d bb6f 3c3c 00b6 7f3c
00000360: 59d5 c1bc 2485 06bc 4477 be3d e385 3cbd
00000370: 2a52 4c3d d279 553d 4f95 df3c 45c0 823c
00000380: e635 143d fb64 d53b bb9f 48bc 3991 823d
00000390: ae99 05bd a102 c9bc 8eb7 00bd f800 71bc
000003a0: ef64 a4bc b76a a5bb 808c dfbb 76a6 92bc
000003b0: 70bb 2ebd 5c08 13bd 5b8e 63bc 8129 b03b
000003c0: 504b 66bb fc40 ec3c 01e1 653c 78eb a4bc
000003d0: ae5f 073d c622 153a d33d 00bd 5ca5 5e3c
000003e0: 29d1 06ba 660e 51bc cd1c 8d3c 9b22 8bbc
000003f0: 3c39 e73c dfc5 25bc 2072 203b 34c0 b6bc
-0.08391394 -0.008593937 -0.02069811 -0.042278334 -0.021566702 -0.041030593 -0.08110297 0.007278433
0.0049008606 -0.04843313 -0.020322748 0.032193955 -0.031793535 -0.03812052 -0.035085227 -0.04094629
0.011737894 0.009614593 -0.046723213 -0.03617889 0.042639874 -0.008391432 -0.026563695 0.007998706
0.011604626 0.019212801 -0.043020066 0.04340699 0.022404144 0.01901734 0.036489606 0.013944991
-0.023674725 -0.033676438 0.06081018 0.0474027 -0.0036104522 -0.0053429566 -0.023210928 -0.034143697
0.034424476 0.044734813 0.0065742373 -0.02516995 0.048790403 0.0076846266 0.047976624 -0.030906498
-0.008077474 0.044693604 -0.009735197 0.02585901 0.058384318 -0.024050212 0.010562905 -0.01064904
-0.0119322045 -0.024420185 -0.04108438 -0.0054596076 0.037184384 0.010832445 0.06928576 0.04699162
0.034333833 0.024369363 -0.00093267707 0.04080219 -0.009964253 0.018814795 0.060128573 -0.046434097
-0.05755215 0.02731141 0.01010758 -0.0730965 -0.07468166 0.036934793 -0.08400233 -0.00791809
0.06557857 -0.07971166 0.0036489377 0.011848652 -0.04160429 0.0516573 0.0072275894 -0.033999566
-0.043155324 -0.049089234 -0.0070009227 -0.022185149 -0.031433113 -0.035968393 -0.050221533 -0.051463764
-0.119198956 -0.045492996 -0.046238925 -0.050610065 -0.03371679 -0.01162326 -0.06269537 0.028666615
-0.046709687 -0.08058405 0.004735307 -0.008167374 0.03444128 0.0104826605 -0.03503144 -0.007158889
0.022993874 0.018599944 -0.02678287 0.007827136 0.019335756 0.06995612 0.015425076 -0.040750057
0.055715106 0.022556758 -0.011578871 0.08100646 0.044021145 0.07441052 -0.0077959886 0.010994154
0.045003474 0.030597977 0.01870952 0.01156966 0.014693811 -0.0016416064 0.02560473 0.026736585
-0.039558884 0.0027517024 -0.055921253 -0.05400408 -0.044220723 -0.041669663 -0.017843302 0.01140785
-0.067972615 -0.015656563 0.019475954 0.04125004 -0.0027349736 0.040908433 -0.053881273 -0.025463857
0.032810777 -0.059588663 -0.013304195 0.0038135566 0.019590415 0.010764551 0.020783056 -0.036705244
-0.0069539854 0.014714454 0.002039395 0.027108677 0.023932261 -0.050303698 -0.0007321585 0.008599342
-0.034620203 -0.016340073 -0.006053118 -0.052653812 -0.033194 -0.06986677 -0.027250329 0.0035665063
-0.02135013 -0.08392087 -0.012242211 -0.0420133 -0.007778364 -0.040662482 0.01518693 -0.022753123
-0.03419302 0.013771108 -0.0029098596 -0.045025542 -0.004676618 0.022487152 0.01411203 0.04169439
-0.015587011 -0.018754952 -0.013049031 -0.032303076 -0.016889274 0.04484584 0.052491944 0.02417225
0.108484715 -0.017203363 0.004630529 0.056137547 0.0052310275 -0.027471678 0.036769588 -0.0678341
0.014113411 0.012209018 -0.031606164 -0.04171388 -0.008346127 0.041247275 0.011501248 0.015607357
-0.023661302 -0.008210454 0.09300092 -0.04602612 0.049883045 0.05211813 0.027292876 0.015960822
0.036184214 0.006512282 -0.012245114 0.06375355 -0.032617263 -0.024537386 -0.03142505 -0.014709704
-0.02006766 -0.005048122 -0.006822169 -0.01790164 -0.042659223 -0.035896644 -0.013888921 0.0053760414
-0.0035140105 0.02883958 0.014030696 -0.020131811 0.03305023 0.00056890806 -0.03130896 0.013589229
-0.00051428616 -0.0127597805 0.017225647 -0.016984275 0.028225534 -0.010117977 0.0024482086 -0.022308446

bias f4 [128]
00000000: d04f 23bd 5bbc 823d 2b23 f53b aae1 db3c
00000010: d787 a8bd 347a 8fbd a537 87bd d2ab 77bc
00000020: 8815 363d 2d49 be3d 3182 7b3d 77c6 93be
00000030: 0efa 29be 43d4 adbd f286 9e3c f42a 4cbd
00000040: 9b12 a23d 1ef9 84bd 403a 95bd 70cc 3cbd
00000050: 0a6d 24bd 362a febc b7e3 843d 9b94 fdbd
00000060: 7b50 a6be 2695 fd3d 6315 d3bd 6462 36bc
00000070: b5e2 ff3d f83c b1be 364a b9bd cf50 03be
00000080: 89c8 b8bc 6507 00bd 7c7f 2abe caa6 45bd
00000090: b6e0 173d 2db0 a0be e7d7 1a3e 9031 893d
000000a0: 18bc 513e 0de7 623d 8397 cbbc 3d0f 99bd
000000b0: 74b1 8c3d 7f23 203e 35f3 d4bc d0aa dfbd
000000c0: 4d47 c1bd 52e0 3ebe 8f4d 9f3d a4d5 763d
000000d0: a135 59bd af5e edbc 4ef9 cd3c 77a7 8b3d
000000e0: 1418 323e 490f ccbc 0668 293e 8115 e8bc
000000f0: 9470 8e3e 59dd 3ebd dc03 883c 8ab2 21bd
00000100: 85a1 e3bc 4cbe b43d 21f2 6f3d 4427 0bbd
00000110: 3b22 86bc 7719 9dbc 6ed6 273c 75e4 8abd
00000120: 2fda 8abd 9d7d 743d c932 bf3c 4787 74bd
00000130: bd18 653d 5dad 293e 7d2e df3c 14d9 3f3d
00000140: e1a5 0f3d 6933 ef3c 616a 293d 32ca 7dbd
00000150: 0cbd d6bd 7e71 363d d7fa a63d 4d22 4bbc
00000160: de89 78bd 0633 afbd a000 813d 3c8c 26bd
00000170: 119e cf3b dee9 09bd a3dd 8ebe e12f a239
00000180: 40e9 803c 2f56 b0bb c009 6f3d b7ef 08be
00000190: 4ca6 a0be 56b6 103c ffdd 063d abc4 a83a
000001a0: 4060 9ebe 0cea 0c3e 3cc2 a5bc a907 663e
000001b0: 7bf9 9fbd ec75 443d 406e 06be 806d b83d
000001c0: 0d2b c9bd f710 f2bc df07 0ebe c40c aebe
000001d0: 94a3 f83d ab4c f93c 6505 1a3d ea6a 0c3d
000001e0: 7750 953d 3b1f f63c c6ec cd3e 03bd 533d
000001f0: 8554 773c 34c3 e9bd 5dee 2d3d e65e c1bb
-0.039871037 0.06383582 0.007480999 0.026841003 -0.082290344 -0.0700573 -0.0660241 -0.015116649
0.044454128 0.09291301 0.061403457 -0.28862354 -0.16599295 -0.08487751 0.019351456 -0.04984565
0.07913705 -0.06492828 -0.07286501 -0.046093404 -0.04014305 -0.031025987 0.06488746 -0.1238186
-0.32483277 0.123819634 -0.103068136 -0.011131857 0.12494413 -0.34616828 -0.09047358 -0.12823795
-0.02255656 -0.031257052 -0.16650194 -0.048254766 0.037079535 -0.3138441 0.15121423 0.066989064
0.20481908 0.05539613 -0.02485252 -0.074736096 0.06869784 0.1563854 -0.025994876 -0.10921252
-0.09437428 -0.18640259 0.07778465 0.060262337 -0.05302966 -0.028975813 0.025143292 0.06819051
0.17391998 -0.024909632 0.16543588 -0.028330566 0.27820265 -0.046597812 0.016603403 -0.03947691
-0.02778698 0.08825359 0.05858052 -0.033972993 -0.016373744 -0.019177182 0.010243995 -0.06781856
-0.067798965 0.059690107 0.023339646 -0.059699323 0.055931795 0.16570039 0.027243847 0.04683788
0.035070304 0.029199319 0.041361216 -0.061960407 -0.104852766 0.04454183 0.08153313 -0.012398315
-0.060678355 -0.08554654 0.06298947 -0.04066108 0.0063359817 -0.0336703 -0.2790347 0.0003093472
0.015736222 -0.0053813676 0.058358908 -0.13372694 -0.31376874 0.008832535 0.032926556 0.0012875994
-0.30932808 0.13761157 -0.02023422 0.2246386 -0.078112565 0.04796402 -0.13127995 0.090052605
-0.098226644 -0.029549105 -0.1387019 -0.33994114 0.12140575 0.030432066 0.0376028 0.03428165
0.07290738 0.030044189 0.40219706 0.051693927 0.015095835 -0.11414185 0.04246365 -0.0059012054

weight f4 [128, 64, 3, 3]
00000000: 18c8 c33c 2ed8 14bd ae50 d7bb 6ba1 153c
00000010: c3a5 b53b a8f6 963c e467 09bc db9c ca3b
00000020: b12a 89bc f570 913c eafe a6bc e2d8 1fbc
00000030: 96a0 e63c 50b2 a1bc 8cd6 d73c bb8c 2bbd
00000040: 49ca a5bb 5286 b43c b7f2 d2bc 58f9 2dbd
00000050: b515 f4bc f257 a33b 5657 e8bc fb9a 63bc
00000060: 6b12 41bd bb1f 8cbc f84e 0cbd 11e0 91bc
00000070: 8977 6bbc fa95 b3ba 965d 053c fb0b 22bd
00000080: bdeb 41bd b899 013c 4d2a a43c 59d0 0c3d
00000090: 6464 cd3b 775e d3bb 2ff4 313d 781b 473d
000000a0: db4a 47bc ff1a 6a3c 3d25 e0bb 5cee d5bc
000000b0: 7cee 0dbd 8911 b03b 1286 003d f87c e8bc
000000c0: 007b 48bc 149b af3b 6d65 35bd b23d b73c
000000d0: be86 d63c d121 92bc d349 29bc 20d0 b8ba
000000e0: c267 f0bc 6813 c23c c106 193c 55b6 423d
000000f0: 97c1 afbd d162 133b 4da6 6abc 69a2 00bd
00000100: 153f 3cbc 650c 23bd 3c79 df3b 4f7a d1bc
00000110: 1c4b 33bc ef8e e23c faae cd3c 5c86 853c
00000120: 8861 67bc 0fcc 0e3d b2e8 143d 530b f73c
00000130: 6881 033c ca50 22bd 5bb8 e83c 7adb d03c
00000140: c744 33bc 7bbd 2cbd 35c3 983c 5898 e2bb
00000150: 4780 6ebc 6c62 babc 8ee3 91ba a74a 6cbc
00000160: 6d9c 3a3d 13cf 323c 4d0b 3a3d ba97 2e3d
00000170: 288e 5fbc 2ae8 20bd 6b4b 9f3c 59b1 d6bc
00000180: 565a 323d 1695 bf3d 757d d13d f8de febc
00000190: 590c cbbc d97e 1dbb be3d 02bd a6d5 e4bc
000001a0: a361 3fbc 3ffb 53bd b001 84bd 2ce0 583c
000001b0: 0a44 a6bc 63b8 07bd 6012 9b3c b0dc 33bd
000001c0: 7300 c13c 3927 38bd e7af 993c 3d22 e5bc
000001d0: 4460 b7bc e13d 1e3d 1cdf 613d bfa8 1f3d
000001e0: 7908 013c 0fec 3e3d 88d4 a73c 04fb f23c
000001f0: a867 223b 7909 263d d314 7f3c 9463 2fbd
00000200: 60f1 7dbb 8d15 a43b f88a b63c b077 9bbc
00000210: 3a0c 9f3d a618 903d 8ff5 d73d 4870 1fbc
00000220: c9c2 3d3c 1176 673b 5cce 9b3b 88f7 e0bb
00000230: 2f07 6ebc b743 48bd ebf6 14bd 0836 323d
00000240: 7b0f 1c3d 2615 003c bf4e 21bd d07e 2b3d
00000250: 8f9e abbb 620c 763c ec45 4f3d 41d4 d6bc
00000260: cc9e 89bc 5c69 e3bc ee02 dcbc c757 f43c
00000270: 2ac3 ba3b c83c 60bc 9e3b 1ebd 93d8 b23c
00000280: 0fe3 093c 81fc 80bc 387d 0bbd 0ef6 f5bc
00000290: 2921 e6bd ae56 90ba 6e0c 6cbd bd1f a1bd
000002a0: 24c5 6abd 2905 7abd 7dbd b6bd a42e 373c
000002b0: 42a9 a1bb cd40 973b bebe 5e3d 902b 7b3d
000002c0: e68e 013d 84dd 00bd 64fc 6f3c 99b8 2b3d
000002d0: 6bbb 6cbc c724 003d 2f49 7e3c 5945 dbbc
000002e0: 8fcf 4d3d b22a a33a 0045 7cbd bbfb 5a3d
000002f0: ddb5 83bb d39d c939 8b70 d9bb 980f bbbc
00000300: 5463 a0ba 944d 28bd b69e dabc 663c 913c
00000310: ea4d abbc 420d 89ba 5b22 99bc 179b 12bc
00000320: e130 043c 8cba 3abd 1be4 21bd 21d4 f3bc
00000330: c917 3c3d 3d63 8d3c 152b 473d 8a64 0ebd
00000340: 011e 483d d7a6 b43d 1ff3 353b 5bf4 40bc
00000350: 1d1d 9d3c d46b b23d b5ed 423c 9271 443d
00000360: a71d d03c 88c7 243d 38a8 913d 7b92 8a3d
00000370: 7c8a 213d f251 613d 9aa0 c83c 50b8 3d3d
00000380: dae3 b23c 72dc f5bd 1794 90bc 8b99 a53d
00000390: 17f5 423c 21d2 19bd cb14 033e 7984 6dbd
000003a0: d293 573d 7e94 303d 59cf f9ba aed7 99bd
000003b0: e4ef 69bc 0e73 d93b c091 a23c c4fd 9fbc
000003c0: 0e47 85bd 175e 5dbd 25bd 63bd c7f3 64bc
000003d0: 8895 94bd cc21 00be db7f c03c 760a 62bc
000003e0: 4786 99bd de44 cc3c d40a 8abc 047a 8fbd
000003f0: 148a 51bc 884e 91bc cc7b 0e3d 8449 40bd
0.023899123 -0.036338978 -0.006570897 0.009132723 0.005543442 0.018428162 -0.008386586 0.0061832494
-0.01674399 0.017754057 -0.020385224 -0.009756299 0.028152745 -0.019738346 0.026347421 -0.041882258
-0.0050595147 0.022036705 -0.025750501 -0.04247412 -0.029795507 0.004984849 -0.028361958 -0.013891931
-0.047136705 -0.017104974 -0.034254998 -0.017807039 -0.014371761 -0.0013701313 0.008139988 -0.039562207
-0.04734396 0.007910185 0.020039702 0.034378383 0.006268071 -0.00645047 0.043445762 0.04861018
-0.012163843 0.014288663 -0.0068403766 -0.026114635 -0.034651265 0.005373184 0.03137786 -0.028379902
-0.012236357 0.005359063 -0.04428618 0.022368286 0.026187297 -0.01783839 -0.0103325425 -0.0014100112
-0.02934635 0.023690894 0.009339989 0.047537167 -0.08581846 0.002248932 -0.014321876 -0.031404886
-0.011489649 -0.039806742 0.006819872 -0.025571017 -0.0109432 0.027656047 0.02510785 0.01629942
-0.014122374 0.034862574 0.036354728 0.030156767 0.008026458 -0.039627828 0.02840822 0.02549528
-0.010941691 -0.04217289 0.01864777 -0.0069151334 -0.014556951 -0.02275201 -0.0011130439 -0.014422095
0.045559336 0.010913628 0.045420934 0.042625166 -0.013644733 -0.03928391 0.019445142 -0.026207613
0.043543182 0.09354608 0.10229007 -0.03111218 -0.024786161 -0.0024031906 -0.031797163 -0.027933907
-0.011680993 -0.05175328 -0.06445634 0.0132370405 -0.020296115 -0.03313483 0.01892966 -0.043911636
0.023559785 -0.04495928 0.018760635 -0.027970428 -0.02238477 0.03863323 0.055144414 0.03897929
0.007875555 0.04661184 0.020487085 0.02966071 0.0024781022 0.040536378 0.01556893 -0.042819574
-0.0038748607 0.005007452 0.022283062 -0.01897797 0.07766004 0.07035951 0.105448835 -0.00973136
0.011582085 0.0035318176 0.0047548246 -0.0068654455 -0.01452808 -0.048892703 -0.03636829 0.04350856
0.0381007 0.007817542 -0.03938174 0.041868985 -0.0052374075 0.015017601 0.050603792 -0.026224257
-0.016799353 -0.0277602 -0.026856866 0.029827012 0.005699535 -0.013686366 -0.038631074 0.021831786
0.008415951 -0.015745403 -0.034054965 -0.030024555 -0.112367935 -0.0011012161 -0.05762904 -0.07867382
-0.057316914 -0.061040077 -0.08922861 0.011180554 -0.004933507 0.004615879 0.054381125 0.06132084
0.03163042 -0.031461254 0.014647577 0.041924093 -0.014448981 0.031285074 0.015520378 -0.026766466
0.05024677 0.0012448637 -0.06158924 0.053462725 -0.0040194825 0.00038455296 -0.0066357306 -0.022834584
-0.0012236633 -0.04108961 -0.026687007 0.017728996 -0.020911176 -0.0010456222 -0.01869314 -0.008948109
0.008068294 -0.04558806 -0.03952418 -0.029764237 0.04592112 0.017259235 0.04862507 -0.03476385
0.04885674 0.08820885 0.002776332 -0.011777009 0.019178921 0.08711973 0.011897494 0.04795987
0.025404764 0.04022935 0.07112163 0.0676622 0.03943871 0.05500979 0.024490643 0.046318352
0.021837164 -0.12004937 -0.01764874 0.080859266 0.011899254 -0.03755391 0.128009 -0.057987664
0.052631207 0.043110363 -0.0019058987 -0.07511841 -0.014278386 0.00663603 0.01984489 -0.019530185
-0.06507693 -0.05404481 -0.055600304 -0.013974137 -0.07255083 -0.12512892 0.023498466 -0.013796439
-0.074963145 0.024935182 -0.016850866 -0.070056945 -0.012789268 -0.017737642 0.03478603 -0.04694511

bias f4 [64]
00000000: 231e 403d 3508 6c3d 14d5 903e 8a6f 4c3a
00000010: cf65 7bbd 1bc7 e13c a154 263b adba 3f3d
00000020: a72a 1b3d f53f e63c 5eda 533c 8961 943d
00000030: 6d33 7a3d f1c3 0fbd 1ccc 2bbe d173 633e
00000040: 7fa4 a53d f660 983d 732b b23c 08df d83c
00000050: 4802 ce3c 7ea4 203e 99c1 8c3d 0a15 48bd
00000060: d0ae 56bd b0f1 1cbd fcb1 473e 5307 953d
00000070: ac72 eabc 8964 7d3e 8966 853b eca4 af3c
00000080: ae24 debb 91be 993c 67c1 173d d89b 523d
00000090: 7883 a83c d8fb 3d3c 6ae6 2f3c a606 7b3c
000000a0: bfce ba3d 7086 333e 9ceb 863d 32a9 4b3d
000000b0: 1e65 70bd 3f03 3b3d 31c1 a5bc 3fda fd3d
000000c0: e8bf a63e b676 763d 1b6a 913a c617 c63b
000000d0: 3330 443e 7501 b33d fe17 96bc e840 b33c
000000e0: 4b06 1d3e c2e8 d43d 2689 0fbc 7f4b 2d3c
000000f0: 57c7 6bbb 779a 79bd 54f7 3cbd da86 02bd
0.04690374 0.057625014 0.28287566 0.0007798603 -0.06137639 0.027560761 0.0025380033 0.046808887
0.037882473 0.028106669 0.012930481 0.07245166 0.0610842 -0.035098974 -0.1677708 0.22212149
0.08088016 0.07440369 0.021749234 0.026473537 0.025147572 0.15687749 0.06872863 -0.04884819
-0.052412808 -0.03831643 0.1950149 0.072767876 -0.028619133 0.24745382 0.004071061 0.021440946
-0.006779275 0.018767627 0.037049677 0.051418155 0.020570502 0.011595689 0.010736087 0.015321409
0.09121465 0.17531753 0.06587908 0.049721904 -0.058690183 0.045657393 -0.020233722 0.12395143
0.32568288 0.060171805 0.0011094244 0.0060453145 0.19159012 0.08740512 -0.018321987 0.021881536
0.15334432 0.103959575 -0.008760726 0.010577082 -0.003597697 -0.060938325 -0.046134308 -0.031866886

weight f4 [64, 32, 3, 3]
00000000: c06b cdbb d99a 1e3d 8875 c73c 878f bfbc
00000010: e0e7 493d 454d 63bd 7dba 3b3d 9476 3bbd
00000020: d794 38bd 59e2 0cba 9ffa bd3b 5279 e83c
00000030: 7677 153d 922d 393c 1629 0fbd 749c ebbc
00000040: 4c31 883c 8f34 103b 86bf 7cbd bd5e a9ba
00000050: dc82 433d 3fd7 063d 82dd 72bd 425b e13c
00000060: deb7 4c3d ec6e 22bd 1239 08bc c74d 0ebc
00000070: fe01 093d b6a2 9dbb 30ce c23c 8d95 573d
00000080: a89b 16bd 9cc6 52bd 9106 ac3c 81f7 f83b
00000090: 77df e3b9 2fdd 7abd b133 15bd 1ae0 4fbd
000000a0: 0709 04bd 9c15 e13c fb04 abbc a52e 163d
000000b0: f434 fcbb 0b94 523c b015 7b3c 8321 1a3d
000000c0: 3517 7fbd 2562 dfbc d088 473d e788 923c
000000d0: bf90 ac3b f197 453c 5a04 b1bc 1d4c 01bd
000000e0: b695 133d 0c43 37bc 51e1 29bd 87d8 9dbb
000000f0: 005d 67bd 08ae f13c 13d4 a8bc fe42 2e3c
00000100: 3913 66bd 5352 073d 6140 70bc eda5 7cbd
00000110: c2dd 153d 337b 86bc 2a66 01be 094f 17bc
00000120: 5c88 56bb 58e0 03bd dfd6 33bd b54b f53c
00000130: d6d0 ec3c b7d2 b3bb e3d6 5cbd b5de 8cbd
00000140: 3109 35bd cb68 afbc d01a 45bd db7d ce3b
00000150: 2182 213d e1df 223d fd8c 3b3d 75e6 6abd
00000160: 8a4b bbbc bb70 47bc 9518 0bbd 541c 123c
00000170: 56bc 84bd 961a 343d ebdd e63c 439d b03c
00000180: 00f3 61bd 2891 2fbc f3fa 873a 451d e83b
00000190: 3fab 3abc d910 323d 48cd 44bc 164b 14bd
000001a0: 3dd2 bb3c 3317 173d ea40 d43b d5d2 93bd
000001b0: ea88 673d 7032 b8bb bf47 75bd a6f5 ea3c
000001c0: c7fd dcba 63f4 48bd bd93 033d 4e82 b63c
000001d0: 6fad 24bc be39 acbd 3920 10bd 6337 c2bd
000001e0: 0bdd 00bd 1cf5 593d 82e6 1c3d 7525 1c3c
000001f0: 5d24 8e3c 9e9d ec3c 60f3 613d 89f5 9c3a
00000200: 1b48 91bc 408f f8bc 8a67 5dbc 931a 4ebd
00000210: cdcf d23c 6c7b b5bc 6fac 38bc 028e e13c
00000220: 93eb 2fbd b9ab c8bb eeac 97bc 6f4e 26bd
00000230: 5db6 e1bc 929e 06bd 33e0 423d ad8e 6d3d
00000240: ed70 1cba 89cb 813c 1ad4 0fbc 999e 85bb
00000250: e32d 6b3a fd1b 0a3d d936 113d 27d2 413d
00000260: 7996 c0ba 6bc1 a6bc 819c 163d 021f 33bc
00000270: 2f86 7e3d d499 353d 6c13 6bbc 9c33 153d
00000280: 07b4 61bc a478 1dbd 0480 073d a41a 63bd
00000290: e5ab babc e3e1 673d bacb f7bc e2ac 8bbb
000002a0: 8f08 55bb 6f37 6f3d b899 f6bc 8653 debd
000002b0: f3a9 87bd a68b 67bd 86dc 453d 603d 913d
000002c0: c448 d3bc ba2a c43c fed5 c03d 2e18 053d
000002d0: f60c afbc 118a e8bc af86 b13c d3f3 67bc
000002e0: 34b4 103d bae7 563d 9bde c43c 1cd6 37bd
000002f0: 31cf 2b3d 0b94 83bc 71dd 093c a69e 163d
00000300: 7554 653b 1f57 f9bc 1ff5 5c39 5f9f cf3c
00000310: 1959 6b3d a811 86bd 4c4e 3f3d b491 f6bc
00000320: a830 4f3d 1b44 39bd 8ba3 083d 8894 2dbc
00000330: 63fe 583d 66a0 c2bb 6c57 c2bc 26f4 2c39
00000340: 4394 1fbd a42a 28bd cbe6 0abc 8b7f 893b
00000350: c18b 503d bfd2 053c bfb4 2cbd 6cd4 43bc
00000360: 5ef1 0dbc 97ff ffba 9016 44bd 18a1 433d
00000370: 82cb 853c a3d2 68bd bf01 2abd 8ff8 c23c
00000380: e53e 8fbc bac0 0abc c644 8f3c 379a 0d3d
00000390: 7a96 0cbd 4c3f 693d 9bf7 abbc 5cbb f13b
000003a0: 92ad ac3d c4df cf3b 05d5 b6bc 0ad0 4fbd
000003b0: a77f 6b3a 68a3 3ebc df2e 6abc 6047 34bd
000003c0: db21 3fbc f1bd 2a3d ce7a 90bc cb1c a83d
000003d0: bb37 733c 5291 29bd 2d5d 333d d13e fabc
000003e0: 4fed 3b3d ac33 483c 0a85 febc c039 113d
000003f0: 9faf 1ebd 52a4 22bd fda6 3cbd 97c8 3abd
-0.0062689483 0.038721893 0.024348035 -0.023383869 0.0492934 -0.05549361 0.045832146 -0.04576738
-0.04506382 -0.00053743046 0.0057976986 0.028378163 0.03649088 0.011302369 -0.034951292 -0.028761126
0.01662507 0.0022003984 -0.06170609 -0.0012921911 0.04773222 0.03292012 -0.059293278 0.027509335
0.049980037 -0.039656565 -0.008314388 -0.008685536 0.033449166 -0.0048106564 0.023779958 0.052632857
-0.03676954 -0.05145894 0.020999225 0.007597864 -0.00043463308 -0.061246093 -0.03642625 -0.05075083
-0.03223517 0.027476124 -0.020876398 0.036665577 -0.007696742 0.012852679 0.015324995 0.037629616
-0.06227799 -0.027268479 0.04871446 0.017887546 0.0052662785 0.012060151 -0.02160852 -0.031566728
0.036031447 -0.011185419 -0.041474644 -0.004817072 -0.056485176 0.02950193 -0.020608937 0.010636089
-0.056170676 0.033037495 -0.014663787 -0.061681677 0.036588438 -0.016416168 -0.12636629 -0.009235152
-0.0032735085 -0.032196373 -0.04390609 0.029943326 0.028908174 -0.0054877657 -0.05391587 -0.068784155
-0.04419822 -0.021412274 -0.048121274 0.0063016242 0.03943074 0.03976429 0.045788754 -0.057348687
-0.022863168 -0.012172873 -0.03395899 0.008917887 -0.06481235 0.043970667 0.02818199 0.021559363
-0.055163383 -0.01071576 0.0010374471 0.0070835673 -0.011393367 0.0434731 -0.0120118335 -0.03620442
0.022927398 0.03688736 0.006477465 -0.072179474 0.056527056 -0.005621247 -0.059882876 0.028681587
-0.00168603 -0.04906119 0.032123316 0.022278931 -0.010051115 -0.08409451 -0.03518698 -0.094832204
-0.031460803 0.05321227 0.038305767 0.009530415 0.017351324 0.028883751 0.05516374 0.0011975031
-0.017734578 -0.030341744 -0.013513455 -0.050318312 0.025733853 -0.022153579 -0.01127158 0.027533535
-0.04294927 -0.0061239866 -0.018515076 -0.040602144 -0.027552778 -0.03286607 0.047577094 0.057997394
-0.0005967755 0.015844123 -0.008778596 -0.004077744 0.0008971376 0.033718098 0.035452697 0.047319558
-0.0014693282 -0.0203559 0.036770348 -0.010932686 0.062139686 0.044336155 -0.014347892 0.03642617
-0.013775832 -0.03844513 0.03308107 -0.05544533 -0.022787044 0.056611907 -0.030248512 -0.0042625526
-0.0032506322 0.058402475 -0.030102596 -0.108557746 -0.06624212 -0.056529664 0.04830601 0.070917845
-0.025791533 0.023946155 0.09415816 0.032493763 -0.021368485 -0.028386148 0.021670667 -0.014157253
0.035328105 0.052467085 0.024031928 -0.044881925 0.04194564 -0.016061803 0.008414612 0.036772393
0.0034992967 -0.03043705 0.0002107215 0.025344549 0.057458017 -0.065463364 0.04670553 -0.030098774
0.05058351 -0.045230966 0.03335909 -0.010594495 0.052976977 -0.005939531 -0.023723327 0.0001649415
-0.038959753 -0.04105629 -0.008477877 0.0041961125 0.05091453 0.008167922 -0.04216456 -0.011952501
-0.008663503 -0.0019531128 -0.04787308 0.047761053 0.016332392 -0.056841504 -0.04150557 0.023800163
-0.017486045 -0.008468801 0.017488848 0.0345709 -0.034323193 0.05694513 -0.02099209 0.0073770713
0.084315434 0.0063438136 -0.022318373 -0.05073551 0.000898356 -0.011635639 -0.0142934015 -0.04401338
-0.011665787 0.04168505 -0.017636683 0.08208617 0.01484483 -0.041398354 0.04379003 -0.030547531
0.045880612 0.012219351 -0.031069297 0.035455465 -0.038741704 -0.03970749 -0.04605769 -0.045601454

bias f4 [32]
00000000: 9833 b6bd bd39 a23d 0583 533d b841 a3bd
00000010: 95a0 903d 7eb2 f53c 1d7c b2bd 41ca 2cbd
00000020: 2f94 96bd 440d 3e3d 0a50 dfbb 5c45 d63d
00000030: 08a9 a4bd 2de9 be3d 198c 473d 4bea d43b
00000040: 2598 debb 668b 20bd 0e75 61bd 2c8c 7f3c
00000050: 4271 2dbd d6d6 31ba ee22 a6bc 12a2 ff3b
00000060: 3fa7 8d3d fece d7bd 1f1e 35bc 999d b4bd
00000070: 5395 babd 24c1 a23d c8b9 93bd dd04 6cbd
-0.088965595 0.07921169 0.05163862 -0.07971519 0.070618786 0.029992338 -0.08715079 -0.04218507
-0.073524825 0.04639937 -0.0068149613 0.10462448 -0.08040053 0.093218185 0.048717592 0.0064976565
-0.0067930394 -0.03919544 -0.055043273 0.015597384 -0.04234434 -0.0006784027 -0.020280328 0.0078013027
0.06916665 -0.105375275 -0.011054545 -0.08819122 -0.091105126 0.07946995 -0.07213169 -0.057621825

weight f4 [32, 1, 3, 3]
00000000: 2e9f 17bd 99f2 9c3e cf62 34be a947 19be
00000010: e65a 16bd 6a8c 84be dba6 013e 1045 653d
00000020: 31c9 93bd a60a b23d a26b 23bc 0d84 3d3e
00000030: a299 2dbe 79be 8dbc fb7b 2e3e 6e04 4a3e
00000040: 1129 65ba d3c4 25be 5f89 74be 4a61 c7bc
00000050: a2d9 a03d cac7 653e 7043 edbd 84b7 993e
00000060: d4d0 7a3d bb71 303e e162 16be 8ad2 603d
00000070: 8873 6fbe bb0b 8bbc e127 5cbe 02cc 36be
00000080: 1793 553e 98df 13be 08c8 753e 0d45 3abe
00000090: b68a 47be 6ea5 34be 5fde 823e fc20 653e
000000a0: 21ba 883e fd3c 52bd d733 483e 56f8 55be
000000b0: 59a3 00bc 0536 c7bd 96d2 7b3e ecf0 71be
000000c0: b223 813e 4e38 853e d30a d53c fb7c 683e
000000d0: e73a a43c 6a9a 89be 0a9f 8abe 694d 4abd
000000e0: 990d 80be c0e7 15be de44 b63c 375e bc3e
000000f0: 9b4f 11bd ec79 c53e 8110 093d 4325 383e
00000100: 38fa 60be 8786 94be 6762 45be 3a6f 053e
00000110: 5091 5ebe c202 e0bd a227 7cbd be89 8f3e
00000120: 3154 0cbe 501d 82be 4a3a 93be 78a4 8d3e
00000130: 4d9e 6ebc 0ebf c2bb 6694 dabd 0332 0cbe
00000140: ef52 91be 74b2 9d3c fe91 8f3e c03d 6d3d
00000150: ec7d efbd 704c 7fbb 1340 9c3e f869 273e
00000160: ca07 05bd 6e99 26be 7464 233e ab9c 3dbe
00000170: 31a3 42bd 23b4 b6bc 0881 a03d 54fb 6ebe
00000180: c15a 9fbd 7070 67be a8f3 95be 9ce5 44be
00000190: 59f7 9f3e db6e 793e 5b35 70be be5a 453e
000001a0: 2313 893e 2c42 87be 5d85 87bd 0594 86be
000001b0: f941 883e 95a5 54be 1a94 f9bd a8aa ab3d
000001c0: f1d5 24be 12a3 19be 8cc6 4dbe b638 98be
000001d0: 3f97 5ebe f668 063e d995 a23d 2007 a73e
000001e0: e747 663e 49d4 0ebe 5084 1a3e 8598 9a3e
000001f0: 64a5 4cbe 0fac 573e d312 44bd 5999 613e
00000200: 3d1f cdbb bbbc 893e dfad 883e 4727 6ebe
00000210: d88c a33d 2389 d5bd 2dfd 70be 424e 1c3e
00000220: 65ac a73e 0c46 923d d5c9 273d f5b3 863e
00000230: 118e 513d 9595 333e 4f61 8f3e 502a 493e
00000240: 3805 923c 4492 383e 75a8 4f3d 1893 9c3e
00000250: 24ed 573e d776 3bbd b015 17be 6675 67be
00000260: 7e27 8b3e 934f 813d ab2b 433e 1ad4 e8bc
00000270: 1355 50bd c388 843e a3a8 913d 2475 d2bd
00000280: b17f 52be 9bb9 97be 6376 633d 11a8 183e
00000290: f1d7 aabd d1c8 a13e bafd 79be 439e 4cbe
000002a0: 31b5 273e f03e 3e3c c7e7 323d 5ab9 acbc
000002b0: 52ea 52bd 4bc8 083e 7bc0 3f3e 6ae1 ab3e
000002c0: c612 413e 902d b939 9cfd 01be b975 12bd
000002d0: c889 c4bd 6997 1fbe c1f5 20be d736 8cbc
000002e0: a307 933d 0dfd 0ebe cb06 a53e 50e0 1c3e
000002f0: ce75 c0bd 3924 20be a6ac 8dbe 178c 6f3e
00000300: 0184 433d 6319 75be 34f7 673e b1aa 60be
00000310: 50e8 16be c9d6 df3d e2db 97be e4e6 90be
00000320: 9411 0f3d dae4 78be c42c a03e 2293 a03e
00000330: bd83 9d3d 72ac 70be 9a97 3a3e a3d2 4bbe
00000340: a37c 3fbe 7d8c 023e 08c8 163e b536 88be
00000350: 90a5 913d 9b6a 763e af09 1dba f0ac 0f3e
00000360: 5396 8a3e feef 9a3e 9c6b 76be 2406 a1be
00000370: 0bcd 5e3e a04e d43d d18e 91be 5498 043e
00000380: 14d4 843d 4a92 fe3d c59c be3c 4592 843e
00000390: 4347 76be 5d12 1cbe 1dbb 8e3e 9f7f 7dbe
000003a0: bf28 2bbe 05a7 e1bc 1bd5 8fbe 914f 133e
000003b0: 1e27 9dbe a637 3e3e 6651 66be 7ff0 4c3d
000003c0: f2e0 0dbe 6ef9 5ebe 95f2 68bc 0bc6 5f3e
000003d0: 5224 e43d b9b4 9cbe d71f 1d3d b90b a9be
000003e0: ecf5 89be 6b23 a7be f4b3 08be 2767 ac3e
000003f0: 1071 6cbe 6882 90be 2baa 7ebd 28df 62bd
-0.03701704 0.30653837 -0.17615817 -0.14968742 -0.03670778 -0.25888377 0.12661307 0.055974066
-0.072161086 0.08693437 -0.009974392 0.18507405 -0.16953138 -0.017302739 0.17039482 0.19728252
-0.0008741776 -0.16188364 -0.23880528 -0.024338383 0.0785401 0.22439495 -0.11585128 0.30022824
0.06123431 0.17230885 -0.14686157 0.054888286 -0.23383915 -0.016973367 -0.21499588 -0.1785126
0.20856892 -0.14440763 0.24002087 -0.18190403 -0.19486508 -0.17641231 0.2556028 0.22375864
0.26704505 -0.051327694 0.19551025 -0.20895514 -0.007851445 -0.097271 0.24592051 -0.2362706
0.25222546 0.2601952 0.026006138 0.22703926 0.020047618 -0.2687562 -0.27074462 -0.04939023
-0.25010374 -0.14639187 0.022249635 0.3679063 -0.03547631 0.38569582 0.033463005 0.17982964
-0.21970451 -0.29008886 -0.19275819 0.13030711 -0.2173512 -0.10938026 -0.061561234 0.28034776
-0.13703991 -0.2541299 -0.2875541 0.27664542 -0.014564109 -0.0059431856 -0.10672836 -0.13690953
-0.28383586 0.019250132 0.2804107 0.057920218 -0.116939396 -0.0038955472 0.30517635 0.16349018
-0.03247813 -0.16269466 0.15956289 -0.18516795 -0.047518913 -0.022302693 0.07837111 -0.23338062
-0.07780982 -0.22601485 -0.29287457 -0.19228214 0.312434 0.24358694 -0.23457853 0.19272897
0.26772413 -0.26417673 -0.06617234 -0.26284805 0.26612833 -0.2076629 -0.12186451 0.083821595
-0.16097237 -0.15003613 -0.20095271 -0.29730767 -0.21737383 0.13125977 0.079387374 0.32622623
0.22488366 -0.13948168 0.15089536 0.30194488 -0.19984967 0.21061729 -0.047869515 0.22031154
-0.0062598274 0.26901802 0.26695153 -0.2325717 0.07985848 -0.104265474 -0.23534079 0.15264228
0.32748714 0.07142267 0.040963966 0.2630917 0.051160876 0.1753753 0.28003928 0.19645047
0.017824754 0.18024546 0.050697763 0.30580974 0.21086556 -0.04576763 -0.14754367 -0.22603378
0.27178568 0.06314006 0.19059627 -0.02842145 -0.050862383 0.2588559 0.07112243 -0.10276249
-0.20556523 -0.29633793 0.055532824 0.14907862 -0.08341969 0.31598523 -0.24413195 -0.19982247
0.16377713 0.011611685 0.04367807 -0.021084476 -0.051492997 0.13357656 0.18725769 0.33570415
0.18854818 0.00035319896 -0.126944 -0.0357568 -0.09596592 -0.15585102 -0.15718748 -0.017115993
0.07179191 -0.13963719 0.32231745 0.15319943 -0.093974695 -0.15638818 -0.27670783 0.23393284
0.04773331 -0.23935466 0.22652894 -0.21940114 -0.14737058 0.10929639 -0.29659945 -0.28301156
0.034928873 -0.2430605 0.31284153 0.31362253 0.07691143 -0.23503283 0.18221894 -0.1990457
-0.18699889 0.12748905 0.14724743 -0.26604238 0.07111657 0.24064104 -0.00059905177 0.14030814
0.27067813 0.30261225 -0.24064487 -0.31449997 0.21757905 0.10366559 -0.28429273 0.12948734
0.06485763 0.12430246 0.023268113 0.25892845 -0.24050622 -0.1524138 0.2787713 -0.24755715
-0.16714762 -0.027545461 -0.28092274 0.14385821 -0.30693907 0.18575916 -0.22491989 0.050034042
-0.13855341 -0.21774837 -0.014217992 0.21852891 0.1113974 -0.3060663 0.038360443 -0.33016756
-0.26945436 -0.3264421 -0.13349897 0.3367245 -0.23090005 -0.28224492 -0.062174004 -0.0553886
