models/85.pt (torch, 837106 bytes, 17 tensors)

weight f4 [32, 1, 3, 3]
000000 21 df 78 bd ee 1d a3 3c 2a f7 b2 3d ed 11 86 be
       -0.060759667 0.019911733 0.08738549 -0.2618555
000010 02 4e 3c 3e a9 c3 4d be 13 fb 85 3e 2c c6 6f be
       0.18389133 -0.2009417 0.26168117 -0.2341544
000020 53 d5 76 be b9 ae e3 3c 70 28 2b 3e a0 0d cb bd
       -0.24104814 0.027793275 0.16714644 -0.09914708
000030 88 56 0d be 2d 85 0b 3e 8f 52 ca 3d 9b 57 88 3e
       -0.1380254 0.13625021 0.09879028 0.26629338
000040 18 38 b9 bd 6c 0d 73 be a0 e6 4e be a4 d9 ae 3d
       -0.09043902 -0.23735589 -0.20205164 0.085376054
000050 47 92 a0 be 29 58 fd 3d 58 1d 3c 3e 68 66 68 3e
       -0.313616 0.12370331 0.18370569 0.22695315
000060 15 a8 d9 3d 1d 99 00 be b5 fd 24 be be ae 3b be
       0.10627762 -0.12558408 -0.16112407 -0.18328378
000070 c1 b2 a1 3e fd b4 67 bd 0b 2f b8 bd f6 db cc bd
       0.3158169 -0.05656909 -0.08993348 -0.10002892
000080 fe a6 81 3e 84 c9 73 3e e7 67 1f bd c5 d8 3d 3e
       0.25322717 0.23807341 -0.03891745 0.18539722
000090 16 11 a3 3e de 1b d5 bd 3a 2e d3 bd 2e 08 96 3e
       0.31848973 -0.10405706 -0.103115514 0.29303116
0000a0 5b 25 29 3e 00 b3 a3 bd cc 38 95 3e 91 30 0b 3e
       0.16518156 -0.07993126 0.29144895 0.13592745
0000b0 2c a9 c1 3c b3 fa 99 3e be a5 92 3e 11 4d 17 be
       0.023640238 0.3007408 0.28642076 -0.14775492
0000c0 29 5e 82 3d ee 2d 00 be 9b 0b 3e 3e 60 d7 0d be
       0.06365616 -0.12517521 0.18559115 -0.1385169
0000d0 57 b6 64 be e6 47 56 3e 01 73 09 be a9 3c b3 3b
       -0.22335182 0.20925865 -0.13422777 0.0054698777
0000e0 2d 29 8f 3e d9 5d 72 be 21 f6 a5 bd 28 c1 d3 3d
       0.27961102 -0.23668613 -0.08103586 0.10339576
0000f0 ec 06 fe 3d 13 61 b2 be 7b 96 43 3d 53 6b c3 3d
       0.12403664 -0.34839687 0.04775093 0.09541955
000100 82 e0 00 3e 6d 6e 55 3e 1e be 20 be e7 9e a5 3e
       0.12585643 0.20842905 -0.15697524 0.32347795
000110 d7 3e 97 3d b9 6d be bd 67 57 92 3d cc 50 34 be
       0.073850326 -0.09298272 0.07145577 -0.17608947
000120 13 28 3d be d3 e3 49 be ae bf 11 be 2f 18 47 3e
       -0.18472318 -0.19715814 -0.14233276 0.19442819
000130 49 c9 b7 bd b7 a8 70 be 46 f3 84 3e 00 6c 85 be
       -0.08973939 -0.2350186 0.25966853 -0.2605896
000140 d3 6b 8a 3c db d0 88 3e 98 90 4b 3e 24 7b 3a be
       0.016897118 0.26721844 0.19879377 -0.18211037
000150 f3 64 99 3e da a2 6c 3e c7 04 a5 3e ae 0d 01 be
       0.2995983 0.23108998 0.32230207 -0.12602875
000160 bd b1 1e bc 57 50 92 be bc b9 bb be 74 a7 86 3d
       -0.009685931 -0.2857692 -0.36665142 0.06574908
000170 7c 5d c2 bb b1 91 f4 3d ef 7b 20 be 83 b2 c6 3d
       -0.0059315544 0.11941851 -0.15672277 0.09702017
000180 04 a4 81 3e e3 e5 b7 be b9 10 45 3e 4c ec 8e 3d
       0.25320446 -0.35917577 0.1924466 0.06978664
000190 04 bc 3e bd 42 75 0f 3e 40 ae 88 3e 72 ab 82 be
       -0.046566024 0.14009574 0.26695442 -0.25521427
0001a0 b2 74 90 be ff 41 8d bd 89 02 d8 bd fc 14 05 3e
       -0.2821403 -0.068973534 -0.105473585 0.12996286
0001b0 7a 90 6e 3d 85 db 1d be 70 e6 65 be 74 08 51 3e
       0.058243252 -0.15415771 -0.22451186 0.20413381
0001c0 4d 6c 59 be 64 d4 29 3d 4c e7 1d 3e a5 ae 5e be
       -0.2123272 0.041462317 0.15420264 -0.21746309
0001d0 b0 18 81 be ea 44 97 3e 08 70 6a 3e c9 44 ab bd
       -0.25214148 0.29544765 0.22894299 -0.08362729
0001e0 67 19 69 be b8 9d 99 be e7 70 62 be d2 f8 72 3e
       -0.22763596 -0.30003142 -0.22113381 0.2372773
0001f0 70 5f 72 be 65 1e 56 be 16 f8 72 be fb ec 5d 3e
       -0.23669219 -0.20910032 -0.2372745 0.21672432
000200 3c 27 88 be af 0f 84 3e 0d 9a 40 be d6 79 91 3e
       -0.26592433 0.25793216 -0.18808766 0.28413266
000210 cf c8 78 be a0 12 40 3e 44 3d 56 be 78 fc c5 bd
       -0.24295352 0.18757105 -0.20921808 -0.09667295
000220 e8 2d 72 3e 1b cd 57 bd 08 65 6f 3e 8f b1 7d be
       0.23650324 -0.05268584 0.23378384 -0.24774764
000230 4b 80 d1 be 26 35 e1 bc cf 10 5d 3e 7c 75 0c be
       -0.40918192 -0.027491163 0.21588443 -0.13716692
000240 0d 5e 9a be 8b f4 34 3e 29 9e 06 3d 19 08 44 bc
       -0.3014988 0.1767141 0.032865677 -0.011964821
000250 ba 21 26 be 8d 24 9d be a6 81 91 3e 56 08 60 3d
       -0.16223803 -0.3069195 0.28419226 0.05469545
000260 d9 f0 1a 3d 6f 44 87 3e 7a 20 8f be ca 07 8d be
       0.037827346 0.26419398 -0.27954465 -0.27545005
000270 54 2d 28 3d 38 12 9f 3d 23 42 db 3c 13 1a 4c be
       0.041058853 0.07767147 0.026764935 -0.19931822
000280 8c 16 50 3e 10 59 89 3e cd f1 c4 3d 8a 27 9b 3e
       0.20321101 0.26825762 0.09616432 0.30303603
000290 63 69 f6 b9 f2 6a d5 3d e7 40 5e 3e f7 91 09 be
       -0.00046999296 0.10420789 0.21704446 -0.13434587
0002a0 9d db 7e 3e 45 48 57 3e af f7 b0 bd 5f 39 f6 bd
       0.24888463 0.21023662 -0.08640992 -0.120226614
0002b0 26 e8 15 be 58 15 23 be 9b 8c a6 3e 4d ac fb bd
       -0.14639339 -0.1592611 0.32529148 -0.12288723
0002c0 4f 63 2f 3e 3e f3 a0 be 76 12 c0 bd a6 9b fd 3c
       0.17127727 -0.3143558 -0.09378521 0.030958008
0002d0 3d 07 0f be 94 ea 75 be ed af 45 bd b7 a4 86 3e
       -0.13967605 -0.24015266 -0.04826348 0.26297542
0002e0 51 9d 40 3e 77 a7 8e 3e 32 9b 67 be 46 95 a2 3d
       0.18810011 0.2786214 -0.22617796 0.07938628
0002f0 77 f5 b4 3d bf 52 02 3e 70 ad fb 3d 42 9b 86 be
       0.08835881 0.12726878 0.1228894 -0.26290327
000300 72 ab ed bd 02 67 37 3e 5e 38 cb bd a0 4b a9 bd
       -0.11604966 0.17910388 -0.099228606 -0.082663774
000310 94 f7 c6 3d 76 24 89 bd 3c bc 0b 3d f1 3a a8 be
       0.097151905 -0.066964075 0.03411506 -0.3285747
000320 18 33 eb bd 89 09 f4 3d 5c 67 f8 bd 30 18 87 3d
       -0.11484355 0.11915881 -0.12129089 0.0659641
000330 29 80 8a 3e 39 9f 50 3e 9a 25 8c 3e 59 ab 22 3e
       0.27050903 0.20373239 0.27372438 0.15885676
000340 ea 7e 62 bd ef 14 18 be 5a b6 6d be 98 4b b9 3d
       -0.055296816 -0.14851736 -0.23214093 0.090476215
000350 e9 50 b3 be 4e d0 44 3e 6f e2 bf 3d 7b ce 8e bd
       -0.35022667 0.19220087 0.09369361 -0.06972977
000360 ce 3a be 3d 78 0a c7 bd 86 1a 10 be 6b 29 9b be
       0.0928856 -0.09718794 -0.14072618 -0.30305037
000370 b9 47 bb bd c1 8f be bd d1 58 05 3d 4c 17 99 3e
       -0.091445394 -0.09304763 0.032555405 0.29900587
000380 05 7b 00 be 0c 1a 6c 3e d7 0b 04 3e 96 25 fe 3c
       -0.12546928 0.23056811 0.12895142 0.031023782
000390 77 b1 85 be a2 a2 39 be dd 9b 5b 3e 48 ee 98 be
       -0.26111957 -0.18128446 0.21446176 -0.29869294
0003a0 c6 3e 42 3e 19 8b 41 be a9 5f 66 3d 82 1e 30 3e
       0.18969259 -0.18900718 0.056243572 0.17199138
0003b0 75 86 78 be 4f 3a 6c 3e 9c 38 11 3e d0 17 5c be
       -0.24270041 0.23069118 0.14181751 -0.21493459
0003c0 8e 4e b0 bb 0d 1b 7d be 45 61 0a 3d ea d1 52 3e
       -0.005380458 -0.2471735 0.03378417 0.20587888
0003d0 24 c7 0b 3e 55 c2 81 be 83 0a 5a bd d3 71 88 be
       0.13650185 -0.25343576 -0.05323268 -0.2664934
0003e0 4d ba 4a 3e 85 22 9c bd 7f 76 9a 3d 1e b0 5a be
       0.1979763 -0.076237716 0.075421326 -0.21356246
0003f0 7b 55 ed bd 2a ae 72 be d9 a8 98 be 79 75 97 3e
       -0.1158857 -0.23699251 -0.2981632 0.29581812

bias f4 [32]
000000 f3 77 d4 3d 50 9e dc 3d 24 7d d5 3d 3d 90 96 be
       0.10374441 0.10772383 0.10424259 -0.2940692
000010 91 c8 a6 3e 05 2c 54 bd 62 a3 a4 bd 48 98 64 3e
       0.32574895 -0.051799793 -0.08038975 0.22323716
000020 1b 2b b6 3e 82 12 9d bc 73 a0 83 be 0d 48 9b 3e
       0.35579762 -0.019173864 -0.2570835 0.30328408
000030 52 4b 96 3d b4 3f 7a 3e 84 9f 0b 3e c2 63 87 3e
       0.07338585 0.24438363 0.13635069 0.26443297
000040 7c 98 22 be e2 53 d0 bd 95 be 28 bd 47 23 87 3e
       -0.1587848 -0.101722494 -0.04119738 0.26394102
000050 46 5c 8e be c5 20 a5 be dd 42 43 3d 38 ff c8 3d
       -0.27804774 -0.32251564 0.047671188 0.09814304
000060 f4 65 4e 3e 15 8d 9a 3d 78 2b 6e 3d 43 7b 33 bd
       0.2015608 0.075464405 0.058146924 -0.043818723
000070 e3 67 8f be d5 78 cf bd 34 42 dd bd be 1b d9 3d
       -0.28008947 -0.10130469 -0.10803643 0.106009945

weight f4 [64, 32, 3, 3]
000000 8f a7 7a 3c 70 b4 02 bc 72 38 cd bd 2f 45 d2 bc
       0.015298738 -0.00797759 -0.10020532 -0.025667755
000010 0e 61 3e ba 44 43 84 3b 40 0c da 3b 94 63 7d bd
       -0.0007262387 0.004036339 0.0066542923 -0.061862543
000020 d5 40 e5 3b 5a 11 3e bc 18 b1 c2 bb b8 26 9d 3d
       0.006996254 -0.011600817 -0.0059415214 0.07673401
000030 9c fd 3b 3d a9 06 9a 3b a7 c1 31 bd 85 b3 88 3d
       0.045896158 0.004700501 -0.043397572 0.06674866
000040 e8 fe f9 3c 3d 59 97 3c 7a 6e dc bb fc 26 34 3c
       0.030517057 0.01847517 -0.006727037 0.010995623
000050 2b 25 54 3d 6b 4a 05 3d 17 f5 9f 3b 2c ed 8c bd
       0.05179326 0.032541674 0.004881512 -0.068811744
000060 96 70 f3 bc 83 e6 2e 3d 1c 32 6c 3d e6 39 52 3c
       -0.029716771 0.0427003 0.057664976 0.012831187
000070 e4 50 a6 bc 82 8a 1c bd c1 c6 b3 3c f7 0a 4b bd
       -0.020302244 -0.03821803 0.02194536 -0.049571004
000080 db 9a b4 bb 6f a9 21 bc 92 d0 62 3d fe d3 d0 3c
       -0.0055116243 -0.009867056 0.05537469 0.02549171
000090 a3 09 2f bb 74 14 cd 3c bb 49 5b bd a7 70 6c bd
       -0.0026708625 0.025034167 -0.05353711 -0.05772462
0000a0 d2 fc 4d bd 56 94 67 bc ed 94 42 bd a7 c2 5b bb
       -0.050289936 -0.014134487 -0.047505308 -0.003353277
0000b0 02 10 10 3d 33 e0 80 bc 7b 4e 53 3c 80 dc ae bc
       0.035171516 -0.015731907 0.012897129 -0.021345377
0000c0 28 93 f3 37 63 29 34 3d bb 8e 6c 3d b8 e4 27 3d
       2.9036382e-05 0.043984782 0.057753306 0.040989608
0000d0 9f 28 50 3d 39 bf 99 3d 66 4c 3a 3d c0 14 4a bd
       0.05081999 0.07507176 0.045483015 -0.049336195
0000e0 d5 0d c4 bb 57 d1 31 bd 30 a4 13 3d ab 91 01 bd
       -0.005983094 -0.043412533 0.036045253 -0.03163306
0000f0 85 05 4e 3b bf 9d 16 3c 60 9f 75 3d 9a bb 5b bd
       0.0031436395 0.009192883 0.059966445 -0.053645708
000100 ef 2e 24 bd 93 27 34 bc d3 b2 e4 bc 8a 4e 27 bd
       -0.040083822 -0.010995763 -0.027917301 -0.040846385
000110 54 ad be 3c 34 a3 ed 3c 6e 88 76 3c 34 6e 57 bd
       0.023276009 0.029008485 0.015047176 -0.052595332
000120 f1 29 f4 bc be 21 9b 3b c9 95 f9 bd ee c9 55 bc
       -0.029805155 0.004734247 -0.121867724 -0.013048632
000130 76 4b 26 bc aa 1f 01 be fb a7 e0 bc 74 d4 ad bd
       -0.010149827 -0.12609735 -0.02742385 -0.08487788
000140 65 57 02 be 27 8d 33 3d f1 6b a9 bc 3d 31 40 3c
       -0.12728651 0.043835785 -0.020681353 0.011730489
000150 95 76 0f 3d 7e 7d c9 bc 3d a7 da bc 9f 71 42 bd
       0.035025198 -0.024595972 -0.026691074 -0.04747164
000160 4c e0 d8 3c 1d 19 15 bd ae bf e4 bc 1c 8f c9 3b
       0.02647414 -0.036400903 -0.027923431 0.006151093
000170 9e 8a 94 3c 15 32 69 3c 32 3b dc 3c 49 e2 17 bd
       0.018132504 0.014233132 0.026883695 -0.037081037
000180 8b 50 59 bb 7b 47 6c 3c 5b 37 87 3b d5 5c 85 bc
       -0.003315958 0.014421339 0.004126472 -0.016279617
000190 9c d6 ee ba a3 d8 8b 3d cb a2 90 bb f8 db 2d 3d
       -0.0018221918 0.068284295 -0.0044139377 0.042446107
0001a0 f6 3d dd 3d 75 8b 63 3d 9e dc f9 3c d1 1b de 3d
       0.10802834 0.05555292 0.030500706 0.10845149
0001b0 14 e1 6d bd bb fa cb 3c 94 35 0b bd 33 f8 52 bd
       -0.05807598 0.024899831 -0.033986643 -0.051506232
0001c0 30 47 30 bd f3 63 1a be e8 ed dd bc c8 24 df bd
       -0.04303664 -0.1507719 -0.027090982 -0.10895687
0001d0 cd a2 11 be e7 83 80 bd e2 1c 3b bb b1 0c bb bd
       -0.1422226 -0.062751584 -0.002855115 -0.0913328
0001e0 64 92 94 3b 0c 91 26 3d 0a 42 3f bd b7 cc f3 bb
       0.0045340527 0.04066567 -0.04669384 -0.0074401754
0001f0 8b 7c bc bb ce aa 21 bd e9 e2 17 3d ff 64 85 bc
       -0.0057521514 -0.039469533 0.037081633 -0.01628351
000200 37 b7 e3 3d 8d 6c 19 3d d7 1b 34 bd 15 ae 67 3d
       0.1111893 0.037457038 -0.043971863 0.056562502
000210 4d ee bb 3c d6 95 b9 3d 2c 37 1a 3e 15 3e 03 bd
       0.02294078 0.09061782 0.15060109 -0.032041628
000220 21 8b 47 3c 14 af f2 bc c4 3f ba 3b 06 83 b1 bc
       0.012179167 -0.0296245 0.005683871 -0.021668922
000230 4b 43 83 3a aa 39 1f bc ce 12 a8 3c 04 c1 23 bd
       0.0010014562 -0.009718338 0.02051678 -0.039978996
000240 5f fd 90 3c 8b ac f0 3c 28 ff 7f 3d 0d 6e 36 3d
       0.017698942 0.02937915 0.062499195 0.044538546
000250 e6 cd 09 3c 8b c7 6b 3d c2 46 4a 3d fd 49 30 3d
       0.008410906 0.057563346 0.049383886 0.04303931
000260 ef 21 6e bc 44 cc 4a bd c3 df a6 bc ff d6 bb 3c
       -0.014534458 -0.04951121 -0.02037037 0.022929667
000270 77 4c 36 bc ea b2 46 bc 1d 97 46 bd e1 02 7a bc
       -0.011126629 -0.012127617 -0.048483957 -0.015259475
000280 f1 40 43 3d df cf 0c 3c d4 d6 4b bd cd 5d 0c 3d
       0.047669355 0.008594482 -0.049765423 0.034269143
000290 74 dd d0 3c f4 a7 bd 3c 31 0f 1d bd 67 c6 a0 bc
       0.025496222 0.023151375 -0.038344566 -0.019625856
0002a0 e6 03 9e bc 1e 2e 98 3b 98 1a 3a 3c 3a 74 15 bd
       -0.019288968 0.0046441695 0.0113588795 -0.036487795
0002b0 30 0a bb bc e2 85 f4 3c 17 80 eb bc 31 50 1f 3c
       -0.022832006 0.029848997 -0.028747601 0.009723709
0002c0 dc 2a 17 bd 40 a6 92 bc 8f e7 5d 3d 4b 83 e4 3c
       -0.03690611 -0.01790154 0.05417591 0.027894637
0002d0 ba e7 11 bd ba 59 ee bc 7f a1 83 3d 74 ac 94 bb
       -0.035621382 -0.02909552 0.06427287 -0.0045371596
0002e0 ae 9c c8 bc 7b 6d 92 bc 0b b4 cd 3c 10 5f 72 bd
       -0.024488773 -0.01787447 0.025110265 -0.05917269
0002f0 b5 45 fc bc cb 04 7c 3c b2 b9 99 3c 56 0b 7c ba
       -0.030794958 0.015382002 0.018765304 -0.00096147263
000300 d8 4b 45 bd 67 23 4d bd a5 98 e7 bc f6 61 d6 3c
       -0.048168033 -0.05008259 -0.028271029 0.026169758
000310 27 3d f7 bc 45 aa 74 3d ed 0f 58 3d f6 55 32 bd
       -0.030180527 0.059732694 0.052749563 -0.04353901
000320 15 fd 4f bc 7c 8a 12 3d 47 de 2f 3d 1f 07 d9 3c
       -0.012694617 0.0357766 0.04293659 0.026492653
000330 02 43 38 3b 90 82 65 3d 77 88 0a bd 82 d1 eb 3c
       0.0028116112 0.056032717 -0.03382155 0.028786425
000340 18 22 dc bc 81 43 a0 bd 2d 3f fa 3c 51 5e 0d 3d
       -0.026871726 -0.07825375 0.030547703 0.034513775
000350 38 58 3b bd 61 c7 23 b9 52 c2 8c 3c cc a1 26 3c
       -0.04573843 -0.00015619166 0.017182503 0.010170411
000360 d0 88 cc 3c ba 00 98 bd a9 b6 2e bd db 14 7d bd
       0.024967581 -0.074220136 -0.042654667 -0.061787467
000370 28 e4 ab bc 90 eb 5d bb ba 94 38 3d d6 83 7d bc
       -0.020982817 -0.003386233 0.04506371 -0.015473327
000380 5a f9 eb 3d cf 8e eb 3c ef 31 10 bd 5d 45 8f 3c
       0.115221694 0.02875462 -0.03520387 0.01748913
000390 c1 88 0e bd 37 b8 9b 3a 6c 22 9e 3d b0 16 aa 3d
       -0.034798387 0.0011880462 0.07721409 0.083051085
0003a0 5c 6f 8d 3c 68 3e 4f 3c 90 da 06 bd 1d dd 11 bd
       0.017265014 0.012649156 -0.03292328 -0.03561126
0003b0 5c 61 bf 3b b3 e1 42 bd 37 40 ff bc 10 ab 78 3d
       0.0058404636 -0.047578525 -0.03115855 0.060710013
0003c0 1a f6 48 bc 69 c5 66 bc 8a c0 58 3d bb 00 07 3c
       -0.012265706 -0.014085152 0.052917995 0.00823992
0003d0 1c 74 5f 3d bd e4 0d 3e cc c1 d0 3c d1 05 da 3c
       0.05455409 0.13856788 0.025483035 0.026614102
0003e0 a9 1b 64 bc 24 ba 85 3d 85 ca 53 3c 8c 61 ef 3d
       -0.01392261 0.06529644 0.012926702 0.116885275
0003f0 99 16 5e 3d 7f 85 3b 3c b3 71 06 3d 08 10 19 bd
       0.05422077 0.011445402 0.032823276 -0.037368804

bias f4 [64]
000000 50 ac 00 3c f3 22 df 3d 9a c0 b1 3d e0 91 04 be
       0.0078535825 0.10895338 0.08679314 -0.12946272
000010 d4 7f 79 3c 55 6f 4e 3c a9 fc 6e bd e7 fa 62 bd
       0.0152282305 0.012599786 -0.058346424 -0.05541506
000020 f3 a6 49 be 2c a2 b8 3e 03 6a b9 3d 0f 40 82 3e
       -0.19692592 0.36061227 0.09053423 0.25439498
000030 f1 85 83 be 5f 54 87 3d d6 03 18 3d e0 7f b6 3e
       -0.25688127 0.066078894 0.037113033 0.35644436
000040 8b 10 08 3e 4a dc a8 3e 57 a1 8e bb c4 42 42 3b
       0.1328756 0.32980567 -0.0043527293 0.0029641846
000050 ed ba 22 bd f8 d4 61 bd d7 c9 bb bd 8b dd 03 3e
       -0.039729048 -0.055134743 -0.09169357 0.1287748
000060 35 e0 18 be 29 4b 22 3e 4e 50 98 3d 16 24 ac bc
       -0.14929278 0.15848984 0.07437192 -0.0210133
000070 4f b9 4c 3e 2a 33 08 be f8 02 1f 3e 50 30 65 3e
       0.19992565 -0.13300768 0.15528476 0.22381711
000080 82 29 60 3d 1b 5f 61 bd 9d e5 77 bb f4 d2 a2 be
       0.054727085 -0.05502234 -0.003782607 -0.3180157
000090 cb b5 56 3d cc 1f 90 bb a5 12 10 3e 51 57 1f 3e
       0.052419465 -0.0043983217 0.14069612 0.15560652
0000a0 9e b5 93 3d 9b eb 0a be fb cf e1 bc f2 6f cf 3c
       0.07212375 -0.13566439 -0.027564993 0.025321934
0000b0 bf 96 08 3c 18 c5 c3 3d 59 77 31 bd 53 76 92 bd
       0.008336722 0.09559077 -0.04332671 -0.07151475
0000c0 89 3e 36 be c6 c2 80 3e 92 5e cc bc 74 a6 53 3d
       -0.17797293 0.251486 -0.024947438 0.051672414
0000d0 d0 0e ac 3c a7 70 67 3d 0a 2a f8 3d 97 a7 5d 3b
       0.021003157 0.056503918 0.12117393 0.0033821815
0000e0 77 c3 27 bd 3f 29 76 3e 29 4e 08 bc cf b1 d1 bc
       -0.040957894 0.24039172 -0.008319416 -0.025597481
0000f0 9b 24 9c bd 70 a0 5b 3d fd fd 4f be 46 ff 8a 3d
       -0.076241694 0.053619802 -0.20311733 0.06786971

weight f4 [128, 64, 3, 3]
000000 2f 27 b4 bd 7f c1 05 bc 54 ec 99 bc 45 10 2b bd
       -0.08796536 -0.008163809 -0.018789448 -0.041763563
000010 23 ef b1 bc ec 7e 2e bd fd c0 b1 bd 6d c6 e6 3b
       -0.021720475 -0.04260151 -0.08679388 0.007042697
000020 ca 28 a6 3b cb f8 4a bd ba 91 9b bc 21 1c 07 3d
       0.0050707804 -0.049553674 -0.018990386 0.03298581
000030 1d 95 0b bd b1 71 20 bd a6 f2 0d bd 42 4e 29 bd
       -0.034077752 -0.039170925 -0.034655236 -0.041334398
000040 0f 10 24 3c aa 6d f2 3b 98 8e 3e bd 7f 98 1d bd
       0.010013594 0.007398327 -0.046522707 -0.03847551
000050 ee da 2a 3d 1e 9c db bb 6a 15 e4 bc 38 c5 e9 3b
       0.041712694 -0.00670196 -0.027842242 0.007134106
000060 64 a1 6f 3c bd 00 9c 3c 67 07 32 bd a1 c8 32 3d
       0.014625881 0.01904332 -0.04346409 0.043648366
000070 d6 d6 b7 3c a6 db 94 3c 35 90 13 3d cd 1d 65 3c
       0.022441309 0.018171143 0.0360262 0.013984156
000080 0f 15 c8 bc 04 c5 09 bd 11 a9 7b 3d 72 98 3f 3d
       -0.024424104 -0.033635154 0.06144053 0.046776243
000090 af 00 d2 bb 32 af ac bb 7b dc c3 bc 17 a7 0e bd
       -0.006408773 -0.0052699083 -0.023908844 -0.034827318
0000a0 d5 28 11 3d a2 04 36 3d a8 a2 e0 3b a0 32 c5 bc
       0.03543933 0.044438012 0.0068553276 -0.024071991
0000b0 88 dc 46 3d ee 68 d1 3b 4a 25 42 3d 12 8c 00 bd
       0.04855016 0.0063906824 0.047398843 -0.03138358
0000c0 61 48 12 bc b9 be 35 3d 8d df 2b bc a6 18 e0 3c
       -0.008928389 0.04437134 -0.01049031 0.027355503
0000d0 61 fd 74 3d 27 c2 c8 bc 7c 5c 40 3c 41 a1 40 bc
       0.059811953 -0.024506642 0.0117408 -0.011757196
0000e0 79 3e 50 bc 79 50 bb bc 29 c4 2f bd 31 e3 8e bb
       -0.012710207 -0.02286552 -0.042911682 -0.0043605794
0000f0 d1 c9 1a 3d 42 a5 1e 3c ce 8a 93 3d 33 70 3e 3d
       0.037790123 0.009682955 0.07204209 0.04649372
000100 5d b9 15 3d f7 8a c3 3c d8 19 cd ba cc ce 2a 3d
       0.03655373 0.023869975 -0.0015647961 0.041701123
000110 36 49 32 bc a8 c2 a6 3c 5e 62 80 3d 1c af 40 bd
       -0.010881713 0.020356491 0.06268762 -0.047041997
000120 4c e6 76 bd 1b 3d dd 3c af 1f ee 3b f5 cd 9c bd
       -0.060278222 0.027006676 0.0072669606 -0.07656471
000130 80 a3 a0 bd 70 99 1b 3d c0 17 c0 bd 5f 4c 3e bc
       -0.07843685 0.037988126 -0.0937953 -0.011614888
000140 75 44 88 3d 67 2a a5 bd 89 21 84 3b 68 b2 54 3c
       0.06653682 -0.08064728 0.004032318 0.0129819885
000150 ae a8 2e bd ab 2c 55 3d 73 80 02 3c 8e 70 13 bd
       -0.042641334 0.05204455 0.007965195 -0.035996012
000160 0d e4 2d bd ac 67 46 bd 4b 69 40 bc 5c 9e bf bc
       -0.042453814 -0.048438713 -0.011743854 -0.023390941
000170 f7 e0 0d bd 74 ab 2a bd dc d8 6c bd 8c 5b 61 bd
       -0.03463837 -0.041667417 -0.057824 -0.055018947
000180 8a 48 ff bd 83 37 46 bd 07 bb 58 bd 21 0b 53 bd
       -0.124650076 -0.048392784 -0.05291274 -0.051524285
000190 41 ae 20 bd 83 cf 69 bc e0 3d 83 bd 1c 44 d1 3c
       -0.03922868 -0.014270666 -0.06408286 0.025545172
0001a0 f6 72 4e bd 61 2e b3 bd 29 25 01 3b b8 b2 2e bc
       -0.050402604 -0.087490804 0.0019705987 -0.010662727
0001b0 35 c2 15 3d 17 11 37 3c 1a b4 0f bd 99 fb d3 bb
       0.036562163 0.011173508 -0.035083868 -0.0064692018
0001c0 3e 66 c5 3c aa 86 a4 3c 0f fd e5 bc e9 46 f0 3b
       0.024096604 0.020083744 -0.02807477 0.007332672
0001d0 e4 ca ab 3c 9c a1 8f 3d 9a 6a 6f 3c 60 6e 2e bd
       0.02097077 0.070132464 0.014612818 -0.04258573
0001e0 64 20 6b 3d 67 41 c0 3c ec 1f 44 bc 4a 30 a8 3d
       0.057403937 0.023468686 -0.011970501 0.082123354
0001f0 9e 83 3f 3d f8 e6 9a 3d 27 03 16 bc d5 77 26 3c
       0.04675638 0.07563585 -0.009156025 0.010160406
000200 84 8c 38 3d f6 5c ed 3c 3a 31 97 3c 2a 1e 42 3c
       0.04505588 0.028974991 0.01845609 0.011848012
000210 3a 38 5c 3c 1b 25 2a bb db 74 d2 3c d5 67 c2 3c
       0.01344114 -0.0025962058 0.025690487 0.023731152
000220 7d 61 30 bd 45 9b e0 b8 f1 b9 6a bd 64 2f 63 bd
       -0.043061722 -0.000107100735 -0.057306234 -0.055465117
000230 4e 7f 3a bd 7e 9a 24 bd 8d 99 8f bc 50 d3 3b 3c
       -0.045531563 -0.040186398 -0.017529273 0.011463955
000240 5c a4 8b bd bb ad 8f bc d3 28 9b 3c c4 ee 31 3d
       -0.068184584 -0.017538896 0.018940365 0.043440595
000250 62 23 ff bb 10 a6 22 3d ad 9e 5c bd 9f f6 ec bc
       -0.0077862004 0.03970915 -0.053862263 -0.028926192
000260 fe d0 03 3d e6 2b 7f bd 6e d2 4a bc 59 cc 7d 3b
       0.032181732 -0.062297724 -0.012379272 0.0038726537
000270 95 87 9c 3c e7 a0 48 3c 5c 30 ae 3c 4c b7 15 bd
       0.01910762 0.012245393 0.021263294 -0.03655176
000280 e0 f9 c1 bb c2 8c 79 3c 33 b3 67 3a b8 d2 df 3c
       -0.00591968 0.015231313 0.00088386534 0.027322158
000290 d2 ab c2 3c 61 2d 54 bd 0e 79 96 b9 75 12 0c 3c
       0.023763571 -0.05180109 -0.00028700422 0.008549322
0002a0 10 41 13 bd 82 07 7f bc a5 49 c1 bb d9 5b 75 bd
       -0.03595072 -0.015565755 -0.0058986717 -0.059902046
0002b0 9c 52 1c bd 11 6d 9d bd a3 1a 05 bd c4 4d 7c b9
       -0.03816472 -0.076868184 -0.032496106 -0.00024061563
0002c0 9b 6a cd bc 44 b8 b9 bd 15 af 7f bc 51 e4 32 bd
       -0.025075248 -0.09068349 -0.015605708 -0.04367477
0002d0 b2 23 e1 bb bd b1 26 bd 23 b2 89 3c 35 74 bc bc
       -0.0068707103 -0.04069685 0.016808575 -0.02300463
0002e0 7f 67 0c bd d2 29 5d 3c 0d e4 43 bb 91 21 3c bd
       -0.03427839 0.01349874 -0.0029890568 -0.04593045
0002f0 0e c0 be bb 4c 60 b2 3c cb da 73 3c b3 88 2a 3d
       -0.0058212345 0.021774434 0.014883707 0.041634273
000300 3c 55 86 bc af 4f 9d bc 01 97 53 bc cf 8c 06 bd
       -0.016398065 -0.019203035 -0.01291442 -0.03284913
000310 73 17 94 bc 10 8c 3c 3d 10 0c 5e 3d 11 ad f1 3c
       -0.018077588 0.04603201 0.054210722 0.02950147
000320 bc b6 e3 3d 07 3c 99 bc a4 fb 91 3b 50 22 64 3d
       0.11118838 -0.018705381 0.0044550467 0.055696785
000330 c1 e8 bb 3a f4 2f ef bc 0b 4f 1c 3d af be 92 bd
       0.0014336334 -0.02919767 0.03816132 -0.07165276
000340 bd 60 56 3c 87 23 4c 3c e4 68 07 bd f4 ea 2b bd
       0.013084588 0.012459642 -0.033059016 -0.041972116
000350 14 9c f4 bb f7 f8 2e 3d c3 76 2c 3c f7 33 76 3c
       -0.007464895 0.0427179 0.010526362 0.015027038
000360 9d 8f 02 bd 12 87 00 bc 10 66 bd 3d c3 7b 65 bd
       -0.03187524 -0.007844703 0.092479825 -0.05602623
000370 86 6c 47 3d e4 e4 52 3d 2c 8a a9 3c 1c b8 4b 3c
       0.04868748 0.05148782 0.020695768 0.012434032
000380 7e 2c 1a 3d c5 bc a2 3b f6 41 5f bc 6c f1 86 3d
       0.037640087 0.0049663507 -0.013626566 0.06589016
000390 c4 c2 08 bd e6 26 e2 bc a9 c6 03 bd 78 ee 6e bc
       -0.033388868 -0.027606439 -0.03217188 -0.014583223
0003a0 f6 03 b4 bc 69 48 fa bb 05 d4 fc bb 19 1e 9c bc
       -0.021974545 -0.0076380265 -0.0077157044 -0.01905732
0003b0 f9 4c 33 bd 41 a7 15 bd 84 a7 74 bc ea b1 8a 3b
       -0.04377458 -0.03653646 -0.014932517 0.004232635
0003c0 3f ec 96 bb 58 da e2 3c ac ec 53 3c 4e 3a b0 bc
       -0.0046057994 0.027692005 0.012934845 -0.021512177
0003d0 33 b4 03 3d ea 91 21 b9 1c fb 04 bd ff a9 4d 3c
       0.032154273 -0.00015408514 -0.03246604 0.012552737
0003e0 af e1 94 ba d7 3b 66 bc 24 db 84 3c 8e fd 8f bc
       -0.0011358763 -0.014052353 0.016217776 -0.017576959
0003f0 1e 80 ea 3c a1 21 2d bc 92 5e 18 3b 33 83 b4 bc
       0.028625544 -0.0105671 0.0023249728 -0.022035217

bias f4 [128]
000000 ad 39 39 bd 39 77 82 3d ad 37 b4 3b 8c 74 d7 3c
       -0.04522102 0.06370396 0.005499801 0.026300691
000010 fd 6a b5 bd 3f 5e 97 bd db d3 84 bd 0b f9 62 bc
       -0.08858297 -0.07391023 -0.06485721 -0.013853322
000020 22 cb 35 3d 4b b1 c2 3d ba 3e 8f 3d 9c 88 9d be
       0.044383176 0.09506472 0.06994386 -0.30768287
000030 3b 7d 32 be 06 38 ac bd 0b 0b b4 3c 4b e1 61 bd
       -0.17430584 -0.08409123 0.021977922 -0.055146497
000040 3f e6 bb 3d e3 9a 8e bd 30 dc 91 bd 3d 0f 42 bd
       0.09174775 -0.06963136 -0.071220756 -0.047377814
000050 18 1c 32 bd df 74 03 bd 1c 0b 98 3d 12 ca 08 be
       -0.043483824 -0.03209388 0.07423994 -0.13358334
000060 98 57 b3 be 86 71 01 3e 07 7a d3 bd 87 43 9e bc
       -0.35027766 0.12640962 -0.10326009 -0.019319309
000070 1b 45 08 3e 51 28 b9 be 02 99 c0 bd 7a b4 0c be
       0.13307612 -0.3616357 -0.09404184 -0.13740721
000080 9b d8 d9 bc b6 d7 0f bd fb e5 30 be 22 d2 54 bd
       -0.026592543 -0.035117827 -0.1727523 -0.05195821
000090 fc 90 1a 3d a2 57 a8 be fc 0c 23 3e 02 1a 8e 3d
       0.037735924 -0.3287936 0.15922922 0.06938554
0000a0 40 d5 59 3e c7 46 88 3d 73 2e fa bc a2 d5 9d bd
       0.21272755 0.06654125 -0.030539727 -0.07706763
0000b0 3d 81 90 3d 66 e7 29 3e 70 26 06 bd 82 08 f7 bd
       0.070559 0.16592178 -0.0327515 -0.120621696
0000c0 16 92 d0 bd 49 b7 4c be 36 fb 9f 3d ee 67 7c 3d
       -0.10184114 -0.19991793 0.078115866 0.061622553
0000d0 1e 4d 67 bd c8 a3 f0 bc ab 5f d6 3c c6 78 91 3d
       -0.05647003 -0.029374972 0.026168665 0.07103114
0000e0 50 4f 3b 3e a5 9b f2 bc fb 42 33 3e c1 7f f8 bc
       0.18291974 -0.029615233 0.1750602 -0.030334355
0000f0 2d 00 93 3e 71 59 6f bd d8 7e a9 3c db 5b 32 bd
       0.28711072 -0.058434907 0.020690367 -0.04354463
000100 54 76 fe bc 38 b9 d7 3d cd 53 80 3d 9d fe 1e bd
       -0.031062283 0.105333745 0.06265984 -0.038817037
000110 12 cb b7 bc 51 c8 8d bc 67 ad cf 3b 95 b8 96 bd
       -0.022435699 -0.017307432 0.00633781 -0.07359425
000120 39 93 99 bd 95 e9 80 3d 84 4e cd 3c 96 b0 83 bd
       -0.074987836 0.06294552 0.025061853 -0.064301655
000130 22 9a 70 3d da cc 30 3e 7e 9d f0 3c b4 58 3f 3d
       0.058740743 0.17265645 0.029371973 0.046715453
000140 47 6c 18 3d 59 60 02 3d f4 24 2c 3d cb 49 90 bd
       0.037212636 0.031830166 0.04202743 -0.07045325
000150 f1 ca f1 bd 82 55 33 3d 32 c6 a8 3d e3 dc 63 bc
       -0.11806286 0.04378272 0.08240928 -0.013907644
000160 37 1d 84 bd b5 36 c4 bd 01 3e 7f 3d 82 0c 36 bd
       -0.06450885 -0.09580747 0.06231499 -0.044445522
000170 fe 68 87 3b e7 c5 1d bd 5b 70 97 be 2f 86 18 3b
       0.004132389 -0.038518813 -0.29577908 0.002327334
000180 8c 5e 89 3c 50 49 ac bb 47 67 5a 3d 40 a7 0d be
       0.016768716 -0.005257763 0.05332115 -0.13833332
000190 9a 20 ad be a8 73 53 3c e5 db 0f 3d f5 48 8a 3a
       -0.33813936 0.012905993 0.035121817 0.0010550307
0001a0 ee a4 a6 be 55 0e 15 3e b3 9f d8 bc 8d 26 75 3e
       -0.32547706 0.14556248 -0.026443338 0.23940487
0001b0 3f 84 a8 bd d3 ff 4c 3d f4 00 0f be 25 0e c3 3d
       -0.08228349 0.05004866 -0.13965207 0.09524182
0001c0 76 d8 db bd 86 3d fe bc fb cb 17 be 68 e7 b7 be
       -0.10734646 -0.031035196 -0.14823906 -0.35918736
0001d0 f8 a3 06 3e d4 f9 05 3d 5d 61 1b 3d ba ee 0e 3d
       0.13148487 0.032708958 0.03793465 0.034895636
0001e0 af 6d a2 3d 2d bb 04 3d 2f 34 d5 3e c6 e6 5e 3d
       0.07931077 0.032405067 0.41641375 0.0544193
0001f0 5b 3b 74 3c 9f d5 fd bd 3e 39 2c 3d 48 c0 d9 bb
       0.01490673 -0.123942606 0.042046778 -0.006645236

weight f4 [128, 64, 3, 3]
000000 ce 22 d2 3c 31 47 20 bd 44 16 07 bc 54 ca 2d 3c
       0.025651362 -0.039130393 -0.008245055 0.010607321
000010 7d 39 c0 3b 11 c1 7f 3c 9c 89 b0 bb 66 d4 fe 3b
       0.005866228 0.015609995 -0.005387498 0.0077767847
000020 9e dc 96 bc da fc 8e 3c cb dd a7 bc 75 72 24 bc
       -0.018415745 0.017454553 -0.020491501 -0.010037054
000030 69 db e5 3c 3c 38 a2 bc ff eb d4 3c ac 51 2b bd
       0.028058724 -0.019802205 0.025991438 -0.041825935
000040 7b 1d a8 bb bf 33 b2 3c 1a a8 d7 bc 7d 0f 36 bd
       -0.0051304675 0.02175319 -0.026325274 -0.044448365
000050 86 fa e2 bc 30 b6 19 3c 7a 2f ee bc 8d 36 6b bc
       -0.02770735 0.009381816 -0.029075373 -0.014356268
000060 1b 5c 55 bd 3f 0e a1 bc 45 5c 17 bd 29 b5 82 bc
       -0.05208979 -0.019660113 -0.03695323 -0.015955525
000070 c3 d4 26 bc 9b da d5 39 2b fe e7 3b cc 66 1e bd
       -0.010182562 0.000407894 0.0070798597 -0.038672253
000080 4f de 3b bd 8f f3 08 3c 4d 47 a0 3c 46 f8 15 3d
       -0.045866307 0.00835885 0.019565249 0.036613725
000090 f0 97 d3 3b 67 8e 03 bc 2f 27 24 3d 1d eb 44 3d
       0.0064573213 -0.008029557 0.04007643 0.048075784
0000a0 18 11 63 bc 66 74 21 3c 13 ad 37 bc a4 a7 fd bc
       -0.013859056 0.009854412 -0.011210698 -0.030963726
0000b0 39 ad 28 bd 35 25 86 3b 81 b6 f6 3c 61 76 ef bc
       -0.041180823 0.004093791 0.030116322 -0.029231252
0000c0 a2 d6 5d bc 2a 96 8a 3b 46 70 3a bd ca 0e ae 3c
       -0.013539942 0.0042293267 -0.04551723 0.021247286
0000d0 c5 ac cc 3c ab 58 9c bc 9e 2c 05 bc bf 5f b0 ba
       0.024984727 -0.019085249 -0.008128313 -0.0013456269
0000e0 9f 8c f8 bc 6c 9a c2 3c e4 a6 12 3c 77 15 43 3d
       -0.03034049 0.023755275 0.008950923 0.047627892
0000f0 27 d4 b1 bd 42 16 5a 3a 1c 0f 81 bc fc df 01 bd
       -0.08683043 0.0008319357 -0.015754275 -0.03170775
000100 ba 47 48 bc 46 49 26 bd 54 e4 d2 3b 0d f1 d6 bc
       -0.012224132 -0.040597223 0.0064359102 -0.026237989
000110 ad 35 3f bc 6c 89 df 3c 34 da c8 3c 76 ea 7b 3c
       -0.011670512 0.027287208 0.02451811 0.015375724
000120 ef 3a 6b bc 5c eb 0b 3d f5 dc 10 3d c8 96 f6 3c
       -0.014357313 0.034160003 0.03536697 0.030101195
000130 6d 96 f9 3b f2 f6 25 bd 74 b5 e8 3c b0 3c cf 3c
       0.007616809 -0.04051871 0.028406836 0.025297493
000140 fa cd 40 bc b5 51 32 bd b2 15 91 3c 99 bf 4a bc
       -0.011767859 -0.043534953 0.01771054 -0.012374782
000150 1b 33 96 bc 54 ff be bc 34 53 89 bb d0 4e 28 bc
       -0.018334916 -0.02331511 -0.004190827 -0.010272697
000160 0f 88 5a 3d d8 5f bc 3b f7 ce 3a 3d bd 90 30 3d
       0.05335241 0.00574873 0.045607533 0.043106783
000170 1f 79 64 bc f7 92 24 bd 30 90 98 3c 7b 40 dd bc
       -0.013944893 -0.04017922 0.018623441 -0.027008286
000180 c5 ff 2c 3d ed 5e be 3d 2b e7 d4 3d 6f 78 00 bd
       0.04223611 0.092954494 0.10395654 -0.031364854
000190 01 da ca bc 42 f3 56 bb 99 1a 0c bd 76 7f f3 bc
       -0.024762155 -0.0032798802 -0.034205053 -0.029723864
0001a0 11 61 4d bc b0 d4 5b bd 98 d2 89 bd eb 1d 3e 3c
       -0.0125353495 -0.05366963 -0.06729621 0.011603813
0001b0 7c 49 9d bc 93 d8 06 bd e4 60 99 3c e7 2e 33 bd
       -0.01920008 -0.032921385 0.018722959 -0.0437459
0001c0 4d 52 bf 3c c1 db 36 bd 87 cd 93 3c bf 3a eb bc
       0.023354674 -0.044643167 0.018042339 -0.028714536
0001d0 f0 47 bc bc c9 27 28 3d 42 7a 74 3d e6 f2 36 3d
       -0.022983521 0.041053567 0.059686907 0.04466524
0001e0 7d 41 1c 3c cc 5a 48 3d 51 64 c8 3c 1b 96 03 3d
       0.009537098 0.048914716 0.024461897 0.032125574
0001f0 38 8a 92 3b fa 63 2c 3d a8 a8 7c 3c 96 55 30 bd
       0.0044720434 0.042087533 0.01542107 -0.04305037
000200 36 d5 c0 bb 5f db a9 3b 84 c2 bf 3c 6e 67 9e bc
       -0.0058847917 0.005183622 0.023408182 -0.019336428
000210 2e 41 a1 3d 18 ea 94 3d 47 2c de 3d 42 69 23 bc
       0.0787376 0.07271212 0.10848289 -0.009973826
000220 52 2e 36 3c 6b 9b 06 3b da 14 16 3b 59 6d 12 bc
       0.011119442 0.0020539414 0.0022900612 -0.008937203
000230 98 cb 7c bc 5c e1 4b bd 60 a3 1f bd 92 99 30 3d
       -0.0154294 -0.049775466 -0.038974166 0.043115206
000240 fb 8d 2a 3d 7f ef 15 3c 2b 32 21 bd 69 a2 35 3d
       0.04163931 0.009151339 -0.039354485 0.04434434
000250 22 f9 6e bb 64 aa 80 3c 5d 21 5b 3d 16 75 e1 bc
       -0.0036464413 0.015706249 0.053498615 -0.027521651
000260 21 dc 80 bc 87 a8 e7 bc b3 7b e2 bc e2 7e ed 3c
       -0.015729966 -0.028278602 -0.027646875 0.028991167
000270 73 51 ae 3b d7 58 6d bc de 7c 21 bd b7 dc af 3c
       0.005319768 -0.014486513 -0.039425723 0.02146755
000280 f2 e9 fe 3b 9d ba 87 bc cf cc 09 bd d9 2c 0a bd
       0.0077793533 -0.016568476 -0.033642586 -0.033734176
000290 7e 5a f6 bd 66 53 24 ba d7 8b 74 bd a9 48 a7 bd
       -0.12028979 -0.0006268531 -0.059703674 -0.08168156
0002a0 3d 41 6b bd 56 79 83 bd c8 b9 bc bd 65 ba 33 3c
       -0.057435263 -0.06419627 -0.092151225 0.010969733
0002b0 2a 2d c9 bb ab de 12 3b 56 3d 5c 3d 73 6f 73 3d
       -0.006139417 0.0022410552 0.053769432 0.059432458
0002c0 ba 36 f9 3c ae dd 0c bd 5e 14 39 3c 31 f7 26 3d
       0.030421603 -0.034391098 0.01129636 0.040763084
0002d0 3f 4c 6a bc 3f 81 04 3d 62 1c 85 3c 28 79 e3 bc
       -0.014300405 0.03234982 0.016248886 -0.027767733
0002e0 c4 07 52 3d 18 5b a6 3a e7 13 85 bd bb 8f 61 3d
       0.051276937 0.0012691943 -0.06497937 0.055068713
0002f0 dd cc e1 bb a7 15 b3 3a 58 1e 10 bc 63 67 bb bc
       -0.0068908767 0.0013663069 -0.008796297 -0.022876447
000300 75 bd 99 b9 b1 ab 2d bd b1 06 dd bc 6c f3 99 3c
       -0.0002932359 -0.042400066 -0.02698073 0.01879283
000310 56 d4 b6 bc f8 07 2f bb dd 2e 80 bb 96 07 8b bb
       -0.022318047 -0.002670763 -0.0039118365 -0.0042428477
000320 c6 f4 0d 3c fe 90 1a bd 9e d6 17 bd 97 28 fa bc
       0.008664316 -0.03773593 -0.03706991 -0.030536933
000330 25 00 54 3d 3e 58 8e 3c f8 f1 45 3d d2 05 1a bd
       0.05175795 0.017376062 0.048326463 -0.037603207
000340 74 7e 46 3d e3 a2 b5 3d 4f dd 1c 3b e3 14 6d bc
       0.04846044 0.08868959 0.002393562 -0.014470312
000350 fd c8 9e 3c cc d2 ae 3d 01 ae 15 3c 90 32 48 3d
       0.019382948 0.085363 0.009135724 0.048876345
000360 5b 16 03 3d 7d b9 2b 3d 28 4a 92 3d 80 49 8f 3d
       0.03200374 0.041924942 0.071430504 0.06996441
000370 8d ca 2e 3d e7 b9 67 3d ae d9 d8 3c 4c 78 49 3d
       0.042673636 0.056573775 0.026470985 0.04918699
000380 d9 d0 c2 3c 7d 0f 09 be b2 0c a9 bc db 3f a4 3d
       0.023781227 -0.13384815 -0.020635936 0.08019992
000390 89 03 80 3c 37 c0 21 bd 50 69 01 3e 23 3a 6f bd
       0.015626686 -0.03948995 0.1263783 -0.058405053
0003a0 a8 33 52 3d 4c 20 22 3d 86 53 0a ba 14 57 99 bd
       0.051318794 0.039581582 -0.0005276728 -0.07487312
0003b0 3e 41 7c bc 49 c9 37 3c 16 76 c7 3c ee c0 73 bc
       -0.015396414 0.011217424 0.0243483 -0.014877541
0003c0 c9 61 7f bd ea c6 45 bd 6b da 51 bd ca de 56 bc
       -0.062349115 -0.048285402 -0.05123369 -0.0131146405
0003d0 ab 41 93 bd ba 7a 06 be e9 dc c4 3c fc 98 57 bc
       -0.071902595 -0.13132754 0.02403112 -0.013159033
0003e0 4c b3 a3 bd 44 16 d0 3c 46 66 87 bc 9b 4c 96 bd
       -0.079931825 0.025401242 -0.01652826 -0.0733883
0003f0 5e a0 62 bc c2 fa 86 bc cf e7 0d 3d a5 2a 43 bd
       -0.01383218 -0.016476993 0.034644898 -0.04764809

bias f4 [64]
000000 1a 22 56 3d c8 ae 77 3d c3 16 97 3e 67 39 53 3b
       0.052278616 0.06046942 0.29509553 0.003223026
000010 e5 a3 82 bd 6c 33 f2 3c 33 53 83 3b b9 bf 49 3d
       -0.06378917 0.029565535 0.004007721 0.049255107
000020 1f 86 24 3d e3 97 cd 3c 4c 82 49 3c 88 df 96 3d
       0.04016697 0.02509684 0.012299132 0.07366854
000030 2d 6d 80 3d 6d 9f 30 bd a8 9c 30 be f4 e7 6f 3e
       0.06270824 -0.04312079 -0.1724726 0.23428327
000040 72 61 a9 3d 00 6e 9d 3d c8 31 cb 3c 72 75 d9 3c
       0.08270539 0.076869965 0.024804011 0.02654526
000050 60 e4 eb 3c c3 de 2b 3e 41 53 99 3d e7 94 5c bd
       0.028795421 0.16784196 0.074865825 -0.05385294
000060 3f 7c 69 bd 50 ac 48 bd 60 73 52 3e c5 e4 9b 3d
       -0.057003256 -0.048992455 0.20551825 0.07611994
000070 2e 0f 08 bd eb 2f 85 3e 63 03 d7 3b 7f e5 b1 3c
       -0.0332176 0.2601312 0.006561683 0.021715878
000080 17 0f d8 bb 1c 3e a4 3c a4 26 23 3d 67 65 5c 3d
       -0.0065935957 0.020049147 0.039831772 0.053807642
000090 58 55 5d 3c 09 fa 18 3b 83 f2 29 3c 22 84 41 3c
       0.013509117 0.0023342392 0.010372761 0.011811288
0000a0 0e f5 cc 3d 81 1c 3e 3e 45 4f 91 3d ba f8 53 3d
       0.10007678 0.18565561 0.070951976 0.051750876
0000b0 95 09 7d bd 54 09 46 3d 4c db b2 bc 23 7a 03 3e
       -0.061776716 0.04834874 -0.021833085 0.1283956
0000c0 89 58 ad 3e 8c 46 81 3d 99 a1 31 3b ef 87 3c 3c
       0.3385661 0.06312284 0.0027104376 0.0115070185
0000d0 c2 83 49 3e c4 cf b9 3d 28 d1 97 bc 1f 0f b8 3c
       0.19679168 0.09072831 -0.01853235 0.022468148
0000e0 a6 de 2a 3e 03 62 d7 3d c1 e0 22 bc b4 02 3e 3c
       0.16686496 0.10516741 -0.009941281 0.011597324
0000f0 2d bc fa bb 03 a9 87 bd 3e 4b 36 bd 74 cd 13 bd
       -0.007651827 -0.06624033 -0.04450535 -0.036084607

weight f4 [64, 32, 3, 3]
000000 96 a3 e8 bb c6 e1 1a 3d cf 69 cc 3c 7a 84 d0 bc
       -0.007099579 0.03781297 0.024952797 -0.025453795
000010 fa f5 41 3d dd ed 6d bd 89 f5 32 3d f9 55 3e bd
       0.047353722 -0.058088172 0.04369119 -0.04646871
000020 ba 5c 41 bd 2d 7f 56 ba ad 77 b6 3b 3f 08 e5 3c
       -0.04720757 -0.0008182403 0.0055684657 0.027958034
000030 32 9e 12 3d 44 45 30 3c 2a be 11 bd a3 f5 f2 bc
       0.035795398 0.010758702 -0.035581745 -0.029658144
000040 9f 08 7f 3c 57 3d 8c 3a e2 24 82 bd fe 18 2f bb
       0.01556602 0.0010699433 -0.06354691 -0.0026717777
000050 89 31 3f 3d be 91 01 3d 2a 7f 76 bd 34 4a dc 3c
       0.0466781 0.03163313 -0.060179867 0.026890852
000060 0d a3 48 3d bb 00 25 bd 49 09 12 bc b4 85 dd bb
       0.048983622 -0.0402839 -0.008913347 -0.0067603234
000070 be c0 0b 3d 1d 0e 23 bb dd b3 c6 3c e0 19 64 3d
       0.03411936 -0.0024880238 0.024255687 0.05568874
000080 b9 6f 0f bd 80 e7 4f bd a8 2d d2 3c 45 fa 01 3c
       -0.035018656 -0.050757885 0.025656536 0.007933204
000090 72 8a 00 bb f1 03 80 bd 80 ad 19 bd 2e d4 55 bd
       -0.001961377 -0.06250752 -0.037518978 -0.052204303
0000a0 cc ec 07 bd 8f 35 db 3c 1b 78 b2 bc 2f c0 12 3d
       -0.03318481 0.026758937 -0.021785786 0.03582781
0000b0 3a fc 0d bc 9e 0f 4d 3c 2a 87 6a 3c 32 9a 17 3d
       -0.0086660925 0.01251593 0.014314452 0.037012286
0000c0 ab 5b 81 bd df 8a e7 bc 88 64 44 3d e1 20 88 3c
       -0.063163124 -0.028264461 0.047947437 0.01661724
0000d0 1a bd 85 3b b6 a2 32 3c c8 e4 a8 bc 2a 73 00 bd
       0.0040813806 0.010903051 -0.020616904 -0.03135983
0000e0 d7 db 16 3d 32 bb 34 bc 9c 53 29 bd e8 7c 1f bb
       0.03683075 -0.011030959 -0.0413395 -0.0024335925
0000f0 15 32 66 bd 32 5a d5 3c 4a a9 b2 bc 2f b8 76 3c
       -0.056200106 0.026043985 -0.021809239 0.015058561
000100 03 93 66 bd ae 8f 28 3d 62 ab 95 bc 3a a9 92 bd
       -0.056292545 0.04115265 -0.018270198 -0.07161184
000110 53 55 1e 3d 7c 95 9c bc 92 a6 0f be 3a e9 2d bc
       0.03865559 -0.019114248 -0.14028385 -0.010614688
000120 31 59 99 bb 39 6a 21 bd 36 c0 3d bd 61 c6 e8 3c
       -0.004679822 -0.039407942 -0.046325885 0.028414907
000130 82 d8 9f 3c b0 73 40 bc 9f 8e 5b bd bb 08 a5 bd
       0.019512419 -0.011746332 -0.05360281 -0.08058306
000140 6a 05 3a bd 03 48 a5 bc 66 08 49 bd af d1 d0 3b
       -0.04541532 -0.02017594 -0.049080275 0.0063726525
000150 6e 11 29 3d 74 2a 22 3d ff 7e 3d 3d 59 69 73 bd
       0.041276388 0.039591268 0.04626369 -0.05942664
000160 0b 26 c1 bc 46 5a 45 bc 37 49 08 bd 30 ba 21 3c
       -0.02357771 -0.012045449 -0.033272948 0.009871051
000170 04 ce 82 bd ac 0f 3c 3d 6b 97 df 3c c0 5a c0 3c
       -0.063869506 0.045913383 0.027293881 0.023480773
000180 27 df 5f bd a3 69 35 bc 57 b3 15 3a 8e 81 25 3c
       -0.054656174 -0.011072549 0.00057106226 0.010101689
000190 3e 5f 18 bc 7a f4 4c 3d 0e 3b 3b bc e1 ae 0d bd
       -0.009300051 0.05003784 -0.011427654 -0.034590606
0001a0 84 a7 d5 3c 03 2d 1e 3d 28 41 d9 3b 72 b6 a0 bd
       0.026080854 0.038617145 0.0066300817 -0.07847299
0001b0 d7 f6 72 3d c5 55 01 bb 7b ff 6d bd 24 c5 0f 3d
       0.059317436 -0.001973496 -0.058104973 0.035100117
0001c0 37 c3 9c 3b 10 58 3f bd 44 2e 39 3d 8e 58 01 3d
       0.0047840136 -0.046714842 0.045210138 0.031578593
0001d0 49 da e3 bb e1 5d ab bd 2e e8 12 bd 7b f6 cd bd
       -0.006953512 -0.08367515 -0.035865955 -0.10056778
0001e0 ed 5b 02 bd 43 97 5b 3d 0e a8 18 3d fc fd 1d 3c
       -0.03182595 0.05361105 0.037269644 0.009643074
0001f0 70 c8 9f 3c 48 7c f0 3c 49 f2 64 3d 98 0e 1a 3a
       0.019504756 0.029356137 0.055895124 0.00058768084
000200 0f e6 94 bc af 5c 00 bd cd 86 72 bc a1 65 51 bd
       -0.018176107 -0.03133839 -0.014802647 -0.05112231
000210 fd 4e c6 3c 9a e4 c2 bc 8b 9c 57 bc 18 7a e2 3c
       0.024207586 -0.023790646 -0.013159881 0.02764611
000220 33 3b 31 bd 25 b9 e8 bb 6d 48 88 bc 62 f9 1d bd
       -0.043269347 -0.007102149 -0.016636098 -0.038567908
000230 72 ef de bc 8a b6 0b bd 46 5a 43 3d 9b fb 6f 3d
       -0.027213786 -0.03410963 0.047693513 0.05858956
000240 3c 00 da b9 99 79 7f 3c 78 e1 15 bc 0e ca 98 bb
       -0.00041580375 0.015592956 -0.009147994 -0.0046627587
000250 4e 03 85 39 15 e0 07 3d 5e 75 0e 3d a1 f4 3f 3d
       0.000253702 0.033172686 0.0347799 0.046864156
000260 79 95 e2 ba c1 be a2 bc e6 fd 1c 3d 58 23 23 bc
       -0.0017286978 -0.01986635 0.038328074 -0.009957157
000270 4d cb 79 3d a1 dd 39 3d 79 b3 80 bc 2b 11 1a 3d
       0.0609849 0.045377377 -0.01571058 0.03761403
000280 d0 93 13 bc e1 cd 30 bd 99 79 f2 3c 39 52 80 bd
       -0.009007409 -0.04316509 0.029598998 -0.06265683
000290 a3 13 c8 bc b6 65 6f 3d de 60 f5 bc b6 1d b8 bb
       -0.024423426 0.05844661 -0.029953416 -0.005618776
0002a0 11 a0 30 bb 96 68 83 3d 05 4b f2 bc 58 8f d5 bd
       -0.0026950876 0.064164326 -0.029576788 -0.10427731
0002b0 ff 38 74 bd 90 73 63 bd 03 94 61 3d 5d d4 9b 3d
       -0.05962467 -0.05553013 0.055072796 0.076088645
0002c0 48 d4 e7 bc a1 d4 cb 3c a8 93 c5 3d 6c a5 09 3d
       -0.028299466 0.024881663 0.09647304 0.033605024
0002d0 fa 05 c0 bc c6 9d ec bc 14 61 bd 3c 94 0f 38 bc
       -0.02344035 -0.028883826 0.02311758 -0.011234183
0002e0 b2 99 23 3d 30 83 72 3d b6 0b ea 3c da 8d 2f bd
       0.039941497 0.05920714 0.028570037 -0.04285989
0002f0 96 f0 43 3d af a1 86 bc d9 e1 18 3c 5c 4b 1a 3d
       0.047836863 -0.016434519 0.00933119 0.037669525
000300 97 fe 97 3b 1b b8 ef bc 8e 85 07 ba 42 e1 dd 3c
       0.004638504 -0.029262593 -0.00051697425 0.02708495
000310 20 7c 6d 3d 6b e4 8b bd 4d e8 46 3d 3b 29 dd bc
       0.057979703 -0.06830677 0.048561383 -0.0269972
000320 d7 75 53 3d 27 ad 30 bd 4a 37 1c 3d 19 a6 26 bc
       0.051626053 -0.04313388 0.038138665 -0.010171437
000330 d9 0a 60 3d 29 3a 3f bb cf 3d b9 bc 02 e1 c0 bb
       0.054697845 -0.0029178953 -0.02261248 -0.005886198
000340 6c ec 28 bd 29 7d 25 bd 11 c9 29 bc e9 bb ad 3b
       -0.041241094 -0.040402565 -0.010362879 0.0053019417
000350 9b 2f 5d 3d da 1e 38 3c 36 75 21 bd 0e ff 2e bc
       0.05400048 0.011237824 -0.03941842 -0.010680927
000360 ac 9f 17 bc e4 e7 5e bb 62 7b 48 bd 92 e0 41 3d
       -0.009254377 -0.003401273 -0.048945792 0.047333308
000370 b1 5f 84 3c 3a 24 68 bd 7a ab 28 bd 78 cd c9 3c
       0.01615891 -0.056675173 -0.041179158 0.024634108
000380 4a 45 8b bc 9e 97 5f bc 80 5e 8c 3c ca aa 1a 3d
       -0.017000813 -0.013646988 0.017134905 0.037760533
000390 29 04 09 bd db ee 67 3d ca 79 86 bc 5e 4c 59 3c
       -0.033451233 0.056624275 -0.016415495 0.013262836
0003a0 85 4b b4 3d d1 e7 4b 3c 74 8a b4 bc c3 d2 57 bd
       0.08803467 0.012445406 -0.022038676 -0.052691232
0003b0 77 67 51 bb c9 18 2b bc e1 aa 8f bc d6 10 43 bd
       -0.003195254 -0.010442921 -0.017537536 -0.047623478
0003c0 89 06 42 bc c0 e0 24 3d d4 68 a0 bc 22 6f b4 3d
       -0.011842378 0.0402534 -0.019581236 0.088102594
0003d0 ad 7c a8 3c 61 37 3d bd 6a b4 48 3d 29 37 f7 bc
       0.020567263 -0.04619539 0.04900018 -0.03017767
0003e0 2e 41 3e 3d 04 e2 20 3c 64 ae 0a bd 67 62 0f 3d
       0.04644888 0.009819511 -0.033857718 0.035005953
0003f0 ef b0 17 bd 9f d6 1c bd 35 0a 1e bd 70 ed 3a bd
       -0.03703397 -0.038290616 -0.038583953 -0.045636594

bias f4 [32]
000000 97 25 be bd 37 4e a8 3d 90 ec 5f 3d 32 ca ae bd
       -0.092845134 0.08218043 0.054668963 -0.085346594
000010 8d c1 96 3d af 8b 07 3d 17 8b b7 bd 57 af 31 bd
       0.07361136 0.033092197 -0.08962076 -0.043380108
000020 2a d2 a3 bd 1d 62 49 3d 08 50 49 bc 18 76 e0 3d
       -0.0799907 0.049165834 -0.012287147 0.109600246
000030 08 c2 a8 bd fb ac c4 3d cb d9 53 3d 0a fb 12 3c
       -0.082401335 0.09603306 0.051721375 0.008970985
000040 1e 3a 6c bb c1 0a 2f bd c7 53 71 bd 87 de 8e 3c
       -0.0036045383 -0.042734865 -0.058917787 0.017440094
000050 e0 08 1f bd 38 f1 32 ba 3f 23 b1 bc e5 97 1f 3c
       -0.038826823 -0.00068261055 -0.021623252 0.009740804
000060 2b 5e 95 3d 66 3b 00 be 4f 26 90 bc 04 a9 bf bd
       0.07293352 -0.12522659 -0.017596392 -0.09358409
000070 76 f2 c6 bd 04 05 a9 3d 91 38 a0 bd bd b6 6b bd
       -0.097142145 0.0825291 -0.07823289 -0.05754732
