models/90.pt (torch, 837106 bytes, 17 tensors)

weight f4 [32, 1, 3, 3]
-0.06138187 0.020315748 0.08771683 -0.2624251 0.18388121 -0.2006507 0.26096174 -0.23424602
-0.24093099 0.027420467 0.16655645 -0.09936385 -0.13826074 0.13572349 0.09838695 0.26562977
-0.09068415 -0.23740089 -0.20208561 0.08481565 -0.3137255 0.12316734 0.18310498 0.22648506
0.10570123 -0.12582438 -0.1610516 -0.18309663 0.31531695 -0.056545068 -0.08987848 -0.099942245
0.25278005 0.2376684 -0.03889733 0.18510725 0.31803533 -0.1039969 -0.10310861 0.29258546
0.16488017 -0.07994024 0.29103616 0.13569419 0.023506396 0.300109 0.28577173 -0.14782047
0.06331369 -0.12527034 0.18500547 -0.13855305 -0.22328755 0.20869608 -0.13468625 0.0051111956
0.27905446 -0.23677337 -0.08118612 0.10315979 0.12294101 -0.34871835 0.047333673 0.0953427
0.12572433 0.20819321 -0.15670736 0.32310522 0.07378528 -0.09278806 0.07143844 -0.1757847
-0.18457516 -0.19646253 -0.14148688 0.19430745 -0.08948872 -0.23434593 0.2600904 -0.25925037
0.017211488 0.26689732 0.1985173 -0.18192028 0.29923764 0.23077318 0.32180983 -0.12580343
-0.009650273 -0.2854199 -0.36897376 0.06382264 -0.0072817784 0.11687886 -0.157503 0.09442621
0.24992481 -0.3616528 0.19006109 0.06871118 -0.047220435 0.13916887 0.26542923 -0.2557713
-0.28271636 -0.06995593 -0.105770834 0.12910637 0.059099954 -0.15297899 -0.22349837 0.20456702
-0.21180366 0.042213414 0.15457283 -0.21667096 -0.25147602 0.29517165 0.22890067 -0.08328512
-0.22715573 -0.2997077 -0.22100213 0.23642066 -0.23731677 -0.20923111 -0.23659796 0.21637684
-0.26522204 0.25797954 -0.18741594 0.2839742 -0.24212924 0.1875182 -0.20840813 -0.09685181
0.23347484 -0.054020226 0.23136908 -0.2477562 -0.41255313 -0.0279247 0.21301018 -0.13871476
-0.30157107 0.17607279 0.033253018 -0.012156219 -0.16210477 -0.3067515 0.2830006 0.054232758
0.037792794 0.2590292 -0.28316748 -0.2796516 0.036803834 0.0731776 0.022270747 -0.20254031
0.19881065 0.26350766 0.09613206 0.30273464 -0.00044669543 0.10416796 0.21682426 -0.13415156
0.24866351 0.21004565 -0.08627466 -0.120258234 -0.14631462 -0.15886953 0.3247447 -0.12307102
0.17072329 -0.31520993 -0.09374342 0.030841926 -0.14111702 -0.24111794 -0.04936393 0.26095796
0.18644413 0.2768499 -0.2272574 0.07793328 0.087026976 0.12631439 0.1221579 -0.26419696
-0.11568044 0.17727174 -0.09840915 -0.08209416 0.09664609 -0.066515915 0.03324077 -0.32888275
-0.11548524 0.11814357 -0.12193678 0.06497882 0.26941484 0.20266464 0.2724277 0.15842925
-0.05358872 -0.14832331 -0.23123725 0.08951158 -0.3523017 0.19074988 0.09368323 -0.068980455
0.09214977 -0.097407244 -0.14046744 -0.30367553 -0.09155982 -0.0925093 0.032086007 0.2987342
-0.12504807 0.23036702 0.12864466 0.03084894 -0.2606776 -0.1812045 0.21367058 -0.2981771
0.18920402 -0.18908817 0.055666797 0.1710435 -0.24316122 0.22968192 0.14073883 -0.21539429
-0.0057902755 -0.24750805 0.032829262 0.20416898 0.13493338 -0.2548749 -0.053706348 -0.26699734
0.1967217 -0.07556619 0.07466655 -0.21430023 -0.116818115 -0.23786053 -0.29903603 0.29405707
00000000: 8e6b 7bbd 366d a63c e2a4 b33d 955c 86be
00000010: 5b4b 3c3e 6177 4dbe c79c 853e 30de 6fbe
00000020: 9db6 76be e3a0 e03c c68d 2a3e 467f cbbd
00000030: 3994 0dbe 19fb 0a3e 197f c93d a000 883e
00000040: 9db8 b9bd 3819 73be 88ef 4ebe d4b3 ad3d
00000050: a1a0 a0be 293f fc3d df7f 3b3e b3eb 673e
00000060: e379 d83d 1bd8 00be b6ea 24be af7d 3bbe
00000070: 3971 a13e cd9b 67bd 3512 b8bd 85ae ccbd
00000080: 636c 813e 585f 733e cf52 1fbd c18c 3d3e
00000090: 87d5 a23e 54fc d4bd 9b2a d3bd c3cd 953e
000000a0: 59d6 283e b5b7 a3bd b102 953e 6bf3 0a3e
000000b0: 7c90 c03c e3a7 993e ac50 923e 405e 17be
000000c0: 9caa 813d de46 00be 1372 3d3e dae0 0dbe
000000d0: 7ea5 64be 6db4 553e 31eb 09be d17b a73b
000000e0: 3ae0 8e3e b874 72be e944 a6bd 7145 d33d
000000f0: 7fc8 fb3d 368b b2be f4e0 413d 0943 c33d
00000100: e1bd 003e 9a30 553e e577 20be 0c6e a53e
00000110: bd1c 973d ab07 bebd 514e 923d e800 34be
00000120: 4501 3dbe 792d 49be f0e1 10be 88f8 463e
00000130: dd45 b7bd 61f8 6fbe 922a 853e 77bc 84be
00000140: 1bff 8c3c c4a6 883e 1e48 4b3e 4f49 3abe
00000150: ad35 993e ce4f 6c3e 42c4 a43e 9dd2 00be
00000160: 2e1c 1ebc 8f22 92be 21ea bcbe 72b5 823d
00000170: fc9b eebb 2f5e ef3d 7748 21be 8762 c13d
00000180: 4aec 7f3e 8e2a b9be 609f 423e 72b8 8c3d
00000190: 376a 41bd 4982 0e3e 57e6 873e 75f4 82be
000001a0: 33c0 90be 0e45 8fbd 619e d8bd 7634 043e
000001b0: cb12 723d 86a6 1cbe c2dc 64be 047a 513e
000001c0: 0fe3 58be f9e7 2c3d 5748 1e3e fede 5dbe
000001d0: 77c1 80be bd20 973e f064 6a3e 6491 aabd
000001e0: 839b 68be 4a73 99be 624e 62be 4218 723e
000001f0: 2b03 73be ae40 56be bc46 72be e491 5d3e
00000200: 2fcb 87be e515 843e f7e9 3fbe 1165 913e
00000210: baf0 77be c504 403e f168 55be 3e5a c6bd
00000220: 0714 6f3e 5044 5dbd 04ec 6c3e cdb3 7dbe
00000230: 2a3a d3be 57c2 e4bc 571f 5a3e 3e0b 0ebe
00000240: 8667 9abe 6d4c 343e 5134 083d e12a 47bc
00000250: cbfe 25be 880e 9dbe 74e5 903e 2b23 5e3d
00000260: 9ecc 1a3d 7a9f 843e 54fb 90be 7f2e 8fbe
00000270: 9ebf 163d 23de 953d 2471 b63c ba66 4fbe
00000280: 0595 4b3e 7aea 863e e3e0 c43d 0900 9b3e
00000290: 7232 eab9 0356 d53d 2e07 5e3e 075f 09be
000002a0: a6a1 7e3e 3516 573e c5b0 b0bd f349 f6bd
000002b0: 80d3 15be b2ae 22be f044 a63e a90c fcbd
000002c0: 16d2 2e3e 3263 a1be 8dfc bfbd 35a8 fc3c
000002d0: fb80 10be 9fe7 76be d531 4abd 489c 853e
000002e0: 36eb 3e3e 45bf 8d3e 2ab6 68be 7c9b 9f3d
000002f0: 333b b23d 8f58 013e ec2d fa3d d344 87be
00000300: dee9 ecbd b986 353e bd8a c9bd fc20 a8bd
00000310: 63ee c53d 7f39 88bd 7927 083d 5263 a8be
00000320: 8783 ecbd 42f5 f13d feb9 f9bd 9e13 853d
00000330: bef0 893e 5287 4f3e a57b 8b3e 473b 223e
00000340: d87f 5bbd 11e2 17be 75c9 6cbe d951 b73d
00000350: e360 b4be f053 433e fedc bf3d a045 8dbd
00000360: 05b9 bc3d 737d c7bd b2d6 0fbe 5c7b 9bbe
00000370: b783 bbbd 8475 bdbd 9e6c 033d b0f3 983e
00000380: 9a0c 00be 55e5 6b3e 6dbb 033e ebb6 fc3c
00000390: 8977 85be ac8d 39be 76cc 5a3e abaa 98be
000003a0: b3be 413e 54a0 41be de02 643d 0726 2f3e
000003b0: 41ff 78be bd31 6b3e d71d 103e 5290 5cbe
000003c0: 5abc bdbb c072 7dbe fa77 063d ac11 513e
000003d0: fa2b 0a3e f77e 82be 30fb 5bbd e0b3 88be
000003e0: 6a71 493e 72c2 9abd c7ea 983d 8571 5bbe
000003f0: 563e efbd b691 73be 401b 99be a68e 963e

bias f4 [32]
0.107233055 0.109624535 0.106544085 -0.29346395 0.32743236 -0.051196095 -0.081757724 0.22508503
0.35901102 -0.018052826 -0.2653067 0.30652112 0.073890045 0.24659309 0.13810319 0.26938266
-0.16384852 -0.11212041 -0.04005659 0.26849204 -0.2814697 -0.34745762 0.050057467 0.093487084
0.20503013 0.07645546 0.057683077 -0.047689077 -0.28744498 -0.10019347 -0.10870997 0.1084898
00000000: 019d db3d d482 e03d c933 da3d e840 96be
00000010: 37a5 a73e ffb2 51bd 9870 a7bd b17c 663e
00000020: 4bd0 b73e 85e3 93bc 48d6 87be 56f0 9c3e
00000030: aa53 973d e682 7c3e ec6a 0d3e 86ec 893e
00000040: e8c7 27be 639f e5bd 6112 24bd ca77 893e
00000050: cc1c 90be f7e5 b1be 0f09 4d3d 2876 bf3d
00000060: 6bf3 513e ae94 9c3d 1745 6c3d 9f55 43bd
00000070: fd2b 93be 3c32 cdbd 55a3 debd e62f de3d

weight f4 [64, 32, 3, 3]
0.012631451 -0.009601607 -0.10335146 -0.027988557 -0.0013199903 0.0029363707 0.0042607402 -0.062987626
0.0034902312 -0.011517748 -0.005797093 0.07712455 0.046417914 0.0048854193 -0.0434241 0.06735567
0.030303376 0.01838265 -0.0065856916 0.011277742 0.05286568 0.03238836 0.0044986936 -0.07008464
-0.028943663 0.042486917 0.05864871 0.012997872 -0.02009245 -0.038190596 0.022279333 -0.049521137
-0.0058582146 -0.0098168 0.055165377 0.025674356 -0.0030349682 0.024991216 -0.053513918 -0.057746742
-0.050145674 -0.014245415 -0.04729609 -0.0033815405 0.035075948 -0.016210057 0.013032891 -0.021090368
-0.0006124066 0.043920763 0.057609 0.040608 0.050766077 0.07551838 0.045193564 -0.05238717
-0.005106042 -0.044027742 0.03658716 -0.03211235 0.0013925676 0.008474347 0.06110826 -0.053424962
-0.040142845 -0.010708941 -0.027951919 -0.04090764 0.023283996 0.028846364 0.014848913 -0.052888
-0.037209675 0.0011199972 -0.12369529 -0.016667662 -0.009247436 -0.13179387 -0.032085493 -0.08635097
-0.12888257 0.04332292 -0.020629277 0.011975283 0.034779526 -0.024629977 -0.027124505 -0.047197778
0.02655835 -0.03652723 -0.027514182 0.0053960094 0.01924467 0.014059988 0.026474016 -0.037518147
-0.0023854251 0.01430403 0.00566889 -0.016616846 -0.0032103497 0.066666335 -0.005883698 0.042290732
0.10861237 0.055535913 0.03052892 0.1117699 -0.06205919 0.020443937 -0.036958795 -0.052823935
-0.042627055 -0.1567631 -0.03168718 -0.11023119 -0.14634961 -0.065206975 -0.0041463077 -0.09258029
0.0024330097 0.039748788 -0.047062654 -0.007515095 -0.007433984 -0.044278167 0.036465347 -0.016207134
0.111095704 0.03687336 -0.045151625 0.054517426 0.022897804 0.090558924 0.15118772 -0.033612218
0.011856179 -0.030860346 0.0054297876 -0.022062972 0.0006508775 -0.008883553 0.02059854 -0.039446943
0.01769289 0.030153822 0.06110968 0.04487521 0.008786177 0.057599757 0.049240153 0.041933298
-0.014114666 -0.049894605 -0.020046616 0.023380851 -0.012164085 -0.01246744 -0.04859083 -0.016085582
0.047078058 0.009378571 -0.049814217 0.03427917 0.025375579 0.023241105 -0.038271483 -0.019654041
-0.019126127 0.004547319 0.01116394 -0.03948489 -0.026525958 0.027133146 -0.033512477 0.0061682407
-0.042171653 -0.02405348 0.053170104 0.026805276 -0.03562837 -0.029111113 0.06417569 -0.0047954908
-0.024850085 -0.017962145 0.025005095 -0.059219457 -0.030885013 0.015385566 0.018121071 3.081763e-05
-0.04866494 -0.049934726 -0.02893597 0.02583806 -0.030846441 0.06057189 0.05231762 -0.043582898
-0.012808723 0.03577637 0.04275685 0.02629547 0.0027225192 0.055772018 -0.033484183 0.027499871
-0.02748418 -0.07946457 0.02993957 0.03451885 -0.046144515 -0.0011111137 0.015842246 0.00778727
0.02305125 -0.07846266 -0.04372184 -0.0642426 -0.025027942 -0.0055438415 0.04059451 -0.018577801
0.115360424 0.02726092 -0.035811752 0.017629806 -0.034747835 1.1697438e-05 0.07749997 0.0820976
0.016923964 0.013494976 -0.034208354 -0.03639589 0.005610958 -0.048240867 -0.031253003 0.06050428
-0.011817023 -0.0133866435 0.054259937 0.006039502 0.054590777 0.13981742 0.024288137 0.024909666
-0.01466391 0.0646721 0.013080651 0.11835288 0.053246938 0.011304214 0.03279409 -0.03705447
00000000: 25f4 4e3c 0f50 1dbc eea9 d3bd 4248 e5bc
00000010: 8603 adba 2070 403b ae9d 8b3b a8ff 80bd
00000020: 5dbc 643b f0b4 3cbc 8af5 bdbb 7af3 9d3d
00000030: b620 3e3d de15 a03b 78dd 31bd c5f1 893d
00000040: c93e f83c 3697 963c c9cc d7bb 47c6 383c
00000050: af89 583d a8a9 043d c769 933b 8988 8fbd
00000060: 431b edbc c306 2e3d a139 703d 07f5 543c
00000070: ec98 a4bc be6d 1cbd 2683 b63c add6 4abd
00000080: 44f6 bfbb a5d6 20bc 17f5 613d 0753 d23c
00000090: 51e6 46bb 61ba cc3c 6931 5bbd d987 6cbd
000000a0: 8d65 4dbd 9a65 69bc 8bb9 41bd d69c 5dbb
000000b0: ccab 0f3d f4ca 84bc e887 553c b5c5 acbc
000000c0: e989 20ba 42e6 333d 6af7 6b3d 9354 263d
000000d0: 17f0 4f3d 61a9 9a3d e31c 393d ee93 56bd
000000e0: 9650 a7bb 6f56 34bd 6bdc 153d 3d88 03bd
000000f0: d186 b63a fdd7 0a3c a84c 7a3d 22d4 5abd
00000100: d36c 24bd 8e74 2fbc 6cfb e4bc c58e 27bd
00000110: 14be be3c 364f ec3c db48 733c 16a1 58bd
00000120: 2c69 18bd dfcc 923a f553 fdbd 9f8a 88bc
00000130: 8f82 17bc f9f4 06be 146c 03bd c7d8 b0bd
00000140: cbf9 03be 6073 313d bbfe a8bc fa33 443c
00000150: fa74 0e3d cec4 c9bc 3634 debc 7552 41bd
00000160: e690 d93c 949d 15bd 6c65 e1bc 02d1 b03b
00000170: 00a7 9d3c dd5b 663c 09e0 d83c a1ac 19bd
00000180: cb54 1cbb 735b 6a3c 19c2 b93b 0d20 88bc
00000190: bb64 52bb 5c88 883d 09cc c0bb 0c39 2d3d
000001a0: 2a70 de3d a079 633d c917 fa3c 9ee7 e43d
000001b0: c731 7ebd 0b7a a73c 1b62 17bd e95d 58bd
000001c0: b599 2ebd 8286 20be 6bca 01bd e4c0 e1bd
000001d0: acdc 15be 3c8b 85bd c0dd 87bb bc9a bdbd
000001e0: 2173 1f3b a0cf 223d c5c4 40bd 3041 f6bb
000001f0: c798 f3bb 065d 35bd b05c 153d d3c4 84bc
00000200: 2586 e33d 8508 173d e9f0 38bd aa4d 5f3d
00000210: 2d94 bb3c f576 b93d f4d0 1a3e f7ac 09bd
00000220: 6b40 423c d6ce fcbc 5cec b13b 68bd b4bc
00000230: a69f 2a3a 528c 11bc 45be a83c 1e93 21bd
00000240: aef0 903c 2605 f73c 254e 7a3d 11cf 373d
00000250: e6f3 0f3c b9ed 6b3d 0bb0 493d 40c2 2b3d
00000260: 3341 67bc 495e 4cbd cd38 a4bc 3389 bf3c
00000270: df4b 47bc 3c44 4cbc 2e07 47bd e9c5 83bc
00000280: ecd4 403d 94a8 193c fe09 4cbd 5168 0c3d
00000290: 72e0 cf3c 2164 be3c 8fc2 1cbd 8301 a1bc
000002a0: 65ae 9cbc ad01 953b f5e8 363c e8ba 21bd
000002b0: f74c d9bc 5546 de3c 6144 09bd f41e ca3b
000002c0: 2fbc 2cbd ce0b c5bc e5c8 593d bd96 db3c
000002d0: 0eef 11bd 6e7a eebc 8b6e 833d 7e23 9dbb
000002e0: 6892 cbbc 5925 93bc 7cd7 cc3c 1a90 72bd
000002f0: 9102 fdbc be13 7c3c a472 943c 2e42 0138
00000300: e354 47bd 5b88 4cbd 210b edbc 57aa d33c
00000310: adb1 fcbc 3b1a 783d 004b 563d fb83 32bd
00000320: aedb 51bc 3e8a 123d cf21 2f3d 9969 d73c
00000330: 4b6c 323b 3371 643d b626 09bd 6947 e13c
00000340: 8126 e1bc 52be a2bd d443 f53c a363 0d3d
00000350: 0802 3dbd caa2 91ba 99c7 813c 5b2c ff3b
00000360: fad5 bc3c 08b1 a0bd ac15 33bd a091 83bd
00000370: 6607 cdbc 1da9 b5bb 6e46 263d 7930 98bc
00000380: 1642 ec3d 4b52 df3c 58af 12bd 626c 903c
00000390: bf53 0ebd 1d40 4437 4eb8 9e3d c922 a83d
000003a0: 20a4 8a3c 081a 5d3c 0f1e 0cbd db13 15bd
000003b0: 21dc b73b 3798 45bd 2603 00bd 56d3 773d
000003c0: 309c 41bc a753 5bbc ab3f 5e3d 04e7 c53b
000003d0: 949a 5f3d 4c2c 0f3e eaf7 c63c 5b0f cc3c
000003e0: e540 70bc ce72 843d 3a50 563c ff62 f23d
000003f0: 7619 5a3d 4f35 393c 1953 063d 6ec6 17bd

bias f4 [64]
0.007063086 0.11607265 0.08743062 -0.14370121 0.010265301 0.00871988 -0.06071254 -0.0634787
-0.20647424 0.3770284 0.09321148 0.26705948 -0.2713039 0.063415736 0.03765876 0.3723555
0.13301304 0.3441568 -0.0070658983 0.00014805543 -0.043077752 -0.05686048 -0.09754255 0.13349935
-0.15898646 0.16742869 0.07629878 -0.019318745 0.20693062 -0.13840991 0.16415063 0.2460141
0.05445363 -0.054715056 -0.00028847932 -0.33313543 0.053949025 -0.0027942644 0.14980789 0.16806298
0.07485597 -0.14723338 -0.031794272 0.0272813 0.0049725045 0.09833978 -0.044401504 -0.07980272
-0.18391287 0.26092565 -0.02326197 0.053271454 0.01694746 0.059670005 0.1289443 -0.00018445775
-0.04434765 0.2515055 -0.010473428 -0.024292795 -0.07858004 0.05689333 -0.22176209 0.06923648
00000000: 7671 e73b 7fb7 ed3d d30e b33d 6926 13be
00000010: cb2f 283c d4dd 0e3c b6ad 78bd 1f01 82bd
00000020: fc6d 53be de09 c13e a9e5 be3d 05bc 883e
00000030: 58e8 8abe 1ce0 813d 1240 1a3d 61a5 be3e
00000040: 9234 083e 5235 b03e 0d89 e7bb 543f 1b39
00000050: 4c72 30bd 89e6 68bd 63c4 c7bd 0eb4 083e
00000060: 59cd 22be 6d72 2b3e 8942 9c3d 5842 9ebc
00000070: 9fe5 533e 54bb 0dbe 1a17 283e 1feb 7b3e
00000080: c50a 5f3d e51c 60bd 0a3f 97b9 ba90 aabe
00000090: a7f9 5c3d fa1f 37bb 3d67 193e b418 2c3e
000000a0: 164e 993d 59c4 16be b63a 02bd 087d df3c
000000b0: 64f0 a23b 5e66 c93d 5ade 35bd 9c6f a3bd
000000c0: a853 3cbe 0c98 853e e38f bebc 2b33 5a3d
000000d0: 66d5 8a3c 8968 743d f909 043e 006b 41b9
000000e0: e2a5 35bd 54c5 803e be98 2bbc af01 c7bc
000000f0: 92ee a0bd fb08 693d 9a15 63be dbcb 8d3d

weight f4 [128, 64, 3, 3]
-0.09019407 -0.007901367 -0.016454734 -0.04105991 -0.021020234 -0.04417893 -0.09080896 0.0075269467
0.0056556663 -0.049936596 -0.017516935 0.033704925 -0.035962265 -0.04019155 -0.034714743 -0.04183836
0.0076739215 0.0035853568 -0.046670876 -0.041257195 0.041287005 -0.005588248 -0.029290352 0.006906632
0.017545342 0.019492673 -0.042971574 0.04395069 0.022388034 0.017416362 0.035506636 0.014084411
-0.024963845 -0.033683404 0.06233923 0.046370566 -0.008172109 -0.0042108893 -0.023184646 -0.034220077
0.037597433 0.045740664 0.008937544 -0.021207057 0.050312623 0.003779418 0.04603101 -0.03215406
-0.01150269 0.043557875 -0.011182942 0.027105363 0.060831584 -0.024831839 0.013858079 -0.011760414
-0.012549989 -0.020165887 -0.043677624 -0.0025895436 0.039904565 0.009468248 0.07525022 0.045835335
0.037810847 0.022339422 -0.0033220768 0.04238655 -0.01203542 0.020540299 0.064877905 -0.04759306
-0.06283841 0.024968276 0.0039374507 -0.079905376 -0.082053654 0.03726265 -0.10245854 -0.014879183
0.0668747 -0.08225839 0.003821774 0.013593244 -0.044374097 0.052201923 0.0084673995 -0.03811779
-0.04191605 -0.047814816 -0.017100262 -0.025030317 -0.03852632 -0.047593966 -0.06273152 -0.05871191
-0.1313482 -0.050705526 -0.05889529 -0.049926445 -0.04207717 -0.014947287 -0.06192068 0.025159063
-0.052352797 -0.09054633 0.0020800258 -0.01085564 0.039264593 0.012136619 -0.03601604 -0.005120879
0.024977477 0.020149285 -0.028178673 0.007131312 0.021885088 0.07042616 0.014022894 -0.04438077
0.05816357 0.02373168 -0.012932165 0.081703894 0.04799685 0.07582054 -0.00927853 0.011201317
0.046404697 0.02831552 0.01964408 0.013370349 0.013052978 -0.0028778352 0.027011916 0.02294926
-0.045576185 -0.0016944888 -0.057559792 -0.056886993 -0.046023287 -0.037388712 -0.016488215 0.012546755
-0.06597644 -0.017983487 0.019689048 0.04584155 -0.012021739 0.040032905 -0.0536943 -0.03133345
0.03313703 -0.06472317 -0.011806703 0.0037190577 0.01838473 0.013294176 0.021580726 -0.03624675
-0.004993027 0.015711866 -0.00051146164 0.027442588 0.02347474 -0.053616375 1.1834275e-05 0.00844883
-0.0374748 -0.014747924 -0.005725709 -0.06659331 -0.040038634 -0.08480655 -0.035202317 -0.0006750348
-0.02749488 -0.09805599 -0.01771456 -0.04827789 -0.004929286 -0.039284803 0.020503536 -0.022753868
-0.03396851 0.014617585 -0.0021181854 -0.046507396 -0.0060630664 0.021811197 0.01613476 0.04204226
-0.01655983 -0.019167537 -0.012303509 -0.032868993 -0.019189632 0.047681537 0.057736233 0.034811422
0.11436 -0.020066658 0.004411104 0.0548605 -0.0015278921 -0.032398332 0.037750605 -0.0719544
0.013590926 0.014999862 -0.030637437 -0.039607823 -0.003259827 0.049061645 0.012514208 0.017389612
-0.039221074 -0.0080774175 0.09025485 -0.06305585 0.046715815 0.04863745 0.016410807 0.007083735
0.038854335 0.00407513 -0.013335331 0.07017788 -0.033801496 -0.029796777 -0.03131492 -0.014010132
-0.023034021 -0.008624753 -0.006788465 -0.01855188 -0.04381712 -0.03545744 -0.0144301215 0.00419037
-0.003910873 0.02820842 0.012968143 -0.020915566 0.03287234 8.585275e-05 -0.031898562 0.013307962
-0.00065077876 -0.0137101365 0.016930671 -0.016919035 0.028888255 -0.011543261 0.0013240342 -0.022219006
00000000: abb7 b8bd bc74 01bc 14cc 86bc 702e 28bd
00000010: a032 acbc f7f4 34bd 0cfa b9bd 9ba4 f63b
00000020: 2b53 b93b 518a 4cbd ad7f 8fbc 2d0e 0a3d
00000030: 2b4d 13bd e59f 24bd 0c31 0ebd b35e 2bbd
00000040: 8575 fb3b 4ef8 6a3b f629 3fbd 4efd 28bd
00000050: 901c 293d 9f1d b7bb 52f2 efbc 0751 e23b
00000060: 40bb 8f3c 19af 9f3c f602 30bd a405 343d
00000070: 1c67 b73c c2ac 8e3c 686f 113d 4dc2 663c
00000080: fa80 ccbc 9cf7 09bd 6c57 7f3d 10ef 3d3d
00000090: 4fe4 05bc 80fb 89bb baed bdbc 5a2a 0cbd
000000a0: c4ff 193d 905a 3b3d c76e 123c 6cba adbc
000000b0: 9c14 4e3d 1db0 773b 038b 3c3d fab3 03bd
000000c0: c775 3cbc be69 323d a938 37bc 110c de3c
000000d0: 8a2a 793d 246c cbbc ff0c 633c c0ae 40bc
000000e0: 789e 4dbc ee32 a5bc 4fe7 32bd 55b5 29bb
000000f0: f872 233d b620 1b3c ca1c 9a3d d5bd 3b3d
00000100: 8cdf 1a3d 2a01 b73c 33b7 59bb 859d 2d3d
00000110: 3630 45bc 2144 a83c b5de 843d f1f0 42bd
00000120: 6db1 80bd 458a cc3c bb05 813b 6ea5 a3bd
00000130: bf0b a8bd b8a0 183d c8d5 d1bd d1c7 73bc
00000140: 9af5 883d 1677 a8bd ba76 7a3b 33b6 5e3c
00000150: 9dc1 35bd afd1 553d d9ba 0a3c 6621 1cbd
00000160: 2ab0 2bbd 78d9 43bd d915 8cbc 610c cdbc
00000170: c6cd 1dbd e4f1 42bd 6279 80bd e67b 70bd
00000180: 2480 06be 99b0 4fbd 303c 71bd ac7f 4cbd
00000190: 1c59 2cbd 77e5 74bc 8aa0 7dbd 611a ce3c
000001a0: e36f 56bd 5b70 b9bd 0b51 083b dbdb 31bc
000001b0: e9d3 203d abd8 463c 8e85 13bd 0ccd a7bb
000001c0: 919d cc3c 1d10 a53c f6d6 e6bc c8ad e93b
000001d0: 5b48 b33c 973b 903d 48c0 653c 9cc8 35bd
000001e0: ec3c 6e3d f168 c23c 6ee1 53bc 5f54 a73d
000001f0: 5898 443d cd47 9b3d fa04 18bc bb85 373c
00000200: da12 3e3d f3f5 e73c 9fec a03c 4f0f 5b3c
00000210: 28dc 553c 109a 3cbb 1848 dd3c 1600 bc3c
00000220: 18ae 3abd 9c19 deba d1c3 6bbd 5602 69bd
00000230: ea82 3cbd e824 19bd 4b12 87bc e890 4d3c
00000240: a81e 87bd 1b52 93bc ed4a a13c 59c4 3b3d
00000250: d4f6 44bc 8bf9 233d 8eee 5bbd 8157 00bd
00000260: b2ba 073d 958d 84bd e770 41bc 6fbb 733b
00000270: 939b 963c d1cf 593c 10ca b03c 7977 14bd
00000280: 8c9c a3bb 2cb6 803c 9c13 06ba 47cf e03c
00000290: 194e c03c d89c 5bbd d38b 4637 f66c 0a3c
000002a0: 2d7f 19bd 47a1 71bc ba9e bbbb 1362 88bd
000002b0: 8dff 23bd 0eaf adbd 4e30 10bd d2f4 30ba
000002c0: f13c e1bc 94d1 c8bd 201e 91bc 09bf 45bd
000002d0: d985 a1bb 1ae9 20bd 08f7 a73c 5266 babc
000002e0: 9022 0bbd 987e 6f3c 41d1 0abb 8a7e 3ebd
000002f0: b0ac c6bb 65ad b23c 0b2d 843c 8134 2c3d
00000300: 7ba8 87bc 3d05 9dbc a894 49bc a3a1 06bd
00000310: 9333 9dbc b74d 433d d47c 6c3d 6c96 0e3d
00000320: 9335 ea3d d562 a4bc 068b 903b 67b5 603d
00000330: 8d43 c8ba 1db4 04bd 61a0 1a3d d45c 93bd
00000340: 7aac 5e3c fbc1 753c 5dfb fabc d03b 22bd
00000350: d2a2 55bb ddf4 483d 6508 4d3c a974 8e3c
00000360: 47a6 20bd 2557 04bc 89d7 b83d 6d23 81bd
00000370: 1559 3f3d 1038 473d f56f 863c ad1e e83b
00000380: b925 1f3d ab88 853b 6f7c 5abc 6cb9 8f3d
00000390: 7073 0abd 5f18 f4bc 1344 00bd c18a 65bc
000003a0: d8b1 bcbc d64e 0dbc c671 debb 1dfa 97bc
000003b0: 9579 33bd d23b 11bd 516c 6cbc 5f4f 893b
000003c0: c826 80bb 5815 e73c 5678 543c 1f57 abbc
000003d0: 26a5 063d d80b b438 11a8 02bd a309 5a3c
000003e0: 0699 2aba 7ba0 60bc 31b2 8a3c ca99 8abc
000003f0: 10a7 ec3c f21f 3dbc 378b ad3a a204 b6bc

bias f4 [128]
-0.049776904 0.065041475 0.006432567 0.026648449 -0.09191523 -0.07603214 -0.063795194 -0.012639945
0.044331603 0.09801827 0.07371782 -0.32302314 -0.18245754 -0.0853357 0.025206802 -0.058215514
0.101737365 -0.07125898 -0.07196654 -0.049358394 -0.045893017 -0.034428988 0.07720817 -0.1384246
-0.37474617 0.13036837 -0.10501589 -0.026740152 0.13814975 -0.37455383 -0.099087305 -0.1456627
-0.028985413 -0.03779144 -0.17890291 -0.053857367 0.04004464 -0.3432863 0.16543503 0.07154709
0.2212948 0.07762584 -0.03360461 -0.0790584 0.07236936 0.17566007 -0.03681026 -0.13491203
-0.11063605 -0.21160592 0.08019089 0.06591865 -0.05915351 -0.029379847 0.0271845 0.073446974
0.18844059 -0.032724697 0.18431962 -0.03367635 0.29319325 -0.06923001 0.024758294 -0.04625544
-0.034955252 0.11664678 0.062345177 -0.045312934 -0.026570717 -0.01506823 0.0022530598 -0.07781609
-0.08049824 0.06764567 0.02503717 -0.06862518 0.061783165 0.17602193 0.03139487 0.045046754
0.039030045 0.03510904 0.04229421 -0.075160846 -0.12685587 0.047038797 0.08420628 -0.013063379
-0.06942443 -0.10467964 0.062259126 -0.046154536 0.0027665014 -0.044271994 -0.31220108 0.0043983147
0.018944891 -0.0051625697 0.04993652 -0.14287437 -0.36097324 0.017425124 0.037329018 0.0026660766
-0.3402658 0.15377836 -0.03174145 0.248317 -0.08480317 0.052098334 -0.14747746 0.09826365
-0.114588425 -0.032700796 -0.15736029 -0.37724128 0.13733552 0.03501209 0.038097724 0.034838073
0.08605282 0.034779828 0.42560935 0.05626281 0.015475568 -0.13480264 0.043399695 -0.0053567355
00000000: dee2 4bbd 7734 853d 48c8 d23b d94d da3c
00000010: 0d3e bcbd bdb6 9bbd 0ea7 82bd c617 4fbc
00000020: 0e95 353d cebd c83d 5ef9 963d 4a63 a5be
00000030: 26d6 3abe 7cc4 aebd 7f7e ce3c 6473 6ebd
00000040: ae5b d03d 3af0 91bd 3163 93bd 072c 4abd
00000050: 51fa 3bbd 6905 0dbd 511f 9e3d 2ebf 0dbe
00000060: bbde bfbe 497f 053e 9212 d7bd 2a0e dbbc
00000070: 2177 0d3e 85c5 bfbe 49ee cabd 9a28 15be
00000080: d172 edbc 32cb 1abd 5332 37be 8b99 5cbd
00000090: d905 243d 39c3 afbe cd67 293e 4887 923d
000000a0: 1b9b 623e 4cfa 9e3d fda4 09bd 5fe9 a1bd
000000b0: 6336 943d 3ce0 333e 5bc6 16bd 6126 0abe
000000c0: 2795 e2bd 39af 58be 1f3b a43d 5b00 873d
000000d0: f34a 72bd 01ae f0bc 07b2 de3c 5e6b 963d
000000e0: 92f6 403e 550a 06bd 48be 3c3e 36f0 09bd
000000f0: 6d1d 963e 77c8 8dbd e8d1 ca3c 5876 3dbd
00000100: 3d2d 0fbd 82e4 ee3d a85d 7f3d 0e9a 39bd
00000110: d5aa d9bc bde0 76bc 12a8 133b 0b5e 9fbd
00000120: 43dc a4bd d089 8a3d c01a cd3c 5c8b 8cbd
00000130: 5810 7d3d 183f 343e e897 003d f282 383d
00000140: f8dd 1f3d 7fce 0f3d b23c 2d3d eeed 99bd
00000150: 81e6 01be c1ab 403d 5874 ac3d c807 56bc
00000160: 652e 8ebd 4762 d6bd 6d03 7f3d 8a0c 3dbd
00000170: 314e 353b 8d56 35bd d2d8 9fbe bd1f 903b
00000180: 5132 9b3c c62a a9bb 3d8a 4c3d a94d 12be
00000190: 7cd1 b8be 22bf 8e3c 50e6 183d 58b9 2e3b
000001a0: 5237 aebe 1378 1d3e 5303 02bd d046 7e3e
000001b0: 49ad adbd 1065 553d 5504 17be 743e c93d
000001c0: 56ad eabd 45f1 05bd 0e23 21be c525 c1be
000001d0: afa1 0c3e d668 0f3d 5c0c 1c3d 5eb2 0e3d
000001e0: 763c b03d 4b75 0e3d 78e9 d93e d573 663d
000001f0: 3d8d 7d3c b409 0abe e1c3 313d 8e87 afbb

weight f4 [128, 64, 3, 3]
0.024728298 -0.041886788 -0.009632305 0.009942539 0.0046182787 0.012634083 -0.0053416635 0.0072713764
-0.021008715 0.01758754 -0.020249875 -0.009977291 0.028408675 -0.019525893 0.025978358 -0.041324683
-0.004873072 0.021810861 -0.027135305 -0.046596233 -0.02327835 0.014110062 -0.029874193 -0.0119293565
-0.055032123 -0.021444876 -0.035882097 -0.015211401 -0.006981927 0.0015679819 0.004144122 -0.03913887
-0.045040257 0.006216588 0.017569993 0.036942136 0.010230543 -0.006329534 0.037821274 0.04988347
-0.0126906745 0.0071346057 -0.012560261 -0.03208693 -0.045787953 0.0030004056 0.029469281 -0.029252123
-0.0150043685 0.003561119 -0.046074696 0.019910406 0.023919087 -0.019795181 -0.006408452 -0.0022882367
-0.03225862 0.023664366 0.007988396 0.04687935 -0.08723994 1.672601e-05 -0.016685532 -0.03159946
-0.012634722 -0.041125752 0.006509305 -0.026585208 -0.012070337 0.0273881 0.024264218 0.014727848
-0.013956284 0.03393361 0.034734927 0.030667048 0.0077620777 -0.041126676 0.02904357 0.025616175
-0.012341683 -0.043427102 0.016811026 -0.01515009 -0.021546518 -0.023469118 -0.003960491 -0.007382371
0.059994627 0.0037050135 0.045639817 0.043844324 -0.0132994745 -0.04049474 0.018176667 -0.026912605
0.041580394 0.09286366 0.10600243 -0.030528268 -0.023938619 -0.0031587172 -0.03546723 -0.030384924
-0.012498775 -0.054933913 -0.06944035 0.010844905 -0.01732297 -0.032309234 0.01925668 -0.043317486
0.023383914 -0.043685917 0.017300287 -0.02922279 -0.022833819 0.04226129 0.06190043 0.046492238
0.010076202 0.04943517 0.025632111 0.033205412 0.004817406 0.040845986 0.015246613 -0.043670937
-0.008411728 0.004539467 0.023278395 -0.021143096 0.07805563 0.07294847 0.109365106 -0.008691537
0.010655161 0.001774958 0.0025772187 -0.0101325065 -0.015019978 -0.047876157 -0.040657472 0.04410392
0.044047948 0.011647178 -0.040665258 0.046819422 -0.001123435 0.01612744 0.056269493 -0.028332595
-0.0146301305 -0.028457696 -0.028218139 0.028397936 0.0053270026 -0.014994367 -0.039947927 0.021455975
0.007468458 -0.01715377 -0.03309506 -0.037512995 -0.12858829 2.86662e-06 -0.061611407 -0.08420538
-0.05756721 -0.06750369 -0.09453547 0.01020847 -0.0076222005 0.00012359374 0.05210517 0.057694353
0.028754592 -0.03807631 0.009048392 0.039676804 -0.014334408 0.03320411 0.016944606 -0.028210904
0.052220754 0.0012916686 -0.06466803 0.056552295 -0.010449958 0.002304369 -0.010995596 -0.023048047
0.0005048749 -0.043855347 -0.027569849 0.019341769 -0.024706626 -0.0058915173 0.0074514314 -0.0036243352
0.008881663 -0.03366947 -0.03634794 -0.03086058 0.055302627 0.018008763 0.048926618 -0.040906098
0.04829963 0.08946756 0.002451061 -0.01650218 0.019676596 0.08485683 0.006632675 0.04971476
0.033419956 0.041903004 0.07250654 0.06952695 0.043959435 0.05779592 0.02731847 0.05017111
0.025104119 -0.14190392 -0.023861907 0.0794233 0.020226514 -0.040720694 0.124953516 -0.05928145
0.0501155 0.036748365 3.7035905e-05 -0.07642371 -0.017879926 0.013487697 0.025189871 -0.013646853
-0.06293511 -0.047176328 -0.050653465 -0.012582386 -0.07116756 -0.13645053 0.024069149 -0.012428742
-0.08344738 0.025394602 -0.016031722 -0.074820764 -0.013576057 -0.016950557 0.034606602 -0.047372837
00000000: 0093 ca3c 7b91 2bbd d1d0 1dbc 08e6 223c
00000010: ee54 973b 2fff 4e3c 1f09 afbb ba44 ee3b
00000020: 781a acbc bf13 903c 11e3 a5bc cb77 23bc
00000030: 4fb9 e83c c4f4 9fbc 91d0 d43c 1244 29bd
00000040: 4aae 9fbb b1ac b23c dc4a debc b1db 3ebd
00000050: 3db2 bebc e42d 673c b9ba f4bc 5973 43bc
00000060: 5d69 61bd 2aad afbc 1bf9 12bd 3d39 79bc
00000070: a6c8 e4bb be84 cd3a 6acb 873b 1450 20bd
00000080: 227c 38bd 85b4 cb3b f2ee 8f3c a350 173d
00000090: 029e 273c fb67 cfbb 7bea 1a3d 9c52 4c3d
000000a0: 8cec 4fbc 69c9 e93b 8ec9 4dbc 966d 03bd
000000b0: 268c 3bbd 74a2 443b 9069 f13c 26a2 efbc
000000c0: e2d4 75bc aa61 693b d2b8 3cbd 261b a33c
000000d0: f6f1 c33c 8129 a2bc fefd d1bb 3ef6 15bb
000000e0: 9d21 04bd c6db c13c c3e1 023c 9004 403d
000000f0: dbaa b2bd d54e 8c37 19b0 88bc 6f6e 01bd
00000100: dd01 4fbc 7a73 28bd 024c d53b 39c9 d9bc
00000110: aac2 45bc 025d e03c c1c5 c63c 124d 713c
00000120: e6a8 64bc f8fd 0a3d 3646 0e3d 7639 fb3c
00000130: 0759 fe3b 7274 28bd c8ec ed3c 03d9 d13c
00000140: c534 4abc 9ee0 31bd 47b7 893c 1538 78bc
00000150: 5382 b0bc 4f42 c0bc 02c7 81bb d1e7 f1bb
00000160: edbc 753d d0cf 723b d1f0 3a3d 1b96 333d
00000170: 0ae6 59bc d0dd 25bd 3ce7 943c d377 dcbc
00000180: 3450 2a3d 4d2f be3d cd17 d93d 6b16 fabc
00000190: ec1a c4bc 7b02 4fbb 1646 11bd cee9 f8bc
000001a0: a9c7 4cbc 6202 61bd be36 8ebd d4ae 313c
000001b0: e7e8 8dbc b056 04bd 2fc0 9d3c ad6d 31bd
000001c0: 9f8f bf3c 01f0 32bd 55b9 8d3c a264 efbc
000001d0: fd0d bbbc 2d1a 2d3d 4e8b 7d3d a56e 3e3d
000001e0: a816 253c 887c 4a3d 6ffa d13c 6602 083d
000001f0: 55db 9d3b 1f4e 273d eecc 793c 4ce0 32bd
00000200: 58d1 09bc cfbf 943b 55b2 be3c 4934 adbc
00000210: a1db 9f3d 0266 953d d0fa df3d f366 0ebc
00000220: fc92 2e3c b5a5 e83a 8ee6 283b d002 26bc
00000230: 5b16 76bc ca19 44bd 7388 26bd 50a6 343d
00000240: 9f6b 343d ced3 3e3c 9d90 26bd b9c5 3f3d
00000250: 3940 93ba b11d 843c d77a 663d c219 e8bc
00000260: 37b3 6fbc 1d20 e9bc ba29 e7bc caa2 e83c
00000270: 238e ae3b efaa 75bc 70a0 23bd 71c4 af3c
00000280: f7b9 f43b 1086 8cbc b08e 07bd 3aa7 19bd
00000290: a6ac 03be 2860 4036 3e5c 7cbd df73 acbd
000002a0: 98cb 6bbd 603f 8abd d09b c1bd 6d41 273c
000002b0: a7c3 f9bb f198 0139 3b6c 553d ea50 6c3d
000002c0: c08e eb3c e8f5 1bbd b53f 143c 2584 223d
000002d0: ddda 6abc 0801 083d 6acf 8a3c 8e1a e7bc
000002e0: 6ee5 553d 354d a93a ac70 84bd 61a3 673d
000002f0: 4d36 2bbc e504 173b df26 34bc 42cf bcbc
00000300: 9559 043a aaa1 33bd 2ada e1bc a172 9e3c
00000310: 8d65 cabc a10d c1bb 232b f43b 4186 6dbb
00000320: 6584 113c 00e9 09bd 94e1 14bd 54cf fcbc
00000330: 0285 623d 1d87 933c 4767 483d 278d 27bd
00000340: d5d5 453d c53a b73d fba1 203b 942f 87bc
00000350: d030 a13c 6bc9 ad3d e956 d93b b4a1 4b3d
00000360: 5de3 083d 7ca2 2b3d 4f7e 943d 2564 8e3d
00000370: cf0e 343d 6abb 6c3d fcca df3c 3980 4d3d
00000380: 27a7 cd3c 434f 11be 0c7a c3bc afa8 a23d
00000390: 13b2 a53c beca 26bd a1e7 ff3d 1bd1 72bd
000003a0: e945 4d3d 7485 163d 0057 1b38 0984 9cbd
000003b0: ec78 92bc 80fb 5c3c fd5a ce3c 0d97 5fbc
000003c0: 1fe4 80bd f73b 41bd 027a 4fbd 5a26 4ebc
000003d0: 4cc0 91bd b0b9 0bbe aa2c c53c eca1 4bbc
000003e0: 76e6 aabd 5708 d03c f554 83bc a13b 99bd
000003f0: 1c6e 5ebc e5db 8abc a7bf 0d3d 050a 42bd

bias f4 [64]
0.056232803 0.0633669 0.30847153 0.0064579137 -0.06472869 0.031534232 0.00525522 0.05167794
0.042434666 0.024894785 0.01345866 0.07637321 0.06416503 -0.05016062 -0.17626426 0.24084233
0.08452881 0.07941004 0.028614761 0.025064504 0.03132134 0.17597611 0.08025468 -0.05752915
-0.06217776 -0.05627538 0.21384639 0.08002289 -0.03712088 0.26844093 0.010666568 0.0227561
-0.0068047936 0.02145823 0.04266792 0.055920277 0.013613986 -0.009799075 0.008729607 0.010625637
0.104493976 0.19286883 0.07368168 0.054795682 -0.06451065 0.051070753 -0.021487534 0.13542451
0.34857205 0.0637816 0.0007711344 0.017891373 0.20092516 0.09193262 -0.01863841 0.023457937
0.18040921 0.10944778 -0.012462484 0.013921006 -0.007830922 -0.07004833 -0.04769237 -0.04002852
00000000: 5e54 663d 81c6 813d fbef 9d3e e89c d33b
00000010: 7a90 84bd 0a2a 013d fb33 ac3b 3fac 533d
00000020: f9cf 2d3d 26f0 cb3c b681 5c3c 8f69 9c3d
00000030: f568 833d 3975 4dbd 9e7e 34be 5f9f 763e
00000040: 711d ad3d bba1 a23d 8169 ea3c 1354 cd3c
00000050: ce4a 003d 1533 343e 915c a43d b0a3 6bbd
00000060: 1bae 7ebd 0381 66bd 8cfa 5a3e 0ae3 a33d
00000070: 100c 18bd 1771 893e d4c2 2e3c 006b ba3c
00000080: bffa debb 2cc9 af3c 8fc4 2e3d a90c 653d
00000090: 320d 5f3c 4d8c 20bc a006 0f3c 2717 2e3c
000000a0: f000 d63d 687f 453e 6ce6 963d 7071 603d
000000b0: 291e 84bd 912f 513d a006 b0bc b9ac 0a3e
000000c0: 0978 b23e ed9f 823d f425 4a3a ee90 923c
000000d0: 53bf 4d3e 2b47 bc3d 94af 98bc dc2a c03c
000000e0: 31bd 383e 2826 e03d 722f 4cbc ee14 643c
000000f0: 444d 00bc 8075 8fbd 1359 43bd f2f4 23bd

weight f4 [64, 32, 3, 3]
-0.00785428 0.037368644 0.027085233 -0.027651496 0.04517641 -0.058680113 0.04105998 -0.04790852
-0.047373824 0.00030850223 0.006700822 0.029019598 0.036596846 0.011676619 -0.034571853 -0.028816741
0.016282085 0.0017904073 -0.06341036 -0.002265064 0.047365602 0.03220159 -0.059234053 0.028114771
0.04976471 -0.03923628 -0.007680276 -0.0038676583 0.034657914 0.0010230895 0.024627103 0.058957558
-0.03168985 -0.050561447 0.03145779 0.009988907 -0.0017001858 -0.062015306 -0.03696454 -0.05171091
-0.032335192 0.02780168 -0.0209643 0.0367167 -0.007799622 0.013675338 0.015004368 0.0377771
-0.06218754 -0.027503274 0.04876715 0.017323347 0.0046486496 0.011536961 -0.020383673 -0.033407383
0.03506576 -0.010972558 -0.04319723 -0.0008894655 -0.055946026 0.023049656 -0.021753494 0.017893594
-0.05743273 0.04825264 -0.023048239 -0.08115946 0.044302717 -0.024497043 -0.15282124 -0.0071612853
-0.0067932648 -0.044795297 -0.042626813 0.027441945 0.012151948 -0.01957702 -0.051419247 -0.091021545
-0.04639965 -0.017141972 -0.048035856 0.008429296 0.045310058 0.04122119 0.04839191 -0.058434516
-0.02227698 -0.0101177255 -0.032110933 0.011521442 -0.06284307 0.047864966 0.026839202 0.023738539
-0.053471237 -0.0116999345 0.0057670777 0.01124116 -0.011585756 0.051814016 -0.011555421 -0.03554066
0.027334774 0.040031705 0.0063115247 -0.08209256 0.060394075 -8.0714584e-05 -0.061156474 0.036966287
0.008388794 -0.048929777 0.048727345 0.03555125 -0.00819772 -0.0804125 -0.03458566 -0.10266871
-0.031768 0.05420857 0.03672422 0.01071195 0.022265613 0.03093747 0.0576909 0.0014138084
-0.017553773 -0.030518072 -0.014423709 -0.050513588 0.024684874 -0.023686087 -0.013160624 0.029918931
-0.040687896 -0.005731811 -0.0146093415 -0.036361795 -0.025335718 -0.03411246 0.048692055 0.060733423
0.0010181332 0.016760735 -0.008074583 -0.0036291599 0.0012604446 0.03419705 0.03577305 0.048052955
-0.00041238396 -0.021665594 0.037592817 -0.010959095 0.05883701 0.044963617 -0.017118592 0.03772498
-0.006430051 -0.046834614 0.025360886 -0.07109297 -0.025263097 0.058862295 -0.031887826 -0.006335753
-0.0020333955 0.067781426 -0.028643278 -0.10190629 -0.05470099 -0.054679044 0.060051363 0.07928385
-0.033193227 0.025194336 0.09786806 0.03368464 -0.029590916 -0.03352348 0.021496652 -0.014694447
0.038229275 0.060180344 0.025352633 -0.04783289 0.046103176 -0.014730951 0.011206652 0.039625276
0.007022767 -0.026674807 0.0006496273 0.028982645 0.05966283 -0.06883854 0.050788194 -0.024043072
0.053012285 -0.04237561 0.038477045 -0.013549855 0.05092122 -0.0053430162 -0.02377882 -0.008833754
-0.041270286 -0.03749894 -0.012221184 0.007950653 0.059428036 0.010956542 -0.036105044 -0.0073751076
-0.009354652 -0.003960133 -0.048999377 0.047357336 0.016526138 -0.05595159 -0.04061257 0.025584456
-0.016082346 -0.019226337 0.014871252 0.038859576 -0.033480547 0.055431135 -0.013560412 0.016561598
0.09065682 0.016222497 -0.021185957 -0.052202705 -0.0010420358 -0.00900897 -0.015194479 -0.04716207
-0.009710409 0.04294697 -0.01822775 0.09317808 0.024950203 -0.05102199 0.054092664 -0.029578112
0.046315435 0.008780254 -0.035555977 0.03503925 -0.03607842 -0.036919173 -0.032783754 -0.045624122
00000000: 3daf 00bc dd0f 193d dae1 dd3c 6485 e2bc
00000010: e60a 393d 8f5a 70bd 822e 283d b93b 44bd
00000020: 0e0b 42bd 78be a139 9292 db3b 82ba ed3c
00000030: 93e6 153d 4a4f 3f3c 379b 0dbd 1611 ecbc
00000040: 0262 853c 1aac ea3a 4add 81bd 7871 14bb
00000050: 6f02 423d d0e5 033d 689f 72bd f350 e63c
00000060: 15d6 4b3d 39b6 20bd d3aa fbbb 8a78 7dbb
00000070: 75f5 0d3d 3019 863a c7be c93c 7b7d 713d
00000080: 37cd 01bd 8519 4fbd e2d9 003d 83a8 233c
00000090: c5d8 deba c303 7ebd 2168 17bd d2ce 53bd
000000a0: e871 04bd 59c0 e33c 53bd abbc 4064 163d
000000b0: f993 ffbb 860e 603c e1d4 753c 29bc 1a3d
000000c0: 5db8 7ebd 8c4e e1bc 10c0 473d b1e9 8d3c
000000d0: b353 983b 8605 3d3c a9fb a6bc 2ed6 08bd
000000e0: 1da1 0f3d 3ec6 33bc 94ef 30bd 052b 69ba
000000f0: a927 65bd a2d2 bc3c 6234 b2bc 9695 923c
00000100: 953e 6bbd 8fa4 453d a9cf bcbc ee36 a6bd
00000110: c476 353d 06ae c8bc 2c7d 1cbe 37a9 eabb
00000120: 099a debb 467b 37bd 7499 2ebd eecd e03c
00000130: f718 473c fd5f a0bc fd9c 52bd 8169 babd
00000140: 8f0d 3ebd 526d 8cbc 3fc1 44bd 081b 0a3c
00000150: 0a97 393d 8dd7 283d 9836 463d 0859 6fbd
00000160: 377e b6bc d1c4 25bc c186 03bd 6ec4 3c3c
00000170: deb3 80bd 0e0e 443d e3dd db3c 5377 c23c
00000180: a804 5bbd 15b1 3fbc c1f9 bc3b d82c 383c
00000190: 2fd2 3dbc ef3a 543d f352 3dbc 1593 11bd
000001a0: 2ded df3c 49f8 233d e8d0 ce3b 2520 a8bd
000001b0: c75f 773d 5045 a9b8 367f 7abd f669 173d
000001c0: 2771 093c 976a 48bd 5396 473d 309e 113d
000001d0: bb4f 06bc 4faf a4bd b1a9 0dbd f943 d2bd
000001e0: 2a1f 02bd ce09 5e3d 236c 163d 2d81 2f3c
000001f0: 6066 b63c 9470 fd3c 4b4d 6c3d 8a4f b93a
00000200: eecc 8fbc 0901 fabc 6c51 6cbc 56e7 4ebd
00000210: ef37 ca3c 5309 c2bc a89f 57bc 8c18 f53c
00000220: 5aa8 26bd ead1 bbbb 055c 6fbc 1bf0 14bd
00000230: da8c cfbc 82b9 0bbd 5271 473d 9cc3 783d
00000240: e272 853a cf4d 893c 414b 04bc 33d7 6dbb
00000250: 8135 a53a 3512 0c3d c386 123d 2dd3 443d
00000260: 3d35 d8b9 0b7c b1bc edfa 193d c78d 33bc
00000270: 14ff 703d c52b 383d 4a3c 8cbc 8285 1a3d
00000280: 2db3 d2bb a7d5 3fbd a2c1 cf3c 3199 91bd
00000290: 8ef4 cebc 9719 713d cf9c 02bd 269c cfbb
000002a0: b742 05bb fdd0 8a3d 4fa5 eabc 3fb4 d0bd
000002b0: 250e 60bd 22f7 5fbd 6bf8 753d 925f a23d
000002c0: 9ff5 07bd 5a64 ce3c 0d6f c83d e8f8 093d
000002d0: a668 f2bc eb4f 09bd bf19 b03c fac0 70bc
000002e0: 4d96 1c3d aa7f 763d 53b0 cf3c 6cec 43bd
000002f0: afd6 3c3d 165a 71bc 1b9c 373c 1d4e 223d
00000300: 3d1f e63b 2085 dabc c04b 2a3a 036d ed3c
00000310: 0361 743d 38fb 8cbd 4807 503d faf5 c4bc
00000320: 6923 593d 0c92 2dbd 1b9a 1d3d 3600 5ebc
00000330: c592 503d 7814 afbb cdcb c2bc 73bb 10bc
00000340: 080b 29bd 7d98 19bd 5c3b 48bc 7543 023c
00000350: d06a 733d 1183 333c e2e2 13bd e3aa f1bb
00000360: 4144 19bc 01c4 81bb 92b3 48bd c4f9 413d
00000370: d361 873c 7f2d 65bd 5e59 26bd 7e96 d13c
00000380: 20bf 83bc 8d80 9dbc 8da6 733c 382b 1f3d
00000390: e622 09bd c20b 633d 7e2c 5ebc 30ac 873c
000003a0: 48aa b93d 0be5 843c 2c8e adbc 81d2 55bd
000003b0: eb94 88ba 5c9a 13bc 44f2 78bc 042d 41bd
000003c0: 6818 1fbc 29e9 2f3d 5d52 95bc 26d4 be3d
000003d0: 5e64 cc3c 6ffc 50bd 4590 5d3d cc4d f2bc
000003e0: 41b5 3d3d 0edb 0f3c 25a3 11bd 5185 0f3d
000003f0: f7c6 13bd 8f38 17bd 4248 06bd 5ce0 3abd

bias f4 [32]
-0.0950521 0.085257486 0.057813987 -0.090147026 0.076716855 0.03630816 -0.09233006 -0.044562057
-0.086633004 0.05100047 -0.018446343 0.11427598 -0.08362194 0.0985406 0.05482462 0.0109311035
-0.00028617214 -0.046318937 -0.063662946 0.019305011 -0.037223298 0.0010587742 -0.024265386 0.010572256
0.076753706 -0.13898836 -0.020228753 -0.097257756 -0.10281022 0.08570902 -0.08267332 -0.057472814
00000000: adaa c2bd 7a9b ae3d 5cce 6c3d 019f b8bd
00000010: ba1d 9d3d ddb7 143d 8b17 bdbd b486 36bd
00000020: a56c b1bd dee5 503d c91c 97bc 8609 ea3d
00000030: fb41 abbd a7cf c93d c88f 603d 5f18 333c
00000040: 6009 96b9 edb8 3dbd b861 82bd 8b25 9e3c
00000050: 7577 18bd 91c6 8a3a 34c8 c6bc 4137 2d3c
00000060: 0c31 9d3d f752 0ebe c5b6 a5bc 132f c7bd
00000070: 2a8e d2bd 3688 af3d a150 a9bd 9d68 6bbd

weight f4 [32, 1, 3, 3]
-0.037491847 0.3054914 -0.17775142 -0.14967544 -0.036321223 -0.2584938 0.12647106 0.056421485
-0.07480151 0.08595492 -0.010640933 0.18401332 -0.16988598 -0.017987363 0.16934298 0.19601962
-0.001542577 -0.16203217 -0.23878983 -0.024789566 0.07790034 0.22332452 -0.11600816 0.29912966
0.060612924 0.17148472 -0.14673722 0.049083926 -0.2365259 -0.010582942 -0.21519434 -0.18306853
0.20957103 -0.13963713 0.23529068 -0.17863572 -0.19512121 -0.17661989 0.25433883 0.22247896
0.26570657 -0.05176569 0.19433086 -0.20904067 -0.008335388 -0.09744053 0.24483347 -0.23616637
0.25107753 0.25903365 0.025447547 0.22603382 0.01955176 -0.26855054 -0.26848257 -0.04568731
-0.24396782 -0.14280652 0.027927613 0.36894053 -0.0316348 0.38933057 0.038226705 0.194932
-0.24142437 -0.31254125 -0.18500485 0.119742535 -0.22262298 -0.10201082 -0.058149386 0.28748372
-0.13314949 -0.25734714 -0.29560775 0.2711206 -0.021917488 -0.014116377 -0.10524255 -0.14205472
-0.2902447 0.01938402 0.27866665 0.05761894 -0.11521829 -0.0033359902 0.30382964 0.16388588
-0.03273235 -0.16257805 0.15158343 -0.18442364 -0.046998546 -0.026684457 0.07661499 -0.23340285
-0.08000385 -0.225113 -0.29335642 -0.19177005 0.31171134 0.2432877 -0.23427026 0.19192712
0.2669795 -0.26412606 -0.06648803 -0.26236457 0.2545294 -0.20956835 -0.11085817 0.08306796
-0.15993686 -0.14131232 -0.20384783 -0.30195162 -0.21469828 0.13217443 0.08151589 0.3275634
0.22592011 -0.13658488 0.15303949 0.30359802 -0.19555205 0.21295974 -0.04875257 0.21858817
-0.007582241 0.26705006 0.2648811 -0.23348783 0.078259856 -0.105482936 -0.23643343 0.15243791
0.3271748 0.06530743 0.041604612 0.26342204 0.04839627 0.17576982 0.28098527 0.19150054
0.01763931 0.17967413 0.050484464 0.30488053 0.21020828 -0.045717623 -0.1473529 -0.22556402
0.2711186 0.06476529 0.19217448 -0.027051883 -0.049289137 0.25827992 0.06968993 -0.103295065
-0.20668107 -0.29779202 0.056710202 0.1490076 -0.08338292 0.31631026 -0.24215731 -0.1988612
0.16480374 0.012569381 0.044067025 -0.021253558 -0.050690122 0.13416821 0.18819208 0.33724806
0.19018003 0.014141642 -0.11631786 -0.020365672 -0.09223266 -0.15246986 -0.15370604 -0.01374528
0.07398102 -0.13691758 0.32502759 0.15597883 -0.091829814 -0.1555032 -0.27285627 0.2358183
0.048641544 -0.23593822 0.22787762 -0.21712494 -0.14419883 0.110522956 -0.2979164 -0.27913642
0.038120408 -0.24173509 0.3139286 0.31637824 0.07758607 -0.23038805 0.18661219 -0.19776195
-0.18665498 0.12476635 0.1472869 -0.26513457 0.0697397 0.24155602 -6.5040826e-05 0.13961613
0.26699582 0.30012283 -0.24273802 -0.31616142 0.21531287 0.100430086 -0.2863982 0.12711321
0.06194214 0.1351071 0.03337518 0.27034146 -0.23882763 -0.14832936 0.29489073 -0.2564104
-0.18060882 -0.031841286 -0.27253148 0.14111774 -0.30877137 0.17894697 -0.2272668 0.048571926
-0.14775312 -0.22049268 -0.028380366 0.22104818 0.11277287 -0.30763426 0.036328252 -0.3350073
-0.2764952 -0.33619907 -0.14092274 0.34423795 -0.22670834 -0.279347 -0.06148917 -0.04361022
00000000: 0d91 19bd 5e69 9c3e 7804 36be 8544 19be
00000010: 90c5 14bd 4d59 84be a181 013e 371a 673d
00000020: 8931 99bd 2209 b03d 4f57 2ebc fd6d 3c3e
00000030: 97f6 2dbe 3c5a 93bc 3f68 2d3e 5eb9 483e
00000040: 4c30 caba c3eb 25be 5285 74be 7d13 cbbc
00000050: 378a 9f3d 2faf 643e b095 edbd 8627 993e
00000060: 4245 783d b199 2f3e 4842 16be 3a0c 493d
00000070: d833 72be 1364 2dbc e85b 5cbe 5176 3bbe
00000080: ca99 563e 09fd 0ebe 0af0 703e 48ec 36be
00000090: dbcd 47be d8db 34be b338 823e 86d1 633e
000000a0: b10a 883e 4308 54bd abfe 463e c20e 56be
000000b0: 2791 08bc e78e c7bd a0b5 7a3e 99d5 71be
000000c0: 3c8d 803e 0fa0 843e 6077 d03c 6975 673e
000000d0: 032b a03c 757f 89be 8c76 89be 9e22 3bbd
000000e0: b3d2 79be df3b 12be 73c8 e43c c6e5 bc3e
000000f0: 7e93 01bd 5656 c73e 9b93 1c3d 419c 473e
00000100: f337 77be 6805 a0be e971 3dbe 933b f53d
00000110: 47f7 63be 0ceb d0bd 0d2e 6ebd 1131 933e
00000120: 5758 08be 01c3 83be e659 97be 52d0 8a3e
00000130: 4e8c b3bc 6048 67bc 6889 d7bd cb76 11be
00000140: f49a 94be 3ccb 9e3c 65ad 8e3e d601 6c3d
00000150: 91f7 ebbd a1a0 5abb 8f8f 9b3e b3d1 273e
00000160: 5b12 06bd dc7a 26be b038 1b3e 8dd9 3cbe
00000170: 8c81 40bd 5d99 dabc 52e8 9c3d 2801 6fbe
00000180: 0fd9 a3bd 0684 66be d032 96be 5e5f 44be
00000190: a198 9f3e 6920 793e 8be4 6fbe 8b88 443e
000001a0: 89b1 883e 883b 87be e02a 88bd a654 86be
000001b0: ad51 823e 1699 56be 9c09 e3bd 891f aa3d
000001c0: 7dc6 23be 2db4 10be 7cbd 50be 6799 9abe
000001d0: ded9 5bbe bc58 073e cef1 a63d 64b6 a73e
000001e0: 9a57 673e e8dc 0bbe 62b6 1c3e 3371 9b3e
000001f0: cc3e 48be 1e12 5a3e c6b0 47bd 94d5 5f3e
00000200: 7374 f8bb c9ba 883e 7f9e 873e 6f17 6fbe
00000210: b446 a03d 7007 d8bd 9b1b 72be af18 1c3e
00000220: 7583 a73e e7bf 853d 9969 2a3d 41df 863e
00000230: 2b3b 463d 01fd 333e 4ddd 8f3e b818 443e
00000240: 5080 903c 7ffc 373e ccc8 4e3d 4d19 9c3e
00000250: d740 573e 6742 3bbd aee3 16be 41fa 66be
00000260: 0fd0 8a3e aaa3 843d 63c9 443e e99b ddbc
00000270: 68e3 49bd 443d 843e 98b9 8e3d 5d8c d3bd
00000280: 34a4 53be 3278 98be f548 683d 7395 183e
00000290: aac4 aabd 6bf3 a13e 16f8 77be 45a2 4bbe
000002a0: 50c2 283e ceef 4d3c a07f 343d f11b aebc
000002b0: 72a0 4fbd 6463 093e 6db5 403e c7ab ac3e
000002c0: 8ebe 423e 58b2 673c 0f38 eebd e9d5 a6bc
000002d0: 7ae4 bcbd 0f21 1cbe 1e65 1dbe e233 61bc
000002e0: 5c83 973d 1f34 0cbe 046a a63e eab8 1f3e
000002f0: 4511 bcbd 3b3c 1fbe d1b3 8bbe 5a7a 713e
00000300: 5b3c 473d ca99 71be c058 693e 0056 5ebe
00000310: dca8 13be dc59 e23d 8088 98be f8ea 8ebe
00000320: 2524 1c3d 6789 77be 40bb a03e 54fc a13e
00000330: 72e5 9e3d d8ea 6bbe 4417 3f3e 1c82 4abe
00000340: 7c22 3fbe 8085 ff3d 61d2 163e b8bf 87be
00000350: b0d3 8e3d 765a 773e 8766 88b8 88f7 0e3e
00000360: adb3 883e b3a9 993e 5190 78be e9df a1be
00000370: fa7a 5c3e 4aae cd3d c9a2 92be f729 023e
00000380: 0bb7 7d3d 8459 0a3e 6ab4 083d 326a 8a3e
00000390: 3b8f 74be a7e3 17be ebfb 963e 3948 83be
000003a0: 85f1 38be 026c 02bd 3f89 8bbe 2b81 103e
000003b0: 4817 9ebe e03d 373e a1b8 68be 5bf3 463d
000003c0: 984c 17be d5c8 61be f17d e8bc 745a 623e
000003d0: 76f5 e63d 3d82 9dbe efcc 143d 1486 abbe
000003e0: c790 8dbe 4922 acbe 0d4e 10be f53f b03e
000003f0: 3b26 68be 9206 8fbe 11dc 7bbd a1a0 32bd
