models/95.pt (torch, 837106 bytes, 17 tensors)

weight f4 [32, 1, 3, 3]
00000000: abbb 7ebd ea51 a73c a189 b33d 85b3 86be
00000010: d6e3 3b3e 736c 4dbe 3319 853e f40c 70be
00000020: 92d6 76be b144 dd3c a5e7 293e 96fa cbbd
00000030: d5e1 0dbe de61 0a3e cba2 c83d 04a3 873e
00000040: f75b babd c82c 73be dc0c 4fbe cf9d ac3d
00000050: 6aa3 a0be 9105 fb3d eeeb 3a3e db97 673e
00000060: 183b d73d 8c21 01be b7cc 24be 7460 3bbe
00000070: c024 a13e d9e3 67bd 0a26 b8bd 9ac4 ccbd
00000080: 5224 813e 70da 723e 9cd2 1fbd 6b21 3d3e
00000090: 818d a23e 7715 d5bd aa4e d3bd 2385 953e
000000a0: 2069 283e 18ea a3bd ddbc 943e d394 0a3e
000000b0: 90aa be3c c753 993e bff9 913e ba6f 17be
000000c0: afed 803d 6367 00be 88d9 3c3e 75f4 0dbe
000000d0: d59f 64be 521f 553e f13a 0abe 1652 a13b
000000e0: a9b1 8e3e 5c55 72be 90fe a5bd ce4b d33d
000000f0: f7c0 f93d e274 b2be 6aa9 413d e2e0 c23d
00000100: f877 003e b4d3 543e 6056 20be ba29 a53e
00000110: 92b6 963d 51f0 bdbd 5cf0 913d 42d9 33be
00000120: 8a10 3dbe bdf1 48be db7e 10be d74e 463e
00000130: be79 b7bd 89a6 6fbe 8f22 853e 9d2c 84be
00000140: b476 8b3c 5c6b 883e 58dd 4a3e f436 3abe
00000150: 90f2 983e e1d3 6b3e 6075 a43e fdc3 00be
00000160: 4147 20bc 7306 92be 2888 bdbe 86af 803d
00000170: e546 ffbb 714f ec3d b605 21be a60b be3d
00000180: 2386 7d3e b80b babe 3a1a 413e 7612 8c3d
00000190: 930b 41bd 9a2d 0e3e 2c72 873e 3ce0 82be
000001a0: 9fb8 90be 3db3 8fbd cbbb d7bd b4e8 033e
000001b0: 3118 753d e277 1bbe 67f6 63be a4b1 513e
000001c0: 9b4b 58be 2624 2e3d 3f8c 1e3e 69fe 5cbe
000001d0: ad78 80be 34f0 963e ca32 6a3e 8b10 aabd
000001e0: 51e6 67be 9237 99be 8d2c 62be 5f4c 713e
000001f0: a081 73be 455b 56be 1c84 71be 6468 5d3e
00000200: 425f 87be 3d2c 843e c228 3fbe 3664 913e
00000210: 3e16 77be 2215 403e 908f 54be 8e82 c8bd
00000220: eb1c 6c3e 7b2a 61bd 8095 693e 56f5 7dbe
00000230: eac3 d4be 6b78 edbc ad5c 573e 3633 0fbe
00000240: 4754 9abe d3f6 333e 823e 0b3d 4084 45bc
00000250: 809a 25be cdd8 9cbe ce74 903e 8191 5d3d
00000260: 4a09 1c3d 0342 823e 036e 92be 69e2 90be
00000270: b4db 073d 41fb 8d3d 5e32 983c d40d 52be
00000280: 9d92 473e 71cd 843e 7a8b c43d 95c4 9a3e
00000290: d1d2 0dba e4ef d43d 7aa1 5d3e 094e 09be
000002a0: ef3b 7e3e 63b6 563e 13b2 b0bd 4282 f6bd
000002b0: 0fbe 15be e253 22be 18e1 a53e f674 fcbd
000002c0: e029 2e3e 98cb a1be df08 c0bd f26c fb3c
000002d0: 1a89 11be 54a2 77be 8dc9 4dbd 64d0 843e
000002e0: 2f78 3d3e 15f0 8c3e a573 69be 8c06 9d3d
000002f0: 6cdc af3d 5753 003e 641d f93d ac95 87be
00000300: 693f ecbd 17e0 333e b025 c7bd 5774 a7bd
00000310: 891f c53d 44cc 86bd 0324 053d 8d7d a8be
00000320: 2c8e edbd dd19 f03d 56d0 fabd 2269 833d
00000330: d56b 893e 9d91 4e3e 1aeb 8a3e bce9 203e
00000340: 0869 57bd fa03 18be 40ed 6cbe c198 b43d
00000350: 49c0 b5be 4200 413e dd00 bf3d 443c 8cbd
00000360: 77ab ba3d 0c10 c8bd 3dbb 0fbe fccf 9bbe
00000370: 08ba bbbd efb4 bcbd 2922 013d 07b4 983e
00000380: 714c ffbd 65e8 6b3e b8a1 033e f6ce fc3c
00000390: e326 85be 4d54 39be 8d2a 5a3e 7154 98be
000003a0: da69 413e 1b9e 41be be0b 603d 99fd 2d3e
000003b0: d3a1 79be eec1 693e 7ec3 0e3e 1232 5dbe
000003c0: a6c7 d7bb 8d1c 7ebe 9eba 013d df01 503e
000003d0: 0837 093e faf2 82be 41b2 5bbd eeb4 88be
000003e0: a6a9 483e 5973 98bd b963 983d c2a7 5bbe
000003f0: 0c19 f0bd 31ea 73be 6f4a 99be 3fea 953e
-0.062190693 0.020424802 0.08766485 -0.26308838 0.18348631 -0.20060901 0.25995788 -0.23442441
-0.2410529 0.027010294 0.16592272 -0.09959905 -0.1385568 0.13513896 0.09796675 0.2649156
-0.09099572 -0.23747551 -0.20219749 0.08428537 -0.31374675 0.12256921 0.18254063 0.22616522
0.10509318 -0.12610453 -0.16093718 -0.18298513 0.3147335 -0.056613777 -0.089916304 -0.09998436
0.25223023 0.2371614 -0.039019212 0.18469779 0.31748584 -0.10404485 -0.10317738 0.29203138
0.16446352 -0.08003634 0.2905034 0.13533334 0.02327469 0.2994673 0.28510854 -0.14788714
0.062953345 -0.12539439 0.18442357 -0.13862784 -0.22326596 0.20812729 -0.13499047 0.0049231155
0.2786992 -0.23665375 -0.081051946 0.10317193 0.12195008 -0.348548 0.047280706 0.09515549
0.12545764 0.20783883 -0.1565795 0.32258397 0.07359041 -0.09274352 0.07125923 -0.17563346
-0.1846334 -0.19623466 -0.14110892 0.19366013 -0.08958767 -0.23403372 0.2600293 -0.25815287
0.017024375 0.2664441 0.19810998 -0.18185025 0.2987256 0.23030044 0.321208 -0.12574764
-0.009782613 -0.28520545 -0.3701794 0.062834784 -0.0077904337 0.1153859 -0.15724835 0.092795655
0.247582 -0.36337066 0.18857661 0.06839459 -0.04713018 0.13884583 0.26454294 -0.25561702
-0.28265855 -0.07016609 -0.105338655 0.12881738 0.059837524 -0.1518245 -0.22261964 0.20477921
-0.21122591 0.042514943 0.15483187 -0.21581425 -0.25092068 0.29480135 0.22870937 -0.083039366
-0.22646452 -0.2992521 -0.22087307 0.2356429 -0.23779917 -0.20933254 -0.23585552 0.21621853
-0.26439863 0.25815 -0.18667892 0.28396767 -0.24129578 0.18758062 -0.2075789 -0.09790526
0.23057906 -0.054972153 0.22810936 -0.2480062 -0.4155572 -0.028988084 0.21031447 -0.13984379
-0.30142424 0.17574625 0.03399516 -0.012055457 -0.16172218 -0.30634156 0.28214115 0.05409384
0.038094796 0.25440988 -0.28599557 -0.28297737 0.03316851 0.069326885 0.018578704 -0.20513088
0.19489522 0.2593799 0.095969155 0.30228105 -0.0005410137 0.10397318 0.2164363 -0.13408674
0.2482755 0.20968013 -0.08627715 -0.120365635 -0.14623283 -0.15852311 0.32398295 -0.12326996
0.17008162 -0.31600642 -0.09376692 0.030691598 -0.14212456 -0.24183017 -0.050241042 0.2594024
0.18502878 0.27526918 -0.22798021 0.07667264 0.08586964 0.12531792 0.12163809 -0.26481378
-0.11535532 0.17565952 -0.09723985 -0.08176487 0.096251555 -0.06581929 0.032505047 -0.32908288
-0.11599383 0.11723683 -0.12246768 0.06416537 0.26840082 0.20172735 0.27132493 0.15714163
-0.0525904 -0.14845267 -0.23137379 0.08818198 -0.35498264 0.18847755 0.093263365 -0.06847432
0.091147356 -0.09768686 -0.1403627 -0.30432117 -0.09166342 -0.09214198 0.03152672 0.2982485
-0.12465752 0.2303787 0.1285466 0.030860405 -0.2600623 -0.18098564 0.21305294 -0.29751924
0.18888035 -0.18907969 0.0546987 0.16991271 -0.24378137 0.22827885 0.13941762 -0.21601132
-0.0065850792 -0.24815579 0.031672113 0.20313214 0.13399899 -0.25576 -0.053636793 -0.26700538
0.19595966 -0.07443876 0.074408956 -0.21450713 -0.11723527 -0.23819806 -0.299396 0.29280278

bias f4 [32]
00000000: a582 e03d edab e43d 371c e03d 6703 96be
00000010: 0a82 a83e b029 4fbd 4e6c aabd c84a 683e
00000020: 3dc6 b83e 5164 8bbc a83c 8bbe 8841 9f3e
00000030: 6ecd 963d 2812 7e3e 004e 103e 8fc5 8c3e
00000040: eba2 2bbe f793 fcbd 9db1 1fbd e075 8b3e
00000050: 84df 91be 7f28 bebe 15a5 573d 572b b73d
00000060: 64db 543e d659 a03d 208d 683d 2f8b 4fbd
00000070: 90d8 96be 7ef6 cabd 5606 e0bd 2eb2 e13d
0.109624185 0.11165605 0.109428816 -0.2929947 0.32911712 -0.050576866 -0.08321439 0.22684777
0.36088744 -0.017015608 -0.27194715 0.31104684 0.07363401 0.24811614 0.14092255 0.27494475
-0.16761367 -0.123329096 -0.038987745 0.2723837 -0.2849084 -0.3714027 0.05264767 0.08943813
0.20786816 0.07829635 0.056775212 -0.050669845 -0.294621 -0.09910296 -0.109387085 0.11020313

weight f4 [64, 32, 3, 3]
00000000: f845 2a3c 2c86 39bc 58fb d9bd 01f0 f4bc
00000010: 6294 dbba 1c7e 4d3b cc20 303b f466 83bd
00000020: 630b 7239 30c2 38bc b92e b1bb 15a2 9f3d
00000030: 0516 403d 3ba4 b33b 92d9 2fbd 3bf1 8b3d
00000040: ca1f fb3c 4d61 993c 7011 d4bb ce83 3d3c
00000050: 1ac4 5e3d c0d2 043d 1bcb 953b d393 92bd
00000060: 5ac1 e8bc cd34 2f3d 5f4b 753d 427e 5a3c
00000070: d6ae a3bc 2c06 1dbd 9a68 bb3c 3200 4bbd
00000080: afb8 debb 5875 1abc e595 603d 56f5 cf3c
00000090: 92c7 56bb b138 ce3c 0e7b 5abd 983d 6cbd
000000a0: 11a0 4bbd d9d4 67bc 2df6 3fbd 81e3 47bb
000000b0: 502e 103d a479 87bc 5b5f 563c b2f0 abbc
000000c0: 084a 94ba af0e 333d 97d8 693d c1c5 243d
000000d0: 849c 4e3d f245 9b3d 71c6 383d 0497 67bd
000000e0: 9d35 a4bb 0b99 35bd b3c3 133d 0942 05bd
000000f0: 7ad1 8639 c1ef db3b 43bc 7a3d 4235 59bd
00000100: 9959 24bd 20d4 2cbc 580e e4bc fd23 27bd
00000110: 81d5 bd3c fbb9 ed3c 71bd 743c 2c94 5bbd
00000120: 5c14 36bd 24d9 f3ba 9538 00be 9de0 9ebc
00000130: 5977 0ebc d26c 0cbe 7659 10bd 0263 afbd
00000140: 91c6 03be 6ab5 2f3d c53e a7bc 5768 4b3c
00000150: 78da 0d3d fad2 c7bc c059 e1bc d6a0 3fbd
00000160: e6d6 dc3c a947 15bd ae61 e0bc 7a75 753b
00000170: fe80 a63c dfbe 663c ded2 d03c e00f 1dbd
00000180: 762b 0fbb 05b6 613c fd84 e93b b9c3 8bbc
00000190: 6391 9abb f233 853d 6cec eabb f516 2b3d
000001a0: 6d5c e03d eeac 613d 1366 fb3c c14a ec3d
000001b0: 2a2e 84bd cc08 853c cca1 1dbd f895 5bbd
000001c0: 0b32 2cbd 1bcf 25be 8157 0fbd a5c4 e1bd
000001d0: ef43 18be d9bc 88bd 8c24 a8bb 0130 bfbd
000001e0: a916 a23a 65fe 223d 8463 3bbd 8722 d4bb
000001f0: 867d 08bc 0363 44bd 2e77 133d 2ab8 80bc
00000200: 1a32 e43d 6f1e 163d 0bae 3bbd d2cc 543d
00000210: 7fc4 b73c fc40 b93d 1e0c 1b3e bab2 12bd
00000220: 9567 413c a888 03bd 030c b23b f37c b3bc
00000230: 0589 563a 10a5 03bc 2ceb aa3c 07d7 1bbd
00000240: f97a 8e3c b054 fe3c 2e07 743d c06d 3a3d
00000250: c851 193c 87c0 6e3d b5a1 4b3d 3a16 2a3d
00000260: fc77 51bc f5f2 4cbd de12 a1bc f35e c03c
00000270: 759d 55bc b322 52bc 4b8b 49bd 8e7f 89bc
00000280: e488 3b3d 9fde 1d3c 34a3 4bbd 274d 0d3d
00000290: 387c cf3c 6e32 c03c 2a3e 1bbd 9b23 a0bc
000002a0: 6435 99bc 8e8b 9f3b e9f6 343c 9107 2cbd
000002b0: df0a f4bc a5e9 d03c b271 19bd cf68 423b
000002c0: d8d4 46bd c765 fabc 84a5 553d 50ae d43c
000002d0: 23e4 11bd b8c2 efbc 70a8 823d 111b 94bb
000002e0: 1cfb cebc 847c 9bbc 3780 ce3c fad4 74bd
000002f0: c1f4 01bd f513 813c 17ac 913c 08b2 4e3a
00000300: c467 49bd 5e65 4bbd 5923 f6bc 6ea7 d23c
00000310: 3322 fdbc 2a51 7c3d aa23 553d 9006 32bd
00000320: 8526 55bc 5fd6 133d c5f2 2e3d 3797 d43c
00000330: f70d 443b d176 633d c7b1 08bd 75ec de3c
00000340: 599d e0bc a8ef a5bd a228 f03c ce92 103d
00000350: cbd8 3cbd 78f9 b4ba 3a4a 7f3c a618 c33b
00000360: ec0b b43c dfd7 a8bd e027 39bd b774 87bd
00000370: 9926 eabc 6e02 05bc 22cc 153d 6458 adbc
00000380: 9dd4 eb3d dde5 d63c 1a97 14bd 4036 913c
00000390: 29d9 0cbd ee17 84ba da47 9e3d be00 a73d
000003a0: 05e6 873c bd67 653c 72f5 10bd c1d8 16bd
000003b0: 41c3 ba3b 881e 48bd b646 ffbc 2ae5 773d
000003c0: d1bb 3dbc bbef 46bc 55d9 663d 59b2 863b
000003d0: b167 613d e6d8 103e 6c24 be3c 93f4 c23c
000003e0: 283c 7bbc 2be3 833d a27e 573c a8bd f53d
000003f0: 946d 563d a36c 3b3c 676c 073d fa48 14bd
0.010392658 -0.011323493 -0.10643643 -0.029899599 -0.0016752596 0.0031355685 0.0026875017 -0.06416121
0.0002308316 -0.011276767 -0.005407181 0.077945866 0.046896 0.0054822243 -0.0429321 0.068331204
0.030654807 0.018723154 -0.0064718053 0.011567069 0.054386236 0.03242755 0.004571331 -0.071571015
-0.02841251 0.042774964 0.059886333 0.013335766 -0.01998083 -0.038335964 0.022877026 -0.049560733
-0.0067969183 -0.009427391 0.05483045 0.02538554 -0.0032772762 0.025173517 -0.05334001 -0.057675928
-0.049713198 -0.014149868 -0.04686563 -0.0030500593 0.035200417 -0.016537495 0.013084258 -0.020988796
-0.0011313567 0.043715175 0.05709132 0.040227655 0.050442234 0.075817004 0.045111123 -0.056540504
-0.005011274 -0.044335406 0.036075305 -0.03253368 0.00025714544 0.0067119305 0.061214697 -0.053029306
-0.04012451 -0.010548621 -0.02783887 -0.040805805 0.023173096 0.029019346 0.0149377445 -0.053608105
-0.04445301 -0.0018604142 -0.12521584 -0.019394213 -0.008695447 -0.13713387 -0.035241567 -0.08563806
-0.12868716 0.04289762 -0.020415673 0.012415013 0.034632176 -0.024392594 -0.027508616 -0.046784244
0.02695794 -0.036445294 -0.027390327 0.0037454055 0.02032518 0.014083593 0.025491174 -0.038345218
-0.0021845973 0.013776307 0.007126449 -0.017061101 -0.0047170385 0.065040484 -0.007169297 0.04176994
0.10955129 0.05509656 0.030688321 0.11537696 -0.064541176 0.016239546 -0.03848438 -0.05360982
-0.042039912 -0.16192286 -0.03499556 -0.11023835 -0.14869665 -0.06676645 -0.00513131 -0.09335328
0.0012366372 0.03979339 -0.045749202 -0.0064738425 -0.008330708 -0.047945987 0.03600233 -0.015712816
0.111423686 0.036650117 -0.045820277 0.051953144 0.022432564 0.09045598 0.15141341 -0.03581498
0.011804481 -0.032112747 0.005433561 -0.021910166 0.00081838696 -0.008034959 0.020864092 -0.038046863
0.017392622 0.031046242 0.05957716 0.045514822 0.009357877 0.058289077 0.049714763 0.041525103
-0.012784954 -0.05003639 -0.019662317 0.023482775 -0.013038029 -0.012825656 -0.049205106 -0.016784456
0.045784846 0.009635597 -0.04971619 0.034497406 0.025327787 0.023461547 -0.03790108 -0.019548228
-0.018702216 0.004868931 0.011045196 -0.041999403 -0.02979034 0.025502035 -0.037461944 0.0029664522
-0.048542827 -0.03056611 0.0521598 0.025962025 -0.03561796 -0.029267654 0.06379783 -0.004519828
-0.025266223 -0.018980272 0.025207622 -0.059773423 -0.031727556 0.015756587 0.017782254 0.0007884805
-0.049171224 -0.04965722 -0.030046152 0.025714602 -0.030900097 0.06160084 0.052035965 -0.04346329
-0.013009672 0.036093112 0.04271199 0.025951011 0.002991555 0.055533234 -0.033372667 0.02721236
-0.02741878 -0.081023514 0.02931625 0.035296254 -0.046105187 -0.0013807258 0.015581662 0.005953866
0.021978341 -0.08244299 -0.045204043 -0.066140585 -0.028582858 -0.008118255 0.03657163 -0.021160312
0.11515162 0.026232654 -0.036276914 0.017726064 -0.034386788 -0.0010077932 0.07728548 0.081544384
0.016589174 0.014001784 -0.035390325 -0.036827806 0.0056995456 -0.048857242 -0.031161647 0.060521282
-0.011580423 -0.012142117 0.056359608 0.004110616 0.05503053 0.1414524 0.023210727 0.023798263
-0.015334167 0.06439813 0.01315275 0.11999065 0.052350596 0.011439475 0.033062365 -0.03620241

bias f4 [64]
00000000: adf2 dd3b 58a8 fb3d bfef b33d 61b3 22be
00000010: fbc6 553b 21d4 7a3b 0a79 81bd 1063 94bd
00000020: 37f3 5bbe a61c c93e d197 c53d 6330 8f3e
00000030: 1051 92be 1721 753d 00f2 1b3d e4e4 c53e
00000040: 1b53 083e 98bc b73e 0b04 33bc cb42 d9ba
00000050: cac0 44bd e265 77bd 30f7 d1bd cb64 0d3e
00000060: 1cc0 2bbe 3a82 343e 691c a03d ad77 91bc
00000070: 6dd7 5b3e d2e9 12be 31d3 2e3e 6f99 883e
00000080: b450 573d 5389 61bd be81 7c3b 4f11 b2be
00000090: 9de7 623d 63e4 15ba 087b 233e 58c2 3b3e
000000a0: d0bf 9d3d 604c 23be 6cd8 11bd 2f77 f13c
000000b0: be24 243b 51b6 d83d e976 36bd 0592 b3bd
000000c0: 666e 42be 0780 8b3e 739b b1bc 291c 603d
000000d0: e217 453c 347a 7a3d d5c9 0b3e d3d8 08bb
000000e0: 9981 48bd 1931 853e c242 53bc 21de ccbc
000000f0: 9653 a3bd 4e63 7a3d 0ffe 73be 6075 903d
0.006773314 0.122879684 0.08785962 -0.1588874 0.0032619822 0.0038273411 -0.063219145 -0.07245457
-0.21479498 0.3927967 0.09648097 0.27966604 -0.2857747 0.05984601 0.038072586 0.38651192
0.13312952 0.35886073 -0.010926257 -0.0016575692 -0.04803542 -0.060399897 -0.102522254 0.1380798
-0.16772503 0.17627802 0.07817919 -0.017757261 0.21468897 -0.14347008 0.1707275 0.2667956
0.0525672 -0.055062603 0.003852948 -0.3477883 0.055396665 -0.0005717931 0.15964901 0.18335855
0.07702601 -0.15947104 -0.035606787 0.029475776 0.0025046314 0.10581649 -0.044546995 -0.087680854
-0.18987426 0.27246115 -0.02168057 0.054714356 0.01202962 0.0611517 0.13651212 -0.002088119
-0.04895172 0.2601402 -0.012894334 -0.025008263 -0.07974927 0.06112986 -0.23827384 0.070536375

weight f4 [128, 64, 3, 3]
00000000: c99a bbbd faad c9bb 8a37 35bc 53d6 1fbd
00000010: b06e 96bc 37bd 36bd df15 c3bd 2c75 163c
00000020: 9f0e dc3b afd0 49bd ca51 86bc bd05 103d
00000030: 117d 19bd 1bea 2bbd cd64 06bd 2cd0 25bd
00000040: 4501 cd3b d742 9e39 f8c3 49bd b5ed 37bd
00000050: 2539 213d fc03 cfbb 0fcd 00bd 5c68 b13b
00000060: 8b6f 9c3c c528 9d3c 4b4c 32bd a93a 363d
00000070: 270e ba3c 18e3 8a3c 198b 113d 9c89 6c3c
00000080: ef29 cfbc b7a7 06bd 2e81 813d bb0b 3d3d
00000090: 51ba 15bc 97f1 73bb 5478 babc 8ce0 05bd
000000a0: 6ac1 203d 8a70 3f3d 29dd 363c ec2c 99bc
000000b0: 9bb6 543d 6efa 6a3b f19b 3b3d 40fe 04bd
000000c0: 7fb1 3bbc 26c9 323d 6b28 3abc d226 ea3c
000000d0: 1813 803d 9361 cabc 9367 823c ef79 42bc
000000e0: c1d9 3cbc e086 92bc 6a96 34bd 61f3 7639
000000f0: 216a 293d 5785 1b3c 79da a13d 2ba0 423d
00000100: 2feb 233d 678a b63c fa71 11bb 878d 333d
00000110: eb8b 4dbc b3a2 d03c 13a0 8a3d fad3 42bd
00000120: 19e5 82bd 4f52 d03c 854b c73b 8474 aabd
00000130: b2dc aabd 6f81 203d 8e47 e4bd 10fa 7abc
00000140: 69bc 893d 85bf aabd f168 883b e26f 713c
00000150: afd8 3abd 6e78 573d 0aa3 153c d411 25bd
00000160: efcc 28bd d207 41bd 9d24 9fbc 3b04 c8bc
00000170: 8fc3 21bd b744 57bd defa 8dbd bad8 77bd
00000180: 6844 0abe 6f2c 54bd a0ba 80bd 6d95 4cbd
00000190: b3f8 3bbd bb21 8bbc dbf7 7bbd 1cf9 c03c
000001a0: b58d 63bd 5e71 c0bd be20 0d3a 5a56 45bc
000001b0: e464 343d f482 6a3c e6ca 12bd da64 b1ba
000001c0: 485c d93c 48a4 af3c 44b6 d7bc 1706 e73b
000001d0: e5ff c63c 4d1f 923d e37d 613c c128 3ebd
000001e0: f500 773d 133a cd3c 027a 5abc a8a1 a53d
000001f0: a6a1 4a3d 191b 9c3d 173f 1ebc 5d98 3e3c
00000200: d486 423d 0804 e23c 02d3 a33c 5687 6c3c
00000210: d8ab 573c b1dc 55bb e9d5 e53c bc2b bd3c
00000220: 59e6 44bd 166c 83bb 1112 67bd 6676 6dbd
00000230: e87c 40bd 1075 0cbd 1ee8 80bc f8bd 593c
00000240: c7fd 87bd c4f0 99bc a93b 9b3c bcb8 403d
00000250: a487 81bc 0ba2 1f3d 8d55 5ebd 13ce 03bd
00000260: 4077 063d d797 88bd fbf7 35bc 9062 5c3b
00000270: 3870 953c b16d 6e3c 8e7c b03c 0a84 11bd
00000280: e765 7fbb e4da 813c d7cf b0ba 5a1b e53c
00000290: b2e0 bf3c f2c5 5fbd 9005 4a3a ecca 0b3c
000002a0: a10a 1cbd 8ca7 5ebc 7027 b3bb aca9 94bd
000002b0: fdae 2dbd 5703 bbbd de64 1bbd f145 feba
000002c0: c805 01bd abff cebd d5b0 a5bc f0ea 50bd
000002d0: 0591 72bb f95e 1cbd 7e81 b83c a23b b7bc
000002e0: 637e 09bd e4fb 653c 164d a0ba b030 3ebd
000002f0: 8980 e3bb b3fd b23c 35c4 8a3c 1b26 2f3d
00000300: 72b3 85bc 5aa9 9dbc b650 41bc fd1e 03bd
00000310: 48e6 9ebc 6e3b 493d c54d 773d 4875 293d
00000320: c086 f33d fd89 b4bc 9748 9d3b abeb 5c3d
00000330: 3ab7 92bb be7b 0dbd 5e93 233d 0550 91bd
00000340: 238d 603c 0f6e 863c 8aa3 eebc 7da9 1bbd
00000350: f79f 9bba 1903 593d 3ec3 693c 60a2 963c
00000360: db97 38bd d002 c4bb 5c63 bb3d 1978 8ebd
00000370: 5229 403d 44a3 4a3d 44a8 333c f3d4 723b
00000380: 165e 2d3d 8cf3 433b ead2 67bc 683c 933d
00000390: e0d3 0bbd 7b2d ffbc fdab 03bd fc43 5bbc
000003a0: 9dcc b7bc 5b18 2abc f210 bcbb e8be 91bc
000003b0: e1f5 30bd 4385 0bbd 1b74 5cbc eb34 9e3b
000003c0: 1f94 33bb 683b f03c 7c4b 623c e23a a5bc
000003d0: 19b3 093d e81c 503a b2b8 fdbc 58a6 683c
000003e0: b6c5 9739 a579 52bc a970 923c c7ff 81bc
000003f0: 782f eb3c 983f 4bbc 9b14 1b38 8389 babc
-0.09160382 -0.006154773 -0.011060605 -0.039022755 -0.018363327 -0.044614043 -0.09525656 0.009183209
0.00671561 -0.04927128 -0.016396422 0.035161722 -0.03747279 -0.041971307 -0.032810975 -0.04048173
0.006256255 0.00030185908 -0.049259156 -0.04490443 0.039361138 -0.0063176136 -0.03144556 0.005414052
0.019096157 0.01918448 -0.04352979 0.044489536 0.022711826 0.01695399 0.035533044 0.0144371055
-0.02528855 -0.03287479 0.06323467 0.046153765 -0.00913866 -0.0037222856 -0.022762455 -0.032684848
0.039246954 0.046738185 0.011161127 -0.018698178 0.05193196 0.0035854834 0.045803014 -0.032469034
-0.011455893 0.04364886 -0.011362175 0.028582964 0.06253642 -0.02470473 0.015918529 -0.011869892
-0.011526526 -0.017886579 -0.04408876 0.00023551054 0.041360978 0.00949224 0.079029985 0.04751603
0.04001921 0.022282792 -0.002219318 0.043836143 -0.012545566 0.025468206 0.06768813 -0.047565438
-0.06391353 0.025429873 0.0060820007 -0.08323005 -0.083428755 0.039185937 -0.111464605 -0.015318409
0.067253895 -0.08337311 0.0041629006 0.014736148 -0.0456168 0.052605085 0.00913311 -0.040300205
-0.041211065 -0.0471266 -0.019426638 -0.02441608 -0.03949314 -0.052555766 -0.06932615 -0.06050942
-0.13502657 -0.051800188 -0.06285596 -0.04994719 -0.045891475 -0.016983857 -0.06151567 0.023556285
-0.055555064 -0.09396623 0.0005383602 -0.012044514 0.04404153 0.014313448 -0.03583803 -0.0013534084
0.026533261 0.02144064 -0.026332028 0.0070502865 0.024291942 0.071348764 0.013762924 -0.046425585
0.060303647 0.025052106 -0.013334753 0.08087474 0.049470566 0.07622356 -0.0096585965 0.011633006
0.047491863 0.027589813 0.019998077 0.0144365635 0.013163529 -0.0032632763 0.028056102 0.023092143
-0.04807124 -0.0040106876 -0.056413714 -0.05797424 -0.04699412 -0.034291327 -0.015735682 0.013289921
-0.06640201 -0.018791564 0.018949347 0.047051176 -0.015811749 0.038972896 -0.054280806 -0.03217895
0.03282857 -0.06669586 -0.011106486 0.0033628084 0.018241987 0.01455252 0.021543767 -0.035526313
-0.003897065 0.015851445 -0.0013489675 0.027967144 0.023422573 -0.054632135 0.00077065174 0.008532267
-0.038096074 -0.013589751 -0.005467348 -0.07258925 -0.04240321 -0.091314964 -0.03793799 -0.0019399506
-0.031499654 -0.101073585 -0.020225922 -0.051005304 -0.0037012708 -0.03817651 0.022522684 -0.022367302
-0.033567797 0.014037106 -0.0012230005 -0.04643315 -0.006942813 0.021849489 0.016939262 0.04276095
-0.016320918 -0.019245792 -0.011799028 -0.032011975 -0.019396916 0.049128942 0.0603769 0.041371614
0.11890936 -0.022038454 0.004799913 0.053935688 -0.0044774087 -0.034541838 0.039935462 -0.07095341
0.013705525 0.016409902 -0.029130716 -0.038003433 -0.0011873235 0.05298147 0.014267741 0.018387973
-0.045066696 -0.0059817806 0.09149811 -0.069565006 0.046914406 0.04947211 0.010965411 0.0037053197
0.042326055 0.0029899804 -0.014149407 0.07189256 -0.034137607 -0.031149616 -0.032146443 -0.013382908
-0.022436434 -0.010381783 -0.0057393247 -0.017791227 -0.04320324 -0.034062635 -0.013455416 0.0048280857
-0.002740152 0.029325202 0.013811942 -0.02016968 0.033618066 0.00079388777 -0.030971859 0.014199816
0.0002894827 -0.012846385 0.017875986 -0.015869034 0.028709158 -0.012405299 3.697407e-05 -0.022770649

bias f4 [128]
00000000: 8a81 5ebd 6f17 863d 3028 033c 8d5f ce3c
00000010: 858c c6bd 7382 a3bd 6f32 81bd 61ef 3fbc
00000020: 187e 413d 7d45 ce3d 8aa8 9f3d 537c adbe
00000030: b572 41be 1677 adbd c880 d93c e96f 81bd
00000040: b1b5 e43d 9999 98bd 625f 96bd 434f 4ebd
00000050: c4ee 48bd 4c35 12bd bc39 a83d 9998 13be
00000060: 30c2 cbbe 4ecf 0a3e 3275 dabd ffdd 05bd
00000070: e3b9 143e e6d4 c6be c2ad d5bd e12d 1ebe
00000080: 646f 04bd 30d7 26bd 76a3 3dbe 6620 6bbd
00000090: 7e80 1a3d 0576 b5be 95c7 303e 0477 963d
000000a0: 2e00 6b3e 7bf2 af3d 1171 1cbd 1565 a6bd
000000b0: 618d 973d 36dc 3d3e d4a8 2bbd 59ae 16be
000000c0: eaa1 edbd 2f3a 63be dd1e a53d 26d5 8f3d
000000d0: 6669 7ebd 0714 e9bc 03f1 de3c bd4a 9b3d
000000e0: 7eb5 473e 3d0a 16bd 792a 433e c561 20bd
000000f0: 982a 993e b804 9fbd b4c4 eb3c ce32 4cbd
00000100: a30a 0cbd f876 023e e958 873d 6bf2 35bd
00000110: 0080 02bd fcbe 65bc 83b7 fbba 078f a8bd
00000120: e3e4 afbd 44da 943d 4bb4 e23c 0e82 99bd
00000130: 9db8 813d 91ce 373e b741 083d 40e1 293d
00000140: 7010 273d ad8f 1a3d 4d8f 2d3d 9b93 a7bd
00000150: d122 0bbe 244d 4f3d 61a1 ae3d fe59 52bc
00000160: 5ebc 96bd b077 eabd e7b4 773d f977 4bbd
00000170: 33e9 8e3a 1b14 42bd 5bef a6be c885 ca3b
00000180: 431b 9f3c 4585 a3bb ab86 363d 755b 16be
00000190: 32ff c4be fcbc ac3c c3e7 203d d8e8 313b
000001a0: 6b57 b5be 2fc2 253e caaa 13bd fcc8 833e
000001b0: 91b9 b5bd 9af7 5c3d a81a 20be 7885 cd3d
000001c0: fd7b febd 1507 0abd 4ded 28be cfea c8be
000001d0: 73da 133e bcba 173d 480d 1a3d eeb1 133d
000001e0: 24e1 c33d 20f1 163d a4b7 de3e d693 703d
000001f0: 7fae 853c c5e1 12be 454c 343d 4531 b5bb
-0.054322757 0.06547438 0.008005187 0.025192047 -0.09694771 -0.079838656 -0.063084476 -0.011714787
0.047239393 0.100718476 0.07795818 -0.33883914 -0.18891414 -0.084699795 0.026550665 -0.06320173
0.111674674 -0.074511714 -0.073424116 -0.05036856 -0.04905583 -0.03569536 0.08214137 -0.1441368
-0.3979659 0.13555643 -0.106668845 -0.032682415 0.14524035 -0.38834304 -0.10433532 -0.15447189
-0.032332793 -0.040732563 -0.18519387 -0.057403944 0.037720196 -0.35441604 0.17263635 0.07346919
0.22949287 0.08591171 -0.038193766 -0.081247486 0.07400013 0.18541035 -0.041909054 -0.14714946
-0.11603148 -0.22190164 0.08062527 0.07023077 -0.062112235 -0.028451933 0.027214533 0.075826146
0.19502828 -0.036630858 0.19059171 -0.03915574 0.2991531 -0.07764572 0.028780319 -0.04985314
-0.03418983 0.12740695 0.06608755 -0.04442064 -0.03186035 -0.014022585 -0.0019204471 -0.08230405
-0.085885786 0.07268193 0.027673861 -0.07495509 0.0633404 0.17949893 0.033265796 0.04147458
0.04078716 0.037734676 0.04237299 -0.081824504 -0.135875 0.050610676 0.08526874 -0.012838839
-0.07360147 -0.1144861 0.060475256 -0.04967496 0.0010903239 -0.047382455 -0.3260449 0.0061804987
0.01942218 -0.004990252 0.044562023 -0.14683326 -0.3847595 0.021086209 0.039283525 0.0027146842
-0.35418257 0.16187356 -0.03605155 0.25739276 -0.088732846 0.05394707 -0.15635169 0.10035223
-0.12425993 -0.03369816 -0.16496773 -0.39241645 0.144388 0.03704332 0.037610322 0.03605836
0.095644265 0.03685105 0.43499482 0.058734737 0.016318558 -0.14343937 0.04401805 -0.005529555

weight f4 [128, 64, 3, 3]
00000000: 703c c53c 6cd0 34bd 581e 38bc a0f4 2a3c
00000010: c4d2 793b a08b 3f3c 1387 7abb 3d11 bf3b
00000020: ae54 bebc 91e3 913c 88cb a3bc c6ce 23bc
00000030: 1beb ec3c 99c9 9cbc 24a1 d43c 6d0d 26bd
00000040: 723e 8fbb 95d4 b33c 07db d0bc 4f02 45bd
00000050: b1e4 92bc 172c a93c 29dc f4bc dc65 ffbb
00000060: 3466 6bbd 75e5 b8bc 73b7 10bd 038d 6bbc
00000070: a2e1 cabb 8496 453a 34ca 763b 75e9 20bd
00000080: f3dc 34bd 4d7f b33b fd6b 7d3c be71 173d
00000090: e734 483c c204 e5bb d837 043d 3443 4c3d
000000a0: 94d2 63bc 549c ec3a bcde 6ebc ddbd 0dbd
000000b0: 26ff 4dbd 7ef6 113b 081d ea3c f93e f5bc
000000c0: 39b7 81bc 2c98 353b 2285 40bd deea 9c3c
000000d0: 3c37 ba3c be57 aabc 591d 82bb dcf0 f5ba
000000e0: 1d8c 04bd c234 cc3c c248 0a3c a41c 443d
000000f0: 2c3f adbd 2ffd a23a 74ea 88bc 60c1 00bd
00000100: 1434 54bc 35cd 29bd ef7a dc3b f08b dbbc
00000110: eaca 4abc 5390 e23c 733e c63c ab37 6a3c
00000120: 5faa 59bc 17f7 0b3d c84e 0c3d 7dd5 003d
00000130: c041 0a3c ce52 29bd 8bca f53c 037c da3c
00000140: 7d21 4abc 38e1 3ebd 5c1e 593c 03a6 abbc
00000150: 23c5 c6bc fbe7 d3bc 0a46 a2bb ec6b f4ba
00000160: 6c8e 853d 6ee7 86ba 3cf5 383d 43de 323d
00000170: e614 52bc 3cd9 29bd 7657 873c 0d20 e3bc
00000180: ff06 263d c839 bb3d 6662 db3d 165d fbbc
00000190: da66 c6bc 34f1 83bb 006a 19bd ff59 03bd
000001a0: 82e3 5cbc 9863 69bd 7154 94bd 301c 173c
000001b0: e094 7abc 8501 03bd 3b6c 9f3c f2ec 2ebd
000001c0: 3646 bc3c 872b 32bd a3e9 8c3c 1c4e f4bc
000001d0: 322e bdbc 2c72 333d d52c 843d 430c 4e3d
000001e0: 85f0 373c bad2 4e3d f7ef ee3c 0917 103d
000001f0: 685c b33b 6b8c 2b3d e3f9 833c e517 2fbd
00000200: dbda 18bc 016c b63b 0e30 cd3c e1a2 a9bc
00000210: b2b2 a23d 3b5e 9a3d 3b22 e73d b9c2 44bc
00000220: db1d 073c da2b 2239 8ff5 34bb 402d 58bc
00000230: cb8f 83bc d54c 56bd 3aef 32bd 2235 333d
00000240: 8cec 3d3d bf79 6d3c 9193 25bd 4ced 433d
00000250: 5855 c6b9 97b8 823c f1e5 6c3d eb09 f8bc
00000260: 9ccc 61bc d34e e8bc 9167 ecbc 8e1e e23c
00000270: f6d5 bc3b de69 7abc 1100 26bd 8106 b43c
00000280: 9099 f33b ec32 91bc 14e0 07bd 8fe6 2cbd
00000290: cc9c 0cbe 491b 023a 3363 83bd 853a b2bd
000002a0: ba77 6bbd 189f 92bd d180 c6bd 8d7e 253c
000002b0: f138 debb 43cc b1b8 04a4 513d d163 6c3d
000002c0: c2de ec3c 5306 26bd 7117 0b3c 0280 283d
000002d0: 7301 7ebc 7da1 063d 85db 893c 7f85 f8bc
000002e0: 07b8 543d 81d4 c939 90bb 87bd 8d38 683d
000002f0: 320d 44bc 6703 1f3b dc7a 69bc 3058 c2bc
00000300: d9b5 983a e49e 3bbd 7e44 e8bc 349d a93c
00000310: 6074 dabc 469f 16bc a89e 6e3c 1266 11ba
00000320: b2cc 193c 036d 03bd 6721 11bd 5345 00bd
00000330: fe79 603d 7b2d 913c f557 493d 46f5 30bd
00000340: 663d 443d 698e b93d d399 023b 56d5 9fbc
00000350: 2f89 a73c c58b a93d 2024 083b 0070 4f3d
00000360: 92df ec3c b797 293d 8aa1 913d 33bc 893d
00000370: 9c34 383d af62 683d 98dc d13c 368b 553d
00000380: 8559 c73c 652a 1abe ce5c dabc fe89 a53d
00000390: d47c ae3c 78b2 33bd b2e2 fd3d d753 77bd
000003a0: 4bac 453d 054f 0f3d 1928 d63a 9322 9fbd
000003b0: 4945 a9bc 2909 933c 7bf9 e03c 4116 4ebc
000003c0: 328b 76bd ccb2 30bd b556 4bbd 0458 47bc
000003d0: af9c 90bd a033 12be 757c c63c 1baa 43bc
000003e0: c736 b4bd e1ea cf3c f26f 86bc ce08 a0bd
000003f0: 752f 6abc ef03 90bc 635e 0d3d fe02 46bd
0.02407667 -0.04414408 -0.011237703 0.0104343 0.003812001 0.011691004 -0.0038227483 0.0058309124
-0.023233738 0.017808707 -0.019994512 -0.009998029 0.0289207 -0.019139098 0.025955744 -0.040540148
-0.0043714577 0.021951953 -0.025495065 -0.048097905 -0.017931314 0.020650906 -0.029890137 -0.007794125
-0.057470515 -0.022570351 -0.0353312 -0.0143768815 -0.0061914483 0.0007537382 0.0037657144 -0.039285142
-0.044156026 0.005477822 0.015467641 0.036973707 0.012219644 -0.0069890926 0.03227982 0.049868777
-0.013905186 0.001805196 -0.014579471 -0.034604896 -0.050292157 0.0022272165 0.028578296 -0.029937254
-0.015834438 0.002770911 -0.047001965 0.019154962 0.022731416 -0.020793792 -0.0039707837 -0.0018763798
-0.032360185 0.0249275 0.008440198 0.047878876 -0.08459315 0.0012435074 -0.016713358 -0.031434417
-0.0129518695 -0.041455466 0.006728522 -0.026800126 -0.01237748 0.02765671 0.0241997 0.014295499
-0.013285249 0.03417119 0.03425482 0.0314536 0.008438528 -0.041338734 0.030003807 0.026670462
-0.012337086 -0.046601504 0.013251867 -0.020953184 -0.024263924 -0.025867453 -0.004952197 -0.0018647886
0.065213054 -0.001029236 0.04515575 0.043668997 -0.012822365 -0.041466936 0.016521197 -0.027725244
0.040534016 0.0914188 0.107121274 -0.030684035 -0.024218965 -0.0040265564 -0.037454605 -0.03206825
-0.013481976 -0.056979746 -0.072426684 0.009223029 -0.015294284 -0.03198387 0.019460788 -0.042706437
0.022982698 -0.043498542 0.01720125 -0.029822402 -0.023093317 0.043810055 0.064538635 0.050304662
0.011226778 0.050493933 0.029167159 0.035178218 0.005473662 0.04188196 0.016110366 -0.042747397
-0.009329523 0.0055670743 0.025047328 -0.02070755 0.0794424 0.07537504 0.11285826 -0.012009316
0.008246864 0.0001546586 -0.0027612185 -0.013194382 -0.016059777 -0.052319366 -0.043685175 0.043751843
0.046368167 0.014494359 -0.040423933 0.047833726 -0.0003782909 0.01595716 0.057836477 -0.030278167
-0.013781693 -0.028357899 -0.028857978 0.02760246 0.005762811 -0.01528403 -0.040527407 0.021975758
0.0074340776 -0.017724477 -0.033172682 -0.042212065 -0.13731688 0.0004963172 -0.06415405 -0.08702568
-0.057487227 -0.07159251 -0.096925385 0.010100973 -0.0067816903 -8.4780644e-05 0.051181808 0.05771238
0.028914813 -0.040533375 0.008489476 0.041137703 -0.015503275 0.03286885 0.016828308 -0.030337093
0.051933315 0.00038496035 -0.066275716 0.056694556 -0.011966037 0.0024263503 -0.014250483 -0.023723692
0.0011650875 -0.045805827 -0.028352972 0.020704843 -0.02666682 -0.009193247 0.014564194 -0.00055465207
0.009387182 -0.032086384 -0.035432246 -0.031316113 0.05480384 0.017721882 0.049156148 -0.04320266
0.047910117 0.09060366 0.0019928112 -0.019510906 0.020451156 0.08278612 0.0020773485 0.05064392
0.0289152 0.041404452 0.07110889 0.06725349 0.044972047 0.056734737 0.025617883 0.052134715
0.024334678 -0.15055235 -0.02665558 0.080829605 0.021299757 -0.043871373 0.12396754 -0.06038269
0.048260015 0.03498747 0.0016338854 -0.077702664 -0.02066292 0.017948704 0.027462712 -0.012578548
-0.06019134 -0.043139264 -0.049643237 -0.012166981 -0.07061135 -0.14277506 0.024229268 -0.011942412
-0.087995104 0.025380554 -0.016410802 -0.07814179 -0.014293541 -0.01758 0.034513842 -0.048342697

bias f4 [64]
00000000: a455 693d 22d0 863d a8d5 a33e 1d20 163c
00000010: b0ce 88bd b414 083d f9e9 b63b 2729 5c3d
00000020: e47d 353d c99b c43c 2352 4f3c caac 9f3d
00000030: c916 863d b210 6bbd bcfb 38be ed25 7e3e
00000040: 70b5 b13d 4209 a73d 4150 023d 73c8 da3c
00000050: 0e77 083d 0d6e 3b3e 279a b03d f80e 7cbd
00000060: 6c9c 83bd 3c46 7abd ce98 623e 177f a93d
00000070: 2c5f 2abd 437c 8d3e 0df3 4a3c e698 b33c
00000080: f5a2 e6bb 94f1 ba3c 56a2 383d 1c79 693d
00000090: 9052 3a3c affc b5bc a55e 133c 5f28 183c
000000a0: 996b df3d af58 4d3e f52d 9f3d 69e0 6b3d
000000b0: 1f55 88bd d1c2 5a3d 17a0 babc ab67 103e
000000c0: f45f b73e c217 843d 7839 b0ba e88c af3c
000000d0: e190 4f3e b075 bf3d 4f84 95bc 9220 cb3c
000000e0: 4a02 433e 7210 e63d 0c9b 60bc 2f11 6e3c
000000f0: 401b 01bc 42c0 94bd fb5a 43bd d53f 32bd
0.05696644 0.06582667 0.31998944 0.00916293 -0.066800475 0.03322287 0.005582091 0.053750183
0.04430951 0.024000065 0.01265386 0.07796629 0.06547315 -0.05738897 -0.18064779 0.24819155
0.086771846 0.08156063 0.031814817 0.02670691 0.033316664 0.183037 0.08623152 -0.061537713
-0.064263195 -0.061102137 0.22128603 0.082761936 -0.04159467 0.27633867 0.012387049 0.021923494
-0.007038469 0.022820272 0.04507669 0.057000265 0.0113722235 -0.022215215 0.008994733 0.009286969
0.109091945 0.20053361 0.077724375 0.05758706 -0.066568606 0.053408448 -0.022781415 0.14102046
0.35815394 0.06449844 -0.0013444861 0.021429494 0.2027011 0.09348619 -0.018251566 0.024795804
0.19043842 0.112336054 -0.013708841 0.014530464 -0.007880032 -0.07263233 -0.047694188 -0.043517906

weight f4 [64, 32, 3, 3]
00000000: a785 14bc faa7 193d 3917 ee3c 4460 fcbc
00000010: 5363 2f3d 153f 76bd 172c 1e3d 5f5e 4cbd
00000020: 25c4 4cbd aae3 77b9 241b cb3b 2436 e83c
00000030: 2179 123d 68f2 2f3c 6750 11bd f8be f3bc
00000040: b3a3 783c 7810 2d3a 1c93 84bd 3337 6cbb
00000050: 58e7 3c3d e738 fe3c 176c 76bd 7236 de3c
00000060: ad51 473d 7aba 24bd 6833 0fbc e3aa 63bb
00000070: d17f 003d cf58 983b e5b1 cd3c 482f 713d
00000080: adfa e9bc 02a5 4bbd 85f2 0c3d ebcf 3c3c
00000090: 25df 50bb 8d60 81bd 7943 1cbd f6b5 58bd
000000a0: 1621 08bd bb44 db3c 0eb2 b3bc b1c6 113d
000000b0: 8ce1 13bc 805d 4d3c d523 663c 734f 173d
000000c0: 61b8 81bd 8b73 e8bc dcae 433d b614 843c
000000d0: dc1a 653b 3c56 293c cc87 9fbc 08c5 13bd
000000e0: 9454 093d aa3e 3ebc 6ac4 40bd 3ef5 1339
000000f0: 41f8 69bd 9163 953c c23b b4bc 5a68 8a3c
00000100: 0a31 6cbd 1093 533d 8a06 ecbc a8e2 afbd
00000110: 2b89 3b3d 2d3b fcbc 8cdf 25be 6856 01bc
00000120: 52b0 6fbc 8a19 4ebd 065f 37bd 6408 c63c
00000130: 68db f43b 9c58 ebbc eee7 55bd 0549 c7bd
00000140: 8b5d 44bd 166a 5dbc a6bb 43bd 1a06 1e3c
00000150: 465a 493d 673d 2d3d 4d58 4d3d 283e 6cbd
00000160: 7e56 afbc 344e 0fbc 0fe5 07bd 45f4 3c3c
00000170: fab8 80bd 587a 443d 10a1 c23c 9615 a13c
00000180: b2b4 5fbd 6e69 a7bc b089 b93b 3cce a33c
00000190: a830 b1bb 06e6 623d 947d cabb 5c7c 03bd
000001a0: af30 f73c d2d4 313d 17fa df3b 2c88 a6bd
000001b0: 0d8c 6e3d 6404 00bb 534f 82bd 3d87 103d
000001c0: ed30 113c 7d96 4fbd 3991 483d f5dc 123d
000001d0: ebd0 0dbc 5f32 a1bd af5a 11bd 99a9 dabd
000001e0: 7195 febc 1e5e 603d dd7c 133d c220 433c
000001f0: 7031 c93c 42ec 013d 6410 693d a303 593a
00000200: c42b 94bc 194b 02bd 7d6a 7abc b072 52bd
00000210: 784c c03c 9f33 ccbc 175a 6fbc 0e86 023d
00000220: ad4b 1bbd 44cb 9dbb 2333 4abc ea8d 08bd
00000230: e852 c2bc 9936 0dbd 06ff 4b3d c142 803d
00000240: d919 fa39 cef0 833c 67df 0ebc 0337 96bb
00000250: 4ac9 f539 86a3 083d 3f63 0e3d 677c 413d
00000260: ba3e 99ba fa8b aebc d6e7 1c3d 60a5 30bc
00000270: d31b 6e3d fb70 393d 9dc8 9dbc 074a 1b3d
00000280: 3b34 37bb 78f7 4fbd f5e2 c03c bb61 97bd
00000290: 6bc1 cebc 07cd 6f3d a51b 09bd 7031 e0bb
000002a0: 2ce0 51bb 143c 8c3d 7241 e3bc b7ed cbbd
000002b0: b2b8 4dbd 3e8c 4ebd 236d 823d 065d a93d
000002c0: 362e 0abd 7a4c d93c ac9b cd3d d0e5 113d
000002d0: fbfe febc 08f0 0ebd e12f a93c d0a5 43bc
000002e0: 6668 263d 762a 7e3d e25c ea3c da05 44bd
000002f0: 828c 443d ad7f 73bc 0d8d 473c 4626 283d
00000300: dc40 ea3b ff04 d2bc 9fd8 c73a 2b7e ec3c
00000310: 48d6 713d 9aa9 90bd cb4a 4f3d bd4e c3bc
00000320: dc37 5d3d 5f7d 2ebd d1ed 203d 5239 4bbc
00000330: 6e90 4e3d 8335 abbb 7c26 b8bc e65a 63bc
00000340: 499c 36bd df65 1cbd e1c1 86bc 3a34 023c
00000350: 1215 7a3d 4e32 283c 8d0b 0cbd f6cb cbbb
00000360: 821a 28bc 319c 8bbb 0445 46bd b004 413d
00000370: 769d 893c 089d 60bd ff8f 22bd b498 db3c
00000380: d3ba 75bc f9b4 c7bc a26f 683c 8bc5 2d3d
00000390: db4e 00bd 630c 633d 1171 fdbb 7f3e c53c
000003a0: f808 c23d d186 b53c a7d1 babc 2872 62bd
000003b0: 7e41 51bb 4355 49bc 38d8 b3bc 4b7e 59bd
000003c0: 631d 70bc 9e2f 193d caf1 b7bc 3d8f ca3d
000003d0: 692a 013d fd6a 52bd 19d3 7a3d 4dcd ccbc
000003e0: dbd9 5c3d bfc9 123c 150a 10bd 151d 183d
000003f0: 86b9 18bd 9b23 18bd 5a3e fdbc 13c4 41bd
-0.009065068 0.03751371 0.029063808 -0.030807622 0.042819332 -0.060118753 0.038616266 -0.049894687
-0.049991746 -0.00023640567 0.006198304 0.028346129 0.03576005 0.0107389465 -0.03547707 -0.029754147
0.015175748 0.00066018803 -0.064733714 -0.0036043643 0.046119064 0.031032993 -0.060161676 0.02712557
0.048661876 -0.0402169 -0.008740284 -0.0034739308 0.031371895 0.0046492587 0.02510924 0.05888298
-0.028561914 -0.04971791 0.034410972 0.011524181 -0.0031871286 -0.06317244 -0.038150284 -0.052907906
-0.03323468 0.026766172 -0.021935489 0.035589878 -0.0090259425 0.012534499 0.014046629 0.036941003
-0.063339956 -0.028375408 0.04777418 0.016123157 0.0034958636 0.010335501 -0.019473933 -0.036076576
0.033527926 -0.01161162 -0.047062315 0.00014110372 -0.05712152 0.018235954 -0.022001151 0.016895462
-0.057663955 0.05165392 -0.028811712 -0.08588153 0.04578511 -0.030789936 -0.16198558 -0.007894136
-0.01462944 -0.050317325 -0.044768356 0.024173923 0.0074724443 -0.028728776 -0.05222314 -0.09730724
-0.047940772 -0.013514062 -0.047786377 0.009645009 0.049158357 0.042294886 0.05013304 -0.057676464
-0.021403547 -0.008746672 -0.03317743 0.011532848 -0.062852815 0.04796824 0.023758441 0.019663613
-0.054615684 -0.020436015 0.0056621656 0.019995801 -0.0054074116 0.05539515 -0.006179521 -0.03210102
0.030174581 0.043415852 0.006835233 -0.081314415 0.05823903 -0.0019533867 -0.06362786 0.035285223
0.0088617625 -0.050680626 0.04896662 0.035855252 -0.008655767 -0.07870936 -0.035486873 -0.106768794
-0.031077119 0.054777257 0.03600775 0.011909666 0.024559706 0.031719454 0.056900397 0.0008278435
-0.018087275 -0.0318099 -0.015284178 -0.051378906 0.023473963 -0.024926959 -0.014608881 0.031866126
-0.037913967 -0.004815491 -0.0123412935 -0.033338465 -0.023721173 -0.034475897 0.049803756 0.06262732
0.00047702974 0.016106036 -0.008720255 -0.0045841946 0.00046880014 0.033359073 0.034762617 0.04723778
-0.0011691668 -0.02130698 0.038307033 -0.010781616 0.058132004 0.045273762 -0.019260699 0.037912395
-0.0027954716 -0.050773114 0.023545722 -0.073916875 -0.025238713 0.05854514 -0.03347363 -0.006841831
-0.0032024486 0.068473965 -0.027741168 -0.0995745 -0.050224967 -0.050426714 0.063684724 0.08269696
-0.033735476 0.026525725 0.10039458 0.035619557 -0.031127444 -0.03489688 0.020652713 -0.011941388
0.040626906 0.062052213 0.028608743 -0.047857143 0.04798556 -0.014861983 0.012179625 0.041052125
0.007148845 -0.025637148 0.0015247053 0.028868755 0.059042245 -0.07063599 0.050608438 -0.023841256
0.05400835 -0.042600032 0.0392893 -0.012403803 0.050430708 -0.005224885 -0.022479288 -0.013876652
-0.04458264 -0.03818309 -0.01644987 0.007947022 0.06105525 0.0102659 -0.034190703 -0.0062193824
-0.010260226 -0.004260563 -0.048405662 0.04712361 0.016798716 -0.054837257 -0.039688107 0.026806213
-0.014998156 -0.024378287 0.014186772 0.04242472 -0.031325202 0.055431735 -0.007734426 0.024077652
0.09474367 0.022159012 -0.022805048 -0.05528465 -0.0031929906 -0.012288394 -0.021953687 -0.053098958
-0.014655444 0.037398927 -0.022454161 0.09890602 0.031534586 -0.051371563 0.061236475 -0.025000239
0.0539187 0.008959233 -0.035165865 0.03713711 -0.037286304 -0.03714333 -0.03091352 -0.04730613

bias f4 [32]
00000000: 1906 c8bd 59dc b33d c095 773d b047 c1bd
00000010: 726b a23d 54ba 1f3d 1c70 bfbd 8fa6 3dbd
00000020: 99b5 bdbd c583 583d c1ae bfbc c593 f33d
00000030: f080 abbd d90e ce3d 8f47 6b3d caae 4a3c
00000040: 198b 233b e938 47bd 2c1d 89bd ef02 a73c
00000050: c525 0ebd d45e 6f3a 616b e5bc 328d 3c3c
00000060: 3b2d a33d 3228 19be c770 d2bc 89a2 ccbd
00000070: 0f66 dabd aff3 b43d 36a0 b2bd 7d1a 6bbd
-0.09766788 0.08782262 0.060445547 -0.094375014 0.0793065 0.038996056 -0.09347555 -0.04630142
-0.09263153 0.05286004 -0.023398759 0.11893419 -0.08374202 0.10061426 0.05744129 0.0123707745
0.0024954735 -0.048638258 -0.06695017 0.020387141 -0.03470399 0.0009131257 -0.028005304 0.011508273
0.079676114 -0.1495674 -0.025688542 -0.099919386 -0.106639974 0.088355415 -0.08721964 -0.057398308

weight f4 [32, 1, 3, 3]
00000000: 67db 1cbd 51d3 9b3e 0151 38be 17d7 19be
00000010: 048a 16bd 21c3 84be 93dc 003e 9758 653d
00000020: 141c 9ebd f138 af3d 6795 32bc 1af7 3b3e
00000030: ce0a 2ebe fb73 95bc d6f4 2c3e 6e2c 483e
00000040: 9564 eaba 29e7 25be ec79 74be 2eab ccbc
00000050: 09f4 9e3d 9e2c 643e 46ab edbd cfe4 983e
00000060: 1f2d 773d ca37 2f3e ae25 16be fd4a 343d
00000070: 6eba 73be 0c99 05bc c75e 5ebe d293 3ebe
00000080: 9870 563e ae21 0ebe f4af 6c3e 92f5 35be
00000090: 23dc 47be a3e8 34be 77ec 813e f33c 633e
000000a0: 58ba 873e a5b1 54bd c877 463e 3f09 56be
000000b0: 1d7d 0bbc 2eb8 c7bd 0c2d 7a3e 36b7 71be
000000c0: 9843 803e 3058 843e 31d1 ce3c 69f6 663e
000000d0: 8d77 9e3c 0c67 89be a56b 89be 8059 3abd
000000e0: e02f 79be 73ac 11be e9aa ed3c 8235 bc3e
000000f0: 5af0 febc 856f c73e f3a4 1f3d e2a6 4a3e
00000100: 05b3 80be 6ce6 a5be 3d41 3fbe 6bb0 e93d
00000110: a22a 68be bf14 d5bd a974 6abd 5bfe 933e
00000120: 2d78 08be f0b1 85be 9f88 99be bbef 873e
00000130: 6383 d5bc dfa3 97bc 8fa8 dabd 5bd9 13be
00000140: 70aa 96be a25c a83c 065d 8e3e a37c 6c3d
00000150: 60af e9bd 1029 4fbb b427 9b3e 6c4d 283e
00000160: 8d45 07bd 0194 26be 1d62 173e 4369 3dbe
00000170: a25a 44bd d808 f1bc 4445 983d 4408 70be
00000180: ca74 a8bd 4740 67be 62ad 96be 321a 44be
00000190: fe60 9f3e 95e3 783e bdb3 6fbe e515 443e
000001a0: a876 883e cd31 87be 297f 88bd 313a 86be
000001b0: a9b8 7e3e 3f88 55be 7fc1 d3bd a802 a93d
000001c0: 9b2b 21be 26c8 0abe 03fe 51be e991 9abe
000001d0: e510 59be efc4 073e a0f2 a83d 7fd4 a73e
000001e0: 96a6 673e d598 0abe 8a41 1d3e 599d 9b3e
000001f0: cc92 46be 4a59 5a3e 2841 49bd 7605 5f3e
00000200: 7112 05bc c141 883e e31f 873e 726d 6fbe
00000210: 9dca 9e3d 461b d9bd 5a89 72be 27b5 1b3e
00000220: f469 a73e ee19 853d 5e6f 2a3d 43eb 863e
00000230: 376e 4c3d 53fa 333e bd18 903e 4013 453e
00000240: d5ce 8f3c 89b2 373e 616a 4e3d 04de 9b3e
00000250: e6ec 563e 8f10 3bbd d3c4 16be fbb7 66be
00000260: dba7 8a3e 22c9 823d 4fcb 433e e7b8 e8bc
00000270: b76c 4dbd 304e 833e 4bdd 893d e801 d7bd
00000280: 4078 55be ad87 99be aaf6 683d f85e 183e
00000290: 27e2 aabd 87cf a13e 962b 77be 3a4a 4bbe
000002a0: 6bf6 283e 6108 533c 2fa8 343d 16e1 adbc
000002b0: eda2 4dbd 1dc1 093e ca4f 413e 0c1d ad3e
000002c0: 1bca 433e 0d72 a83c 8c27 e5bd ce85 49bc
000002d0: 139e bbbd dd5d 1bbe 46bc 1cbe a020 57bc
000002e0: 5f00 983d a3ab 0bbe 1b9c a63e d235 203e
000002f0: bf84 bbbd 46ff 1fbe 6d3b 8bbe 7882 713e
00000300: a6d9 433d 87ca 70be 5210 693e 305b 5ebe
00000310: 3900 13be 29d7 e13d adc3 98be c0ff 8dbe
00000320: cba4 213d ddc4 76be acde a03e ec8a a23e
00000330: e75d 9f3d 74ba 69be 2503 413e e6b0 49be
00000340: f9ae 3ebe b77f fd3d 2d0f 173e 4456 87be
00000350: 3a66 8e3d 8d22 783e 0c13 2f3a 0043 0f3e
00000360: 53f2 873e 6d14 993e 354d 79be 1813 a2be
00000370: 5467 5b3e df00 cb3d 21ee 92be 080e 013e
00000380: 0dd6 783d c443 103e e0a2 1f3d 005b 8d3e
00000390: f6f1 73be 19ec 15be 87bd 9a3e 0b67 85be
000003a0: e79a 3fbe b52f 10bd 1f6c 87be af15 0e3e
000003b0: 4c8b 9ebe f376 333e d546 6cbe 3d9e 383d
000003c0: b70a 1ebe 2289 64be bf33 1dbd 4915 643e
000003d0: 80b9 ea3d e6c4 9dbe 51c8 133d 8f39 acbe
000003e0: 8a02 8fbe 9c05 aebe 1db5 13be eec4 b03e
000003f0: cdf0 67be e83f 8fbe b855 82bd b2cb 2abd
-0.038295176 0.3043466 -0.1799965 -0.15023457 -0.036752716 -0.25930122 0.12584142 0.05599269
-0.07720199 0.085557826 -0.010899878 0.1835598 -0.16996309 -0.01824378 0.16890272 0.19548199
-0.0017882759 -0.16201462 -0.23874635 -0.024983969 0.0776139 0.22282645 -0.116049334 0.29862067
0.060345765 0.17111126 -0.14662811 0.044016827 -0.23801586 -0.008154165 -0.21715842 -0.18611076
0.20941389 -0.13880035 0.23113996 -0.17769459 -0.19517569 -0.17666869 0.2537572 0.22191219
0.26509356 -0.051927228 0.1938163 -0.20901965 -0.008513716 -0.09751926 0.24431247 -0.23605046
0.2505157 0.25848532 0.025246235 0.22554936 0.019344116 -0.2683643 -0.2683994 -0.04549551
-0.24334669 -0.1422594 0.02901216 0.36759573 -0.031120468 0.3895227 0.038975667 0.19790223
-0.2513658 -0.3240236 -0.1867723 0.11410602 -0.22672513 -0.10404348 -0.057240162 0.28904995
-0.13327093 -0.26112318 -0.29987046 0.26550087 -0.026063627 -0.018510757 -0.10676681 -0.14438383
-0.29426908 0.020551983 0.27805346 0.05773605 -0.11410403 -0.0031610169 0.3030373 0.16435784
-0.033025313 -0.16267397 0.14783521 -0.18497185 -0.047937997 -0.029423162 0.07435086 -0.23440653
-0.08225401 -0.22583114 -0.29429156 -0.19150618 0.31128687 0.24305566 -0.23408408 0.19148977
0.26653028 -0.26405182 -0.06664879 -0.26216272 0.2487513 -0.20852755 -0.10339641 0.0825246
-0.1573929 -0.13552913 -0.20507054 -0.30189446 -0.21197851 0.13258718 0.08249402 0.3277931
0.22622141 -0.13534863 0.15357032 0.30393484 -0.19391936 0.21323124 -0.049134403 0.21779427
-0.008122073 0.26612666 0.26391515 -0.23381594 0.07753489 -0.10600905 -0.23685208 0.15205823
0.32698023 0.06499086 0.041610114 0.26351365 0.049909797 0.1757596 0.28143874 0.19245625
0.01755468 0.179392 0.05039442 0.30442822 0.20988807 -0.04567009 -0.1472352 -0.2253112
0.2708119 0.06386019 0.19120525 -0.02840848 -0.050152507 0.2564559 0.067316614 -0.104984105
-0.20846653 -0.29986325 0.056875862 0.14879978 -0.083439164 0.31603643 -0.2413772 -0.19852534
0.16500251 0.012880416 0.044105705 -0.021225493 -0.050204206 0.13452573 0.18878093 0.33811224
0.19120066 0.020562196 -0.111891836 -0.012299968 -0.0916101 -0.15172525 -0.15306196 -0.013130337
0.07421946 -0.13639693 0.32540974 0.15645531 -0.09156179 -0.15624723 -0.27193776 0.23584926
0.047814988 -0.23514758 0.22760132 -0.21714473 -0.14355554 0.11027367 -0.2983679 -0.27734184
0.0394638 -0.24098535 0.31419885 0.31746614 0.07781582 -0.22825032 0.18848856 -0.19696388
-0.18621434 0.12377875 0.14751883 -0.26433003 0.06953092 0.2423193 0.00066785584 0.13990402
0.26552066 0.29898396 -0.24345858 -0.31655192 0.21426135 0.099122755 -0.28697303 0.12603009
0.06075101 0.1408835 0.03897369 0.2760849 -0.2382277 -0.14640845 0.30222723 -0.26055178
-0.18711434 -0.035201747 -0.26449677 0.13875459 -0.3096565 0.17525844 -0.23073895 0.045072783
-0.15433775 -0.22317937 -0.038379427 0.22273745 0.114611626 -0.30814284 0.03607971 -0.33637664
-0.27931625 -0.33988655 -0.14424558 0.34525245 -0.22650452 -0.27978444 -0.06364006 -0.041698165
