models/torch_model_20.pt (torch, 749410 bytes, 11 tensors)

weight f4 [32, 1, 3, 3]
000000 7e 0c eb bd 04 28 a6 be fa d1 00 be 28 54 fb 3c
       -0.11476992 -0.32452404 -0.125801 0.030679777
000010 76 38 15 be 54 3b 6e be 27 74 c9 bd a0 af a2 3e
       -0.1457232 -0.2326482 -0.098366074 0.31774616
000020 ef 34 7c 3a 80 d4 2a 3d a9 f9 83 be 48 16 7f be
       0.0009620925 0.041706562 -0.25776413 -0.24910843
000030 be d6 6e 3e ef f1 6a be fd 90 42 3e e6 76 2c be
       0.23324105 -0.22943853 0.19000621 -0.16842231
000040 c1 d7 d8 bd ad a6 68 3e e6 1b 84 3e d2 ef 09 3e
       -0.10588027 0.22719832 0.25802535 0.1347039
000050 39 3f a6 3e b6 ae 8d be f6 a6 2c bd 2d 75 2e bc
       0.3247011 -0.27672356 -0.042151414 -0.010648054
000060 41 7f 88 3e c0 48 c4 3c 70 89 1b 3d cd b4 a1 bd
       0.26659587 0.023960471 0.037972867 -0.07895813
000070 69 c9 91 3e 68 b6 fc 3d 1f a4 a7 be 47 1f 4c be
       0.28473976 0.12339479 -0.32742402 -0.19933806
000080 b7 4f a7 be db fc 05 3e 7c 6d 19 be 37 92 36 3e
       -0.32678005 0.13084738 -0.14983171 0.17829214
000090 1d 89 d0 3d ab 2a a4 bd bd 8d 17 3d e4 58 66 be
       0.10182402 -0.08015951 0.037000407 -0.22494847
0000a0 c5 3b fc bd 37 37 46 be 22 ac 08 be b4 55 20 3e
       -0.12316088 -0.19357 -0.13346913 0.15657693
0000b0 d0 5f e7 3d 85 a9 30 be 24 28 93 bd 22 e6 9d bd
       0.11297572 -0.17252167 -0.071853906 -0.0770991
0000c0 52 ba a4 be c5 06 08 3d ca d4 97 3d c5 ec ab 3d
       -0.321734 0.03320958 0.07413633 0.083947696
0000d0 84 ae f8 bd a0 c3 3c 3e 30 09 7a be 03 df e8 3d
       -0.12142661 0.18434 -0.24417567 0.11370661
0000e0 3f df ce 3d 9f ea 90 bd 30 10 2a bd c4 78 d4 3d
       0.101011746 -0.070760004 -0.041519344 0.10374597
0000f0 8c 08 71 3e 33 b0 93 be fd 2c a0 3e e2 f4 7c 3e
       0.23538417 -0.28845367 0.31284323 0.2470279
000100 7c 95 13 be 63 0d 69 be b3 0f e5 bd bc 5c 87 3e
       -0.14412493 -0.22759013 -0.11184635 0.26437938
000110 9e 3b a8 bd 22 f3 b7 bd 85 27 29 bd 20 71 26 3e
       -0.08214496 -0.08981921 -0.041297454 0.16254091
000120 cd 3e 71 3e f3 ba ff bd 7b 07 8c 3e c4 6c 7f bd
       0.23559113 -0.124868296 0.27349457 -0.062359586
000130 64 7a 1b 3e de d3 de bc 4b 26 92 3e f5 ee 15 bd
       0.15183407 -0.027200636 0.2854484 -0.03660484
000140 91 91 73 be e2 f5 7e 3e e3 1d e5 3d aa 9c 8f be
       -0.23785998 0.24898484 0.11187341 -0.28049213
000150 06 33 2a 3e 44 5d 3c 3d 37 3f 6d 3e 44 8a 84 be
       0.16621026 0.045987383 0.23168646 -0.25886738
000160 8d 39 4b be 3c dd 97 be 8c d3 cd bd c9 f7 9b bd
       -0.19846173 -0.29660976 -0.10050115 -0.07615621
000170 1f d7 f1 3d 36 ef f0 bc b0 9b 15 be d8 1c b5 bd
       0.11808609 -0.02941094 -0.14610171 -0.08843392
000180 c8 e8 bc 3c 63 79 3d be 63 93 d9 3d 3b 3d 97 bc
       0.023060217 -0.18503337 0.10623815 -0.018461814
000190 8f 45 36 bd 1c e9 9e be ee 73 18 bd af a8 bf bc
       -0.04449993 -0.31037223 -0.037219934 -0.023395864
0001a0 5b 9c 19 3e be a8 23 3e 12 8b 87 3e 19 28 3f be
       0.15001051 0.15982339 0.2647329 -0.1866764
0001b0 92 d6 7e be 14 4a 93 3e 2c 07 f8 3d bf ef 80 3e
       -0.2488654 0.28767455 0.12110743 0.25182912
0001c0 c5 1f 94 3e 14 80 67 be ff 44 85 3e 71 dd e1 3d
       0.28930488 -0.22607452 0.26029202 0.11028565
0001d0 53 49 a8 3d ed 86 2d bd f2 a6 b9 3d 8b 88 a2 be
       0.082171105 -0.042365003 0.090650454 -0.317448
0001e0 64 ff 7f 3e f1 b8 44 3e 6f ff 88 bd 58 95 9f be
       0.24999768 0.19211175 -0.06689345 -0.31168628
0001f0 f8 a9 92 bd 1c 3a 87 3d 54 78 a7 be 2c 7f 83 3d
       -0.07161325 0.0660288 -0.3270899 0.064207405
000200 ae b5 55 3e af df 35 be a0 03 a1 3e 02 ad 0a 3e
       0.20870087 -0.1776111 0.31448078 0.1354256
000210 b4 ac 1c 3e 26 a2 eb bd db 75 7d 3e 6b c6 e6 bd
       0.15300256 -0.11505537 0.2475199 -0.11268314
000220 3c 02 6e be 66 3d 2e bd 07 56 60 be 79 10 85 3e
       -0.2324304 -0.042539023 -0.21907817 0.2598913
000230 6b d1 d4 bc c4 39 91 be 0d bc 0a be 32 39 91 be
       -0.025978765 -0.28364384 -0.13548298 -0.2836395
000240 69 d7 00 ba d6 69 87 bd 0f 23 aa 3e e2 d9 c5 3d
       -0.0004914911 -0.066119835 0.33229873 0.096606985
000250 67 74 8a 3e 98 ce 04 be 97 42 8f be 91 54 91 be
       0.27041933 -0.12969434 -0.27980492 -0.28384832
000260 89 ce 08 3d 65 1b 5b be c5 6c 17 bd 94 23 a4 bd
       0.033400092 -0.21397169 -0.036968965 -0.080145985
000270 c7 fc 82 3e 33 52 9b be b1 4a 9d 3d 69 89 6f 3d
       0.2558348 -0.3033615 0.07680262 0.058480654
000280 76 bc f2 bd c2 10 8c be 98 20 74 be 18 a1 57 3d
       -0.11852352 -0.27356535 -0.23840559 0.052643865
000290 2b f0 d7 3d b4 63 95 3e b8 91 31 bc 84 af 98 be
       0.10543855 0.2917763 -0.010837965 -0.29821408
0002a0 c6 c5 8d be 70 ee 11 3d 4f c6 a1 bc 87 e5 81 3d
       -0.27689952 0.035627782 -0.019747881 0.06342607
0002b0 0d 92 6e 3e fb b0 65 be bb 6a 75 3e de ae 08 3c
       0.23297901 -0.22430794 0.23966496 0.008342473
0002c0 07 e9 8d be 49 60 4a 3e 6a 96 0d 3e 32 7d 9f be
       -0.27716848 0.19763292 0.1382691 -0.31150204
0002d0 b0 b8 a9 3e fe d1 26 be 66 c7 0d 3e 06 75 3d be
       0.33148718 -0.16291043 0.13845596 -0.18501672
0002e0 b3 20 25 3d 30 72 24 be fc 7e 9b be ee 04 40 be
       0.040314388 -0.16059184 -0.3037032 -0.1875188
0002f0 bf 65 1e be b2 80 71 3e 58 d7 a9 be 0d de 23 3e
       -0.154685 0.2358425 -0.33172107 0.16002674
000300 d4 76 18 be 2a e1 87 bd b2 50 5d 3e ee 5f 7d 3e
       -0.1488908 -0.066347435 0.21612814 0.24743626
000310 8d 4d 55 3e 10 24 dd bb 2d 89 87 3d de 2d 40 be
       0.20830365 -0.0067486838 0.06617961 -0.18767497
000320 c0 c2 c7 3d df c5 f4 3d f9 02 ad be 9d 03 43 3e
       0.097539425 0.119518034 -0.3379133 0.19044347
000330 24 dd 59 3d 5e 62 7a 3e 5b 51 6d bd 29 54 e7 bd
       0.05318941 0.24451587 -0.057938915 -0.11295349
000340 91 47 1f 3e 56 c9 ad bd 95 a8 94 3e b8 b8 d4 bd
       0.15554644 -0.084856674 0.29034868 -0.10386795
000350 d3 3b a0 3e e1 84 77 3c c1 4a a3 be 1e 9f 5b 3c
       0.31295642 0.015107364 -0.3189297 0.013404636
000360 8e 8e 65 3e df 99 94 3e 80 2f 24 3e 4d f6 ff 3d
       0.22417662 0.29023644 0.16033745 0.1249815
000370 60 b1 f5 bc 68 12 38 3e 54 44 67 3e 01 ae 1d bd
       -0.029991806 0.17975771 0.22584659 -0.03849602
000380 ec ff 1a bd a4 b8 fa bd 30 76 71 be 39 cd 7a 3d
       -0.037841722 -0.12242249 -0.23580241 0.06123087
000390 76 ec a9 3d 37 21 25 3e c6 84 5f be 6a 77 68 3e
       0.082970545 0.16125952 -0.21827993 0.22701803
0003a0 f6 33 01 be 8d 40 8b 3d bd 7a 06 3d 5c 42 6f 3e
       -0.12617478 0.067994215 0.032831896 0.23365158
0003b0 2d 96 14 3d 9e 42 db bd ee b6 1a be ae bd 7e 3e
       0.03627603 -0.107060656 -0.15108845 0.24877045
0003c0 cc 7c a0 3e 26 a8 1e 3e 0a 71 8c 3e 0b d8 56 be
       0.31345212 0.15493831 0.27429992 -0.20980851
0003d0 56 58 53 3e 42 52 95 be 13 ce 89 be 06 5f 94 be
       0.20639166 -0.2916432 -0.26915035 -0.28978747
0003e0 14 17 83 3e 6c 43 1f 3e 9b d1 8c be bb 62 6a 3e
       0.25603545 0.15553063 -0.27503666 0.22889225
0003f0 90 ba a1 3e 35 19 52 be 0a 7f 86 bd 41 e5 f7 3d
       0.31587648 -0.20517428 -0.065671995 0.121042736

bias f4 [32]
000000 a9 29 8a 3e d9 d7 40 be 8a 6a 42 bd 47 fa a2 be
       0.2698491 -0.1883234 -0.047464885 -0.3183157
000010 3e ac 08 be d2 1d 61 be 51 02 63 3e c5 9f 71 be
       -0.13346955 -0.21984032 0.22168852 -0.23596103
000020 ed 15 35 bd 06 a7 37 3e bf 95 1e 3e 62 a1 b6 3d
       -0.044210363 0.17934808 0.15486811 0.089175
000030 c4 ab 1a be 43 56 88 be c2 c4 69 bd d8 6b 66 3e
       -0.15104586 -0.26628312 -0.05707241 0.22502077
000040 c3 cf 97 3e 3a 3a 9f be 60 1c b2 3d ee f4 95 3e
       0.29650697 -0.3109911 0.08696818 0.2928843
000050 59 99 06 3d 89 0c 4b be 01 27 b3 bd 37 c9 1a 3e
       0.032861087 -0.19829 -0.08747674 0.1511582
000060 b2 c5 19 3e 4c d1 00 be b2 3b 9c be 42 c0 8c bd
       0.15016821 -0.1257984 -0.30514294 -0.06872608
000070 2c 16 68 bd 48 29 69 3d c5 48 d5 3c 51 35 7a 3e
       -0.05666177 0.056924134 0.026035676 0.24434401

weight f4 [64, 32, 3, 3]
000000 60 af 86 bd ce 29 5b bb 0d 99 de 3c 32 fd b2 bc
       -0.06576419 -0.0033441666 0.02717259 -0.021849249
000010 44 d3 e8 3c 55 05 2e bd ad ef a0 bd 2b c0 9a bb
       0.028421052 -0.042485554 -0.078582145 -0.0047226152
000020 59 dc 98 ba 54 1e ac bd 5d 3d 0c bd 04 d5 c7 bc
       -0.0011662348 -0.08404222 -0.034238208 -0.024393566
000030 fc ab 6d 3c 6e 71 9a 3a 12 b4 38 3c 9c 62 7a bb
       0.014506336 0.0011783072 0.011273401 -0.0038205748
000040 b8 2a cd 3b b0 18 af bc c5 5e 13 3d 91 18 b9 bc
       0.006261196 -0.021374077 0.03597905 -0.022594722
000050 99 a4 05 bc de c8 3e 3d 22 ed ef bc 0f 21 53 3d
       -0.008156919 0.04657828 -0.029287878 0.0515452
000060 47 ee 10 3c 09 da 27 bd 0d 29 38 bd 25 b6 c3 3c
       0.008845872 -0.04097942 -0.044961024 0.023890564
000070 aa b5 43 bd 75 60 84 bd 00 32 06 3d ff 5c d6 bb
       -0.04778067 -0.0646371 0.032762527 -0.0065418477
000080 c3 5d c8 3c 80 99 76 bd 79 b7 c9 3c 05 5c a5 ba
       0.024458772 -0.060204983 0.02462362 -0.0012615925
000090 de 5a a5 bd c0 f3 7f 3c 02 bd a4 bc 68 f9 a5 3c
       -0.08073972 0.015622079 -0.020109657 0.020260528
0000a0 ba 5b 1c bc cf 28 7a 3c ca 76 87 bd 8f 12 ad bd
       -0.009543354 0.015268519 -0.06614454 -0.084508054
0000b0 17 10 b9 bd 8d bd 2f bd 9a 23 ab bc b7 5c 31 bd
       -0.09036272 -0.04290538 -0.020891 -0.04330131
0000c0 27 72 23 bd 77 78 46 3c 45 41 b8 3c 28 09 6c 3c
       -0.039903786 0.012113682 0.02249206 0.01440648
0000d0 32 c1 90 3c 7f 2d 24 bb 4f 50 9c 3c ea 87 ac bb
       0.017670248 -0.0025051532 0.019081263 -0.0052652257
0000e0 21 a8 6f bc 21 b4 23 bd 49 bf 64 bd b2 e8 d5 3c
       -0.014627487 -0.039966706 -0.055846486 0.026111934
0000f0 98 cd 96 bd 0d 4e 83 bd 5f 87 eb bb ba 55 b2 bc
       -0.07363433 -0.064113714 -0.0071877684 -0.021769393
000100 be d7 f8 bc 2e 0e 33 3c f6 40 1a 3d cb 9d 82 bd
       -0.030376311 0.010928674 0.037659608 -0.06377753
000110 2d 69 93 bc 67 29 ed 3b 06 1b df 3c 6a 30 82 bd
       -0.017994488 0.0072376016 0.027234565 -0.063568905
000120 9f 30 c7 bc 4e c9 8f 3b ff b7 3b 3d 6d e6 19 3c
       -0.024315177 0.004388011 0.04582977 0.009393317
000130 96 fe a8 3c 92 30 eb 3c ef 25 81 bd 87 e9 31 bd
       0.020629209 0.028709684 -0.063060634 -0.0434356
000140 48 27 e5 3b d1 a4 7a 3d d5 e4 b2 bb 89 9a 0e bd
       0.006993208 0.061192337 -0.005459408 -0.034815345
000150 ec fe 95 3d 39 46 5d 3d 7d 58 ce 3d 15 cb 09 3d
       0.07324013 0.054022048 0.100754716 0.03364094
000160 ba 35 4a bd 39 34 27 3d 03 2e 4d bd 49 4a 57 3d
       -0.049367644 0.040821288 -0.05009271 0.05256108
000170 5e 36 76 3c 1c 69 c5 3c ca c1 2d bd b7 e4 cc 3c
       0.015027611 0.024097972 -0.04242114 0.025011403
000180 75 57 16 be 34 8e 83 bd ad 63 4c bd 72 f4 2d bd
       -0.146818 -0.064236075 -0.049899746 -0.04246945
000190 e4 18 f4 bc 45 a3 00 3b ce 1d 6a bd 03 ac a4 bc
       -0.029797025 0.0019628566 -0.05715733 -0.020101553
0001a0 87 21 01 bd 5e 06 34 bd 42 12 a8 b8 16 46 2d bc
       -0.031526115 -0.043951385 -8.014265e-05 -0.010575792
0001b0 a8 71 c6 3c 6b ee 00 bc 51 66 cd 3b ec 48 84 ba
       0.024224117 -0.007869343 0.0062683006 -0.0010092533
0001c0 75 a9 ff bc 8e 72 79 3d 27 13 d4 3b 55 8f 43 bd
       -0.031208733 0.060900263 0.0064720097 -0.047744114
0001d0 92 6f 8c 3c e3 8d 06 bd 51 66 45 bd 97 3f 45 bd
       0.017143045 -0.032850157 -0.04819328 -0.048156347
0001e0 b7 e1 e3 3c b9 c4 5f bc f4 d5 6d 3c 90 fd a1 bd
       0.02781759 -0.013657742 0.014516342 -0.07909691
0001f0 f3 7f 84 bd fc 86 c0 bd ff a7 d0 3c d4 fe 22 3c
       -0.06469717 -0.09400746 0.025470732 0.009948451
000200 7d 47 f1 3c bf a9 0a 3a e7 90 23 bd c2 55 da bc
       0.029453034 0.00052895764 -0.03993311 -0.02665222
000210 37 b2 88 3c 75 e4 3b 3d a5 e9 3a 3c 7e ee 4a 3c
       0.016686542 0.04587217 0.011408244 0.0123859625
000220 a3 f9 14 bd f2 99 a5 bc af fc 60 bd d3 9e a9 3c
       -0.036370885 -0.020215008 -0.054928478 0.020705616
000230 ba d3 c9 bc 4c c8 92 bd ef fe 7c bd 57 ca 14 3d
       -0.024637092 -0.0716711 -0.06176656 0.03632578
000240 48 f7 73 3d 31 02 04 bd 19 b6 69 bc 1e 82 97 3d
       0.059561998 -0.032228652 -0.014264607 0.07397865
000250 02 40 ba 3d bf a0 9f 3d be 18 84 bd 53 48 e7 bc
       0.0909424 0.07794332 -0.06450032 -0.028232729
000260 cc 64 b6 bb 0c 8b 1e 3d a3 8e 1d bd b6 cc b9 bd
       -0.005566215 0.038706824 -0.038466107 -0.09072249
000270 54 8a 8e 3c 8e 0e 84 3c 47 e2 f5 bc ba f2 4b bd
       0.017399944 0.016120221 -0.030015124 -0.04979203
000280 01 f0 e2 bd 46 7d 13 bd f1 53 4b bd bb fd a5 bd
       -0.11080933 -0.036008142 -0.0496406 -0.08105036
000290 4e 7e fe bc 4a 08 6c bd 59 d8 4f bb f9 61 46 3d
       -0.031066086 -0.057625093 -0.0031714647 0.048433278
0002a0 3d cd c2 bc 79 49 ee bc de ca f9 3c 29 25 71 bd
       -0.023779506 -0.029087769 0.030492242 -0.05887333
0002b0 8e 27 ec 3c 39 42 a4 bc e8 a7 a5 3c ef 99 28 3d
       0.028827455 -0.020051109 0.020221666 0.041162428
0002c0 05 44 4f 3b b8 f5 ba bd 70 c9 68 bd ba 56 90 bd
       0.0031626236 -0.091288984 -0.05683273 -0.07047792
0002d0 1f 41 18 bd 4b 79 24 3c db c6 bf bd 42 fb 2a bd
       -0.03717148 0.010038684 -0.093641005 -0.041743524
0002e0 f0 37 22 bd c2 01 0e 3c 0b 34 6f bd a4 68 98 bd
       -0.039604127 0.008667411 -0.05839924 -0.074418336
0002f0 2a 79 4e bd 10 97 50 3d b6 16 7a 3d 11 c0 05 3d
       -0.05040852 0.050925314 0.061056815 0.032653872
000300 5c ab 5f bd b2 31 0c 3d 73 4d 81 bd e2 2d ad bc
       -0.05460678 0.03422708 -0.063136004 -0.021140043
000310 4c bf 01 bc 11 53 b0 3c e8 65 64 3d 01 ae 2f bd
       -0.007919144 0.021523984 0.055761248 -0.042890552
000320 77 34 81 bb 05 09 13 bc f3 c1 b0 3c da d7 13 bd
       -0.003943022 -0.008974318 0.021576857 -0.036094524
000330 eb f6 ca bc ac 7e 58 bd 0e 53 85 bd 26 52 eb 3c
       -0.024775943 -0.05285518 -0.06509982 0.028725695
000340 7a 5c 58 bc 55 42 6f 3d 2d e6 8b bb d3 7f 1c 3b
       -0.013205642 0.05841287 -0.0042693825 0.00238799
000350 5d ad 13 3d ba 42 af bc 81 8c ae 3c 00 ca 6b bd
       0.036054004 -0.021394122 0.021307232 -0.05756569
000360 e2 37 2e 3d 03 72 49 bc d9 13 02 3d b0 68 d8 bb
       0.042533763 -0.012295249 0.03175721 -0.0066042766
000370 4a 07 e1 3b b0 d5 cf bb 15 8d 3c 3b 27 af 5d bd
       0.006867324 -0.006342612 0.0028770615 -0.054122116
000380 b0 56 70 bd c5 33 1d bd ad cf 28 3a d3 47 16 3d
       -0.05867642 -0.03837945 0.00064396375 0.03668959
000390 a3 47 19 3b 99 54 98 bd 63 2d 30 bd 04 9d d9 bc
       0.0023388646 -0.07438011 -0.043012034 -0.026564129
0003a0 d6 4b 73 3c 97 4e e5 bc 34 75 98 bc f5 e4 04 bd
       0.014849624 -0.027991576 -0.018610574 -0.032444913
0003b0 cf 3c 48 3d f1 11 07 bc 19 83 61 3c 61 d0 19 bd
       0.048886117 -0.008244024 0.013764166 -0.03755224
0003c0 cb ca bb bb 58 1d 80 bd 2b 98 82 3c 77 c6 7d bd
       -0.005730962 -0.06255597 0.0159417 -0.06195685
0003d0 13 4a 67 3a a4 89 9d 3c 21 2e 92 bd 49 08 83 3c
       0.00088229886 0.019230671 -0.07137705 0.015995162
0003e0 89 b2 cc 3c e6 82 8f bd 62 aa 1b bd 0e cf a8 bd
       0.024987476 -0.07007389 -0.038004287 -0.082426175
0003f0 98 45 77 3c 4c 89 d4 3b 37 1c 79 bd 91 f5 37 bd
       0.015092276 0.0064860936 -0.060817923 -0.044911925

bias f4 [64]
000000 13 be 49 bd 4e b9 e7 3c 20 e1 8a 3d c3 51 65 bd
       -0.049253535 0.028286602 0.067812204 -0.055986177
000010 fe 49 66 bd ca 9f 9d 3d 13 3b 90 3d 0d ec ef bb
       -0.05622291 0.07696493 0.070425175 -0.0073218406
000020 83 1a 10 bd a2 53 33 3d 46 84 63 3d 37 a3 97 3c
       -0.035181534 0.04378093 0.055546068 0.018510444
000030 d7 f1 95 bc e1 d3 8a 3d 12 01 ce bc d3 e6 0f 3d
       -0.018303795 0.06778694 -0.025146995 0.03513224
000040 ef 66 d3 bc cb 08 c3 bd 77 11 d7 3b 98 e5 31 bd
       -0.025805918 -0.095231615 0.0065633613 -0.04343185
000050 65 f3 45 3d 72 b4 c3 bc 7e 7e 88 3d 1f cb 86 bc
       0.048327822 -0.023889754 0.066647515 -0.016454278
000060 76 06 69 bd b1 cb 1b bd ca 60 3a 3d 9a 09 01 bc
       -0.056890927 -0.038036052 0.04550246 -0.007875824
000070 53 c2 74 3d 64 49 7e 3d 61 75 0a 3c b0 4a 85 bc
       0.059755635 0.06208171 0.008450837 -0.016270965
000080 a9 0a 8f 3d 8b db 22 3d 52 ec 64 3d 4b 7a 79 3c
       0.06984455 0.039760154 0.055889435 0.015226911
000090 fc ab 33 3d a9 b9 5c bd 83 82 9a 3d b0 8c 9e 3d
       0.04386519 -0.053887997 0.075444244 0.07741678
0000a0 f5 de 5d 3c e5 68 67 3c ae 45 6d bd 25 d9 ea 3b
       0.013541927 0.01412413 -0.05792778 0.007166999
0000b0 ff 4e 8c 3d e0 10 5e 3d 23 fe 6b 3c f7 80 23 3d
       0.06851005 0.054215312 0.014403853 0.039917912
0000c0 1b 97 30 3c b8 02 a9 3d 19 a4 5d 3d 6a 18 dd bc
       0.010778214 0.08252472 0.054111574 -0.02698918
0000d0 95 63 5a 3d b2 cc fc 3c 3c 3c 0f bd a2 de 1d bd
       0.053317625 0.030859325 -0.034969553 -0.038542397
0000e0 58 6c 60 bb 3e b1 44 3d f3 8b d3 3c 34 3c 94 bc
       -0.0034244265 0.048020594 0.025823569 -0.018095113
0000f0 25 88 8b bd dd 28 82 bd 03 1c 22 3c bc 74 61 bc
       -0.06813077 -0.0635545 0.009894374 -0.013760742

weight f4 [128, 64, 3, 3]
000000 6a 9d ed 3b 19 e2 0e bc 48 b4 28 bd 1a 43 18 bd
       0.0072514312 -0.008720898 -0.041187555 -0.037173368
000010 40 0d 4d bd 32 97 10 bb 23 34 fc bc bf 33 2f 3c
       -0.050061464 -0.0022062776 -0.03078658 0.01069349
000020 fc 81 66 3c f2 d4 f2 3c 77 8e d0 3c 2c 20 f7 3c
       0.014069077 0.029642556 0.025458558 0.030166708
000030 3d e1 de 3c 09 7b a5 bc 39 09 f0 3b bd 78 39 3b
       0.027207011 -0.02020027 0.007325318 0.0028300725
000040 e3 3a 8c 3c 52 b0 f3 bb 1a b3 1c 3c e3 cc 04 3d
       0.017117923 -0.0074367905 0.0095641855 0.032421958
000050 af 21 4c bc 44 3c 1f 3c e3 2f 91 bc 92 03 0c bd
       -0.012459203 0.009718958 -0.01772303 -0.034183092
000060 b7 51 ff 3c d9 78 f7 bb 24 82 05 bc 91 b2 01 bd
       0.031166894 -0.007552248 -0.008148704 -0.031664435
000070 8c 87 0a 3d c6 21 32 bc 46 33 7e 3c 39 06 6d 3c
       0.033820674 -0.01087231 0.015515154 0.014466816
000080 c8 dd 86 bb 5b d9 2d bc 81 2e b7 3c 2b 60 31 3d
       -0.004115794 -0.010610904 0.022361042 0.043304604
000090 a0 21 da bc 9c b6 09 3d 9b fe 18 3c 04 37 0a 3d
       -0.026627362 0.033621415 0.009338046 0.033743873
0000a0 d2 f9 fa bc c2 15 22 bd b8 e5 81 3c 74 ca d0 bb
       -0.030636702 -0.03957153 0.015856609 -0.0063717905
0000b0 99 09 61 3b 45 c6 0b bd a7 3a a1 bc 91 6e 9f 3c
       0.0034337996 -0.03412463 -0.019681288 0.019461902
0000c0 f8 78 41 bc 2a d5 f7 bc ad b6 2d 3c 1b 6c f4 bc
       -0.011808626 -0.030253012 0.010602635 -0.029836705
0000d0 be 3b a9 3c 67 e3 05 bd fa f0 25 3c a9 aa f9 3c
       0.02065837 -0.03268757 0.010128254 0.030476885
0000e0 a3 41 22 bc f9 ee 5b 3b 40 cb 37 3b 51 bb 9f bc
       -0.009903344 0.0033559187 0.002804473 -0.0194985
0000f0 66 66 d5 3c 4e 1d 56 bd ec 88 f1 bc 3e 02 fe b9
       0.026049804 -0.05227404 -0.029484235 -0.00048448326
000100 ea 23 c3 3c 0d f5 10 3d 1c 26 08 3d 34 02 0f 3c
       0.023820836 0.03538995 0.03323947 0.008728553
000110 81 65 2c bd b3 78 c7 3c 9c f1 a0 bc 1b 30 f2 3b
       -0.04208899 0.024349546 -0.019646458 0.0073909885
000120 12 69 2a bd 5c 74 92 3c 0f d5 ca 3c 0b b0 60 3c
       -0.04160411 0.01787775 0.024759797 0.013713847
000130 84 8f 01 3d 45 9b e6 3c 6f 47 0d bc 23 66 2d bd
       0.031631008 0.02815021 -0.008622988 -0.042333733
000140 c9 58 91 bc 9e 6f d9 bc e9 3c 01 bc 57 fe f2 ba
       -0.017742531 -0.026542481 -0.007888057 -0.0018538934
000150 4f 45 e2 bc f2 c1 16 bc e1 04 8d 3c 1d 3b 90 3c
       -0.02762094 -0.009201514 0.01721424 0.017606312
000160 59 c8 04 3d 80 0f c1 bc 88 04 db bc 61 88 6c 3b
       0.03241763 -0.023566961 -0.02673556 0.003609203
000170 75 97 24 3d 21 28 b2 3c 89 7a 49 3c 9d b9 ea bc
       0.040183503 0.02174765 0.012297281 -0.02865296
000180 da 00 14 3d 43 25 96 3b f2 db c6 3c ab f3 a5 bc
       0.036133625 0.0045820787 0.0242748 -0.020257792
000190 85 e0 15 3d 77 f3 93 3c d2 d8 d3 3c 7c b4 98 3c
       0.03659107 0.018060429 0.025860224 0.01864075
0001a0 e0 08 d8 3c 40 de 1d 3d 2c 21 da bc 08 06 a7 3b
       0.02637142 0.038542032 -0.026627146 0.0050971545
0001b0 45 de 44 bc 6e c1 4d 3b 8e b2 1e bd a3 8a 18 bd
       -0.012015884 0.003139581 -0.0387445 -0.03724159
0001c0 14 23 99 bc d6 1f 78 3c 18 12 b2 bc a6 84 db 3c
       -0.018693484 0.015144309 -0.021737143 0.02679665
0001d0 3b bd f3 bc 34 0d b0 3c 9c 40 0f ba 4e f3 21 bd
       -0.029753318 0.02149067 -0.00054646446 -0.039538674
0001e0 d8 33 97 3c fb 3a ef bc 4a 66 28 3c b7 39 96 bc
       0.018457338 -0.029202929 0.010278294 -0.018338067
0001f0 bb 3a a3 bc be 19 2f bc 82 5e cb bc a2 9b 4d bc
       -0.019925466 -0.01068729 -0.024825338 -0.012549313
000200 70 58 8a 3c c0 8d 67 3c 4f 38 0f bd 6f 09 ba 3c
       0.016887873 0.014132917 -0.03496581 0.022709576
000210 15 ac 32 3c 54 2a 50 3b 68 11 d5 ba 2d 74 98 3c
       0.010905285 0.003176351 -0.0016255798 0.018610084
000220 42 e4 fd 3c c2 b1 20 bd b8 aa f0 bb 56 17 9d bc
       0.03099263 -0.039232023 -0.00734457 -0.019176167
000230 79 32 57 bc 73 1e 94 bc ab 7f 7b 3c 2f f6 fb bb
       -0.013134592 -0.018080926 0.015350263 -0.0076892595
000240 bb 6a c2 bc a6 72 bc bc d5 bb 04 3c 7e 90 e0 bb
       -0.023732534 -0.023003887 0.008101423 -0.0068531623
000250 3a e5 02 bd ac 71 8c 3c a0 87 0f bd 6c fd a6 bb
       -0.03195689 0.017144047 -0.03504145 -0.005096128
000260 28 b2 d4 3c ce e2 b3 bc 48 3a b8 3c a2 a9 5c bc
       0.025963858 -0.021958735 0.022488728 -0.013468178
000270 52 9c ae bb 5a 15 3d 3b 14 4d b1 3c 34 aa 71 3c
       -0.0053286934 0.0028851838 0.021643199 0.014750052
000280 10 2e 0d 3d a5 ec 17 bc 28 94 03 bd 40 01 c8 bc
       0.034467757 -0.009272729 -0.032123715 -0.024414659
000290 92 56 f5 bc f5 b8 08 bc 5d 70 24 3d e0 f1 f7 3b
       -0.029948507 -0.008344878 0.04014622 0.0075666755
0002a0 cf e5 19 3b 9f d0 1b bd f5 d7 ef 3a ca 67 9e bb
       0.0023482924 -0.038040753 0.0018298613 -0.00483415
0002b0 13 64 cf bb a9 95 e0 3c 23 d3 f8 bb 0d 3b 9a 3c
       -0.0063290684 0.027415114 -0.007593529 0.018826986
0002c0 71 43 18 3d 2a c3 31 bd 04 6e b0 3c b3 13 c6 bc
       0.037173692 -0.043399014 0.021536835 -0.024179315
0002d0 f3 b0 92 bc d2 ce b3 bc 09 20 81 3b aa f8 35 3c
       -0.017906642 -0.021949206 0.0039405865 0.011106649
0002e0 b3 ce 9c bc d1 05 85 3b 38 7e c1 bc 0b e7 1d bd
       -0.01914153 0.0040595313 -0.023619756 -0.038550418
0002f0 85 37 14 bd 51 49 6a bc 28 32 0f 3c cc 06 0e 3d
       -0.03618576 -0.014299707 0.0087399855 0.03467445
000300 f3 34 ef bc 39 88 24 3a 38 4a 97 bc 5d a6 ff 3c
       -0.029200053 0.0006276402 -0.018468007 0.031207258
000310 a7 c2 06 3d 85 19 dd bc 7d 06 0d bd 4f 62 26 3c
       0.03290048 -0.026989708 -0.034430016 0.0101552745
000320 a3 1a 5b bb c9 07 fa bc b2 ae 93 bb 0d 9b 4a bc
       -0.0033432625 -0.03052129 -0.0045069093 -0.012366069
000330 5b 83 8d bb 74 cd 13 3d e3 01 87 bb 83 50 d7 3c
       -0.0043186373 0.036084607 -0.004120098 0.026283508
000340 2b 70 dc bc 30 8f ba bb 5b ae 06 3c 2e ca bd bc
       -0.026908955 -0.005693339 0.0082202805 -0.023167696
000350 6e 8d d5 3c fe 18 93 bc 9b 56 e3 bc c5 3a e8 bc
       0.026068415 -0.017956253 -0.027751258 -0.028348336
000360 6c 62 0c bd 75 5d 89 3c 13 54 cd bc 31 3e 29 bd
       -0.03427355 0.016768197 -0.025064504 -0.041319076
000370 13 35 89 3b 0a d6 b4 bc bb 09 ad 3c c1 4c 22 bd
       0.004187235 -0.022074718 0.021122804 -0.03962398
000380 6b d2 2d 3c 9f 2a 20 bb 92 f0 ed 3b 94 ca 6c bc
       0.01060925 -0.0024439467 0.007261344 -0.014452595
000390 36 ab 02 bb a1 1b 22 bd c3 e5 e9 bc 50 36 1d 3b
       -0.0019938475 -0.03957713 -0.028551942 0.0023988672
0003a0 69 5b 0d 3d 15 d2 fb bb 63 b3 1a bc 69 23 e8 bc
       0.034511004 -0.007684956 -0.009442183 -0.028337197
0003b0 e1 87 eb bc a1 68 8b 3c af d5 aa bc 76 9b fd bc
       -0.028751316 0.017017664 -0.020853845 -0.030957919
0003c0 12 6c 9c 3c 69 a3 f0 3c 5c 14 28 3c 59 f9 0d 3d
       0.0190945 0.029374795 0.01025876 0.034661625
0003d0 9d 92 56 ba 53 8c 04 bd 16 35 0e bd f0 62 9a 3c
       -0.0008185299 -0.032360386 -0.034718595 0.018846005
0003e0 c8 d0 02 bb ed b8 3a bc 8b 3f 19 bd 16 a3 65 bc
       -0.001996087 -0.011396629 -0.037414115 -0.0140159335
0003f0 5b ae dc 3c 8d ea b5 3c 3a 96 b6 ba 82 3a 00 3d
       0.026938608 0.02220657 -0.0013930269 0.031305797

bias f4 [128]
000000 52 56 5c bc 9d 88 7a 3d bc e2 09 3d dd c6 ba 3d
       -0.013448315 0.06116544 0.033663496 0.091199614
000010 32 d7 a1 3c 74 54 6f 3d dd 59 ca bb c3 fa 4e 3d
       0.019755933 0.05843015 -0.0061752633 0.050532114
000020 52 c4 4e 3d cc e4 94 bb 40 86 9f 3b 55 6a 3e 3d
       0.050480194 -0.0045438763 0.004868299 0.046488125
000030 78 70 8a bd c6 99 6d 3d 20 aa ef 3c f0 a4 8d 3d
       -0.06759733 0.058007978 0.029255927 0.06916225
000040 b7 5d 4c bb ea 9a a5 3b 26 cb 0e 3d 9e a7 97 bd
       -0.0031183788 0.0050538676 0.034861706 -0.07405017
000050 fc 23 a5 3c ef 3a ef bc d7 39 c0 3c 63 33 67 3d
       0.02015876 -0.029202906 0.02346508 0.05644549
000060 8b d9 e5 3b 6c 52 54 3d 64 cd 07 bc 9c 77 17 3d
       0.0070144585 0.051836416 -0.008288715 0.036979303
000070 1f a0 da 3c 59 51 4b bd 7d 9a 72 bc 2b 25 19 3c
       0.02668768 -0.049638126 -0.014807341 0.00934724
000080 63 54 24 3d 27 48 78 3d 17 14 4a 3d a8 29 74 3d
       0.04011954 0.060615685 0.049335565 0.05961004
000090 ae a0 d4 bb 61 2d 0f 3c 01 fd bc bd 41 c4 84 bd
       -0.006488881 0.0087388465 -0.09227944 -0.06482745
0000a0 94 77 1f bc bc a1 d7 3d 75 8f 69 3d 47 95 17 3a
       -0.0097330995 0.10528895 0.057021577 0.0005782437
0000b0 f1 24 3d bd 24 6d 22 3d 6f 90 14 3d 9d d2 ab bc
       -0.04617781 0.039654866 0.036270555 -0.020974452
0000c0 92 d7 01 3d 31 78 81 3d 59 76 d0 bb ca 1d fd 3c
       0.031699724 0.06321753 -0.0063617644 0.030897994
0000d0 27 4c c8 bb 3f 28 63 3d e0 90 90 bc b0 3c ba 3d
       -0.0061125937 0.055458304 -0.017647207 0.090936065
0000e0 28 0d 5c 3d ae 7b 12 3d d7 a1 6f 3d 32 c0 80 3d
       0.053723484 0.03576248 0.058503952 0.06286658
0000f0 28 36 3f bd 81 0d e3 3d c9 dd ec bc f1 fc 8e bc
       -0.046682507 0.1108656 -0.02891435 -0.017454596
000100 e0 08 5f 3d c3 01 db bc 82 9f 1f bc 46 3f 9c bb
       0.054451823 -0.026734238 -0.0097426195 -0.004768285
000110 0f d7 80 3b f4 2f b2 bc 53 18 a1 3d 51 06 f6 bc
       0.003931887 -0.021751381 0.078659676 -0.030032309
000120 fd a0 b2 3d 48 b6 a6 bc 54 62 b0 3c 4a b3 7b 3d
       0.08722112 -0.02035059 0.021531262 0.06145028
000130 01 5f 7c 3d e5 56 b4 bc 67 0e e0 3c e0 bb d1 bb
       0.06161404 -0.02201409 0.027350618 -0.0064005703
000140 c4 e6 c1 bc d8 1a b8 3d 3b 09 88 3d ed f0 66 3c
       -0.023669608 0.08989495 0.066423856 0.014095527
000150 cf 82 b1 3b b4 f3 40 bd e8 47 2c 3c d7 85 3d 3d
       0.005417205 -0.047107413 0.010515191 0.046270218
000160 42 de 87 bd 62 82 4b 3d c6 94 1a 3c b6 39 3b 3d
       -0.06634189 0.04968489 0.009434884 0.045709334
000170 49 5f 31 3d 60 35 51 bb c6 46 17 3e ee 84 a1 3c
       0.04330376 -0.0031922683 0.14773092 0.019716706
000180 74 e0 06 bc 93 68 98 3c 38 9a 94 3c 1f 7a 09 3d
       -0.008232225 0.018604552 0.018139943 0.03356373
000190 61 90 d2 3d 7a bf c3 3b bc 89 5f 3d 08 f8 91 3c
       0.10281444 0.0059737535 0.054574713 0.017818466
0001a0 22 14 00 3d cb f2 96 3d 4f fb 8f 3b cf a6 fe bb
       0.0312692 0.07370528 0.004393972 -0.00777135
0001b0 c9 5b d1 bc 4a f0 84 3c b0 e4 9b bb 4e 3c 2c 3d
       -0.025556462 0.01622786 -0.0047574863 0.0420497
0001c0 af 96 34 bc b6 0a 69 3d 1a 6e d5 3c f3 62 da 3c
       -0.011022254 0.05689498 0.026053477 0.02665851
0001d0 3e ec d1 3d d7 e8 93 3d 80 bb f5 b7 a3 37 8b 3d
       0.10250138 0.07222145 -2.9293587e-05 0.06797721
0001e0 4f 9f 1d 3d f1 25 4e 3d 8d 64 d0 3d f9 6b 6c 3d
       0.038482007 0.050329152 0.101754285 0.05772016
0001f0 f2 b1 78 3b fd 29 d2 bb 60 16 dc 3c 0d b3 1a 3d
       0.003794786 -0.006413697 0.026866138 0.037768412

weight f4 [128, 64, 3, 3]
000000 6f 4d ff 3c d3 03 09 bc 1a 9c e8 bc 24 53 07 3d
       0.031164853 -0.008362728 -0.028394748 0.033038273
000010 e1 ac ea 3c 8b 99 5d 3c b6 b9 fe bc 2d 42 4d bc
       0.028646888 0.013525377 -0.031094413 -0.012527985
000020 0f 53 14 bc 51 bc 12 bd 09 81 a1 3c 81 bb a5 bb
       -0.009053006 -0.035824124 0.01971485 -0.0050577526
000030 46 dd 82 bb 4e ab fb 3c b3 a7 c9 bc 8c f2 b2 bc
       -0.003993663 0.030721333 -0.024616098 -0.021844171
000040 d3 98 0c bc 9b 30 a5 3c 09 db 6c 3c 7e c5 33 3b
       -0.008581358 0.020164778 0.014456519 0.0027430947
000050 2c eb 3f bd 87 f1 0c bd fc c9 68 3c 1d 25 d5 3c
       -0.046855137 -0.034410026 0.014208313 0.026018674
000060 53 37 77 bc fc ed d8 bc 58 9a 87 bc 49 e2 a5 bc
       -0.015088874 -0.026480667 -0.016553089 -0.020249503
000070 3d 61 2f 3b b2 b5 11 bd d1 38 9d 3c 15 bd e6 3c
       0.002676084 -0.03557367 0.019192131 0.028166333
000080 05 d1 01 3c 1c a9 e7 3c db 23 5a 3b 20 4c 68 3c
       0.007923369 0.02827888 0.0033285532 0.014178306
000090 67 27 90 3a 84 2d 3f 39 17 57 82 bc ec d9 7f bc
       0.0010998071 0.00018232135 -0.015910668 -0.0156159215
0000a0 1d 4b fe 3c 45 5d 3a bd 17 8d 81 bb a6 3c 16 bd
       0.031041676 -0.045499105 -0.003953587 -0.036678933
0000b0 4d 10 15 bd 8a 86 dd 3c 36 01 06 bd d7 aa ba bb
       -0.0363925 0.027041692 -0.032716 -0.005696635
0000c0 bb a5 de 3c 44 f5 b5 bc fe 62 f7 3c 4b c6 2b bd
       0.027178636 -0.022211678 0.03019857 -0.041937154
0000d0 62 86 17 bd 56 c2 98 bc 57 98 18 3d 08 64 3d 3c
       -0.03699339 -0.018647354 0.037254658 0.011559494
0000e0 b1 bc ed bc 53 f0 19 bd a6 57 4a 3b 92 b0 bd bb
       -0.02902064 -0.037582707 0.0030874996 -0.005788871
0000f0 68 67 92 3b f6 59 80 bc 98 cb 1a 3d 17 cd 93 bc
       0.0044678934 -0.015667897 0.03779182 -0.01804213
000100 f7 51 11 bd 49 10 1e bd e4 18 e4 bb ee 98 fc bb
       -0.03547856 -0.03858975 -0.006960975 -0.0077086603
000110 f0 cd 29 bd ee 36 0c bd ff ca e3 3c 9d 06 21 3d
       -0.041456163 -0.034232073 0.027806757 0.039312948
000120 c3 5c 1d 3d 24 92 0d bd a5 79 88 3c 63 94 b9 3b
       0.038418543 -0.0345632 0.016659567 0.005663441
000130 10 4a f7 3b 31 c3 34 bc 6e 23 19 3d df 6a e6 bc
       0.0075466707 -0.011032865 0.037387304 -0.028127132
000140 d2 8f 26 bd 5a ad 8e bc 32 5d 8f bc 22 85 79 bc
       -0.0406645 -0.017416645 -0.017500494 -0.015229495
000150 c3 58 fa bc 09 1b 0e bd b3 02 06 bd 0c 4b 76 3c
       -0.030559903 -0.03469375 -0.032717418 0.015032541
000160 64 5c 8e 3a c1 b4 01 3c 22 04 65 3a 86 12 42 ba
       0.0010861275 0.00791663 0.00087362726 -0.0007403273
000170 0c d1 e0 bc e9 4e 89 bc 13 8e 1c bd 47 ea 28 bc
       -0.027443431 -0.01676126 -0.03822143 -0.010309762
000180 7d 27 93 bc 5b 7f 3f bc e6 83 1b 3d 37 c3 02 bd
       -0.017963165 -0.011688079 0.037967585 -0.031924453
000190 32 20 69 bb e3 77 12 bd b5 64 05 bd c5 20 36 bd
       -0.0035572168 -0.035758864 -0.032566745 -0.044464845
0001a0 36 a2 46 bd e8 de 3b bc aa a5 bc bc 18 35 08 bd
       -0.04849454 -0.011466719 -0.023028214 -0.03325376
0001b0 6d a0 de bc 39 e3 9a bc f4 3d 01 bd fe f1 01 bd
       -0.027176106 -0.018907176 -0.031553224 -0.031724922
0001c0 a7 37 df 3b 82 fc 47 bd c9 45 77 bd 1f 1d 5a bc
       0.006812054 -0.048824795 -0.060369287 -0.013312607
0001d0 3b b7 c9 bc 86 df 0d bd ce 36 95 bc 57 36 8f 3c
       -0.024623504 -0.034636997 -0.01821461 0.017481966
0001e0 ca f0 b0 bc 2d cd 18 3c f2 9b ca 3c 8f 8e 1a 3d
       -0.021599192 0.0093262615 0.024732564 0.03773361
0001f0 c6 6f 42 bc 59 d8 47 3b c2 83 46 bd 99 47 e1 bc
       -0.011867469 0.0030493943 -0.048465498 -0.02749996
000200 08 a7 dd bc a3 20 aa bc 9b a1 24 bd 0d 16 53 3b
       -0.027057186 -0.020767516 -0.04019318 0.0032209188
000210 27 8b cc 3c df 31 02 bd 5e ba 14 3d c7 bd 17 3d
       0.024968697 -0.031785842 0.036310546 0.03704622
000220 2a d0 4b 3c 03 4b fc 3c 5a 21 1e 3d c3 37 a8 3c
       0.012439767 0.030797487 0.038606025 0.020534402
000230 00 01 0f 3d c3 b7 ef bb 68 3f e5 3c 67 5a 07 bd
       0.034913063 -0.0073156073 0.027984336 -0.0330452
000240 d7 6b 44 bd 4c 3d 37 bd 91 2b 0e 3c e0 98 ab bc
       -0.047954407 -0.04473619 0.008677379 -0.02094692
000250 71 a2 65 bc 45 e7 da 39 1e e2 b1 bc 62 3c 72 3c
       -0.01401578 0.0004175251 -0.021714266 0.014784904
000260 f5 aa 4e bc 7e 0b bd 3c 66 18 1d ba 05 91 5c 3c
       -0.0126140015 0.023076769 -0.00059927104 0.01346231
000270 31 48 78 3c 75 e6 1a bc a3 64 a6 3c a8 cd 23 bd
       0.0151539305 -0.009454359 0.02031166 -0.03999105
000280 9e 7c 5f bc 3c 3a 88 bc c1 5a fc 3c 24 e7 83 3c
       -0.013640551 -0.01662933 0.030804994 0.016101427
000290 59 53 d7 bc 62 02 84 bb 5f 0a fb 3b 15 d0 46 3c
       -0.02628486 -0.0040286044 0.0076611484 0.012134572
0002a0 f1 07 e6 3b 56 8b c4 bc 0a c4 be bc 43 a6 05 3d
       0.0070199897 -0.023992222 -0.023286838 0.032629263
0002b0 be af 25 3c 9f ea c6 3c ee 07 78 bc 66 94 bf 3b
       0.010112701 0.024281798 -0.015138609 0.005846548
0002c0 df df 21 3d 62 25 e1 3c 9a d6 4f bc 8d 4f 91 3c
       0.03952014 0.027483646 -0.012685442 0.017738128
0002d0 b2 19 89 39 ba 0f 9b 3c bd 2b 3a 3d 99 43 0d bd
       0.0002614982 0.018928397 0.04545187 -0.034488294
0002e0 0e 50 8d 3c 55 98 98 bc 6f 9f d7 bc ac b4 0c bd
       0.017250087 -0.018627325 -0.026321141 -0.03435199
0002f0 79 b8 f1 3b 5f f6 07 bd 06 50 38 bd 72 02 c9 bc
       0.007376727 -0.033193942 -0.04499819 -0.024537299
000300 e5 bf d7 3b ac d3 3e 3c 31 f8 fc bc 49 6c 24 3c
       0.006584155 0.011647146 -0.030880066 0.010035583
000310 05 ed a9 3c 5f d6 65 bc ca c0 32 3a 62 4b 19 bd
       0.020742903 -0.014028161 0.0006818889 -0.037425406
000320 f3 71 ec 3c f8 93 b2 3c 32 f6 4f 3c 5c 34 00 3d
       0.028862929 0.021799073 0.012692975 0.031299934
000330 a4 79 22 3d 0d 4a 42 3b fd 10 aa bc cc 46 a9 3c
       0.039666787 0.0029646188 -0.020760054 0.020663641
000340 4f ec 0c 3d 5b 5b 1a bc b1 fd 67 3c 64 e9 f6 3c
       0.03440505 -0.009421195 0.014159606 0.030140586
000350 67 f7 37 bd 2e 1c a5 3b 74 26 24 bd 19 2d 8a bc
       -0.044913676 0.0050387597 -0.040075734 -0.016867207
000360 7e 98 9c 3b aa 38 2d 3c c3 a1 ea bc 10 bc 0b bb
       0.0047789207 0.010572592 -0.028641587 -0.002132181
000370 05 2b a9 bc 99 46 06 bc 9e 74 22 3d 15 0d 6e 3c
       -0.020650396 -0.008195543 0.039661996 0.014529486
000380 2f 5f 77 bc c2 61 82 bc 1c 9d c5 3c 33 dd 1f bd
       -0.015098377 -0.015915755 0.024122767 -0.03902931
000390 6b d3 d1 3c 12 fb 20 3c 53 a8 a2 3c f1 5c 53 3c
       0.025613507 0.009825485 0.019855654 0.012900577
0003a0 5f 19 25 3c b1 36 be bb 78 91 b3 bc 31 65 00 3d
       0.01007685 -0.0058048596 -0.02191995 0.031346504
0003b0 2d 8a 07 3b 56 84 15 bb b4 c1 8a 3a 6c 6c a0 3b
       0.0020681724 -0.0022814474 0.0010586292 0.0048957374
0003c0 7e 33 67 3b ed 3d 6e 3c 8c c0 a7 3c 9c 1c 57 3b
       0.0035278494 0.014541131 0.020477556 0.003282345
0003d0 f6 06 84 3c bc b7 0e 3d 31 0c 35 bc 6c a1 a9 3b
       0.0161166 0.03484319 -0.01105027 0.0051767137
0003e0 55 0f 21 bd 48 ef 85 bc 41 91 0e bb 2e 7a 54 3c
       -0.039321262 -0.01634945 -0.0021754059 0.012968583
0003f0 40 5b 29 bd b2 03 e3 bb 02 89 66 3b a6 1a 3f bb
       -0.04134679 -0.0069279307 0.0035176878 -0.002916017

bias f4 [64]
000000 a8 98 3b bd 07 17 78 3d 47 77 51 bc b5 8b 95 3d
       -0.04579988 0.060568836 -0.012784786 0.073020376
000010 51 16 5b 3b 18 e7 76 bc b3 a2 4a 3c a8 dc 5b 3b
       0.003343005 -0.0150697455 0.012367892 0.003354827
000020 ed c8 bc bc 76 79 bb bc c5 aa 63 3d 2c 0b 4d 3d
       -0.023045028 -0.022885066 0.05558278 0.050059482
000030 e1 3d ef bb 1d 75 2b 3d a2 fe 97 3d 3f 70 13 bd
       -0.0073010777 0.041859735 0.07421614 -0.035995718
000040 f0 86 d3 3b 59 75 1c 3d 8a 54 f6 3c 67 e8 8b 3d
       0.006455295 0.03819785 0.030069608 0.068314366
000050 13 12 f4 3b 42 f4 1c bd 1b 7b 42 3c d8 44 e1 3d
       0.0074484437 -0.03831888 0.011870171 0.10999459
000060 2e ba b0 3c c3 14 9a 3c 98 80 75 3b 89 be d5 bc
       0.021573152 0.018808728 0.003746068 -0.02609183
000070 a4 b9 f6 bc 22 fd 21 3c b0 a4 f4 bc f2 8a e0 3c
       -0.030117817 0.009887012 -0.029863685 0.027410004
000080 46 c2 8a 3d 09 ef 15 3d 11 71 29 bc c7 76 de 3d
       0.06775336 0.036604915 -0.010341899 0.10862499
000090 9d 82 94 3c da fa 18 bc 30 4c 7c 3d 2c 0a b0 3d
       0.018128688 -0.009337151 0.061596096 0.0859569
0000a0 6d e7 3f bc 17 e0 8d 3c b0 d0 70 3d aa e6 ad 3c
       -0.011712891 0.017318768 0.05879277 0.021228153
0000b0 66 27 47 3d ed 39 82 bc 27 53 93 3d e7 c4 a9 3c
       0.048621558 -0.015896762 0.071935944 0.020723773
0000c0 c0 9b 4b bb b2 57 08 bc 13 8f 82 bb 81 a8 27 3d
       -0.0031068176 -0.008321689 -0.003984341 0.040932182
0000d0 ab d8 42 3c bc b5 cf bc 0c 8b f4 3c 45 c7 00 3d
       0.011892478 -0.025355212 0.029851459 0.03144004
0000e0 bc 28 df 3b fe cf 8e 3d 14 d8 7f bc 11 9f a3 3c
       0.006810276 0.06973265 -0.015615482 0.01997331
0000f0 18 a8 2a 3c f7 00 c6 3c 7b 76 37 3c e1 fa a0 3c
       0.010416053 0.024170382 0.011197682 0.019650878

weight f4 [64, 32, 3, 3]
000000 37 ac 52 3d 14 2e ce 3b 93 7f 02 3d f2 37 9d bc
       0.051433768 0.006292114 0.031859946 -0.019191716
000010 96 aa 6c 3d 8a 41 36 b7 de c6 3e 3d 52 8b 9d 3c
       0.05777987 -1.0863305e-05 0.046576373 0.019231472
000020 ce 76 08 3d a2 35 36 bd dc 5d 1d bc 80 f1 1a 3b
       0.033316426 -0.044484742 -0.009604897 0.002364248
000030 81 c1 30 3c 70 13 6e 3c 2b 9a 15 bd d7 c1 9e 3c
       0.010788322 0.014531001 -0.03652398 0.01937954
000040 43 6d b7 bc 9d 5b 15 3a f9 9a 75 bd 8c 4e 2b 3d
       -0.022390967 0.00056975504 -0.059962247 0.041822955
000050 f8 1e f0 3c 1b ab 5d 3d bd 28 2b ba 85 b8 5a bd
       0.029311642 0.054118257 -0.0006529203 -0.053398628
000060 23 fa 35 bd dd 14 a5 bb 4a b7 b9 bd 6d 35 0c 3d
       -0.044428002 -0.0050378875 -0.09068163 0.03423064
000070 d7 33 07 bd 8a c7 0a bd 19 f0 48 3d fe 1f 03 3d
       -0.033008423 -0.0338817 0.0490571 0.032012932
000080 c4 5f b6 bc 2b 20 59 bc cc b1 a4 bb 00 62 0f bd
       -0.022262461 -0.013252298 -0.005026078 -0.03500557
000090 83 c2 2e bd 02 fb b2 bc c5 28 f3 bc 01 30 94 bd
       -0.04266597 -0.021848205 -0.029682526 -0.072357185
0000a0 f7 9b 70 3c bb e3 e1 bc eb 40 5b 3c 3c 6e 82 bc
       0.014685622 -0.02757441 0.013382177 -0.015921704
0000b0 75 2a a4 bb 6f a7 c6 3c a3 26 d2 3c a6 f8 43 3d
       -0.005009944 0.02424976 0.025653189 0.04784455
0000c0 fc 7b 4b 3d fd 6f 6c bd 28 83 06 3d 4d ef 28 3d
       0.049678788 -0.057723988 0.032839924 0.04124384
0000d0 e0 3e 04 3d 4c 1e 39 bd b3 5e b2 3c d2 90 11 bc
       0.032286525 -0.04519491 0.021773672 -0.0088846255
0000e0 94 8f 22 3d 1f 55 da 3c 70 2d 34 3d 7d 9d bd 3c
       0.039687708 0.026651917 0.043988645 0.023146385
0000f0 11 56 82 3c 2b 6e c4 3c c0 38 42 3d f6 dc 6a 3d
       0.01591018 0.023978313 0.047417402 0.05733963
000100 e7 3a 95 b9 20 ac db 3c ca 0a 4c bb f8 ad 6a bc
       -0.0002846338 0.026815474 -0.003113436 -0.014323704
000110 72 84 c2 bc 09 21 36 3d ad 0c 3e 3d 9d a7 86 3b
       -0.023744795 0.0444651 0.046398807 0.0041093365
000120 1d 88 c5 bc 3e fa 2c 3d d0 a8 80 bd fe cc a1 3c
       -0.024112755 0.042230837 -0.062821984 0.019751068
000130 60 78 dc 3c e3 a2 ee bb 3d 9a 48 bd 1e e0 24 3d
       0.026912868 -0.007282601 -0.048975218 0.040252797
000140 ea 9d 3f 3a df 94 b0 3c f5 51 17 bd 86 1c 4f 3d
       0.0007309603 0.021555362 -0.036943395 0.05056431
000150 08 ec 54 bd bd 14 9c bc 59 e5 11 bd ec 0f 1c 3d
       -0.05198291 -0.019052858 -0.035619114 0.03810112
000160 1f 71 ae 3b bb 1a 5c bd ca 46 57 bd 24 60 b6 3c
       0.0053235437 -0.05373643 -0.052557744 0.02226264
000170 99 84 86 bc 38 4a 61 bc fa 17 29 3d 0a d9 88 bc
       -0.01642065 -0.013750605 0.04128263 -0.016705055
000180 30 ed 7a 3c 13 2d 81 bc 07 61 01 3d 42 06 a4 bd
       0.015315339 -0.015768563 0.031586673 -0.08009006
000190 3b 54 0c be 36 3d 2a bd 7f 31 57 3c 00 f0 d4 bc
       -0.13704006 -0.04156228 0.013134359 -0.025993347
0001a0 23 ec d0 bd c6 1a 17 bc 1c c0 ad bc 01 73 f8 bd
       -0.102012895 -0.009222692 -0.021209769 -0.1213131
0001b0 ca d7 5c 3d 06 97 15 bd 64 54 26 3c 39 73 33 3a
       0.05391673 -0.03652098 0.010151956 0.00068454776
0001c0 fb 29 1a bd 30 42 3f bd 7d 6f 34 bd b2 b7 e5 3c
       -0.037637692 -0.04669398 -0.044051636 0.028041694
0001d0 bc 93 4d 3d a8 ed 08 3d d9 5a 8a bd ec 21 35 bd
       0.05018972 0.03342977 -0.06755609 -0.044221804
0001e0 8f 44 a1 3d 7a e2 b1 3c 71 ee 9c 3b b1 d7 31 3d
       0.07874405 0.021714438 0.0047891666 0.04341859
0001f0 78 43 62 3d 2f fa 2e bd 8a 57 82 bc 82 50 20 bb
       0.055240124 -0.042719062 -0.015910883 -0.002446205
000200 b0 31 f1 bb 44 ba 5a bc 47 8c 50 bd 59 8d 55 bc
       -0.0073606595 -0.013350073 -0.05091503 -0.013034188
000210 81 98 90 bc 74 25 36 bc 6b a5 ab 3c 95 0a 84 bc
       -0.017650845 -0.011117328 0.0209529 -0.016118327
000220 a0 d8 e5 bc 82 6d 47 bc 72 13 36 3d 58 dc 51 bd
       -0.028057396 -0.012172105 0.04445214 -0.051235527
000230 d1 05 5f bd 38 10 e8 ba 84 ef f4 bb 9d 02 2f 3d
       -0.054448906 -0.0017705029 -0.0074748415 0.0427271
000240 b1 f4 e7 bc 5b 42 1e bd c6 8d 1e 3c 05 0b 9a bc
       -0.02831492 -0.0386375 0.009677356 -0.018804083
000250 03 22 ca 3c 4b 20 e7 3a 7d b9 3b 3d b5 df ab 3d
       0.024674421 0.0017633525 0.045831192 0.08392278
000260 d6 61 48 3d 31 90 75 bc 69 6e 2d 3d 89 d5 22 3d
       0.04892143 -0.014987991 0.042341623 0.039754424
000270 03 b8 38 bd 93 25 2c 3d ce 40 85 3c 58 90 38 bd
       -0.045097362 0.04202802 0.016266253 -0.045059532
000280 af 4d 17 bd 3f ef 6e 3d 67 0e bd 3b 9b 5b 12 3d
       -0.03693932 0.05833363 0.005769539 0.035731893
000290 a6 f7 c2 bd fd 63 2b 3d 0f 1c b7 bc b2 1d f7 bd
       -0.095198914 0.041843403 -0.022352247 -0.12066211
0002a0 8c 92 9a 3c dc f4 21 bc fd 5f f4 bd e7 47 fa bc
       0.018868707 -0.009885039 -0.11932371 -0.030551864
0002b0 5a 16 d5 3c f5 3e ca bc 36 2d 28 3d 66 f9 27 bd
       0.026011635 -0.024688223 0.04105874 -0.04100933
0002c0 65 91 21 3d df 4d 87 3c 08 42 3a bc ba 4f 69 bd
       0.0394453 0.016516624 -0.011368282 -0.0569608
0002d0 f6 3b 0e bd 2b 02 ed 3c 0e 97 2a 3d c9 58 80 bd
       -0.034725152 0.028931698 0.041647963 -0.062669344
0002e0 7c 6b 8c 3b f1 fd f4 39 28 9f 12 3d 88 75 4c 3d
       0.004285274 0.00046728508 0.035796314 0.049916774
0002f0 65 17 ca 3b 44 5f 81 3c 96 66 45 3d e6 fe 3d 3d
       0.0061673396 0.015792497 0.048193537 0.04638567
000300 e9 1b 66 bb a0 84 a2 bc 09 91 6a bd 70 2c 37 3d
       -0.003511185 -0.019838631 -0.057267223 0.044720113
000310 55 fa f0 3b 14 15 ef bc 37 3d 5d 3d 93 7f 41 bc
       0.0073540607 -0.029184856 0.054013457 -0.011810201
000320 c8 4a 87 3c 40 2e 84 bc dc 3a 35 3d cd a4 64 bc
       0.01651515 -0.016135335 0.044245586 -0.013955307
000330 38 3a 65 bd 39 5c e6 bc 31 d7 c8 bc 5d 05 9d 3c
       -0.055963725 -0.028120147 -0.024516674 0.019167596
000340 0a 58 60 3d b2 6d 3e bd 6a 5b f6 3b 29 cf 53 3d
       0.05477146 -0.046491332 0.0075182216 0.051711235
000350 78 76 2d 3d 50 f0 0e bd b5 75 b4 3b e6 21 5b bb
       0.04234931 -0.03489715 0.005507196 -0.0033436953
000360 3d 70 4f 3d 35 7f 1d bc 1d a6 4c bd 7b a1 69 bd
       0.05064415 -0.009612848 -0.049963105 -0.057038765
000370 c5 0b 6a bd 3a 8f 5f 3d c8 54 15 3d 0c a1 27 3d
       -0.05714013 0.05457995 0.036457807 0.04092507
000380 48 05 21 3c 1e 00 c4 3c b4 da 6a 3c 66 ed 1d bd
       0.009827919 0.023925837 0.014334369 -0.03855648
000390 49 50 16 3d 87 3c 62 bc 49 61 28 bd c5 41 cd b9
       0.03669766 -0.013808376 -0.041108403 -0.0003914965
0003a0 73 8f 03 bd ac cc 21 3d df f1 16 bd db 7d 16 bd
       -0.032119226 0.03950183 -0.03685176 -0.03674112
0003b0 bb 2a 2e 3d 20 48 d1 3c 63 33 86 bc 14 0c 84 bd
       0.04252122 0.025547087 -0.016381925 -0.06447616
0003c0 ce 2c 75 3d 10 1b 34 3d 9a d1 65 bd c1 7c 7d 3b
       0.059857182 0.04397112 -0.056108095 0.0038679095
0003d0 5d 7d 47 3d 93 ec dd bb 31 1c 4b bd 5a c6 d0 3c
       0.04870354 -0.0067725866 -0.049587432 0.025485206
0003e0 19 0d 70 bd b3 d0 4b 3d 6c 47 11 3d 46 50 4e bd
       -0.05860624 0.049759578 0.035468504 -0.050369523
0003f0 8c 56 ce 3b 5f 63 01 3d ee 4f b1 3c 97 61 55 3d
       0.0062969383 0.03158891 0.021644559 0.052095022

bias f4 [32]
000000 8e 3c 6f 3d 43 60 b5 bc 45 af 8d bc d5 7a 40 3d
       0.05840736 -0.022140628 -0.01729549 0.04699214
000010 d1 3c b8 bc 78 94 3d bd 56 b6 1e bd 12 26 51 3d
       -0.022489937 -0.04628417 -0.038748108 0.051061697
000020 44 06 a2 3c e8 9c bc 3d be 6f 24 3d 9d ea 89 3d
       0.019778378 0.09209615 0.04014563 0.06734202
000030 df eb 80 3d b5 98 dc bc 71 aa 8b bc d6 a7 6d bd
       0.06294989 -0.026928285 -0.017049046 -0.05802139
000040 b5 cb 42 bd dd 0d 01 3d 00 76 8c 3d 10 dc b4 bc
       -0.04755755 0.03150736 0.06858444 -0.02207759
000050 7a b0 eb 3c 6e a2 13 3d ab 8f 3e bd 07 e2 10 3a
       0.028770674 0.036043577 -0.04652373 0.0005526845
000060 29 e2 20 bd 19 d5 93 3d 34 3b 93 3d 47 f5 6a bd
       -0.039278183 0.072183795 0.071890265 -0.05736282
000070 81 de 07 3c a3 be 88 ba 6c cf 74 3c 9a 44 74 3d
       0.008292795 -0.0010432791 0.014942031 0.059635736
